…
I0416 16:50:04.388694   688 common.cpp:197] Concurrent copy and execution: Yes
I0416 16:50:04.388711   688 common.cpp:199] Number of multiprocessors:     28
I0416 16:50:04.388725   688 common.cpp:200] Kernel execution timeout:      Yes
I0416 16:50:04.419669   688 net.cpp:53] Initializing net from parameters: 
name: "darknet-16c-16x-3d multitask TEST 960x384, offset L3:440, L4: 312, RM DET"
state {
  phase: TEST
  level: 0
}
layer {
  name: "input"
  type: "Input"
  top: "data"
  input_param {
    shape {
      dim: 1
      dim: 3
      dim: 480
      dim: 640
    }
  }
}
layer {
  name: "scale_data_lane"
  type: "Power"
  bottom: "data"
  top: "scale_data_lane"
  propagate_down: false
  power_param {
    power: 1
    scale: 0.00392157
    shift: 0
  }
}
layer {
  name: "conv1"
  type: "Convolution"
  bottom: "scale_data_lane"
  top: "conv1"
  param {
    lr_mult: 1
    decay_mult: 1
  }
  convolution_param {
    num_output: 16
    bias_term: false
    pad: 1
    kernel_size: 3
    stride: 1
    weight_filler {
      type: "gaussian"
      std: 0.01
    }
    dilation: 1
  }
}
layer {
  name: "conv1_bn"
  type: "BatchNorm"
  bottom: "conv1"
  top: "conv1"
  batch_norm_param {
    use_global_stats: true
    eps: 1e-06
  }
}
layer {
  name: "conv1_scale"
  type: "Scale"
  bottom: "conv1"
  top: "conv1"
  param {
    lr_mult: 1
    decay_mult: 1
  }
  param {
    lr_mult: 1
    decay_mult: 1
  }
  scale_param {
    filler {
      type: "constant"
      value: 1
    }
    bias_term: true
  }
}
layer {
  name: "conv1_relu"
  type: "ReLU"
  bottom: "conv1"
  top: "conv1"
  relu_param {
    negative_slope: 0
  }
}
layer {
  name: "pool1"
  type: "Pooling"
  bottom: "conv1"
  top: "pool1"
  pooling_param {
    pool: MAX
    kernel_size: 2
    stride: 2
    pad: 0
  }
}
layer {
  name: "conv2"
  type: "Convolution"
  bottom: "pool1"
  top: "conv2"
  param {
    lr_mult: 1
    decay_mult: 1
  }
  convolution_param {
    num_output: 32
    bias_term: false
    pad: 1
    kernel_size: 3
    stride: 1
    weight_filler {
      type: "gaussian"
      std: 0.01
    }
    dilation: 1
  }
}
layer {
  name: "conv2_bn"
  type: "BatchNorm"
  bottom: "conv2"
  top: "conv2"
  batch_norm_param {
    use_global_stats: true
    eps: 1e-06
  }
}
layer {
  name: "conv2_scale"
  type: "Scale"
  bottom: "conv2"
  top: "conv2"
  param {
    lr_mult: 1
    decay_mult: 1
  }
  param {
    lr_mult: 1
    decay_mult: 1
  }
  scale_param {
    filler {
      type: "constant"
      value: 1
    }
    bias_term: true
  }
}
layer {
  name: "conv2_relu"
  type: "ReLU"
  bottom: "conv2"
  top: "conv2"
  relu_param {
    negative_slope: 0
  }
}
layer {
  name: "pool2"
  type: "Pooling"
  bottom: "conv2"
  top: "pool2"
  pooling_param {
    pool: MAX
    kernel_size: 2
    stride: 2
    pad: 0
  }
}
layer {
  name: "conv3_1"
  type: "Convolution"
  bottom: "pool2"
  top: "conv3_1"
  param {
    lr_mult: 1
    decay_mult: 1
  }
  convolution_param {
    num_output: 64
    bias_term: false
    pad: 1
    kernel_size: 3
    stride: 1
    weight_filler {
      type: "gaussian"
      std: 0.01
    }
    dilation: 1
  }
}
layer {
  name: "conv3_1_bn"
  type: "BatchNorm"
  bottom: "conv3_1"
  top: "conv3_1"
  batch_norm_param {
    use_global_stats: true
    eps: 1e-06
  }
}
layer {
  name: "conv3_1_scale"
  type: "Scale"
  bottom: "conv3_1"
  top: "conv3_1"
  param {
    lr_mult: 1
    decay_mult: 1
  }
  param {
    lr_mult: 1
    decay_mult: 1
  }
  scale_param {
    filler {
      type: "constant"
      value: 1
    }
    bias_term: true
  }
}
layer {
  name: "conv3_1_relu"
  type: "ReLU"
  bottom: "conv3_1"
  top: "conv3_1"
  relu_param {
    negative_slope: 0
  }
}
layer {
  name: "conv3_2"
  type: "Convolution"
  bottom: "conv3_1"
  top: "conv3_2"
  param {
    lr_mult: 1
    decay_mult: 1
  }
  convolution_param {
    num_output: 32
    bias_term: false
    pad: 0
    kernel_size: 1
    stride: 1
    weight_filler {
      type: "gaussian"
      std: 0.01
    }
    dilation: 1
  }
}
layer {
  name: "conv3_2_bn"
  type: "BatchNorm"
  bottom: "conv3_2"
  top: "conv3_2"
  batch_norm_param {
    use_global_stats: true
    eps: 1e-06
  }
}
layer {
  name: "conv3_2_scale"
  type: "Scale"
  bottom: "conv3_2"
  top: "conv3_2"
  param {
    lr_mult: 1
    decay_mult: 1
  }
  param {
    lr_mult: 1
    decay_mult: 1
  }
  scale_param {
    filler {
      type: "constant"
      value: 1
    }
    bias_term: true
  }
}
layer {
  name: "conv3_2_relu"
  type: "ReLU"
  bottom: "conv3_2"
  top: "conv3_2"
  relu_param {
    negative_slope: 0
  }
}
layer {
  name: "conv3_3"
  type: "Convolution"
  bottom: "conv3_2"
  top: "conv3_3"
  param {
    lr_mult: 1
    decay_mult: 1
  }
  convolution_param {
    num_output: 64
    bias_term: false
    pad: 1
    kernel_size: 3
    stride: 1
    weight_filler {
      type: "gaussian"
      std: 0.01
    }
    dilation: 1
  }
}
layer {
  name: "conv3_3_bn"
  type: "BatchNorm"
  bottom: "conv3_3"
  top: "conv3_3"
  batch_norm_param {
    use_global_stats: true
    eps: 1e-06
  }
}
layer {
  name: "conv3_3_scale"
  type: "Scale"
  bottom: "conv3_3"
  top: "conv3_3"
  param {
    lr_mult: 1
    decay_mult: 1
  }
  param {
    lr_mult: 1
    decay_mult: 1
  }
  scale_param {
    filler {
      type: "constant"
      value: 1
    }
    bias_term: true
  }
}
layer {
  name: "conv3_3_relu"
  type: "ReLU"
  bottom: "conv3_3"
  top: "conv3_3"
  relu_param {
    negative_slope: 0
  }
}
layer {
  name: "pool3"
  type: "Pooling"
  bottom: "conv3_3"
  top: "pool3"
  pooling_param {
    pool: MAX
    kernel_size: 2
    stride: 2
    pad: 0
  }
}
layer {
  name: "conv4_1"
  type: "Convolution"
  bottom: "pool3"
  top: "conv4_1"
  param {
    lr_mult: 1
    decay_mult: 1
  }
  convolution_param {
    num_output: 128
    bias_term: false
    pad: 1
    kernel_size: 3
    stride: 1
    weight_filler {
      type: "gaussian"
      std: 0.01
    }
    dilation: 1
  }
}
layer {
  name: "conv4_1_bn"
  type: "BatchNorm"
  bottom: "conv4_1"
  top: "conv4_1"
  batch_norm_param {
    use_global_stats: true
    eps: 1e-06
  }
}
layer {
  name: "conv4_1_scale"
  type: "Scale"
  bottom: "conv4_1"
  top: "conv4_1"
  param {
    lr_mult: 1
    decay_mult: 1
  }
  param {
    lr_mult: 1
    decay_mult: 1
  }
  scale_param {
    filler {
      type: "constant"
      value: 1
    }
    bias_term: true
  }
}
layer {
  name: "conv4_1_relu"
  type: "ReLU"
  bottom: "conv4_1"
  top: "conv4_1"
  relu_param {
    negative_slope: 0
  }
}
layer {
  name: "conv4_2"
  type: "Convolution"
  bottom: "conv4_1"
  top: "conv4_2"
  param {
    lr_mult: 1
    decay_mult: 1
  }
  convolution_param {
    num_output: 64
    bias_term: false
    pad: 0
    kernel_size: 1
    stride: 1
    weight_filler {
      type: "gaussian"
      std: 0.01
    }
    dilation: 1
  }
}
layer {
  name: "conv4_2_bn"
  type: "BatchNorm"
  bottom: "conv4_2"
  top: "conv4_2"
  batch_norm_param {
    use_global_stats: true
    eps: 1e-06
  }
}
layer {
  name: "conv4_2_scale"
  type: "Scale"
  bottom: "conv4_2"
  top: "conv4_2"
  param {
    lr_mult: 1
    decay_mult: 1
  }
  param {
    lr_mult: 1
    decay_mult: 1
  }
  scale_param {
    filler {
      type: "constant"
      value: 1
    }
    bias_term: true
  }
}
layer {
  name: "conv4_2_relu"
  type: "ReLU"
  bottom: "conv4_2"
  top: "conv4_2"
  relu_param {
    negative_slope: 0
  }
}
layer {
  name: "conv4_3"
  type: "Convolution"
  bottom: "conv4_2"
  top: "conv4_3"
  param {
    lr_mult: 1
    decay_mult: 1
  }
  convolution_param {
    num_output: 128
    bias_term: false
    pad: 1
    kernel_size: 3
    stride: 1
    weight_filler {
      type: "gaussian"
      std: 0.01
    }
    dilation: 1
  }
}
layer {
  name: "conv4_3_bn"
  type: "BatchNorm"
  bottom: "conv4_3"
  top: "conv4_3"
  batch_norm_param {
    use_global_stats: true
    eps: 1e-06
  }
}
layer {
  name: "conv4_3_scale"
  type: "Scale"
  bottom: "conv4_3"
  top: "conv4_3"
  param {
    lr_mult: 1
    decay_mult: 1
  }
  param {
    lr_mult: 1
    decay_mult: 1
  }
  scale_param {
    filler {
      type: "constant"
      value: 1
    }
    bias_term: true
  }
}
layer {
  name: "conv4_3_relu"
  type: "ReLU"
  bottom: "conv4_3"
  top: "conv4_3"
  relu_param {
    negative_slope: 0
  }
}
layer {
  name: "pool4"
  type: "Pooling"
  bottom: "conv4_3"
  top: "pool4"
  pooling_param {
    pool: MAX
    kernel_size: 2
    stride: 2
    pad: 0
  }
}
layer {
  name: "conv5_1"
  type: "Convolution"
  bottom: "pool4"
  top: "conv5_1"
  param {
    lr_mult: 1
    decay_mult: 1
  }
  convolution_param {
    num_output: 256
    bias_term: false
    pad: 1
    kernel_size: 3
    stride: 1
    weight_filler {
      type: "gaussian"
      std: 0.01
    }
    dilation: 1
  }
}
layer {
  name: "conv5_1_bn"
  type: "BatchNorm"
  bottom: "conv5_1"
  top: "conv5_1"
  batch_norm_param {
    use_global_stats: true
    eps: 1e-06
  }
}
layer {
  name: "conv5_1_scale"
  type: "Scale"
  bottom: "conv5_1"
  top: "conv5_1"
  param {
    lr_mult: 1
    decay_mult: 1
  }
  param {
    lr_mult: 1
    decay_mult: 1
  }
  scale_param {
    filler {
      type: "constant"
      value: 1
    }
    bias_term: true
  }
}
layer {
  name: "conv5_1_relu"
  type: "ReLU"
  bottom: "conv5_1"
  top: "conv5_1"
  relu_param {
    negative_slope: 0
  }
}
layer {
  name: "conv5_2"
  type: "Convolution"
  bottom: "conv5_1"
  top: "conv5_2"
  param {
    lr_mult: 1
    decay_mult: 1
  }
  convolution_param {
    num_output: 128
    bias_term: false
    pad: 0
    kernel_size: 1
    stride: 1
    weight_filler {
      type: "gaussian"
      std: 0.01
    }
    dilation: 1
  }
}
layer {
  name: "conv5_2_bn"
  type: "BatchNorm"
  bottom: "conv5_2"
  top: "conv5_2"
  batch_norm_param {
    use_global_stats: true
    eps: 1e-06
  }
}
layer {
  name: "conv5_2_scale"
  type: "Scale"
  bottom: "conv5_2"
  top: "conv5_2"
  param {
    lr_mult: 1
    decay_mult: 1
  }
  param {
    lr_mult: 1
    decay_mult: 1
  }
  scale_param {
    filler {
      type: "constant"
      value: 1
    }
    bias_term: true
  }
}
layer {
  name: "conv5_2_relu"
  type: "ReLU"
  bottom: "conv5_2"
  top: "conv5_2"
  relu_param {
    negative_slope: 0
  }
}
layer {
  name: "conv5_3"
  type: "Convolution"
  bottom: "conv5_2"
  top: "conv5_3"
  param {
    lr_mult: 1
    decay_mult: 1
  }
  convolution_param {
    num_output: 256
    bias_term: false
    pad: 1
    kernel_size: 3
    stride: 1
    weight_filler {
      type: "gaussian"
      std: 0.01
    }
    dilation: 1
  }
}
layer {
  name: "conv5_3_bn"
  type: "BatchNorm"
  bottom: "conv5_3"
  top: "conv5_3"
  batch_norm_param {
    use_global_stats: true
    eps: 1e-06
  }
}
layer {
  name: "conv5_3_scale"
  type: "Scale"
  bottom: "conv5_3"
  top: "conv5_3"
  param {
    lr_mult: 1
    decay_mult: 1
  }
  param {
    lr_mult: 1
    decay_mult: 1
  }
  scale_param {
    filler {
      type: "constant"
      value: 1
    }
    bias_term: true
  }
}
layer {
  name: "conv5_3_relu"
  type: "ReLU"
  bottom: "conv5_3"
  top: "conv5_3"
  relu_param {
    negative_slope: 0
  }
}
layer {
  name: "conv5_4"
  type: "Convolution"
  bottom: "conv5_3"
  top: "conv5_4"
  param {
    lr_mult: 1
    decay_mult: 1
  }
  convolution_param {
    num_output: 128
    bias_term: false
    pad: 0
    kernel_size: 1
    stride: 1
    weight_filler {
      type: "gaussian"
      std: 0.01
    }
    dilation: 1
  }
}
layer {
  name: "conv5_4_bn"
  type: "BatchNorm"
  bottom: "conv5_4"
  top: "conv5_4"
  batch_norm_param {
    use_global_stats: true
    eps: 1e-06
  }
}
layer {
  name: "conv5_4_scale"
  type: "Scale"
  bottom: "conv5_4"
  top: "conv5_4"
  param {
    lr_mult: 1
    decay_mult: 1
  }
  param {
    lr_mult: 1
    decay_mult: 1
  }
  scale_param {
    filler {
      type: "constant"
      value: 1
    }
    bias_term: true
  }
}
layer {
  name: "conv5_4_relu"
  type: "ReLU"
  bottom: "conv5_4"
  top: "conv5_4"
  relu_param {
    negative_slope: 0
  }
}
layer {
  name: "conv5_5"
  type: "Convolution"
  bottom: "conv5_4"
  top: "conv5_5"
  param {
    lr_mult: 1
    decay_mult: 1
  }
  convolution_param {
    num_output: 256
    bias_term: false
    pad: 1
    kernel_size: 3
    stride: 1
    weight_filler {
      type: "gaussian"
      std: 0.01
    }
    dilation: 1
  }
}
layer {
  name: "conv5_5_bn"
  type: "BatchNorm"
  bottom: "conv5_5"
  top: "conv5_5"
  batch_norm_param {
    use_global_stats: true
    eps: 1e-06
  }
}
layer {
  name: "conv5_5_scale"
  type: "Scale"
  bottom: "conv5_5"
  top: "conv5_5"
  param {
    lr_mult: 1
    decay_mult: 1
  }
  param {
    lr_mult: 1
    decay_mult: 1
  }
  scale_param {
    filler {
      type: "constant"
      value: 1
    }
    bias_term: true
  }
}
layer {
  name: "conv5_5_relu"
  type: "ReLU"
  bottom: "conv5_5"
  top: "conv5_5"
  relu_param {
    negative_slope: 0
  }
}
layer {
  name: "pool5"
  type: "Pooling"
  bottom: "conv5_5"
  top: "pool5"
  pooling_param {
    pool: MAX
    kernel_size: 3
    stride: 1
    pad: 1
  }
}
layer {
  name: "conv6_1"
  type: "Convolution"
  bottom: "pool5"
  top: "conv6_1"
  param {
    lr_mult: 1
    decay_mult: 1
  }
  convolution_param {
    num_output: 512
    bias_term: false
    pad: 2
    kernel_size: 3
    stride: 1
    weight_filler {
      type: "gaussian"
      std: 0.01
    }
    dilation: 2
  }
}
layer {
  name: "conv6_1_bn"
  type: "BatchNorm"
  bottom: "conv6_1"
  top: "conv6_1"
  batch_norm_param {
    use_global_stats: true
    eps: 1e-06
  }
}
layer {
  name: "conv6_1_scale"
  type: "Scale"
  bottom: "conv6_1"
  top: "conv6_1"
  param {
    lr_mult: 1
    decay_mult: 1
  }
  param {
    lr_mult: 1
    decay_mult: 1
  }
  scale_param {
    filler {
      type: "constant"
      value: 1
    }
    bias_term: true
  }
}
layer {
  name: "conv6_1_relu"
  type: "ReLU"
  bottom: "conv6_1"
  top: "conv6_1"
  relu_param {
    negative_slope: 0
  }
}
layer {
  name: "conv6_2"
  type: "Convolution"
  bottom: "conv6_1"
  top: "conv6_2"
  param {
    lr_mult: 1
    decay_mult: 1
  }
  convolution_param {
    num_output: 256
    bias_term: false
    pad: 0
    kernel_size: 1
    stride: 1
    weight_filler {
      type: "gaussian"
      std: 0.01
    }
    dilation: 1
  }
}
layer {
  name: "conv6_2_bn"
  type: "BatchNorm"
  bottom: "conv6_2"
  top: "conv6_2"
  batch_norm_param {
    use_global_stats: true
    eps: 1e-06
  }
}
layer {
  name: "conv6_2_scale"
  type: "Scale"
  bottom: "conv6_2"
  top: "conv6_2"
  param {
    lr_mult: 1
    decay_mult: 1
  }
  param {
    lr_mult: 1
    decay_mult: 1
  }
  scale_param {
    filler {
      type: "constant"
      value: 1
    }
    bias_term: true
  }
}
layer {
  name: "conv6_2_relu"
  type: "ReLU"
  bottom: "conv6_2"
  top: "conv6_2"
  relu_param {
    negative_slope: 0
  }
}
layer {
  name: "conv6_3"
  type: "Convolution"
  bottom: "conv6_2"
  top: "conv6_3"
  param {
    lr_mult: 1
    decay_mult: 1
  }
  convolution_param {
    num_output: 512
    bias_term: false
    pad: 1
    kernel_size: 3
    stride: 1
    weight_filler {
      type: "gaussian"
      std: 0.01
    }
    dilation: 1
  }
}
layer {
  name: "conv6_3_bn"
  type: "BatchNorm"
  bottom: "conv6_3"
  top: "conv6_3"
  batch_norm_param {
    use_global_stats: true
    eps: 1e-06
  }
}
layer {
  name: "conv6_3_scale"
  type: "Scale"
  bottom: "conv6_3"
  top: "conv6_3"
  param {
    lr_mult: 1
    decay_mult: 1
  }
  param {
    lr_mult: 1
    decay_mult: 1
  }
  scale_param {
    filler {
      type: "constant"
      value: 1
    }
    bias_term: true
  }
}
layer {
  name: "conv6_3_relu"
  type: "ReLU"
  bottom: "conv6_3"
  top: "conv6_3"
  relu_param {
    negative_slope: 0
  }
}
layer {
  name: "conv6_4"
  type: "Convolution"
  bottom: "conv6_3"
  top: "conv6_4"
  param {
    lr_mult: 1
    decay_mult: 1
  }
  convolution_param {
    num_output: 256
    bias_term: false
    pad: 0
    kernel_size: 1
    stride: 1
    weight_filler {
      type: "gaussian"
      std: 0.01
    }
    dilation: 1
  }
}
layer {
  name: "conv6_4_bn"
  type: "BatchNorm"
  bottom: "conv6_4"
  top: "conv6_4"
  batch_norm_param {
    use_global_stats: true
    eps: 1e-06
  }
}
layer {
  name: "conv6_4_scale"
  type: "Scale"
  bottom: "conv6_4"
  top: "conv6_4"
  param {
    lr_mult: 1
    decay_mult: 1
  }
  param {
    lr_mult: 1
    decay_mult: 1
  }
  scale_param {
    filler {
      type: "constant"
      value: 1
    }
    bias_term: true
  }
}
layer {
  name: "conv6_4_relu"
  type: "ReLU"
  bottom: "conv6_4"
  top: "conv6_4"
  relu_param {
    negative_slope: 0
  }
}
layer {
  name: "conv6_5"
  type: "Convolution"
  bottom: "conv6_4"
  top: "conv6_5"
  param {
    lr_mult: 1
    decay_mult: 1
  }
  convolution_param {
    num_output: 512
    bias_term: false
    pad: 1
    kernel_size: 3
    stride: 1
    weight_filler {
      type: "gaussian"
      std: 0.01
    }
    dilation: 1
  }
}
layer {
  name: "conv6_5_bn"
  type: "BatchNorm"
  bottom: "conv6_5"
  top: "conv6_5"
  batch_norm_param {
    use_global_stats: true
    eps: 1e-06
  }
}
layer {
  name: "conv6_5_scale"
  type: "Scale"
  bottom: "conv6_5"
  top: "conv6_5"
  param {
    lr_mult: 1
    decay_mult: 1
  }
  param {
    lr_mult: 1
    decay_mult: 1
  }
  scale_param {
    filler {
      type: "constant"
      value: 1
    }
    bias_term: true
  }
}
layer {
  name: "conv6_5_relu"
  type: "ReLU"
  bottom: "conv6_5"
  top: "conv6_5"
  relu_param {
    negative_slope: 0
  }
}
layer {
  name: "conv7_1"
  type: "Convolution"
  bottom: "conv6_5"
  top: "conv7_1"
  param {
    lr_mult: 1
    decay_mult: 1
  }
  convolution_param {
    num_output: 512
    bias_term: false
    pad: 1
    kernel_size: 3
    stride: 1
    weight_filler {
      type: "gaussian"
      std: 0.01
    }
    dilation: 1
  }
}
layer {
  name: "conv7_1_bn"
  type: "BatchNorm"
  bottom: "conv7_1"
  top: "conv7_1"
  batch_norm_param {
    use_global_stats: true
    eps: 1e-06
  }
}
layer {
  name: "conv7_1_scale"
  type: "Scale"
  bottom: "conv7_1"
  top: "conv7_1"
  param {
    lr_mult: 1
    decay_mult: 1
  }
  param {
    lr_mult: 1
    decay_mult: 1
  }
  scale_param {
    filler {
      type: "constant"
      value: 1
    }
    bias_term: true
  }
}
layer {
  name: "conv7_1_relu"
  type: "ReLU"
  bottom: "conv7_1"
  top: "conv7_1"
  relu_param {
    negative_slope: 0
  }
}
layer {
  name: "conv7_2"
  type: "Convolution"
  bottom: "conv7_1"
  top: "conv7_2"
  param {
    lr_mult: 1
    decay_mult: 1
  }
  convolution_param {
    num_output: 512
    bias_term: false
    pad: 1
    kernel_size: 3
    stride: 1
    weight_filler {
      type: "gaussian"
      std: 0.01
    }
    dilation: 1
  }
}
layer {
  name: "conv7_2_bn"
  type: "BatchNorm"
  bottom: "conv7_2"
  top: "conv7_2"
  batch_norm_param {
    use_global_stats: true
    eps: 1e-06
  }
}
layer {
  name: "conv7_2_scale"
  type: "Scale"
  bottom: "conv7_2"
  top: "conv7_2"
  param {
    lr_mult: 1
    decay_mult: 1
  }
  param {
    lr_mult: 1
    decay_mult: 1
  }
  scale_param {
    filler {
      type: "constant"
      value: 1
    }
    bias_term: true
  }
}
layer {
  name: "conv7_2_relu"
  type: "ReLU"
  bottom: "conv7_2"
  top: "conv7_2"
  relu_param {
    negative_slope: 0
  }
}
layer {
  name: "concat8"
  type: "Concat"
  bottom: "conv5_5"
  bottom: "conv7_2"
  top: "concat8"
  concat_param {
    axis: 1
  }
}
layer {
  name: "reduce1_lane"
  type: "Convolution"
  bottom: "concat8"
  top: "reduce1_lane"
  param {
    lr_mult: 1
    decay_mult: 1
  }
  convolution_param {
    num_output: 128
    bias_term: false
    pad: 1
    kernel_size: 3
    stride: 1
    weight_filler {
      type: "gaussian"
      std: 0.01
    }
  }
}
layer {
  name: "reduce1_lane_bn"
  type: "BatchNorm"
  bottom: "reduce1_lane"
  top: "reduce1_lane"
  batch_norm_param {
    use_global_stats: true
    eps: 1e-06
  }
}
layer {
  name: "reduce1_lane_scale"
  type: "Scale"
  bottom: "reduce1_lane"
  top: "reduce1_lane"
  scale_param {
    filler {
      type: "constant"
      value: 1
    }
    bias_term: true
  }
}
layer {
  name: "reduce1_lane_relu"
  type: "ReLU"
  bottom: "reduce1_lane"
  top: "reduce1_lane"
  relu_param {
    negative_slope: 0
  }
}
layer {
  name: "deconv1_lane"
  type: "Deconvolution"
  bottom: "reduce1_lane"
  top: "deconv1_lane"
  param {
    lr_mult: 1
    decay_mult: 1
  }
  convolution_param {
    num_output: 64
    pad: 0
    kernel_size: 2
    stride: 2
    weight_filler {
      type: "xavier"
    }
    bias_filler {
      type: "constant"
      value: 0
    }
  }
}
layer {
  name: "deconv1_lane_bn"
  type: "BatchNorm"
  bottom: "deconv1_lane"
  top: "deconv1_lane"
  batch_norm_param {
    use_global_stats: true
    eps: 1e-06
  }
}
layer {
  name: "deconv1_lane_scale"
  type: "Scale"
  bottom: "deconv1_lane"
  top: "deconv1_lane"
  scale_param {
    filler {
      type: "constant"
      value: 1
    }
    bias_term: true
  }
}
layer {
  name: "deconv1_lane_relu"
  type: "ReLU"
  bottom: "deconv1_lane"
  top: "deconv1_lane"
  relu_param {
    negative_slope: 0
  }
}
layer {
  name: "reorg4"
  type: "Convolution"
  bottom: "conv4_3"
  top: "reorg4"
  param {
    lr_mult: 1
    decay_mult: 1
  }
  convolution_param {
    num_output: 64
    bias_term: false
    pad: 1
    kernel_size: 3
    stride: 1
    weight_filler {
      type: "gaussian"
      std: 0.01
    }
  }
}
layer {
  name: "reorg4_relu"
  type: "ReLU"
  bottom: "reorg4"
  top: "reorg4"
  relu_param {
    negative_slope: 0
  }
}
layer {
  name: "concat4"
  type: "Concat"
  bottom: "reorg4"
  bottom: "deconv1_lane"
  top: "concat4"
  concat_param {
    axis: 1
  }
}
layer {
  name: "reduce2_lane"
  type: "Convolution"
  bottom: "concat4"
  top: "reduce2_lane"
  param {
    lr_mult: 1
    decay_mult: 1
  }
  convolution_param {
    num_output: 64
    bias_term: false
    pad: 1
    kernel_size: 3
    stride: 1
    weight_filler {
      type: "gaussian"
      std: 0.01
    }
  }
}
layer {
  name: "reduce2_lane_bn"
  type: "BatchNorm"
  bottom: "reduce2_lane"
  top: "reduce2_lane"
  batch_norm_param {
    use_global_stats: true
    eps: 1e-06
  }
}
layer {
  name: "reduce2_lane_scale"
  type: "Scale"
  bottom: "reduce2_lane"
  top: "reduce2_lane"
  scale_param {
    filler {
      type: "constant"
      value: 1
    }
    bias_term: true
  }
}
layer {
  name: "reduce2_lane_relu"
  type: "ReLU"
  bottom: "reduce2_lane"
  top: "reduce2_lane"
  relu_param {
    negative_slope: 0
  }
}
layer {
  name: "Slice1"
  type: "Slice"
  bottom: "reduce2_lane"
  top: "slice1_1"
  top: "slice1_2"
  top: "slice1_3"
  top: "slice1_4"
  top: "slice1_5"
  top: "slice1_6"
  top: "slice1_7"
  top: "slice1_8"
  top: "slice1_9"
  top: "slice1_10"
  top: "slice1_11"
  top: "slice1_12"
  top: "slice1_13"
  top: "slice1_14"
  top: "slice1_15"
  top: "slice1_16"
  top: "slice1_17"
  top: "slice1_18"
  top: "slice1_19"
  top: "slice1_20"
  top: "slice1_21"
…
    slice_point: 33
    slice_point: 34
    slice_point: 35
    slice_point: 36
    slice_point: 37
    slice_point: 38
    slice_point: 39
    slice_point: 40
    slice_point: 41
    slice_point: 42
    slice_point: 43
    slice_point: 44
    slice_point: 45
    slice_point: 46
    slice_point: 47
    slice_point: 48
    slice_point: 49
    slice_point: 50
    slice_point: 51
    slice_point: 52
    slice_point: 53
    slice_point: 54
    slice_point: 55
    slice_point: 56
    slice_point: 57
    slice_point: 58
    slice_point: 59
    axis: 2
  }
}
layer {
  name: "SCNN_D_1"
  type: "Convolution"
  bottom: "slice1_1"
  top: "SCNN_D_1/message"
  param {
    name: "SCNN_D_w"
    lr_mult: 1
    decay_mult: 1
  }
  convolution_param {
    num_output: 64
    bias_term: false
    stride: 1
    weight_filler {
      type: "gaussian"
      std: 0.03536
    }
    pad_h: 0
    pad_w: 2
    kernel_h: 1
    kernel_w: 5
  }
}
layer {
  name: "SCNN_D_1/relu"
  type: "ReLU"
  bottom: "SCNN_D_1/message"
  top: "SCNN_D_1/message"
}
layer {
  name: "SCNN_D_1/sum"
  type: "Eltwise"
  bottom: "SCNN_D_1/message"
  bottom: "slice1_2"
  top: "SCNN_D_2"
  eltwise_param {
    operation: SUM
  }
}
layer {
  name: "SCNN_D_2"
  type: "Convolution"
  bottom: "SCNN_D_2"
  top: "SCNN_D_2/message"
  param {
    name: "SCNN_D_w"
    lr_mult: 1
    decay_mult: 1
  }
  convolution_param {
    num_output: 64
    bias_term: false
    stride: 1
    weight_filler {
      type: "gaussian"
      std: 0.03536
    }
    pad_h: 0
    pad_w: 2
    kernel_h: 1
    kernel_w: 5
  }
}
layer {
  name: "SCNN_D_2/relu"
  type: "ReLU"
  bottom: "SCNN_D_2/message"
  top: "SCNN_D_2/message"
}
layer {
  name: "SCNN_D_2/sum"
  type: "Eltwise"
  bottom: "SCNN_D_2/message"
  bottom: "slice1_3"
  top: "SCNN_D_3"
  eltwise_param {
    operation: SUM
  }
}
layer {
  name: "SCNN_D_3"
  type: "Convolution"
  bottom: "SCNN_D_3"
  top: "SCNN_D_3/message"
  param {
    name: "SCNN_D_w"
    lr_mult: 1
    decay_mult: 1
  }
  convolution_param {
    num_output: 64
    bias_term: false
    stride: 1
    weight_filler {
      type: "gaussian"
      std: 0.03536
    }
    pad_h: 0
    pad_w: 2
    kernel_h: 1
    kernel_w: 5
  }
}
layer {
  name: "SCNN_D_3/relu"
  type: "ReLU"
  bottom: "SCNN_D_3/message"
  top: "SCNN_D_3/message"
}
layer {
  name: "SCNN_D_3/sum"
  type: "Eltwise"
  bottom: "SCNN_D_3/message"
  bottom: "slice1_4"
  top: "SCNN_D_4"
  eltwise_param {
    operation: SUM
  }
}
layer {
  name: "SCNN_D_4"
  type: "Convolution"
  bottom: "SCNN_D_4"
  top: "SCNN_D_4/message"
  param {
    name: "SCNN_D_w"
    lr_mult: 1
    decay_mult: 1
  }
  convolution_param {
    num_output: 64
    bias_term: false
    stride: 1
    weight_filler {
      type: "gaussian"
      std: 0.03536
    }
    pad_h: 0
    pad_w: 2
    kernel_h: 1
    kernel_w: 5
  }
}
layer {
  name: "SCNN_D_4/relu"
  type: "ReLU"
  bottom: "SCNN_D_4/message"
  top: "SCNN_D_4/message"
}
layer {
  name: "SCNN_D_4/sum"
  type: "Eltwise"
  bottom: "SCNN_D_4/message"
  bottom: "slice1_5"
  top: "SCNN_D_5"
  eltwise_param {
    operation: SUM
  }
}
layer {
  name: "SCNN_D_5"
  type: "Convolution"
  bottom: "SCNN_D_5"
  top: "SCNN_D_5/message"
  param {
    name: "SCNN_D_w"
    lr_mult: 1
    decay_mult: 1
  }
  convolution_param {
    num_output: 64
    bias_term: false
    stride: 1
    weight_filler {
      type: "gaussian"
      std: 0.03536
    }
    pad_h: 0
    pad_w: 2
    kernel_h: 1
    kernel_w: 5
  }
}
layer {
  name: "SCNN_D_5/relu"
  type: "ReLU"
  bottom: "SCNN_D_5/message"
  top: "SCNN_D_5/message"
}
layer {
  name: "SCNN_D_5/sum"
  type: "Eltwise"
  bottom: "SCNN_D_5/message"
  bottom: "slice1_6"
  top: "SCNN_D_6"
  eltwise_param {
    operation: SUM
  }
}
layer {
  name: "SCNN_D_6"
  type: "Convolution"
  bottom: "SCNN_D_6"
  top: "SCNN_D_6/message"
  param {
    name: "SCNN_D_w"
    lr_mult: 1
    decay_mult: 1
  }
  convolution_param {
    num_output: 64
    bias_term: false
    stride: 1
    weight_filler {
      type: "gaussian"
      std: 0.03536
    }
    pad_h: 0
    pad_w: 2
    kernel_h: 1
    kernel_w: 5
  }
}
layer {
  name: "SCNN_D_6/relu"
  type: "ReLU"
  bottom: "SCNN_D_6/message"
  top: "SCNN_D_6/message"
}
layer {
  name: "SCNN_D_6/sum"
  type: "Eltwise"
  bottom: "SCNN_D_6/message"
  bottom: "slice1_7"
  top: "SCNN_D_7"
  eltwise_param {
    operation: SUM
  }
}
layer {
  name: "SCNN_D_7"
  type: "Convolution"
  bottom: "SCNN_D_7"
  top: "SCNN_D_7/message"
  param {
    name: "SCNN_D_w"
    lr_mult: 1
    decay_mult: 1
  }
  convolution_param {
    num_output: 64
    bias_term: false
    stride: 1
    weight_filler {
      type: "gaussian"
      std: 0.03536
    }
    pad_h: 0
    pad_w: 2
    kernel_h: 1
    kernel_w: 5
  }
}
layer {
  name: "SCNN_D_7/relu"
  type: "ReLU"
  bottom: "SCNN_D_7/message"
  top: "SCNN_D_7/message"
}
layer {
  name: "SCNN_D_7/sum"
  type: "Eltwise"
  bottom: "SCNN_D_7/message"
  bottom: "slice1_8"
  top: "SCNN_D_8"
  eltwise_param {
    operation: SUM
  }
}
layer {
  name: "SCNN_D_8"
  type: "Convolution"
  bottom: "SCNN_D_8"
  top: "SCNN_D_8/message"
  param {
    name: "SCNN_D_w"
    lr_mult: 1
    decay_mult: 1
  }
  convolution_param {
    num_output: 64
    bias_term: false
    stride: 1
    weight_filler {
      type: "gaussian"
      std: 0.03536
    }
    pad_h: 0
    pad_w: 2
    kernel_h: 1
    kernel_w: 5
  }
}
layer {
  name: "SCNN_D_8/relu"
  type: "ReLU"
  bottom: "SCNN_D_8/message"
  top: "SCNN_D_8/message"
}
layer {
  name: "SCNN_D_8/sum"
  type: "Eltwise"
  bottom: "SCNN_D_8/message"
  bottom: "slice1_9"
  top: "SCNN_D_9"
  eltwise_param {
    operation: SUM
  }
}
layer {
  name: "SCNN_D_9"
  type: "Convolution"
  bottom: "SCNN_D_9"
  top: "SCNN_D_9/message"
  param {
    name: "SCNN_D_w"
    lr_mult: 1
    decay_mult: 1
  }
  convolution_param {
    num_output: 64
    bias_term: false
    stride: 1
    weight_filler {
      type: "gaussian"
      std: 0.03536
    }
    pad_h: 
I0416 16:50:04.422785   688 layer_factory.hpp:77] Creating layer input
I0416 16:50:04.430699   688 net.cpp:86] Creating Layer input
I0416 16:50:04.430752   688 net.cpp:382] input -> data
I0416 16:50:04.448640   688 net.cpp:124] Setting up input
I0416 16:50:04.448765   688 net.cpp:131] Top shape: 1 3 480 640 (921600)
I0416 16:50:04.448789   688 net.cpp:139] Memory required for data: 3686400
I0416 16:50:04.448866   688 layer_factory.hpp:77] Creating layer scale_data_lane
I0416 16:50:04.449435   688 net.cpp:86] Creating Layer scale_data_lane
I0416 16:50:04.449553   688 net.cpp:408] scale_data_lane <- data
I0416 16:50:04.449656   688 net.cpp:382] scale_data_lane -> scale_data_lane
I0416 16:50:04.449898   688 net.cpp:124] Setting up scale_data_lane
I0416 16:50:04.449935   688 net.cpp:131] Top shape: 1 3 480 640 (921600)
I0416 16:50:04.449957   688 net.cpp:139] Memory required for data: 7372800
I0416 16:50:04.449975   688 layer_factory.hpp:77] Creating layer conv1
I0416 16:50:04.455395   688 net.cpp:86] Creating Layer conv1
I0416 16:50:04.455452   688 net.cpp:408] conv1 <- scale_data_lane
I0416 16:50:04.455487   688 net.cpp:382] conv1 -> conv1
I0416 16:50:04.479670   688 net.cpp:124] Setting up conv1
I0416 16:50:04.479746   688 net.cpp:131] Top shape: 1 16 480 640 (4915200)
I0416 16:50:04.479768   688 net.cpp:139] Memory required for data: 27033600
I0416 16:50:04.479974   688 layer_factory.hpp:77] Creating layer conv1_bn
I0416 16:50:04.480561   688 net.cpp:86] Creating Layer conv1_bn
I0416 16:50:04.480608   688 net.cpp:408] conv1_bn <- conv1
I0416 16:50:04.480643   688 net.cpp:369] conv1_bn -> conv1 (in-place)
I0416 16:50:04.483747   688 net.cpp:124] Setting up conv1_bn
I0416 16:50:04.483798   688 net.cpp:131] Top shape: 1 16 480 640 (4915200)
I0416 16:50:04.483822   688 net.cpp:139] Memory required for data: 46694400
I0416 16:50:04.483884   688 layer_factory.hpp:77] Creating layer conv1_scale
I0416 16:50:04.483969   688 net.cpp:86] Creating Layer conv1_scale
I0416 16:50:04.483992   688 net.cpp:408] conv1_scale <- conv1
I0416 16:50:04.484019   688 net.cpp:369] conv1_scale -> conv1 (in-place)
I0416 16:50:04.484396   688 layer_factory.hpp:77] Creating layer conv1_scale
I0416 16:50:04.489375   688 net.cpp:124] Setting up conv1_scale
I0416 16:50:04.489421   688 net.cpp:131] Top shape: 1 16 480 640 (4915200)
I0416 16:50:04.489444   688 net.cpp:139] Memory required for data: 66355200
I0416 16:50:04.489490   688 layer_factory.hpp:77] Creating layer conv1_relu
I0416 16:50:04.489585   688 net.cpp:86] Creating Layer conv1_relu
I0416 16:50:04.489606   688 net.cpp:408] conv1_relu <- conv1
I0416 16:50:04.489636   688 net.cpp:369] conv1_relu -> conv1 (in-place)
I0416 16:50:04.490669   688 net.cpp:124] Setting up conv1_relu
I0416 16:50:04.490715   688 net.cpp:131] Top shape: 1 16 480 640 (4915200)
I0416 16:50:04.490739   688 net.cpp:139] Memory required for data: 86016000
I0416 16:50:04.490761   688 layer_factory.hpp:77] Creating layer pool1
I0416 16:50:04.490849   688 net.cpp:86] Creating Layer pool1
I0416 16:50:04.490871   688 net.cpp:408] pool1 <- conv1
I0416 16:50:04.490902   688 net.cpp:382] pool1 -> pool1
I0416 16:50:04.491175   688 net.cpp:124] Setting up pool1
I0416 16:50:04.491209   688 net.cpp:131] Top shape: 1 16 240 320 (1228800)
I0416 16:50:04.491230   688 net.cpp:139] Memory required for data: 90931200
I0416 16:50:04.491252   688 layer_factory.hpp:77] Creating layer conv2
I0416 16:50:04.491294   688 net.cpp:86] Creating Layer conv2
I0416 16:50:04.491312   688 net.cpp:408] conv2 <- pool1
I0416 16:50:04.491338   688 net.cpp:382] conv2 -> conv2
I0416 16:50:04.496816   688 net.cpp:124] Setting up conv2
I0416 16:50:04.496870   688 net.cpp:131] Top shape: 1 32 240 320 (2457600)
I0416 16:50:04.496894   688 net.cpp:139] Memory required for data: 100761600
I0416 16:50:04.496920   688 layer_factory.hpp:77] Creating layer conv2_bn
I0416 16:50:04.496956   688 net.cpp:86] Creating Layer conv2_bn
I0416 16:50:04.496975   688 net.cpp:408] conv2_bn <- conv2
I0416 16:50:04.497009   688 net.cpp:369] conv2_bn -> conv2 (in-place)
I0416 16:50:04.497584   688 net.cpp:124] Setting up conv2_bn
I0416 16:50:04.497617   688 net.cpp:131] Top shape: 1 32 240 320 (2457600)
I0416 16:50:04.497637   688 net.cpp:139] Memory required for data: 110592000
I0416 16:50:04.497680   688 layer_factory.hpp:77] Creating layer conv2_scale
I0416 16:50:04.497707   688 net.cpp:86] Creating Layer conv2_scale
I0416 16:50:04.497727   688 net.cpp:408] conv2_scale <- conv2
I0416 16:50:04.497753   688 net.cpp:369] conv2_scale -> conv2 (in-place)
I0416 16:50:04.497871   688 layer_factory.hpp:77] Creating layer conv2_scale
I0416 16:50:04.498318   688 net.cpp:124] Setting up conv2_scale
I0416 16:50:04.498347   688 net.cpp:131] Top shape: 1 32 240 320 (2457600)
I0416 16:50:04.498368   688 net.cpp:139] Memory required for data: 120422400
I0416 16:50:04.498399   688 layer_factory.hpp:77] Creating layer conv2_relu
I0416 16:50:04.498422   688 net.cpp:86] Creating Layer conv2_relu
I0416 16:50:04.498440   688 net.cpp:408] conv2_relu <- conv2
I0416 16:50:04.498471   688 net.cpp:369] conv2_relu -> conv2 (in-place)
I0416 16:50:04.498787   688 net.cpp:124] Setting up conv2_relu
I0416 16:50:04.498821   688 net.cpp:131] Top shape: 1 32 240 320 (2457600)
I0416 16:50:04.498841   688 net.cpp:139] Memory required for data: 130252800
I0416 16:50:04.498860   688 layer_factory.hpp:77] Creating layer pool2
I0416 16:50:04.498886   688 net.cpp:86] Creating Layer pool2
I0416 16:50:04.498903   688 net.cpp:408] pool2 <- conv2
I0416 16:50:04.498931   688 net.cpp:382] pool2 -> pool2
I0416 16:50:04.499068   688 net.cpp:124] Setting up pool2
I0416 16:50:04.499094   688 net.cpp:131] Top shape: 1 32 120 160 (614400)
I0416 16:50:04.499112   688 net.cpp:139] Memory required for data: 132710400
I0416 16:50:04.499131   688 layer_factory.hpp:77] Creating layer conv3_1
I0416 16:50:04.499171   688 net.cpp:86] Creating Layer conv3_1
I0416 16:50:04.499188   688 net.cpp:408] conv3_1 <- pool2
I0416 16:50:04.499220   688 net.cpp:382] conv3_1 -> conv3_1
I0416 16:50:04.504416   688 net.cpp:124] Setting up conv3_1
I0416 16:50:04.504448   688 net.cpp:131] Top shape: 1 64 120 160 (1228800)
I0416 16:50:04.504467   688 net.cpp:139] Memory required for data: 137625600
I0416 16:50:04.504485   688 layer_factory.hpp:77] Creating layer conv3_1_bn
I0416 16:50:04.504511   688 net.cpp:86] Creating Layer conv3_1_bn
I0416 16:50:04.504525   688 net.cpp:408] conv3_1_bn <- conv3_1
I0416 16:50:04.504544   688 net.cpp:369] conv3_1_bn -> conv3_1 (in-place)
I0416 16:50:04.504905   688 net.cpp:124] Setting up conv3_1_bn
I0416 16:50:04.504925   688 net.cpp:131] Top shape: 1 64 120 160 (1228800)
I0416 16:50:04.504940   688 net.cpp:139] Memory required for data: 142540800
I0416 16:50:04.504966   688 layer_factory.hpp:77] Creating layer conv3_1_scale
I0416 16:50:04.504984   688 net.cpp:86] Creating Layer conv3_1_scale
I0416 16:50:04.504997   688 net.cpp:408] conv3_1_scale <- conv3_1
I0416 16:50:04.505017   688 net.cpp:369] conv3_1_scale -> conv3_1 (in-place)
I0416 16:50:04.505095   688 layer_factory.hpp:77] Creating layer conv3_1_scale
I0416 16:50:04.505331   688 net.cpp:124] Setting up conv3_1_scale
I0416 16:50:04.505350   688 net.cpp:131] Top shape: 1 64 120 160 (1228800)
I0416 16:50:04.505364   688 net.cpp:139] Memory required for data: 147456000
I0416 16:50:04.505395   688 layer_factory.hpp:77] Creating layer conv3_1_relu
I0416 16:50:04.505412   688 net.cpp:86] Creating Layer conv3_1_relu
I0416 16:50:04.505424   688 net.cpp:408] conv3_1_relu <- conv3_1
I0416 16:50:04.505445   688 net.cpp:369] conv3_1_relu -> conv3_1 (in-place)
I0416 16:50:04.506008   688 net.cpp:124] Setting up conv3_1_relu
I0416 16:50:04.506036   688 net.cpp:131] Top shape: 1 64 120 160 (1228800)
I0416 16:50:04.506053   688 net.cpp:139] Memory required for data: 152371200
I0416 16:50:04.506067   688 layer_factory.hpp:77] Creating layer conv3_2
I0416 16:50:04.506103   688 net.cpp:86] Creating Layer conv3_2
I0416 16:50:04.506115   688 net.cpp:408] conv3_2 <- conv3_1
I0416 16:50:04.506139   688 net.cpp:382] conv3_2 -> conv3_2
I0416 16:50:04.507596   688 net.cpp:124] Setting up conv3_2
I0416 16:50:04.507622   688 net.cpp:131] Top shape: 1 32 120 160 (614400)
I0416 16:50:04.507633   688 net.cpp:139] Memory required for data: 154828800
I0416 16:50:04.507649   688 layer_factory.hpp:77] Creating layer conv3_2_bn
I0416 16:50:04.507663   688 net.cpp:86] Creating Layer conv3_2_bn
I0416 16:50:04.507673   688 net.cpp:408] conv3_2_bn <- conv3_2
I0416 16:50:04.507689   688 net.cpp:369] conv3_2_bn -> conv3_2 (in-place)
I0416 16:50:04.507972   688 net.cpp:124] Setting up conv3_2_bn
I0416 16:50:04.507990   688 net.cpp:131] Top shape: 1 32 120 160 (614400)
I0416 16:50:04.508000   688 net.cpp:139] Memory required for data: 157286400
I0416 16:50:04.508018   688 layer_factory.hpp:77] Creating layer conv3_2_scale
I0416 16:50:04.508033   688 net.cpp:86] Creating Layer conv3_2_scale
I0416 16:50:04.508041   688 net.cpp:408] conv3_2_scale <- conv3_2
I0416 16:50:04.508055   688 net.cpp:369] conv3_2_scale -> conv3_2 (in-place)
I0416 16:50:04.508116   688 layer_factory.hpp:77] Creating layer conv3_2_scale
I0416 16:50:04.508307   688 net.cpp:124] Setting up conv3_2_scale
I0416 16:50:04.508322   688 net.cpp:131] Top shape: 1 32 120 160 (614400)
I0416 16:50:04.508332   688 net.cpp:139] Memory required for data: 159744000
I0416 16:50:04.508347   688 layer_factory.hpp:77] Creating layer conv3_2_relu
I0416 16:50:04.508363   688 net.cpp:86] Creating Layer conv3_2_relu
I0416 16:50:04.508373   688 net.cpp:408] conv3_2_relu <- conv3_2
I0416 16:50:04.508383   688 net.cpp:369] conv3_2_relu -> conv3_2 (in-place)
I0416 16:50:04.508853   688 net.cpp:124] Setting up conv3_2_relu
I0416 16:50:04.508874   688 net.cpp:131] Top shape: 1 32 120 160 (614400)
I0416 16:50:04.508885   688 net.cpp:139] Memory required for data: 162201600
I0416 16:50:04.508896   688 layer_factory.hpp:77] Creating layer conv3_3
I0416 16:50:04.508918   688 net.cpp:86] Creating Layer conv3_3
I0416 16:50:04.508927   688 net.cpp:408] conv3_3 <- conv3_2
I0416 16:50:04.508941   688 net.cpp:382] conv3_3 -> conv3_3
I0416 16:50:04.511976   688 net.cpp:124] Setting up conv3_3
I0416 16:50:04.512003   688 net.cpp:131] Top shape: 1 64 120 160 (1228800)
I0416 16:50:04.512015   688 net.cpp:139] Memory required for data: 167116800
I0416 16:50:04.512030   688 layer_factory.hpp:77] Creating layer conv3_3_bn
I0416 16:50:04.512044   688 net.cpp:86] Creating Layer conv3_3_bn
I0416 16:50:04.512054   688 net.cpp:408] conv3_3_bn <- conv3_3
I0416 16:50:04.512070   688 net.cpp:369] conv3_3_bn -> conv3_3 (in-place)
I0416 16:50:04.512326   688 net.cpp:124] Setting up conv3_3_bn
I0416 16:50:04.512338   688 net.cpp:131] Top shape: 1 64 120 160 (1228800)
I0416 16:50:04.512347   688 net.cpp:139] Memory required for data: 172032000
I0416 16:50:04.512362   688 layer_factory.hpp:77] Creating layer conv3_3_scale
I0416 16:50:04.512375   688 net.cpp:86] Creating Layer conv3_3_scale
I0416 16:50:04.512382   688 net.cpp:408] conv3_3_scale <- conv3_3
I0416 16:50:04.512394   688 net.cpp:369] conv3_3_scale -> conv3_3 (in-place)
I0416 16:50:04.512444   688 layer_factory.hpp:77] Creating layer conv3_3_scale
I0416 16:50:04.512583   688 net.cpp:124] Setting up conv3_3_scale
I0416 16:50:04.512598   688 net.cpp:131] Top shape: 1 64 120 160 (1228800)
I0416 16:50:04.512605   688 net.cpp:139] Memory required for data: 176947200
I0416 16:50:04.512617   688 layer_factory.hpp:77] Creating layer conv3_3_relu
I0416 16:50:04.512627   688 net.cpp:86] Creating Layer conv3_3_relu
I0416 16:50:04.512635   688 net.cpp:408] conv3_3_relu <- conv3_3
I0416 16:50:04.512647   688 net.cpp:369] conv3_3_relu -> conv3_3 (in-place)
I0416 16:50:04.512773   688 net.cpp:124] Setting up conv3_3_relu
I0416 16:50:04.512786   688 net.cpp:131] Top shape: 1 64 120 160 (1228800)
I0416 16:50:04.512795   688 net.cpp:139] Memory required for data: 181862400
I0416 16:50:04.512804   688 layer_factory.hpp:77] Creating layer pool3
I0416 16:50:04.512818   688 net.cpp:86] Creating Layer pool3
I0416 16:50:04.512825   688 net.cpp:408] pool3 <- conv3_3
I0416 16:50:04.512838   688 net.cpp:382] pool3 -> pool3
I0416 16:50:04.512888   688 net.cpp:124] Setting up pool3
I0416 16:50:04.512899   688 net.cpp:131] Top shape: 1 64 60 80 (307200)
I0416 16:50:04.512907   688 net.cpp:139] Memory required for data: 183091200
I0416 16:50:04.512915   688 layer_factory.hpp:77] Creating layer conv4_1
I0416 16:50:04.512929   688 net.cpp:86] Creating Layer conv4_1
I0416 16:50:04.512936   688 net.cpp:408] conv4_1 <- pool3
I0416 16:50:04.512948   688 net.cpp:382] conv4_1 -> conv4_1
I0416 16:50:04.520954   688 net.cpp:124] Setting up conv4_1
I0416 16:50:04.520975   688 net.cpp:131] Top shape: 1 128 60 80 (614400)
I0416 16:50:04.520987   688 net.cpp:139] Memory required for data: 185548800
I0416 16:50:04.520998   688 layer_factory.hpp:77] Creating layer conv4_1_bn
I0416 16:50:04.521009   688 net.cpp:86] Creating Layer conv4_1_bn
I0416 16:50:04.521018   688 net.cpp:408] conv4_1_bn <- conv4_1
I0416 16:50:04.521028   688 net.cpp:369] conv4_1_bn -> conv4_1 (in-place)
I0416 16:50:04.521229   688 net.cpp:124] Setting up conv4_1_bn
I0416 16:50:04.521239   688 net.cpp:131] Top shape: 1 128 60 80 (614400)
I0416 16:50:04.521246   688 net.cpp:139] Memory required for data: 188006400
I0416 16:50:04.521267   688 layer_factory.hpp:77] Creating layer conv4_1_scale
I0416 16:50:04.521278   688 net.cpp:86] Creating Layer conv4_1_scale
I0416 16:50:04.521286   688 net.cpp:408] conv4_1_scale <- conv4_1
I0416 16:50:04.521294   688 net.cpp:369] conv4_1_scale -> conv4_1 (in-place)
I0416 16:50:04.521347   688 layer_factory.hpp:77] Creating layer conv4_1_scale
I0416 16:50:04.521461   688 net.cpp:124] Setting up conv4_1_scale
I0416 16:50:04.521471   688 net.cpp:131] Top shape: 1 128 60 80 (614400)
I0416 16:50:04.521478   688 net.cpp:139] Memory required for data: 190464000
I0416 16:50:04.521489   688 layer_factory.hpp:77] Creating layer conv4_1_relu
I0416 16:50:04.521499   688 net.cpp:86] Creating Layer conv4_1_relu
I0416 16:50:04.521505   688 net.cpp:408] conv4_1_relu <- conv4_1
I0416 16:50:04.521514   688 net.cpp:369] conv4_1_relu -> conv4_1 (in-place)
I0416 16:50:04.521888   688 net.cpp:124] Setting up conv4_1_relu
I0416 16:50:04.521904   688 net.cpp:131] Top shape: 1 128 60 80 (614400)
I0416 16:50:04.521914   688 net.cpp:139] Memory required for data: 192921600
I0416 16:50:04.521919   688 layer_factory.hpp:77] Creating layer conv4_2
I0416 16:50:04.521934   688 net.cpp:86] Creating Layer conv4_2
I0416 16:50:04.521940   688 net.cpp:408] conv4_2 <- conv4_1
I0416 16:50:04.521955   688 net.cpp:382] conv4_2 -> conv4_2
I0416 16:50:04.523288   688 net.cpp:124] Setting up conv4_2
I0416 16:50:04.523300   688 net.cpp:131] Top shape: 1 64 60 80 (307200)
I0416 16:50:04.523308   688 net.cpp:139] Memory required for data: 194150400
I0416 16:50:04.523316   688 layer_factory.hpp:77] Creating layer conv4_2_bn
I0416 16:50:04.523327   688 net.cpp:86] Creating Layer conv4_2_bn
I0416 16:50:04.523334   688 net.cpp:408] conv4_2_bn <- conv4_2
I0416 16:50:04.523341   688 net.cpp:369] conv4_2_bn -> conv4_2 (in-place)
I0416 16:50:04.523506   688 net.cpp:124] Setting up conv4_2_bn
I0416 16:50:04.523515   688 net.cpp:131] Top shape: 1 64 60 80 (307200)
I0416 16:50:04.523521   688 net.cpp:139] Memory required for data: 195379200
I0416 16:50:04.523532   688 layer_factory.hpp:77] Creating layer conv4_2_scale
I0416 16:50:04.523541   688 net.cpp:86] Creating Layer conv4_2_scale
I0416 16:50:04.523546   688 net.cpp:408] conv4_2_scale <- conv4_2
I0416 16:50:04.523555   688 net.cpp:369] conv4_2_scale -> conv4_2 (in-place)
I0416 16:50:04.523591   688 layer_factory.hpp:77] Creating layer conv4_2_scale
I0416 16:50:04.523691   688 net.cpp:124] Setting up conv4_2_scale
I0416 16:50:04.523701   688 net.cpp:131] Top shape: 1 64 60 80 (307200)
I0416 16:50:04.523707   688 net.cpp:139] Memory required for data: 196608000
I0416 16:50:04.523716   688 layer_factory.hpp:77] Creating layer conv4_2_relu
I0416 16:50:04.523730   688 net.cpp:86] Creating Layer conv4_2_relu
I0416 16:50:04.523735   688 net.cpp:408] conv4_2_relu <- conv4_2
I0416 16:50:04.523742   688 net.cpp:369] conv4_2_relu -> conv4_2 (in-place)
I0416 16:50:04.523842   688 net.cpp:124] Setting up conv4_2_relu
I0416 16:50:04.523854   688 net.cpp:131] Top shape: 1 64 60 80 (307200)
I0416 16:50:04.523860   688 net.cpp:139] Memory required for data: 197836800
I0416 16:50:04.523866   688 layer_factory.hpp:77] Creating layer conv4_3
I0416 16:50:04.523878   688 net.cpp:86] Creating Layer conv4_3
I0416 16:50:04.523885   688 net.cpp:408] conv4_3 <- conv4_2
I0416 16:50:04.523893   688 net.cpp:382] conv4_3 -> conv4_3
I0416 16:50:04.528753   688 net.cpp:124] Setting up conv4_3
I0416 16:50:04.528765   688 net.cpp:131] Top shape: 1 128 60 80 (614400)
I0416 16:50:04.528771   688 net.cpp:139] Memory required for data: 200294400
I0416 16:50:04.528779   688 layer_factory.hpp:77] Creating layer conv4_3_bn
I0416 16:50:04.528787   688 net.cpp:86] Creating Layer conv4_3_bn
I0416 16:50:04.528793   688 net.cpp:408] conv4_3_bn <- conv4_3
I0416 16:50:04.528800   688 net.cpp:369] conv4_3_bn -> conv4_3 (in-place)
I0416 16:50:04.529512   688 net.cpp:124] Setting up conv4_3_bn
I0416 16:50:04.529525   688 net.cpp:131] Top shape: 1 128 60 80 (614400)
I0416 16:50:04.529531   688 net.cpp:139] Memory required for data: 202752000
I0416 16:50:04.529541   688 layer_factory.hpp:77] Creating layer conv4_3_scale
I0416 16:50:04.529551   688 net.cpp:86] Creating Layer conv4_3_scale
I0416 16:50:04.529556   688 net.cpp:408] conv4_3_scale <- conv4_3
I0416 16:50:04.529562   688 net.cpp:369] conv4_3_scale -> conv4_3 (in-place)
I0416 16:50:04.529598   688 layer_factory.hpp:77] Creating layer conv4_3_scale
I0416 16:50:04.529678   688 net.cpp:124] Setting up conv4_3_scale
I0416 16:50:04.529685   688 net.cpp:131] Top shape: 1 128 60 80 (614400)
I0416 16:50:04.529691   688 net.cpp:139] Memory required for data: 205209600
I0416 16:50:04.529698   688 layer_factory.hpp:77] Creating layer conv4_3_relu
I0416 16:50:04.529706   688 net.cpp:86] Creating Layer conv4_3_relu
I0416 16:50:04.529711   688 net.cpp:408] conv4_3_relu <- conv4_3
I0416 16:50:04.529717   688 net.cpp:369] conv4_3_relu -> conv4_3 (in-place)
I0416 16:50:04.529976   688 net.cpp:124] Setting up conv4_3_relu
I0416 16:50:04.529987   688 net.cpp:131] Top shape: 1 128 60 80 (614400)
I0416 16:50:04.529992   688 net.cpp:139] Memory required for data: 207667200
I0416 16:50:04.529997   688 layer_factory.hpp:77] Creating layer conv4_3_conv4_3_relu_0_split
I0416 16:50:04.530005   688 net.cpp:86] Creating Layer conv4_3_conv4_3_relu_0_split
I0416 16:50:04.530012   688 net.cpp:408] conv4_3_conv4_3_relu_0_split <- conv4_3
I0416 16:50:04.530019   688 net.cpp:382] conv4_3_conv4_3_relu_0_split -> conv4_3_conv4_3_relu_0_split_0
I0416 16:50:04.530026   688 net.cpp:382] conv4_3_conv4_3_relu_0_split -> conv4_3_conv4_3_relu_0_split_1
I0416 16:50:04.530077   688 net.cpp:124] Setting up conv4_3_conv4_3_relu_0_split
I0416 16:50:04.530083   688 net.cpp:131] Top shape: 1 128 60 80 (614400)
I0416 16:50:04.530086   688 net.cpp:131] Top shape: 1 128 60 80 (614400)
I0416 16:50:04.530088   688 net.cpp:139] Memory required for data: 212582400
I0416 16:50:04.530092   688 layer_factory.hpp:77] Creating layer pool4
I0416 16:50:04.530097   688 net.cpp:86] Creating Layer pool4
I0416 16:50:04.530099   688 net.cpp:408] pool4 <- conv4_3_conv4_3_relu_0_split_0
I0416 16:50:04.530119   688 net.cpp:382] pool4 -> pool4
I0416 16:50:04.530148   688 net.cpp:124] Setting up pool4
I0416 16:50:04.530154   688 net.cpp:131] Top shape: 1 128 30 40 (153600)
I0416 16:50:04.530156   688 net.cpp:139] Memory required for data: 213196800
I0416 16:50:04.530158   688 layer_factory.hpp:77] Creating layer conv5_1
I0416 16:50:04.530164   688 net.cpp:86] Creating Layer conv5_1
I0416 16:50:04.530166   688 net.cpp:408] conv5_1 <- pool4
I0416 16:50:04.530174   688 net.cpp:382] conv5_1 -> conv5_1
I0416 16:50:04.544862   688 net.cpp:124] Setting up conv5_1
I0416 16:50:04.544879   688 net.cpp:131] Top shape: 1 256 30 40 (307200)
I0416 16:50:04.544883   688 net.cpp:139] Memory required for data: 214425600
I0416 16:50:04.544888   688 layer_factory.hpp:77] Creating layer conv5_1_bn
I0416 16:50:04.544893   688 net.cpp:86] Creating Layer conv5_1_bn
I0416 16:50:04.544895   688 net.cpp:408] conv5_1_bn <- conv5_1
I0416 16:50:04.544901   688 net.cpp:369] conv5_1_bn -> conv5_1 (in-place)
I0416 16:50:04.545028   688 net.cpp:124] Setting up conv5_1_bn
I0416 16:50:04.545033   688 net.cpp:131] Top shape: 1 256 30 40 (307200)
I0416 16:50:04.545035   688 net.cpp:139] Memory required for data: 215654400
I0416 16:50:04.545040   688 layer_factory.hpp:77] Creating layer conv5_1_scale
I0416 16:50:04.545045   688 net.cpp:86] Creating Layer conv5_1_scale
I0416 16:50:04.545048   688 net.cpp:408] conv5_1_scale <- conv5_1
I0416 16:50:04.545051   688 net.cpp:369] conv5_1_scale -> conv5_1 (in-place)
I0416 16:50:04.545075   688 layer_factory.hpp:77] Creating layer conv5_1_scale
I0416 16:50:04.545135   688 net.cpp:124] Setting up conv5_1_scale
I0416 16:50:04.545140   688 net.cpp:131] Top shape: 1 256 30 40 (307200)
I0416 16:50:04.545141   688 net.cpp:139] Memory required for data: 216883200
I0416 16:50:04.545145   688 layer_factory.hpp:77] Creating layer conv5_1_relu
I0416 16:50:04.545148   688 net.cpp:86] Creating Layer conv5_1_relu
I0416 16:50:04.545150   688 net.cpp:408] conv5_1_relu <- conv5_1
I0416 16:50:04.545152   688 net.cpp:369] conv5_1_relu -> conv5_1 (in-place)
I0416 16:50:04.545241   688 net.cpp:124] Setting up conv5_1_relu
I0416 16:50:04.545248   688 net.cpp:131] Top shape: 1 256 30 40 (307200)
I0416 16:50:04.545249   688 net.cpp:139] Memory required for data: 218112000
I0416 16:50:04.545251   688 layer_factory.hpp:77] Creating layer conv5_2
I0416 16:50:04.545258   688 net.cpp:86] Creating Layer conv5_2
I0416 16:50:04.545259   688 net.cpp:408] conv5_2 <- conv5_1
I0416 16:50:04.545264   688 net.cpp:382] conv5_2 -> conv5_2
I0416 16:50:04.547216   688 net.cpp:124] Setting up conv5_2
I0416 16:50:04.547226   688 net.cpp:131] Top shape: 1 128 30 40 (153600)
I0416 16:50:04.547228   688 net.cpp:139] Memory required for data: 218726400
I0416 16:50:04.547231   688 layer_factory.hpp:77] Creating layer conv5_2_bn
I0416 16:50:04.547235   688 net.cpp:86] Creating Layer conv5_2_bn
I0416 16:50:04.547237   688 net.cpp:408] conv5_2_bn <- conv5_2
I0416 16:50:04.547241   688 net.cpp:369] conv5_2_bn -> conv5_2 (in-place)
I0416 16:50:04.547343   688 net.cpp:124] Setting up conv5_2_bn
I0416 16:50:04.547348   688 net.cpp:131] Top shape: 1 128 30 40 (153600)
I0416 16:50:04.547350   688 net.cpp:139] Memory required for data: 219340800
I0416 16:50:04.547354   688 layer_factory.hpp:77] Creating layer conv5_2_scale
I0416 16:50:04.547358   688 net.cpp:86] Creating Layer conv5_2_scale
I0416 16:50:04.547360   688 net.cpp:408] conv5_2_scale <- conv5_2
I0416 16:50:04.547363   688 net.cpp:369] conv5_2_scale -> conv5_2 (in-place)
I0416 16:50:04.547384   688 layer_factory.hpp:77] Creating layer conv5_2_scale
I0416 16:50:04.547441   688 net.cpp:124] Setting up conv5_2_scale
I0416 16:50:04.547446   688 net.cpp:131] Top shape: 1 128 30 40 (153600)
I0416 16:50:04.547448   688 net.cpp:139] Memory required for data: 219955200
I0416 16:50:04.547451   688 layer_factory.hpp:77] Creating layer conv5_2_relu
I0416 16:50:04.547454   688 net.cpp:86] Creating Layer conv5_2_relu
I0416 16:50:04.547456   688 net.cpp:408] conv5_2_relu <- conv5_2
I0416 16:50:04.547459   688 net.cpp:369] conv5_2_relu -> conv5_2 (in-place)
I0416 16:50:04.547678   688 net.cpp:124] Setting up conv5_2_relu
I0416 16:50:04.547686   688 net.cpp:131] Top shape: 1 128 30 40 (153600)
I0416 16:50:04.547688   688 net.cpp:139] Memory required for data: 220569600
I0416 16:50:04.547690   688 layer_factory.hpp:77] Creating layer conv5_3
I0416 16:50:04.547696   688 net.cpp:86] Creating Layer conv5_3
I0416 16:50:04.547698   688 net.cpp:408] conv5_3 <- conv5_2
I0416 16:50:04.547701   688 net.cpp:382] conv5_3 -> conv5_3
I0416 16:50:04.560899   688 net.cpp:124] Setting up conv5_3
I0416 16:50:04.560909   688 net.cpp:131] Top shape: 1 256 30 40 (307200)
I0416 16:50:04.560910   688 net.cpp:139] Memory required for data: 221798400
I0416 16:50:04.560914   688 layer_factory.hpp:77] Creating layer conv5_3_bn
I0416 16:50:04.560919   688 net.cpp:86] Creating Layer conv5_3_bn
I0416 16:50:04.560920   688 net.cpp:408] conv5_3_bn <- conv5_3
I0416 16:50:04.560923   688 net.cpp:369] conv5_3_bn -> conv5_3 (in-place)
I0416 16:50:04.561031   688 net.cpp:124] Setting up conv5_3_bn
I0416 16:50:04.561036   688 net.cpp:131] Top shape: 1 256 30 40 (307200)
I0416 16:50:04.561038   688 net.cpp:139] Memory required for data: 223027200
I0416 16:50:04.561043   688 layer_factory.hpp:77] Creating layer conv5_3_scale
I0416 16:50:04.561046   688 net.cpp:86] Creating Layer conv5_3_scale
I0416 16:50:04.561048   688 net.cpp:408] conv5_3_scale <- conv5_3
I0416 16:50:04.561053   688 net.cpp:369] conv5_3_scale -> conv5_3 (in-place)
I0416 16:50:04.561074   688 layer_factory.hpp:77] Creating layer conv5_3_scale
I0416 16:50:04.561131   688 net.cpp:124] Setting up conv5_3_scale
I0416 16:50:04.561136   688 net.cpp:131] Top shape: 1 256 30 40 (307200)
I0416 16:50:04.561138   688 net.cpp:139] Memory required for data: 224256000
I0416 16:50:04.561149   688 layer_factory.hpp:77] Creating layer conv5_3_relu
I0416 16:50:04.561153   688 net.cpp:86] Creating Layer conv5_3_relu
I0416 16:50:04.561156   688 net.cpp:408] conv5_3_relu <- conv5_3
I0416 16:50:04.561157   688 net.cpp:369] conv5_3_relu -> conv5_3 (in-place)
I0416 16:50:04.561378   688 net.cpp:124] Setting up conv5_3_relu
I0416 16:50:04.561385   688 net.cpp:131] Top shape: 1 256 30 40 (307200)
I0416 16:50:04.561388   688 net.cpp:139] Memory required for data: 225484800
I0416 16:50:04.561389   688 layer_factory.hpp:77] Creating layer conv5_4
I0416 16:50:04.561394   688 net.cpp:86] Creating Layer conv5_4
I0416 16:50:04.561396   688 net.cpp:408] conv5_4 <- conv5_3
I0416 16:50:04.561400   688 net.cpp:382] conv5_4 -> conv5_4
I0416 16:50:04.564165   688 net.cpp:124] Setting up conv5_4
I0416 16:50:04.564177   688 net.cpp:131] Top shape: 1 128 30 40 (153600)
I0416 16:50:04.564179   688 net.cpp:139] Memory required for data: 226099200
I0416 16:50:04.564183   688 layer_factory.hpp:77] Creating layer conv5_4_bn
I0416 16:50:04.564188   688 net.cpp:86] Creating Layer conv5_4_bn
I0416 16:50:04.564189   688 net.cpp:408] conv5_4_bn <- conv5_4
I0416 16:50:04.564193   688 net.cpp:369] conv5_4_bn -> conv5_4 (in-place)
I0416 16:50:04.564298   688 net.cpp:124] Setting up conv5_4_bn
I0416 16:50:04.564303   688 net.cpp:131] Top shape: 1 128 30 40 (153600)
I0416 16:50:04.564306   688 net.cpp:139] Memory required for data: 226713600
I0416 16:50:04.564309   688 layer_factory.hpp:77] Creating layer conv5_4_scale
I0416 16:50:04.564314   688 net.cpp:86] Creating Layer conv5_4_scale
I0416 16:50:04.564316   688 net.cpp:408] conv5_4_scale <- conv5_4
I0416 16:50:04.564319   688 net.cpp:369] conv5_4_scale -> conv5_4 (in-place)
I0416 16:50:04.564340   688 layer_factory.hpp:77] Creating layer conv5_4_scale
I0416 16:50:04.564399   688 net.cpp:124] Setting up conv5_4_scale
I0416 16:50:04.564404   688 net.cpp:131] Top shape: 1 128 30 40 (153600)
I0416 16:50:04.564406   688 net.cpp:139] Memory required for data: 227328000
I0416 16:50:04.564409   688 layer_factory.hpp:77] Creating layer conv5_4_relu
I0416 16:50:04.564414   688 net.cpp:86] Creating Layer conv5_4_relu
I0416 16:50:04.564415   688 net.cpp:408] conv5_4_relu <- conv5_4
I0416 16:50:04.564417   688 net.cpp:369] conv5_4_relu -> conv5_4 (in-place)
I0416 16:50:04.564484   688 net.cpp:124] Setting up conv5_4_relu
I0416 16:50:04.564491   688 net.cpp:131] Top shape: 1 128 30 40 (153600)
I0416 16:50:04.564492   688 net.cpp:139] Memory required for data: 227942400
I0416 16:50:04.564494   688 layer_factory.hpp:77] Creating layer conv5_5
I0416 16:50:04.564499   688 net.cpp:86] Creating Layer conv5_5
I0416 16:50:04.564502   688 net.cpp:408] conv5_5 <- conv5_4
I0416 16:50:04.564505   688 net.cpp:382] conv5_5 -> conv5_5
I0416 16:50:04.577860   688 net.cpp:124] Setting up conv5_5
I0416 16:50:04.577877   688 net.cpp:131] Top shape: 1 256 30 40 (307200)
I0416 16:50:04.577879   688 net.cpp:139] Memory required for data: 229171200
I0416 16:50:04.577883   688 layer_factory.hpp:77] Creating layer conv5_5_bn
I0416 16:50:04.577888   688 net.cpp:86] Creating Layer conv5_5_bn
I0416 16:50:04.577890   688 net.cpp:408] conv5_5_bn <- conv5_5
I0416 16:50:04.577894   688 net.cpp:369] conv5_5_bn -> conv5_5 (in-place)
I0416 16:50:04.578001   688 net.cpp:124] Setting up conv5_5_bn
I0416 16:50:04.578006   688 net.cpp:131] Top shape: 1 256 30 40 (307200)
I0416 16:50:04.578008   688 net.cpp:139] Memory required for data: 230400000
I0416 16:50:04.578012   688 layer_factory.hpp:77] Creating layer conv5_5_scale
I0416 16:50:04.578016   688 net.cpp:86] Creating Layer conv5_5_scale
I0416 16:50:04.578018   688 net.cpp:408] conv5_5_scale <- conv5_5
I0416 16:50:04.578022   688 net.cpp:369] conv5_5_scale -> conv5_5 (in-place)
I0416 16:50:04.578043   688 layer_factory.hpp:77] Creating layer conv5_5_scale
I0416 16:50:04.578104   688 net.cpp:124] Setting up conv5_5_scale
I0416 16:50:04.578109   688 net.cpp:131] Top shape: 1 256 30 40 (307200)
I0416 16:50:04.578111   688 net.cpp:139] Memory required for data: 231628800
I0416 16:50:04.578114   688 layer_factory.hpp:77] Creating layer conv5_5_relu
I0416 16:50:04.578117   688 net.cpp:86] Creating Layer conv5_5_relu
I0416 16:50:04.578119   688 net.cpp:408] conv5_5_relu <- conv5_5
I0416 16:50:04.578122   688 net.cpp:369] conv5_5_relu -> conv5_5 (in-place)
I0416 16:50:04.578341   688 net.cpp:124] Setting up conv5_5_relu
I0416 16:50:04.578348   688 net.cpp:131] Top shape: 1 256 30 40 (307200)
I0416 16:50:04.578351   688 net.cpp:139] Memory required for data: 232857600
I0416 16:50:04.578352   688 layer_factory.hpp:77] Creating layer conv5_5_conv5_5_relu_0_split
I0416 16:50:04.578356   688 net.cpp:86] Creating Layer conv5_5_conv5_5_relu_0_split
I0416 16:50:04.578358   688 net.cpp:408] conv5_5_conv5_5_relu_0_split <- conv5_5
I0416 16:50:04.578362   688 net.cpp:382] conv5_5_conv5_5_relu_0_split -> conv5_5_conv5_5_relu_0_split_0
I0416 16:50:04.578368   688 net.cpp:382] conv5_5_conv5_5_relu_0_split -> conv5_5_conv5_5_relu_0_split_1
I0416 16:50:04.578392   688 net.cpp:124] Setting up conv5_5_conv5_5_relu_0_split
I0416 16:50:04.578397   688 net.cpp:131] Top shape: 1 256 30 40 (307200)
I0416 16:50:04.578402   688 net.cpp:131] Top shape: 1 256 30 40 (307200)
I0416 16:50:04.578405   688 net.cpp:139] Memory required for data: 235315200
I0416 16:50:04.578408   688 layer_factory.hpp:77] Creating layer pool5
I0416 16:50:04.578411   688 net.cpp:86] Creating Layer pool5
I0416 16:50:04.578413   688 net.cpp:408] pool5 <- conv5_5_conv5_5_relu_0_split_0
I0416 16:50:04.578418   688 net.cpp:382] pool5 -> pool5
I0416 16:50:04.578442   688 net.cpp:124] Setting up pool5
I0416 16:50:04.578447   688 net.cpp:131] Top shape: 1 256 30 40 (307200)
I0416 16:50:04.578449   688 net.cpp:139] Memory required for data: 236544000
I0416 16:50:04.578450   688 layer_factory.hpp:77] Creating layer conv6_1
I0416 16:50:04.578459   688 net.cpp:86] Creating Layer conv6_1
I0416 16:50:04.578460   688 net.cpp:408] conv6_1 <- pool5
I0416 16:50:04.578464   688 net.cpp:382] conv6_1 -> conv6_1
I0416 16:50:04.627182   688 net.cpp:124] Setting up conv6_1
I0416 16:50:04.627202   688 net.cpp:131] Top shape: 1 512 30 40 (614400)
I0416 16:50:04.627203   688 net.cpp:139] Memory required for data: 239001600
I0416 16:50:04.627209   688 layer_factory.hpp:77] Creating layer conv6_1_bn
I0416 16:50:04.627215   688 net.cpp:86] Creating Layer conv6_1_bn
I0416 16:50:04.627218   688 net.cpp:408] conv6_1_bn <- conv6_1
I0416 16:50:04.627223   688 net.cpp:369] conv6_1_bn -> conv6_1 (in-place)
I0416 16:50:04.627338   688 net.cpp:124] Setting up conv6_1_bn
I0416 16:50:04.627344   688 net.cpp:131] Top shape: 1 512 30 40 (614400)
I0416 16:50:04.627346   688 net.cpp:139] Memory required for data: 241459200
I0416 16:50:04.627351   688 layer_factory.hpp:77] Creating layer conv6_1_scale
I0416 16:50:04.627355   688 net.cpp:86] Creating Layer conv6_1_scale
I0416 16:50:04.627357   688 net.cpp:408] conv6_1_scale <- conv6_1
I0416 16:50:04.627360   688 net.cpp:369] conv6_1_scale -> conv6_1 (in-place)
I0416 16:50:04.627383   688 layer_factory.hpp:77] Creating layer conv6_1_scale
I0416 16:50:04.627444   688 net.cpp:124] Setting up conv6_1_scale
I0416 16:50:04.627450   688 net.cpp:131] Top shape: 1 512 30 40 (614400)
I0416 16:50:04.627452   688 net.cpp:139] Memory required for data: 243916800
I0416 16:50:04.627455   688 layer_factory.hpp:77] Creating layer conv6_1_relu
I0416 16:50:04.627465   688 net.cpp:86] Creating Layer conv6_1_relu
I0416 16:50:04.627468   688 net.cpp:408] conv6_1_relu <- conv6_1
I0416 16:50:04.627471   688 net.cpp:369] conv6_1_relu -> conv6_1 (in-place)
I0416 16:50:04.627566   688 net.cpp:124] Setting up conv6_1_relu
I0416 16:50:04.627573   688 net.cpp:131] Top shape: 1 512 30 40 (614400)
I0416 16:50:04.627574   688 net.cpp:139] Memory required for data: 246374400
I0416 16:50:04.627578   688 layer_factory.hpp:77] Creating layer conv6_2
I0416 16:50:04.627583   688 net.cpp:86] Creating Layer conv6_2
I0416 16:50:04.627585   688 net.cpp:408] conv6_2 <- conv6_1
I0416 16:50:04.627589   688 net.cpp:382] conv6_2 -> conv6_2
I0416 16:50:04.633373   688 net.cpp:124] Setting up conv6_2
I0416 16:50:04.633384   688 net.cpp:131] Top shape: 1 256 30 40 (307200)
I0416 16:50:04.633386   688 net.cpp:139] Memory required for data: 247603200
I0416 16:50:04.633390   688 layer_factory.hpp:77] Creating layer conv6_2_bn
I0416 16:50:04.633395   688 net.cpp:86] Creating Layer conv6_2_bn
I0416 16:50:04.633399   688 net.cpp:408] conv6_2_bn <- conv6_2
I0416 16:50:04.633404   688 net.cpp:369] conv6_2_bn -> conv6_2 (in-place)
I0416 16:50:04.633534   688 net.cpp:124] Setting up conv6_2_bn
I0416 16:50:04.633543   688 net.cpp:131] Top shape: 1 256 30 40 (307200)
I0416 16:50:04.633544   688 net.cpp:139] Memory required for data: 248832000
I0416 16:50:04.633549   688 layer_factory.hpp:77] Creating layer conv6_2_scale
I0416 16:50:04.633555   688 net.cpp:86] Creating Layer conv6_2_scale
I0416 16:50:04.633559   688 net.cpp:408] conv6_2_scale <- conv6_2
I0416 16:50:04.633563   688 net.cpp:369] conv6_2_scale -> conv6_2 (in-place)
I0416 16:50:04.633584   688 layer_factory.hpp:77] Creating layer conv6_2_scale
I0416 16:50:04.633651   688 net.cpp:124] Setting up conv6_2_scale
I0416 16:50:04.633657   688 net.cpp:131] Top shape: 1 256 30 40 (307200)
I0416 16:50:04.633659   688 net.cpp:139] Memory required for data: 250060800
I0416 16:50:04.633662   688 layer_factory.hpp:77] Creating layer conv6_2_relu
I0416 16:50:04.633668   688 net.cpp:86] Creating Layer conv6_2_relu
I0416 16:50:04.633672   688 net.cpp:408] conv6_2_relu <- conv6_2
I0416 16:50:04.633677   688 net.cpp:369] conv6_2_relu -> conv6_2 (in-place)
I0416 16:50:04.633910   688 net.cpp:124] Setting up conv6_2_relu
I0416 16:50:04.633919   688 net.cpp:131] Top shape: 1 256 30 40 (307200)
I0416 16:50:04.633922   688 net.cpp:139] Memory required for data: 251289600
I0416 16:50:04.633925   688 layer_factory.hpp:77] Creating layer conv6_3
I0416 16:50:04.633932   688 net.cpp:86] Creating Layer conv6_3
I0416 16:50:04.633936   688 net.cpp:408] conv6_3 <- conv6_2
I0416 16:50:04.633942   688 net.cpp:382] conv6_3 -> conv6_3
I0416 16:50:04.681699   688 net.cpp:124] Setting up conv6_3
I0416 16:50:04.681713   688 net.cpp:131] Top shape: 1 512 30 40 (614400)
I0416 16:50:04.681715   688 net.cpp:139] Memory required for data: 253747200
I0416 16:50:04.681720   688 layer_factory.hpp:77] Creating layer conv6_3_bn
I0416 16:50:04.681725   688 net.cpp:86] Creating Layer conv6_3_bn
I0416 16:50:04.681728   688 net.cpp:408] conv6_3_bn <- conv6_3
I0416 16:50:04.681732   688 net.cpp:369] conv6_3_bn -> conv6_3 (in-place)
I0416 16:50:04.681841   688 net.cpp:124] Setting up conv6_3_bn
I0416 16:50:04.681846   688 net.cpp:131] Top shape: 1 512 30 40 (614400)
I0416 16:50:04.681849   688 net.cpp:139] Memory required for data: 256204800
I0416 16:50:04.681852   688 layer_factory.hpp:77] Creating layer conv6_3_scale
I0416 16:50:04.681856   688 net.cpp:86] Creating Layer conv6_3_scale
I0416 16:50:04.681859   688 net.cpp:408] conv6_3_scale <- conv6_3
I0416 16:50:04.681862   688 net.cpp:369] conv6_3_scale -> conv6_3 (in-place)
I0416 16:50:04.681885   688 layer_factory.hpp:77] Creating layer conv6_3_scale
I0416 16:50:04.681943   688 net.cpp:124] Setting up conv6_3_scale
I0416 16:50:04.681949   688 net.cpp:131] Top shape: 1 512 30 40 (614400)
I0416 16:50:04.681951   688 net.cpp:139] Memory required for data: 258662400
I0416 16:50:04.681954   688 layer_factory.hpp:77] Creating layer conv6_3_relu
I0416 16:50:04.681957   688 net.cpp:86] Creating Layer conv6_3_relu
I0416 16:50:04.681959   688 net.cpp:408] conv6_3_relu <- conv6_3
I0416 16:50:04.681962   688 net.cpp:369] conv6_3_relu -> conv6_3 (in-place)
I0416 16:50:04.682027   688 net.cpp:124] Setting up conv6_3_relu
I0416 16:50:04.682034   688 net.cpp:131] Top shape: 1 512 30 40 (614400)
I0416 16:50:04.682035   688 net.cpp:139] Memory required for data: 261120000
I0416 16:50:04.682036   688 layer_factory.hpp:77] Creating layer conv6_4
I0416 16:50:04.682044   688 net.cpp:86] Creating Layer conv6_4
I0416 16:50:04.682045   688 net.cpp:408] conv6_4 <- conv6_3
I0416 16:50:04.682049   688 net.cpp:382] conv6_4 -> conv6_4
I0416 16:50:04.687777   688 net.cpp:124] Setting up conv6_4
I0416 16:50:04.687786   688 net.cpp:131] Top shape: 1 256 30 40 (307200)
I0416 16:50:04.687788   688 net.cpp:139] Memory required for data: 262348800
I0416 16:50:04.687791   688 layer_factory.hpp:77] Creating layer conv6_4_bn
I0416 16:50:04.687795   688 net.cpp:86] Creating Layer conv6_4_bn
I0416 16:50:04.687798   688 net.cpp:408] conv6_4_bn <- conv6_4
I0416 16:50:04.687801   688 net.cpp:369] conv6_4_bn -> conv6_4 (in-place)
I0416 16:50:04.687908   688 net.cpp:124] Setting up conv6_4_bn
I0416 16:50:04.687913   688 net.cpp:131] Top shape: 1 256 30 40 (307200)
I0416 16:50:04.687916   688 net.cpp:139] Memory required for data: 263577600
I0416 16:50:04.687919   688 layer_factory.hpp:77] Creating layer conv6_4_scale
I0416 16:50:04.687923   688 net.cpp:86] Creating Layer conv6_4_scale
I0416 16:50:04.687925   688 net.cpp:408] conv6_4_scale <- conv6_4
I0416 16:50:04.687927   688 net.cpp:369] conv6_4_scale -> conv6_4 (in-place)
I0416 16:50:04.687948   688 layer_factory.hpp:77] Creating layer conv6_4_scale
I0416 16:50:04.688007   688 net.cpp:124] Setting up conv6_4_scale
I0416 16:50:04.688014   688 net.cpp:131] Top shape: 1 256 30 40 (307200)
I0416 16:50:04.688015   688 net.cpp:139] Memory required for data: 264806400
I0416 16:50:04.688019   688 layer_factory.hpp:77] Creating layer conv6_4_relu
I0416 16:50:04.688022   688 net.cpp:86] Creating Layer conv6_4_relu
I0416 16:50:04.688024   688 net.cpp:408] conv6_4_relu <- conv6_4
I0416 16:50:04.688026   688 net.cpp:369] conv6_4_relu -> conv6_4 (in-place)
I0416 16:50:04.688253   688 net.cpp:124] Setting up conv6_4_relu
I0416 16:50:04.688261   688 net.cpp:131] Top shape: 1 256 30 40 (307200)
I0416 16:50:04.688263   688 net.cpp:139] Memory required for data: 266035200
I0416 16:50:04.688266   688 layer_factory.hpp:77] Creating layer conv6_5
I0416 16:50:04.688271   688 net.cpp:86] Creating Layer conv6_5
I0416 16:50:04.688273   688 net.cpp:408] conv6_5 <- conv6_4
I0416 16:50:04.688277   688 net.cpp:382] conv6_5 -> conv6_5
I0416 16:50:04.734740   688 net.cpp:124] Setting up conv6_5
I0416 16:50:04.734752   688 net.cpp:131] Top shape: 1 512 30 40 (614400)
I0416 16:50:04.734755   688 net.cpp:139] Memory required for data: 268492800
I0416 16:50:04.734757   688 layer_factory.hpp:77] Creating layer conv6_5_bn
I0416 16:50:04.734763   688 net.cpp:86] Creating Layer conv6_5_bn
I0416 16:50:04.734766   688 net.cpp:408] conv6_5_bn <- conv6_5
I0416 16:50:04.734769   688 net.cpp:369] conv6_5_bn -> conv6_5 (in-place)
I0416 16:50:04.734874   688 net.cpp:124] Setting up conv6_5_bn
I0416 16:50:04.734879   688 net.cpp:131] Top shape: 1 512 30 40 (614400)
I0416 16:50:04.734881   688 net.cpp:139] Memory required for data: 270950400
I0416 16:50:04.734885   688 layer_factory.hpp:77] Creating layer conv6_5_scale
I0416 16:50:04.734889   688 net.cpp:86] Creating Layer conv6_5_scale
I0416 16:50:04.734891   688 net.cpp:408] conv6_5_scale <- conv6_5
I0416 16:50:04.734894   688 net.cpp:369] conv6_5_scale -> conv6_5 (in-place)
I0416 16:50:04.734915   688 layer_factory.hpp:77] Creating layer conv6_5_scale
I0416 16:50:04.734975   688 net.cpp:124] Setting up conv6_5_scale
I0416 16:50:04.734979   688 net.cpp:131] Top shape: 1 512 30 40 (614400)
I0416 16:50:04.734982   688 net.cpp:139] Memory required for data: 273408000
I0416 16:50:04.734984   688 layer_factory.hpp:77] Creating layer conv6_5_relu
I0416 16:50:04.734987   688 net.cpp:86] Creating Layer conv6_5_relu
I0416 16:50:04.734989   688 net.cpp:408] conv6_5_relu <- conv6_5
I0416 16:50:04.734992   688 net.cpp:369] conv6_5_relu -> conv6_5 (in-place)
I0416 16:50:04.735054   688 net.cpp:124] Setting up conv6_5_relu
I0416 16:50:04.735060   688 net.cpp:131] Top shape: 1 512 30 40 (614400)
I0416 16:50:04.735062   688 net.cpp:139] Memory required for data: 275865600
I0416 16:50:04.735064   688 layer_factory.hpp:77] Creating layer conv7_1
I0416 16:50:04.735069   688 net.cpp:86] Creating Layer conv7_1
I0416 16:50:04.735071   688 net.cpp:408] conv7_1 <- conv6_5
I0416 16:50:04.735075   688 net.cpp:382] conv7_1 -> conv7_1
I0416 16:50:04.828402   688 net.cpp:124] Setting up conv7_1
I0416 16:50:04.828421   688 net.cpp:131] Top shape: 1 512 30 40 (614400)
I0416 16:50:04.828424   688 net.cpp:139] Memory required for data: 278323200
I0416 16:50:04.828430   688 layer_factory.hpp:77] Creating layer conv7_1_bn
I0416 16:50:04.828438   688 net.cpp:86] Creating Layer conv7_1_bn
I0416 16:50:04.828440   688 net.cpp:408] conv7_1_bn <- conv7_1
I0416 16:50:04.828445   688 net.cpp:369] conv7_1_bn -> conv7_1 (in-place)
I0416 16:50:04.828553   688 net.cpp:124] Setting up conv7_1_bn
I0416 16:50:04.828558   688 net.cpp:131] Top shape: 1 512 30 40 (614400)
I0416 16:50:04.828560   688 net.cpp:139] Memory required for data: 280780800
I0416 16:50:04.828564   688 layer_factory.hpp:77] Creating layer conv7_1_scale
I0416 16:50:04.828569   688 net.cpp:86] Creating Layer conv7_1_scale
I0416 16:50:04.828572   688 net.cpp:408] conv7_1_scale <- conv7_1
I0416 16:50:04.828573   688 net.cpp:369] conv7_1_scale -> conv7_1 (in-place)
I0416 16:50:04.828598   688 layer_factory.hpp:77] Creating layer conv7_1_scale
I0416 16:50:04.828656   688 net.cpp:124] Setting up conv7_1_scale
I0416 16:50:04.828660   688 net.cpp:131] Top shape: 1 512 30 40 (614400)
I0416 16:50:04.828662   688 net.cpp:139] Memory required for data: 283238400
I0416 16:50:04.828665   688 layer_factory.hpp:77] Creating layer conv7_1_relu
I0416 16:50:04.828670   688 net.cpp:86] Creating Layer conv7_1_relu
I0416 16:50:04.828671   688 net.cpp:408] conv7_1_relu <- conv7_1
I0416 16:50:04.828675   688 net.cpp:369] conv7_1_relu -> conv7_1 (in-place)
I0416 16:50:04.829751   688 net.cpp:124] Setting up conv7_1_relu
I0416 16:50:04.829761   688 net.cpp:131] Top shape: 1 512 30 40 (614400)
I0416 16:50:04.829762   688 net.cpp:139] Memory required for data: 285696000
I0416 16:50:04.829764   688 layer_factory.hpp:77] Creating layer conv7_2
I0416 16:50:04.829772   688 net.cpp:86] Creating Layer conv7_2
I0416 16:50:04.829776   688 net.cpp:408] conv7_2 <- conv7_1
I0416 16:50:04.829778   688 net.cpp:382] conv7_2 -> conv7_2
I0416 16:50:04.921198   688 net.cpp:124] Setting up conv7_2
I0416 16:50:04.921216   688 net.cpp:131] Top shape: 1 512 30 40 (614400)
I0416 16:50:04.921218   688 net.cpp:139] Memory required for data: 288153600
I0416 16:50:04.921226   688 layer_factory.hpp:77] Creating layer conv7_2_bn
I0416 16:50:04.921231   688 net.cpp:86] Creating Layer conv7_2_bn
I0416 16:50:04.921234   688 net.cpp:408] conv7_2_bn <- conv7_2
I0416 16:50:04.921239   688 net.cpp:369] conv7_2_bn -> conv7_2 (in-place)
I0416 16:50:04.921346   688 net.cpp:124] Setting up conv7_2_bn
I0416 16:50:04.921350   688 net.cpp:131] Top shape: 1 512 30 40 (614400)
I0416 16:50:04.921352   688 net.cpp:139] Memory required for data: 290611200
I0416 16:50:04.921356   688 layer_factory.hpp:77] Creating layer conv7_2_scale
I0416 16:50:04.921361   688 net.cpp:86] Creating Layer conv7_2_scale
I0416 16:50:04.921363   688 net.cpp:408] conv7_2_scale <- conv7_2
I0416 16:50:04.921366   688 net.cpp:369] conv7_2_scale -> conv7_2 (in-place)
I0416 16:50:04.921389   688 layer_factory.hpp:77] Creating layer conv7_2_scale
I0416 16:50:04.921447   688 net.cpp:124] Setting up conv7_2_scale
I0416 16:50:04.921452   688 net.cpp:131] Top shape: 1 512 30 40 (614400)
I0416 16:50:04.921453   688 net.cpp:139] Memory required for data: 293068800
I0416 16:50:04.921456   688 layer_factory.hpp:77] Creating layer conv7_2_relu
I0416 16:50:04.921460   688 net.cpp:86] Creating Layer conv7_2_relu
I0416 16:50:04.921463   688 net.cpp:408] conv7_2_relu <- conv7_2
I0416 16:50:04.921464   688 net.cpp:369] conv7_2_relu -> conv7_2 (in-place)
I0416 16:50:04.921530   688 net.cpp:124] Setting up conv7_2_relu
I0416 16:50:04.921537   688 net.cpp:131] Top shape: 1 512 30 40 (614400)
I0416 16:50:04.921540   688 net.cpp:139] Memory required for data: 295526400
I0416 16:50:04.921540   688 layer_factory.hpp:77] Creating layer concat8
I0416 16:50:04.921578   688 net.cpp:86] Creating Layer concat8
I0416 16:50:04.921582   688 net.cpp:408] concat8 <- conv5_5_conv5_5_relu_0_split_1
I0416 16:50:04.921586   688 net.cpp:408] concat8 <- conv7_2
I0416 16:50:04.921589   688 net.cpp:382] concat8 -> concat8
I0416 16:50:04.921622   688 net.cpp:124] Setting up concat8
I0416 16:50:04.921627   688 net.cpp:131] Top shape: 1 768 30 40 (921600)
I0416 16:50:04.921628   688 net.cpp:139] Memory required for data: 299212800
I0416 16:50:04.921629   688 layer_factory.hpp:77] Creating layer reduce1_lane
I0416 16:50:04.921636   688 net.cpp:86] Creating Layer reduce1_lane
I0416 16:50:04.921638   688 net.cpp:408] reduce1_lane <- concat8
I0416 16:50:04.921643   688 net.cpp:382] reduce1_lane -> reduce1_lane
I0416 16:50:04.956370   688 net.cpp:124] Setting up reduce1_lane
I0416 16:50:04.956382   688 net.cpp:131] Top shape: 1 128 30 40 (153600)
I0416 16:50:04.956385   688 net.cpp:139] Memory required for data: 299827200
I0416 16:50:04.956388   688 layer_factory.hpp:77] Creating layer reduce1_lane_bn
I0416 16:50:04.956393   688 net.cpp:86] Creating Layer reduce1_lane_bn
I0416 16:50:04.956395   688 net.cpp:408] reduce1_lane_bn <- reduce1_lane
I0416 16:50:04.956399   688 net.cpp:369] reduce1_lane_bn -> reduce1_lane (in-place)
I0416 16:50:04.956506   688 net.cpp:124] Setting up reduce1_lane_bn
I0416 16:50:04.956511   688 net.cpp:131] Top shape: 1 128 30 40 (153600)
I0416 16:50:04.956512   688 net.cpp:139] Memory required for data: 300441600
I0416 16:50:04.956516   688 layer_factory.hpp:77] Creating layer reduce1_lane_scale
I0416 16:50:04.956521   688 net.cpp:86] Creating Layer reduce1_lane_scale
I0416 16:50:04.956521   688 net.cpp:408] reduce1_lane_scale <- reduce1_lane
I0416 16:50:04.956524   688 net.cpp:369] reduce1_lane_scale -> reduce1_lane (in-place)
I0416 16:50:04.956545   688 layer_factory.hpp:77] Creating layer reduce1_lane_scale
I0416 16:50:04.956604   688 net.cpp:124] Setting up reduce1_lane_scale
I0416 16:50:04.956607   688 net.cpp:131] Top shape: 1 128 30 40 (153600)
I0416 16:50:04.956609   688 net.cpp:139] Memory required for data: 301056000
I0416 16:50:04.956612   688 layer_factory.hpp:77] Creating layer reduce1_lane_relu
I0416 16:50:04.956616   688 net.cpp:86] Creating Layer reduce1_lane_relu
I0416 16:50:04.956619   688 net.cpp:408] reduce1_lane_relu <- reduce1_lane
I0416 16:50:04.956620   688 net.cpp:369] reduce1_lane_relu -> reduce1_lane (in-place)
I0416 16:50:04.956832   688 net.cpp:124] Setting up reduce1_lane_relu
I0416 16:50:04.956840   688 net.cpp:131] Top shape: 1 128 30 40 (153600)
I0416 16:50:04.956841   688 net.cpp:139] Memory required for data: 301670400
I0416 16:50:04.956843   688 layer_factory.hpp:77] Creating layer deconv1_lane
I0416 16:50:04.956851   688 net.cpp:86] Creating Layer deconv1_lane
I0416 16:50:04.956852   688 net.cpp:408] deconv1_lane <- reduce1_lane
I0416 16:50:04.956856   688 net.cpp:382] deconv1_lane -> deconv1_lane
I0416 16:50:04.957537   688 net.cpp:124] Setting up deconv1_lane
I0416 16:50:04.957546   688 net.cpp:131] Top shape: 1 64 60 80 (307200)
I0416 16:50:04.957548   688 net.cpp:139] Memory required for data: 302899200
I0416 16:50:04.957551   688 layer_factory.hpp:77] Creating layer deconv1_lane_bn
I0416 16:50:04.957556   688 net.cpp:86] Creating Layer deconv1_lane_bn
I0416 16:50:04.957557   688 net.cpp:408] deconv1_lane_bn <- deconv1_lane
I0416 16:50:04.957561   688 net.cpp:369] deconv1_lane_bn -> deconv1_lane (in-place)
I0416 16:50:04.957670   688 net.cpp:124] Setting up deconv1_lane_bn
I0416 16:50:04.957675   688 net.cpp:131] Top shape: 1 64 60 80 (307200)
I0416 16:50:04.957677   688 net.cpp:139] Memory required for data: 304128000
I0416 16:50:04.957695   688 layer_factory.hpp:77] Creating layer deconv1_lane_scale
I0416 16:50:04.957700   688 net.cpp:86] Creating Layer deconv1_lane_scale
I0416 16:50:04.957701   688 net.cpp:408] deconv1_lane_scale <- deconv1_lane
I0416 16:50:04.957705   688 net.cpp:369] deconv1_lane_scale -> deconv1_lane (in-place)
I0416 16:50:04.957726   688 layer_factory.hpp:77] Creating layer deconv1_lane_scale
I0416 16:50:04.957793   688 net.cpp:124] Setting up deconv1_lane_scale
I0416 16:50:04.957798   688 net.cpp:131] Top shape: 1 64 60 80 (307200)
I0416 16:50:04.957800   688 net.cpp:139] Memory required for data: 305356800
I0416 16:50:04.957803   688 layer_factory.hpp:77] Creating layer deconv1_lane_relu
I0416 16:50:04.957806   688 net.cpp:86] Creating Layer deconv1_lane_relu
I0416 16:50:04.957808   688 net.cpp:408] deconv1_lane_relu <- deconv1_lane
I0416 16:50:04.957810   688 net.cpp:369] deconv1_lane_relu -> deconv1_lane (in-place)
I0416 16:50:04.958024   688 net.cpp:124] Setting up deconv1_lane_relu
I0416 16:50:04.958030   688 net.cpp:131] Top shape: 1 64 60 80 (307200)
I0416 16:50:04.958032   688 net.cpp:139] Memory required for data: 306585600
I0416 16:50:04.958034   688 layer_factory.hpp:77] Creating layer reorg4
I0416 16:50:04.958039   688 net.cpp:86] Creating Layer reorg4
I0416 16:50:04.958042   688 net.cpp:408] reorg4 <- conv4_3_conv4_3_relu_0_split_1
I0416 16:50:04.958046   688 net.cpp:382] reorg4 -> reorg4
I0416 16:50:04.962432   688 net.cpp:124] Setting up reorg4
I0416 16:50:04.962442   688 net.cpp:131] Top shape: 1 64 60 80 (307200)
I0416 16:50:04.962445   688 net.cpp:139] Memory required for data: 307814400
I0416 16:50:04.962450   688 layer_factory.hpp:77] Creating layer reorg4_relu
I0416 16:50:04.962455   688 net.cpp:86] Creating Layer reorg4_relu
I0416 16:50:04.962456   688 net.cpp:408] reorg4_relu <- reorg4
I0416 16:50:04.962460   688 net.cpp:369] reorg4_relu -> reorg4 (in-place)
I0416 16:50:04.962529   688 net.cpp:124] Setting up reorg4_relu
I0416 16:50:04.962535   688 net.cpp:131] Top shape: 1 64 60 80 (307200)
I0416 16:50:04.962538   688 net.cpp:139] Memory required for data: 309043200
I0416 16:50:04.962539   688 layer_factory.hpp:77] Creating layer concat4
I0416 16:50:04.962543   688 net.cpp:86] Creating Layer concat4
I0416 16:50:04.962545   688 net.cpp:408] concat4 <- reorg4
I0416 16:50:04.962548   688 net.cpp:408] concat4 <- deconv1_lane
I0416 16:50:04.962553   688 net.cpp:382] concat4 -> concat4
I0416 16:50:04.962568   688 net.cpp:124] Setting up concat4
I0416 16:50:04.962574   688 net.cpp:131] Top shape: 1 128 60 80 (614400)
I0416 16:50:04.962576   688 net.cpp:139] Memory required for data: 311500800
I0416 16:50:04.962579   688 layer_factory.hpp:77] Creating layer reduce2_lane
I0416 16:50:04.962584   688 net.cpp:86] Creating Layer reduce2_lane
I0416 16:50:04.962587   688 net.cpp:408] reduce2_lane <- concat4
I0416 16:50:04.962590   688 net.cpp:382] reduce2_lane -> reduce2_lane
I0416 16:50:04.966701   688 net.cpp:124] Setting up reduce2_lane
I0416 16:50:04.966711   688 net.cpp:131] Top shape: 1 64 60 80 (307200)
I0416 16:50:04.966714   688 net.cpp:139] Memory required for data: 312729600
I0416 16:50:04.966717   688 layer_factory.hpp:77] Creating layer reduce2_lane_bn
I0416 16:50:04.966722   688 net.cpp:86] Creating Layer reduce2_lane_bn
I0416 16:50:04.966724   688 net.cpp:408] reduce2_lane_bn <- reduce2_lane
I0416 16:50:04.966727   688 net.cpp:369] reduce2_lane_bn -> reduce2_lane (in-place)
I0416 16:50:04.966853   688 net.cpp:124] Setting up reduce2_lane_bn
I0416 16:50:04.966858   688 net.cpp:131] Top shape: 1 64 60 80 (307200)
I0416 16:50:04.966861   688 net.cpp:139] Memory required for data: 313958400
I0416 16:50:04.966864   688 layer_factory.hpp:77] Creating layer reduce2_lane_scale
I0416 16:50:04.966867   688 net.cpp:86] Creating Layer reduce2_lane_scale
I0416 16:50:04.966869   688 net.cpp:408] reduce2_lane_scale <- reduce2_lane
I0416 16:50:04.966872   688 net.cpp:369] reduce2_lane_scale -> reduce2_lane (in-place)
I0416 16:50:04.966897   688 layer_factory.hpp:77] Creating layer reduce2_lane_scale
I0416 16:50:04.966965   688 net.cpp:124] Setting up reduce2_lane_scale
I0416 16:50:04.966971   688 net.cpp:131] Top shape: 1 64 60 80 (307200)
I0416 16:50:04.966974   688 net.cpp:139] Memory required for data: 315187200
I0416 16:50:04.966976   688 layer_factory.hpp:77] Creating layer reduce2_lane_relu
I0416 16:50:04.966979   688 net.cpp:86] Creating Layer reduce2_lane_relu
I0416 16:50:04.966981   688 net.cpp:408] reduce2_lane_relu <- reduce2_lane
I0416 16:50:04.966984   688 net.cpp:369] reduce2_lane_relu -> reduce2_lane (in-place)
I0416 16:50:04.967211   688 net.cpp:124] Setting up reduce2_lane_relu
I0416 16:50:04.967218   688 net.cpp:131] Top shape: 1 64 60 80 (307200)
I0416 16:50:04.967221   688 net.cpp:139] Memory required for data: 316416000
I0416 16:50:04.967222   688 layer_factory.hpp:77] Creating layer Slice1
I0416 16:50:04.967257   688 net.cpp:86] Creating Layer Slice1
I0416 16:50:04.967260   688 net.cpp:408] Slice1 <- reduce2_lane
I0416 16:50:04.967267   688 net.cpp:382] Slice1 -> slice1_1
I0416 16:50:04.967291   688 net.cpp:382] Slice1 -> slice1_2
…
I0416 16:50:04.967669   688 net.cpp:382] Slice1 -> slice1_52
I0416 16:50:04.967676   688 net.cpp:382] Slice1 -> slice1_53
I0416 16:50:04.967684   688 net.cpp:382] Slice1 -> slice1_54
I0416 16:50:04.967690   688 net.cpp:382] Slice1 -> slice1_55
I0416 16:50:04.967697   688 net.cpp:382] Slice1 -> slice1_56
I0416 16:50:04.967705   688 net.cpp:382] Slice1 -> slice1_57
I0416 16:50:04.967712   688 net.cpp:382] Slice1 -> slice1_58
I0416 16:50:04.967720   688 net.cpp:382] Slice1 -> slice1_59
I0416 16:50:04.967727   688 net.cpp:382] Slice1 -> slice1_60
I0416 16:50:04.968132   688 net.cpp:124] Setting up Slice1
I0416 16:50:04.968137   688 net.cpp:131] Top shape: 1 64 1 80 (5120)
I0416 16:50:04.968142   688 net.cpp:131] Top shape: 1 64 1 80 (5120)
I0416 16:50:04.968145   688 net.cpp:131] Top shape: 1 64 1 80 (5120)
I0416 16:50:04.968148   688 net.cpp:131] Top shape: 1 64 1 80 (5120)
I0416 16:50:04.968152   688 net.cpp:131] Top shape: 1 64 1 80 (5120)
I0416 16:50:04.968156   688 net.cpp:131] Top shape: 1 64 1 80 (5120)
I0416 16:50:04.968159   688 net.cpp:131] Top shape: 1 64 1 80 (5120)
I0416 16:50:04.968163   688 net.cpp:131] Top shape: 1 64 1 80 (5120)
I0416 16:50:04.968166   688 net.cpp:131] Top shape: 1 64 1 80 (5120)
I0416 16:50:04.968168   688 net.cpp:131] Top shape: 1 64 1 80 (5120)
I0416 16:50:04.968171   688 net.cpp:131] Top shape: 1 64 1 80 (5120)
I0416 16:50:04.968173   688 net.cpp:131] Top shape: 1 64 1 80 (5120)
I0416 16:50:04.968175   688 net.cpp:131] Top shape: 1 64 1 80 (5120)
I0416 16:50:04.968178   688 net.cpp:131] Top shape: 1 64 1 80 (5120)
I0416 16:50:04.968181   688 net.cpp:131] Top shape: 1 64 1 80 (5120)
I0416 16:50:04.968185   688 net.cpp:131] Top shape: 1 64 1 80 (5120)
I0416 16:50:04.968189   688 net.cpp:131] Top shape: 1 64 1 80 (5120)
I0416 16:50:04.968192   688 net.cpp:131] Top shape: 1 64 1 80 (5120)
I0416 16:50:04.968195   688 net.cpp:131] Top shape: 1 64 1 80 (5120)
I0416 16:50:04.968199   688 net.cpp:131] Top shape: 1 64 1 80 (5120)
I0416 16:50:04.968202   688 net.cpp:131] Top shape: 1 64 1 80 (5120)
I0416 16:50:04.968206   688 net.cpp:131] Top shape: 1 64 1 80 (5120)
I0416 16:50:04.968209   688 net.cpp:131] Top shape: 1 64 1 80 (5120)
I0416 16:50:04.968214   688 net.cpp:131] Top shape: 1 64 1 80 (5120)
I0416 16:50:04.968216   688 net.cpp:131] Top shape: 1 64 1 80 (5120)
I0416 16:50:04.968220   688 net.cpp:131] Top shape: 1 64 1 80 (5120)
I0416 16:50:04.968224   688 net.cpp:131] Top shape: 1 64 1 80 (5120)
I0416 16:50:04.968228   688 net.cpp:131] Top shape: 1 64 1 80 (5120)
I0416 16:50:04.968232   688 net.cpp:131] Top shape: 1 64 1 80 (5120)
I0416 16:50:04.968235   688 net.cpp:131] Top shape: 1 64 1 80 (5120)
I0416 16:50:04.968240   688 net.cpp:131] Top shape: 1 64 1 80 (5120)
I0416 16:50:04.968242   688 net.cpp:131] Top shape: 1 64 1 80 (5120)
I0416 16:50:04.968246   688 net.cpp:131] Top shape: 1 64 1 80 (5120)
I0416 16:50:04.968250   688 net.cpp:131] Top shape: 1 64 1 80 (5120)
I0416 16:50:04.968253   688 net.cpp:131] Top shape: 1 64 1 80 (5120)
I0416 16:50:04.968256   688 net.cpp:131] Top shape: 1 64 1 80 (5120)
I0416 16:50:04.968261   688 net.cpp:131] Top shape: 1 64 1 80 (5120)
I0416 16:50:04.968263   688 net.cpp:131] Top shape: 1 64 1 80 (5120)
I0416 16:50:04.968267   688 net.cpp:131] Top shape: 1 64 1 80 (5120)
I0416 16:50:04.968271   688 net.cpp:131] Top shape: 1 64 1 80 (5120)
I0416 16:50:04.968274   688 net.cpp:131] Top shape: 1 64 1 80 (5120)
I0416 16:50:04.968278   688 net.cpp:131] Top shape: 1 64 1 80 (5120)
I0416 16:50:04.968281   688 net.cpp:131] Top shape: 1 64 1 80 (5120)
I0416 16:50:04.968286   688 net.cpp:131] Top shape: 1 64 1 80 (5120)
I0416 16:50:04.968288   688 net.cpp:131] Top shape: 1 64 1 80 (5120)
I0416 16:50:04.968291   688 net.cpp:131] Top shape: 1 64 1 80 (5120)
I0416 16:50:04.968295   688 net.cpp:131] Top shape: 1 64 1 80 (5120)
I0416 16:50:04.968299   688 net.cpp:131] Top shape: 1 64 1 80 (5120)
I0416 16:50:04.968302   688 net.cpp:131] Top shape: 1 64 1 80 (5120)
I0416 16:50:04.968307   688 net.cpp:131] Top shape: 1 64 1 80 (5120)
I0416 16:50:04.968309   688 net.cpp:131] Top shape: 1 64 1 80 (5120)
I0416 16:50:04.968312   688 net.cpp:131] Top shape: 1 64 1 80 (5120)
I0416 16:50:04.968317   688 net.cpp:131] Top shape: 1 64 1 80 (5120)
I0416 16:50:04.968319   688 net.cpp:131] Top shape: 1 64 1 80 (5120)
I0416 16:50:04.968323   688 net.cpp:131] Top shape: 1 64 1 80 (5120)
I0416 16:50:04.968327   688 net.cpp:131] Top shape: 1 64 1 80 (5120)
I0416 16:50:04.968330   688 net.cpp:131] Top shape: 1 64 1 80 (5120)
I0416 16:50:04.968333   688 net.cpp:131] Top shape: 1 64 1 80 (5120)
I0416 16:50:04.968338   688 net.cpp:131] Top shape: 1 64 1 80 (5120)
I0416 16:50:04.968340   688 net.cpp:131] Top shape: 1 64 1 80 (5120)
I0416 16:50:04.968343   688 net.cpp:139] Memory required for data: 317644800
I0416 16:50:04.968346   688 layer_factory.hpp:77] Creating layer slice1_1_Slice1_0_split
I0416 16:50:04.968351   688 net.cpp:86] Creating Layer slice1_1_Slice1_0_split
I0416 16:50:04.968354   688 net.cpp:408] slice1_1_Slice1_0_split <- slice1_1
I0416 16:50:04.968360   688 net.cpp:382] slice1_1_Slice1_0_split -> slice1_1_Slice1_0_split_0
I0416 16:50:04.968365   688 net.cpp:382] slice1_1_Slice1_0_split -> slice1_1_Slice1_0_split_1
I0416 16:50:04.968387   688 net.cpp:124] Setting up slice1_1_Slice1_0_split
I0416 16:50:04.968391   688 net.cpp:131] Top shape: 1 64 1 80 (5120)
I0416 16:50:04.968395   688 net.cpp:131] Top shape: 1 64 1 80 (5120)
I0416 16:50:04.968399   688 net.cpp:139] Memory required for data: 317685760
I0416 16:50:04.968400   688 layer_factory.hpp:77] Creating layer SCNN_D_1
I0416 16:50:04.968408   688 net.cpp:86] Creating Layer SCNN_D_1
I0416 16:50:04.968411   688 net.cpp:408] SCNN_D_1 <- slice1_1_Slice1_0_split_0
I0416 16:50:04.968416   688 net.cpp:382] SCNN_D_1 -> SCNN_D_1/message
I0416 16:50:04.969823   688 net.cpp:124] Setting up SCNN_D_1
I0416 16:50:04.969833   688 net.cpp:131] Top shape: 1 64 1 80 (5120)
I0416 16:50:04.969837   688 net.cpp:139] Memory required for data: 317706240
I0416 16:50:04.969841   688 layer_factory.hpp:77] Creating layer SCNN_D_1/relu
I0416 16:50:04.969846   688 net.cpp:86] Creating Layer SCNN_D_1/relu
I0416 16:50:04.969851   688 net.cpp:408] SCNN_D_1/relu <- SCNN_D_1/message
I0416 16:50:04.969854   688 net.cpp:369] SCNN_D_1/relu -> SCNN_D_1/message (in-place)
I0416 16:50:04.969923   688 net.cpp:124] Setting up SCNN_D_1/relu
I0416 16:50:04.969928   688 net.cpp:131] Top shape: 1 64 1 80 (5120)
I0416 16:50:04.969931   688 net.cpp:139] Memory required for data: 317726720
I0416 16:50:04.969934   688 layer_factory.hpp:77] Creating layer SCNN_D_1/sum
I0416 16:50:04.969954   688 net.cpp:86] Creating Layer SCNN_D_1/sum
I0416 16:50:04.969957   688 net.cpp:408] SCNN_D_1/sum <- SCNN_D_1/message
I0416 16:50:04.969962   688 net.cpp:408] SCNN_D_1/sum <- slice1_2
I0416 16:50:04.969967   688 net.cpp:382] SCNN_D_1/sum -> SCNN_D_2
I0416 16:50:04.970003   688 net.cpp:124] Setting up SCNN_D_1/sum
I0416 16:50:04.970008   688 net.cpp:131] Top shape: 1 64 1 80 (5120)
I0416 16:50:04.970011   688 net.cpp:139] Memory required for data: 317747200
I0416 16:50:04.970014   688 layer_factory.hpp:77] Creating layer SCNN_D_2_SCNN_D_1/sum_0_split
I0416 16:50:04.970019   688 net.cpp:86] Creating Layer SCNN_D_2_SCNN_D_1/sum_0_split
I0416 16:50:04.970023   688 net.cpp:408] SCNN_D_2_SCNN_D_1/sum_0_split <- SCNN_D_2
I0416 16:50:04.970027   688 net.cpp:382] SCNN_D_2_SCNN_D_1/sum_0_split -> SCNN_D_2_SCNN_D_1/sum_0_split_0
I0416 16:50:04.970033   688 net.cpp:382] SCNN_D_2_SCNN_D_1/sum_0_split -> SCNN_D_2_SCNN_D_1/sum_0_split_1
I0416 16:50:04.970055   688 net.cpp:124] Setting up SCNN_D_2_SCNN_D_1/sum_0_split
I0416 16:50:04.970062   688 net.cpp:131] Top shape: 1 64 1 80 (5120)
I0416 16:50:04.970065   688 net.cpp:131] Top shape: 1 64 1 80 (5120)
I0416 16:50:04.970068   688 net.cpp:139] Memory required for data: 317788160
I0416 16:50:04.970072   688 layer_factory.hpp:77] Creating layer SCNN_D_2
I0416 16:50:04.970078   688 net.cpp:86] Creating Layer SCNN_D_2
I0416 16:50:04.970082   688 net.cpp:408] SCNN_D_2 <- SCNN_D_2_SCNN_D_1/sum_0_split_0
I0416 16:50:04.970088   688 net.cpp:382] SCNN_D_2 -> SCNN_D_2/message
I0416 16:50:04.972348   688 net.cpp:124] Setting up SCNN_D_2
I0416 16:50:04.972358   688 net.cpp:131] Top shape: 1 64 1 80 (5120)
I0416 16:50:04.972362   688 net.cpp:139] Memory required for data: 317808640
I0416 16:50:04.972365   688 net.cpp:467] Sharing parameters 'SCNN_D_w' owned by layer 'SCNN_D_1', param index 0
I0416 16:50:04.972369   688 layer_factory.hpp:77] Creating layer SCNN_D_2/relu
I0416 16:50:04.972373   688 net.cpp:86] Creating Layer SCNN_D_2/relu
I0416 16:50:04.972376   688 net.cpp:408] SCNN_D_2/relu <- SCNN_D_2/message
I0416 16:50:04.972381   688 net.cpp:369] SCNN_D_2/relu -> SCNN_D_2/message (in-place)
I0416 16:50:04.972601   688 net.cpp:124] Setting up SCNN_D_2/relu
I0416 16:50:04.972609   688 net.cpp:131] Top shape: 1 64 1 80 (5120)
I0416 16:50:04.972611   688 net.cpp:139] Memory required for data: 317829120
I0416 16:50:04.972613   688 layer_factory.hpp:77] Creating layer SCNN_D_2/sum
I0416 16:50:04.972616   688 net.cpp:86] Creating Layer SCNN_D_2/sum
I0416 16:50:04.972620   688 net.cpp:408] SCNN_D_2/sum <- SCNN_D_2/message
I0416 16:50:04.972622   688 net.cpp:408] SCNN_D_2/sum <- slice1_3
I0416 16:50:04.972625   688 net.cpp:382] SCNN_D_2/sum -> SCNN_D_3
I0416 16:50:04.972641   688 net.cpp:124] Setting up SCNN_D_2/sum
I0416 16:50:04.972645   688 net.cpp:131] Top shape: 1 64 1 80 (5120)
I0416 16:50:04.972646   688 net.cpp:139] Memory required for data: 317849600
I0416 16:50:04.972648   688 layer_factory.hpp:77] Creating layer SCNN_D_3_SCNN_D_2/sum_0_split
I0416 16:50:04.972651   688 net.cpp:86] Creating Layer SCNN_D_3_SCNN_D_2/sum_0_split
I0416 16:50:04.972653   688 net.cpp:408] SCNN_D_3_SCNN_D_2/sum_0_split <- SCNN_D_3
I0416 16:50:04.972656   688 net.cpp:382] SCNN_D_3_SCNN_D_2/sum_0_split -> SCNN_D_3_SCNN_D_2/sum_0_split_0
I0416 16:50:04.972661   688 net.cpp:382] SCNN_D_3_SCNN_D_2/sum_0_split -> SCNN_D_3_SCNN_D_2/sum_0_split_1
I0416 16:50:04.972681   688 net.cpp:124] Setting up SCNN_D_3_SCNN_D_2/sum_0_split
I0416 16:50:04.972685   688 net.cpp:131] Top shape: 1 64 1 80 (5120)
I0416 16:50:04.972687   688 net.cpp:131] Top shape: 1 64 1 80 (5120)
I0416 16:50:04.972689   688 net.cpp:139] Memory required for data: 317890560
I0416 16:50:04.972690   688 layer_factory.hpp:77] Creating layer SCNN_D_3
I0416 16:50:04.972695   688 net.cpp:86] Creating Layer SCNN_D_3
I0416 16:50:04.972697   688 net.cpp:408] SCNN_D_3 <- SCNN_D_3_SCNN_D_2/sum_0_split_0
I0416 16:50:04.972700   688 net.cpp:382] SCNN_D_3 -> SCNN_D_3/message
I0416 16:50:04.974140   688 net.cpp:124] Setting up SCNN_D_3
I0416 16:50:04.974149   688 net.cpp:131] Top shape: 1 64 1 80 (5120)
I0416 16:50:04.974153   688 net.cpp:139] Memory required for data: 317911040
I0416 16:50:04.974158   688 net.cpp:467] Sharing parameters 'SCNN_D_w' owned by layer 'SCNN_D_1', param index 0
I0416 16:50:04.974161   688 layer_factory.hpp:77] Creating layer SCNN_D_3/relu
I0416 16:50:04.974165   688 net.cpp:86] Creating Layer SCNN_D_3/relu
I0416 16:50:04.974169   688 net.cpp:408] SCNN_D_3/relu <- SCNN_D_3/message
I0416 16:50:04.974174   688 net.cpp:369] SCNN_D_3/relu -> SCNN_D_3/message (in-place)
I0416 16:50:04.974242   688 net.cpp:124] Setting up SCNN_D_3/relu
I0416 16:50:04.974249   688 net.cpp:131] Top shape: 1 64 1 80 (5120)
I0416 16:50:04.974252   688 net.cpp:139] Memory required for data: 317931520
I0416 16:50:04.974256   688 layer_factory.hpp:77] Creating layer SCNN_D_3/sum
I0416 16:50:04.974259   688 net.cpp:86] Creating Layer SCNN_D_3/sum
I0416 16:50:04.974263   688 net.cpp:408] SCNN_D_3/sum <- SCNN_D_3/message
I0416 16:50:04.974268   688 net.cpp:408] SCNN_D_3/sum <- slice1_4
I0416 16:50:04.974273   688 net.cpp:382] SCNN_D_3/sum -> SCNN_D_4
I0416 16:50:04.974289   688 net.cpp:124] Setting up SCNN_D_3/sum
I0416 16:50:04.974294   688 net.cpp:131] Top shape: 1 64 1 80 (5120)
I0416 16:50:04.974298   688 net.cpp:139] Memory required for data: 317952000
I0416 16:50:04.974301   688 layer_factory.hpp:77] Creating layer SCNN_D_4_SCNN_D_3/sum_0_split
I0416 16:50:04.974305   688 net.cpp:86] Creating Layer SCNN_D_4_SCNN_D_3/sum_0_split
I0416 16:50:04.974309   688 net.cpp:408] SCNN_D_4_SCNN_D_3/sum_0_split <- SCNN_D_4
I0416 16:50:04.974314   688 net.cpp:382] SCNN_D_4_SCNN_D_3/sum_0_split -> SCNN_D_4_SCNN_D_3/sum_0_split_0
I0416 16:50:04.974320   688 net.cpp:382] SCNN_D_4_SCNN_D_3/sum_0_split -> SCNN_D_4_SCNN_D_3/sum_0_split_1
I0416 16:50:04.974349   688 net.cpp:124] Setting up SCNN_D_4_SCNN_D_3/sum_0_split
I0416 16:50:04.974354   688 net.cpp:131] Top shape: 1 64 1 80 (5120)
I0416 16:50:04.974359   688 net.cpp:131] Top shape: 1 64 1 80 (5120)
I0416 16:50:04.974361   688 net.cpp:139] Memory required for data: 317992960
I0416 16:50:04.974364   688 layer_factory.hpp:77] Creating layer SCNN_D_4
I0416 16:50:04.974371   688 net.cpp:86] Creating Layer SCNN_D_4
I0416 16:50:04.974375   688 net.cpp:408] SCNN_D_4 <- SCNN_D_4_SCNN_D_3/sum_0_split_0
I0416 16:50:04.974380   688 net.cpp:382] SCNN_D_4 -> SCNN_D_4/message
I0416 16:50:04.975819   688 net.cpp:124] Setting up SCNN_D_4
I0416 16:50:04.975828   688 net.cpp:131] Top shape: 1 64 1 80 (5120)
I0416 16:50:04.975832   688 net.cpp:139] Memory required for data: 318013440
I0416 16:50:04.975836   688 net.cpp:467] Sharing parameters 'SCNN_D_w' owned by layer 'SCNN_D_1', param index 0
I0416 16:50:04.975841   688 layer_factory.hpp:77] Creating layer SCNN_D_4/relu
I0416 16:50:04.975843   688 net.cpp:86] Creating Layer SCNN_D_4/relu
I0416 16:50:04.975847   688 net.cpp:408] SCNN_D_4/relu <- SCNN_D_4/message
I0416 16:50:04.975849   688 net.cpp:369] SCNN_D_4/relu -> SCNN_D_4/message (in-place)
I0416 16:50:04.976070   688 net.cpp:124] Setting up SCNN_D_4/relu
I0416 16:50:04.976079   688 net.cpp:131] Top shape: 1 64 1 80 (5120)
I0416 16:50:04.976083   688 net.cpp:139] Memory required for data: 318033920
I0416 16:50:04.976086   688 layer_factory.hpp:77] Creating layer SCNN_D_4/sum
I0416 16:50:04.976091   688 net.cpp:86] Creating Layer SCNN_D_4/sum
I0416 16:50:04.976095   688 net.cpp:408] SCNN_D_4/sum <- SCNN_D_4/message
I0416 16:50:04.976100   688 net.cpp:408] SCNN_D_4/sum <- slice1_5
I0416 16:50:04.976105   688 net.cpp:382] SCNN_D_4/sum -> SCNN_D_5
I0416 16:50:04.976127   688 net.cpp:124] Setting up SCNN_D_4/sum
I0416 16:50:04.976132   688 net.cpp:131] Top shape: 1 64 1 80 (5120)
I0416 16:50:04.976135   688 net.cpp:139] Memory required for data: 318054400
I0416 16:50:04.976138   688 layer_factory.hpp:77] Creating layer SCNN_D_5_SCNN_D_4/sum_0_split
I0416 16:50:04.976142   688 net.cpp:86] Creating Layer SCNN_D_5_SCNN_D_4/sum_0_split
I0416 16:50:04.976146   688 net.cpp:408] SCNN_D_5_SCNN_D_4/sum_0_split <- SCNN_D_5
I0416 16:50:04.976150   688 net.cpp:382] SCNN_D_5_SCNN_D_4/sum_0_split -> SCNN_D_5_SCNN_D_4/sum_0_split_0
I0416 16:50:04.976157   688 net.cpp:382] SCNN_D_5_SCNN_D_4/sum_0_split -> SCNN_D_5_SCNN_D_4/sum_0_split_1
I0416 16:50:04.976181   688 net.cpp:124] Setting up SCNN_D_5_SCNN_D_4/sum_0_split
I0416 16:50:04.976186   688 net.cpp:131] Top shape: 1 64 1 80 (5120)
I0416 16:50:04.976191   688 net.cpp:131] Top shape: 1 64 1 80 (5120)
I0416 16:50:04.976194   688 net.cpp:139] Memory required for data: 318095360
I0416 16:50:04.976197   688 layer_factory.hpp:77] Creating layer SCNN_D_5
I0416 16:50:04.976203   688 net.cpp:86] Creating Layer SCNN_D_5
I0416 16:50:04.976207   688 net.cpp:408] SCNN_D_5 <- SCNN_D_5_SCNN_D_4/sum_0_split_0
I0416 16:50:04.976212   688 net.cpp:382] SCNN_D_5 -> SCNN_D_5/message
I0416 16:50:04.977499   688 net.cpp:124] Setting up SCNN_D_5
I0416 16:50:04.977507   688 net.cpp:131] Top shape: 1 64 1 80 (5120)
I0416 16:50:04.977511   688 net.cpp:139] Memory required for data: 318115840
I0416 16:50:04.977515   688 net.cpp:467] Sharing parameters 'SCNN_D_w' owned by layer 'SCNN_D_1', param index 0
I0416 16:50:04.977519   688 layer_factory.hpp:77] Creating layer SCNN_D_5/relu
I0416 16:50:04.977524   688 net.cpp:86] Creating Layer SCNN_D_5/relu
I0416 16:50:04.977527   688 net.cpp:408] SCNN_D_5/relu <- SCNN_D_5/message
I0416 16:50:04.977532   688 net.cpp:369] SCNN_D_5/relu -> SCNN_D_5/message (in-place)
I0416 16:50:04.978600   688 net.cpp:124] Setting up SCNN_D_5/relu
I0416 16:50:04.978610   688 net.cpp:131] Top shape: 1 64 1 80 (5120)
I0416 16:50:04.978615   688 net.cpp:139] Memory required for data: 318136320
I0416 16:50:04.978618   688 layer_factory.hpp:77] Creating layer SCNN_D_5/sum
I0416 16:50:04.978623   688 net.cpp:86] Creating Layer SCNN_D_5/sum
I0416 16:50:04.978627   688 net.cpp:408] SCNN_D_5/sum <- SCNN_D_5/message
I0416 16:50:04.978632   688 net.cpp:408] SCNN_D_5/sum <- slice1_6
I0416 16:50:04.978637   688 net.cpp:382] SCNN_D_5/sum -> SCNN_D_6
I0416 16:50:04.978657   688 net.cpp:124] Setting up SCNN_D_5/sum
I0416 16:50:04.978662   688 net.cpp:131] Top shape: 1 64 1 80 (5120)
I0416 16:50:04.978665   688 net.cpp:139] Memory required for data: 318156800
I0416 16:50:04.978667   688 layer_factory.hpp:77] Creating layer SCNN_D_6_SCNN_D_5/sum_0_split
I0416 16:50:04.978672   688 net.cpp:86] Creating Layer SCNN_D_6_SCNN_D_5/sum_0_split
I0416 16:50:04.978677   688 net.cpp:408] SCNN_D_6_SCNN_D_5/sum_0_split <- SCNN_D_6
I0416 16:50:04.978682   688 net.cpp:382] SCNN_D_6_SCNN_D_5/sum_0_split -> SCNN_D_6_SCNN_D_5/sum_0_split_0
I0416 16:50:04.978688   688 net.cpp:382] SCNN_D_6_SCNN_D_5/sum_0_split -> SCNN_D_6_SCNN_D_5/sum_0_split_1
I0416 16:50:04.978711   688 net.cpp:124] Setting up SCNN_D_6_SCNN_D_5/sum_0_split
I0416 16:50:04.978716   688 net.cpp:131] Top shape: 1 64 1 80 (5120)
I0416 16:50:04.978719   688 net.cpp:131] Top shape: 1 64 1 80 (5120)
I0416 16:50:04.978721   688 net.cpp:139] Memory required for data: 318197760
I0416 16:50:04.978722   688 layer_factory.hpp:77] Creating layer SCNN_D_6
I0416 16:50:04.978729   688 net.cpp:86] Creating Layer SCNN_D_6
I0416 16:50:04.978732   688 net.cpp:408] SCNN_D_6 <- SCNN_D_6_SCNN_D_5/sum_0_split_0
I0416 16:50:04.978737   688 net.cpp:382] SCNN_D_6 -> SCNN_D_6/message
I0416 16:50:04.980199   688 net.cpp:124] Setting up SCNN_D_6
I0416 16:50:04.980209   688 net.cpp:131] Top shape: 1 64 1 80 (5120)
I0416 16:50:04.980211   688 net.cpp:139] Memory required for data: 318218240
I0416 16:50:04.980214   688 net.cpp:467] Sharing parameters 'SCNN_D_w' owned by layer 'SCNN_D_1', param index 0
I0416 16:50:04.980216   688 layer_factory.hpp:77] Creating layer SCNN_D_6/relu
I0416 16:50:04.980231   688 net.cpp:86] Creating Layer SCNN_D_6/relu
I0416 16:50:04.980233   688 net.cpp:408] SCNN_D_6/relu <- SCNN_D_6/message
I0416 16:50:04.980238   688 net.cpp:369] SCNN_D_6/relu -> SCNN_D_6/message (in-place)
I0416 16:50:04.980304   688 net.cpp:124] Setting up SCNN_D_6/relu
I0416 16:50:04.980311   688 net.cpp:131] Top shape: 1 64 1 80 (5120)
I0416 16:50:04.980314   688 net.cpp:139] Memory required for data: 318238720
I0416 16:50:04.980316   688 layer_factory.hpp:77] Creating layer SCNN_D_6/sum
I0416 16:50:04.980319   688 net.cpp:86] Creating Layer SCNN_D_6/sum
I0416 16:50:04.980321   688 net.cpp:408] SCNN_D_6/sum <- SCNN_D_6/message
I0416 16:50:04.980325   688 net.cpp:408] SCNN_D_6/sum <- slice1_7
I0416 16:50:04.980329   688 net.cpp:382] SCNN_D_6/sum -> SCNN_D_7
I0416 16:50:04.980345   688 net.cpp:124] Setting up SCNN_D_6/sum
I0416 16:50:04.980348   688 net.cpp:131] Top shape: 1 64 1 80 (5120)
I0416 16:50:04.980350   688 net.cpp:139] Memory required for data: 318259200
I0416 16:50:04.980352   688 layer_factory.hpp:77] Creating layer SCNN_D_7_SCNN_D_6/sum_0_split
I0416 16:50:04.980355   688 net.cpp:86] Creating Layer SCNN_D_7_SCNN_D_6/sum_0_split
I0416 16:50:04.980357   688 net.cpp:408] SCNN_D_7_SCNN_D_6/sum_0_split <- SCNN_D_7
I0416 16:50:04.980361   688 net.cpp:382] SCNN_D_7_SCNN_D_6/sum_0_split -> SCNN_D_7_SCNN_D_6/sum_0_split_0
I0416 16:50:04.980365   688 net.cpp:382] SCNN_D_7_SCNN_D_6/sum_0_split -> SCNN_D_7_SCNN_D_6/sum_0_split_1
I0416 16:50:04.980389   688 net.cpp:124] Setting up SCNN_D_7_SCNN_D_6/sum_0_split
I0416 16:50:04.980394   688 net.cpp:131] Top shape: 1 64 1 80 (5120)
I0416 16:50:04.980398   688 net.cpp:131] Top shape: 1 64 1 80 (5120)
I0416 16:50:04.980401   688 net.cpp:139] Memory required for data: 318300160
I0416 16:50:04.980404   688 layer_factory.hpp:77] Creating layer SCNN_D_7
I0416 16:50:04.980410   688 net.cpp:86] Creating Layer SCNN_D_7
I0416 16:50:04.980414   688 net.cpp:408] SCNN_D_7 <- SCNN_D_7_SCNN_D_6/sum_0_split_0
I0416 16:50:04.980419   688 net.cpp:382] SCNN_D_7 -> SCNN_D_7/message
I0416 16:50:04.981889   688 net.cpp:124] Setting up SCNN_D_7
I0416 16:50:04.981899   688 net.cpp:131] Top shape: 1 64 1 80 (5120)
I0416 16:50:04.981901   688 net.cpp:139] Memory required for data: 318320640
I0416 16:50:04.981905   688 net.cpp:467] Sharing parameters 'SCNN_D_w' owned by layer 'SCNN_D_1', param index 0
I0416 16:50:04.981909   688 layer_factory.hpp:77] Creating layer SCNN_D_7/relu
I0416 16:50:04.981914   688 net.cpp:86] Creating Layer SCNN_D_7/relu
I0416 16:50:04.981918   688 net.cpp:408] SCNN_D_7/relu <- SCNN_D_7/message
I0416 16:50:04.981923   688 net.cpp:369] SCNN_D_7/relu -> SCNN_D_7/message (in-place)
I0416 16:50:04.982151   688 net.cpp:124] Setting up SCNN_D_7/relu
I0416 16:50:04.982159   688 net.cpp:131] Top shape: 1 64 1 80 (5120)
I0416 16:50:04.982162   688 net.cpp:139] Memory required for data: 318341120
I0416 16:50:04.982165   688 layer_factory.hpp:77] Creating layer SCNN_D_7/sum
I0416 16:50:04.982170   688 net.cpp:86] Creating Layer SCNN_D_7/sum
I0416 16:50:04.982173   688 net.cpp:408] SCNN_D_7/sum <- SCNN_D_7/message
I0416 16:50:04.982178   688 net.cpp:408] SCNN_D_7/sum <- slice1_8
I0416 16:50:04.982182   688 net.cpp:382] SCNN_D_7/sum -> SCNN_D_8
I0416 16:50:04.982199   688 net.cpp:124] Setting up SCNN_D_7/sum
I0416 16:50:04.982204   688 net.cpp:131] Top shape: 1 64 1 80 (5120)
I0416 16:50:04.982208   688 net.cpp:139] Memory required for data: 318361600
I0416 16:50:04.982210   688 layer_factory.hpp:77] Creating layer SCNN_D_8_SCNN_D_7/sum_0_split
I0416 16:50:04.982214   688 net.cpp:86] Creating Layer SCNN_D_8_SCNN_D_7/sum_0_split
I0416 16:50:04.982218   688 net.cpp:408] SCNN_D_8_SCNN_D_7/sum_0_split <- SCNN_D_8
I0416 16:50:04.982223   688 net.cpp:382] SCNN_D_8_SCNN_D_7/sum_0_split -> SCNN_D_8_SCNN_D_7/sum_0_split_0
I0416 16:50:04.982230   688 net.cpp:382] SCNN_D_8_SCNN_D_7/sum_0_split -> SCNN_D_8_SCNN_D_7/sum_0_split_1
I0416 16:50:04.982254   688 net.cpp:124] Setting up SCNN_D_8_SCNN_D_7/sum_0_split
I0416 16:50:04.982259   688 net.cpp:131] Top shape: 1 64 1 80 (5120)
I0416 16:50:04.982261   688 net.cpp:131] Top shape: 1 64 1 80 (5120)
I0416 16:50:04.982264   688 net.cpp:139] Memory required for data: 318402560
I0416 16:50:04.982269   688 layer_factory.hpp:77] Creating layer SCNN_D_8
I0416 16:50:04.982275   688 net.cpp:86] Creating Layer SCNN_D_8
I0416 16:50:04.982277   688 net.cpp:408] SCNN_D_8 <- SCNN_D_8_SCNN_D_7/sum_0_split_0
I0416 16:50:04.982282   688 net.cpp:382] SCNN_D_8 -> SCNN_D_8/message
I0416 16:50:04.983721   688 net.cpp:124] Setting up SCNN_D_8
I0416 16:50:04.983731   688 net.cpp:131] Top shape: 1 64 1 80 (5120)
I0416 16:50:04.983733   688 net.cpp:139] Memory required for data: 318423040
I0416 16:50:04.983736   688 net.cpp:467] Sharing parameters 'SCNN_D_w' owned by layer 'SCNN_D_1', param index 0
I0416 16:50:04.983738   688 layer_factory.hpp:77] Creating layer SCNN_D_8/relu
I0416 16:50:04.983742   688 net.cpp:86] Creating Layer SCNN_D_8/relu
I0416 16:50:04.983747   688 net.cpp:408] SCNN_D_8/relu <- SCNN_D_8/message
I0416 16:50:04.983752   688 net.cpp:369] SCNN_D_8/relu -> SCNN_D_8/message (in-place)
I0416 16:50:04.983814   688 net.cpp:124] Setting up SCNN_D_8/relu
I0416 16:50:04.983820   688 net.cpp:131] Top shape: 1 64 1 80 (5120)
I0416 16:50:04.983824   688 net.cpp:139] Memory required for data: 318443520
I0416 16:50:04.983827   688 layer_factory.hpp:77] Creating layer SCNN_D_8/sum
I0416 16:50:04.983831   688 net.cpp:86] Creating Layer SCNN_D_8/sum
I0416 16:50:04.983835   688 net.cpp:408] SCNN_D_8/sum <- SCNN_D_8/message
I0416 16:50:04.983839   688 net.cpp:408] SCNN_D_8/sum <- slice1_9
I0416 16:50:04.983844   688 net.cpp:382] SCNN_D_8/sum -> SCNN_D_9
I0416 16:50:04.983870   688 net.cpp:124] Setting up SCNN_D_8/sum
I0416 16:50:04.983875   688 net.cpp:131] Top shape: 1 64 1 80 (5120)
I0416 16:50:04.983878   688 net.cpp:139] Memory required for data: 318464000
I0416 16:50:04.983881   688 layer_factory.hpp:77] Creating layer SCNN_D_9_SCNN_D_8/sum_0_split
I0416 16:50:04.983886   688 net.cpp:86] Creating Layer SCNN_D_9_SCNN_D_8/sum_0_split
I0416 16:50:04.983889   688 net.cpp:408] SCNN_D_9_SCNN_D_8/sum_0_split <- SCNN_D_9
I0416 16:50:04.983893   688 net.cpp:382] SCNN_D_9_SCNN_D_8/sum_0_split -> SCNN_D_9_SCNN_D_8/sum_0_split_0
I0416 16:50:04.983899   688 net.cpp:382] SCNN_D_9_SCNN_D_8/sum_0_split -> SCNN_D_9_SCNN_D_8/sum_0_split_1
I0416 16:50:04.983922   688 net.cpp:124] Setting up SCNN_D_9_SCNN_D_8/sum_0_split
I0416 16:50:04.983925   688 net.cpp:131] Top shape: 1 64 1 80 (5120)
I0416 16:50:04.983929   688 net.cpp:131] Top shape: 1 64 1 80 (5120)
I0416 16:50:04.983932   688 net.cpp:139] Memory required for data: 318504960
I0416 16:50:04.983937   688 layer_factory.hpp:77] Creating layer SCNN_D_9
I0416 16:50:04.983942   688 net.cpp:86] Creating Layer SCNN_D_9
I0416 16:50:04.983945   688 net.cpp:408] SCNN_D_9 <- SCNN_D_9_SCNN_D_8/sum_0_split_0
I0416 16:50:04.983950   688 net.cpp:382] SCNN_D_9 -> SCNN_D_9/message
I0416 16:50:04.986243   688 net.cpp:124] Setting up SCNN_D_9
I0416 16:50:04.986253   688 net.cpp:131] Top shape: 1 64 1 80 (5120)
I0416 16:50:04.986256   688 net.cpp:139] Memory required for data: 318525440
I0416 16:50:04.986260   688 net.cpp:467] Sharing parameters 'SCNN_D_w' owned by layer 'SCNN_D_1', param index 0
I0416 16:50:04.986264   688 layer_factory.hpp:77] Creating layer SCNN_D_9/relu
I0416 16:50:04.986268   688 net.cpp:86] Creating Layer SCNN_D_9/relu
I0416 16:50:04.986271   688 net.cpp:408] SCNN_D_9/relu <- SCNN_D_9/message
I0416 16:50:04.986275   688 net.cpp:369] SCNN_D_9/relu -> SCNN_D_9/message (in-place)
I0416 16:50:04.986497   688 net.cpp:124] Setting up SCNN_D_9/relu
I0416 16:50:04.986505   688 net.cpp:131] Top shape: 1 64 1 80 (5120)
I0416 16:50:04.986507   688 net.cpp:139] Memory required for data: 318545920
I0416 16:50:04.986510   688 layer_factory.hpp:77] Creating layer SCNN_D_9/sum
I0416 16:50:04.986513   688 net.cpp:86] Creating Layer SCNN_D_9/sum
I0416 16:50:04.986516   688 net.cpp:408] SCNN_D_9/sum <- SCNN_D_9/message
I0416 16:50:04.986519   688 net.cpp:408] SCNN_D_9/sum <- slice1_10
I0416 16:50:04.986522   688 net.cpp:382] SCNN_D_9/sum -> SCNN_D_10
I0416 16:50:04.986539   688 net.cpp:124] Setting up SCNN_D_9/sum
I0416 16:50:04.986544   688 net.cpp:131] Top shape: 1 64 1 80 (5120)
I0416 16:50:04.986546   688 net.cpp:139] Memory required for data: 318566400
I0416 16:50:04.986547   688 layer_factory.hpp:77] Creating layer SCNN_D_10_SCNN_D_9/sum_0_split
I0416 16:50:04.986551   688 net.cpp:86] Creating Layer SCNN_D_10_SCNN_D_9/sum_0_split
I0416 16:50:04.986552   688 net.cpp:408] SCNN_D_10_SCNN_D_9/sum_0_split <- SCNN_D_10
I0416 16:50:04.986557   688 net.cpp:382] SCNN_D_10_SCNN_D_9/sum_0_split -> SCNN_D_10_SCNN_D_9/sum_0_split_0
I0416 16:50:04.986559   688 net.cpp:382] SCNN_D_10_SCNN_D_9/sum_0_split -> SCNN_D_10_SCNN_D_9/sum_0_split_1
I0416 16:50:04.986580   688 net.cpp:124] Setting up SCNN_D_10_SCNN_D_9/sum_0_split
I0416 16:50:04.986583   688 net.cpp:131] Top shape: 1 64 1 80 (5120)
I0416 16:50:04.986587   688 net.cpp:131] Top shape: 1 64 1 80 (5120)
I0416 16:50:04.986589   688 net.cpp:139] Memory required for data: 318607360
I0416 16:50:04.986593   688 layer_factory.hpp:77] Creating layer SCNN_D_10
I0416 16:50:04.986598   688 net.cpp:86] Creating Layer SCNN_D_10
I0416 16:50:04.986599   688 net.cpp:408] SCNN_D_10 <- SCNN_D_10_SCNN_D_9/sum_0_split_0
I0416 16:50:04.986604   688 net.cpp:382] SCNN_D_10 -> SCNN_D_10/message
I0416 16:50:04.988040   688 net.cpp:124] Setting up SCNN_D_10
I0416 16:50:04.988049   688 net.cpp:131] Top shape: 1 64 1 80 (5120)
I0416 16:50:04.988054   688 net.cpp:139] Memory required for data: 318627840
I0416 16:50:04.988057   688 net.cpp:467] Sharing parameters 'SCNN_D_w' owned by layer 'SCNN_D_1', param index 0
I0416 16:50:04.988060   688 layer_factory.hpp:77] Creating layer SCNN_D_10/relu
I0416 16:50:04.988066   688 net.cpp:86] Creating Layer SCNN_D_10/relu
I0416 16:50:04.988070   688 net.cpp:408] SCNN_D_10/relu <- SCNN_D_10/message
I0416 16:50:04.988075   688 net.cpp:369] SCNN_D_10/relu -> SCNN_D_10/message (in-place)
I0416 16:50:04.988144   688 net.cpp:124] Setting up SCNN_D_10/relu
I0416 16:50:04.988152   688 net.cpp:131] Top shape: 1 64 1 80 (5120)
I0416 16:50:04.988154   688 net.cpp:139] Memory required for data: 318648320
I0416 16:50:04.988158   688 layer_factory.hpp:77] Creating layer SCNN_D_10/sum
I0416 16:50:04.988162   688 net.cpp:86] Creating Layer SCNN_D_10/sum
I0416 16:50:04.988167   688 net.cpp:408] SCNN_D_10/sum <- SCNN_D_10/message
I0416 16:50:04.988171   688 net.cpp:408] SCNN_D_10/sum <- slice1_11
I0416 16:50:04.988175   688 net.cpp:382] SCNN_D_10/sum -> SCNN_D_11
I0416 16:50:04.988193   688 net.cpp:124] Setting up SCNN_D_10/sum
I0416 16:50:04.988198   688 net.cpp:131] Top shape: 1 64 1 80 (5120)
I0416 16:50:04.988200   688 net.cpp:139] Memory required for data: 318668800
I0416 16:50:04.988204   688 layer_factory.hpp:77] Creating layer SCNN_D_11_SCNN_D_10/sum_0_split
I0416 16:50:04.988207   688 net.cpp:86] Creating Layer SCNN_D_11_SCNN_D_10/sum_0_split
I0416 16:50:04.988211   688 net.cpp:408] SCNN_D_11_SCNN_D_10/sum_0_split <- SCNN_D_11
I0416 16:50:04.988216   688 net.cpp:382] SCNN_D_11_SCNN_D_10/sum_0_split -> SCNN_D_11_SCNN_D_10/sum_0_split_0
I0416 16:50:04.988224   688 net.cpp:382] SCNN_D_11_SCNN_D_10/sum_0_split -> SCNN_D_11_SCNN_D_10/sum_0_split_1
I0416 16:50:04.988250   688 net.cpp:124] Setting up SCNN_D_11_SCNN_D_10/sum_0_split
I0416 16:50:04.988255   688 net.cpp:131] Top shape: 1 64 1 80 (5120)
I0416 16:50:04.988260   688 net.cpp:131] Top shape: 1 64 1 80 (5120)
I0416 16:50:04.988263   688 net.cpp:139] Memory required for data: 318709760
I0416 16:50:04.988266   688 layer_factory.hpp:77] Creating layer SCNN_D_11
I0416 16:50:04.988272   688 net.cpp:86] Creating Layer SCNN_D_11
I0416 16:50:04.988276   688 net.cpp:408] SCNN_D_11 <- SCNN_D_11_SCNN_D_10/sum_0_split_0
I0416 16:50:04.988282   688 net.cpp:382] SCNN_D_11 -> SCNN_D_11/message
I0416 16:50:04.989913   688 net.cpp:124] Setting up SCNN_D_11
I0416 16:50:04.989923   688 net.cpp:131] Top shape: 1 64 1 80 (5120)
I0416 16:50:04.989926   688 net.cpp:139] Memory required for data: 318730240
I0416 16:50:04.989929   688 net.cpp:467] Sharing parameters 'SCNN_D_w' owned by layer 'SCNN_D_1', param index 0
I0416 16:50:04.989933   688 layer_factory.hpp:77] Creating layer SCNN_D_11/relu
I0416 16:50:04.989938   688 net.cpp:86] Creating Layer SCNN_D_11/relu
I0416 16:50:04.989940   688 net.cpp:408] SCNN_D_11/relu <- SCNN_D_11/message
I0416 16:50:04.989945   688 net.cpp:369] SCNN_D_11/relu -> SCNN_D_11/message (in-place)
I0416 16:50:04.990173   688 net.cpp:124] Setting up SCNN_D_11/relu
I0416 16:50:04.990182   688 net.cpp:131] Top shape: 1 64 1 80 (5120)
I0416 16:50:04.990185   688 net.cpp:139] Memory required for data: 318750720
I0416 16:50:04.990190   688 layer_factory.hpp:77] Creating layer SCNN_D_11/sum
I0416 16:50:04.990195   688 net.cpp:86] Creating Layer SCNN_D_11/sum
I0416 16:50:04.990198   688 net.cpp:408] SCNN_D_11/sum <- SCNN_D_11/message
I0416 16:50:04.990203   688 net.cpp:408] SCNN_D_11/sum <- slice1_12
I0416 16:50:04.990208   688 net.cpp:382] SCNN_D_11/sum -> SCNN_D_12
I0416 16:50:04.990228   688 net.cpp:124] Setting up SCNN_D_11/sum
I0416 16:50:04.990233   688 net.cpp:131] Top shape: 1 64 1 80 (5120)
I0416 16:50:04.990236   688 net.cpp:139] Memory required for data: 318771200
I0416 16:50:04.990240   688 layer_factory.hpp:77] Creating layer SCNN_D_12_SCNN_D_11/sum_0_split
I0416 16:50:04.990244   688 net.cpp:86] Creating Layer SCNN_D_12_SCNN_D_11/sum_0_split
I0416 16:50:04.990248   688 net.cpp:408] SCNN_D_12_SCNN_D_11/sum_0_split <- SCNN_D_12
I0416 16:50:04.990253   688 net.cpp:382] SCNN_D_12_SCNN_D_11/sum_0_split -> SCNN_D_12_SCNN_D_11/sum_0_split_0
I0416 16:50:04.990265   688 net.cpp:382] SCNN_D_12_SCNN_D_11/sum_0_split -> SCNN_D_12_SCNN_D_11/sum_0_split_1
I0416 16:50:04.990293   688 net.cpp:124] Setting up SCNN_D_12_SCNN_D_11/sum_0_split
I0416 16:50:04.990298   688 net.cpp:131] Top shape: 1 64 1 80 (5120)
I0416 16:50:04.990303   688 net.cpp:131] Top shape: 1 64 1 80 (5120)
I0416 16:50:04.990305   688 net.cpp:139] Memory required for data: 318812160
I0416 16:50:04.990309   688 layer_factory.hpp:77] Creating layer SCNN_D_12
I0416 16:50:04.990315   688 net.cpp:86] Creating Layer SCNN_D_12
I0416 16:50:04.990319   688 net.cpp:408] SCNN_D_12 <- SCNN_D_12_SCNN_D_11/sum_0_split_0
I0416 16:50:04.990324   688 net.cpp:382] SCNN_D_12 -> SCNN_D_12/message
I0416 16:50:04.992621   688 net.cpp:124] Setting up SCNN_D_12
I0416 16:50:04.992631   688 net.cpp:131] Top shape: 1 64 1 80 (5120)
I0416 16:50:04.992635   688 net.cpp:139] Memory required for data: 318832640
I0416 16:50:04.992636   688 net.cpp:467] Sharing parameters 'SCNN_D_w' owned by layer 'SCNN_D_1', param index 0
I0416 16:50:04.992640   688 layer_factory.hpp:77] Creating layer SCNN_D_12/relu
I0416 16:50:04.992643   688 net.cpp:86] Creating Layer SCNN_D_12/relu
I0416 16:50:04.992646   688 net.cpp:408] SCNN_D_12/relu <- SCNN_D_12/message
I0416 16:50:04.992651   688 net.cpp:369] SCNN_D_12/relu -> SCNN_D_12/message (in-place)
I0416 16:50:04.992724   688 net.cpp:124] Setting up SCNN_D_12/relu
I0416 16:50:04.992732   688 net.cpp:131] Top shape: 1 64 1 80 (5120)
I0416 16:50:04.992733   688 net.cpp:139] Memory required for data: 318853120
I0416 16:50:04.992735   688 layer_factory.hpp:77] Creating layer SCNN_D_12/sum
I0416 16:50:04.992738   688 net.cpp:86] Creating Layer SCNN_D_12/sum
I0416 16:50:04.992741   688 net.cpp:408] SCNN_D_12/sum <- SCNN_D_12/message
I0416 16:50:04.992744   688 net.cpp:408] SCNN_D_12/sum <- slice1_13
I0416 16:50:04.992748   688 net.cpp:382] SCNN_D_12/sum -> SCNN_D_13
I0416 16:50:04.992763   688 net.cpp:124] Setting up SCNN_D_12/sum
I0416 16:50:04.992767   688 net.cpp:131] Top shape: 1 64 1 80 (5120)
I0416 16:50:04.992769   688 net.cpp:139] Memory required for data: 318873600
I0416 16:50:04.992770   688 layer_factory.hpp:77] Creating layer SCNN_D_13_SCNN_D_12/sum_0_split
I0416 16:50:04.992775   688 net.cpp:86] Creating Layer SCNN_D_13_SCNN_D_12/sum_0_split
I0416 16:50:04.992782   688 net.cpp:408] SCNN_D_13_SCNN_D_12/sum_0_split <- SCNN_D_13
I0416 16:50:04.992787   688 net.cpp:382] SCNN_D_13_SCNN_D_12/sum_0_split -> SCNN_D_13_SCNN_D_12/sum_0_split_0
I0416 16:50:04.992791   688 net.cpp:382] SCNN_D_13_SCNN_D_12/sum_0_split -> SCNN_D_13_SCNN_D_12/sum_0_split_1
I0416 16:50:04.992816   688 net.cpp:124] Setting up SCNN_D_13_SCNN_D_12/sum_0_split
I0416 16:50:04.992821   688 net.cpp:131] Top shape: 1 64 1 80 (5120)
I0416 16:50:04.992825   688 net.cpp:131] Top shape: 1 64 1 80 (5120)
I0416 16:50:04.992826   688 net.cpp:139] Memory required for data: 318914560
I0416 16:50:04.992828   688 layer_factory.hpp:77] Creating layer SCNN_D_13
I0416 16:50:04.992835   688 net.cpp:86] Creating Layer SCNN_D_13
I0416 16:50:04.992836   688 net.cpp:408] SCNN_D_13 <- SCNN_D_13_SCNN_D_12/sum_0_split_0
I0416 16:50:04.992841   688 net.cpp:382] SCNN_D_13 -> SCNN_D_13/message
I0416 16:50:04.994324   688 net.cpp:124] Setting up SCNN_D_13
I0416 16:50:04.994335   688 net.cpp:131] Top shape: 1 64 1 80 (5120)
I0416 16:50:04.994338   688 net.cpp:139] Memory required for data: 318935040
I0416 16:50:04.994339   688 net.cpp:467] Sharing parameters 'SCNN_D_w' owned by layer 'SCNN_D_1', param index 0
I0416 16:50:04.994343   688 layer_factory.hpp:77] Creating layer SCNN_D_13/relu
I0416 16:50:04.994346   688 net.cpp:86] Creating Layer SCNN_D_13/relu
I0416 16:50:04.994349   688 net.cpp:408] SCNN_D_13/relu <- SCNN_D_13/message
I0416 16:50:04.994354   688 net.cpp:369] SCNN_D_13/relu -> SCNN_D_13/message (in-place)
I0416 16:50:04.994585   688 net.cpp:124] Setting up SCNN_D_13/relu
I0416 16:50:04.994592   688 net.cpp:131] Top shape: 1 64 1 80 (5120)
I0416 16:50:04.994594   688 net.cpp:139] Memory required for data: 318955520
I0416 16:50:04.994596   688 layer_factory.hpp:77] Creating layer SCNN_D_13/sum
I0416 16:50:04.994601   688 net.cpp:86] Creating Layer SCNN_D_13/sum
I0416 16:50:04.994604   688 net.cpp:408] SCNN_D_13/sum <- SCNN_D_13/message
I0416 16:50:04.994607   688 net.cpp:408] SCNN_D_13/sum <- slice1_14
I0416 16:50:04.994611   688 net.cpp:382] SCNN_D_13/sum -> SCNN_D_14
I0416 16:50:04.994628   688 net.cpp:124] Setting up SCNN_D_13/sum
I0416 16:50:04.994633   688 net.cpp:131] Top shape: 1 64 1 80 (5120)
I0416 16:50:04.994635   688 net.cpp:139] Memory required for data: 318976000
I0416 16:50:04.994637   688 layer_factory.hpp:77] Creating layer SCNN_D_14_SCNN_D_13/sum_0_split
I0416 16:50:04.994640   688 net.cpp:86] Creating Layer SCNN_D_14_SCNN_D_13/sum_0_split
I0416 16:50:04.994642   688 net.cpp:408] SCNN_D_14_SCNN_D_13/sum_0_split <- SCNN_D_14
I0416 16:50:04.994645   688 net.cpp:382] SCNN_D_14_SCNN_D_13/sum_0_split -> SCNN_D_14_SCNN_D_13/sum_0_split_0
I0416 16:50:04.994650   688 net.cpp:382] SCNN_D_14_SCNN_D_13/sum_0_split -> SCNN_D_14_SCNN_D_13/sum_0_split_1
I0416 16:50:04.994678   688 net.cpp:124] Setting up SCNN_D_14_SCNN_D_13/sum_0_split
I0416 16:50:04.994683   688 net.cpp:131] Top shape: 1 64 1 80 (5120)
I0416 16:50:04.994686   688 net.cpp:131] Top shape: 1 64 1 80 (5120)
I0416 16:50:04.994689   688 net.cpp:139] Memory required for data: 319016960
I0416 16:50:04.994693   688 layer_factory.hpp:77] Creating layer SCNN_D_14
I0416 16:50:04.994699   688 net.cpp:86] Creating Layer SCNN_D_14
I0416 16:50:04.994704   688 net.cpp:408] SCNN_D_14 <- SCNN_D_14_SCNN_D_13/sum_0_split_0
I0416 16:50:04.994709   688 net.cpp:382] SCNN_D_14 -> SCNN_D_14/message
I0416 16:50:04.996016   688 net.cpp:124] Setting up SCNN_D_14
I0416 16:50:04.996024   688 net.cpp:131] Top shape: 1 64 1 80 (5120)
I0416 16:50:04.996027   688 net.cpp:139] Memory required for data: 319037440
I0416 16:50:04.996031   688 net.cpp:467] Sharing parameters 'SCNN_D_w' owned by layer 'SCNN_D_1', param index 0
I0416 16:50:04.996035   688 layer_factory.hpp:77] Creating layer SCNN_D_14/relu
I0416 16:50:04.996042   688 net.cpp:86] Creating Layer SCNN_D_14/relu
I0416 16:50:04.996045   688 net.cpp:408] SCNN_D_14/relu <- SCNN_D_14/message
I0416 16:50:04.996050   688 net.cpp:369] SCNN_D_14/relu -> SCNN_D_14/message (in-place)
I0416 16:50:04.996282   688 net.cpp:124] Setting up SCNN_D_14/relu
I0416 16:50:04.996290   688 net.cpp:131] Top shape: 1 64 1 80 (5120)
I0416 16:50:04.996294   688 net.cpp:139] Memory required for data: 319057920
I0416 16:50:04.996297   688 layer_factory.hpp:77] Creating layer SCNN_D_14/sum
I0416 16:50:04.996304   688 net.cpp:86] Creating Layer SCNN_D_14/sum
I0416 16:50:04.996306   688 net.cpp:408] SCNN_D_14/sum <- SCNN_D_14/message
I0416 16:50:04.996311   688 net.cpp:408] SCNN_D_14/sum <- slice1_15
I0416 16:50:04.996315   688 net.cpp:382] SCNN_D_14/sum -> SCNN_D_15
I0416 16:50:04.996335   688 net.cpp:124] Setting up SCNN_D_14/sum
I0416 16:50:04.996340   688 net.cpp:131] Top shape: 1 64 1 80 (5120)
I0416 16:50:04.996342   688 net.cpp:139] Memory required for data: 319078400
I0416 16:50:04.996345   688 layer_factory.hpp:77] Creating layer SCNN_D_15_SCNN_D_14/sum_0_split
I0416 16:50:04.996351   688 net.cpp:86] Creating Layer SCNN_D_15_SCNN_D_14/sum_0_split
I0416 16:50:04.996354   688 net.cpp:408] SCNN_D_15_SCNN_D_14/sum_0_split <- SCNN_D_15
I0416 16:50:04.996361   688 net.cpp:382] SCNN_D_15_SCNN_D_14/sum_0_split -> SCNN_D_15_SCNN_D_14/sum_0_split_0
I0416 16:50:04.996371   688 net.cpp:382] SCNN_D_15_SCNN_D_14/sum_0_split -> SCNN_D_15_SCNN_D_14/sum_0_split_1
I0416 16:50:04.996403   688 net.cpp:124] Setting up SCNN_D_15_SCNN_D_14/sum_0_split
I0416 16:50:04.996410   688 net.cpp:131] Top shape: 1 64 1 80 (5120)
I0416 16:50:04.996414   688 net.cpp:131] Top shape: 1 64 1 80 (5120)
I0416 16:50:04.996417   688 net.cpp:139] Memory required for data: 319119360
I0416 16:50:04.996420   688 layer_factory.hpp:77] Creating layer SCNN_D_15
I0416 16:50:04.996426   688 net.cpp:86] Creating Layer SCNN_D_15
I0416 16:50:04.996430   688 net.cpp:408] SCNN_D_15 <- SCNN_D_15_SCNN_D_14/sum_0_split_0
I0416 16:50:04.996438   688 net.cpp:382] SCNN_D_15 -> SCNN_D_15/message
I0416 16:50:04.998760   688 net.cpp:124] Setting up SCNN_D_15
I0416 16:50:04.998771   688 net.cpp:131] Top shape: 1 64 1 80 (5120)
I0416 16:50:04.998775   688 net.cpp:139] Memory required for data: 319139840
I0416 16:50:04.998780   688 net.cpp:467] Sharing parameters 'SCNN_D_w' owned by layer 'SCNN_D_1', param index 0
I0416 16:50:04.998783   688 layer_factory.hpp:77] Creating layer SCNN_D_15/relu
I0416 16:50:04.998788   688 net.cpp:86] Creating Layer SCNN_D_15/relu
I0416 16:50:04.998792   688 net.cpp:408] SCNN_D_15/relu <- SCNN_D_15/message
I0416 16:50:04.998800   688 net.cpp:369] SCNN_D_15/relu -> SCNN_D_15/message (in-place)
I0416 16:50:04.998873   688 net.cpp:124] Setting up SCNN_D_15/relu
I0416 16:50:04.998880   688 net.cpp:131] Top shape: 1 64 1 80 (5120)
I0416 16:50:04.998883   688 net.cpp:139] Memory required for data: 319160320
I0416 16:50:04.998888   688 layer_factory.hpp:77] Creating layer SCNN_D_15/sum
I0416 16:50:04.998893   688 net.cpp:86] Creating Layer SCNN_D_15/sum
I0416 16:50:04.998896   688 net.cpp:408] SCNN_D_15/sum <- SCNN_D_15/message
I0416 16:50:04.998901   688 net.cpp:408] SCNN_D_15/sum <- slice1_16
I0416 16:50:04.998906   688 net.cpp:382] SCNN_D_15/sum -> SCNN_D_16
I0416 16:50:04.998924   688 net.cpp:124] Setting up SCNN_D_15/sum
I0416 16:50:04.998929   688 net.cpp:131] Top shape: 1 64 1 80 (5120)
I0416 16:50:04.998932   688 net.cpp:139] Memory required for data: 319180800
I0416 16:50:04.998935   688 layer_factory.hpp:77] Creating layer SCNN_D_16_SCNN_D_15/sum_0_split
I0416 16:50:04.998942   688 net.cpp:86] Creating Layer SCNN_D_16_SCNN_D_15/sum_0_split
I0416 16:50:04.998946   688 net.cpp:408] SCNN_D_16_SCNN_D_15/sum_0_split <- SCNN_D_16
I0416 16:50:04.998950   688 net.cpp:382] SCNN_D_16_SCNN_D_15/sum_0_split -> SCNN_D_16_SCNN_D_15/sum_0_split_0
I0416 16:50:04.998955   688 net.cpp:382] SCNN_D_16_SCNN_D_15/sum_0_split -> SCNN_D_16_SCNN_D_15/sum_0_split_1
I0416 16:50:04.998980   688 net.cpp:124] Setting up SCNN_D_16_SCNN_D_15/sum_0_split
I0416 16:50:04.998986   688 net.cpp:131] Top shape: 1 64 1 80 (5120)
I0416 16:50:04.998991   688 net.cpp:131] Top shape: 1 64 1 80 (5120)
I0416 16:50:04.998993   688 net.cpp:139] Memory required for data: 319221760
I0416 16:50:04.998996   688 layer_factory.hpp:77] Creating layer SCNN_D_16
I0416 16:50:04.999004   688 net.cpp:86] Creating Layer SCNN_D_16
I0416 16:50:04.999008   688 net.cpp:408] SCNN_D_16 <- SCNN_D_16_SCNN_D_15/sum_0_split_0
I0416 16:50:04.999016   688 net.cpp:382] SCNN_D_16 -> SCNN_D_16/message
I0416 16:50:05.000514   688 net.cpp:124] Setting up SCNN_D_16
I0416 16:50:05.000524   688 net.cpp:131] Top shape: 1 64 1 80 (5120)
I0416 16:50:05.000526   688 net.cpp:139] Memory required for data: 319242240
I0416 16:50:05.000530   688 net.cpp:467] Sharing parameters 'SCNN_D_w' owned by layer 'SCNN_D_1', param index 0
I0416 16:50:05.000535   688 layer_factory.hpp:77] Creating layer SCNN_D_16/relu
I0416 16:50:05.000541   688 net.cpp:86] Creating Layer SCNN_D_16/relu
I0416 16:50:05.000545   688 net.cpp:408] SCNN_D_16/relu <- SCNN_D_16/message
I0416 16:50:05.000550   688 net.cpp:369] SCNN_D_16/relu -> SCNN_D_16/message (in-place)
I0416 16:50:05.000782   688 net.cpp:124] Setting up SCNN_D_16/relu
I0416 16:50:05.000789   688 net.cpp:131] Top shape: 1 64 1 80 (5120)
I0416 16:50:05.000793   688 net.cpp:139] Memory required for data: 319262720
I0416 16:50:05.000797   688 layer_factory.hpp:77] Creating layer SCNN_D_16/sum
I0416 16:50:05.000802   688 net.cpp:86] Creating Layer SCNN_D_16/sum
I0416 16:50:05.000807   688 net.cpp:408] SCNN_D_16/sum <- SCNN_D_16/message
I0416 16:50:05.000811   688 net.cpp:408] SCNN_D_16/sum <- slice1_17
I0416 16:50:05.000816   688 net.cpp:382] SCNN_D_16/sum -> SCNN_D_17
I0416 16:50:05.000835   688 net.cpp:124] Setting up SCNN_D_16/sum
I0416 16:50:05.000840   688 net.cpp:131] Top shape: 1 64 1 80 (5120)
I0416 16:50:05.000844   688 net.cpp:139] Memory required for data: 319283200
I0416 16:50:05.000847   688 layer_factory.hpp:77] Creating layer SCNN_D_17_SCNN_D_16/sum_0_split
I0416 16:50:05.000854   688 net.cpp:86] Creating Layer SCNN_D_17_SCNN_D_16/sum_0_split
I0416 16:50:05.000859   688 net.cpp:408] SCNN_D_17_SCNN_D_16/sum_0_split <- SCNN_D_17
I0416 16:50:05.000864   688 net.cpp:382] SCNN_D_17_SCNN_D_16/sum_0_split -> SCNN_D_17_SCNN_D_16/sum_0_split_0
I0416 16:50:05.000876   688 net.cpp:382] SCNN_D_17_SCNN_D_16/sum_0_split -> SCNN_D_17_SCNN_D_16/sum_0_split_1
I0416 16:50:05.000905   688 net.cpp:124] Setting up SCNN_D_17_SCNN_D_16/sum_0_split
I0416 16:50:05.000912   688 net.cpp:131] Top shape: 1 64 1 80 (5120)
I0416 16:50:05.000916   688 net.cpp:131] Top shape: 1 64 1 80 (5120)
I0416 16:50:05.000919   688 net.cpp:139] Memory required for data: 319324160
I0416 16:50:05.000921   688 layer_factory.hpp:77] Creating layer SCNN_D_17
I0416 16:50:05.000927   688 net.cpp:86] Creating Layer SCNN_D_17
I0416 16:50:05.000931   688 net.cpp:408] SCNN_D_17 <- SCNN_D_17_SCNN_D_16/sum_0_split_0
I0416 16:50:05.000938   688 net.cpp:382] SCNN_D_17 -> SCNN_D_17/message
I0416 16:50:05.002429   688 net.cpp:124] Setting up SCNN_D_17
I0416 16:50:05.002439   688 net.cpp:131] Top shape: 1 64 1 80 (5120)
I0416 16:50:05.002444   688 net.cpp:139] Memory required for data: 319344640
I0416 16:50:05.002447   688 net.cpp:467] Sharing parameters 'SCNN_D_w' owned by layer 'SCNN_D_1', param index 0
I0416 16:50:05.002451   688 layer_factory.hpp:77] Creating layer SCNN_D_17/relu
I0416 16:50:05.002456   688 net.cpp:86] Creating Layer SCNN_D_17/relu
I0416 16:50:05.002460   688 net.cpp:408] SCNN_D_17/relu <- SCNN_D_17/message
I0416 16:50:05.002465   688 net.cpp:369] SCNN_D_17/relu -> SCNN_D_17/message (in-place)
I0416 16:50:05.002537   688 net.cpp:124] Setting up SCNN_D_17/relu
I0416 16:50:05.002543   688 net.cpp:131] Top shape: 1 64 1 80 (5120)
I0416 16:50:05.002545   688 net.cpp:139] Memory required for data: 319365120
I0416 16:50:05.002547   688 layer_factory.hpp:77] Creating layer SCNN_D_17/sum
I0416 16:50:05.002552   688 net.cpp:86] Creating Layer SCNN_D_17/sum
I0416 16:50:05.002555   688 net.cpp:408] SCNN_D_17/sum <- SCNN_D_17/message
I0416 16:50:05.002559   688 net.cpp:408] SCNN_D_17/sum <- slice1_18
I0416 16:50:05.002564   688 net.cpp:382] SCNN_D_17/sum -> SCNN_D_18
I0416 16:50:05.002583   688 net.cpp:124] Setting up SCNN_D_17/sum
I0416 16:50:05.002588   688 net.cpp:131] Top shape: 1 64 1 80 (5120)
I0416 16:50:05.002590   688 net.cpp:139] Memory required for data: 319385600
I0416 16:50:05.002593   688 layer_factory.hpp:77] Creating layer SCNN_D_18_SCNN_D_17/sum_0_split
I0416 16:50:05.002600   688 net.cpp:86] Creating Layer SCNN_D_18_SCNN_D_17/sum_0_split
I0416 16:50:05.002604   688 net.cpp:408] SCNN_D_18_SCNN_D_17/sum_0_split <- SCNN_D_18
I0416 16:50:05.002609   688 net.cpp:382] SCNN_D_18_SCNN_D_17/sum_0_split -> SCNN_D_18_SCNN_D_17/sum_0_split_0
I0416 16:50:05.002619   688 net.cpp:382] SCNN_D_18_SCNN_D_17/sum_0_split -> SCNN_D_18_SCNN_D_17/sum_0_split_1
I0416 16:50:05.002647   688 net.cpp:124] Setting up SCNN_D_18_SCNN_D_17/sum_0_split
I0416 16:50:05.002653   688 net.cpp:131] Top shape: 1 64 1 80 (5120)
I0416 16:50:05.002655   688 net.cpp:131] Top shape: 1 64 1 80 (5120)
I0416 16:50:05.002657   688 net.cpp:139] Memory required for data: 319426560
I0416 16:50:05.002660   688 layer_factory.hpp:77] Creating layer SCNN_D_18
I0416 16:50:05.002665   688 net.cpp:86] Creating Layer SCNN_D_18
I0416 16:50:05.002668   688 net.cpp:408] SCNN_D_18 <- SCNN_D_18_SCNN_D_17/sum_0_split_0
I0416 16:50:05.002672   688 net.cpp:382] SCNN_D_18 -> SCNN_D_18/message
I0416 16:50:05.004145   688 net.cpp:124] Setting up SCNN_D_18
I0416 16:50:05.004154   688 net.cpp:131] Top shape: 1 64 1 80 (5120)
I0416 16:50:05.004156   688 net.cpp:139] Memory required for data: 319447040
I0416 16:50:05.004159   688 net.cpp:467] Sharing parameters 'SCNN_D_w' owned by layer 'SCNN_D_1', param index 0
I0416 16:50:05.004161   688 layer_factory.hpp:77] Creating layer SCNN_D_18/relu
I0416 16:50:05.004171   688 net.cpp:86] Creating Layer SCNN_D_18/relu
I0416 16:50:05.004176   688 net.cpp:408] SCNN_D_18/relu <- SCNN_D_18/message
I0416 16:50:05.004179   688 net.cpp:369] SCNN_D_18/relu -> SCNN_D_18/message (in-place)
I0416 16:50:05.005262   688 net.cpp:124] Setting up SCNN_D_18/relu
I0416 16:50:05.005273   688 net.cpp:131] Top shape: 1 64 1 80 (5120)
I0416 16:50:05.005275   688 net.cpp:139] Memory required for data: 319467520
I0416 16:50:05.005277   688 layer_factory.hpp:77] Creating layer SCNN_D_18/sum
I0416 16:50:05.005282   688 net.cpp:86] Creating Layer SCNN_D_18/sum
I0416 16:50:05.005285   688 net.cpp:408] SCNN_D_18/sum <- SCNN_D_18/message
I0416 16:50:05.005288   688 net.cpp:408] SCNN_D_18/sum <- slice1_19
I0416 16:50:05.005292   688 net.cpp:382] SCNN_D_18/sum -> SCNN_D_19
I0416 16:50:05.005312   688 net.cpp:124] Setting up SCNN_D_18/sum
I0416 16:50:05.005317   688 net.cpp:131] Top shape: 1 64 1 80 (5120)
I0416 16:50:05.005319   688 net.cpp:139] Memory required for data: 319488000
I0416 16:50:05.005321   688 layer_factory.hpp:77] Creating layer SCNN_D_19_SCNN_D_18/sum_0_split
I0416 16:50:05.005324   688 net.cpp:86] Creating Layer SCNN_D_19_SCNN_D_18/sum_0_split
I0416 16:50:05.005327   688 net.cpp:408] SCNN_D_19_SCNN_D_18/sum_0_split <- SCNN_D_19
I0416 16:50:05.005331   688 net.cpp:382] SCNN_D_19_SCNN_D_18/sum_0_split -> SCNN_D_19_SCNN_D_18/sum_0_split_0
I0416 16:50:05.005336   688 net.cpp:382] SCNN_D_19_SCNN_D_18/sum_0_split -> SCNN_D_19_SCNN_D_18/sum_0_split_1
I0416 16:50:05.005359   688 net.cpp:124] Setting up SCNN_D_19_SCNN_D_18/sum_0_split
I0416 16:50:05.005364   688 net.cpp:131] Top shape: 1 64 1 80 (5120)
I0416 16:50:05.005367   688 net.cpp:131] Top shape: 1 64 1 80 (5120)
I0416 16:50:05.005368   688 net.cpp:139] Memory required for data: 319528960
I0416 16:50:05.005370   688 layer_factory.hpp:77] Creating layer SCNN_D_19
I0416 16:50:05.005378   688 net.cpp:86] Creating Layer SCNN_D_19
I0416 16:50:05.005380   688 net.cpp:408] SCNN_D_19 <- SCNN_D_19_SCNN_D_18/sum_0_split_0
I0416 16:50:05.005385   688 net.cpp:382] SCNN_D_19 -> SCNN_D_19/message
I0416 16:50:05.006861   688 net.cpp:124] Setting up SCNN_D_19
I0416 16:50:05.006870   688 net.cpp:131] Top shape: 1 64 1 80 (5120)
I0416 16:50:05.006872   688 net.cpp:139] Memory required for data: 319549440
I0416 16:50:05.006875   688 net.cpp:467] Sharing parameters 'SCNN_D_w' owned by layer 'SCNN_D_1', param index 0
I0416 16:50:05.006877   688 layer_factory.hpp:77] Creating layer SCNN_D_19/relu
I0416 16:50:05.006883   688 net.cpp:86] Creating Layer SCNN_D_19/relu
I0416 16:50:05.006886   688 net.cpp:408] SCNN_D_19/relu <- SCNN_D_19/message
I0416 16:50:05.006891   688 net.cpp:369] SCNN_D_19/relu -> SCNN_D_19/message (in-place)
I0416 16:50:05.006964   688 net.cpp:124] Setting up SCNN_D_19/relu
I0416 16:50:05.006970   688 net.cpp:131] Top shape: 1 64 1 80 (5120)
I0416 16:50:05.006973   688 net.cpp:139] Memory required for data: 319569920
I0416 16:50:05.006974   688 layer_factory.hpp:77] Creating layer SCNN_D_19/sum
I0416 16:50:05.006978   688 net.cpp:86] Creating Layer SCNN_D_19/sum
I0416 16:50:05.006980   688 net.cpp:408] SCNN_D_19/sum <- SCNN_D_19/message
I0416 16:50:05.006983   688 net.cpp:408] SCNN_D_19/sum <- slice1_20
I0416 16:50:05.006988   688 net.cpp:382] SCNN_D_19/sum -> SCNN_D_20
I0416 16:50:05.007004   688 net.cpp:124] Setting up SCNN_D_19/sum
I0416 16:50:05.007010   688 net.cpp:131] Top shape: 1 64 1 80 (5120)
I0416 16:50:05.007014   688 net.cpp:139] Memory required for data: 319590400
I0416 16:50:05.007016   688 layer_factory.hpp:77] Creating layer SCNN_D_20_SCNN_D_19/sum_0_split
I0416 16:50:05.007021   688 net.cpp:86] Creating Layer SCNN_D_20_SCNN_D_19/sum_0_split
I0416 16:50:05.007025   688 net.cpp:408] SCNN_D_20_SCNN_D_19/sum_0_split <- SCNN_D_20
I0416 16:50:05.007030   688 net.cpp:382] SCNN_D_20_SCNN_D_19/sum_0_split -> SCNN_D_20_SCNN_D_19/sum_0_split_0
I0416 16:50:05.007035   688 net.cpp:382] SCNN_D_20_SCNN_D_19/sum_0_split -> SCNN_D_20_SCNN_D_19/sum_0_split_1
I0416 16:50:05.007061   688 net.cpp:124] Setting up SCNN_D_20_SCNN_D_19/sum_0_split
I0416 16:50:05.007066   688 net.cpp:131] Top shape: 1 64 1 80 (5120)
I0416 16:50:05.007069   688 net.cpp:131] Top shape: 1 64 1 80 (5120)
I0416 16:50:05.007072   688 net.cpp:139] Memory required for data: 319631360
I0416 16:50:05.007074   688 layer_factory.hpp:77] Creating layer SCNN_D_20
I0416 16:50:05.007081   688 net.cpp:86] Creating Layer SCNN_D_20
I0416 16:50:05.007086   688 net.cpp:408] SCNN_D_20 <- SCNN_D_20_SCNN_D_19/sum_0_split_0
I0416 16:50:05.007091   688 net.cpp:382] SCNN_D_20 -> SCNN_D_20/message
I0416 16:50:05.008581   688 net.cpp:124] Setting up SCNN_D_20
I0416 16:50:05.008591   688 net.cpp:131] Top shape: 1 64 1 80 (5120)
I0416 16:50:05.008595   688 net.cpp:139] Memory required for data: 319651840
I0416 16:50:05.008599   688 net.cpp:467] Sharing parameters 'SCNN_D_w' owned by layer 'SCNN_D_1', param index 0
I0416 16:50:05.008602   688 layer_factory.hpp:77] Creating layer SCNN_D_20/relu
I0416 16:50:05.008607   688 net.cpp:86] Creating Layer SCNN_D_20/relu
I0416 16:50:05.008611   688 net.cpp:408] SCNN_D_20/relu <- SCNN_D_20/message
I0416 16:50:05.008616   688 net.cpp:369] SCNN_D_20/relu -> SCNN_D_20/message (in-place)
I0416 16:50:05.008846   688 net.cpp:124] Setting up SCNN_D_20/relu
I0416 16:50:05.008854   688 net.cpp:131] Top shape: 1 64 1 80 (5120)
I0416 16:50:05.008858   688 net.cpp:139] Memory required for data: 319672320
I0416 16:50:05.008862   688 layer_factory.hpp:77] Creating layer SCNN_D_20/sum
I0416 16:50:05.008867   688 net.cpp:86] Creating Layer SCNN_D_20/sum
I0416 16:50:05.008870   688 net.cpp:408] SCNN_D_20/sum <- SCNN_D_20/message
I0416 16:50:05.008875   688 net.cpp:408] SCNN_D_20/sum <- slice1_21
I0416 16:50:05.008882   688 net.cpp:382] SCNN_D_20/sum -> SCNN_D_21
I0416 16:50:05.008900   688 net.cpp:124] Setting up SCNN_D_20/sum
I0416 16:50:05.008905   688 net.cpp:131] Top shape: 1 64 1 80 (5120)
I0416 16:50:05.008908   688 net.cpp:139] Memory required for data: 319692800
I0416 16:50:05.008910   688 layer_factory.hpp:77] Creating layer SCNN_D_21_SCNN_D_20/sum_0_split
I0416 16:50:05.008913   688 net.cpp:86] Creating Layer SCNN_D_21_SCNN_D_20/sum_0_split
I0416 16:50:05.008915   688 net.cpp:408] SCNN_D_21_SCNN_D_20/sum_0_split <- SCNN_D_21
I0416 16:50:05.008919   688 net.cpp:382] SCNN_D_21_SCNN_D_20/sum_0_split -> SCNN_D_21_SCNN_D_20/sum_0_split_0
I0416 16:50:05.008924   688 net.cpp:382] SCNN_D_21_SCNN_D_20/sum_0_split -> SCNN_D_21_SCNN_D_20/sum_0_split_1
I0416 16:50:05.008949   688 net.cpp:124] Setting up SCNN_D_21_SCNN_D_20/sum_0_split
I0416 16:50:05.008954   688 net.cpp:131] Top shape: 1 64 1 80 (5120)
I0416 16:50:05.008957   688 net.cpp:131] Top shape: 1 64 1 80 (5120)
I0416 16:50:05.008960   688 net.cpp:139] Memory required for data: 319733760
I0416 16:50:05.008962   688 layer_factory.hpp:77] Creating layer SCNN_D_21
I0416 16:50:05.008970   688 net.cpp:86] Creating Layer SCNN_D_21
I0416 16:50:05.008973   688 net.cpp:408] SCNN_D_21 <- SCNN_D_21_SCNN_D_20/sum_0_split_0
I0416 16:50:05.008978   688 net.cpp:382] SCNN_D_21 -> SCNN_D_21/message
I0416 16:50:05.010274   688 net.cpp:124] Setting up SCNN_D_21
I0416 16:50:05.010283   688 net.cpp:131] Top shape: 1 64 1 80 (5120)
I0416 16:50:05.010287   688 net.cpp:139] Memory required for data: 319754240
I0416 16:50:05.010290   688 net.cpp:467] Sharing parameters 'SCNN_D_w' owned by layer 'SCNN_D_1', param index 0
I0416 16:50:05.010293   688 layer_factory.hpp:77] Creating layer SCNN_D_21/relu
I0416 16:50:05.010298   688 net.cpp:86] Creating Layer SCNN_D_21/relu
I0416 16:50:05.010303   688 net.cpp:408] SCNN_D_21/relu <- SCNN_D_21/message
I0416 16:50:05.010308   688 net.cpp:369] SCNN_D_21/relu -> SCNN_D_21/message (in-place)
I0416 16:50:05.010534   688 net.cpp:124] Setting up SCNN_D_21/relu
I0416 16:50:05.010542   688 net.cpp:131] Top shape: 1 64 1 80 (5120)
I0416 16:50:05.010545   688 net.cpp:139] Memory required for data: 319774720
I0416 16:50:05.010550   688 layer_factory.hpp:77] Creating layer SCNN_D_21/sum
I0416 16:50:05.010556   688 net.cpp:86] Creating Layer SCNN_D_21/sum
I0416 16:50:05.010560   688 net.cpp:408] SCNN_D_21/sum <- SCNN_D_21/message
I0416 16:50:05.010565   688 net.cpp:408] SCNN_D_21/sum <- slice1_22
I0416 16:50:05.010571   688 net.cpp:382] SCNN_D_21/sum -> SCNN_D_22
I0416 16:50:05.010588   688 net.cpp:124] Setting up SCNN_D_21/sum
I0416 16:50:05.010593   688 net.cpp:131] Top shape: 1 64 1 80 (5120)
I0416 16:50:05.010596   688 net.cpp:139] Memory required for data: 319795200
I0416 16:50:05.010599   688 layer_factory.hpp:77] Creating layer SCNN_D_22_SCNN_D_21/sum_0_split
I0416 16:50:05.010603   688 net.cpp:86] Creating Layer SCNN_D_22_SCNN_D_21/sum_0_split
I0416 16:50:05.010607   688 net.cpp:408] SCNN_D_22_SCNN_D_21/sum_0_split <- SCNN_D_22
I0416 16:50:05.010612   688 net.cpp:382] SCNN_D_22_SCNN_D_21/sum_0_split -> SCNN_D_22_SCNN_D_21/sum_0_split_0
I0416 16:50:05.010617   688 net.cpp:382] SCNN_D_22_SCNN_D_21/sum_0_split -> SCNN_D_22_SCNN_D_21/sum_0_split_1
I0416 16:50:05.010643   688 net.cpp:124] Setting up SCNN_D_22_SCNN_D_21/sum_0_split
I0416 16:50:05.010648   688 net.cpp:131] Top shape: 1 64 1 80 (5120)
I0416 16:50:05.010651   688 net.cpp:131] Top shape: 1 64 1 80 (5120)
I0416 16:50:05.010654   688 net.cpp:139] Memory required for data: 319836160
I0416 16:50:05.010656   688 layer_factory.hpp:77] Creating layer SCNN_D_22
I0416 16:50:05.010663   688 net.cpp:86] Creating Layer SCNN_D_22
I0416 16:50:05.010666   688 net.cpp:408] SCNN_D_22 <- SCNN_D_22_SCNN_D_21/sum_0_split_0
I0416 16:50:05.010673   688 net.cpp:382] SCNN_D_22 -> SCNN_D_22/message
I0416 16:50:05.013053   688 net.cpp:124] Setting up SCNN_D_22
I0416 16:50:05.013064   688 net.cpp:131] Top shape: 1 64 1 80 (5120)
I0416 16:50:05.013068   688 net.cpp:139] Memory required for data: 319856640
I0416 16:50:05.013072   688 net.cpp:467] Sharing parameters 'SCNN_D_w' owned by layer 'SCNN_D_1', param index 0
I0416 16:50:05.013075   688 layer_factory.hpp:77] Creating layer SCNN_D_22/relu
I0416 16:50:05.013094   688 net.cpp:86] Creating Layer SCNN_D_22/relu
I0416 16:50:05.013098   688 net.cpp:408] SCNN_D_22/relu <- SCNN_D_22/message
I0416 16:50:05.013103   688 net.cpp:369] SCNN_D_22/relu -> SCNN_D_22/message (in-place)
I0416 16:50:05.013168   688 net.cpp:124] Setting up SCNN_D_22/relu
I0416 16:50:05.013175   688 net.cpp:131] Top shape: 1 64 1 80 (5120)
I0416 16:50:05.013178   688 net.cpp:139] Memory required for data: 319877120
I0416 16:50:05.013180   688 layer_factory.hpp:77] Creating layer SCNN_D_22/sum
I0416 16:50:05.013183   688 net.cpp:86] Creating Layer SCNN_D_22/sum
I0416 16:50:05.013186   688 net.cpp:408] SCNN_D_22/sum <- SCNN_D_22/message
I0416 16:50:05.013191   688 net.cpp:408] SCNN_D_22/sum <- slice1_23
I0416 16:50:05.013195   688 net.cpp:382] SCNN_D_22/sum -> SCNN_D_23
I0416 16:50:05.013211   688 net.cpp:124] Setting up SCNN_D_22/sum
I0416 16:50:05.013216   688 net.cpp:131] Top shape: 1 64 1 80 (5120)
I0416 16:50:05.013219   688 net.cpp:139] Memory required for data: 319897600
I0416 16:50:05.013222   688 layer_factory.hpp:77] Creating layer SCNN_D_23_SCNN_D_22/sum_0_split
I0416 16:50:05.013226   688 net.cpp:86] Creating Layer SCNN_D_23_SCNN_D_22/sum_0_split
I0416 16:50:05.013229   688 net.cpp:408] SCNN_D_23_SCNN_D_22/sum_0_split <- SCNN_D_23
I0416 16:50:05.013234   688 net.cpp:382] SCNN_D_23_SCNN_D_22/sum_0_split -> SCNN_D_23_SCNN_D_22/sum_0_split_0
I0416 16:50:05.013240   688 net.cpp:382] SCNN_D_23_SCNN_D_22/sum_0_split -> SCNN_D_23_SCNN_D_22/sum_0_split_1
I0416 16:50:05.013263   688 net.cpp:124] Setting up SCNN_D_23_SCNN_D_22/sum_0_split
I0416 16:50:05.013268   688 net.cpp:131] Top shape: 1 64 1 80 (5120)
I0416 16:50:05.013273   688 net.cpp:131] Top shape: 1 64 1 80 (5120)
I0416 16:50:05.013275   688 net.cpp:139] Memory required for data: 319938560
I0416 16:50:05.013278   688 layer_factory.hpp:77] Creating layer SCNN_D_23
I0416 16:50:05.013283   688 net.cpp:86] Creating Layer SCNN_D_23
I0416 16:50:05.013288   688 net.cpp:408] SCNN_D_23 <- SCNN_D_23_SCNN_D_22/sum_0_split_0
I0416 16:50:05.013293   688 net.cpp:382] SCNN_D_23 -> SCNN_D_23/message
I0416 16:50:05.015395   688 net.cpp:124] Setting up SCNN_D_23
I0416 16:50:05.015406   688 net.cpp:131] Top shape: 1 64 1 80 (5120)
I0416 16:50:05.015410   688 net.cpp:139] Memory required for data: 319959040
I0416 16:50:05.015413   688 net.cpp:467] Sharing parameters 'SCNN_D_w' owned by layer 'SCNN_D_1', param index 0
I0416 16:50:05.015416   688 layer_factory.hpp:77] Creating layer SCNN_D_23/relu
I0416 16:50:05.015422   688 net.cpp:86] Creating Layer SCNN_D_23/relu
I0416 16:50:05.015426   688 net.cpp:408] SCNN_D_23/relu <- SCNN_D_23/message
I0416 16:50:05.015430   688 net.cpp:369] SCNN_D_23/relu -> SCNN_D_23/message (in-place)
I0416 16:50:05.015666   688 net.cpp:124] Setting up SCNN_D_23/relu
I0416 16:50:05.015673   688 net.cpp:131] Top shape: 1 64 1 80 (5120)
I0416 16:50:05.015676   688 net.cpp:139] Memory required for data: 319979520
I0416 16:50:05.015678   688 layer_factory.hpp:77] Creating layer SCNN_D_23/sum
I0416 16:50:05.015683   688 net.cpp:86] Creating Layer SCNN_D_23/sum
I0416 16:50:05.015686   688 net.cpp:408] SCNN_D_23/sum <- SCNN_D_23/message
I0416 16:50:05.015689   688 net.cpp:408] SCNN_D_23/sum <- slice1_24
I0416 16:50:05.015694   688 net.cpp:382] SCNN_D_23/sum -> SCNN_D_24
I0416 16:50:05.015713   688 net.cpp:124] Setting up SCNN_D_23/sum
I0416 16:50:05.015718   688 net.cpp:131] Top shape: 1 64 1 80 (5120)
I0416 16:50:05.015720   688 net.cpp:139] Memory required for data: 320000000
I0416 16:50:05.015722   688 layer_factory.hpp:77] Creating layer SCNN_D_24_SCNN_D_23/sum_0_split
I0416 16:50:05.015727   688 net.cpp:86] Creating Layer SCNN_D_24_SCNN_D_23/sum_0_split
I0416 16:50:05.015728   688 net.cpp:408] SCNN_D_24_SCNN_D_23/sum_0_split <- SCNN_D_24
I0416 16:50:05.015733   688 net.cpp:382] SCNN_D_24_SCNN_D_23/sum_0_split -> SCNN_D_24_SCNN_D_23/sum_0_split_0
I0416 16:50:05.015736   688 net.cpp:382] SCNN_D_24_SCNN_D_23/sum_0_split -> SCNN_D_24_SCNN_D_23/sum_0_split_1
I0416 16:50:05.015761   688 net.cpp:124] Setting up SCNN_D_24_SCNN_D_23/sum_0_split
I0416 16:50:05.015766   688 net.cpp:131] Top shape: 1 64 1 80 (5120)
I0416 16:50:05.015770   688 net.cpp:131] Top shape: 1 64 1 80 (5120)
I0416 16:50:05.015772   688 net.cpp:139] Memory required for data: 320040960
I0416 16:50:05.015774   688 layer_factory.hpp:77] Creating layer SCNN_D_24
I0416 16:50:05.015780   688 net.cpp:86] Creating Layer SCNN_D_24
I0416 16:50:05.015784   688 net.cpp:408] SCNN_D_24 <- SCNN_D_24_SCNN_D_23/sum_0_split_0
I0416 16:50:05.015789   688 net.cpp:382] SCNN_D_24 -> SCNN_D_24/message
I0416 16:50:05.017271   688 net.cpp:124] Setting up SCNN_D_24
I0416 16:50:05.017279   688 net.cpp:131] Top shape: 1 64 1 80 (5120)
I0416 16:50:05.017283   688 net.cpp:139] Memory required for data: 320061440
I0416 16:50:05.017287   688 net.cpp:467] Sharing parameters 'SCNN_D_w' owned by layer 'SCNN_D_1', param index 0
I0416 16:50:05.017290   688 layer_factory.hpp:77] Creating layer SCNN_D_24/relu
I0416 16:50:05.017295   688 net.cpp:86] Creating Layer SCNN_D_24/relu
I0416 16:50:05.017299   688 net.cpp:408] SCNN_D_24/relu <- SCNN_D_24/message
I0416 16:50:05.017305   688 net.cpp:369] SCNN_D_24/relu -> SCNN_D_24/message (in-place)
I0416 16:50:05.017379   688 net.cpp:124] Setting up SCNN_D_24/relu
I0416 16:50:05.017385   688 net.cpp:131] Top shape: 1 64 1 80 (5120)
I0416 16:50:05.017390   688 net.cpp:139] Memory required for data: 320081920
I0416 16:50:05.017392   688 layer_factory.hpp:77] Creating layer SCNN_D_24/sum
I0416 16:50:05.017397   688 net.cpp:86] Creating Layer SCNN_D_24/sum
I0416 16:50:05.017401   688 net.cpp:408] SCNN_D_24/sum <- SCNN_D_24/message
I0416 16:50:05.017405   688 net.cpp:408] SCNN_D_24/sum <- slice1_25
I0416 16:50:05.017410   688 net.cpp:382] SCNN_D_24/sum -> SCNN_D_25
I0416 16:50:05.017429   688 net.cpp:124] Setting up SCNN_D_24/sum
I0416 16:50:05.017434   688 net.cpp:131] Top shape: 1 64 1 80 (5120)
I0416 16:50:05.017437   688 net.cpp:139] Memory required for data: 320102400
I0416 16:50:05.017439   688 layer_factory.hpp:77] Creating layer SCNN_D_25_SCNN_D_24/sum_0_split
I0416 16:50:05.017446   688 net.cpp:86] Creating Layer SCNN_D_25_SCNN_D_24/sum_0_split
I0416 16:50:05.017448   688 net.cpp:408] SCNN_D_25_SCNN_D_24/sum_0_split <- SCNN_D_25
I0416 16:50:05.017453   688 net.cpp:382] SCNN_D_25_SCNN_D_24/sum_0_split -> SCNN_D_25_SCNN_D_24/sum_0_split_0
I0416 16:50:05.017464   688 net.cpp:382] SCNN_D_25_SCNN_D_24/sum_0_split -> SCNN_D_25_SCNN_D_24/sum_0_split_1
I0416 16:50:05.017499   688 net.cpp:124] Setting up SCNN_D_25_SCNN_D_24/sum_0_split
I0416 16:50:05.017504   688 net.cpp:131] Top shape: 1 64 1 80 (5120)
I0416 16:50:05.017508   688 net.cpp:131] Top shape: 1 64 1 80 (5120)
I0416 16:50:05.017511   688 net.cpp:139] Memory required for data: 320143360
I0416 16:50:05.017514   688 layer_factory.hpp:77] Creating layer SCNN_D_25
I0416 16:50:05.017521   688 net.cpp:86] Creating Layer SCNN_D_25
I0416 16:50:05.017525   688 net.cpp:408] SCNN_D_25 <- SCNN_D_25_SCNN_D_24/sum_0_split_0
I0416 16:50:05.017530   688 net.cpp:382] SCNN_D_25 -> SCNN_D_25/message
I0416 16:50:05.019886   688 net.cpp:124] Setting up SCNN_D_25
I0416 16:50:05.019897   688 net.cpp:131] Top shape: 1 64 1 80 (5120)
I0416 16:50:05.019901   688 net.cpp:139] Memory required for data: 320163840
I0416 16:50:05.019904   688 net.cpp:467] Sharing parameters 'SCNN_D_w' owned by layer 'SCNN_D_1', param index 0
I0416 16:50:05.019908   688 layer_factory.hpp:77] Creating layer SCNN_D_25/relu
I0416 16:50:05.019913   688 net.cpp:86] Creating Layer SCNN_D_25/relu
I0416 16:50:05.019918   688 net.cpp:408] SCNN_D_25/relu <- SCNN_D_25/message
I0416 16:50:05.019923   688 net.cpp:369] SCNN_D_25/relu -> SCNN_D_25/message (in-place)
I0416 16:50:05.020169   688 net.cpp:124] Setting up SCNN_D_25/relu
I0416 16:50:05.020179   688 net.cpp:131] Top shape: 1 64 1 80 (5120)
I0416 16:50:05.020181   688 net.cpp:139] Memory required for data: 320184320
I0416 16:50:05.020184   688 layer_factory.hpp:77] Creating layer SCNN_D_25/sum
I0416 16:50:05.020190   688 net.cpp:86] Creating Layer SCNN_D_25/sum
…
I0416 16:50:05.186538   688 net.cpp:131] Top shape: 1 64 1 80 (5120)
I0416 16:50:05.186542   688 net.cpp:139] Memory required for data: 327843840
I0416 16:50:05.186547   688 net.cpp:467] Sharing parameters 'SCNN_U_w' owned by layer 'SCNN_U_60', param index 0
I0416 16:50:05.186550   688 layer_factory.hpp:77] Creating layer SCNN_U_20/relu
I0416 16:50:05.186555   688 net.cpp:86] Creating Layer SCNN_U_20/relu
I0416 16:50:05.186560   688 net.cpp:408] SCNN_U_20/relu <- SCNN_U_20/message
I0416 16:50:05.186564   688 net.cpp:369] SCNN_U_20/relu -> SCNN_U_20/message (in-place)
I0416 16:50:05.188148   688 net.cpp:124] Setting up SCNN_U_20/relu
I0416 16:50:05.188160   688 net.cpp:131] Top shape: 1 64 1 80 (5120)
I0416 16:50:05.188165   688 net.cpp:139] Memory required for data: 327864320
I0416 16:50:05.188170   688 layer_factory.hpp:77] Creating layer SCNN_U_20/sum
I0416 16:50:05.188177   688 net.cpp:86] Creating Layer SCNN_U_20/sum
I0416 16:50:05.188184   688 net.cpp:408] SCNN_U_20/sum <- SCNN_U_20/message
I0416 16:50:05.188191   688 net.cpp:408] SCNN_U_20/sum <- SCNN_D_19_SCNN_D_18/sum_0_split_1
I0416 16:50:05.188199   688 net.cpp:382] SCNN_U_20/sum -> SCNN_U_19
I0416 16:50:05.188227   688 net.cpp:124] Setting up SCNN_U_20/sum
I0416 16:50:05.188235   688 net.cpp:131] Top shape: 1 64 1 80 (5120)
I0416 16:50:05.188239   688 net.cpp:139] Memory required for data: 327884800
I0416 16:50:05.188243   688 layer_factory.hpp:77] Creating layer SCNN_U_19_SCNN_U_20/sum_0_split
I0416 16:50:05.188251   688 net.cpp:86] Creating Layer SCNN_U_19_SCNN_U_20/sum_0_split
I0416 16:50:05.188257   688 net.cpp:408] SCNN_U_19_SCNN_U_20/sum_0_split <- SCNN_U_19
I0416 16:50:05.188263   688 net.cpp:382] SCNN_U_19_SCNN_U_20/sum_0_split -> SCNN_U_19_SCNN_U_20/sum_0_split_0
I0416 16:50:05.188271   688 net.cpp:382] SCNN_U_19_SCNN_U_20/sum_0_split -> SCNN_U_19_SCNN_U_20/sum_0_split_1
I0416 16:50:05.188311   688 net.cpp:124] Setting up SCNN_U_19_SCNN_U_20/sum_0_split
I0416 16:50:05.188318   688 net.cpp:131] Top shape: 1 64 1 80 (5120)
I0416 16:50:05.188323   688 net.cpp:131] Top shape: 1 64 1 80 (5120)
I0416 16:50:05.188328   688 net.cpp:139] Memory required for data: 327925760
I0416 16:50:05.188333   688 layer_factory.hpp:77] Creating layer SCNN_U_19
I0416 16:50:05.188341   688 net.cpp:86] Creating Layer SCNN_U_19
I0416 16:50:05.188347   688 net.cpp:408] SCNN_U_19 <- SCNN_U_19_SCNN_U_20/sum_0_split_0
I0416 16:50:05.188355   688 net.cpp:382] SCNN_U_19 -> SCNN_U_19/message
I0416 16:50:05.189851   688 net.cpp:124] Setting up SCNN_U_19
I0416 16:50:05.189863   688 net.cpp:131] Top shape: 1 64 1 80 (5120)
I0416 16:50:05.189868   688 net.cpp:139] Memory required for data: 327946240
I0416 16:50:05.189874   688 net.cpp:467] Sharing parameters 'SCNN_U_w' owned by layer 'SCNN_U_60', param index 0
I0416 16:50:05.189879   688 layer_factory.hpp:77] Creating layer SCNN_U_19/relu
I0416 16:50:05.189887   688 net.cpp:86] Creating Layer SCNN_U_19/relu
I0416 16:50:05.189893   688 net.cpp:408] SCNN_U_19/relu <- SCNN_U_19/message
I0416 16:50:05.189899   688 net.cpp:369] SCNN_U_19/relu -> SCNN_U_19/message (in-place)
I0416 16:50:05.190162   688 net.cpp:124] Setting up SCNN_U_19/relu
I0416 16:50:05.190171   688 net.cpp:131] Top shape: 1 64 1 80 (5120)
I0416 16:50:05.190176   688 net.cpp:139] Memory required for data: 327966720
I0416 16:50:05.190178   688 layer_factory.hpp:77] Creating layer SCNN_U_19/sum
I0416 16:50:05.190183   688 net.cpp:86] Creating Layer SCNN_U_19/sum
I0416 16:50:05.190188   688 net.cpp:408] SCNN_U_19/sum <- SCNN_U_19/message
I0416 16:50:05.190193   688 net.cpp:408] SCNN_U_19/sum <- SCNN_D_18_SCNN_D_17/sum_0_split_1
I0416 16:50:05.190198   688 net.cpp:382] SCNN_U_19/sum -> SCNN_U_18
I0416 16:50:05.190218   688 net.cpp:124] Setting up SCNN_U_19/sum
I0416 16:50:05.190223   688 net.cpp:131] Top shape: 1 64 1 80 (5120)
I0416 16:50:05.190227   688 net.cpp:139] Memory required for data: 327987200
I0416 16:50:05.190229   688 layer_factory.hpp:77] Creating layer SCNN_U_18_SCNN_U_19/sum_0_split
I0416 16:50:05.190233   688 net.cpp:86] Creating Layer SCNN_U_18_SCNN_U_19/sum_0_split
I0416 16:50:05.190237   688 net.cpp:408] SCNN_U_18_SCNN_U_19/sum_0_split <- SCNN_U_18
I0416 16:50:05.190243   688 net.cpp:382] SCNN_U_18_SCNN_U_19/sum_0_split -> SCNN_U_18_SCNN_U_19/sum_0_split_0
I0416 16:50:05.190248   688 net.cpp:382] SCNN_U_18_SCNN_U_19/sum_0_split -> SCNN_U_18_SCNN_U_19/sum_0_split_1
I0416 16:50:05.190274   688 net.cpp:124] Setting up SCNN_U_18_SCNN_U_19/sum_0_split
I0416 16:50:05.190279   688 net.cpp:131] Top shape: 1 64 1 80 (5120)
I0416 16:50:05.190282   688 net.cpp:131] Top shape: 1 64 1 80 (5120)
I0416 16:50:05.190285   688 net.cpp:139] Memory required for data: 328028160
I0416 16:50:05.190289   688 layer_factory.hpp:77] Creating layer SCNN_U_18
I0416 16:50:05.190294   688 net.cpp:86] Creating Layer SCNN_U_18
I0416 16:50:05.190299   688 net.cpp:408] SCNN_U_18 <- SCNN_U_18_SCNN_U_19/sum_0_split_0
I0416 16:50:05.190304   688 net.cpp:382] SCNN_U_18 -> SCNN_U_18/message
I0416 16:50:05.191777   688 net.cpp:124] Setting up SCNN_U_18
I0416 16:50:05.191787   688 net.cpp:131] Top shape: 1 64 1 80 (5120)
I0416 16:50:05.191790   688 net.cpp:139] Memory required for data: 328048640
I0416 16:50:05.191794   688 net.cpp:467] Sharing parameters 'SCNN_U_w' owned by layer 'SCNN_U_60', param index 0
I0416 16:50:05.191798   688 layer_factory.hpp:77] Creating layer SCNN_U_18/relu
I0416 16:50:05.191846   688 net.cpp:86] Creating Layer SCNN_U_18/relu
I0416 16:50:05.191851   688 net.cpp:408] SCNN_U_18/relu <- SCNN_U_18/message
I0416 16:50:05.191856   688 net.cpp:369] SCNN_U_18/relu -> SCNN_U_18/message (in-place)
I0416 16:50:05.191931   688 net.cpp:124] Setting up SCNN_U_18/relu
I0416 16:50:05.191936   688 net.cpp:131] Top shape: 1 64 1 80 (5120)
I0416 16:50:05.191941   688 net.cpp:139] Memory required for data: 328069120
I0416 16:50:05.191943   688 layer_factory.hpp:77] Creating layer SCNN_U_18/sum
I0416 16:50:05.191948   688 net.cpp:86] Creating Layer SCNN_U_18/sum
I0416 16:50:05.191952   688 net.cpp:408] SCNN_U_18/sum <- SCNN_U_18/message
I0416 16:50:05.191957   688 net.cpp:408] SCNN_U_18/sum <- SCNN_D_17_SCNN_D_16/sum_0_split_1
I0416 16:50:05.191962   688 net.cpp:382] SCNN_U_18/sum -> SCNN_U_17
I0416 16:50:05.191980   688 net.cpp:124] Setting up SCNN_U_18/sum
I0416 16:50:05.191984   688 net.cpp:131] Top shape: 1 64 1 80 (5120)
I0416 16:50:05.191988   688 net.cpp:139] Memory required for data: 328089600
I0416 16:50:05.191992   688 layer_factory.hpp:77] Creating layer SCNN_U_17_SCNN_U_18/sum_0_split
I0416 16:50:05.191995   688 net.cpp:86] Creating Layer SCNN_U_17_SCNN_U_18/sum_0_split
I0416 16:50:05.191999   688 net.cpp:408] SCNN_U_17_SCNN_U_18/sum_0_split <- SCNN_U_17
I0416 16:50:05.192003   688 net.cpp:382] SCNN_U_17_SCNN_U_18/sum_0_split -> SCNN_U_17_SCNN_U_18/sum_0_split_0
I0416 16:50:05.192014   688 net.cpp:382] SCNN_U_17_SCNN_U_18/sum_0_split -> SCNN_U_17_SCNN_U_18/sum_0_split_1
I0416 16:50:05.192040   688 net.cpp:124] Setting up SCNN_U_17_SCNN_U_18/sum_0_split
I0416 16:50:05.192044   688 net.cpp:131] Top shape: 1 64 1 80 (5120)
I0416 16:50:05.192049   688 net.cpp:131] Top shape: 1 64 1 80 (5120)
I0416 16:50:05.192052   688 net.cpp:139] Memory required for data: 328130560
I0416 16:50:05.192054   688 layer_factory.hpp:77] Creating layer SCNN_U_17
I0416 16:50:05.192059   688 net.cpp:86] Creating Layer SCNN_U_17
I0416 16:50:05.192062   688 net.cpp:408] SCNN_U_17 <- SCNN_U_17_SCNN_U_18/sum_0_split_0
I0416 16:50:05.192067   688 net.cpp:382] SCNN_U_17 -> SCNN_U_17/message
I0416 16:50:05.193547   688 net.cpp:124] Setting up SCNN_U_17
I0416 16:50:05.193557   688 net.cpp:131] Top shape: 1 64 1 80 (5120)
I0416 16:50:05.193558   688 net.cpp:139] Memory required for data: 328151040
I0416 16:50:05.193562   688 net.cpp:467] Sharing parameters 'SCNN_U_w' owned by layer 'SCNN_U_60', param index 0
I0416 16:50:05.193563   688 layer_factory.hpp:77] Creating layer SCNN_U_17/relu
I0416 16:50:05.193567   688 net.cpp:86] Creating Layer SCNN_U_17/relu
I0416 16:50:05.193570   688 net.cpp:408] SCNN_U_17/relu <- SCNN_U_17/message
I0416 16:50:05.193573   688 net.cpp:369] SCNN_U_17/relu -> SCNN_U_17/message (in-place)
I0416 16:50:05.193800   688 net.cpp:124] Setting up SCNN_U_17/relu
I0416 16:50:05.193809   688 net.cpp:131] Top shape: 1 64 1 80 (5120)
I0416 16:50:05.193810   688 net.cpp:139] Memory required for data: 328171520
I0416 16:50:05.193814   688 layer_factory.hpp:77] Creating layer SCNN_U_17/sum
I0416 16:50:05.193816   688 net.cpp:86] Creating Layer SCNN_U_17/sum
I0416 16:50:05.193819   688 net.cpp:408] SCNN_U_17/sum <- SCNN_U_17/message
I0416 16:50:05.193822   688 net.cpp:408] SCNN_U_17/sum <- SCNN_D_16_SCNN_D_15/sum_0_split_1
I0416 16:50:05.193826   688 net.cpp:382] SCNN_U_17/sum -> SCNN_U_16
I0416 16:50:05.193845   688 net.cpp:124] Setting up SCNN_U_17/sum
I0416 16:50:05.193848   688 net.cpp:131] Top shape: 1 64 1 80 (5120)
I0416 16:50:05.193850   688 net.cpp:139] Memory required for data: 328192000
I0416 16:50:05.193852   688 layer_factory.hpp:77] Creating layer SCNN_U_16_SCNN_U_17/sum_0_split
I0416 16:50:05.193856   688 net.cpp:86] Creating Layer SCNN_U_16_SCNN_U_17/sum_0_split
I0416 16:50:05.193857   688 net.cpp:408] SCNN_U_16_SCNN_U_17/sum_0_split <- SCNN_U_16
I0416 16:50:05.193861   688 net.cpp:382] SCNN_U_16_SCNN_U_17/sum_0_split -> SCNN_U_16_SCNN_U_17/sum_0_split_0
I0416 16:50:05.193864   688 net.cpp:382] SCNN_U_16_SCNN_U_17/sum_0_split -> SCNN_U_16_SCNN_U_17/sum_0_split_1
I0416 16:50:05.193886   688 net.cpp:124] Setting up SCNN_U_16_SCNN_U_17/sum_0_split
I0416 16:50:05.193889   688 net.cpp:131] Top shape: 1 64 1 80 (5120)
I0416 16:50:05.193893   688 net.cpp:131] Top shape: 1 64 1 80 (5120)
I0416 16:50:05.193897   688 net.cpp:139] Memory required for data: 328232960
I0416 16:50:05.193902   688 layer_factory.hpp:77] Creating layer SCNN_U_16
I0416 16:50:05.193907   688 net.cpp:86] Creating Layer SCNN_U_16
I0416 16:50:05.193910   688 net.cpp:408] SCNN_U_16 <- SCNN_U_16_SCNN_U_17/sum_0_split_0
I0416 16:50:05.193913   688 net.cpp:382] SCNN_U_16 -> SCNN_U_16/message
I0416 16:50:05.196521   688 net.cpp:124] Setting up SCNN_U_16
I0416 16:50:05.196532   688 net.cpp:131] Top shape: 1 64 1 80 (5120)
I0416 16:50:05.196534   688 net.cpp:139] Memory required for data: 328253440
I0416 16:50:05.196537   688 net.cpp:467] Sharing parameters 'SCNN_U_w' owned by layer 'SCNN_U_60', param index 0
I0416 16:50:05.196539   688 layer_factory.hpp:77] Creating layer SCNN_U_16/relu
I0416 16:50:05.196543   688 net.cpp:86] Creating Layer SCNN_U_16/relu
I0416 16:50:05.196547   688 net.cpp:408] SCNN_U_16/relu <- SCNN_U_16/message
I0416 16:50:05.196549   688 net.cpp:369] SCNN_U_16/relu -> SCNN_U_16/message (in-place)
I0416 16:50:05.196619   688 net.cpp:124] Setting up SCNN_U_16/relu
I0416 16:50:05.196626   688 net.cpp:131] Top shape: 1 64 1 80 (5120)
I0416 16:50:05.196629   688 net.cpp:139] Memory required for data: 328273920
I0416 16:50:05.196630   688 layer_factory.hpp:77] Creating layer SCNN_U_16/sum
I0416 16:50:05.196633   688 net.cpp:86] Creating Layer SCNN_U_16/sum
I0416 16:50:05.196635   688 net.cpp:408] SCNN_U_16/sum <- SCNN_U_16/message
I0416 16:50:05.196640   688 net.cpp:408] SCNN_U_16/sum <- SCNN_D_15_SCNN_D_14/sum_0_split_1
I0416 16:50:05.196642   688 net.cpp:382] SCNN_U_16/sum -> SCNN_U_15
I0416 16:50:05.196696   688 net.cpp:124] Setting up SCNN_U_16/sum
I0416 16:50:05.196703   688 net.cpp:131] Top shape: 1 64 1 80 (5120)
I0416 16:50:05.196705   688 net.cpp:139] Memory required for data: 328294400
I0416 16:50:05.196707   688 layer_factory.hpp:77] Creating layer SCNN_U_15_SCNN_U_16/sum_0_split
I0416 16:50:05.196710   688 net.cpp:86] Creating Layer SCNN_U_15_SCNN_U_16/sum_0_split
I0416 16:50:05.196712   688 net.cpp:408] SCNN_U_15_SCNN_U_16/sum_0_split <- SCNN_U_15
I0416 16:50:05.196715   688 net.cpp:382] SCNN_U_15_SCNN_U_16/sum_0_split -> SCNN_U_15_SCNN_U_16/sum_0_split_0
I0416 16:50:05.196720   688 net.cpp:382] SCNN_U_15_SCNN_U_16/sum_0_split -> SCNN_U_15_SCNN_U_16/sum_0_split_1
I0416 16:50:05.196743   688 net.cpp:124] Setting up SCNN_U_15_SCNN_U_16/sum_0_split
I0416 16:50:05.196748   688 net.cpp:131] Top shape: 1 64 1 80 (5120)
I0416 16:50:05.196749   688 net.cpp:131] Top shape: 1 64 1 80 (5120)
I0416 16:50:05.196751   688 net.cpp:139] Memory required for data: 328335360
I0416 16:50:05.196753   688 layer_factory.hpp:77] Creating layer SCNN_U_15
I0416 16:50:05.196758   688 net.cpp:86] Creating Layer SCNN_U_15
I0416 16:50:05.196760   688 net.cpp:408] SCNN_U_15 <- SCNN_U_15_SCNN_U_16/sum_0_split_0
I0416 16:50:05.196764   688 net.cpp:382] SCNN_U_15 -> SCNN_U_15/message
I0416 16:50:05.198231   688 net.cpp:124] Setting up SCNN_U_15
I0416 16:50:05.198240   688 net.cpp:131] Top shape: 1 64 1 80 (5120)
I0416 16:50:05.198243   688 net.cpp:139] Memory required for data: 328355840
I0416 16:50:05.198246   688 net.cpp:467] Sharing parameters 'SCNN_U_w' owned by layer 'SCNN_U_60', param index 0
I0416 16:50:05.198248   688 layer_factory.hpp:77] Creating layer SCNN_U_15/relu
I0416 16:50:05.198251   688 net.cpp:86] Creating Layer SCNN_U_15/relu
I0416 16:50:05.198254   688 net.cpp:408] SCNN_U_15/relu <- SCNN_U_15/message
I0416 16:50:05.198258   688 net.cpp:369] SCNN_U_15/relu -> SCNN_U_15/message (in-place)
I0416 16:50:05.198485   688 net.cpp:124] Setting up SCNN_U_15/relu
I0416 16:50:05.198493   688 net.cpp:131] Top shape: 1 64 1 80 (5120)
I0416 16:50:05.198495   688 net.cpp:139] Memory required for data: 328376320
I0416 16:50:05.198498   688 layer_factory.hpp:77] Creating layer SCNN_U_15/sum
I0416 16:50:05.198500   688 net.cpp:86] Creating Layer SCNN_U_15/sum
I0416 16:50:05.198503   688 net.cpp:408] SCNN_U_15/sum <- SCNN_U_15/message
I0416 16:50:05.198508   688 net.cpp:408] SCNN_U_15/sum <- SCNN_D_14_SCNN_D_13/sum_0_split_1
I0416 16:50:05.198510   688 net.cpp:382] SCNN_U_15/sum -> SCNN_U_14
I0416 16:50:05.198529   688 net.cpp:124] Setting up SCNN_U_15/sum
I0416 16:50:05.198534   688 net.cpp:131] Top shape: 1 64 1 80 (5120)
I0416 16:50:05.198536   688 net.cpp:139] Memory required for data: 328396800
I0416 16:50:05.198539   688 layer_factory.hpp:77] Creating layer SCNN_U_14_SCNN_U_15/sum_0_split
I0416 16:50:05.198544   688 net.cpp:86] Creating Layer SCNN_U_14_SCNN_U_15/sum_0_split
I0416 16:50:05.198547   688 net.cpp:408] SCNN_U_14_SCNN_U_15/sum_0_split <- SCNN_U_14
I0416 16:50:05.198550   688 net.cpp:382] SCNN_U_14_SCNN_U_15/sum_0_split -> SCNN_U_14_SCNN_U_15/sum_0_split_0
I0416 16:50:05.198555   688 net.cpp:382] SCNN_U_14_SCNN_U_15/sum_0_split -> SCNN_U_14_SCNN_U_15/sum_0_split_1
I0416 16:50:05.198590   688 net.cpp:124] Setting up SCNN_U_14_SCNN_U_15/sum_0_split
I0416 16:50:05.198596   688 net.cpp:131] Top shape: 1 64 1 80 (5120)
I0416 16:50:05.198598   688 net.cpp:131] Top shape: 1 64 1 80 (5120)
I0416 16:50:05.198601   688 net.cpp:139] Memory required for data: 328437760
I0416 16:50:05.198602   688 layer_factory.hpp:77] Creating layer SCNN_U_14
I0416 16:50:05.198606   688 net.cpp:86] Creating Layer SCNN_U_14
I0416 16:50:05.198609   688 net.cpp:408] SCNN_U_14 <- SCNN_U_14_SCNN_U_15/sum_0_split_0
I0416 16:50:05.198613   688 net.cpp:382] SCNN_U_14 -> SCNN_U_14/message
I0416 16:50:05.200085   688 net.cpp:124] Setting up SCNN_U_14
I0416 16:50:05.200094   688 net.cpp:131] Top shape: 1 64 1 80 (5120)
I0416 16:50:05.200096   688 net.cpp:139] Memory required for data: 328458240
I0416 16:50:05.200099   688 net.cpp:467] Sharing parameters 'SCNN_U_w' owned by layer 'SCNN_U_60', param index 0
I0416 16:50:05.200101   688 layer_factory.hpp:77] Creating layer SCNN_U_14/relu
I0416 16:50:05.200105   688 net.cpp:86] Creating Layer SCNN_U_14/relu
I0416 16:50:05.200109   688 net.cpp:408] SCNN_U_14/relu <- SCNN_U_14/message
I0416 16:50:05.200111   688 net.cpp:369] SCNN_U_14/relu -> SCNN_U_14/message (in-place)
I0416 16:50:05.200186   688 net.cpp:124] Setting up SCNN_U_14/relu
I0416 16:50:05.200191   688 net.cpp:131] Top shape: 1 64 1 80 (5120)
I0416 16:50:05.200193   688 net.cpp:139] Memory required for data: 328478720
I0416 16:50:05.200196   688 layer_factory.hpp:77] Creating layer SCNN_U_14/sum
I0416 16:50:05.200199   688 net.cpp:86] Creating Layer SCNN_U_14/sum
I0416 16:50:05.200201   688 net.cpp:408] SCNN_U_14/sum <- SCNN_U_14/message
I0416 16:50:05.200206   688 net.cpp:408] SCNN_U_14/sum <- SCNN_D_13_SCNN_D_12/sum_0_split_1
I0416 16:50:05.200208   688 net.cpp:382] SCNN_U_14/sum -> SCNN_U_13
I0416 16:50:05.200225   688 net.cpp:124] Setting up SCNN_U_14/sum
I0416 16:50:05.200228   688 net.cpp:131] Top shape: 1 64 1 80 (5120)
I0416 16:50:05.200230   688 net.cpp:139] Memory required for data: 328499200
I0416 16:50:05.200232   688 layer_factory.hpp:77] Creating layer SCNN_U_13_SCNN_U_14/sum_0_split
I0416 16:50:05.200234   688 net.cpp:86] Creating Layer SCNN_U_13_SCNN_U_14/sum_0_split
I0416 16:50:05.200237   688 net.cpp:408] SCNN_U_13_SCNN_U_14/sum_0_split <- SCNN_U_13
I0416 16:50:05.200240   688 net.cpp:382] SCNN_U_13_SCNN_U_14/sum_0_split -> SCNN_U_13_SCNN_U_14/sum_0_split_0
I0416 16:50:05.200248   688 net.cpp:382] SCNN_U_13_SCNN_U_14/sum_0_split -> SCNN_U_13_SCNN_U_14/sum_0_split_1
I0416 16:50:05.200271   688 net.cpp:124] Setting up SCNN_U_13_SCNN_U_14/sum_0_split
I0416 16:50:05.200276   688 net.cpp:131] Top shape: 1 64 1 80 (5120)
I0416 16:50:05.200280   688 net.cpp:131] Top shape: 1 64 1 80 (5120)
I0416 16:50:05.200284   688 net.cpp:139] Memory required for data: 328540160
I0416 16:50:05.200286   688 layer_factory.hpp:77] Creating layer SCNN_U_13
I0416 16:50:05.200292   688 net.cpp:86] Creating Layer SCNN_U_13
I0416 16:50:05.200296   688 net.cpp:408] SCNN_U_13 <- SCNN_U_13_SCNN_U_14/sum_0_split_0
I0416 16:50:05.200301   688 net.cpp:382] SCNN_U_13 -> SCNN_U_13/message
I0416 16:50:05.202960   688 net.cpp:124] Setting up SCNN_U_13
I0416 16:50:05.202970   688 net.cpp:131] Top shape: 1 64 1 80 (5120)
I0416 16:50:05.202975   688 net.cpp:139] Memory required for data: 328560640
I0416 16:50:05.202978   688 net.cpp:467] Sharing parameters 'SCNN_U_w' owned by layer 'SCNN_U_60', param index 0
I0416 16:50:05.202982   688 layer_factory.hpp:77] Creating layer SCNN_U_13/relu
I0416 16:50:05.202988   688 net.cpp:86] Creating Layer SCNN_U_13/relu
I0416 16:50:05.202993   688 net.cpp:408] SCNN_U_13/relu <- SCNN_U_13/message
I0416 16:50:05.202997   688 net.cpp:369] SCNN_U_13/relu -> SCNN_U_13/message (in-place)
I0416 16:50:05.203238   688 net.cpp:124] Setting up SCNN_U_13/relu
I0416 16:50:05.203248   688 net.cpp:131] Top shape: 1 64 1 80 (5120)
I0416 16:50:05.203251   688 net.cpp:139] Memory required for data: 328581120
I0416 16:50:05.203254   688 layer_factory.hpp:77] Creating layer SCNN_U_13/sum
I0416 16:50:05.203261   688 net.cpp:86] Creating Layer SCNN_U_13/sum
I0416 16:50:05.203265   688 net.cpp:408] SCNN_U_13/sum <- SCNN_U_13/message
I0416 16:50:05.203270   688 net.cpp:408] SCNN_U_13/sum <- SCNN_D_12_SCNN_D_11/sum_0_split_1
I0416 16:50:05.203275   688 net.cpp:382] SCNN_U_13/sum -> SCNN_U_12
I0416 16:50:05.203295   688 net.cpp:124] Setting up SCNN_U_13/sum
I0416 16:50:05.203300   688 net.cpp:131] Top shape: 1 64 1 80 (5120)
I0416 16:50:05.203305   688 net.cpp:139] Memory required for data: 328601600
I0416 16:50:05.203307   688 layer_factory.hpp:77] Creating layer SCNN_U_12_SCNN_U_13/sum_0_split
I0416 16:50:05.203312   688 net.cpp:86] Creating Layer SCNN_U_12_SCNN_U_13/sum_0_split
I0416 16:50:05.203315   688 net.cpp:408] SCNN_U_12_SCNN_U_13/sum_0_split <- SCNN_U_12
I0416 16:50:05.203322   688 net.cpp:382] SCNN_U_12_SCNN_U_13/sum_0_split -> SCNN_U_12_SCNN_U_13/sum_0_split_0
I0416 16:50:05.203328   688 net.cpp:382] SCNN_U_12_SCNN_U_13/sum_0_split -> SCNN_U_12_SCNN_U_13/sum_0_split_1
I0416 16:50:05.203351   688 net.cpp:124] Setting up SCNN_U_12_SCNN_U_13/sum_0_split
I0416 16:50:05.203357   688 net.cpp:131] Top shape: 1 64 1 80 (5120)
I0416 16:50:05.203361   688 net.cpp:131] Top shape: 1 64 1 80 (5120)
I0416 16:50:05.203364   688 net.cpp:139] Memory required for data: 328642560
I0416 16:50:05.203367   688 layer_factory.hpp:77] Creating layer SCNN_U_12
I0416 16:50:05.203374   688 net.cpp:86] Creating Layer SCNN_U_12
I0416 16:50:05.203377   688 net.cpp:408] SCNN_U_12 <- SCNN_U_12_SCNN_U_13/sum_0_split_0
I0416 16:50:05.203383   688 net.cpp:382] SCNN_U_12 -> SCNN_U_12/message
I0416 16:50:05.204896   688 net.cpp:124] Setting up SCNN_U_12
I0416 16:50:05.204906   688 net.cpp:131] Top shape: 1 64 1 80 (5120)
I0416 16:50:05.204910   688 net.cpp:139] Memory required for data: 328663040
I0416 16:50:05.204913   688 net.cpp:467] Sharing parameters 'SCNN_U_w' owned by layer 'SCNN_U_60', param index 0
I0416 16:50:05.204916   688 layer_factory.hpp:77] Creating layer SCNN_U_12/relu
I0416 16:50:05.204921   688 net.cpp:86] Creating Layer SCNN_U_12/relu
I0416 16:50:05.204924   688 net.cpp:408] SCNN_U_12/relu <- SCNN_U_12/message
I0416 16:50:05.204931   688 net.cpp:369] SCNN_U_12/relu -> SCNN_U_12/message (in-place)
I0416 16:50:05.205008   688 net.cpp:124] Setting up SCNN_U_12/relu
I0416 16:50:05.205014   688 net.cpp:131] Top shape: 1 64 1 80 (5120)
I0416 16:50:05.205018   688 net.cpp:139] Memory required for data: 328683520
I0416 16:50:05.205019   688 layer_factory.hpp:77] Creating layer SCNN_U_12/sum
I0416 16:50:05.205024   688 net.cpp:86] Creating Layer SCNN_U_12/sum
I0416 16:50:05.205026   688 net.cpp:408] SCNN_U_12/sum <- SCNN_U_12/message
I0416 16:50:05.205029   688 net.cpp:408] SCNN_U_12/sum <- SCNN_D_11_SCNN_D_10/sum_0_split_1
I0416 16:50:05.205032   688 net.cpp:382] SCNN_U_12/sum -> SCNN_U_11
I0416 16:50:05.205050   688 net.cpp:124] Setting up SCNN_U_12/sum
I0416 16:50:05.205054   688 net.cpp:131] Top shape: 1 64 1 80 (5120)
I0416 16:50:05.205058   688 net.cpp:139] Memory required for data: 328704000
I0416 16:50:05.205060   688 layer_factory.hpp:77] Creating layer SCNN_U_11_SCNN_U_12/sum_0_split
I0416 16:50:05.205065   688 net.cpp:86] Creating Layer SCNN_U_11_SCNN_U_12/sum_0_split
I0416 16:50:05.205068   688 net.cpp:408] SCNN_U_11_SCNN_U_12/sum_0_split <- SCNN_U_11
I0416 16:50:05.205075   688 net.cpp:382] SCNN_U_11_SCNN_U_12/sum_0_split -> SCNN_U_11_SCNN_U_12/sum_0_split_0
I0416 16:50:05.205080   688 net.cpp:382] SCNN_U_11_SCNN_U_12/sum_0_split -> SCNN_U_11_SCNN_U_12/sum_0_split_1
I0416 16:50:05.205106   688 net.cpp:124] Setting up SCNN_U_11_SCNN_U_12/sum_0_split
I0416 16:50:05.205112   688 net.cpp:131] Top shape: 1 64 1 80 (5120)
I0416 16:50:05.205116   688 net.cpp:131] Top shape: 1 64 1 80 (5120)
I0416 16:50:05.205119   688 net.cpp:139] Memory required for data: 328744960
I0416 16:50:05.205121   688 layer_factory.hpp:77] Creating layer SCNN_U_11
I0416 16:50:05.205128   688 net.cpp:86] Creating Layer SCNN_U_11
I0416 16:50:05.205132   688 net.cpp:408] SCNN_U_11 <- SCNN_U_11_SCNN_U_12/sum_0_split_0
I0416 16:50:05.205138   688 net.cpp:382] SCNN_U_11 -> SCNN_U_11/message
I0416 16:50:05.206636   688 net.cpp:124] Setting up SCNN_U_11
I0416 16:50:05.206645   688 net.cpp:131] Top shape: 1 64 1 80 (5120)
I0416 16:50:05.206648   688 net.cpp:139] Memory required for data: 328765440
I0416 16:50:05.206652   688 net.cpp:467] Sharing parameters 'SCNN_U_w' owned by layer 'SCNN_U_60', param index 0
I0416 16:50:05.206656   688 layer_factory.hpp:77] Creating layer SCNN_U_11/relu
I0416 16:50:05.206662   688 net.cpp:86] Creating Layer SCNN_U_11/relu
I0416 16:50:05.206666   688 net.cpp:408] SCNN_U_11/relu <- SCNN_U_11/message
I0416 16:50:05.206671   688 net.cpp:369] SCNN_U_11/relu -> SCNN_U_11/message (in-place)
I0416 16:50:05.206912   688 net.cpp:124] Setting up SCNN_U_11/relu
I0416 16:50:05.206920   688 net.cpp:131] Top shape: 1 64 1 80 (5120)
I0416 16:50:05.206923   688 net.cpp:139] Memory required for data: 328785920
I0416 16:50:05.206926   688 layer_factory.hpp:77] Creating layer SCNN_U_11/sum
I0416 16:50:05.206931   688 net.cpp:86] Creating Layer SCNN_U_11/sum
I0416 16:50:05.206935   688 net.cpp:408] SCNN_U_11/sum <- SCNN_U_11/message
I0416 16:50:05.206941   688 net.cpp:408] SCNN_U_11/sum <- SCNN_D_10_SCNN_D_9/sum_0_split_1
I0416 16:50:05.206946   688 net.cpp:382] SCNN_U_11/sum -> SCNN_U_10
I0416 16:50:05.206966   688 net.cpp:124] Setting up SCNN_U_11/sum
I0416 16:50:05.206971   688 net.cpp:131] Top shape: 1 64 1 80 (5120)
I0416 16:50:05.206975   688 net.cpp:139] Memory required for data: 328806400
I0416 16:50:05.206977   688 layer_factory.hpp:77] Creating layer SCNN_U_10_SCNN_U_11/sum_0_split
I0416 16:50:05.206984   688 net.cpp:86] Creating Layer SCNN_U_10_SCNN_U_11/sum_0_split
I0416 16:50:05.206987   688 net.cpp:408] SCNN_U_10_SCNN_U_11/sum_0_split <- SCNN_U_10
I0416 16:50:05.206992   688 net.cpp:382] SCNN_U_10_SCNN_U_11/sum_0_split -> SCNN_U_10_SCNN_U_11/sum_0_split_0
I0416 16:50:05.207000   688 net.cpp:382] SCNN_U_10_SCNN_U_11/sum_0_split -> SCNN_U_10_SCNN_U_11/sum_0_split_1
I0416 16:50:05.207024   688 net.cpp:124] Setting up SCNN_U_10_SCNN_U_11/sum_0_split
I0416 16:50:05.207031   688 net.cpp:131] Top shape: 1 64 1 80 (5120)
I0416 16:50:05.207036   688 net.cpp:131] Top shape: 1 64 1 80 (5120)
I0416 16:50:05.207038   688 net.cpp:139] Memory required for data: 328847360
I0416 16:50:05.207041   688 layer_factory.hpp:77] Creating layer SCNN_U_10
I0416 16:50:05.207047   688 net.cpp:86] Creating Layer SCNN_U_10
I0416 16:50:05.207051   688 net.cpp:408] SCNN_U_10 <- SCNN_U_10_SCNN_U_11/sum_0_split_0
I0416 16:50:05.207056   688 net.cpp:382] SCNN_U_10 -> SCNN_U_10/message
I0416 16:50:05.208403   688 net.cpp:124] Setting up SCNN_U_10
I0416 16:50:05.208412   688 net.cpp:131] Top shape: 1 64 1 80 (5120)
I0416 16:50:05.208416   688 net.cpp:139] Memory required for data: 328867840
I0416 16:50:05.208420   688 net.cpp:467] Sharing parameters 'SCNN_U_w' owned by layer 'SCNN_U_60', param index 0
I0416 16:50:05.208425   688 layer_factory.hpp:77] Creating layer SCNN_U_10/relu
I0416 16:50:05.208429   688 net.cpp:86] Creating Layer SCNN_U_10/relu
I0416 16:50:05.208433   688 net.cpp:408] SCNN_U_10/relu <- SCNN_U_10/message
I0416 16:50:05.208438   688 net.cpp:369] SCNN_U_10/relu -> SCNN_U_10/message (in-place)
I0416 16:50:05.209839   688 net.cpp:124] Setting up SCNN_U_10/relu
I0416 16:50:05.209849   688 net.cpp:131] Top shape: 1 64 1 80 (5120)
I0416 16:50:05.209853   688 net.cpp:139] Memory required for data: 328888320
I0416 16:50:05.209856   688 layer_factory.hpp:77] Creating layer SCNN_U_10/sum
I0416 16:50:05.209861   688 net.cpp:86] Creating Layer SCNN_U_10/sum
I0416 16:50:05.209864   688 net.cpp:408] SCNN_U_10/sum <- SCNN_U_10/message
I0416 16:50:05.209870   688 net.cpp:408] SCNN_U_10/sum <- SCNN_D_9_SCNN_D_8/sum_0_split_1
I0416 16:50:05.209875   688 net.cpp:382] SCNN_U_10/sum -> SCNN_U_9
I0416 16:50:05.209897   688 net.cpp:124] Setting up SCNN_U_10/sum
I0416 16:50:05.209903   688 net.cpp:131] Top shape: 1 64 1 80 (5120)
I0416 16:50:05.209906   688 net.cpp:139] Memory required for data: 328908800
I0416 16:50:05.209908   688 layer_factory.hpp:77] Creating layer SCNN_U_9_SCNN_U_10/sum_0_split
I0416 16:50:05.209913   688 net.cpp:86] Creating Layer SCNN_U_9_SCNN_U_10/sum_0_split
I0416 16:50:05.209918   688 net.cpp:408] SCNN_U_9_SCNN_U_10/sum_0_split <- SCNN_U_9
I0416 16:50:05.209926   688 net.cpp:382] SCNN_U_9_SCNN_U_10/sum_0_split -> SCNN_U_9_SCNN_U_10/sum_0_split_0
I0416 16:50:05.209933   688 net.cpp:382] SCNN_U_9_SCNN_U_10/sum_0_split -> SCNN_U_9_SCNN_U_10/sum_0_split_1
I0416 16:50:05.209957   688 net.cpp:124] Setting up SCNN_U_9_SCNN_U_10/sum_0_split
I0416 16:50:05.209962   688 net.cpp:131] Top shape: 1 64 1 80 (5120)
I0416 16:50:05.209966   688 net.cpp:131] Top shape: 1 64 1 80 (5120)
I0416 16:50:05.209969   688 net.cpp:139] Memory required for data: 328949760
I0416 16:50:05.209972   688 layer_factory.hpp:77] Creating layer SCNN_U_9
I0416 16:50:05.209980   688 net.cpp:86] Creating Layer SCNN_U_9
I0416 16:50:05.209983   688 net.cpp:408] SCNN_U_9 <- SCNN_U_9_SCNN_U_10/sum_0_split_0
I0416 16:50:05.209986   688 net.cpp:382] SCNN_U_9 -> SCNN_U_9/message
I0416 16:50:05.211496   688 net.cpp:124] Setting up SCNN_U_9
I0416 16:50:05.211506   688 net.cpp:131] Top shape: 1 64 1 80 (5120)
I0416 16:50:05.211510   688 net.cpp:139] Memory required for data: 328970240
I0416 16:50:05.211513   688 net.cpp:467] Sharing parameters 'SCNN_U_w' owned by layer 'SCNN_U_60', param index 0
I0416 16:50:05.211515   688 layer_factory.hpp:77] Creating layer SCNN_U_9/relu
I0416 16:50:05.211519   688 net.cpp:86] Creating Layer SCNN_U_9/relu
I0416 16:50:05.211524   688 net.cpp:408] SCNN_U_9/relu <- SCNN_U_9/message
I0416 16:50:05.211529   688 net.cpp:369] SCNN_U_9/relu -> SCNN_U_9/message (in-place)
I0416 16:50:05.211761   688 net.cpp:124] Setting up SCNN_U_9/relu
I0416 16:50:05.211771   688 net.cpp:131] Top shape: 1 64 1 80 (5120)
I0416 16:50:05.211773   688 net.cpp:139] Memory required for data: 328990720
I0416 16:50:05.211778   688 layer_factory.hpp:77] Creating layer SCNN_U_9/sum
I0416 16:50:05.211783   688 net.cpp:86] Creating Layer SCNN_U_9/sum
I0416 16:50:05.211787   688 net.cpp:408] SCNN_U_9/sum <- SCNN_U_9/message
I0416 16:50:05.211792   688 net.cpp:408] SCNN_U_9/sum <- SCNN_D_8_SCNN_D_7/sum_0_split_1
I0416 16:50:05.211798   688 net.cpp:382] SCNN_U_9/sum -> SCNN_U_8
I0416 16:50:05.211818   688 net.cpp:124] Setting up SCNN_U_9/sum
I0416 16:50:05.211824   688 net.cpp:131] Top shape: 1 64 1 80 (5120)
I0416 16:50:05.211827   688 net.cpp:139] Memory required for data: 329011200
I0416 16:50:05.211830   688 layer_factory.hpp:77] Creating layer SCNN_U_8_SCNN_U_9/sum_0_split
I0416 16:50:05.211835   688 net.cpp:86] Creating Layer SCNN_U_8_SCNN_U_9/sum_0_split
I0416 16:50:05.211839   688 net.cpp:408] SCNN_U_8_SCNN_U_9/sum_0_split <- SCNN_U_8
I0416 16:50:05.211843   688 net.cpp:382] SCNN_U_8_SCNN_U_9/sum_0_split -> SCNN_U_8_SCNN_U_9/sum_0_split_0
I0416 16:50:05.211850   688 net.cpp:382] SCNN_U_8_SCNN_U_9/sum_0_split -> SCNN_U_8_SCNN_U_9/sum_0_split_1
I0416 16:50:05.211876   688 net.cpp:124] Setting up SCNN_U_8_SCNN_U_9/sum_0_split
I0416 16:50:05.211884   688 net.cpp:131] Top shape: 1 64 1 80 (5120)
I0416 16:50:05.211887   688 net.cpp:131] Top shape: 1 64 1 80 (5120)
I0416 16:50:05.211890   688 net.cpp:139] Memory required for data: 329052160
I0416 16:50:05.211894   688 layer_factory.hpp:77] Creating layer SCNN_U_8
I0416 16:50:05.211900   688 net.cpp:86] Creating Layer SCNN_U_8
I0416 16:50:05.211903   688 net.cpp:408] SCNN_U_8 <- SCNN_U_8_SCNN_U_9/sum_0_split_0
I0416 16:50:05.211910   688 net.cpp:382] SCNN_U_8 -> SCNN_U_8/message
I0416 16:50:05.213431   688 net.cpp:124] Setting up SCNN_U_8
I0416 16:50:05.213441   688 net.cpp:131] Top shape: 1 64 1 80 (5120)
I0416 16:50:05.213444   688 net.cpp:139] Memory required for data: 329072640
I0416 16:50:05.213449   688 net.cpp:467] Sharing parameters 'SCNN_U_w' owned by layer 'SCNN_U_60', param index 0
I0416 16:50:05.213452   688 layer_factory.hpp:77] Creating layer SCNN_U_8/relu
I0416 16:50:05.213456   688 net.cpp:86] Creating Layer SCNN_U_8/relu
I0416 16:50:05.213460   688 net.cpp:408] SCNN_U_8/relu <- SCNN_U_8/message
I0416 16:50:05.213466   688 net.cpp:369] SCNN_U_8/relu -> SCNN_U_8/message (in-place)
I0416 16:50:05.213709   688 net.cpp:124] Setting up SCNN_U_8/relu
I0416 16:50:05.213718   688 net.cpp:131] Top shape: 1 64 1 80 (5120)
I0416 16:50:05.213721   688 net.cpp:139] Memory required for data: 329093120
I0416 16:50:05.213726   688 layer_factory.hpp:77] Creating layer SCNN_U_8/sum
I0416 16:50:05.213730   688 net.cpp:86] Creating Layer SCNN_U_8/sum
I0416 16:50:05.213734   688 net.cpp:408] SCNN_U_8/sum <- SCNN_U_8/message
I0416 16:50:05.213740   688 net.cpp:408] SCNN_U_8/sum <- SCNN_D_7_SCNN_D_6/sum_0_split_1
I0416 16:50:05.213745   688 net.cpp:382] SCNN_U_8/sum -> SCNN_U_7
I0416 16:50:05.213766   688 net.cpp:124] Setting up SCNN_U_8/sum
I0416 16:50:05.213771   688 net.cpp:131] Top shape: 1 64 1 80 (5120)
I0416 16:50:05.213775   688 net.cpp:139] Memory required for data: 329113600
I0416 16:50:05.213778   688 layer_factory.hpp:77] Creating layer SCNN_U_7_SCNN_U_8/sum_0_split
I0416 16:50:05.213781   688 net.cpp:86] Creating Layer SCNN_U_7_SCNN_U_8/sum_0_split
I0416 16:50:05.213784   688 net.cpp:408] SCNN_U_7_SCNN_U_8/sum_0_split <- SCNN_U_7
I0416 16:50:05.213788   688 net.cpp:382] SCNN_U_7_SCNN_U_8/sum_0_split -> SCNN_U_7_SCNN_U_8/sum_0_split_0
I0416 16:50:05.213794   688 net.cpp:382] SCNN_U_7_SCNN_U_8/sum_0_split -> SCNN_U_7_SCNN_U_8/sum_0_split_1
I0416 16:50:05.213819   688 net.cpp:124] Setting up SCNN_U_7_SCNN_U_8/sum_0_split
I0416 16:50:05.213824   688 net.cpp:131] Top shape: 1 64 1 80 (5120)
I0416 16:50:05.213829   688 net.cpp:131] Top shape: 1 64 1 80 (5120)
I0416 16:50:05.213831   688 net.cpp:139] Memory required for data: 329154560
I0416 16:50:05.213835   688 layer_factory.hpp:77] Creating layer SCNN_U_7
I0416 16:50:05.213841   688 net.cpp:86] Creating Layer SCNN_U_7
I0416 16:50:05.213845   688 net.cpp:408] SCNN_U_7 <- SCNN_U_7_SCNN_U_8/sum_0_split_0
I0416 16:50:05.213850   688 net.cpp:382] SCNN_U_7 -> SCNN_U_7/message
I0416 16:50:05.215379   688 net.cpp:124] Setting up SCNN_U_7
I0416 16:50:05.215389   688 net.cpp:131] Top shape: 1 64 1 80 (5120)
I0416 16:50:05.215390   688 net.cpp:139] Memory required for data: 329175040
I0416 16:50:05.215394   688 net.cpp:467] Sharing parameters 'SCNN_U_w' owned by layer 'SCNN_U_60', param index 0
I0416 16:50:05.215395   688 layer_factory.hpp:77] Creating layer SCNN_U_7/relu
I0416 16:50:05.215401   688 net.cpp:86] Creating Layer SCNN_U_7/relu
I0416 16:50:05.215404   688 net.cpp:408] SCNN_U_7/relu <- SCNN_U_7/message
I0416 16:50:05.215407   688 net.cpp:369] SCNN_U_7/relu -> SCNN_U_7/message (in-place)
I0416 16:50:05.215484   688 net.cpp:124] Setting up SCNN_U_7/relu
I0416 16:50:05.215490   688 net.cpp:131] Top shape: 1 64 1 80 (5120)
I0416 16:50:05.215494   688 net.cpp:139] Memory required for data: 329195520
I0416 16:50:05.215497   688 layer_factory.hpp:77] Creating layer SCNN_U_7/sum
I0416 16:50:05.215499   688 net.cpp:86] Creating Layer SCNN_U_7/sum
I0416 16:50:05.215503   688 net.cpp:408] SCNN_U_7/sum <- SCNN_U_7/message
I0416 16:50:05.215508   688 net.cpp:408] SCNN_U_7/sum <- SCNN_D_6_SCNN_D_5/sum_0_split_1
I0416 16:50:05.215512   688 net.cpp:382] SCNN_U_7/sum -> SCNN_U_6
I0416 16:50:05.215531   688 net.cpp:124] Setting up SCNN_U_7/sum
I0416 16:50:05.215535   688 net.cpp:131] Top shape: 1 64 1 80 (5120)
I0416 16:50:05.215538   688 net.cpp:139] Memory required for data: 329216000
I0416 16:50:05.215543   688 layer_factory.hpp:77] Creating layer SCNN_U_6_SCNN_U_7/sum_0_split
I0416 16:50:05.215548   688 net.cpp:86] Creating Layer SCNN_U_6_SCNN_U_7/sum_0_split
I0416 16:50:05.215553   688 net.cpp:408] SCNN_U_6_SCNN_U_7/sum_0_split <- SCNN_U_6
I0416 16:50:05.215556   688 net.cpp:382] SCNN_U_6_SCNN_U_7/sum_0_split -> SCNN_U_6_SCNN_U_7/sum_0_split_0
I0416 16:50:05.215564   688 net.cpp:382] SCNN_U_6_SCNN_U_7/sum_0_split -> SCNN_U_6_SCNN_U_7/sum_0_split_1
I0416 16:50:05.215590   688 net.cpp:124] Setting up SCNN_U_6_SCNN_U_7/sum_0_split
I0416 16:50:05.215595   688 net.cpp:131] Top shape: 1 64 1 80 (5120)
I0416 16:50:05.215598   688 net.cpp:131] Top shape: 1 64 1 80 (5120)
I0416 16:50:05.215602   688 net.cpp:139] Memory required for data: 329256960
I0416 16:50:05.215605   688 layer_factory.hpp:77] Creating layer SCNN_U_6
I0416 16:50:05.215611   688 net.cpp:86] Creating Layer SCNN_U_6
I0416 16:50:05.215615   688 net.cpp:408] SCNN_U_6 <- SCNN_U_6_SCNN_U_7/sum_0_split_0
I0416 16:50:05.215620   688 net.cpp:382] SCNN_U_6 -> SCNN_U_6/message
I0416 16:50:05.218828   688 net.cpp:124] Setting up SCNN_U_6
I0416 16:50:05.218840   688 net.cpp:131] Top shape: 1 64 1 80 (5120)
I0416 16:50:05.218844   688 net.cpp:139] Memory required for data: 329277440
I0416 16:50:05.218847   688 net.cpp:467] Sharing parameters 'SCNN_U_w' owned by layer 'SCNN_U_60', param index 0
I0416 16:50:05.218849   688 layer_factory.hpp:77] Creating layer SCNN_U_6/relu
I0416 16:50:05.218856   688 net.cpp:86] Creating Layer SCNN_U_6/relu
I0416 16:50:05.218860   688 net.cpp:408] SCNN_U_6/relu <- SCNN_U_6/message
I0416 16:50:05.218864   688 net.cpp:369] SCNN_U_6/relu -> SCNN_U_6/message (in-place)
I0416 16:50:05.219094   688 net.cpp:124] Setting up SCNN_U_6/relu
I0416 16:50:05.219102   688 net.cpp:131] Top shape: 1 64 1 80 (5120)
I0416 16:50:05.219106   688 net.cpp:139] Memory required for data: 329297920
I0416 16:50:05.219110   688 layer_factory.hpp:77] Creating layer SCNN_U_6/sum
I0416 16:50:05.219115   688 net.cpp:86] Creating Layer SCNN_U_6/sum
I0416 16:50:05.219118   688 net.cpp:408] SCNN_U_6/sum <- SCNN_U_6/message
I0416 16:50:05.219125   688 net.cpp:408] SCNN_U_6/sum <- SCNN_D_5_SCNN_D_4/sum_0_split_1
I0416 16:50:05.219130   688 net.cpp:382] SCNN_U_6/sum -> SCNN_U_5
I0416 16:50:05.219148   688 net.cpp:124] Setting up SCNN_U_6/sum
I0416 16:50:05.219153   688 net.cpp:131] Top shape: 1 64 1 80 (5120)
I0416 16:50:05.219156   688 net.cpp:139] Memory required for data: 329318400
I0416 16:50:05.219158   688 layer_factory.hpp:77] Creating layer SCNN_U_5_SCNN_U_6/sum_0_split
I0416 16:50:05.219163   688 net.cpp:86] Creating Layer SCNN_U_5_SCNN_U_6/sum_0_split
I0416 16:50:05.219166   688 net.cpp:408] SCNN_U_5_SCNN_U_6/sum_0_split <- SCNN_U_5
I0416 16:50:05.219172   688 net.cpp:382] SCNN_U_5_SCNN_U_6/sum_0_split -> SCNN_U_5_SCNN_U_6/sum_0_split_0
I0416 16:50:05.219178   688 net.cpp:382] SCNN_U_5_SCNN_U_6/sum_0_split -> SCNN_U_5_SCNN_U_6/sum_0_split_1
I0416 16:50:05.219208   688 net.cpp:124] Setting up SCNN_U_5_SCNN_U_6/sum_0_split
I0416 16:50:05.219213   688 net.cpp:131] Top shape: 1 64 1 80 (5120)
I0416 16:50:05.219218   688 net.cpp:131] Top shape: 1 64 1 80 (5120)
I0416 16:50:05.219220   688 net.cpp:139] Memory required for data: 329359360
I0416 16:50:05.219224   688 layer_factory.hpp:77] Creating layer SCNN_U_5
I0416 16:50:05.219230   688 net.cpp:86] Creating Layer SCNN_U_5
I0416 16:50:05.219234   688 net.cpp:408] SCNN_U_5 <- SCNN_U_5_SCNN_U_6/sum_0_split_0
I0416 16:50:05.219239   688 net.cpp:382] SCNN_U_5 -> SCNN_U_5/message
I0416 16:50:05.220726   688 net.cpp:124] Setting up SCNN_U_5
I0416 16:50:05.220734   688 net.cpp:131] Top shape: 1 64 1 80 (5120)
I0416 16:50:05.220737   688 net.cpp:139] Memory required for data: 329379840
I0416 16:50:05.220739   688 net.cpp:467] Sharing parameters 'SCNN_U_w' owned by layer 'SCNN_U_60', param index 0
I0416 16:50:05.220742   688 layer_factory.hpp:77] Creating layer SCNN_U_5/relu
I0416 16:50:05.220746   688 net.cpp:86] Creating Layer SCNN_U_5/relu
I0416 16:50:05.220748   688 net.cpp:408] SCNN_U_5/relu <- SCNN_U_5/message
I0416 16:50:05.220752   688 net.cpp:369] SCNN_U_5/relu -> SCNN_U_5/message (in-place)
I0416 16:50:05.220818   688 net.cpp:124] Setting up SCNN_U_5/relu
I0416 16:50:05.220825   688 net.cpp:131] Top shape: 1 64 1 80 (5120)
I0416 16:50:05.220827   688 net.cpp:139] Memory required for data: 329400320
I0416 16:50:05.220829   688 layer_factory.hpp:77] Creating layer SCNN_U_5/sum
I0416 16:50:05.220834   688 net.cpp:86] Creating Layer SCNN_U_5/sum
I0416 16:50:05.220835   688 net.cpp:408] SCNN_U_5/sum <- SCNN_U_5/message
I0416 16:50:05.220839   688 net.cpp:408] SCNN_U_5/sum <- SCNN_D_4_SCNN_D_3/sum_0_split_1
I0416 16:50:05.220844   688 net.cpp:382] SCNN_U_5/sum -> SCNN_U_4
I0416 16:50:05.220860   688 net.cpp:124] Setting up SCNN_U_5/sum
I0416 16:50:05.220865   688 net.cpp:131] Top shape: 1 64 1 80 (5120)
I0416 16:50:05.220866   688 net.cpp:139] Memory required for data: 329420800
I0416 16:50:05.220868   688 layer_factory.hpp:77] Creating layer SCNN_U_4_SCNN_U_5/sum_0_split
I0416 16:50:05.220871   688 net.cpp:86] Creating Layer SCNN_U_4_SCNN_U_5/sum_0_split
I0416 16:50:05.220875   688 net.cpp:408] SCNN_U_4_SCNN_U_5/sum_0_split <- SCNN_U_4
I0416 16:50:05.220878   688 net.cpp:382] SCNN_U_4_SCNN_U_5/sum_0_split -> SCNN_U_4_SCNN_U_5/sum_0_split_0
I0416 16:50:05.220883   688 net.cpp:382] SCNN_U_4_SCNN_U_5/sum_0_split -> SCNN_U_4_SCNN_U_5/sum_0_split_1
I0416 16:50:05.220909   688 net.cpp:124] Setting up SCNN_U_4_SCNN_U_5/sum_0_split
I0416 16:50:05.220913   688 net.cpp:131] Top shape: 1 64 1 80 (5120)
I0416 16:50:05.220916   688 net.cpp:131] Top shape: 1 64 1 80 (5120)
I0416 16:50:05.220917   688 net.cpp:139] Memory required for data: 329461760
I0416 16:50:05.220919   688 layer_factory.hpp:77] Creating layer SCNN_U_4
I0416 16:50:05.220924   688 net.cpp:86] Creating Layer SCNN_U_4
I0416 16:50:05.220927   688 net.cpp:408] SCNN_U_4 <- SCNN_U_4_SCNN_U_5/sum_0_split_0
I0416 16:50:05.220930   688 net.cpp:382] SCNN_U_4 -> SCNN_U_4/message
I0416 16:50:05.222414   688 net.cpp:124] Setting up SCNN_U_4
I0416 16:50:05.222424   688 net.cpp:131] Top shape: 1 64 1 80 (5120)
I0416 16:50:05.222429   688 net.cpp:139] Memory required for data: 329482240
I0416 16:50:05.222431   688 net.cpp:467] Sharing parameters 'SCNN_U_w' owned by layer 'SCNN_U_60', param index 0
I0416 16:50:05.222434   688 layer_factory.hpp:77] Creating layer SCNN_U_4/relu
I0416 16:50:05.222438   688 net.cpp:86] Creating Layer SCNN_U_4/relu
I0416 16:50:05.222441   688 net.cpp:408] SCNN_U_4/relu <- SCNN_U_4/message
I0416 16:50:05.222446   688 net.cpp:369] SCNN_U_4/relu -> SCNN_U_4/message (in-place)
I0416 16:50:05.222683   688 net.cpp:124] Setting up SCNN_U_4/relu
I0416 16:50:05.222692   688 net.cpp:131] Top shape: 1 64 1 80 (5120)
I0416 16:50:05.222694   688 net.cpp:139] Memory required for data: 329502720
I0416 16:50:05.222698   688 layer_factory.hpp:77] Creating layer SCNN_U_4/sum
I0416 16:50:05.222703   688 net.cpp:86] Creating Layer SCNN_U_4/sum
I0416 16:50:05.222707   688 net.cpp:408] SCNN_U_4/sum <- SCNN_U_4/message
I0416 16:50:05.222713   688 net.cpp:408] SCNN_U_4/sum <- SCNN_D_3_SCNN_D_2/sum_0_split_1
I0416 16:50:05.222718   688 net.cpp:382] SCNN_U_4/sum -> SCNN_U_3
I0416 16:50:05.222738   688 net.cpp:124] Setting up SCNN_U_4/sum
I0416 16:50:05.222743   688 net.cpp:131] Top shape: 1 64 1 80 (5120)
I0416 16:50:05.222745   688 net.cpp:139] Memory required for data: 329523200
I0416 16:50:05.222748   688 layer_factory.hpp:77] Creating layer SCNN_U_3_SCNN_U_4/sum_0_split
I0416 16:50:05.222753   688 net.cpp:86] Creating Layer SCNN_U_3_SCNN_U_4/sum_0_split
I0416 16:50:05.222755   688 net.cpp:408] SCNN_U_3_SCNN_U_4/sum_0_split <- SCNN_U_3
I0416 16:50:05.222760   688 net.cpp:382] SCNN_U_3_SCNN_U_4/sum_0_split -> SCNN_U_3_SCNN_U_4/sum_0_split_0
I0416 16:50:05.222771   688 net.cpp:382] SCNN_U_3_SCNN_U_4/sum_0_split -> SCNN_U_3_SCNN_U_4/sum_0_split_1
I0416 16:50:05.222800   688 net.cpp:124] Setting up SCNN_U_3_SCNN_U_4/sum_0_split
I0416 16:50:05.222805   688 net.cpp:131] Top shape: 1 64 1 80 (5120)
I0416 16:50:05.222808   688 net.cpp:131] Top shape: 1 64 1 80 (5120)
I0416 16:50:05.222811   688 net.cpp:139] Memory required for data: 329564160
I0416 16:50:05.222815   688 layer_factory.hpp:77] Creating layer SCNN_U_3
I0416 16:50:05.222820   688 net.cpp:86] Creating Layer SCNN_U_3
I0416 16:50:05.222824   688 net.cpp:408] SCNN_U_3 <- SCNN_U_3_SCNN_U_4/sum_0_split_0
I0416 16:50:05.222829   688 net.cpp:382] SCNN_U_3 -> SCNN_U_3/message
I0416 16:50:05.225314   688 net.cpp:124] Setting up SCNN_U_3
I0416 16:50:05.225324   688 net.cpp:131] Top shape: 1 64 1 80 (5120)
I0416 16:50:05.225328   688 net.cpp:139] Memory required for data: 329584640
I0416 16:50:05.225355   688 net.cpp:467] Sharing parameters 'SCNN_U_w' owned by layer 'SCNN_U_60', param index 0
I0416 16:50:05.225359   688 layer_factory.hpp:77] Creating layer SCNN_U_3/relu
I0416 16:50:05.225363   688 net.cpp:86] Creating Layer SCNN_U_3/relu
I0416 16:50:05.225366   688 net.cpp:408] SCNN_U_3/relu <- SCNN_U_3/message
I0416 16:50:05.225370   688 net.cpp:369] SCNN_U_3/relu -> SCNN_U_3/message (in-place)
I0416 16:50:05.225606   688 net.cpp:124] Setting up SCNN_U_3/relu
I0416 16:50:05.225615   688 net.cpp:131] Top shape: 1 64 1 80 (5120)
I0416 16:50:05.225616   688 net.cpp:139] Memory required for data: 329605120
I0416 16:50:05.225618   688 layer_factory.hpp:77] Creating layer SCNN_U_3/sum
I0416 16:50:05.225622   688 net.cpp:86] Creating Layer SCNN_U_3/sum
I0416 16:50:05.225625   688 net.cpp:408] SCNN_U_3/sum <- SCNN_U_3/message
I0416 16:50:05.225630   688 net.cpp:408] SCNN_U_3/sum <- SCNN_D_2_SCNN_D_1/sum_0_split_1
I0416 16:50:05.225633   688 net.cpp:382] SCNN_U_3/sum -> SCNN_U_2
I0416 16:50:05.225651   688 net.cpp:124] Setting up SCNN_U_3/sum
I0416 16:50:05.225656   688 net.cpp:131] Top shape: 1 64 1 80 (5120)
I0416 16:50:05.225657   688 net.cpp:139] Memory required for data: 329625600
I0416 16:50:05.225659   688 layer_factory.hpp:77] Creating layer SCNN_U_2_SCNN_U_3/sum_0_split
I0416 16:50:05.225662   688 net.cpp:86] Creating Layer SCNN_U_2_SCNN_U_3/sum_0_split
I0416 16:50:05.225666   688 net.cpp:408] SCNN_U_2_SCNN_U_3/sum_0_split <- SCNN_U_2
I0416 16:50:05.225668   688 net.cpp:382] SCNN_U_2_SCNN_U_3/sum_0_split -> SCNN_U_2_SCNN_U_3/sum_0_split_0
I0416 16:50:05.225673   688 net.cpp:382] SCNN_U_2_SCNN_U_3/sum_0_split -> SCNN_U_2_SCNN_U_3/sum_0_split_1
I0416 16:50:05.225694   688 net.cpp:124] Setting up SCNN_U_2_SCNN_U_3/sum_0_split
I0416 16:50:05.225697   688 net.cpp:131] Top shape: 1 64 1 80 (5120)
I0416 16:50:05.225700   688 net.cpp:131] Top shape: 1 64 1 80 (5120)
I0416 16:50:05.225702   688 net.cpp:139] Memory required for data: 329666560
I0416 16:50:05.225703   688 layer_factory.hpp:77] Creating layer SCNN_U_2
I0416 16:50:05.225709   688 net.cpp:86] Creating Layer SCNN_U_2
I0416 16:50:05.225713   688 net.cpp:408] SCNN_U_2 <- SCNN_U_2_SCNN_U_3/sum_0_split_0
I0416 16:50:05.225718   688 net.cpp:382] SCNN_U_2 -> SCNN_U_2/message
I0416 16:50:05.227188   688 net.cpp:124] Setting up SCNN_U_2
I0416 16:50:05.227197   688 net.cpp:131] Top shape: 1 64 1 80 (5120)
I0416 16:50:05.227200   688 net.cpp:139] Memory required for data: 329687040
I0416 16:50:05.227202   688 net.cpp:467] Sharing parameters 'SCNN_U_w' owned by layer 'SCNN_U_60', param index 0
I0416 16:50:05.227205   688 layer_factory.hpp:77] Creating layer SCNN_U_2/relu
I0416 16:50:05.227208   688 net.cpp:86] Creating Layer SCNN_U_2/relu
I0416 16:50:05.227210   688 net.cpp:408] SCNN_U_2/relu <- SCNN_U_2/message
I0416 16:50:05.227214   688 net.cpp:369] SCNN_U_2/relu -> SCNN_U_2/message (in-place)
I0416 16:50:05.227288   688 net.cpp:124] Setting up SCNN_U_2/relu
I0416 16:50:05.227294   688 net.cpp:131] Top shape: 1 64 1 80 (5120)
I0416 16:50:05.227296   688 net.cpp:139] Memory required for data: 329707520
I0416 16:50:05.227298   688 layer_factory.hpp:77] Creating layer SCNN_U_2/sum
I0416 16:50:05.227301   688 net.cpp:86] Creating Layer SCNN_U_2/sum
I0416 16:50:05.227303   688 net.cpp:408] SCNN_U_2/sum <- SCNN_U_2/message
I0416 16:50:05.227308   688 net.cpp:408] SCNN_U_2/sum <- slice1_1_Slice1_0_split_1
I0416 16:50:05.227311   688 net.cpp:382] SCNN_U_2/sum -> SCNN_U_1
I0416 16:50:05.227329   688 net.cpp:124] Setting up SCNN_U_2/sum
I0416 16:50:05.227334   688 net.cpp:131] Top shape: 1 64 1 80 (5120)
I0416 16:50:05.227335   688 net.cpp:139] Memory required for data: 329728000
I0416 16:50:05.227336   688 layer_factory.hpp:77] Creating layer Concat1
I0416 16:50:05.227344   688 net.cpp:86] Creating Layer Concat1
I0416 16:50:05.227345   688 net.cpp:408] Concat1 <- SCNN_U_1
I0416 16:50:05.227349   688 net.cpp:408] Concat1 <- SCNN_U_2_SCNN_U_3/sum_0_split_1
I0416 16:50:05.227351   688 net.cpp:408] Concat1 <- SCNN_U_3_SCNN_U_4/sum_0_split_1
…
I0416 16:50:05.227536   688 net.cpp:408] Concat1 <- SCNN_U_55_SCNN_U_56/sum_0_split_1
I0416 16:50:05.227540   688 net.cpp:408] Concat1 <- SCNN_U_56_SCNN_U_57/sum_0_split_1
I0416 16:50:05.227545   688 net.cpp:408] Concat1 <- SCNN_U_57_SCNN_U_58/sum_0_split_1
I0416 16:50:05.227547   688 net.cpp:408] Concat1 <- SCNN_U_58_SCNN_U_59/sum_0_split_1
I0416 16:50:05.227551   688 net.cpp:408] Concat1 <- SCNN_U_59_SCNN_U_60/sum_0_split_1
I0416 16:50:05.227555   688 net.cpp:408] Concat1 <- SCNN_D_60_SCNN_D_59/sum_0_split_1
I0416 16:50:05.227561   688 net.cpp:382] Concat1 -> SCNN_U
I0416 16:50:05.227586   688 net.cpp:124] Setting up Concat1
I0416 16:50:05.227591   688 net.cpp:131] Top shape: 1 64 60 80 (307200)
I0416 16:50:05.227593   688 net.cpp:139] Memory required for data: 330956800
I0416 16:50:05.227596   688 layer_factory.hpp:77] Creating layer conv6
I0416 16:50:05.227602   688 net.cpp:86] Creating Layer conv6
I0416 16:50:05.227604   688 net.cpp:408] conv6 <- SCNN_U
I0416 16:50:05.227610   688 net.cpp:382] conv6 -> conv6
I0416 16:50:05.228447   688 net.cpp:124] Setting up conv6
I0416 16:50:05.228457   688 net.cpp:131] Top shape: 1 64 60 80 (307200)
I0416 16:50:05.228461   688 net.cpp:139] Memory required for data: 332185600
I0416 16:50:05.228466   688 layer_factory.hpp:77] Creating layer deconv_out
I0416 16:50:05.228474   688 net.cpp:86] Creating Layer deconv_out
I0416 16:50:05.228478   688 net.cpp:408] deconv_out <- conv6
I0416 16:50:05.228484   688 net.cpp:382] deconv_out -> deconv_out
I0416 16:50:05.232336   688 net.cpp:124] Setting up deconv_out
I0416 16:50:05.232347   688 net.cpp:131] Top shape: 1 32 480 640 (9830400)
I0416 16:50:05.232350   688 net.cpp:139] Memory required for data: 371507200
I0416 16:50:05.232357   688 layer_factory.hpp:77] Creating layer conv_out
I0416 16:50:05.232363   688 net.cpp:86] Creating Layer conv_out
I0416 16:50:05.232367   688 net.cpp:408] conv_out <- deconv_out
I0416 16:50:05.232373   688 net.cpp:382] conv_out -> conv_out
I0416 16:50:05.235754   688 net.cpp:124] Setting up conv_out
I0416 16:50:05.235772   688 net.cpp:131] Top shape: 1 13 480 640 (3993600)
I0416 16:50:05.235781   688 net.cpp:139] Memory required for data: 387481600
I0416 16:50:05.235790   688 layer_factory.hpp:77] Creating layer softmax
I0416 16:50:05.235800   688 net.cpp:86] Creating Layer softmax
I0416 16:50:05.235806   688 net.cpp:408] softmax <- conv_out
I0416 16:50:05.235813   688 net.cpp:382] softmax -> softmax
I0416 16:50:05.236212   688 net.cpp:124] Setting up softmax
I0416 16:50:05.236224   688 net.cpp:131] Top shape: 1 13 480 640 (3993600)
I0416 16:50:05.236229   688 net.cpp:139] Memory required for data: 403456000
I0416 16:50:05.236235   688 net.cpp:202] softmax does not need backward computation.
I0416 16:50:05.236241   688 net.cpp:202] conv_out does not need backward computation.
I0416 16:50:05.236246   688 net.cpp:202] deconv_out does not need backward computation.
I0416 16:50:05.236251   688 net.cpp:202] conv6 does not need backward computation.
…
