…
I0313 11:50:40.214998 26950 common.cpp:197] Concurrent copy and execution: Yes
I0313 11:50:40.215000 26950 common.cpp:199] Number of multiprocessors:     10
I0313 11:50:40.215003 26950 common.cpp:200] Kernel execution timeout:      Yes
I0313 11:50:40.233585 26950 net.cpp:53] Initializing net from parameters: 
name: "darknet-16c-16x-3d multitask TEST 960x384, offset L3:440, L4: 312, RM DET"
state {
  phase: TEST
  level: 0
}
layer {
  name: "input"
  type: "Input"
  top: "data"
  input_param {
    shape {
      dim: 1
      dim: 3
      dim: 480
      dim: 640
    }
  }
}
layer {
  name: "scale_data_lane"
  type: "Power"
  bottom: "data"
  top: "scale_data_lane"
  propagate_down: false
  power_param {
    power: 1
    scale: 0.00392157
    shift: 0
  }
}
layer {
  name: "conv1"
  type: "Convolution"
  bottom: "scale_data_lane"
  top: "conv1"
  param {
    lr_mult: 1
    decay_mult: 1
  }
  convolution_param {
    num_output: 16
    bias_term: false
    pad: 1
    kernel_size: 3
    stride: 1
    weight_filler {
      type: "gaussian"
      std: 0.01
    }
    dilation: 1
  }
}
layer {
  name: "conv1_bn"
  type: "BatchNorm"
  bottom: "conv1"
  top: "conv1"
  batch_norm_param {
    use_global_stats: true
    eps: 1e-06
  }
}
layer {
  name: "conv1_scale"
  type: "Scale"
  bottom: "conv1"
  top: "conv1"
  param {
    lr_mult: 1
    decay_mult: 1
  }
  param {
    lr_mult: 1
    decay_mult: 1
  }
  scale_param {
    filler {
      type: "constant"
      value: 1
    }
    bias_term: true
  }
}
layer {
  name: "conv1_relu"
  type: "ReLU"
  bottom: "conv1"
  top: "conv1"
  relu_param {
    negative_slope: 0
  }
}
layer {
  name: "pool1"
  type: "Pooling"
  bottom: "conv1"
  top: "pool1"
  pooling_param {
    pool: MAX
    kernel_size: 2
    stride: 2
    pad: 0
  }
}
layer {
  name: "conv2"
  type: "Convolution"
  bottom: "pool1"
  top: "conv2"
  param {
    lr_mult: 1
    decay_mult: 1
  }
  convolution_param {
    num_output: 32
    bias_term: false
    pad: 1
    kernel_size: 3
    stride: 1
    weight_filler {
      type: "gaussian"
      std: 0.01
    }
    dilation: 1
  }
}
layer {
  name: "conv2_bn"
  type: "BatchNorm"
  bottom: "conv2"
  top: "conv2"
  batch_norm_param {
    use_global_stats: true
    eps: 1e-06
  }
}
layer {
  name: "conv2_scale"
  type: "Scale"
  bottom: "conv2"
  top: "conv2"
  param {
    lr_mult: 1
    decay_mult: 1
  }
  param {
    lr_mult: 1
    decay_mult: 1
  }
  scale_param {
    filler {
      type: "constant"
      value: 1
    }
    bias_term: true
  }
}
layer {
  name: "conv2_relu"
  type: "ReLU"
  bottom: "conv2"
  top: "conv2"
  relu_param {
    negative_slope: 0
  }
}
layer {
  name: "pool2"
  type: "Pooling"
  bottom: "conv2"
  top: "pool2"
  pooling_param {
    pool: MAX
    kernel_size: 2
    stride: 2
    pad: 0
  }
}
layer {
  name: "conv3_1"
  type: "Convolution"
  bottom: "pool2"
  top: "conv3_1"
  param {
    lr_mult: 1
    decay_mult: 1
  }
  convolution_param {
    num_output: 64
    bias_term: false
    pad: 1
    kernel_size: 3
    stride: 1
    weight_filler {
      type: "gaussian"
      std: 0.01
    }
    dilation: 1
  }
}
layer {
  name: "conv3_1_bn"
  type: "BatchNorm"
  bottom: "conv3_1"
  top: "conv3_1"
  batch_norm_param {
    use_global_stats: true
    eps: 1e-06
  }
}
layer {
  name: "conv3_1_scale"
  type: "Scale"
  bottom: "conv3_1"
  top: "conv3_1"
  param {
    lr_mult: 1
    decay_mult: 1
  }
  param {
    lr_mult: 1
    decay_mult: 1
  }
  scale_param {
    filler {
      type: "constant"
      value: 1
    }
    bias_term: true
  }
}
layer {
  name: "conv3_1_relu"
  type: "ReLU"
  bottom: "conv3_1"
  top: "conv3_1"
  relu_param {
    negative_slope: 0
  }
}
layer {
  name: "conv3_2"
  type: "Convolution"
  bottom: "conv3_1"
  top: "conv3_2"
  param {
    lr_mult: 1
    decay_mult: 1
  }
  convolution_param {
    num_output: 32
    bias_term: false
    pad: 0
    kernel_size: 1
    stride: 1
    weight_filler {
      type: "gaussian"
      std: 0.01
    }
    dilation: 1
  }
}
layer {
  name: "conv3_2_bn"
  type: "BatchNorm"
  bottom: "conv3_2"
  top: "conv3_2"
  batch_norm_param {
    use_global_stats: true
    eps: 1e-06
  }
}
layer {
  name: "conv3_2_scale"
  type: "Scale"
  bottom: "conv3_2"
  top: "conv3_2"
  param {
    lr_mult: 1
    decay_mult: 1
  }
  param {
    lr_mult: 1
    decay_mult: 1
  }
  scale_param {
    filler {
      type: "constant"
      value: 1
    }
    bias_term: true
  }
}
layer {
  name: "conv3_2_relu"
  type: "ReLU"
  bottom: "conv3_2"
  top: "conv3_2"
  relu_param {
    negative_slope: 0
  }
}
layer {
  name: "conv3_3"
  type: "Convolution"
  bottom: "conv3_2"
  top: "conv3_3"
  param {
    lr_mult: 1
    decay_mult: 1
  }
  convolution_param {
    num_output: 64
    bias_term: false
    pad: 1
    kernel_size: 3
    stride: 1
    weight_filler {
      type: "gaussian"
      std: 0.01
    }
    dilation: 1
  }
}
layer {
  name: "conv3_3_bn"
  type: "BatchNorm"
  bottom: "conv3_3"
  top: "conv3_3"
  batch_norm_param {
    use_global_stats: true
    eps: 1e-06
  }
}
layer {
  name: "conv3_3_scale"
  type: "Scale"
  bottom: "conv3_3"
  top: "conv3_3"
  param {
    lr_mult: 1
    decay_mult: 1
  }
  param {
    lr_mult: 1
    decay_mult: 1
  }
  scale_param {
    filler {
      type: "constant"
      value: 1
    }
    bias_term: true
  }
}
layer {
  name: "conv3_3_relu"
  type: "ReLU"
  bottom: "conv3_3"
  top: "conv3_3"
  relu_param {
    negative_slope: 0
  }
}
layer {
  name: "pool3"
  type: "Pooling"
  bottom: "conv3_3"
  top: "pool3"
  pooling_param {
    pool: MAX
    kernel_size: 2
    stride: 2
    pad: 0
  }
}
layer {
  name: "conv4_1"
  type: "Convolution"
  bottom: "pool3"
  top: "conv4_1"
  param {
    lr_mult: 1
    decay_mult: 1
  }
  convolution_param {
    num_output: 128
    bias_term: false
    pad: 1
    kernel_size: 3
    stride: 1
    weight_filler {
      type: "gaussian"
      std: 0.01
    }
    dilation: 1
  }
}
layer {
  name: "conv4_1_bn"
  type: "BatchNorm"
  bottom: "conv4_1"
  top: "conv4_1"
  batch_norm_param {
    use_global_stats: true
    eps: 1e-06
  }
}
layer {
  name: "conv4_1_scale"
  type: "Scale"
  bottom: "conv4_1"
  top: "conv4_1"
  param {
    lr_mult: 1
    decay_mult: 1
  }
  param {
    lr_mult: 1
    decay_mult: 1
  }
  scale_param {
    filler {
      type: "constant"
      value: 1
    }
    bias_term: true
  }
}
layer {
  name: "conv4_1_relu"
  type: "ReLU"
  bottom: "conv4_1"
  top: "conv4_1"
  relu_param {
    negative_slope: 0
  }
}
layer {
  name: "conv4_2"
  type: "Convolution"
  bottom: "conv4_1"
  top: "conv4_2"
  param {
    lr_mult: 1
    decay_mult: 1
  }
  convolution_param {
    num_output: 64
    bias_term: false
    pad: 0
    kernel_size: 1
    stride: 1
    weight_filler {
      type: "gaussian"
      std: 0.01
    }
    dilation: 1
  }
}
layer {
  name: "conv4_2_bn"
  type: "BatchNorm"
  bottom: "conv4_2"
  top: "conv4_2"
  batch_norm_param {
    use_global_stats: true
    eps: 1e-06
  }
}
layer {
  name: "conv4_2_scale"
  type: "Scale"
  bottom: "conv4_2"
  top: "conv4_2"
  param {
    lr_mult: 1
    decay_mult: 1
  }
  param {
    lr_mult: 1
    decay_mult: 1
  }
  scale_param {
    filler {
      type: "constant"
      value: 1
    }
    bias_term: true
  }
}
layer {
  name: "conv4_2_relu"
  type: "ReLU"
  bottom: "conv4_2"
  top: "conv4_2"
  relu_param {
    negative_slope: 0
  }
}
layer {
  name: "conv4_3"
  type: "Convolution"
  bottom: "conv4_2"
  top: "conv4_3"
  param {
    lr_mult: 1
    decay_mult: 1
  }
  convolution_param {
    num_output: 128
    bias_term: false
    pad: 1
    kernel_size: 3
    stride: 1
    weight_filler {
      type: "gaussian"
      std: 0.01
    }
    dilation: 1
  }
}
layer {
  name: "conv4_3_bn"
  type: "BatchNorm"
  bottom: "conv4_3"
  top: "conv4_3"
  batch_norm_param {
    use_global_stats: true
    eps: 1e-06
  }
}
layer {
  name: "conv4_3_scale"
  type: "Scale"
  bottom: "conv4_3"
  top: "conv4_3"
  param {
    lr_mult: 1
    decay_mult: 1
  }
  param {
    lr_mult: 1
    decay_mult: 1
  }
  scale_param {
    filler {
      type: "constant"
      value: 1
    }
    bias_term: true
  }
}
layer {
  name: "conv4_3_relu"
  type: "ReLU"
  bottom: "conv4_3"
  top: "conv4_3"
  relu_param {
    negative_slope: 0
  }
}
layer {
  name: "pool4"
  type: "Pooling"
  bottom: "conv4_3"
  top: "pool4"
  pooling_param {
    pool: MAX
    kernel_size: 2
    stride: 2
    pad: 0
  }
}
layer {
  name: "conv5_1"
  type: "Convolution"
  bottom: "pool4"
  top: "conv5_1"
  param {
    lr_mult: 1
    decay_mult: 1
  }
  convolution_param {
    num_output: 256
    bias_term: false
    pad: 1
    kernel_size: 3
    stride: 1
    weight_filler {
      type: "gaussian"
      std: 0.01
    }
    dilation: 1
  }
}
layer {
  name: "conv5_1_bn"
  type: "BatchNorm"
  bottom: "conv5_1"
  top: "conv5_1"
  batch_norm_param {
    use_global_stats: true
    eps: 1e-06
  }
}
layer {
  name: "conv5_1_scale"
  type: "Scale"
  bottom: "conv5_1"
  top: "conv5_1"
  param {
    lr_mult: 1
    decay_mult: 1
  }
  param {
    lr_mult: 1
    decay_mult: 1
  }
  scale_param {
    filler {
      type: "constant"
      value: 1
    }
    bias_term: true
  }
}
layer {
  name: "conv5_1_relu"
  type: "ReLU"
  bottom: "conv5_1"
  top: "conv5_1"
  relu_param {
    negative_slope: 0
  }
}
layer {
  name: "conv5_2"
  type: "Convolution"
  bottom: "conv5_1"
  top: "conv5_2"
  param {
    lr_mult: 1
    decay_mult: 1
  }
  convolution_param {
    num_output: 128
    bias_term: false
    pad: 0
    kernel_size: 1
    stride: 1
    weight_filler {
      type: "gaussian"
      std: 0.01
    }
    dilation: 1
  }
}
layer {
  name: "conv5_2_bn"
  type: "BatchNorm"
  bottom: "conv5_2"
  top: "conv5_2"
  batch_norm_param {
    use_global_stats: true
    eps: 1e-06
  }
}
layer {
  name: "conv5_2_scale"
  type: "Scale"
  bottom: "conv5_2"
  top: "conv5_2"
  param {
    lr_mult: 1
    decay_mult: 1
  }
  param {
    lr_mult: 1
    decay_mult: 1
  }
  scale_param {
    filler {
      type: "constant"
      value: 1
    }
    bias_term: true
  }
}
layer {
  name: "conv5_2_relu"
  type: "ReLU"
  bottom: "conv5_2"
  top: "conv5_2"
  relu_param {
    negative_slope: 0
  }
}
layer {
  name: "conv5_3"
  type: "Convolution"
  bottom: "conv5_2"
  top: "conv5_3"
  param {
    lr_mult: 1
    decay_mult: 1
  }
  convolution_param {
    num_output: 256
    bias_term: false
    pad: 1
    kernel_size: 3
    stride: 1
    weight_filler {
      type: "gaussian"
      std: 0.01
    }
    dilation: 1
  }
}
layer {
  name: "conv5_3_bn"
  type: "BatchNorm"
  bottom: "conv5_3"
  top: "conv5_3"
  batch_norm_param {
    use_global_stats: true
    eps: 1e-06
  }
}
layer {
  name: "conv5_3_scale"
  type: "Scale"
  bottom: "conv5_3"
  top: "conv5_3"
  param {
    lr_mult: 1
    decay_mult: 1
  }
  param {
    lr_mult: 1
    decay_mult: 1
  }
  scale_param {
    filler {
      type: "constant"
      value: 1
    }
    bias_term: true
  }
}
layer {
  name: "conv5_3_relu"
  type: "ReLU"
  bottom: "conv5_3"
  top: "conv5_3"
  relu_param {
    negative_slope: 0
  }
}
layer {
  name: "conv5_4"
  type: "Convolution"
  bottom: "conv5_3"
  top: "conv5_4"
  param {
    lr_mult: 1
    decay_mult: 1
  }
  convolution_param {
    num_output: 128
    bias_term: false
    pad: 0
    kernel_size: 1
    stride: 1
    weight_filler {
      type: "gaussian"
      std: 0.01
    }
    dilation: 1
  }
}
layer {
  name: "conv5_4_bn"
  type: "BatchNorm"
  bottom: "conv5_4"
  top: "conv5_4"
  batch_norm_param {
    use_global_stats: true
    eps: 1e-06
  }
}
layer {
  name: "conv5_4_scale"
  type: "Scale"
  bottom: "conv5_4"
  top: "conv5_4"
  param {
    lr_mult: 1
    decay_mult: 1
  }
  param {
    lr_mult: 1
    decay_mult: 1
  }
  scale_param {
    filler {
      type: "constant"
      value: 1
    }
    bias_term: true
  }
}
layer {
  name: "conv5_4_relu"
  type: "ReLU"
  bottom: "conv5_4"
  top: "conv5_4"
  relu_param {
    negative_slope: 0
  }
}
layer {
  name: "conv5_5"
  type: "Convolution"
  bottom: "conv5_4"
  top: "conv5_5"
  param {
    lr_mult: 1
    decay_mult: 1
  }
  convolution_param {
    num_output: 256
    bias_term: false
    pad: 1
    kernel_size: 3
    stride: 1
    weight_filler {
      type: "gaussian"
      std: 0.01
    }
    dilation: 1
  }
}
layer {
  name: "conv5_5_bn"
  type: "BatchNorm"
  bottom: "conv5_5"
  top: "conv5_5"
  batch_norm_param {
    use_global_stats: true
    eps: 1e-06
  }
}
layer {
  name: "conv5_5_scale"
  type: "Scale"
  bottom: "conv5_5"
  top: "conv5_5"
  param {
    lr_mult: 1
    decay_mult: 1
  }
  param {
    lr_mult: 1
    decay_mult: 1
  }
  scale_param {
    filler {
      type: "constant"
      value: 1
    }
    bias_term: true
  }
}
layer {
  name: "conv5_5_relu"
  type: "ReLU"
  bottom: "conv5_5"
  top: "conv5_5"
  relu_param {
    negative_slope: 0
  }
}
layer {
  name: "pool5"
  type: "Pooling"
  bottom: "conv5_5"
  top: "pool5"
  pooling_param {
    pool: MAX
    kernel_size: 3
    stride: 1
    pad: 1
  }
}
layer {
  name: "conv6_1"
  type: "Convolution"
  bottom: "pool5"
  top: "conv6_1"
  param {
    lr_mult: 1
    decay_mult: 1
  }
  convolution_param {
    num_output: 512
    bias_term: false
    pad: 2
    kernel_size: 3
    stride: 1
    weight_filler {
      type: "gaussian"
      std: 0.01
    }
    dilation: 2
  }
}
layer {
  name: "conv6_1_bn"
  type: "BatchNorm"
  bottom: "conv6_1"
  top: "conv6_1"
  batch_norm_param {
    use_global_stats: true
    eps: 1e-06
  }
}
layer {
  name: "conv6_1_scale"
  type: "Scale"
  bottom: "conv6_1"
  top: "conv6_1"
  param {
    lr_mult: 1
    decay_mult: 1
  }
  param {
    lr_mult: 1
    decay_mult: 1
  }
  scale_param {
    filler {
      type: "constant"
      value: 1
    }
    bias_term: true
  }
}
layer {
  name: "conv6_1_relu"
  type: "ReLU"
  bottom: "conv6_1"
  top: "conv6_1"
  relu_param {
    negative_slope: 0
  }
}
layer {
  name: "conv6_2"
  type: "Convolution"
  bottom: "conv6_1"
  top: "conv6_2"
  param {
    lr_mult: 1
    decay_mult: 1
  }
  convolution_param {
    num_output: 256
    bias_term: false
    pad: 0
    kernel_size: 1
    stride: 1
    weight_filler {
      type: "gaussian"
      std: 0.01
    }
    dilation: 1
  }
}
layer {
  name: "conv6_2_bn"
  type: "BatchNorm"
  bottom: "conv6_2"
  top: "conv6_2"
  batch_norm_param {
    use_global_stats: true
    eps: 1e-06
  }
}
layer {
  name: "conv6_2_scale"
  type: "Scale"
  bottom: "conv6_2"
  top: "conv6_2"
  param {
    lr_mult: 1
    decay_mult: 1
  }
  param {
    lr_mult: 1
    decay_mult: 1
  }
  scale_param {
    filler {
      type: "constant"
      value: 1
    }
    bias_term: true
  }
}
layer {
  name: "conv6_2_relu"
  type: "ReLU"
  bottom: "conv6_2"
  top: "conv6_2"
  relu_param {
    negative_slope: 0
  }
}
layer {
  name: "conv6_3"
  type: "Convolution"
  bottom: "conv6_2"
  top: "conv6_3"
  param {
    lr_mult: 1
    decay_mult: 1
  }
  convolution_param {
    num_output: 512
    bias_term: false
    pad: 1
    kernel_size: 3
    stride: 1
    weight_filler {
      type: "gaussian"
      std: 0.01
    }
    dilation: 1
  }
}
layer {
  name: "conv6_3_bn"
  type: "BatchNorm"
  bottom: "conv6_3"
  top: "conv6_3"
  batch_norm_param {
    use_global_stats: true
    eps: 1e-06
  }
}
layer {
  name: "conv6_3_scale"
  type: "Scale"
  bottom: "conv6_3"
  top: "conv6_3"
  param {
    lr_mult: 1
    decay_mult: 1
  }
  param {
    lr_mult: 1
    decay_mult: 1
  }
  scale_param {
    filler {
      type: "constant"
      value: 1
    }
    bias_term: true
  }
}
layer {
  name: "conv6_3_relu"
  type: "ReLU"
  bottom: "conv6_3"
  top: "conv6_3"
  relu_param {
    negative_slope: 0
  }
}
layer {
  name: "conv6_4"
  type: "Convolution"
  bottom: "conv6_3"
  top: "conv6_4"
  param {
    lr_mult: 1
    decay_mult: 1
  }
  convolution_param {
    num_output: 256
    bias_term: false
    pad: 0
    kernel_size: 1
    stride: 1
    weight_filler {
      type: "gaussian"
      std: 0.01
    }
    dilation: 1
  }
}
layer {
  name: "conv6_4_bn"
  type: "BatchNorm"
  bottom: "conv6_4"
  top: "conv6_4"
  batch_norm_param {
    use_global_stats: true
    eps: 1e-06
  }
}
layer {
  name: "conv6_4_scale"
  type: "Scale"
  bottom: "conv6_4"
  top: "conv6_4"
  param {
    lr_mult: 1
    decay_mult: 1
  }
  param {
    lr_mult: 1
    decay_mult: 1
  }
  scale_param {
    filler {
      type: "constant"
      value: 1
    }
    bias_term: true
  }
}
layer {
  name: "conv6_4_relu"
  type: "ReLU"
  bottom: "conv6_4"
  top: "conv6_4"
  relu_param {
    negative_slope: 0
  }
}
layer {
  name: "conv6_5"
  type: "Convolution"
  bottom: "conv6_4"
  top: "conv6_5"
  param {
    lr_mult: 1
    decay_mult: 1
  }
  convolution_param {
    num_output: 512
    bias_term: false
    pad: 1
    kernel_size: 3
    stride: 1
    weight_filler {
      type: "gaussian"
      std: 0.01
    }
    dilation: 1
  }
}
layer {
  name: "conv6_5_bn"
  type: "BatchNorm"
  bottom: "conv6_5"
  top: "conv6_5"
  batch_norm_param {
    use_global_stats: true
    eps: 1e-06
  }
}
layer {
  name: "conv6_5_scale"
  type: "Scale"
  bottom: "conv6_5"
  top: "conv6_5"
  param {
    lr_mult: 1
    decay_mult: 1
  }
  param {
    lr_mult: 1
    decay_mult: 1
  }
  scale_param {
    filler {
      type: "constant"
      value: 1
    }
    bias_term: true
  }
}
layer {
  name: "conv6_5_relu"
  type: "ReLU"
  bottom: "conv6_5"
  top: "conv6_5"
  relu_param {
    negative_slope: 0
  }
}
layer {
  name: "conv7_1"
  type: "Convolution"
  bottom: "conv6_5"
  top: "conv7_1"
  param {
    lr_mult: 1
    decay_mult: 1
  }
  convolution_param {
    num_output: 512
    bias_term: false
    pad: 1
    kernel_size: 3
    stride: 1
    weight_filler {
      type: "gaussian"
      std: 0.01
    }
    dilation: 1
  }
}
layer {
  name: "conv7_1_bn"
  type: "BatchNorm"
  bottom: "conv7_1"
  top: "conv7_1"
  batch_norm_param {
    use_global_stats: true
    eps: 1e-06
  }
}
layer {
  name: "conv7_1_scale"
  type: "Scale"
  bottom: "conv7_1"
  top: "conv7_1"
  param {
    lr_mult: 1
    decay_mult: 1
  }
  param {
    lr_mult: 1
    decay_mult: 1
  }
  scale_param {
    filler {
      type: "constant"
      value: 1
    }
    bias_term: true
  }
}
layer {
  name: "conv7_1_relu"
  type: "ReLU"
  bottom: "conv7_1"
  top: "conv7_1"
  relu_param {
    negative_slope: 0
  }
}
layer {
  name: "conv7_2"
  type: "Convolution"
  bottom: "conv7_1"
  top: "conv7_2"
  param {
    lr_mult: 1
    decay_mult: 1
  }
  convolution_param {
    num_output: 512
    bias_term: false
    pad: 1
    kernel_size: 3
    stride: 1
    weight_filler {
      type: "gaussian"
      std: 0.01
    }
    dilation: 1
  }
}
layer {
  name: "conv7_2_bn"
  type: "BatchNorm"
  bottom: "conv7_2"
  top: "conv7_2"
  batch_norm_param {
    use_global_stats: true
    eps: 1e-06
  }
}
layer {
  name: "conv7_2_scale"
  type: "Scale"
  bottom: "conv7_2"
  top: "conv7_2"
  param {
    lr_mult: 1
    decay_mult: 1
  }
  param {
    lr_mult: 1
    decay_mult: 1
  }
  scale_param {
    filler {
      type: "constant"
      value: 1
    }
    bias_term: true
  }
}
layer {
  name: "conv7_2_relu"
  type: "ReLU"
  bottom: "conv7_2"
  top: "conv7_2"
  relu_param {
    negative_slope: 0
  }
}
layer {
  name: "concat8"
  type: "Concat"
  bottom: "conv5_5"
  bottom: "conv7_2"
  top: "concat8"
  concat_param {
    axis: 1
  }
}
layer {
  name: "reduce1_lane"
  type: "Convolution"
  bottom: "concat8"
  top: "reduce1_lane"
  param {
    lr_mult: 1
    decay_mult: 1
  }
  convolution_param {
    num_output: 128
    bias_term: false
    pad: 1
    kernel_size: 3
    stride: 1
    weight_filler {
      type: "gaussian"
      std: 0.01
    }
  }
}
layer {
  name: "reduce1_lane_bn"
  type: "BatchNorm"
  bottom: "reduce1_lane"
  top: "reduce1_lane"
  batch_norm_param {
    use_global_stats: true
    eps: 1e-06
  }
}
layer {
  name: "reduce1_lane_scale"
  type: "Scale"
  bottom: "reduce1_lane"
  top: "reduce1_lane"
  scale_param {
    filler {
      type: "constant"
      value: 1
    }
    bias_term: true
  }
}
layer {
  name: "reduce1_lane_relu"
  type: "ReLU"
  bottom: "reduce1_lane"
  top: "reduce1_lane"
  relu_param {
    negative_slope: 0
  }
}
layer {
  name: "deconv1_lane"
  type: "Deconvolution"
  bottom: "reduce1_lane"
  top: "deconv1_lane"
  param {
    lr_mult: 1
    decay_mult: 1
  }
  convolution_param {
    num_output: 64
    pad: 0
    kernel_size: 2
    stride: 2
    weight_filler {
      type: "xavier"
    }
    bias_filler {
      type: "constant"
      value: 0
    }
  }
}
layer {
  name: "deconv1_lane_bn"
  type: "BatchNorm"
  bottom: "deconv1_lane"
  top: "deconv1_lane"
  batch_norm_param {
    use_global_stats: true
    eps: 1e-06
  }
}
layer {
  name: "deconv1_lane_scale"
  type: "Scale"
  bottom: "deconv1_lane"
  top: "deconv1_lane"
  scale_param {
    filler {
      type: "constant"
      value: 1
    }
    bias_term: true
  }
}
layer {
  name: "deconv1_lane_relu"
  type: "ReLU"
  bottom: "deconv1_lane"
  top: "deconv1_lane"
  relu_param {
    negative_slope: 0
  }
}
layer {
  name: "reorg4"
  type: "Convolution"
  bottom: "conv4_3"
  top: "reorg4"
  param {
    lr_mult: 1
    decay_mult: 1
  }
  convolution_param {
    num_output: 64
    bias_term: false
    pad: 1
    kernel_size: 3
    stride: 1
    weight_filler {
      type: "gaussian"
      std: 0.01
    }
  }
}
layer {
  name: "reorg4_relu"
  type: "ReLU"
  bottom: "reorg4"
  top: "reorg4"
  relu_param {
    negative_slope: 0
  }
}
layer {
  name: "concat4"
  type: "Concat"
  bottom: "reorg4"
  bottom: "deconv1_lane"
  top: "concat4"
  concat_param {
    axis: 1
  }
}
layer {
  name: "reduce2_lane"
  type: "Convolution"
  bottom: "concat4"
  top: "reduce2_lane"
  param {
    lr_mult: 1
    decay_mult: 1
  }
  convolution_param {
    num_output: 64
    bias_term: false
    pad: 1
    kernel_size: 3
    stride: 1
    weight_filler {
      type: "gaussian"
      std: 0.01
    }
  }
}
layer {
  name: "reduce2_lane_bn"
  type: "BatchNorm"
  bottom: "reduce2_lane"
  top: "reduce2_lane"
  batch_norm_param {
    use_global_stats: true
    eps: 1e-06
  }
}
layer {
  name: "reduce2_lane_scale"
  type: "Scale"
  bottom: "reduce2_lane"
  top: "reduce2_lane"
  scale_param {
    filler {
      type: "constant"
      value: 1
    }
    bias_term: true
  }
}
layer {
  name: "reduce2_lane_relu"
  type: "ReLU"
  bottom: "reduce2_lane"
  top: "reduce2_lane"
  relu_param {
    negative_slope: 0
  }
}
layer {
  name: "Slice1"
  type: "Slice"
  bottom: "reduce2_lane"
  top: "slice1_1"
  top: "slice1_2"
  top: "slice1_3"
  top: "slice1_4"
  top: "slice1_5"
  top: "slice1_6"
  top: "slice1_7"
  top: "slice1_8"
  top: "slice1_9"
  top: "slice1_10"
  top: "slice1_11"
  top: "slice1_12"
  top: "slice1_13"
  top: "slice1_14"
  top: "slice1_15"
  top: "slice1_16"
  top: "slice1_17"
  top: "slice1_18"
  top: "slice1_19"
  top: "slice1_20"
  top: "slice1_21"
…
    slice_point: 33
    slice_point: 34
    slice_point: 35
    slice_point: 36
    slice_point: 37
    slice_point: 38
    slice_point: 39
    slice_point: 40
    slice_point: 41
    slice_point: 42
    slice_point: 43
    slice_point: 44
    slice_point: 45
    slice_point: 46
    slice_point: 47
    slice_point: 48
    slice_point: 49
    slice_point: 50
    slice_point: 51
    slice_point: 52
    slice_point: 53
    slice_point: 54
    slice_point: 55
    slice_point: 56
    slice_point: 57
    slice_point: 58
    slice_point: 59
    axis: 2
  }
}
layer {
  name: "SCNN_D_1"
  type: "Convolution"
  bottom: "slice1_1"
  top: "SCNN_D_1/message"
  param {
    name: "SCNN_D_w"
    lr_mult: 1
    decay_mult: 1
  }
  convolution_param {
    num_output: 64
    bias_term: false
    stride: 1
    weight_filler {
      type: "gaussian"
      std: 0.03536
    }
    pad_h: 0
    pad_w: 2
    kernel_h: 1
    kernel_w: 5
  }
}
layer {
  name: "SCNN_D_1/relu"
  type: "ReLU"
  bottom: "SCNN_D_1/message"
  top: "SCNN_D_1/message"
}
layer {
  name: "SCNN_D_1/sum"
  type: "Eltwise"
  bottom: "SCNN_D_1/message"
  bottom: "slice1_2"
  top: "SCNN_D_2"
  eltwise_param {
    operation: SUM
  }
}
layer {
  name: "SCNN_D_2"
  type: "Convolution"
  bottom: "SCNN_D_2"
  top: "SCNN_D_2/message"
  param {
    name: "SCNN_D_w"
    lr_mult: 1
    decay_mult: 1
  }
  convolution_param {
    num_output: 64
    bias_term: false
    stride: 1
    weight_filler {
      type: "gaussian"
      std: 0.03536
    }
    pad_h: 0
    pad_w: 2
    kernel_h: 1
    kernel_w: 5
  }
}
layer {
  name: "SCNN_D_2/relu"
  type: "ReLU"
  bottom: "SCNN_D_2/message"
  top: "SCNN_D_2/message"
}
layer {
  name: "SCNN_D_2/sum"
  type: "Eltwise"
  bottom: "SCNN_D_2/message"
  bottom: "slice1_3"
  top: "SCNN_D_3"
  eltwise_param {
    operation: SUM
  }
}
layer {
  name: "SCNN_D_3"
  type: "Convolution"
  bottom: "SCNN_D_3"
  top: "SCNN_D_3/message"
  param {
    name: "SCNN_D_w"
    lr_mult: 1
    decay_mult: 1
  }
  convolution_param {
    num_output: 64
    bias_term: false
    stride: 1
    weight_filler {
      type: "gaussian"
      std: 0.03536
    }
    pad_h: 0
    pad_w: 2
    kernel_h: 1
    kernel_w: 5
  }
}
layer {
  name: "SCNN_D_3/relu"
  type: "ReLU"
  bottom: "SCNN_D_3/message"
  top: "SCNN_D_3/message"
}
layer {
  name: "SCNN_D_3/sum"
  type: "Eltwise"
  bottom: "SCNN_D_3/message"
  bottom: "slice1_4"
  top: "SCNN_D_4"
  eltwise_param {
    operation: SUM
  }
}
layer {
  name: "SCNN_D_4"
  type: "Convolution"
  bottom: "SCNN_D_4"
  top: "SCNN_D_4/message"
  param {
    name: "SCNN_D_w"
    lr_mult: 1
    decay_mult: 1
  }
  convolution_param {
    num_output: 64
    bias_term: false
    stride: 1
    weight_filler {
      type: "gaussian"
      std: 0.03536
    }
    pad_h: 0
    pad_w: 2
    kernel_h: 1
    kernel_w: 5
  }
}
layer {
  name: "SCNN_D_4/relu"
  type: "ReLU"
  bottom: "SCNN_D_4/message"
  top: "SCNN_D_4/message"
}
layer {
  name: "SCNN_D_4/sum"
  type: "Eltwise"
  bottom: "SCNN_D_4/message"
  bottom: "slice1_5"
  top: "SCNN_D_5"
  eltwise_param {
    operation: SUM
  }
}
layer {
  name: "SCNN_D_5"
  type: "Convolution"
  bottom: "SCNN_D_5"
  top: "SCNN_D_5/message"
  param {
    name: "SCNN_D_w"
    lr_mult: 1
    decay_mult: 1
  }
  convolution_param {
    num_output: 64
    bias_term: false
    stride: 1
    weight_filler {
      type: "gaussian"
      std: 0.03536
    }
    pad_h: 0
    pad_w: 2
    kernel_h: 1
    kernel_w: 5
  }
}
layer {
  name: "SCNN_D_5/relu"
  type: "ReLU"
  bottom: "SCNN_D_5/message"
  top: "SCNN_D_5/message"
}
layer {
  name: "SCNN_D_5/sum"
  type: "Eltwise"
  bottom: "SCNN_D_5/message"
  bottom: "slice1_6"
  top: "SCNN_D_6"
  eltwise_param {
    operation: SUM
  }
}
layer {
  name: "SCNN_D_6"
  type: "Convolution"
  bottom: "SCNN_D_6"
  top: "SCNN_D_6/message"
  param {
    name: "SCNN_D_w"
    lr_mult: 1
    decay_mult: 1
  }
  convolution_param {
    num_output: 64
    bias_term: false
    stride: 1
    weight_filler {
      type: "gaussian"
      std: 0.03536
    }
    pad_h: 0
    pad_w: 2
    kernel_h: 1
    kernel_w: 5
  }
}
layer {
  name: "SCNN_D_6/relu"
  type: "ReLU"
  bottom: "SCNN_D_6/message"
  top: "SCNN_D_6/message"
}
layer {
  name: "SCNN_D_6/sum"
  type: "Eltwise"
  bottom: "SCNN_D_6/message"
  bottom: "slice1_7"
  top: "SCNN_D_7"
  eltwise_param {
    operation: SUM
  }
}
layer {
  name: "SCNN_D_7"
  type: "Convolution"
  bottom: "SCNN_D_7"
  top: "SCNN_D_7/message"
  param {
    name: "SCNN_D_w"
    lr_mult: 1
    decay_mult: 1
  }
  convolution_param {
    num_output: 64
    bias_term: false
    stride: 1
    weight_filler {
      type: "gaussian"
      std: 0.03536
    }
    pad_h: 0
    pad_w: 2
    kernel_h: 1
    kernel_w: 5
  }
}
layer {
  name: "SCNN_D_7/relu"
  type: "ReLU"
  bottom: "SCNN_D_7/message"
  top: "SCNN_D_7/message"
}
layer {
  name: "SCNN_D_7/sum"
  type: "Eltwise"
  bottom: "SCNN_D_7/message"
  bottom: "slice1_8"
  top: "SCNN_D_8"
  eltwise_param {
    operation: SUM
  }
}
layer {
  name: "SCNN_D_8"
  type: "Convolution"
  bottom: "SCNN_D_8"
  top: "SCNN_D_8/message"
  param {
    name: "SCNN_D_w"
    lr_mult: 1
    decay_mult: 1
  }
  convolution_param {
    num_output: 64
    bias_term: false
    stride: 1
    weight_filler {
      type: "gaussian"
      std: 0.03536
    }
    pad_h: 0
    pad_w: 2
    kernel_h: 1
    kernel_w: 5
  }
}
layer {
  name: "SCNN_D_8/relu"
  type: "ReLU"
  bottom: "SCNN_D_8/message"
  top: "SCNN_D_8/message"
}
layer {
  name: "SCNN_D_8/sum"
  type: "Eltwise"
  bottom: "SCNN_D_8/message"
  bottom: "slice1_9"
  top: "SCNN_D_9"
  eltwise_param {
    operation: SUM
  }
}
layer {
  name: "SCNN_D_9"
  type: "Convolution"
  bottom: "SCNN_D_9"
  top: "SCNN_D_9/message"
  param {
    name: "SCNN_D_w"
    lr_mult: 1
    decay_mult: 1
  }
  convolution_param {
    num_output: 64
    bias_term: false
    stride: 1
    weight_filler {
      type: "gaussian"
      std: 0.03536
    }
    pad_h: 
I0313 11:50:40.235541 26950 layer_factory.hpp:77] Creating layer input
I0313 11:50:40.235591 26950 net.cpp:86] Creating Layer input
I0313 11:50:40.235615 26950 net.cpp:382] input -> data
I0313 11:50:40.235817 26950 net.cpp:124] Setting up input
I0313 11:50:40.235853 26950 net.cpp:131] Top shape: 1 3 480 640 (921600)
I0313 11:50:40.235864 26950 net.cpp:139] Memory required for data: 3686400
I0313 11:50:40.235886 26950 layer_factory.hpp:77] Creating layer scale_data_lane
I0313 11:50:40.235903 26950 net.cpp:86] Creating Layer scale_data_lane
I0313 11:50:40.235919 26950 net.cpp:408] scale_data_lane <- data
I0313 11:50:40.235939 26950 net.cpp:382] scale_data_lane -> scale_data_lane
I0313 11:50:40.235990 26950 net.cpp:124] Setting up scale_data_lane
I0313 11:50:40.235999 26950 net.cpp:131] Top shape: 1 3 480 640 (921600)
I0313 11:50:40.236001 26950 net.cpp:139] Memory required for data: 7372800
I0313 11:50:40.236003 26950 layer_factory.hpp:77] Creating layer conv1
I0313 11:50:40.236057 26950 net.cpp:86] Creating Layer conv1
I0313 11:50:40.236063 26950 net.cpp:408] conv1 <- scale_data_lane
I0313 11:50:40.236071 26950 net.cpp:382] conv1 -> conv1
I0313 11:50:40.238301 26950 net.cpp:124] Setting up conv1
I0313 11:50:40.238317 26950 net.cpp:131] Top shape: 1 16 480 640 (4915200)
I0313 11:50:40.238322 26950 net.cpp:139] Memory required for data: 27033600
I0313 11:50:40.238359 26950 layer_factory.hpp:77] Creating layer conv1_bn
I0313 11:50:40.238378 26950 net.cpp:86] Creating Layer conv1_bn
I0313 11:50:40.238384 26950 net.cpp:408] conv1_bn <- conv1
I0313 11:50:40.238391 26950 net.cpp:369] conv1_bn -> conv1 (in-place)
I0313 11:50:40.239205 26950 net.cpp:124] Setting up conv1_bn
I0313 11:50:40.239215 26950 net.cpp:131] Top shape: 1 16 480 640 (4915200)
I0313 11:50:40.239218 26950 net.cpp:139] Memory required for data: 46694400
I0313 11:50:40.239231 26950 layer_factory.hpp:77] Creating layer conv1_scale
I0313 11:50:40.239248 26950 net.cpp:86] Creating Layer conv1_scale
I0313 11:50:40.239261 26950 net.cpp:408] conv1_scale <- conv1
I0313 11:50:40.239269 26950 net.cpp:369] conv1_scale -> conv1 (in-place)
I0313 11:50:40.239333 26950 layer_factory.hpp:77] Creating layer conv1_scale
I0313 11:50:40.240739 26950 net.cpp:124] Setting up conv1_scale
I0313 11:50:40.240751 26950 net.cpp:131] Top shape: 1 16 480 640 (4915200)
I0313 11:50:40.240753 26950 net.cpp:139] Memory required for data: 66355200
I0313 11:50:40.240762 26950 layer_factory.hpp:77] Creating layer conv1_relu
I0313 11:50:40.240785 26950 net.cpp:86] Creating Layer conv1_relu
I0313 11:50:40.240793 26950 net.cpp:408] conv1_relu <- conv1
I0313 11:50:40.240800 26950 net.cpp:369] conv1_relu -> conv1 (in-place)
I0313 11:50:40.240994 26950 net.cpp:124] Setting up conv1_relu
I0313 11:50:40.241003 26950 net.cpp:131] Top shape: 1 16 480 640 (4915200)
I0313 11:50:40.241005 26950 net.cpp:139] Memory required for data: 86016000
I0313 11:50:40.241008 26950 layer_factory.hpp:77] Creating layer pool1
I0313 11:50:40.241029 26950 net.cpp:86] Creating Layer pool1
I0313 11:50:40.241032 26950 net.cpp:408] pool1 <- conv1
I0313 11:50:40.241039 26950 net.cpp:382] pool1 -> pool1
I0313 11:50:40.241117 26950 net.cpp:124] Setting up pool1
I0313 11:50:40.241132 26950 net.cpp:131] Top shape: 1 16 240 320 (1228800)
I0313 11:50:40.241135 26950 net.cpp:139] Memory required for data: 90931200
I0313 11:50:40.241137 26950 layer_factory.hpp:77] Creating layer conv2
I0313 11:50:40.241145 26950 net.cpp:86] Creating Layer conv2
I0313 11:50:40.241149 26950 net.cpp:408] conv2 <- pool1
I0313 11:50:40.241164 26950 net.cpp:382] conv2 -> conv2
I0313 11:50:40.242552 26950 net.cpp:124] Setting up conv2
I0313 11:50:40.242569 26950 net.cpp:131] Top shape: 1 32 240 320 (2457600)
I0313 11:50:40.242573 26950 net.cpp:139] Memory required for data: 100761600
I0313 11:50:40.242576 26950 layer_factory.hpp:77] Creating layer conv2_bn
I0313 11:50:40.242584 26950 net.cpp:86] Creating Layer conv2_bn
I0313 11:50:40.242589 26950 net.cpp:408] conv2_bn <- conv2
I0313 11:50:40.242601 26950 net.cpp:369] conv2_bn -> conv2 (in-place)
I0313 11:50:40.242781 26950 net.cpp:124] Setting up conv2_bn
I0313 11:50:40.242789 26950 net.cpp:131] Top shape: 1 32 240 320 (2457600)
I0313 11:50:40.242792 26950 net.cpp:139] Memory required for data: 110592000
I0313 11:50:40.242805 26950 layer_factory.hpp:77] Creating layer conv2_scale
I0313 11:50:40.242811 26950 net.cpp:86] Creating Layer conv2_scale
I0313 11:50:40.242815 26950 net.cpp:408] conv2_scale <- conv2
I0313 11:50:40.242820 26950 net.cpp:369] conv2_scale -> conv2 (in-place)
I0313 11:50:40.242857 26950 layer_factory.hpp:77] Creating layer conv2_scale
I0313 11:50:40.242982 26950 net.cpp:124] Setting up conv2_scale
I0313 11:50:40.242990 26950 net.cpp:131] Top shape: 1 32 240 320 (2457600)
I0313 11:50:40.242991 26950 net.cpp:139] Memory required for data: 120422400
I0313 11:50:40.242996 26950 layer_factory.hpp:77] Creating layer conv2_relu
I0313 11:50:40.243000 26950 net.cpp:86] Creating Layer conv2_relu
I0313 11:50:40.243003 26950 net.cpp:408] conv2_relu <- conv2
I0313 11:50:40.243010 26950 net.cpp:369] conv2_relu -> conv2 (in-place)
I0313 11:50:40.243325 26950 net.cpp:124] Setting up conv2_relu
I0313 11:50:40.243335 26950 net.cpp:131] Top shape: 1 32 240 320 (2457600)
I0313 11:50:40.243337 26950 net.cpp:139] Memory required for data: 130252800
I0313 11:50:40.243340 26950 layer_factory.hpp:77] Creating layer pool2
I0313 11:50:40.243345 26950 net.cpp:86] Creating Layer pool2
I0313 11:50:40.243348 26950 net.cpp:408] pool2 <- conv2
I0313 11:50:40.243355 26950 net.cpp:382] pool2 -> pool2
I0313 11:50:40.243391 26950 net.cpp:124] Setting up pool2
I0313 11:50:40.243400 26950 net.cpp:131] Top shape: 1 32 120 160 (614400)
I0313 11:50:40.243403 26950 net.cpp:139] Memory required for data: 132710400
I0313 11:50:40.243407 26950 layer_factory.hpp:77] Creating layer conv3_1
I0313 11:50:40.243414 26950 net.cpp:86] Creating Layer conv3_1
I0313 11:50:40.243419 26950 net.cpp:408] conv3_1 <- pool2
I0313 11:50:40.243427 26950 net.cpp:382] conv3_1 -> conv3_1
I0313 11:50:40.245939 26950 net.cpp:124] Setting up conv3_1
I0313 11:50:40.245954 26950 net.cpp:131] Top shape: 1 64 120 160 (1228800)
I0313 11:50:40.245959 26950 net.cpp:139] Memory required for data: 137625600
I0313 11:50:40.245965 26950 layer_factory.hpp:77] Creating layer conv3_1_bn
I0313 11:50:40.245970 26950 net.cpp:86] Creating Layer conv3_1_bn
I0313 11:50:40.245976 26950 net.cpp:408] conv3_1_bn <- conv3_1
I0313 11:50:40.245983 26950 net.cpp:369] conv3_1_bn -> conv3_1 (in-place)
I0313 11:50:40.246140 26950 net.cpp:124] Setting up conv3_1_bn
I0313 11:50:40.246145 26950 net.cpp:131] Top shape: 1 64 120 160 (1228800)
I0313 11:50:40.246147 26950 net.cpp:139] Memory required for data: 142540800
I0313 11:50:40.246156 26950 layer_factory.hpp:77] Creating layer conv3_1_scale
I0313 11:50:40.246161 26950 net.cpp:86] Creating Layer conv3_1_scale
I0313 11:50:40.246165 26950 net.cpp:408] conv3_1_scale <- conv3_1
I0313 11:50:40.246170 26950 net.cpp:369] conv3_1_scale -> conv3_1 (in-place)
I0313 11:50:40.246201 26950 layer_factory.hpp:77] Creating layer conv3_1_scale
I0313 11:50:40.246296 26950 net.cpp:124] Setting up conv3_1_scale
I0313 11:50:40.246304 26950 net.cpp:131] Top shape: 1 64 120 160 (1228800)
I0313 11:50:40.246307 26950 net.cpp:139] Memory required for data: 147456000
I0313 11:50:40.246316 26950 layer_factory.hpp:77] Creating layer conv3_1_relu
I0313 11:50:40.246322 26950 net.cpp:86] Creating Layer conv3_1_relu
I0313 11:50:40.246327 26950 net.cpp:408] conv3_1_relu <- conv3_1
I0313 11:50:40.246333 26950 net.cpp:369] conv3_1_relu -> conv3_1 (in-place)
I0313 11:50:40.246646 26950 net.cpp:124] Setting up conv3_1_relu
I0313 11:50:40.246656 26950 net.cpp:131] Top shape: 1 64 120 160 (1228800)
I0313 11:50:40.246659 26950 net.cpp:139] Memory required for data: 152371200
I0313 11:50:40.246664 26950 layer_factory.hpp:77] Creating layer conv3_2
I0313 11:50:40.246675 26950 net.cpp:86] Creating Layer conv3_2
I0313 11:50:40.246680 26950 net.cpp:408] conv3_2 <- conv3_1
I0313 11:50:40.246687 26950 net.cpp:382] conv3_2 -> conv3_2
I0313 11:50:40.248004 26950 net.cpp:124] Setting up conv3_2
I0313 11:50:40.248018 26950 net.cpp:131] Top shape: 1 32 120 160 (614400)
I0313 11:50:40.248023 26950 net.cpp:139] Memory required for data: 154828800
I0313 11:50:40.248028 26950 layer_factory.hpp:77] Creating layer conv3_2_bn
I0313 11:50:40.248036 26950 net.cpp:86] Creating Layer conv3_2_bn
I0313 11:50:40.248042 26950 net.cpp:408] conv3_2_bn <- conv3_2
I0313 11:50:40.248049 26950 net.cpp:369] conv3_2_bn -> conv3_2 (in-place)
I0313 11:50:40.248206 26950 net.cpp:124] Setting up conv3_2_bn
I0313 11:50:40.248212 26950 net.cpp:131] Top shape: 1 32 120 160 (614400)
I0313 11:50:40.248216 26950 net.cpp:139] Memory required for data: 157286400
I0313 11:50:40.248224 26950 layer_factory.hpp:77] Creating layer conv3_2_scale
I0313 11:50:40.248229 26950 net.cpp:86] Creating Layer conv3_2_scale
I0313 11:50:40.248234 26950 net.cpp:408] conv3_2_scale <- conv3_2
I0313 11:50:40.248240 26950 net.cpp:369] conv3_2_scale -> conv3_2 (in-place)
I0313 11:50:40.248271 26950 layer_factory.hpp:77] Creating layer conv3_2_scale
I0313 11:50:40.248369 26950 net.cpp:124] Setting up conv3_2_scale
I0313 11:50:40.248376 26950 net.cpp:131] Top shape: 1 32 120 160 (614400)
I0313 11:50:40.248380 26950 net.cpp:139] Memory required for data: 159744000
I0313 11:50:40.248385 26950 layer_factory.hpp:77] Creating layer conv3_2_relu
I0313 11:50:40.248390 26950 net.cpp:86] Creating Layer conv3_2_relu
I0313 11:50:40.248395 26950 net.cpp:408] conv3_2_relu <- conv3_2
I0313 11:50:40.248401 26950 net.cpp:369] conv3_2_relu -> conv3_2 (in-place)
I0313 11:50:40.248517 26950 net.cpp:124] Setting up conv3_2_relu
I0313 11:50:40.248524 26950 net.cpp:131] Top shape: 1 32 120 160 (614400)
I0313 11:50:40.248528 26950 net.cpp:139] Memory required for data: 162201600
I0313 11:50:40.248530 26950 layer_factory.hpp:77] Creating layer conv3_3
I0313 11:50:40.248538 26950 net.cpp:86] Creating Layer conv3_3
I0313 11:50:40.248543 26950 net.cpp:408] conv3_3 <- conv3_2
I0313 11:50:40.248554 26950 net.cpp:382] conv3_3 -> conv3_3
I0313 11:50:40.249593 26950 net.cpp:124] Setting up conv3_3
I0313 11:50:40.249610 26950 net.cpp:131] Top shape: 1 64 120 160 (1228800)
I0313 11:50:40.249614 26950 net.cpp:139] Memory required for data: 167116800
I0313 11:50:40.249619 26950 layer_factory.hpp:77] Creating layer conv3_3_bn
I0313 11:50:40.249626 26950 net.cpp:86] Creating Layer conv3_3_bn
I0313 11:50:40.249632 26950 net.cpp:408] conv3_3_bn <- conv3_3
I0313 11:50:40.249640 26950 net.cpp:369] conv3_3_bn -> conv3_3 (in-place)
I0313 11:50:40.249794 26950 net.cpp:124] Setting up conv3_3_bn
I0313 11:50:40.249800 26950 net.cpp:131] Top shape: 1 64 120 160 (1228800)
I0313 11:50:40.249804 26950 net.cpp:139] Memory required for data: 172032000
I0313 11:50:40.249812 26950 layer_factory.hpp:77] Creating layer conv3_3_scale
I0313 11:50:40.249819 26950 net.cpp:86] Creating Layer conv3_3_scale
I0313 11:50:40.249822 26950 net.cpp:408] conv3_3_scale <- conv3_3
I0313 11:50:40.249830 26950 net.cpp:369] conv3_3_scale -> conv3_3 (in-place)
I0313 11:50:40.249860 26950 layer_factory.hpp:77] Creating layer conv3_3_scale
I0313 11:50:40.249956 26950 net.cpp:124] Setting up conv3_3_scale
I0313 11:50:40.249963 26950 net.cpp:131] Top shape: 1 64 120 160 (1228800)
I0313 11:50:40.249966 26950 net.cpp:139] Memory required for data: 176947200
I0313 11:50:40.249970 26950 layer_factory.hpp:77] Creating layer conv3_3_relu
I0313 11:50:40.249976 26950 net.cpp:86] Creating Layer conv3_3_relu
I0313 11:50:40.249980 26950 net.cpp:408] conv3_3_relu <- conv3_3
I0313 11:50:40.249987 26950 net.cpp:369] conv3_3_relu -> conv3_3 (in-place)
I0313 11:50:40.250106 26950 net.cpp:124] Setting up conv3_3_relu
I0313 11:50:40.250115 26950 net.cpp:131] Top shape: 1 64 120 160 (1228800)
I0313 11:50:40.250119 26950 net.cpp:139] Memory required for data: 181862400
I0313 11:50:40.250124 26950 layer_factory.hpp:77] Creating layer pool3
I0313 11:50:40.250130 26950 net.cpp:86] Creating Layer pool3
I0313 11:50:40.250135 26950 net.cpp:408] pool3 <- conv3_3
I0313 11:50:40.250144 26950 net.cpp:382] pool3 -> pool3
I0313 11:50:40.250177 26950 net.cpp:124] Setting up pool3
I0313 11:50:40.250186 26950 net.cpp:131] Top shape: 1 64 60 80 (307200)
I0313 11:50:40.250190 26950 net.cpp:139] Memory required for data: 183091200
I0313 11:50:40.250193 26950 layer_factory.hpp:77] Creating layer conv4_1
I0313 11:50:40.250200 26950 net.cpp:86] Creating Layer conv4_1
I0313 11:50:40.250205 26950 net.cpp:408] conv4_1 <- pool3
I0313 11:50:40.250213 26950 net.cpp:382] conv4_1 -> conv4_1
I0313 11:50:40.253371 26950 net.cpp:124] Setting up conv4_1
I0313 11:50:40.253384 26950 net.cpp:131] Top shape: 1 128 60 80 (614400)
I0313 11:50:40.253388 26950 net.cpp:139] Memory required for data: 185548800
I0313 11:50:40.253396 26950 layer_factory.hpp:77] Creating layer conv4_1_bn
I0313 11:50:40.253403 26950 net.cpp:86] Creating Layer conv4_1_bn
I0313 11:50:40.253409 26950 net.cpp:408] conv4_1_bn <- conv4_1
I0313 11:50:40.253417 26950 net.cpp:369] conv4_1_bn -> conv4_1 (in-place)
I0313 11:50:40.253566 26950 net.cpp:124] Setting up conv4_1_bn
I0313 11:50:40.253572 26950 net.cpp:131] Top shape: 1 128 60 80 (614400)
I0313 11:50:40.253576 26950 net.cpp:139] Memory required for data: 188006400
I0313 11:50:40.253587 26950 layer_factory.hpp:77] Creating layer conv4_1_scale
I0313 11:50:40.253592 26950 net.cpp:86] Creating Layer conv4_1_scale
I0313 11:50:40.253597 26950 net.cpp:408] conv4_1_scale <- conv4_1
I0313 11:50:40.253600 26950 net.cpp:369] conv4_1_scale -> conv4_1 (in-place)
I0313 11:50:40.253633 26950 layer_factory.hpp:77] Creating layer conv4_1_scale
I0313 11:50:40.253722 26950 net.cpp:124] Setting up conv4_1_scale
I0313 11:50:40.253729 26950 net.cpp:131] Top shape: 1 128 60 80 (614400)
I0313 11:50:40.253733 26950 net.cpp:139] Memory required for data: 190464000
I0313 11:50:40.253737 26950 layer_factory.hpp:77] Creating layer conv4_1_relu
I0313 11:50:40.253742 26950 net.cpp:86] Creating Layer conv4_1_relu
I0313 11:50:40.253747 26950 net.cpp:408] conv4_1_relu <- conv4_1
I0313 11:50:40.253753 26950 net.cpp:369] conv4_1_relu -> conv4_1 (in-place)
I0313 11:50:40.253878 26950 net.cpp:124] Setting up conv4_1_relu
I0313 11:50:40.253885 26950 net.cpp:131] Top shape: 1 128 60 80 (614400)
I0313 11:50:40.253890 26950 net.cpp:139] Memory required for data: 192921600
I0313 11:50:40.253892 26950 layer_factory.hpp:77] Creating layer conv4_2
I0313 11:50:40.253901 26950 net.cpp:86] Creating Layer conv4_2
I0313 11:50:40.253906 26950 net.cpp:408] conv4_2 <- conv4_1
I0313 11:50:40.253913 26950 net.cpp:382] conv4_2 -> conv4_2
I0313 11:50:40.254788 26950 net.cpp:124] Setting up conv4_2
I0313 11:50:40.254801 26950 net.cpp:131] Top shape: 1 64 60 80 (307200)
I0313 11:50:40.254806 26950 net.cpp:139] Memory required for data: 194150400
I0313 11:50:40.254811 26950 layer_factory.hpp:77] Creating layer conv4_2_bn
I0313 11:50:40.254817 26950 net.cpp:86] Creating Layer conv4_2_bn
I0313 11:50:40.254823 26950 net.cpp:408] conv4_2_bn <- conv4_2
I0313 11:50:40.254830 26950 net.cpp:369] conv4_2_bn -> conv4_2 (in-place)
I0313 11:50:40.254984 26950 net.cpp:124] Setting up conv4_2_bn
I0313 11:50:40.254990 26950 net.cpp:131] Top shape: 1 64 60 80 (307200)
I0313 11:50:40.254994 26950 net.cpp:139] Memory required for data: 195379200
I0313 11:50:40.255002 26950 layer_factory.hpp:77] Creating layer conv4_2_scale
I0313 11:50:40.255009 26950 net.cpp:86] Creating Layer conv4_2_scale
I0313 11:50:40.255013 26950 net.cpp:408] conv4_2_scale <- conv4_2
I0313 11:50:40.255019 26950 net.cpp:369] conv4_2_scale -> conv4_2 (in-place)
I0313 11:50:40.255050 26950 layer_factory.hpp:77] Creating layer conv4_2_scale
I0313 11:50:40.255146 26950 net.cpp:124] Setting up conv4_2_scale
I0313 11:50:40.255154 26950 net.cpp:131] Top shape: 1 64 60 80 (307200)
I0313 11:50:40.255157 26950 net.cpp:139] Memory required for data: 196608000
I0313 11:50:40.255162 26950 layer_factory.hpp:77] Creating layer conv4_2_relu
I0313 11:50:40.255172 26950 net.cpp:86] Creating Layer conv4_2_relu
I0313 11:50:40.255177 26950 net.cpp:408] conv4_2_relu <- conv4_2
I0313 11:50:40.255182 26950 net.cpp:369] conv4_2_relu -> conv4_2 (in-place)
I0313 11:50:40.255496 26950 net.cpp:124] Setting up conv4_2_relu
I0313 11:50:40.255506 26950 net.cpp:131] Top shape: 1 64 60 80 (307200)
I0313 11:50:40.255511 26950 net.cpp:139] Memory required for data: 197836800
I0313 11:50:40.255513 26950 layer_factory.hpp:77] Creating layer conv4_3
I0313 11:50:40.255522 26950 net.cpp:86] Creating Layer conv4_3
I0313 11:50:40.255529 26950 net.cpp:408] conv4_3 <- conv4_2
I0313 11:50:40.255537 26950 net.cpp:382] conv4_3 -> conv4_3
I0313 11:50:40.257786 26950 net.cpp:124] Setting up conv4_3
I0313 11:50:40.257798 26950 net.cpp:131] Top shape: 1 128 60 80 (614400)
I0313 11:50:40.257803 26950 net.cpp:139] Memory required for data: 200294400
I0313 11:50:40.257808 26950 layer_factory.hpp:77] Creating layer conv4_3_bn
I0313 11:50:40.257815 26950 net.cpp:86] Creating Layer conv4_3_bn
I0313 11:50:40.257822 26950 net.cpp:408] conv4_3_bn <- conv4_3
I0313 11:50:40.257828 26950 net.cpp:369] conv4_3_bn -> conv4_3 (in-place)
I0313 11:50:40.257978 26950 net.cpp:124] Setting up conv4_3_bn
I0313 11:50:40.257984 26950 net.cpp:131] Top shape: 1 128 60 80 (614400)
I0313 11:50:40.257988 26950 net.cpp:139] Memory required for data: 202752000
I0313 11:50:40.257997 26950 layer_factory.hpp:77] Creating layer conv4_3_scale
I0313 11:50:40.258002 26950 net.cpp:86] Creating Layer conv4_3_scale
I0313 11:50:40.258006 26950 net.cpp:408] conv4_3_scale <- conv4_3
I0313 11:50:40.258013 26950 net.cpp:369] conv4_3_scale -> conv4_3 (in-place)
I0313 11:50:40.258044 26950 layer_factory.hpp:77] Creating layer conv4_3_scale
I0313 11:50:40.258127 26950 net.cpp:124] Setting up conv4_3_scale
I0313 11:50:40.258133 26950 net.cpp:131] Top shape: 1 128 60 80 (614400)
I0313 11:50:40.258137 26950 net.cpp:139] Memory required for data: 205209600
I0313 11:50:40.258141 26950 layer_factory.hpp:77] Creating layer conv4_3_relu
I0313 11:50:40.258147 26950 net.cpp:86] Creating Layer conv4_3_relu
I0313 11:50:40.258152 26950 net.cpp:408] conv4_3_relu <- conv4_3
I0313 11:50:40.258157 26950 net.cpp:369] conv4_3_relu -> conv4_3 (in-place)
I0313 11:50:40.258275 26950 net.cpp:124] Setting up conv4_3_relu
I0313 11:50:40.258283 26950 net.cpp:131] Top shape: 1 128 60 80 (614400)
I0313 11:50:40.258287 26950 net.cpp:139] Memory required for data: 207667200
I0313 11:50:40.258289 26950 layer_factory.hpp:77] Creating layer conv4_3_conv4_3_relu_0_split
I0313 11:50:40.258294 26950 net.cpp:86] Creating Layer conv4_3_conv4_3_relu_0_split
I0313 11:50:40.258299 26950 net.cpp:408] conv4_3_conv4_3_relu_0_split <- conv4_3
I0313 11:50:40.258306 26950 net.cpp:382] conv4_3_conv4_3_relu_0_split -> conv4_3_conv4_3_relu_0_split_0
I0313 11:50:40.258314 26950 net.cpp:382] conv4_3_conv4_3_relu_0_split -> conv4_3_conv4_3_relu_0_split_1
I0313 11:50:40.258370 26950 net.cpp:124] Setting up conv4_3_conv4_3_relu_0_split
I0313 11:50:40.258378 26950 net.cpp:131] Top shape: 1 128 60 80 (614400)
I0313 11:50:40.258383 26950 net.cpp:131] Top shape: 1 128 60 80 (614400)
I0313 11:50:40.258388 26950 net.cpp:139] Memory required for data: 212582400
I0313 11:50:40.258389 26950 layer_factory.hpp:77] Creating layer pool4
I0313 11:50:40.258396 26950 net.cpp:86] Creating Layer pool4
I0313 11:50:40.258401 26950 net.cpp:408] pool4 <- conv4_3_conv4_3_relu_0_split_0
I0313 11:50:40.258424 26950 net.cpp:382] pool4 -> pool4
I0313 11:50:40.258456 26950 net.cpp:124] Setting up pool4
I0313 11:50:40.258463 26950 net.cpp:131] Top shape: 1 128 30 40 (153600)
I0313 11:50:40.258467 26950 net.cpp:139] Memory required for data: 213196800
I0313 11:50:40.258469 26950 layer_factory.hpp:77] Creating layer conv5_1
I0313 11:50:40.258477 26950 net.cpp:86] Creating Layer conv5_1
I0313 11:50:40.258481 26950 net.cpp:408] conv5_1 <- pool4
I0313 11:50:40.258488 26950 net.cpp:382] conv5_1 -> conv5_1
I0313 11:50:40.266207 26950 net.cpp:124] Setting up conv5_1
I0313 11:50:40.266227 26950 net.cpp:131] Top shape: 1 256 30 40 (307200)
I0313 11:50:40.266232 26950 net.cpp:139] Memory required for data: 214425600
I0313 11:50:40.266235 26950 layer_factory.hpp:77] Creating layer conv5_1_bn
I0313 11:50:40.266240 26950 net.cpp:86] Creating Layer conv5_1_bn
I0313 11:50:40.266247 26950 net.cpp:408] conv5_1_bn <- conv5_1
I0313 11:50:40.266263 26950 net.cpp:369] conv5_1_bn -> conv5_1 (in-place)
I0313 11:50:40.266422 26950 net.cpp:124] Setting up conv5_1_bn
I0313 11:50:40.266427 26950 net.cpp:131] Top shape: 1 256 30 40 (307200)
I0313 11:50:40.266429 26950 net.cpp:139] Memory required for data: 215654400
I0313 11:50:40.266436 26950 layer_factory.hpp:77] Creating layer conv5_1_scale
I0313 11:50:40.266441 26950 net.cpp:86] Creating Layer conv5_1_scale
I0313 11:50:40.266445 26950 net.cpp:408] conv5_1_scale <- conv5_1
I0313 11:50:40.266449 26950 net.cpp:369] conv5_1_scale -> conv5_1 (in-place)
I0313 11:50:40.266481 26950 layer_factory.hpp:77] Creating layer conv5_1_scale
I0313 11:50:40.266571 26950 net.cpp:124] Setting up conv5_1_scale
I0313 11:50:40.266577 26950 net.cpp:131] Top shape: 1 256 30 40 (307200)
I0313 11:50:40.266580 26950 net.cpp:139] Memory required for data: 216883200
I0313 11:50:40.266584 26950 layer_factory.hpp:77] Creating layer conv5_1_relu
I0313 11:50:40.266587 26950 net.cpp:86] Creating Layer conv5_1_relu
I0313 11:50:40.266592 26950 net.cpp:408] conv5_1_relu <- conv5_1
I0313 11:50:40.266595 26950 net.cpp:369] conv5_1_relu -> conv5_1 (in-place)
I0313 11:50:40.266717 26950 net.cpp:124] Setting up conv5_1_relu
I0313 11:50:40.266724 26950 net.cpp:131] Top shape: 1 256 30 40 (307200)
I0313 11:50:40.266726 26950 net.cpp:139] Memory required for data: 218112000
I0313 11:50:40.266729 26950 layer_factory.hpp:77] Creating layer conv5_2
I0313 11:50:40.266736 26950 net.cpp:86] Creating Layer conv5_2
I0313 11:50:40.266739 26950 net.cpp:408] conv5_2 <- conv5_1
I0313 11:50:40.266746 26950 net.cpp:382] conv5_2 -> conv5_2
I0313 11:50:40.268056 26950 net.cpp:124] Setting up conv5_2
I0313 11:50:40.268069 26950 net.cpp:131] Top shape: 1 128 30 40 (153600)
I0313 11:50:40.268072 26950 net.cpp:139] Memory required for data: 218726400
I0313 11:50:40.268079 26950 layer_factory.hpp:77] Creating layer conv5_2_bn
I0313 11:50:40.268083 26950 net.cpp:86] Creating Layer conv5_2_bn
I0313 11:50:40.268087 26950 net.cpp:408] conv5_2_bn <- conv5_2
I0313 11:50:40.268093 26950 net.cpp:369] conv5_2_bn -> conv5_2 (in-place)
I0313 11:50:40.268249 26950 net.cpp:124] Setting up conv5_2_bn
I0313 11:50:40.268255 26950 net.cpp:131] Top shape: 1 128 30 40 (153600)
I0313 11:50:40.268257 26950 net.cpp:139] Memory required for data: 219340800
I0313 11:50:40.268265 26950 layer_factory.hpp:77] Creating layer conv5_2_scale
I0313 11:50:40.268270 26950 net.cpp:86] Creating Layer conv5_2_scale
I0313 11:50:40.268273 26950 net.cpp:408] conv5_2_scale <- conv5_2
I0313 11:50:40.268280 26950 net.cpp:369] conv5_2_scale -> conv5_2 (in-place)
I0313 11:50:40.268311 26950 layer_factory.hpp:77] Creating layer conv5_2_scale
I0313 11:50:40.268401 26950 net.cpp:124] Setting up conv5_2_scale
I0313 11:50:40.268407 26950 net.cpp:131] Top shape: 1 128 30 40 (153600)
I0313 11:50:40.268409 26950 net.cpp:139] Memory required for data: 219955200
I0313 11:50:40.268414 26950 layer_factory.hpp:77] Creating layer conv5_2_relu
I0313 11:50:40.268419 26950 net.cpp:86] Creating Layer conv5_2_relu
I0313 11:50:40.268421 26950 net.cpp:408] conv5_2_relu <- conv5_2
I0313 11:50:40.268426 26950 net.cpp:369] conv5_2_relu -> conv5_2 (in-place)
I0313 11:50:40.268548 26950 net.cpp:124] Setting up conv5_2_relu
I0313 11:50:40.268556 26950 net.cpp:131] Top shape: 1 128 30 40 (153600)
I0313 11:50:40.268559 26950 net.cpp:139] Memory required for data: 220569600
I0313 11:50:40.268561 26950 layer_factory.hpp:77] Creating layer conv5_3
I0313 11:50:40.268568 26950 net.cpp:86] Creating Layer conv5_3
I0313 11:50:40.268571 26950 net.cpp:408] conv5_3 <- conv5_2
I0313 11:50:40.268579 26950 net.cpp:382] conv5_3 -> conv5_3
I0313 11:50:40.275404 26950 net.cpp:124] Setting up conv5_3
I0313 11:50:40.275418 26950 net.cpp:131] Top shape: 1 256 30 40 (307200)
I0313 11:50:40.275422 26950 net.cpp:139] Memory required for data: 221798400
I0313 11:50:40.275427 26950 layer_factory.hpp:77] Creating layer conv5_3_bn
I0313 11:50:40.275432 26950 net.cpp:86] Creating Layer conv5_3_bn
I0313 11:50:40.275436 26950 net.cpp:408] conv5_3_bn <- conv5_3
I0313 11:50:40.275442 26950 net.cpp:369] conv5_3_bn -> conv5_3 (in-place)
I0313 11:50:40.275607 26950 net.cpp:124] Setting up conv5_3_bn
I0313 11:50:40.275614 26950 net.cpp:131] Top shape: 1 256 30 40 (307200)
I0313 11:50:40.275616 26950 net.cpp:139] Memory required for data: 223027200
I0313 11:50:40.275624 26950 layer_factory.hpp:77] Creating layer conv5_3_scale
I0313 11:50:40.275629 26950 net.cpp:86] Creating Layer conv5_3_scale
I0313 11:50:40.275632 26950 net.cpp:408] conv5_3_scale <- conv5_3
I0313 11:50:40.275638 26950 net.cpp:369] conv5_3_scale -> conv5_3 (in-place)
I0313 11:50:40.275671 26950 layer_factory.hpp:77] Creating layer conv5_3_scale
I0313 11:50:40.275763 26950 net.cpp:124] Setting up conv5_3_scale
I0313 11:50:40.275768 26950 net.cpp:131] Top shape: 1 256 30 40 (307200)
I0313 11:50:40.275771 26950 net.cpp:139] Memory required for data: 224256000
I0313 11:50:40.275785 26950 layer_factory.hpp:77] Creating layer conv5_3_relu
I0313 11:50:40.275791 26950 net.cpp:86] Creating Layer conv5_3_relu
I0313 11:50:40.275794 26950 net.cpp:408] conv5_3_relu <- conv5_3
I0313 11:50:40.275799 26950 net.cpp:369] conv5_3_relu -> conv5_3 (in-place)
I0313 11:50:40.275928 26950 net.cpp:124] Setting up conv5_3_relu
I0313 11:50:40.275936 26950 net.cpp:131] Top shape: 1 256 30 40 (307200)
I0313 11:50:40.275939 26950 net.cpp:139] Memory required for data: 225484800
I0313 11:50:40.275941 26950 layer_factory.hpp:77] Creating layer conv5_4
I0313 11:50:40.275949 26950 net.cpp:86] Creating Layer conv5_4
I0313 11:50:40.275952 26950 net.cpp:408] conv5_4 <- conv5_3
I0313 11:50:40.275959 26950 net.cpp:382] conv5_4 -> conv5_4
I0313 11:50:40.277253 26950 net.cpp:124] Setting up conv5_4
I0313 11:50:40.277266 26950 net.cpp:131] Top shape: 1 128 30 40 (153600)
I0313 11:50:40.277268 26950 net.cpp:139] Memory required for data: 226099200
I0313 11:50:40.277272 26950 layer_factory.hpp:77] Creating layer conv5_4_bn
I0313 11:50:40.277276 26950 net.cpp:86] Creating Layer conv5_4_bn
I0313 11:50:40.277281 26950 net.cpp:408] conv5_4_bn <- conv5_4
I0313 11:50:40.277285 26950 net.cpp:369] conv5_4_bn -> conv5_4 (in-place)
I0313 11:50:40.277424 26950 net.cpp:124] Setting up conv5_4_bn
I0313 11:50:40.277431 26950 net.cpp:131] Top shape: 1 128 30 40 (153600)
I0313 11:50:40.277432 26950 net.cpp:139] Memory required for data: 226713600
I0313 11:50:40.277438 26950 layer_factory.hpp:77] Creating layer conv5_4_scale
I0313 11:50:40.277443 26950 net.cpp:86] Creating Layer conv5_4_scale
I0313 11:50:40.277446 26950 net.cpp:408] conv5_4_scale <- conv5_4
I0313 11:50:40.277451 26950 net.cpp:369] conv5_4_scale -> conv5_4 (in-place)
I0313 11:50:40.277478 26950 layer_factory.hpp:77] Creating layer conv5_4_scale
I0313 11:50:40.277559 26950 net.cpp:124] Setting up conv5_4_scale
I0313 11:50:40.277565 26950 net.cpp:131] Top shape: 1 128 30 40 (153600)
I0313 11:50:40.277567 26950 net.cpp:139] Memory required for data: 227328000
I0313 11:50:40.277571 26950 layer_factory.hpp:77] Creating layer conv5_4_relu
I0313 11:50:40.277575 26950 net.cpp:86] Creating Layer conv5_4_relu
I0313 11:50:40.277577 26950 net.cpp:408] conv5_4_relu <- conv5_4
I0313 11:50:40.277581 26950 net.cpp:369] conv5_4_relu -> conv5_4 (in-place)
I0313 11:50:40.278755 26950 net.cpp:124] Setting up conv5_4_relu
I0313 11:50:40.278765 26950 net.cpp:131] Top shape: 1 128 30 40 (153600)
I0313 11:50:40.278769 26950 net.cpp:139] Memory required for data: 227942400
I0313 11:50:40.278770 26950 layer_factory.hpp:77] Creating layer conv5_5
I0313 11:50:40.278777 26950 net.cpp:86] Creating Layer conv5_5
I0313 11:50:40.278781 26950 net.cpp:408] conv5_5 <- conv5_4
I0313 11:50:40.278789 26950 net.cpp:382] conv5_5 -> conv5_5
I0313 11:50:40.285545 26950 net.cpp:124] Setting up conv5_5
I0313 11:50:40.285559 26950 net.cpp:131] Top shape: 1 256 30 40 (307200)
I0313 11:50:40.285562 26950 net.cpp:139] Memory required for data: 229171200
I0313 11:50:40.285567 26950 layer_factory.hpp:77] Creating layer conv5_5_bn
I0313 11:50:40.285571 26950 net.cpp:86] Creating Layer conv5_5_bn
I0313 11:50:40.285576 26950 net.cpp:408] conv5_5_bn <- conv5_5
I0313 11:50:40.285583 26950 net.cpp:369] conv5_5_bn -> conv5_5 (in-place)
I0313 11:50:40.285742 26950 net.cpp:124] Setting up conv5_5_bn
I0313 11:50:40.285749 26950 net.cpp:131] Top shape: 1 256 30 40 (307200)
I0313 11:50:40.285751 26950 net.cpp:139] Memory required for data: 230400000
I0313 11:50:40.285758 26950 layer_factory.hpp:77] Creating layer conv5_5_scale
I0313 11:50:40.285763 26950 net.cpp:86] Creating Layer conv5_5_scale
I0313 11:50:40.285768 26950 net.cpp:408] conv5_5_scale <- conv5_5
I0313 11:50:40.285771 26950 net.cpp:369] conv5_5_scale -> conv5_5 (in-place)
I0313 11:50:40.285802 26950 layer_factory.hpp:77] Creating layer conv5_5_scale
I0313 11:50:40.285887 26950 net.cpp:124] Setting up conv5_5_scale
I0313 11:50:40.285894 26950 net.cpp:131] Top shape: 1 256 30 40 (307200)
I0313 11:50:40.285897 26950 net.cpp:139] Memory required for data: 231628800
I0313 11:50:40.285900 26950 layer_factory.hpp:77] Creating layer conv5_5_relu
I0313 11:50:40.285904 26950 net.cpp:86] Creating Layer conv5_5_relu
I0313 11:50:40.285907 26950 net.cpp:408] conv5_5_relu <- conv5_5
I0313 11:50:40.285912 26950 net.cpp:369] conv5_5_relu -> conv5_5 (in-place)
I0313 11:50:40.286029 26950 net.cpp:124] Setting up conv5_5_relu
I0313 11:50:40.286037 26950 net.cpp:131] Top shape: 1 256 30 40 (307200)
I0313 11:50:40.286039 26950 net.cpp:139] Memory required for data: 232857600
I0313 11:50:40.286041 26950 layer_factory.hpp:77] Creating layer conv5_5_conv5_5_relu_0_split
I0313 11:50:40.286046 26950 net.cpp:86] Creating Layer conv5_5_conv5_5_relu_0_split
I0313 11:50:40.286049 26950 net.cpp:408] conv5_5_conv5_5_relu_0_split <- conv5_5
I0313 11:50:40.286054 26950 net.cpp:382] conv5_5_conv5_5_relu_0_split -> conv5_5_conv5_5_relu_0_split_0
I0313 11:50:40.286062 26950 net.cpp:382] conv5_5_conv5_5_relu_0_split -> conv5_5_conv5_5_relu_0_split_1
I0313 11:50:40.286093 26950 net.cpp:124] Setting up conv5_5_conv5_5_relu_0_split
I0313 11:50:40.286100 26950 net.cpp:131] Top shape: 1 256 30 40 (307200)
I0313 11:50:40.286105 26950 net.cpp:131] Top shape: 1 256 30 40 (307200)
I0313 11:50:40.286109 26950 net.cpp:139] Memory required for data: 235315200
I0313 11:50:40.286113 26950 layer_factory.hpp:77] Creating layer pool5
I0313 11:50:40.286118 26950 net.cpp:86] Creating Layer pool5
I0313 11:50:40.286123 26950 net.cpp:408] pool5 <- conv5_5_conv5_5_relu_0_split_0
I0313 11:50:40.286128 26950 net.cpp:382] pool5 -> pool5
I0313 11:50:40.286160 26950 net.cpp:124] Setting up pool5
I0313 11:50:40.286166 26950 net.cpp:131] Top shape: 1 256 30 40 (307200)
I0313 11:50:40.286168 26950 net.cpp:139] Memory required for data: 236544000
I0313 11:50:40.286170 26950 layer_factory.hpp:77] Creating layer conv6_1
I0313 11:50:40.286176 26950 net.cpp:86] Creating Layer conv6_1
I0313 11:50:40.286180 26950 net.cpp:408] conv6_1 <- pool5
I0313 11:50:40.286185 26950 net.cpp:382] conv6_1 -> conv6_1
I0313 11:50:40.307651 26950 net.cpp:124] Setting up conv6_1
I0313 11:50:40.307672 26950 net.cpp:131] Top shape: 1 512 30 40 (614400)
I0313 11:50:40.307674 26950 net.cpp:139] Memory required for data: 239001600
I0313 11:50:40.307680 26950 layer_factory.hpp:77] Creating layer conv6_1_bn
I0313 11:50:40.307687 26950 net.cpp:86] Creating Layer conv6_1_bn
I0313 11:50:40.307693 26950 net.cpp:408] conv6_1_bn <- conv6_1
I0313 11:50:40.307698 26950 net.cpp:369] conv6_1_bn -> conv6_1 (in-place)
I0313 11:50:40.307858 26950 net.cpp:124] Setting up conv6_1_bn
I0313 11:50:40.307864 26950 net.cpp:131] Top shape: 1 512 30 40 (614400)
I0313 11:50:40.307866 26950 net.cpp:139] Memory required for data: 241459200
I0313 11:50:40.307873 26950 layer_factory.hpp:77] Creating layer conv6_1_scale
I0313 11:50:40.307878 26950 net.cpp:86] Creating Layer conv6_1_scale
I0313 11:50:40.307881 26950 net.cpp:408] conv6_1_scale <- conv6_1
I0313 11:50:40.307885 26950 net.cpp:369] conv6_1_scale -> conv6_1 (in-place)
I0313 11:50:40.307914 26950 layer_factory.hpp:77] Creating layer conv6_1_scale
I0313 11:50:40.308002 26950 net.cpp:124] Setting up conv6_1_scale
I0313 11:50:40.308008 26950 net.cpp:131] Top shape: 1 512 30 40 (614400)
I0313 11:50:40.308010 26950 net.cpp:139] Memory required for data: 243916800
I0313 11:50:40.308014 26950 layer_factory.hpp:77] Creating layer conv6_1_relu
I0313 11:50:40.308023 26950 net.cpp:86] Creating Layer conv6_1_relu
I0313 11:50:40.308027 26950 net.cpp:408] conv6_1_relu <- conv6_1
I0313 11:50:40.308032 26950 net.cpp:369] conv6_1_relu -> conv6_1 (in-place)
I0313 11:50:40.308177 26950 net.cpp:124] Setting up conv6_1_relu
I0313 11:50:40.308184 26950 net.cpp:131] Top shape: 1 512 30 40 (614400)
I0313 11:50:40.308187 26950 net.cpp:139] Memory required for data: 246374400
I0313 11:50:40.308190 26950 layer_factory.hpp:77] Creating layer conv6_2
I0313 11:50:40.308198 26950 net.cpp:86] Creating Layer conv6_2
I0313 11:50:40.308202 26950 net.cpp:408] conv6_2 <- conv6_1
I0313 11:50:40.308207 26950 net.cpp:382] conv6_2 -> conv6_2
I0313 11:50:40.311200 26950 net.cpp:124] Setting up conv6_2
I0313 11:50:40.311213 26950 net.cpp:131] Top shape: 1 256 30 40 (307200)
I0313 11:50:40.311215 26950 net.cpp:139] Memory required for data: 247603200
I0313 11:50:40.311219 26950 layer_factory.hpp:77] Creating layer conv6_2_bn
I0313 11:50:40.311224 26950 net.cpp:86] Creating Layer conv6_2_bn
I0313 11:50:40.311228 26950 net.cpp:408] conv6_2_bn <- conv6_2
I0313 11:50:40.311233 26950 net.cpp:369] conv6_2_bn -> conv6_2 (in-place)
I0313 11:50:40.311378 26950 net.cpp:124] Setting up conv6_2_bn
I0313 11:50:40.311384 26950 net.cpp:131] Top shape: 1 256 30 40 (307200)
I0313 11:50:40.311386 26950 net.cpp:139] Memory required for data: 248832000
I0313 11:50:40.311393 26950 layer_factory.hpp:77] Creating layer conv6_2_scale
I0313 11:50:40.311398 26950 net.cpp:86] Creating Layer conv6_2_scale
I0313 11:50:40.311401 26950 net.cpp:408] conv6_2_scale <- conv6_2
I0313 11:50:40.311405 26950 net.cpp:369] conv6_2_scale -> conv6_2 (in-place)
I0313 11:50:40.311434 26950 layer_factory.hpp:77] Creating layer conv6_2_scale
I0313 11:50:40.311517 26950 net.cpp:124] Setting up conv6_2_scale
I0313 11:50:40.311522 26950 net.cpp:131] Top shape: 1 256 30 40 (307200)
I0313 11:50:40.311524 26950 net.cpp:139] Memory required for data: 250060800
I0313 11:50:40.311528 26950 layer_factory.hpp:77] Creating layer conv6_2_relu
I0313 11:50:40.311532 26950 net.cpp:86] Creating Layer conv6_2_relu
I0313 11:50:40.311535 26950 net.cpp:408] conv6_2_relu <- conv6_2
I0313 11:50:40.311539 26950 net.cpp:369] conv6_2_relu -> conv6_2 (in-place)
I0313 11:50:40.311661 26950 net.cpp:124] Setting up conv6_2_relu
I0313 11:50:40.311668 26950 net.cpp:131] Top shape: 1 256 30 40 (307200)
I0313 11:50:40.311671 26950 net.cpp:139] Memory required for data: 251289600
I0313 11:50:40.311672 26950 layer_factory.hpp:77] Creating layer conv6_3
I0313 11:50:40.311679 26950 net.cpp:86] Creating Layer conv6_3
I0313 11:50:40.311682 26950 net.cpp:408] conv6_3 <- conv6_2
I0313 11:50:40.311688 26950 net.cpp:382] conv6_3 -> conv6_3
I0313 11:50:40.333962 26950 net.cpp:124] Setting up conv6_3
I0313 11:50:40.333984 26950 net.cpp:131] Top shape: 1 512 30 40 (614400)
I0313 11:50:40.333987 26950 net.cpp:139] Memory required for data: 253747200
I0313 11:50:40.333993 26950 layer_factory.hpp:77] Creating layer conv6_3_bn
I0313 11:50:40.334004 26950 net.cpp:86] Creating Layer conv6_3_bn
I0313 11:50:40.334018 26950 net.cpp:408] conv6_3_bn <- conv6_3
I0313 11:50:40.334028 26950 net.cpp:369] conv6_3_bn -> conv6_3 (in-place)
I0313 11:50:40.334187 26950 net.cpp:124] Setting up conv6_3_bn
I0313 11:50:40.334193 26950 net.cpp:131] Top shape: 1 512 30 40 (614400)
I0313 11:50:40.334195 26950 net.cpp:139] Memory required for data: 256204800
I0313 11:50:40.334203 26950 layer_factory.hpp:77] Creating layer conv6_3_scale
I0313 11:50:40.334209 26950 net.cpp:86] Creating Layer conv6_3_scale
I0313 11:50:40.334213 26950 net.cpp:408] conv6_3_scale <- conv6_3
I0313 11:50:40.334216 26950 net.cpp:369] conv6_3_scale -> conv6_3 (in-place)
I0313 11:50:40.334245 26950 layer_factory.hpp:77] Creating layer conv6_3_scale
I0313 11:50:40.334338 26950 net.cpp:124] Setting up conv6_3_scale
I0313 11:50:40.334344 26950 net.cpp:131] Top shape: 1 512 30 40 (614400)
I0313 11:50:40.334347 26950 net.cpp:139] Memory required for data: 258662400
I0313 11:50:40.334350 26950 layer_factory.hpp:77] Creating layer conv6_3_relu
I0313 11:50:40.334355 26950 net.cpp:86] Creating Layer conv6_3_relu
I0313 11:50:40.334358 26950 net.cpp:408] conv6_3_relu <- conv6_3
I0313 11:50:40.334363 26950 net.cpp:369] conv6_3_relu -> conv6_3 (in-place)
I0313 11:50:40.335588 26950 net.cpp:124] Setting up conv6_3_relu
I0313 11:50:40.335599 26950 net.cpp:131] Top shape: 1 512 30 40 (614400)
I0313 11:50:40.335602 26950 net.cpp:139] Memory required for data: 261120000
I0313 11:50:40.335605 26950 layer_factory.hpp:77] Creating layer conv6_4
I0313 11:50:40.335613 26950 net.cpp:86] Creating Layer conv6_4
I0313 11:50:40.335618 26950 net.cpp:408] conv6_4 <- conv6_3
I0313 11:50:40.335624 26950 net.cpp:382] conv6_4 -> conv6_4
I0313 11:50:40.338657 26950 net.cpp:124] Setting up conv6_4
I0313 11:50:40.338670 26950 net.cpp:131] Top shape: 1 256 30 40 (307200)
I0313 11:50:40.338672 26950 net.cpp:139] Memory required for data: 262348800
I0313 11:50:40.338677 26950 layer_factory.hpp:77] Creating layer conv6_4_bn
I0313 11:50:40.338683 26950 net.cpp:86] Creating Layer conv6_4_bn
I0313 11:50:40.338687 26950 net.cpp:408] conv6_4_bn <- conv6_4
I0313 11:50:40.338693 26950 net.cpp:369] conv6_4_bn -> conv6_4 (in-place)
I0313 11:50:40.338851 26950 net.cpp:124] Setting up conv6_4_bn
I0313 11:50:40.338857 26950 net.cpp:131] Top shape: 1 256 30 40 (307200)
I0313 11:50:40.338860 26950 net.cpp:139] Memory required for data: 263577600
I0313 11:50:40.338866 26950 layer_factory.hpp:77] Creating layer conv6_4_scale
I0313 11:50:40.338871 26950 net.cpp:86] Creating Layer conv6_4_scale
I0313 11:50:40.338874 26950 net.cpp:408] conv6_4_scale <- conv6_4
I0313 11:50:40.338881 26950 net.cpp:369] conv6_4_scale -> conv6_4 (in-place)
I0313 11:50:40.338912 26950 layer_factory.hpp:77] Creating layer conv6_4_scale
I0313 11:50:40.339000 26950 net.cpp:124] Setting up conv6_4_scale
I0313 11:50:40.339007 26950 net.cpp:131] Top shape: 1 256 30 40 (307200)
I0313 11:50:40.339010 26950 net.cpp:139] Memory required for data: 264806400
I0313 11:50:40.339013 26950 layer_factory.hpp:77] Creating layer conv6_4_relu
I0313 11:50:40.339016 26950 net.cpp:86] Creating Layer conv6_4_relu
I0313 11:50:40.339020 26950 net.cpp:408] conv6_4_relu <- conv6_4
I0313 11:50:40.339025 26950 net.cpp:369] conv6_4_relu -> conv6_4 (in-place)
I0313 11:50:40.339149 26950 net.cpp:124] Setting up conv6_4_relu
I0313 11:50:40.339157 26950 net.cpp:131] Top shape: 1 256 30 40 (307200)
I0313 11:50:40.339159 26950 net.cpp:139] Memory required for data: 266035200
I0313 11:50:40.339161 26950 layer_factory.hpp:77] Creating layer conv6_5
I0313 11:50:40.339169 26950 net.cpp:86] Creating Layer conv6_5
I0313 11:50:40.339172 26950 net.cpp:408] conv6_5 <- conv6_4
I0313 11:50:40.339179 26950 net.cpp:382] conv6_5 -> conv6_5
I0313 11:50:40.361479 26950 net.cpp:124] Setting up conv6_5
I0313 11:50:40.361501 26950 net.cpp:131] Top shape: 1 512 30 40 (614400)
I0313 11:50:40.361505 26950 net.cpp:139] Memory required for data: 268492800
I0313 11:50:40.361511 26950 layer_factory.hpp:77] Creating layer conv6_5_bn
I0313 11:50:40.361517 26950 net.cpp:86] Creating Layer conv6_5_bn
I0313 11:50:40.361524 26950 net.cpp:408] conv6_5_bn <- conv6_5
I0313 11:50:40.361532 26950 net.cpp:369] conv6_5_bn -> conv6_5 (in-place)
I0313 11:50:40.361703 26950 net.cpp:124] Setting up conv6_5_bn
I0313 11:50:40.361711 26950 net.cpp:131] Top shape: 1 512 30 40 (614400)
I0313 11:50:40.361712 26950 net.cpp:139] Memory required for data: 270950400
I0313 11:50:40.361719 26950 layer_factory.hpp:77] Creating layer conv6_5_scale
I0313 11:50:40.361723 26950 net.cpp:86] Creating Layer conv6_5_scale
I0313 11:50:40.361727 26950 net.cpp:408] conv6_5_scale <- conv6_5
I0313 11:50:40.361732 26950 net.cpp:369] conv6_5_scale -> conv6_5 (in-place)
I0313 11:50:40.361763 26950 layer_factory.hpp:77] Creating layer conv6_5_scale
I0313 11:50:40.361860 26950 net.cpp:124] Setting up conv6_5_scale
I0313 11:50:40.361866 26950 net.cpp:131] Top shape: 1 512 30 40 (614400)
I0313 11:50:40.361868 26950 net.cpp:139] Memory required for data: 273408000
I0313 11:50:40.361872 26950 layer_factory.hpp:77] Creating layer conv6_5_relu
I0313 11:50:40.361876 26950 net.cpp:86] Creating Layer conv6_5_relu
I0313 11:50:40.361881 26950 net.cpp:408] conv6_5_relu <- conv6_5
I0313 11:50:40.361886 26950 net.cpp:369] conv6_5_relu -> conv6_5 (in-place)
I0313 11:50:40.362006 26950 net.cpp:124] Setting up conv6_5_relu
I0313 11:50:40.362013 26950 net.cpp:131] Top shape: 1 512 30 40 (614400)
I0313 11:50:40.362015 26950 net.cpp:139] Memory required for data: 275865600
I0313 11:50:40.362017 26950 layer_factory.hpp:77] Creating layer conv7_1
I0313 11:50:40.362025 26950 net.cpp:86] Creating Layer conv7_1
I0313 11:50:40.362030 26950 net.cpp:408] conv7_1 <- conv6_5
I0313 11:50:40.362036 26950 net.cpp:382] conv7_1 -> conv7_1
I0313 11:50:40.408229 26950 net.cpp:124] Setting up conv7_1
I0313 11:50:40.408263 26950 net.cpp:131] Top shape: 1 512 30 40 (614400)
I0313 11:50:40.408267 26950 net.cpp:139] Memory required for data: 278323200
I0313 11:50:40.408275 26950 layer_factory.hpp:77] Creating layer conv7_1_bn
I0313 11:50:40.408288 26950 net.cpp:86] Creating Layer conv7_1_bn
I0313 11:50:40.408300 26950 net.cpp:408] conv7_1_bn <- conv7_1
I0313 11:50:40.408310 26950 net.cpp:369] conv7_1_bn -> conv7_1 (in-place)
I0313 11:50:40.408493 26950 net.cpp:124] Setting up conv7_1_bn
I0313 11:50:40.408499 26950 net.cpp:131] Top shape: 1 512 30 40 (614400)
I0313 11:50:40.408501 26950 net.cpp:139] Memory required for data: 280780800
I0313 11:50:40.408509 26950 layer_factory.hpp:77] Creating layer conv7_1_scale
I0313 11:50:40.408515 26950 net.cpp:86] Creating Layer conv7_1_scale
I0313 11:50:40.408519 26950 net.cpp:408] conv7_1_scale <- conv7_1
I0313 11:50:40.408524 26950 net.cpp:369] conv7_1_scale -> conv7_1 (in-place)
I0313 11:50:40.408557 26950 layer_factory.hpp:77] Creating layer conv7_1_scale
I0313 11:50:40.408663 26950 net.cpp:124] Setting up conv7_1_scale
I0313 11:50:40.408669 26950 net.cpp:131] Top shape: 1 512 30 40 (614400)
I0313 11:50:40.408671 26950 net.cpp:139] Memory required for data: 283238400
I0313 11:50:40.408676 26950 layer_factory.hpp:77] Creating layer conv7_1_relu
I0313 11:50:40.408680 26950 net.cpp:86] Creating Layer conv7_1_relu
I0313 11:50:40.408684 26950 net.cpp:408] conv7_1_relu <- conv7_1
I0313 11:50:40.408689 26950 net.cpp:369] conv7_1_relu -> conv7_1 (in-place)
I0313 11:50:40.408830 26950 net.cpp:124] Setting up conv7_1_relu
I0313 11:50:40.408840 26950 net.cpp:131] Top shape: 1 512 30 40 (614400)
I0313 11:50:40.408843 26950 net.cpp:139] Memory required for data: 285696000
I0313 11:50:40.408844 26950 layer_factory.hpp:77] Creating layer conv7_2
I0313 11:50:40.408854 26950 net.cpp:86] Creating Layer conv7_2
I0313 11:50:40.408857 26950 net.cpp:408] conv7_2 <- conv7_1
I0313 11:50:40.408864 26950 net.cpp:382] conv7_2 -> conv7_2
I0313 11:50:40.456540 26950 net.cpp:124] Setting up conv7_2
I0313 11:50:40.456574 26950 net.cpp:131] Top shape: 1 512 30 40 (614400)
I0313 11:50:40.456578 26950 net.cpp:139] Memory required for data: 288153600
I0313 11:50:40.456585 26950 layer_factory.hpp:77] Creating layer conv7_2_bn
I0313 11:50:40.456595 26950 net.cpp:86] Creating Layer conv7_2_bn
I0313 11:50:40.456609 26950 net.cpp:408] conv7_2_bn <- conv7_2
I0313 11:50:40.456620 26950 net.cpp:369] conv7_2_bn -> conv7_2 (in-place)
I0313 11:50:40.456805 26950 net.cpp:124] Setting up conv7_2_bn
I0313 11:50:40.456811 26950 net.cpp:131] Top shape: 1 512 30 40 (614400)
I0313 11:50:40.456813 26950 net.cpp:139] Memory required for data: 290611200
I0313 11:50:40.456821 26950 layer_factory.hpp:77] Creating layer conv7_2_scale
I0313 11:50:40.456827 26950 net.cpp:86] Creating Layer conv7_2_scale
I0313 11:50:40.456831 26950 net.cpp:408] conv7_2_scale <- conv7_2
I0313 11:50:40.456835 26950 net.cpp:369] conv7_2_scale -> conv7_2 (in-place)
I0313 11:50:40.456871 26950 layer_factory.hpp:77] Creating layer conv7_2_scale
I0313 11:50:40.456977 26950 net.cpp:124] Setting up conv7_2_scale
I0313 11:50:40.456984 26950 net.cpp:131] Top shape: 1 512 30 40 (614400)
I0313 11:50:40.456985 26950 net.cpp:139] Memory required for data: 293068800
I0313 11:50:40.456990 26950 layer_factory.hpp:77] Creating layer conv7_2_relu
I0313 11:50:40.456995 26950 net.cpp:86] Creating Layer conv7_2_relu
I0313 11:50:40.457000 26950 net.cpp:408] conv7_2_relu <- conv7_2
I0313 11:50:40.457003 26950 net.cpp:369] conv7_2_relu -> conv7_2 (in-place)
I0313 11:50:40.457355 26950 net.cpp:124] Setting up conv7_2_relu
I0313 11:50:40.457363 26950 net.cpp:131] Top shape: 1 512 30 40 (614400)
I0313 11:50:40.457366 26950 net.cpp:139] Memory required for data: 295526400
I0313 11:50:40.457368 26950 layer_factory.hpp:77] Creating layer concat8
I0313 11:50:40.457403 26950 net.cpp:86] Creating Layer concat8
I0313 11:50:40.457410 26950 net.cpp:408] concat8 <- conv5_5_conv5_5_relu_0_split_1
I0313 11:50:40.457417 26950 net.cpp:408] concat8 <- conv7_2
I0313 11:50:40.457420 26950 net.cpp:382] concat8 -> concat8
I0313 11:50:40.457473 26950 net.cpp:124] Setting up concat8
I0313 11:50:40.457484 26950 net.cpp:131] Top shape: 1 768 30 40 (921600)
I0313 11:50:40.457489 26950 net.cpp:139] Memory required for data: 299212800
I0313 11:50:40.457490 26950 layer_factory.hpp:77] Creating layer reduce1_lane
I0313 11:50:40.457501 26950 net.cpp:86] Creating Layer reduce1_lane
I0313 11:50:40.457506 26950 net.cpp:408] reduce1_lane <- concat8
I0313 11:50:40.457514 26950 net.cpp:382] reduce1_lane -> reduce1_lane
I0313 11:50:40.475595 26950 net.cpp:124] Setting up reduce1_lane
I0313 11:50:40.475633 26950 net.cpp:131] Top shape: 1 128 30 40 (153600)
I0313 11:50:40.475637 26950 net.cpp:139] Memory required for data: 299827200
I0313 11:50:40.475644 26950 layer_factory.hpp:77] Creating layer reduce1_lane_bn
I0313 11:50:40.475653 26950 net.cpp:86] Creating Layer reduce1_lane_bn
I0313 11:50:40.475666 26950 net.cpp:408] reduce1_lane_bn <- reduce1_lane
I0313 11:50:40.475677 26950 net.cpp:369] reduce1_lane_bn -> reduce1_lane (in-place)
I0313 11:50:40.475869 26950 net.cpp:124] Setting up reduce1_lane_bn
I0313 11:50:40.475877 26950 net.cpp:131] Top shape: 1 128 30 40 (153600)
I0313 11:50:40.475878 26950 net.cpp:139] Memory required for data: 300441600
I0313 11:50:40.475886 26950 layer_factory.hpp:77] Creating layer reduce1_lane_scale
I0313 11:50:40.475893 26950 net.cpp:86] Creating Layer reduce1_lane_scale
I0313 11:50:40.475896 26950 net.cpp:408] reduce1_lane_scale <- reduce1_lane
I0313 11:50:40.475900 26950 net.cpp:369] reduce1_lane_scale -> reduce1_lane (in-place)
I0313 11:50:40.475936 26950 layer_factory.hpp:77] Creating layer reduce1_lane_scale
I0313 11:50:40.476040 26950 net.cpp:124] Setting up reduce1_lane_scale
I0313 11:50:40.476047 26950 net.cpp:131] Top shape: 1 128 30 40 (153600)
I0313 11:50:40.476050 26950 net.cpp:139] Memory required for data: 301056000
I0313 11:50:40.476054 26950 layer_factory.hpp:77] Creating layer reduce1_lane_relu
I0313 11:50:40.476058 26950 net.cpp:86] Creating Layer reduce1_lane_relu
I0313 11:50:40.476063 26950 net.cpp:408] reduce1_lane_relu <- reduce1_lane
I0313 11:50:40.476068 26950 net.cpp:369] reduce1_lane_relu -> reduce1_lane (in-place)
I0313 11:50:40.476414 26950 net.cpp:124] Setting up reduce1_lane_relu
I0313 11:50:40.476424 26950 net.cpp:131] Top shape: 1 128 30 40 (153600)
I0313 11:50:40.476426 26950 net.cpp:139] Memory required for data: 301670400
I0313 11:50:40.476429 26950 layer_factory.hpp:77] Creating layer deconv1_lane
I0313 11:50:40.476438 26950 net.cpp:86] Creating Layer deconv1_lane
I0313 11:50:40.476444 26950 net.cpp:408] deconv1_lane <- reduce1_lane
I0313 11:50:40.476450 26950 net.cpp:382] deconv1_lane -> deconv1_lane
I0313 11:50:40.477535 26950 net.cpp:124] Setting up deconv1_lane
I0313 11:50:40.477550 26950 net.cpp:131] Top shape: 1 64 60 80 (307200)
I0313 11:50:40.477552 26950 net.cpp:139] Memory required for data: 302899200
I0313 11:50:40.477557 26950 layer_factory.hpp:77] Creating layer deconv1_lane_bn
I0313 11:50:40.477563 26950 net.cpp:86] Creating Layer deconv1_lane_bn
I0313 11:50:40.477568 26950 net.cpp:408] deconv1_lane_bn <- deconv1_lane
I0313 11:50:40.477574 26950 net.cpp:369] deconv1_lane_bn -> deconv1_lane (in-place)
I0313 11:50:40.477758 26950 net.cpp:124] Setting up deconv1_lane_bn
I0313 11:50:40.477764 26950 net.cpp:131] Top shape: 1 64 60 80 (307200)
I0313 11:50:40.477767 26950 net.cpp:139] Memory required for data: 304128000
I0313 11:50:40.477788 26950 layer_factory.hpp:77] Creating layer deconv1_lane_scale
I0313 11:50:40.477795 26950 net.cpp:86] Creating Layer deconv1_lane_scale
I0313 11:50:40.477799 26950 net.cpp:408] deconv1_lane_scale <- deconv1_lane
I0313 11:50:40.477813 26950 net.cpp:369] deconv1_lane_scale -> deconv1_lane (in-place)
I0313 11:50:40.477851 26950 layer_factory.hpp:77] Creating layer deconv1_lane_scale
I0313 11:50:40.477962 26950 net.cpp:124] Setting up deconv1_lane_scale
I0313 11:50:40.477968 26950 net.cpp:131] Top shape: 1 64 60 80 (307200)
I0313 11:50:40.477970 26950 net.cpp:139] Memory required for data: 305356800
I0313 11:50:40.477975 26950 layer_factory.hpp:77] Creating layer deconv1_lane_relu
I0313 11:50:40.477980 26950 net.cpp:86] Creating Layer deconv1_lane_relu
I0313 11:50:40.477984 26950 net.cpp:408] deconv1_lane_relu <- deconv1_lane
I0313 11:50:40.477988 26950 net.cpp:369] deconv1_lane_relu -> deconv1_lane (in-place)
I0313 11:50:40.478122 26950 net.cpp:124] Setting up deconv1_lane_relu
I0313 11:50:40.478130 26950 net.cpp:131] Top shape: 1 64 60 80 (307200)
I0313 11:50:40.478132 26950 net.cpp:139] Memory required for data: 306585600
I0313 11:50:40.478134 26950 layer_factory.hpp:77] Creating layer reorg4
I0313 11:50:40.478143 26950 net.cpp:86] Creating Layer reorg4
I0313 11:50:40.478147 26950 net.cpp:408] reorg4 <- conv4_3_conv4_3_relu_0_split_1
I0313 11:50:40.478154 26950 net.cpp:382] reorg4 -> reorg4
I0313 11:50:40.481552 26950 net.cpp:124] Setting up reorg4
I0313 11:50:40.481572 26950 net.cpp:131] Top shape: 1 64 60 80 (307200)
I0313 11:50:40.481575 26950 net.cpp:139] Memory required for data: 307814400
I0313 11:50:40.481581 26950 layer_factory.hpp:77] Creating layer reorg4_relu
I0313 11:50:40.481586 26950 net.cpp:86] Creating Layer reorg4_relu
I0313 11:50:40.481592 26950 net.cpp:408] reorg4_relu <- reorg4
I0313 11:50:40.481607 26950 net.cpp:369] reorg4_relu -> reorg4 (in-place)
I0313 11:50:40.481751 26950 net.cpp:124] Setting up reorg4_relu
I0313 11:50:40.481761 26950 net.cpp:131] Top shape: 1 64 60 80 (307200)
I0313 11:50:40.481763 26950 net.cpp:139] Memory required for data: 309043200
I0313 11:50:40.481766 26950 layer_factory.hpp:77] Creating layer concat4
I0313 11:50:40.481770 26950 net.cpp:86] Creating Layer concat4
I0313 11:50:40.481775 26950 net.cpp:408] concat4 <- reorg4
I0313 11:50:40.481779 26950 net.cpp:408] concat4 <- deconv1_lane
I0313 11:50:40.481786 26950 net.cpp:382] concat4 -> concat4
I0313 11:50:40.481814 26950 net.cpp:124] Setting up concat4
I0313 11:50:40.481823 26950 net.cpp:131] Top shape: 1 128 60 80 (614400)
I0313 11:50:40.481825 26950 net.cpp:139] Memory required for data: 311500800
I0313 11:50:40.481827 26950 layer_factory.hpp:77] Creating layer reduce2_lane
I0313 11:50:40.481837 26950 net.cpp:86] Creating Layer reduce2_lane
I0313 11:50:40.481839 26950 net.cpp:408] reduce2_lane <- concat4
I0313 11:50:40.481847 26950 net.cpp:382] reduce2_lane -> reduce2_lane
I0313 11:50:40.484232 26950 net.cpp:124] Setting up reduce2_lane
I0313 11:50:40.484246 26950 net.cpp:131] Top shape: 1 64 60 80 (307200)
I0313 11:50:40.484249 26950 net.cpp:139] Memory required for data: 312729600
I0313 11:50:40.484253 26950 layer_factory.hpp:77] Creating layer reduce2_lane_bn
I0313 11:50:40.484258 26950 net.cpp:86] Creating Layer reduce2_lane_bn
I0313 11:50:40.484263 26950 net.cpp:408] reduce2_lane_bn <- reduce2_lane
I0313 11:50:40.484270 26950 net.cpp:369] reduce2_lane_bn -> reduce2_lane (in-place)
I0313 11:50:40.484460 26950 net.cpp:124] Setting up reduce2_lane_bn
I0313 11:50:40.484467 26950 net.cpp:131] Top shape: 1 64 60 80 (307200)
I0313 11:50:40.484469 26950 net.cpp:139] Memory required for data: 313958400
I0313 11:50:40.484477 26950 layer_factory.hpp:77] Creating layer reduce2_lane_scale
I0313 11:50:40.484481 26950 net.cpp:86] Creating Layer reduce2_lane_scale
I0313 11:50:40.484485 26950 net.cpp:408] reduce2_lane_scale <- reduce2_lane
I0313 11:50:40.484489 26950 net.cpp:369] reduce2_lane_scale -> reduce2_lane (in-place)
I0313 11:50:40.484526 26950 layer_factory.hpp:77] Creating layer reduce2_lane_scale
I0313 11:50:40.484642 26950 net.cpp:124] Setting up reduce2_lane_scale
I0313 11:50:40.484648 26950 net.cpp:131] Top shape: 1 64 60 80 (307200)
I0313 11:50:40.484650 26950 net.cpp:139] Memory required for data: 315187200
I0313 11:50:40.484655 26950 layer_factory.hpp:77] Creating layer reduce2_lane_relu
I0313 11:50:40.484659 26950 net.cpp:86] Creating Layer reduce2_lane_relu
I0313 11:50:40.484663 26950 net.cpp:408] reduce2_lane_relu <- reduce2_lane
I0313 11:50:40.484668 26950 net.cpp:369] reduce2_lane_relu -> reduce2_lane (in-place)
I0313 11:50:40.484804 26950 net.cpp:124] Setting up reduce2_lane_relu
I0313 11:50:40.484813 26950 net.cpp:131] Top shape: 1 64 60 80 (307200)
I0313 11:50:40.484815 26950 net.cpp:139] Memory required for data: 316416000
I0313 11:50:40.484817 26950 layer_factory.hpp:77] Creating layer Slice1
I0313 11:50:40.484861 26950 net.cpp:86] Creating Layer Slice1
I0313 11:50:40.484867 26950 net.cpp:408] Slice1 <- reduce2_lane
I0313 11:50:40.484877 26950 net.cpp:382] Slice1 -> slice1_1
I0313 11:50:40.484911 26950 net.cpp:382] Slice1 -> slice1_2
…
I0313 11:50:40.485414 26950 net.cpp:382] Slice1 -> slice1_52
I0313 11:50:40.485424 26950 net.cpp:382] Slice1 -> slice1_53
I0313 11:50:40.485433 26950 net.cpp:382] Slice1 -> slice1_54
I0313 11:50:40.485442 26950 net.cpp:382] Slice1 -> slice1_55
I0313 11:50:40.485452 26950 net.cpp:382] Slice1 -> slice1_56
I0313 11:50:40.485461 26950 net.cpp:382] Slice1 -> slice1_57
I0313 11:50:40.485471 26950 net.cpp:382] Slice1 -> slice1_58
I0313 11:50:40.485481 26950 net.cpp:382] Slice1 -> slice1_59
I0313 11:50:40.485489 26950 net.cpp:382] Slice1 -> slice1_60
I0313 11:50:40.486135 26950 net.cpp:124] Setting up Slice1
I0313 11:50:40.486143 26950 net.cpp:131] Top shape: 1 64 1 80 (5120)
I0313 11:50:40.486150 26950 net.cpp:131] Top shape: 1 64 1 80 (5120)
I0313 11:50:40.486153 26950 net.cpp:131] Top shape: 1 64 1 80 (5120)
I0313 11:50:40.486158 26950 net.cpp:131] Top shape: 1 64 1 80 (5120)
I0313 11:50:40.486162 26950 net.cpp:131] Top shape: 1 64 1 80 (5120)
I0313 11:50:40.486167 26950 net.cpp:131] Top shape: 1 64 1 80 (5120)
I0313 11:50:40.486171 26950 net.cpp:131] Top shape: 1 64 1 80 (5120)
I0313 11:50:40.486176 26950 net.cpp:131] Top shape: 1 64 1 80 (5120)
I0313 11:50:40.486181 26950 net.cpp:131] Top shape: 1 64 1 80 (5120)
I0313 11:50:40.486186 26950 net.cpp:131] Top shape: 1 64 1 80 (5120)
I0313 11:50:40.486188 26950 net.cpp:131] Top shape: 1 64 1 80 (5120)
I0313 11:50:40.486191 26950 net.cpp:131] Top shape: 1 64 1 80 (5120)
I0313 11:50:40.486196 26950 net.cpp:131] Top shape: 1 64 1 80 (5120)
I0313 11:50:40.486201 26950 net.cpp:131] Top shape: 1 64 1 80 (5120)
I0313 11:50:40.486204 26950 net.cpp:131] Top shape: 1 64 1 80 (5120)
I0313 11:50:40.486209 26950 net.cpp:131] Top shape: 1 64 1 80 (5120)
I0313 11:50:40.486213 26950 net.cpp:131] Top shape: 1 64 1 80 (5120)
I0313 11:50:40.486217 26950 net.cpp:131] Top shape: 1 64 1 80 (5120)
I0313 11:50:40.486222 26950 net.cpp:131] Top shape: 1 64 1 80 (5120)
I0313 11:50:40.486227 26950 net.cpp:131] Top shape: 1 64 1 80 (5120)
I0313 11:50:40.486230 26950 net.cpp:131] Top shape: 1 64 1 80 (5120)
I0313 11:50:40.486235 26950 net.cpp:131] Top shape: 1 64 1 80 (5120)
I0313 11:50:40.486239 26950 net.cpp:131] Top shape: 1 64 1 80 (5120)
I0313 11:50:40.486243 26950 net.cpp:131] Top shape: 1 64 1 80 (5120)
I0313 11:50:40.486248 26950 net.cpp:131] Top shape: 1 64 1 80 (5120)
I0313 11:50:40.486251 26950 net.cpp:131] Top shape: 1 64 1 80 (5120)
I0313 11:50:40.486255 26950 net.cpp:131] Top shape: 1 64 1 80 (5120)
I0313 11:50:40.486263 26950 net.cpp:131] Top shape: 1 64 1 80 (5120)
I0313 11:50:40.486268 26950 net.cpp:131] Top shape: 1 64 1 80 (5120)
I0313 11:50:40.486272 26950 net.cpp:131] Top shape: 1 64 1 80 (5120)
I0313 11:50:40.486277 26950 net.cpp:131] Top shape: 1 64 1 80 (5120)
I0313 11:50:40.486281 26950 net.cpp:131] Top shape: 1 64 1 80 (5120)
I0313 11:50:40.486286 26950 net.cpp:131] Top shape: 1 64 1 80 (5120)
I0313 11:50:40.486290 26950 net.cpp:131] Top shape: 1 64 1 80 (5120)
I0313 11:50:40.486295 26950 net.cpp:131] Top shape: 1 64 1 80 (5120)
I0313 11:50:40.486299 26950 net.cpp:131] Top shape: 1 64 1 80 (5120)
I0313 11:50:40.486304 26950 net.cpp:131] Top shape: 1 64 1 80 (5120)
I0313 11:50:40.486308 26950 net.cpp:131] Top shape: 1 64 1 80 (5120)
I0313 11:50:40.486313 26950 net.cpp:131] Top shape: 1 64 1 80 (5120)
I0313 11:50:40.486317 26950 net.cpp:131] Top shape: 1 64 1 80 (5120)
I0313 11:50:40.486322 26950 net.cpp:131] Top shape: 1 64 1 80 (5120)
I0313 11:50:40.486326 26950 net.cpp:131] Top shape: 1 64 1 80 (5120)
I0313 11:50:40.486330 26950 net.cpp:131] Top shape: 1 64 1 80 (5120)
I0313 11:50:40.486335 26950 net.cpp:131] Top shape: 1 64 1 80 (5120)
I0313 11:50:40.486340 26950 net.cpp:131] Top shape: 1 64 1 80 (5120)
I0313 11:50:40.486344 26950 net.cpp:131] Top shape: 1 64 1 80 (5120)
I0313 11:50:40.486348 26950 net.cpp:131] Top shape: 1 64 1 80 (5120)
I0313 11:50:40.486352 26950 net.cpp:131] Top shape: 1 64 1 80 (5120)
I0313 11:50:40.486357 26950 net.cpp:131] Top shape: 1 64 1 80 (5120)
I0313 11:50:40.486361 26950 net.cpp:131] Top shape: 1 64 1 80 (5120)
I0313 11:50:40.486366 26950 net.cpp:131] Top shape: 1 64 1 80 (5120)
I0313 11:50:40.486371 26950 net.cpp:131] Top shape: 1 64 1 80 (5120)
I0313 11:50:40.486376 26950 net.cpp:131] Top shape: 1 64 1 80 (5120)
I0313 11:50:40.486379 26950 net.cpp:131] Top shape: 1 64 1 80 (5120)
I0313 11:50:40.486384 26950 net.cpp:131] Top shape: 1 64 1 80 (5120)
I0313 11:50:40.486388 26950 net.cpp:131] Top shape: 1 64 1 80 (5120)
I0313 11:50:40.486393 26950 net.cpp:131] Top shape: 1 64 1 80 (5120)
I0313 11:50:40.486397 26950 net.cpp:131] Top shape: 1 64 1 80 (5120)
I0313 11:50:40.486402 26950 net.cpp:131] Top shape: 1 64 1 80 (5120)
I0313 11:50:40.486407 26950 net.cpp:131] Top shape: 1 64 1 80 (5120)
I0313 11:50:40.486410 26950 net.cpp:139] Memory required for data: 317644800
I0313 11:50:40.486413 26950 layer_factory.hpp:77] Creating layer slice1_1_Slice1_0_split
I0313 11:50:40.486420 26950 net.cpp:86] Creating Layer slice1_1_Slice1_0_split
I0313 11:50:40.486425 26950 net.cpp:408] slice1_1_Slice1_0_split <- slice1_1
I0313 11:50:40.486433 26950 net.cpp:382] slice1_1_Slice1_0_split -> slice1_1_Slice1_0_split_0
I0313 11:50:40.486439 26950 net.cpp:382] slice1_1_Slice1_0_split -> slice1_1_Slice1_0_split_1
I0313 11:50:40.486476 26950 net.cpp:124] Setting up slice1_1_Slice1_0_split
I0313 11:50:40.486483 26950 net.cpp:131] Top shape: 1 64 1 80 (5120)
I0313 11:50:40.486487 26950 net.cpp:131] Top shape: 1 64 1 80 (5120)
I0313 11:50:40.486490 26950 net.cpp:139] Memory required for data: 317685760
I0313 11:50:40.486495 26950 layer_factory.hpp:77] Creating layer SCNN_D_1
I0313 11:50:40.486501 26950 net.cpp:86] Creating Layer SCNN_D_1
I0313 11:50:40.486507 26950 net.cpp:408] SCNN_D_1 <- slice1_1_Slice1_0_split_0
I0313 11:50:40.486515 26950 net.cpp:382] SCNN_D_1 -> SCNN_D_1/message
I0313 11:50:40.487730 26950 net.cpp:124] Setting up SCNN_D_1
I0313 11:50:40.487743 26950 net.cpp:131] Top shape: 1 64 1 80 (5120)
I0313 11:50:40.487747 26950 net.cpp:139] Memory required for data: 317706240
I0313 11:50:40.487754 26950 layer_factory.hpp:77] Creating layer SCNN_D_1/relu
I0313 11:50:40.487761 26950 net.cpp:86] Creating Layer SCNN_D_1/relu
I0313 11:50:40.487767 26950 net.cpp:408] SCNN_D_1/relu <- SCNN_D_1/message
I0313 11:50:40.487774 26950 net.cpp:369] SCNN_D_1/relu -> SCNN_D_1/message (in-place)
I0313 11:50:40.488108 26950 net.cpp:124] Setting up SCNN_D_1/relu
I0313 11:50:40.488118 26950 net.cpp:131] Top shape: 1 64 1 80 (5120)
I0313 11:50:40.488122 26950 net.cpp:139] Memory required for data: 317726720
I0313 11:50:40.488126 26950 layer_factory.hpp:77] Creating layer SCNN_D_1/sum
I0313 11:50:40.488150 26950 net.cpp:86] Creating Layer SCNN_D_1/sum
I0313 11:50:40.488157 26950 net.cpp:408] SCNN_D_1/sum <- SCNN_D_1/message
I0313 11:50:40.488165 26950 net.cpp:408] SCNN_D_1/sum <- slice1_2
I0313 11:50:40.488171 26950 net.cpp:382] SCNN_D_1/sum -> SCNN_D_2
I0313 11:50:40.488247 26950 net.cpp:124] Setting up SCNN_D_1/sum
I0313 11:50:40.488256 26950 net.cpp:131] Top shape: 1 64 1 80 (5120)
I0313 11:50:40.488260 26950 net.cpp:139] Memory required for data: 317747200
I0313 11:50:40.488262 26950 layer_factory.hpp:77] Creating layer SCNN_D_2_SCNN_D_1/sum_0_split
I0313 11:50:40.488268 26950 net.cpp:86] Creating Layer SCNN_D_2_SCNN_D_1/sum_0_split
I0313 11:50:40.488274 26950 net.cpp:408] SCNN_D_2_SCNN_D_1/sum_0_split <- SCNN_D_2
I0313 11:50:40.488282 26950 net.cpp:382] SCNN_D_2_SCNN_D_1/sum_0_split -> SCNN_D_2_SCNN_D_1/sum_0_split_0
I0313 11:50:40.488291 26950 net.cpp:382] SCNN_D_2_SCNN_D_1/sum_0_split -> SCNN_D_2_SCNN_D_1/sum_0_split_1
I0313 11:50:40.488334 26950 net.cpp:124] Setting up SCNN_D_2_SCNN_D_1/sum_0_split
I0313 11:50:40.488343 26950 net.cpp:131] Top shape: 1 64 1 80 (5120)
I0313 11:50:40.488348 26950 net.cpp:131] Top shape: 1 64 1 80 (5120)
I0313 11:50:40.488351 26950 net.cpp:139] Memory required for data: 317788160
I0313 11:50:40.488353 26950 layer_factory.hpp:77] Creating layer SCNN_D_2
I0313 11:50:40.488361 26950 net.cpp:86] Creating Layer SCNN_D_2
I0313 11:50:40.488368 26950 net.cpp:408] SCNN_D_2 <- SCNN_D_2_SCNN_D_1/sum_0_split_0
I0313 11:50:40.488375 26950 net.cpp:382] SCNN_D_2 -> SCNN_D_2/message
I0313 11:50:40.489563 26950 net.cpp:124] Setting up SCNN_D_2
I0313 11:50:40.489576 26950 net.cpp:131] Top shape: 1 64 1 80 (5120)
I0313 11:50:40.489580 26950 net.cpp:139] Memory required for data: 317808640
I0313 11:50:40.489584 26950 net.cpp:467] Sharing parameters 'SCNN_D_w' owned by layer 'SCNN_D_1', param index 0
I0313 11:50:40.489589 26950 layer_factory.hpp:77] Creating layer SCNN_D_2/relu
I0313 11:50:40.489598 26950 net.cpp:86] Creating Layer SCNN_D_2/relu
I0313 11:50:40.489603 26950 net.cpp:408] SCNN_D_2/relu <- SCNN_D_2/message
I0313 11:50:40.489611 26950 net.cpp:369] SCNN_D_2/relu -> SCNN_D_2/message (in-place)
I0313 11:50:40.490762 26950 net.cpp:124] Setting up SCNN_D_2/relu
I0313 11:50:40.490774 26950 net.cpp:131] Top shape: 1 64 1 80 (5120)
I0313 11:50:40.490777 26950 net.cpp:139] Memory required for data: 317829120
I0313 11:50:40.490782 26950 layer_factory.hpp:77] Creating layer SCNN_D_2/sum
I0313 11:50:40.490789 26950 net.cpp:86] Creating Layer SCNN_D_2/sum
I0313 11:50:40.490797 26950 net.cpp:408] SCNN_D_2/sum <- SCNN_D_2/message
I0313 11:50:40.490804 26950 net.cpp:408] SCNN_D_2/sum <- slice1_3
I0313 11:50:40.490810 26950 net.cpp:382] SCNN_D_2/sum -> SCNN_D_3
I0313 11:50:40.490846 26950 net.cpp:124] Setting up SCNN_D_2/sum
I0313 11:50:40.490854 26950 net.cpp:131] Top shape: 1 64 1 80 (5120)
I0313 11:50:40.490857 26950 net.cpp:139] Memory required for data: 317849600
I0313 11:50:40.490859 26950 layer_factory.hpp:77] Creating layer SCNN_D_3_SCNN_D_2/sum_0_split
I0313 11:50:40.490865 26950 net.cpp:86] Creating Layer SCNN_D_3_SCNN_D_2/sum_0_split
I0313 11:50:40.490870 26950 net.cpp:408] SCNN_D_3_SCNN_D_2/sum_0_split <- SCNN_D_3
I0313 11:50:40.490878 26950 net.cpp:382] SCNN_D_3_SCNN_D_2/sum_0_split -> SCNN_D_3_SCNN_D_2/sum_0_split_0
I0313 11:50:40.490887 26950 net.cpp:382] SCNN_D_3_SCNN_D_2/sum_0_split -> SCNN_D_3_SCNN_D_2/sum_0_split_1
I0313 11:50:40.490927 26950 net.cpp:124] Setting up SCNN_D_3_SCNN_D_2/sum_0_split
I0313 11:50:40.490934 26950 net.cpp:131] Top shape: 1 64 1 80 (5120)
I0313 11:50:40.490939 26950 net.cpp:131] Top shape: 1 64 1 80 (5120)
I0313 11:50:40.490942 26950 net.cpp:139] Memory required for data: 317890560
I0313 11:50:40.490945 26950 layer_factory.hpp:77] Creating layer SCNN_D_3
I0313 11:50:40.490954 26950 net.cpp:86] Creating Layer SCNN_D_3
I0313 11:50:40.490960 26950 net.cpp:408] SCNN_D_3 <- SCNN_D_3_SCNN_D_2/sum_0_split_0
I0313 11:50:40.490967 26950 net.cpp:382] SCNN_D_3 -> SCNN_D_3/message
I0313 11:50:40.492163 26950 net.cpp:124] Setting up SCNN_D_3
I0313 11:50:40.492175 26950 net.cpp:131] Top shape: 1 64 1 80 (5120)
I0313 11:50:40.492180 26950 net.cpp:139] Memory required for data: 317911040
I0313 11:50:40.492184 26950 net.cpp:467] Sharing parameters 'SCNN_D_w' owned by layer 'SCNN_D_1', param index 0
I0313 11:50:40.492189 26950 layer_factory.hpp:77] Creating layer SCNN_D_3/relu
I0313 11:50:40.492208 26950 net.cpp:86] Creating Layer SCNN_D_3/relu
I0313 11:50:40.492213 26950 net.cpp:408] SCNN_D_3/relu <- SCNN_D_3/message
I0313 11:50:40.492221 26950 net.cpp:369] SCNN_D_3/relu -> SCNN_D_3/message (in-place)
I0313 11:50:40.492352 26950 net.cpp:124] Setting up SCNN_D_3/relu
I0313 11:50:40.492358 26950 net.cpp:131] Top shape: 1 64 1 80 (5120)
I0313 11:50:40.492362 26950 net.cpp:139] Memory required for data: 317931520
I0313 11:50:40.492365 26950 layer_factory.hpp:77] Creating layer SCNN_D_3/sum
I0313 11:50:40.492372 26950 net.cpp:86] Creating Layer SCNN_D_3/sum
I0313 11:50:40.492377 26950 net.cpp:408] SCNN_D_3/sum <- SCNN_D_3/message
I0313 11:50:40.492384 26950 net.cpp:408] SCNN_D_3/sum <- slice1_4
I0313 11:50:40.492389 26950 net.cpp:382] SCNN_D_3/sum -> SCNN_D_4
I0313 11:50:40.492417 26950 net.cpp:124] Setting up SCNN_D_3/sum
I0313 11:50:40.492424 26950 net.cpp:131] Top shape: 1 64 1 80 (5120)
I0313 11:50:40.492429 26950 net.cpp:139] Memory required for data: 317952000
I0313 11:50:40.492434 26950 layer_factory.hpp:77] Creating layer SCNN_D_4_SCNN_D_3/sum_0_split
I0313 11:50:40.492437 26950 net.cpp:86] Creating Layer SCNN_D_4_SCNN_D_3/sum_0_split
I0313 11:50:40.492442 26950 net.cpp:408] SCNN_D_4_SCNN_D_3/sum_0_split <- SCNN_D_4
I0313 11:50:40.492450 26950 net.cpp:382] SCNN_D_4_SCNN_D_3/sum_0_split -> SCNN_D_4_SCNN_D_3/sum_0_split_0
I0313 11:50:40.492460 26950 net.cpp:382] SCNN_D_4_SCNN_D_3/sum_0_split -> SCNN_D_4_SCNN_D_3/sum_0_split_1
I0313 11:50:40.492496 26950 net.cpp:124] Setting up SCNN_D_4_SCNN_D_3/sum_0_split
I0313 11:50:40.492502 26950 net.cpp:131] Top shape: 1 64 1 80 (5120)
I0313 11:50:40.492507 26950 net.cpp:131] Top shape: 1 64 1 80 (5120)
I0313 11:50:40.492511 26950 net.cpp:139] Memory required for data: 317992960
I0313 11:50:40.492513 26950 layer_factory.hpp:77] Creating layer SCNN_D_4
I0313 11:50:40.492522 26950 net.cpp:86] Creating Layer SCNN_D_4
I0313 11:50:40.492527 26950 net.cpp:408] SCNN_D_4 <- SCNN_D_4_SCNN_D_3/sum_0_split_0
I0313 11:50:40.492534 26950 net.cpp:382] SCNN_D_4 -> SCNN_D_4/message
I0313 11:50:40.493695 26950 net.cpp:124] Setting up SCNN_D_4
I0313 11:50:40.493708 26950 net.cpp:131] Top shape: 1 64 1 80 (5120)
I0313 11:50:40.493713 26950 net.cpp:139] Memory required for data: 318013440
I0313 11:50:40.493717 26950 net.cpp:467] Sharing parameters 'SCNN_D_w' owned by layer 'SCNN_D_1', param index 0
I0313 11:50:40.493721 26950 layer_factory.hpp:77] Creating layer SCNN_D_4/relu
I0313 11:50:40.493726 26950 net.cpp:86] Creating Layer SCNN_D_4/relu
I0313 11:50:40.493731 26950 net.cpp:408] SCNN_D_4/relu <- SCNN_D_4/message
I0313 11:50:40.493738 26950 net.cpp:369] SCNN_D_4/relu -> SCNN_D_4/message (in-place)
I0313 11:50:40.493863 26950 net.cpp:124] Setting up SCNN_D_4/relu
I0313 11:50:40.493872 26950 net.cpp:131] Top shape: 1 64 1 80 (5120)
I0313 11:50:40.493875 26950 net.cpp:139] Memory required for data: 318033920
I0313 11:50:40.493878 26950 layer_factory.hpp:77] Creating layer SCNN_D_4/sum
I0313 11:50:40.493883 26950 net.cpp:86] Creating Layer SCNN_D_4/sum
I0313 11:50:40.493890 26950 net.cpp:408] SCNN_D_4/sum <- SCNN_D_4/message
I0313 11:50:40.493896 26950 net.cpp:408] SCNN_D_4/sum <- slice1_5
I0313 11:50:40.493902 26950 net.cpp:382] SCNN_D_4/sum -> SCNN_D_5
I0313 11:50:40.493932 26950 net.cpp:124] Setting up SCNN_D_4/sum
I0313 11:50:40.493938 26950 net.cpp:131] Top shape: 1 64 1 80 (5120)
I0313 11:50:40.493942 26950 net.cpp:139] Memory required for data: 318054400
I0313 11:50:40.493944 26950 layer_factory.hpp:77] Creating layer SCNN_D_5_SCNN_D_4/sum_0_split
I0313 11:50:40.493949 26950 net.cpp:86] Creating Layer SCNN_D_5_SCNN_D_4/sum_0_split
I0313 11:50:40.493954 26950 net.cpp:408] SCNN_D_5_SCNN_D_4/sum_0_split <- SCNN_D_5
I0313 11:50:40.493961 26950 net.cpp:382] SCNN_D_5_SCNN_D_4/sum_0_split -> SCNN_D_5_SCNN_D_4/sum_0_split_0
I0313 11:50:40.493969 26950 net.cpp:382] SCNN_D_5_SCNN_D_4/sum_0_split -> SCNN_D_5_SCNN_D_4/sum_0_split_1
I0313 11:50:40.494006 26950 net.cpp:124] Setting up SCNN_D_5_SCNN_D_4/sum_0_split
I0313 11:50:40.494012 26950 net.cpp:131] Top shape: 1 64 1 80 (5120)
I0313 11:50:40.494017 26950 net.cpp:131] Top shape: 1 64 1 80 (5120)
I0313 11:50:40.494021 26950 net.cpp:139] Memory required for data: 318095360
I0313 11:50:40.494024 26950 layer_factory.hpp:77] Creating layer SCNN_D_5
I0313 11:50:40.494030 26950 net.cpp:86] Creating Layer SCNN_D_5
I0313 11:50:40.494036 26950 net.cpp:408] SCNN_D_5 <- SCNN_D_5_SCNN_D_4/sum_0_split_0
I0313 11:50:40.494043 26950 net.cpp:382] SCNN_D_5 -> SCNN_D_5/message
I0313 11:50:40.495168 26950 net.cpp:124] Setting up SCNN_D_5
I0313 11:50:40.495182 26950 net.cpp:131] Top shape: 1 64 1 80 (5120)
I0313 11:50:40.495185 26950 net.cpp:139] Memory required for data: 318115840
I0313 11:50:40.495189 26950 net.cpp:467] Sharing parameters 'SCNN_D_w' owned by layer 'SCNN_D_1', param index 0
I0313 11:50:40.495193 26950 layer_factory.hpp:77] Creating layer SCNN_D_5/relu
I0313 11:50:40.495198 26950 net.cpp:86] Creating Layer SCNN_D_5/relu
I0313 11:50:40.495203 26950 net.cpp:408] SCNN_D_5/relu <- SCNN_D_5/message
I0313 11:50:40.495210 26950 net.cpp:369] SCNN_D_5/relu -> SCNN_D_5/message (in-place)
I0313 11:50:40.495332 26950 net.cpp:124] Setting up SCNN_D_5/relu
I0313 11:50:40.495338 26950 net.cpp:131] Top shape: 1 64 1 80 (5120)
I0313 11:50:40.495342 26950 net.cpp:139] Memory required for data: 318136320
I0313 11:50:40.495345 26950 layer_factory.hpp:77] Creating layer SCNN_D_5/sum
I0313 11:50:40.495350 26950 net.cpp:86] Creating Layer SCNN_D_5/sum
I0313 11:50:40.495355 26950 net.cpp:408] SCNN_D_5/sum <- SCNN_D_5/message
I0313 11:50:40.495363 26950 net.cpp:408] SCNN_D_5/sum <- slice1_6
I0313 11:50:40.495368 26950 net.cpp:382] SCNN_D_5/sum -> SCNN_D_6
I0313 11:50:40.495396 26950 net.cpp:124] Setting up SCNN_D_5/sum
I0313 11:50:40.495404 26950 net.cpp:131] Top shape: 1 64 1 80 (5120)
I0313 11:50:40.495407 26950 net.cpp:139] Memory required for data: 318156800
I0313 11:50:40.495409 26950 layer_factory.hpp:77] Creating layer SCNN_D_6_SCNN_D_5/sum_0_split
I0313 11:50:40.495414 26950 net.cpp:86] Creating Layer SCNN_D_6_SCNN_D_5/sum_0_split
I0313 11:50:40.495419 26950 net.cpp:408] SCNN_D_6_SCNN_D_5/sum_0_split <- SCNN_D_6
I0313 11:50:40.495426 26950 net.cpp:382] SCNN_D_6_SCNN_D_5/sum_0_split -> SCNN_D_6_SCNN_D_5/sum_0_split_0
I0313 11:50:40.495434 26950 net.cpp:382] SCNN_D_6_SCNN_D_5/sum_0_split -> SCNN_D_6_SCNN_D_5/sum_0_split_1
I0313 11:50:40.495470 26950 net.cpp:124] Setting up SCNN_D_6_SCNN_D_5/sum_0_split
I0313 11:50:40.495476 26950 net.cpp:131] Top shape: 1 64 1 80 (5120)
I0313 11:50:40.495481 26950 net.cpp:131] Top shape: 1 64 1 80 (5120)
I0313 11:50:40.495483 26950 net.cpp:139] Memory required for data: 318197760
I0313 11:50:40.495486 26950 layer_factory.hpp:77] Creating layer SCNN_D_6
I0313 11:50:40.495492 26950 net.cpp:86] Creating Layer SCNN_D_6
I0313 11:50:40.495497 26950 net.cpp:408] SCNN_D_6 <- SCNN_D_6_SCNN_D_5/sum_0_split_0
I0313 11:50:40.495506 26950 net.cpp:382] SCNN_D_6 -> SCNN_D_6/message
I0313 11:50:40.497602 26950 net.cpp:124] Setting up SCNN_D_6
I0313 11:50:40.497625 26950 net.cpp:131] Top shape: 1 64 1 80 (5120)
I0313 11:50:40.497629 26950 net.cpp:139] Memory required for data: 318218240
I0313 11:50:40.497637 26950 net.cpp:467] Sharing parameters 'SCNN_D_w' owned by layer 'SCNN_D_1', param index 0
I0313 11:50:40.497640 26950 layer_factory.hpp:77] Creating layer SCNN_D_6/relu
I0313 11:50:40.497659 26950 net.cpp:86] Creating Layer SCNN_D_6/relu
I0313 11:50:40.497668 26950 net.cpp:408] SCNN_D_6/relu <- SCNN_D_6/message
I0313 11:50:40.497676 26950 net.cpp:369] SCNN_D_6/relu -> SCNN_D_6/message (in-place)
I0313 11:50:40.498021 26950 net.cpp:124] Setting up SCNN_D_6/relu
I0313 11:50:40.498031 26950 net.cpp:131] Top shape: 1 64 1 80 (5120)
I0313 11:50:40.498035 26950 net.cpp:139] Memory required for data: 318238720
I0313 11:50:40.498041 26950 layer_factory.hpp:77] Creating layer SCNN_D_6/sum
I0313 11:50:40.498047 26950 net.cpp:86] Creating Layer SCNN_D_6/sum
I0313 11:50:40.498054 26950 net.cpp:408] SCNN_D_6/sum <- SCNN_D_6/message
I0313 11:50:40.498062 26950 net.cpp:408] SCNN_D_6/sum <- slice1_7
I0313 11:50:40.498067 26950 net.cpp:382] SCNN_D_6/sum -> SCNN_D_7
I0313 11:50:40.498100 26950 net.cpp:124] Setting up SCNN_D_6/sum
I0313 11:50:40.498108 26950 net.cpp:131] Top shape: 1 64 1 80 (5120)
I0313 11:50:40.498112 26950 net.cpp:139] Memory required for data: 318259200
I0313 11:50:40.498114 26950 layer_factory.hpp:77] Creating layer SCNN_D_7_SCNN_D_6/sum_0_split
I0313 11:50:40.498119 26950 net.cpp:86] Creating Layer SCNN_D_7_SCNN_D_6/sum_0_split
I0313 11:50:40.498124 26950 net.cpp:408] SCNN_D_7_SCNN_D_6/sum_0_split <- SCNN_D_7
I0313 11:50:40.498131 26950 net.cpp:382] SCNN_D_7_SCNN_D_6/sum_0_split -> SCNN_D_7_SCNN_D_6/sum_0_split_0
I0313 11:50:40.498139 26950 net.cpp:382] SCNN_D_7_SCNN_D_6/sum_0_split -> SCNN_D_7_SCNN_D_6/sum_0_split_1
I0313 11:50:40.498191 26950 net.cpp:124] Setting up SCNN_D_7_SCNN_D_6/sum_0_split
I0313 11:50:40.498198 26950 net.cpp:131] Top shape: 1 64 1 80 (5120)
I0313 11:50:40.498203 26950 net.cpp:131] Top shape: 1 64 1 80 (5120)
I0313 11:50:40.498206 26950 net.cpp:139] Memory required for data: 318300160
I0313 11:50:40.498209 26950 layer_factory.hpp:77] Creating layer SCNN_D_7
I0313 11:50:40.498219 26950 net.cpp:86] Creating Layer SCNN_D_7
I0313 11:50:40.498224 26950 net.cpp:408] SCNN_D_7 <- SCNN_D_7_SCNN_D_6/sum_0_split_0
I0313 11:50:40.498230 26950 net.cpp:382] SCNN_D_7 -> SCNN_D_7/message
I0313 11:50:40.499409 26950 net.cpp:124] Setting up SCNN_D_7
I0313 11:50:40.499423 26950 net.cpp:131] Top shape: 1 64 1 80 (5120)
I0313 11:50:40.499428 26950 net.cpp:139] Memory required for data: 318320640
I0313 11:50:40.499433 26950 net.cpp:467] Sharing parameters 'SCNN_D_w' owned by layer 'SCNN_D_1', param index 0
I0313 11:50:40.499438 26950 layer_factory.hpp:77] Creating layer SCNN_D_7/relu
I0313 11:50:40.499444 26950 net.cpp:86] Creating Layer SCNN_D_7/relu
I0313 11:50:40.499449 26950 net.cpp:408] SCNN_D_7/relu <- SCNN_D_7/message
I0313 11:50:40.499456 26950 net.cpp:369] SCNN_D_7/relu -> SCNN_D_7/message (in-place)
I0313 11:50:40.499593 26950 net.cpp:124] Setting up SCNN_D_7/relu
I0313 11:50:40.499600 26950 net.cpp:131] Top shape: 1 64 1 80 (5120)
I0313 11:50:40.499604 26950 net.cpp:139] Memory required for data: 318341120
I0313 11:50:40.499608 26950 layer_factory.hpp:77] Creating layer SCNN_D_7/sum
I0313 11:50:40.499614 26950 net.cpp:86] Creating Layer SCNN_D_7/sum
I0313 11:50:40.499619 26950 net.cpp:408] SCNN_D_7/sum <- SCNN_D_7/message
I0313 11:50:40.499626 26950 net.cpp:408] SCNN_D_7/sum <- slice1_8
I0313 11:50:40.499632 26950 net.cpp:382] SCNN_D_7/sum -> SCNN_D_8
I0313 11:50:40.499661 26950 net.cpp:124] Setting up SCNN_D_7/sum
I0313 11:50:40.499670 26950 net.cpp:131] Top shape: 1 64 1 80 (5120)
I0313 11:50:40.499673 26950 net.cpp:139] Memory required for data: 318361600
I0313 11:50:40.499675 26950 layer_factory.hpp:77] Creating layer SCNN_D_8_SCNN_D_7/sum_0_split
I0313 11:50:40.499680 26950 net.cpp:86] Creating Layer SCNN_D_8_SCNN_D_7/sum_0_split
I0313 11:50:40.499686 26950 net.cpp:408] SCNN_D_8_SCNN_D_7/sum_0_split <- SCNN_D_8
I0313 11:50:40.499693 26950 net.cpp:382] SCNN_D_8_SCNN_D_7/sum_0_split -> SCNN_D_8_SCNN_D_7/sum_0_split_0
I0313 11:50:40.499701 26950 net.cpp:382] SCNN_D_8_SCNN_D_7/sum_0_split -> SCNN_D_8_SCNN_D_7/sum_0_split_1
I0313 11:50:40.499739 26950 net.cpp:124] Setting up SCNN_D_8_SCNN_D_7/sum_0_split
I0313 11:50:40.499747 26950 net.cpp:131] Top shape: 1 64 1 80 (5120)
I0313 11:50:40.499752 26950 net.cpp:131] Top shape: 1 64 1 80 (5120)
I0313 11:50:40.499754 26950 net.cpp:139] Memory required for data: 318402560
I0313 11:50:40.499758 26950 layer_factory.hpp:77] Creating layer SCNN_D_8
I0313 11:50:40.499764 26950 net.cpp:86] Creating Layer SCNN_D_8
I0313 11:50:40.499770 26950 net.cpp:408] SCNN_D_8 <- SCNN_D_8_SCNN_D_7/sum_0_split_0
I0313 11:50:40.499778 26950 net.cpp:382] SCNN_D_8 -> SCNN_D_8/message
I0313 11:50:40.500958 26950 net.cpp:124] Setting up SCNN_D_8
I0313 11:50:40.500972 26950 net.cpp:131] Top shape: 1 64 1 80 (5120)
I0313 11:50:40.500977 26950 net.cpp:139] Memory required for data: 318423040
I0313 11:50:40.500982 26950 net.cpp:467] Sharing parameters 'SCNN_D_w' owned by layer 'SCNN_D_1', param index 0
I0313 11:50:40.500985 26950 layer_factory.hpp:77] Creating layer SCNN_D_8/relu
I0313 11:50:40.500993 26950 net.cpp:86] Creating Layer SCNN_D_8/relu
I0313 11:50:40.500998 26950 net.cpp:408] SCNN_D_8/relu <- SCNN_D_8/message
I0313 11:50:40.501005 26950 net.cpp:369] SCNN_D_8/relu -> SCNN_D_8/message (in-place)
I0313 11:50:40.501135 26950 net.cpp:124] Setting up SCNN_D_8/relu
I0313 11:50:40.501143 26950 net.cpp:131] Top shape: 1 64 1 80 (5120)
I0313 11:50:40.501147 26950 net.cpp:139] Memory required for data: 318443520
I0313 11:50:40.501149 26950 layer_factory.hpp:77] Creating layer SCNN_D_8/sum
I0313 11:50:40.501155 26950 net.cpp:86] Creating Layer SCNN_D_8/sum
I0313 11:50:40.501161 26950 net.cpp:408] SCNN_D_8/sum <- SCNN_D_8/message
I0313 11:50:40.501168 26950 net.cpp:408] SCNN_D_8/sum <- slice1_9
I0313 11:50:40.501173 26950 net.cpp:382] SCNN_D_8/sum -> SCNN_D_9
I0313 11:50:40.501214 26950 net.cpp:124] Setting up SCNN_D_8/sum
I0313 11:50:40.501224 26950 net.cpp:131] Top shape: 1 64 1 80 (5120)
I0313 11:50:40.501227 26950 net.cpp:139] Memory required for data: 318464000
I0313 11:50:40.501230 26950 layer_factory.hpp:77] Creating layer SCNN_D_9_SCNN_D_8/sum_0_split
I0313 11:50:40.501235 26950 net.cpp:86] Creating Layer SCNN_D_9_SCNN_D_8/sum_0_split
I0313 11:50:40.501240 26950 net.cpp:408] SCNN_D_9_SCNN_D_8/sum_0_split <- SCNN_D_9
I0313 11:50:40.501247 26950 net.cpp:382] SCNN_D_9_SCNN_D_8/sum_0_split -> SCNN_D_9_SCNN_D_8/sum_0_split_0
I0313 11:50:40.501255 26950 net.cpp:382] SCNN_D_9_SCNN_D_8/sum_0_split -> SCNN_D_9_SCNN_D_8/sum_0_split_1
I0313 11:50:40.501292 26950 net.cpp:124] Setting up SCNN_D_9_SCNN_D_8/sum_0_split
I0313 11:50:40.501300 26950 net.cpp:131] Top shape: 1 64 1 80 (5120)
I0313 11:50:40.501304 26950 net.cpp:131] Top shape: 1 64 1 80 (5120)
I0313 11:50:40.501308 26950 net.cpp:139] Memory required for data: 318504960
I0313 11:50:40.501312 26950 layer_factory.hpp:77] Creating layer SCNN_D_9
I0313 11:50:40.501318 26950 net.cpp:86] Creating Layer SCNN_D_9
I0313 11:50:40.501324 26950 net.cpp:408] SCNN_D_9 <- SCNN_D_9_SCNN_D_8/sum_0_split_0
I0313 11:50:40.501332 26950 net.cpp:382] SCNN_D_9 -> SCNN_D_9/message
I0313 11:50:40.503551 26950 net.cpp:124] Setting up SCNN_D_9
I0313 11:50:40.503566 26950 net.cpp:131] Top shape: 1 64 1 80 (5120)
I0313 11:50:40.503571 26950 net.cpp:139] Memory required for data: 318525440
I0313 11:50:40.503581 26950 net.cpp:467] Sharing parameters 'SCNN_D_w' owned by layer 'SCNN_D_1', param index 0
I0313 11:50:40.503585 26950 layer_factory.hpp:77] Creating layer SCNN_D_9/relu
I0313 11:50:40.503590 26950 net.cpp:86] Creating Layer SCNN_D_9/relu
I0313 11:50:40.503595 26950 net.cpp:408] SCNN_D_9/relu <- SCNN_D_9/message
I0313 11:50:40.503602 26950 net.cpp:369] SCNN_D_9/relu -> SCNN_D_9/message (in-place)
I0313 11:50:40.503746 26950 net.cpp:124] Setting up SCNN_D_9/relu
I0313 11:50:40.503754 26950 net.cpp:131] Top shape: 1 64 1 80 (5120)
I0313 11:50:40.503758 26950 net.cpp:139] Memory required for data: 318545920
I0313 11:50:40.503762 26950 layer_factory.hpp:77] Creating layer SCNN_D_9/sum
I0313 11:50:40.503768 26950 net.cpp:86] Creating Layer SCNN_D_9/sum
I0313 11:50:40.503774 26950 net.cpp:408] SCNN_D_9/sum <- SCNN_D_9/message
I0313 11:50:40.503780 26950 net.cpp:408] SCNN_D_9/sum <- slice1_10
I0313 11:50:40.503787 26950 net.cpp:382] SCNN_D_9/sum -> SCNN_D_10
I0313 11:50:40.503816 26950 net.cpp:124] Setting up SCNN_D_9/sum
I0313 11:50:40.503824 26950 net.cpp:131] Top shape: 1 64 1 80 (5120)
I0313 11:50:40.503829 26950 net.cpp:139] Memory required for data: 318566400
I0313 11:50:40.503830 26950 layer_factory.hpp:77] Creating layer SCNN_D_10_SCNN_D_9/sum_0_split
I0313 11:50:40.503839 26950 net.cpp:86] Creating Layer SCNN_D_10_SCNN_D_9/sum_0_split
I0313 11:50:40.503842 26950 net.cpp:408] SCNN_D_10_SCNN_D_9/sum_0_split <- SCNN_D_10
I0313 11:50:40.503850 26950 net.cpp:382] SCNN_D_10_SCNN_D_9/sum_0_split -> SCNN_D_10_SCNN_D_9/sum_0_split_0
I0313 11:50:40.503859 26950 net.cpp:382] SCNN_D_10_SCNN_D_9/sum_0_split -> SCNN_D_10_SCNN_D_9/sum_0_split_1
I0313 11:50:40.503903 26950 net.cpp:124] Setting up SCNN_D_10_SCNN_D_9/sum_0_split
I0313 11:50:40.503912 26950 net.cpp:131] Top shape: 1 64 1 80 (5120)
I0313 11:50:40.503917 26950 net.cpp:131] Top shape: 1 64 1 80 (5120)
I0313 11:50:40.503921 26950 net.cpp:139] Memory required for data: 318607360
I0313 11:50:40.503923 26950 layer_factory.hpp:77] Creating layer SCNN_D_10
I0313 11:50:40.503931 26950 net.cpp:86] Creating Layer SCNN_D_10
I0313 11:50:40.503937 26950 net.cpp:408] SCNN_D_10 <- SCNN_D_10_SCNN_D_9/sum_0_split_0
I0313 11:50:40.503947 26950 net.cpp:382] SCNN_D_10 -> SCNN_D_10/message
I0313 11:50:40.505148 26950 net.cpp:124] Setting up SCNN_D_10
I0313 11:50:40.505162 26950 net.cpp:131] Top shape: 1 64 1 80 (5120)
I0313 11:50:40.505165 26950 net.cpp:139] Memory required for data: 318627840
I0313 11:50:40.505170 26950 net.cpp:467] Sharing parameters 'SCNN_D_w' owned by layer 'SCNN_D_1', param index 0
I0313 11:50:40.505174 26950 layer_factory.hpp:77] Creating layer SCNN_D_10/relu
I0313 11:50:40.505179 26950 net.cpp:86] Creating Layer SCNN_D_10/relu
I0313 11:50:40.505185 26950 net.cpp:408] SCNN_D_10/relu <- SCNN_D_10/message
I0313 11:50:40.505193 26950 net.cpp:369] SCNN_D_10/relu -> SCNN_D_10/message (in-place)
I0313 11:50:40.505735 26950 net.cpp:124] Setting up SCNN_D_10/relu
I0313 11:50:40.505745 26950 net.cpp:131] Top shape: 1 64 1 80 (5120)
I0313 11:50:40.505749 26950 net.cpp:139] Memory required for data: 318648320
I0313 11:50:40.505753 26950 layer_factory.hpp:77] Creating layer SCNN_D_10/sum
I0313 11:50:40.505759 26950 net.cpp:86] Creating Layer SCNN_D_10/sum
I0313 11:50:40.505767 26950 net.cpp:408] SCNN_D_10/sum <- SCNN_D_10/message
I0313 11:50:40.505775 26950 net.cpp:408] SCNN_D_10/sum <- slice1_11
I0313 11:50:40.505782 26950 net.cpp:382] SCNN_D_10/sum -> SCNN_D_11
I0313 11:50:40.505813 26950 net.cpp:124] Setting up SCNN_D_10/sum
I0313 11:50:40.505821 26950 net.cpp:131] Top shape: 1 64 1 80 (5120)
I0313 11:50:40.505825 26950 net.cpp:139] Memory required for data: 318668800
I0313 11:50:40.505828 26950 layer_factory.hpp:77] Creating layer SCNN_D_11_SCNN_D_10/sum_0_split
I0313 11:50:40.505836 26950 net.cpp:86] Creating Layer SCNN_D_11_SCNN_D_10/sum_0_split
I0313 11:50:40.505841 26950 net.cpp:408] SCNN_D_11_SCNN_D_10/sum_0_split <- SCNN_D_11
I0313 11:50:40.505848 26950 net.cpp:382] SCNN_D_11_SCNN_D_10/sum_0_split -> SCNN_D_11_SCNN_D_10/sum_0_split_0
I0313 11:50:40.505857 26950 net.cpp:382] SCNN_D_11_SCNN_D_10/sum_0_split -> SCNN_D_11_SCNN_D_10/sum_0_split_1
I0313 11:50:40.505898 26950 net.cpp:124] Setting up SCNN_D_11_SCNN_D_10/sum_0_split
I0313 11:50:40.505904 26950 net.cpp:131] Top shape: 1 64 1 80 (5120)
I0313 11:50:40.505908 26950 net.cpp:131] Top shape: 1 64 1 80 (5120)
I0313 11:50:40.505910 26950 net.cpp:139] Memory required for data: 318709760
I0313 11:50:40.505913 26950 layer_factory.hpp:77] Creating layer SCNN_D_11
I0313 11:50:40.505919 26950 net.cpp:86] Creating Layer SCNN_D_11
I0313 11:50:40.505925 26950 net.cpp:408] SCNN_D_11 <- SCNN_D_11_SCNN_D_10/sum_0_split_0
I0313 11:50:40.505934 26950 net.cpp:382] SCNN_D_11 -> SCNN_D_11/message
I0313 11:50:40.507774 26950 net.cpp:124] Setting up SCNN_D_11
I0313 11:50:40.507789 26950 net.cpp:131] Top shape: 1 64 1 80 (5120)
I0313 11:50:40.507794 26950 net.cpp:139] Memory required for data: 318730240
I0313 11:50:40.507798 26950 net.cpp:467] Sharing parameters 'SCNN_D_w' owned by layer 'SCNN_D_1', param index 0
I0313 11:50:40.507802 26950 layer_factory.hpp:77] Creating layer SCNN_D_11/relu
I0313 11:50:40.507808 26950 net.cpp:86] Creating Layer SCNN_D_11/relu
I0313 11:50:40.507814 26950 net.cpp:408] SCNN_D_11/relu <- SCNN_D_11/message
I0313 11:50:40.507822 26950 net.cpp:369] SCNN_D_11/relu -> SCNN_D_11/message (in-place)
I0313 11:50:40.507966 26950 net.cpp:124] Setting up SCNN_D_11/relu
I0313 11:50:40.507974 26950 net.cpp:131] Top shape: 1 64 1 80 (5120)
I0313 11:50:40.507977 26950 net.cpp:139] Memory required for data: 318750720
I0313 11:50:40.507979 26950 layer_factory.hpp:77] Creating layer SCNN_D_11/sum
I0313 11:50:40.507984 26950 net.cpp:86] Creating Layer SCNN_D_11/sum
I0313 11:50:40.507989 26950 net.cpp:408] SCNN_D_11/sum <- SCNN_D_11/message
I0313 11:50:40.507995 26950 net.cpp:408] SCNN_D_11/sum <- slice1_12
I0313 11:50:40.508002 26950 net.cpp:382] SCNN_D_11/sum -> SCNN_D_12
I0313 11:50:40.508031 26950 net.cpp:124] Setting up SCNN_D_11/sum
I0313 11:50:40.508039 26950 net.cpp:131] Top shape: 1 64 1 80 (5120)
I0313 11:50:40.508041 26950 net.cpp:139] Memory required for data: 318771200
I0313 11:50:40.508044 26950 layer_factory.hpp:77] Creating layer SCNN_D_12_SCNN_D_11/sum_0_split
I0313 11:50:40.508049 26950 net.cpp:86] Creating Layer SCNN_D_12_SCNN_D_11/sum_0_split
I0313 11:50:40.508052 26950 net.cpp:408] SCNN_D_12_SCNN_D_11/sum_0_split <- SCNN_D_12
I0313 11:50:40.508059 26950 net.cpp:382] SCNN_D_12_SCNN_D_11/sum_0_split -> SCNN_D_12_SCNN_D_11/sum_0_split_0
I0313 11:50:40.508066 26950 net.cpp:382] SCNN_D_12_SCNN_D_11/sum_0_split -> SCNN_D_12_SCNN_D_11/sum_0_split_1
I0313 11:50:40.508106 26950 net.cpp:124] Setting up SCNN_D_12_SCNN_D_11/sum_0_split
I0313 11:50:40.508113 26950 net.cpp:131] Top shape: 1 64 1 80 (5120)
I0313 11:50:40.508116 26950 net.cpp:131] Top shape: 1 64 1 80 (5120)
I0313 11:50:40.508118 26950 net.cpp:139] Memory required for data: 318812160
I0313 11:50:40.508121 26950 layer_factory.hpp:77] Creating layer SCNN_D_12
I0313 11:50:40.508128 26950 net.cpp:86] Creating Layer SCNN_D_12
I0313 11:50:40.508132 26950 net.cpp:408] SCNN_D_12 <- SCNN_D_12_SCNN_D_11/sum_0_split_0
I0313 11:50:40.508138 26950 net.cpp:382] SCNN_D_12 -> SCNN_D_12/message
I0313 11:50:40.510383 26950 net.cpp:124] Setting up SCNN_D_12
I0313 11:50:40.510401 26950 net.cpp:131] Top shape: 1 64 1 80 (5120)
I0313 11:50:40.510404 26950 net.cpp:139] Memory required for data: 318832640
I0313 11:50:40.510409 26950 net.cpp:467] Sharing parameters 'SCNN_D_w' owned by layer 'SCNN_D_1', param index 0
I0313 11:50:40.510412 26950 layer_factory.hpp:77] Creating layer SCNN_D_12/relu
I0313 11:50:40.510417 26950 net.cpp:86] Creating Layer SCNN_D_12/relu
I0313 11:50:40.510422 26950 net.cpp:408] SCNN_D_12/relu <- SCNN_D_12/message
I0313 11:50:40.510432 26950 net.cpp:369] SCNN_D_12/relu -> SCNN_D_12/message (in-place)
I0313 11:50:40.510572 26950 net.cpp:124] Setting up SCNN_D_12/relu
I0313 11:50:40.510581 26950 net.cpp:131] Top shape: 1 64 1 80 (5120)
I0313 11:50:40.510583 26950 net.cpp:139] Memory required for data: 318853120
I0313 11:50:40.510586 26950 layer_factory.hpp:77] Creating layer SCNN_D_12/sum
I0313 11:50:40.510591 26950 net.cpp:86] Creating Layer SCNN_D_12/sum
I0313 11:50:40.510596 26950 net.cpp:408] SCNN_D_12/sum <- SCNN_D_12/message
I0313 11:50:40.510601 26950 net.cpp:408] SCNN_D_12/sum <- slice1_13
I0313 11:50:40.510607 26950 net.cpp:382] SCNN_D_12/sum -> SCNN_D_13
I0313 11:50:40.510640 26950 net.cpp:124] Setting up SCNN_D_12/sum
I0313 11:50:40.510648 26950 net.cpp:131] Top shape: 1 64 1 80 (5120)
I0313 11:50:40.510650 26950 net.cpp:139] Memory required for data: 318873600
I0313 11:50:40.510653 26950 layer_factory.hpp:77] Creating layer SCNN_D_13_SCNN_D_12/sum_0_split
I0313 11:50:40.510656 26950 net.cpp:86] Creating Layer SCNN_D_13_SCNN_D_12/sum_0_split
I0313 11:50:40.510660 26950 net.cpp:408] SCNN_D_13_SCNN_D_12/sum_0_split <- SCNN_D_13
I0313 11:50:40.510666 26950 net.cpp:382] SCNN_D_13_SCNN_D_12/sum_0_split -> SCNN_D_13_SCNN_D_12/sum_0_split_0
I0313 11:50:40.510674 26950 net.cpp:382] SCNN_D_13_SCNN_D_12/sum_0_split -> SCNN_D_13_SCNN_D_12/sum_0_split_1
I0313 11:50:40.510715 26950 net.cpp:124] Setting up SCNN_D_13_SCNN_D_12/sum_0_split
I0313 11:50:40.510721 26950 net.cpp:131] Top shape: 1 64 1 80 (5120)
I0313 11:50:40.510725 26950 net.cpp:131] Top shape: 1 64 1 80 (5120)
I0313 11:50:40.510726 26950 net.cpp:139] Memory required for data: 318914560
I0313 11:50:40.510728 26950 layer_factory.hpp:77] Creating layer SCNN_D_13
I0313 11:50:40.510736 26950 net.cpp:86] Creating Layer SCNN_D_13
I0313 11:50:40.510740 26950 net.cpp:408] SCNN_D_13 <- SCNN_D_13_SCNN_D_12/sum_0_split_0
I0313 11:50:40.510748 26950 net.cpp:382] SCNN_D_13 -> SCNN_D_13/message
I0313 11:50:40.511976 26950 net.cpp:124] Setting up SCNN_D_13
I0313 11:50:40.511991 26950 net.cpp:131] Top shape: 1 64 1 80 (5120)
I0313 11:50:40.511994 26950 net.cpp:139] Memory required for data: 318935040
I0313 11:50:40.511999 26950 net.cpp:467] Sharing parameters 'SCNN_D_w' owned by layer 'SCNN_D_1', param index 0
I0313 11:50:40.512002 26950 layer_factory.hpp:77] Creating layer SCNN_D_13/relu
I0313 11:50:40.512007 26950 net.cpp:86] Creating Layer SCNN_D_13/relu
I0313 11:50:40.512012 26950 net.cpp:408] SCNN_D_13/relu <- SCNN_D_13/message
I0313 11:50:40.512017 26950 net.cpp:369] SCNN_D_13/relu -> SCNN_D_13/message (in-place)
I0313 11:50:40.512156 26950 net.cpp:124] Setting up SCNN_D_13/relu
I0313 11:50:40.512164 26950 net.cpp:131] Top shape: 1 64 1 80 (5120)
I0313 11:50:40.512168 26950 net.cpp:139] Memory required for data: 318955520
I0313 11:50:40.512171 26950 layer_factory.hpp:77] Creating layer SCNN_D_13/sum
I0313 11:50:40.512177 26950 net.cpp:86] Creating Layer SCNN_D_13/sum
I0313 11:50:40.512184 26950 net.cpp:408] SCNN_D_13/sum <- SCNN_D_13/message
I0313 11:50:40.512190 26950 net.cpp:408] SCNN_D_13/sum <- slice1_14
I0313 11:50:40.512195 26950 net.cpp:382] SCNN_D_13/sum -> SCNN_D_14
I0313 11:50:40.512230 26950 net.cpp:124] Setting up SCNN_D_13/sum
I0313 11:50:40.512238 26950 net.cpp:131] Top shape: 1 64 1 80 (5120)
I0313 11:50:40.512243 26950 net.cpp:139] Memory required for data: 318976000
I0313 11:50:40.512244 26950 layer_factory.hpp:77] Creating layer SCNN_D_14_SCNN_D_13/sum_0_split
I0313 11:50:40.512251 26950 net.cpp:86] Creating Layer SCNN_D_14_SCNN_D_13/sum_0_split
I0313 11:50:40.512256 26950 net.cpp:408] SCNN_D_14_SCNN_D_13/sum_0_split <- SCNN_D_14
I0313 11:50:40.512264 26950 net.cpp:382] SCNN_D_14_SCNN_D_13/sum_0_split -> SCNN_D_14_SCNN_D_13/sum_0_split_0
I0313 11:50:40.512274 26950 net.cpp:382] SCNN_D_14_SCNN_D_13/sum_0_split -> SCNN_D_14_SCNN_D_13/sum_0_split_1
I0313 11:50:40.512312 26950 net.cpp:124] Setting up SCNN_D_14_SCNN_D_13/sum_0_split
I0313 11:50:40.512321 26950 net.cpp:131] Top shape: 1 64 1 80 (5120)
I0313 11:50:40.512326 26950 net.cpp:131] Top shape: 1 64 1 80 (5120)
I0313 11:50:40.512329 26950 net.cpp:139] Memory required for data: 319016960
I0313 11:50:40.512332 26950 layer_factory.hpp:77] Creating layer SCNN_D_14
I0313 11:50:40.512341 26950 net.cpp:86] Creating Layer SCNN_D_14
I0313 11:50:40.512346 26950 net.cpp:408] SCNN_D_14 <- SCNN_D_14_SCNN_D_13/sum_0_split_0
I0313 11:50:40.512353 26950 net.cpp:382] SCNN_D_14 -> SCNN_D_14/message
I0313 11:50:40.513552 26950 net.cpp:124] Setting up SCNN_D_14
I0313 11:50:40.513566 26950 net.cpp:131] Top shape: 1 64 1 80 (5120)
I0313 11:50:40.513569 26950 net.cpp:139] Memory required for data: 319037440
I0313 11:50:40.513573 26950 net.cpp:467] Sharing parameters 'SCNN_D_w' owned by layer 'SCNN_D_1', param index 0
I0313 11:50:40.513576 26950 layer_factory.hpp:77] Creating layer SCNN_D_14/relu
I0313 11:50:40.513582 26950 net.cpp:86] Creating Layer SCNN_D_14/relu
I0313 11:50:40.513589 26950 net.cpp:408] SCNN_D_14/relu <- SCNN_D_14/message
I0313 11:50:40.513597 26950 net.cpp:369] SCNN_D_14/relu -> SCNN_D_14/message (in-place)
I0313 11:50:40.513734 26950 net.cpp:124] Setting up SCNN_D_14/relu
I0313 11:50:40.513742 26950 net.cpp:131] Top shape: 1 64 1 80 (5120)
I0313 11:50:40.513746 26950 net.cpp:139] Memory required for data: 319057920
I0313 11:50:40.513748 26950 layer_factory.hpp:77] Creating layer SCNN_D_14/sum
I0313 11:50:40.513756 26950 net.cpp:86] Creating Layer SCNN_D_14/sum
I0313 11:50:40.513761 26950 net.cpp:408] SCNN_D_14/sum <- SCNN_D_14/message
I0313 11:50:40.513768 26950 net.cpp:408] SCNN_D_14/sum <- slice1_15
I0313 11:50:40.513777 26950 net.cpp:382] SCNN_D_14/sum -> SCNN_D_15
I0313 11:50:40.513806 26950 net.cpp:124] Setting up SCNN_D_14/sum
I0313 11:50:40.513813 26950 net.cpp:131] Top shape: 1 64 1 80 (5120)
I0313 11:50:40.513818 26950 net.cpp:139] Memory required for data: 319078400
I0313 11:50:40.513820 26950 layer_factory.hpp:77] Creating layer SCNN_D_15_SCNN_D_14/sum_0_split
I0313 11:50:40.513828 26950 net.cpp:86] Creating Layer SCNN_D_15_SCNN_D_14/sum_0_split
I0313 11:50:40.513833 26950 net.cpp:408] SCNN_D_15_SCNN_D_14/sum_0_split <- SCNN_D_15
I0313 11:50:40.513839 26950 net.cpp:382] SCNN_D_15_SCNN_D_14/sum_0_split -> SCNN_D_15_SCNN_D_14/sum_0_split_0
I0313 11:50:40.513849 26950 net.cpp:382] SCNN_D_15_SCNN_D_14/sum_0_split -> SCNN_D_15_SCNN_D_14/sum_0_split_1
I0313 11:50:40.513890 26950 net.cpp:124] Setting up SCNN_D_15_SCNN_D_14/sum_0_split
I0313 11:50:40.513898 26950 net.cpp:131] Top shape: 1 64 1 80 (5120)
I0313 11:50:40.513903 26950 net.cpp:131] Top shape: 1 64 1 80 (5120)
I0313 11:50:40.513907 26950 net.cpp:139] Memory required for data: 319119360
I0313 11:50:40.513911 26950 layer_factory.hpp:77] Creating layer SCNN_D_15
I0313 11:50:40.513918 26950 net.cpp:86] Creating Layer SCNN_D_15
I0313 11:50:40.513923 26950 net.cpp:408] SCNN_D_15 <- SCNN_D_15_SCNN_D_14/sum_0_split_0
I0313 11:50:40.513931 26950 net.cpp:382] SCNN_D_15 -> SCNN_D_15/message
I0313 11:50:40.515122 26950 net.cpp:124] Setting up SCNN_D_15
I0313 11:50:40.515136 26950 net.cpp:131] Top shape: 1 64 1 80 (5120)
I0313 11:50:40.515141 26950 net.cpp:139] Memory required for data: 319139840
I0313 11:50:40.515146 26950 net.cpp:467] Sharing parameters 'SCNN_D_w' owned by layer 'SCNN_D_1', param index 0
I0313 11:50:40.515149 26950 layer_factory.hpp:77] Creating layer SCNN_D_15/relu
I0313 11:50:40.515153 26950 net.cpp:86] Creating Layer SCNN_D_15/relu
I0313 11:50:40.515159 26950 net.cpp:408] SCNN_D_15/relu <- SCNN_D_15/message
I0313 11:50:40.515166 26950 net.cpp:369] SCNN_D_15/relu -> SCNN_D_15/message (in-place)
I0313 11:50:40.516527 26950 net.cpp:124] Setting up SCNN_D_15/relu
I0313 11:50:40.516541 26950 net.cpp:131] Top shape: 1 64 1 80 (5120)
I0313 11:50:40.516544 26950 net.cpp:139] Memory required for data: 319160320
I0313 11:50:40.516549 26950 layer_factory.hpp:77] Creating layer SCNN_D_15/sum
I0313 11:50:40.516556 26950 net.cpp:86] Creating Layer SCNN_D_15/sum
I0313 11:50:40.516563 26950 net.cpp:408] SCNN_D_15/sum <- SCNN_D_15/message
I0313 11:50:40.516571 26950 net.cpp:408] SCNN_D_15/sum <- slice1_16
I0313 11:50:40.516578 26950 net.cpp:382] SCNN_D_15/sum -> SCNN_D_16
I0313 11:50:40.516613 26950 net.cpp:124] Setting up SCNN_D_15/sum
I0313 11:50:40.516621 26950 net.cpp:131] Top shape: 1 64 1 80 (5120)
I0313 11:50:40.516625 26950 net.cpp:139] Memory required for data: 319180800
I0313 11:50:40.516628 26950 layer_factory.hpp:77] Creating layer SCNN_D_16_SCNN_D_15/sum_0_split
I0313 11:50:40.516635 26950 net.cpp:86] Creating Layer SCNN_D_16_SCNN_D_15/sum_0_split
I0313 11:50:40.516641 26950 net.cpp:408] SCNN_D_16_SCNN_D_15/sum_0_split <- SCNN_D_16
I0313 11:50:40.516649 26950 net.cpp:382] SCNN_D_16_SCNN_D_15/sum_0_split -> SCNN_D_16_SCNN_D_15/sum_0_split_0
I0313 11:50:40.516655 26950 net.cpp:382] SCNN_D_16_SCNN_D_15/sum_0_split -> SCNN_D_16_SCNN_D_15/sum_0_split_1
I0313 11:50:40.516697 26950 net.cpp:124] Setting up SCNN_D_16_SCNN_D_15/sum_0_split
I0313 11:50:40.516705 26950 net.cpp:131] Top shape: 1 64 1 80 (5120)
I0313 11:50:40.516710 26950 net.cpp:131] Top shape: 1 64 1 80 (5120)
I0313 11:50:40.516714 26950 net.cpp:139] Memory required for data: 319221760
I0313 11:50:40.516716 26950 layer_factory.hpp:77] Creating layer SCNN_D_16
I0313 11:50:40.516726 26950 net.cpp:86] Creating Layer SCNN_D_16
I0313 11:50:40.516731 26950 net.cpp:408] SCNN_D_16 <- SCNN_D_16_SCNN_D_15/sum_0_split_0
I0313 11:50:40.516739 26950 net.cpp:382] SCNN_D_16 -> SCNN_D_16/message
I0313 11:50:40.517951 26950 net.cpp:124] Setting up SCNN_D_16
I0313 11:50:40.517962 26950 net.cpp:131] Top shape: 1 64 1 80 (5120)
I0313 11:50:40.517967 26950 net.cpp:139] Memory required for data: 319242240
I0313 11:50:40.517971 26950 net.cpp:467] Sharing parameters 'SCNN_D_w' owned by layer 'SCNN_D_1', param index 0
I0313 11:50:40.517976 26950 layer_factory.hpp:77] Creating layer SCNN_D_16/relu
I0313 11:50:40.517982 26950 net.cpp:86] Creating Layer SCNN_D_16/relu
I0313 11:50:40.517988 26950 net.cpp:408] SCNN_D_16/relu <- SCNN_D_16/message
I0313 11:50:40.517995 26950 net.cpp:369] SCNN_D_16/relu -> SCNN_D_16/message (in-place)
I0313 11:50:40.518133 26950 net.cpp:124] Setting up SCNN_D_16/relu
I0313 11:50:40.518141 26950 net.cpp:131] Top shape: 1 64 1 80 (5120)
I0313 11:50:40.518146 26950 net.cpp:139] Memory required for data: 319262720
I0313 11:50:40.518147 26950 layer_factory.hpp:77] Creating layer SCNN_D_16/sum
I0313 11:50:40.518152 26950 net.cpp:86] Creating Layer SCNN_D_16/sum
I0313 11:50:40.518158 26950 net.cpp:408] SCNN_D_16/sum <- SCNN_D_16/message
I0313 11:50:40.518167 26950 net.cpp:408] SCNN_D_16/sum <- slice1_17
I0313 11:50:40.518172 26950 net.cpp:382] SCNN_D_16/sum -> SCNN_D_17
I0313 11:50:40.518203 26950 net.cpp:124] Setting up SCNN_D_16/sum
I0313 11:50:40.518210 26950 net.cpp:131] Top shape: 1 64 1 80 (5120)
I0313 11:50:40.518214 26950 net.cpp:139] Memory required for data: 319283200
I0313 11:50:40.518218 26950 layer_factory.hpp:77] Creating layer SCNN_D_17_SCNN_D_16/sum_0_split
I0313 11:50:40.518225 26950 net.cpp:86] Creating Layer SCNN_D_17_SCNN_D_16/sum_0_split
I0313 11:50:40.518231 26950 net.cpp:408] SCNN_D_17_SCNN_D_16/sum_0_split <- SCNN_D_17
I0313 11:50:40.518239 26950 net.cpp:382] SCNN_D_17_SCNN_D_16/sum_0_split -> SCNN_D_17_SCNN_D_16/sum_0_split_0
I0313 11:50:40.518249 26950 net.cpp:382] SCNN_D_17_SCNN_D_16/sum_0_split -> SCNN_D_17_SCNN_D_16/sum_0_split_1
I0313 11:50:40.518293 26950 net.cpp:124] Setting up SCNN_D_17_SCNN_D_16/sum_0_split
I0313 11:50:40.518301 26950 net.cpp:131] Top shape: 1 64 1 80 (5120)
I0313 11:50:40.518306 26950 net.cpp:131] Top shape: 1 64 1 80 (5120)
I0313 11:50:40.518309 26950 net.cpp:139] Memory required for data: 319324160
I0313 11:50:40.518312 26950 layer_factory.hpp:77] Creating layer SCNN_D_17
I0313 11:50:40.518321 26950 net.cpp:86] Creating Layer SCNN_D_17
I0313 11:50:40.518327 26950 net.cpp:408] SCNN_D_17 <- SCNN_D_17_SCNN_D_16/sum_0_split_0
I0313 11:50:40.518334 26950 net.cpp:382] SCNN_D_17 -> SCNN_D_17/message
I0313 11:50:40.519536 26950 net.cpp:124] Setting up SCNN_D_17
I0313 11:50:40.519548 26950 net.cpp:131] Top shape: 1 64 1 80 (5120)
I0313 11:50:40.519553 26950 net.cpp:139] Memory required for data: 319344640
I0313 11:50:40.519557 26950 net.cpp:467] Sharing parameters 'SCNN_D_w' owned by layer 'SCNN_D_1', param index 0
I0313 11:50:40.519562 26950 layer_factory.hpp:77] Creating layer SCNN_D_17/relu
I0313 11:50:40.519567 26950 net.cpp:86] Creating Layer SCNN_D_17/relu
I0313 11:50:40.519578 26950 net.cpp:408] SCNN_D_17/relu <- SCNN_D_17/message
I0313 11:50:40.519587 26950 net.cpp:369] SCNN_D_17/relu -> SCNN_D_17/message (in-place)
I0313 11:50:40.519726 26950 net.cpp:124] Setting up SCNN_D_17/relu
I0313 11:50:40.519733 26950 net.cpp:131] Top shape: 1 64 1 80 (5120)
I0313 11:50:40.519737 26950 net.cpp:139] Memory required for data: 319365120
I0313 11:50:40.519740 26950 layer_factory.hpp:77] Creating layer SCNN_D_17/sum
I0313 11:50:40.519745 26950 net.cpp:86] Creating Layer SCNN_D_17/sum
I0313 11:50:40.519752 26950 net.cpp:408] SCNN_D_17/sum <- SCNN_D_17/message
I0313 11:50:40.519759 26950 net.cpp:408] SCNN_D_17/sum <- slice1_18
I0313 11:50:40.519767 26950 net.cpp:382] SCNN_D_17/sum -> SCNN_D_18
I0313 11:50:40.519796 26950 net.cpp:124] Setting up SCNN_D_17/sum
I0313 11:50:40.519805 26950 net.cpp:131] Top shape: 1 64 1 80 (5120)
I0313 11:50:40.519809 26950 net.cpp:139] Memory required for data: 319385600
I0313 11:50:40.519811 26950 layer_factory.hpp:77] Creating layer SCNN_D_18_SCNN_D_17/sum_0_split
I0313 11:50:40.519817 26950 net.cpp:86] Creating Layer SCNN_D_18_SCNN_D_17/sum_0_split
I0313 11:50:40.519824 26950 net.cpp:408] SCNN_D_18_SCNN_D_17/sum_0_split <- SCNN_D_18
I0313 11:50:40.519830 26950 net.cpp:382] SCNN_D_18_SCNN_D_17/sum_0_split -> SCNN_D_18_SCNN_D_17/sum_0_split_0
I0313 11:50:40.519839 26950 net.cpp:382] SCNN_D_18_SCNN_D_17/sum_0_split -> SCNN_D_18_SCNN_D_17/sum_0_split_1
I0313 11:50:40.519881 26950 net.cpp:124] Setting up SCNN_D_18_SCNN_D_17/sum_0_split
I0313 11:50:40.519887 26950 net.cpp:131] Top shape: 1 64 1 80 (5120)
I0313 11:50:40.519892 26950 net.cpp:131] Top shape: 1 64 1 80 (5120)
I0313 11:50:40.519896 26950 net.cpp:139] Memory required for data: 319426560
I0313 11:50:40.519898 26950 layer_factory.hpp:77] Creating layer SCNN_D_18
I0313 11:50:40.519906 26950 net.cpp:86] Creating Layer SCNN_D_18
I0313 11:50:40.519912 26950 net.cpp:408] SCNN_D_18 <- SCNN_D_18_SCNN_D_17/sum_0_split_0
I0313 11:50:40.519920 26950 net.cpp:382] SCNN_D_18 -> SCNN_D_18/message
I0313 11:50:40.521138 26950 net.cpp:124] Setting up SCNN_D_18
I0313 11:50:40.521152 26950 net.cpp:131] Top shape: 1 64 1 80 (5120)
I0313 11:50:40.521157 26950 net.cpp:139] Memory required for data: 319447040
I0313 11:50:40.521162 26950 net.cpp:467] Sharing parameters 'SCNN_D_w' owned by layer 'SCNN_D_1', param index 0
I0313 11:50:40.521165 26950 layer_factory.hpp:77] Creating layer SCNN_D_18/relu
I0313 11:50:40.521170 26950 net.cpp:86] Creating Layer SCNN_D_18/relu
I0313 11:50:40.521176 26950 net.cpp:408] SCNN_D_18/relu <- SCNN_D_18/message
I0313 11:50:40.521183 26950 net.cpp:369] SCNN_D_18/relu -> SCNN_D_18/message (in-place)
I0313 11:50:40.521322 26950 net.cpp:124] Setting up SCNN_D_18/relu
I0313 11:50:40.521330 26950 net.cpp:131] Top shape: 1 64 1 80 (5120)
I0313 11:50:40.521334 26950 net.cpp:139] Memory required for data: 319467520
I0313 11:50:40.521337 26950 layer_factory.hpp:77] Creating layer SCNN_D_18/sum
I0313 11:50:40.521344 26950 net.cpp:86] Creating Layer SCNN_D_18/sum
I0313 11:50:40.521350 26950 net.cpp:408] SCNN_D_18/sum <- SCNN_D_18/message
I0313 11:50:40.521358 26950 net.cpp:408] SCNN_D_18/sum <- slice1_19
I0313 11:50:40.521363 26950 net.cpp:382] SCNN_D_18/sum -> SCNN_D_19
I0313 11:50:40.521394 26950 net.cpp:124] Setting up SCNN_D_18/sum
I0313 11:50:40.521402 26950 net.cpp:131] Top shape: 1 64 1 80 (5120)
I0313 11:50:40.521406 26950 net.cpp:139] Memory required for data: 319488000
I0313 11:50:40.521409 26950 layer_factory.hpp:77] Creating layer SCNN_D_19_SCNN_D_18/sum_0_split
I0313 11:50:40.521414 26950 net.cpp:86] Creating Layer SCNN_D_19_SCNN_D_18/sum_0_split
I0313 11:50:40.521420 26950 net.cpp:408] SCNN_D_19_SCNN_D_18/sum_0_split <- SCNN_D_19
I0313 11:50:40.521428 26950 net.cpp:382] SCNN_D_19_SCNN_D_18/sum_0_split -> SCNN_D_19_SCNN_D_18/sum_0_split_0
I0313 11:50:40.521436 26950 net.cpp:382] SCNN_D_19_SCNN_D_18/sum_0_split -> SCNN_D_19_SCNN_D_18/sum_0_split_1
I0313 11:50:40.521476 26950 net.cpp:124] Setting up SCNN_D_19_SCNN_D_18/sum_0_split
I0313 11:50:40.521483 26950 net.cpp:131] Top shape: 1 64 1 80 (5120)
I0313 11:50:40.521488 26950 net.cpp:131] Top shape: 1 64 1 80 (5120)
I0313 11:50:40.521492 26950 net.cpp:139] Memory required for data: 319528960
I0313 11:50:40.521495 26950 layer_factory.hpp:77] Creating layer SCNN_D_19
I0313 11:50:40.521502 26950 net.cpp:86] Creating Layer SCNN_D_19
I0313 11:50:40.521508 26950 net.cpp:408] SCNN_D_19 <- SCNN_D_19_SCNN_D_18/sum_0_split_0
I0313 11:50:40.521515 26950 net.cpp:382] SCNN_D_19 -> SCNN_D_19/message
I0313 11:50:40.523747 26950 net.cpp:124] Setting up SCNN_D_19
I0313 11:50:40.523766 26950 net.cpp:131] Top shape: 1 64 1 80 (5120)
I0313 11:50:40.523769 26950 net.cpp:139] Memory required for data: 319549440
I0313 11:50:40.523777 26950 net.cpp:467] Sharing parameters 'SCNN_D_w' owned by layer 'SCNN_D_1', param index 0
I0313 11:50:40.523780 26950 layer_factory.hpp:77] Creating layer SCNN_D_19/relu
I0313 11:50:40.523785 26950 net.cpp:86] Creating Layer SCNN_D_19/relu
I0313 11:50:40.523792 26950 net.cpp:408] SCNN_D_19/relu <- SCNN_D_19/message
I0313 11:50:40.523800 26950 net.cpp:369] SCNN_D_19/relu -> SCNN_D_19/message (in-place)
I0313 11:50:40.524148 26950 net.cpp:124] Setting up SCNN_D_19/relu
I0313 11:50:40.524159 26950 net.cpp:131] Top shape: 1 64 1 80 (5120)
I0313 11:50:40.524163 26950 net.cpp:139] Memory required for data: 319569920
I0313 11:50:40.524166 26950 layer_factory.hpp:77] Creating layer SCNN_D_19/sum
I0313 11:50:40.524173 26950 net.cpp:86] Creating Layer SCNN_D_19/sum
I0313 11:50:40.524180 26950 net.cpp:408] SCNN_D_19/sum <- SCNN_D_19/message
I0313 11:50:40.524188 26950 net.cpp:408] SCNN_D_19/sum <- slice1_20
I0313 11:50:40.524194 26950 net.cpp:382] SCNN_D_19/sum -> SCNN_D_20
I0313 11:50:40.524230 26950 net.cpp:124] Setting up SCNN_D_19/sum
I0313 11:50:40.524237 26950 net.cpp:131] Top shape: 1 64 1 80 (5120)
I0313 11:50:40.524241 26950 net.cpp:139] Memory required for data: 319590400
I0313 11:50:40.524245 26950 layer_factory.hpp:77] Creating layer SCNN_D_20_SCNN_D_19/sum_0_split
I0313 11:50:40.524251 26950 net.cpp:86] Creating Layer SCNN_D_20_SCNN_D_19/sum_0_split
I0313 11:50:40.524256 26950 net.cpp:408] SCNN_D_20_SCNN_D_19/sum_0_split <- SCNN_D_20
I0313 11:50:40.524264 26950 net.cpp:382] SCNN_D_20_SCNN_D_19/sum_0_split -> SCNN_D_20_SCNN_D_19/sum_0_split_0
I0313 11:50:40.524272 26950 net.cpp:382] SCNN_D_20_SCNN_D_19/sum_0_split -> SCNN_D_20_SCNN_D_19/sum_0_split_1
I0313 11:50:40.524314 26950 net.cpp:124] Setting up SCNN_D_20_SCNN_D_19/sum_0_split
I0313 11:50:40.524322 26950 net.cpp:131] Top shape: 1 64 1 80 (5120)
I0313 11:50:40.524327 26950 net.cpp:131] Top shape: 1 64 1 80 (5120)
I0313 11:50:40.524330 26950 net.cpp:139] Memory required for data: 319631360
I0313 11:50:40.524333 26950 layer_factory.hpp:77] Creating layer SCNN_D_20
I0313 11:50:40.524343 26950 net.cpp:86] Creating Layer SCNN_D_20
I0313 11:50:40.524348 26950 net.cpp:408] SCNN_D_20 <- SCNN_D_20_SCNN_D_19/sum_0_split_0
I0313 11:50:40.524355 26950 net.cpp:382] SCNN_D_20 -> SCNN_D_20/message
I0313 11:50:40.525355 26950 net.cpp:124] Setting up SCNN_D_20
I0313 11:50:40.525367 26950 net.cpp:131] Top shape: 1 64 1 80 (5120)
I0313 11:50:40.525377 26950 net.cpp:139] Memory required for data: 319651840
I0313 11:50:40.525382 26950 net.cpp:467] Sharing parameters 'SCNN_D_w' owned by layer 'SCNN_D_1', param index 0
I0313 11:50:40.525387 26950 layer_factory.hpp:77] Creating layer SCNN_D_20/relu
I0313 11:50:40.525390 26950 net.cpp:86] Creating Layer SCNN_D_20/relu
I0313 11:50:40.525396 26950 net.cpp:408] SCNN_D_20/relu <- SCNN_D_20/message
I0313 11:50:40.525405 26950 net.cpp:369] SCNN_D_20/relu -> SCNN_D_20/message (in-place)
I0313 11:50:40.525753 26950 net.cpp:124] Setting up SCNN_D_20/relu
I0313 11:50:40.525764 26950 net.cpp:131] Top shape: 1 64 1 80 (5120)
I0313 11:50:40.525768 26950 net.cpp:139] Memory required for data: 319672320
I0313 11:50:40.525770 26950 layer_factory.hpp:77] Creating layer SCNN_D_20/sum
I0313 11:50:40.525776 26950 net.cpp:86] Creating Layer SCNN_D_20/sum
I0313 11:50:40.525784 26950 net.cpp:408] SCNN_D_20/sum <- SCNN_D_20/message
I0313 11:50:40.525791 26950 net.cpp:408] SCNN_D_20/sum <- slice1_21
I0313 11:50:40.525799 26950 net.cpp:382] SCNN_D_20/sum -> SCNN_D_21
I0313 11:50:40.525830 26950 net.cpp:124] Setting up SCNN_D_20/sum
I0313 11:50:40.525840 26950 net.cpp:131] Top shape: 1 64 1 80 (5120)
I0313 11:50:40.525843 26950 net.cpp:139] Memory required for data: 319692800
I0313 11:50:40.525846 26950 layer_factory.hpp:77] Creating layer SCNN_D_21_SCNN_D_20/sum_0_split
I0313 11:50:40.525851 26950 net.cpp:86] Creating Layer SCNN_D_21_SCNN_D_20/sum_0_split
I0313 11:50:40.525854 26950 net.cpp:408] SCNN_D_21_SCNN_D_20/sum_0_split <- SCNN_D_21
I0313 11:50:40.525861 26950 net.cpp:382] SCNN_D_21_SCNN_D_20/sum_0_split -> SCNN_D_21_SCNN_D_20/sum_0_split_0
I0313 11:50:40.525869 26950 net.cpp:382] SCNN_D_21_SCNN_D_20/sum_0_split -> SCNN_D_21_SCNN_D_20/sum_0_split_1
I0313 11:50:40.525913 26950 net.cpp:124] Setting up SCNN_D_21_SCNN_D_20/sum_0_split
I0313 11:50:40.525920 26950 net.cpp:131] Top shape: 1 64 1 80 (5120)
I0313 11:50:40.525925 26950 net.cpp:131] Top shape: 1 64 1 80 (5120)
I0313 11:50:40.525928 26950 net.cpp:139] Memory required for data: 319733760
I0313 11:50:40.525931 26950 layer_factory.hpp:77] Creating layer SCNN_D_21
I0313 11:50:40.525939 26950 net.cpp:86] Creating Layer SCNN_D_21
I0313 11:50:40.525944 26950 net.cpp:408] SCNN_D_21 <- SCNN_D_21_SCNN_D_20/sum_0_split_0
I0313 11:50:40.525954 26950 net.cpp:382] SCNN_D_21 -> SCNN_D_21/message
I0313 11:50:40.527150 26950 net.cpp:124] Setting up SCNN_D_21
I0313 11:50:40.527176 26950 net.cpp:131] Top shape: 1 64 1 80 (5120)
I0313 11:50:40.527180 26950 net.cpp:139] Memory required for data: 319754240
I0313 11:50:40.527185 26950 net.cpp:467] Sharing parameters 'SCNN_D_w' owned by layer 'SCNN_D_1', param index 0
I0313 11:50:40.527189 26950 layer_factory.hpp:77] Creating layer SCNN_D_21/relu
I0313 11:50:40.527195 26950 net.cpp:86] Creating Layer SCNN_D_21/relu
I0313 11:50:40.527201 26950 net.cpp:408] SCNN_D_21/relu <- SCNN_D_21/message
I0313 11:50:40.527209 26950 net.cpp:369] SCNN_D_21/relu -> SCNN_D_21/message (in-place)
I0313 11:50:40.527343 26950 net.cpp:124] Setting up SCNN_D_21/relu
I0313 11:50:40.527353 26950 net.cpp:131] Top shape: 1 64 1 80 (5120)
I0313 11:50:40.527356 26950 net.cpp:139] Memory required for data: 319774720
I0313 11:50:40.527359 26950 layer_factory.hpp:77] Creating layer SCNN_D_21/sum
I0313 11:50:40.527364 26950 net.cpp:86] Creating Layer SCNN_D_21/sum
I0313 11:50:40.527370 26950 net.cpp:408] SCNN_D_21/sum <- SCNN_D_21/message
I0313 11:50:40.527377 26950 net.cpp:408] SCNN_D_21/sum <- slice1_22
I0313 11:50:40.527382 26950 net.cpp:382] SCNN_D_21/sum -> SCNN_D_22
I0313 11:50:40.527413 26950 net.cpp:124] Setting up SCNN_D_21/sum
I0313 11:50:40.527421 26950 net.cpp:131] Top shape: 1 64 1 80 (5120)
I0313 11:50:40.527424 26950 net.cpp:139] Memory required for data: 319795200
I0313 11:50:40.527427 26950 layer_factory.hpp:77] Creating layer SCNN_D_22_SCNN_D_21/sum_0_split
I0313 11:50:40.527434 26950 net.cpp:86] Creating Layer SCNN_D_22_SCNN_D_21/sum_0_split
I0313 11:50:40.527441 26950 net.cpp:408] SCNN_D_22_SCNN_D_21/sum_0_split <- SCNN_D_22
I0313 11:50:40.527446 26950 net.cpp:382] SCNN_D_22_SCNN_D_21/sum_0_split -> SCNN_D_22_SCNN_D_21/sum_0_split_0
I0313 11:50:40.527454 26950 net.cpp:382] SCNN_D_22_SCNN_D_21/sum_0_split -> SCNN_D_22_SCNN_D_21/sum_0_split_1
I0313 11:50:40.527494 26950 net.cpp:124] Setting up SCNN_D_22_SCNN_D_21/sum_0_split
I0313 11:50:40.527501 26950 net.cpp:131] Top shape: 1 64 1 80 (5120)
I0313 11:50:40.527506 26950 net.cpp:131] Top shape: 1 64 1 80 (5120)
I0313 11:50:40.527509 26950 net.cpp:139] Memory required for data: 319836160
I0313 11:50:40.527511 26950 layer_factory.hpp:77] Creating layer SCNN_D_22
I0313 11:50:40.527519 26950 net.cpp:86] Creating Layer SCNN_D_22
I0313 11:50:40.527525 26950 net.cpp:408] SCNN_D_22 <- SCNN_D_22_SCNN_D_21/sum_0_split_0
I0313 11:50:40.527532 26950 net.cpp:382] SCNN_D_22 -> SCNN_D_22/message
I0313 11:50:40.529829 26950 net.cpp:124] Setting up SCNN_D_22
I0313 11:50:40.529856 26950 net.cpp:131] Top shape: 1 64 1 80 (5120)
I0313 11:50:40.529860 26950 net.cpp:139] Memory required for data: 319856640
I0313 11:50:40.529868 26950 net.cpp:467] Sharing parameters 'SCNN_D_w' owned by layer 'SCNN_D_1', param index 0
I0313 11:50:40.529873 26950 layer_factory.hpp:77] Creating layer SCNN_D_22/relu
I0313 11:50:40.529883 26950 net.cpp:86] Creating Layer SCNN_D_22/relu
I0313 11:50:40.529892 26950 net.cpp:408] SCNN_D_22/relu <- SCNN_D_22/message
I0313 11:50:40.529902 26950 net.cpp:369] SCNN_D_22/relu -> SCNN_D_22/message (in-place)
I0313 11:50:40.530038 26950 net.cpp:124] Setting up SCNN_D_22/relu
I0313 11:50:40.530046 26950 net.cpp:131] Top shape: 1 64 1 80 (5120)
I0313 11:50:40.530050 26950 net.cpp:139] Memory required for data: 319877120
I0313 11:50:40.530055 26950 layer_factory.hpp:77] Creating layer SCNN_D_22/sum
I0313 11:50:40.530061 26950 net.cpp:86] Creating Layer SCNN_D_22/sum
I0313 11:50:40.530066 26950 net.cpp:408] SCNN_D_22/sum <- SCNN_D_22/message
I0313 11:50:40.530073 26950 net.cpp:408] SCNN_D_22/sum <- slice1_23
I0313 11:50:40.530081 26950 net.cpp:382] SCNN_D_22/sum -> SCNN_D_23
I0313 11:50:40.530117 26950 net.cpp:124] Setting up SCNN_D_22/sum
I0313 11:50:40.530125 26950 net.cpp:131] Top shape: 1 64 1 80 (5120)
I0313 11:50:40.530128 26950 net.cpp:139] Memory required for data: 319897600
I0313 11:50:40.530131 26950 layer_factory.hpp:77] Creating layer SCNN_D_23_SCNN_D_22/sum_0_split
I0313 11:50:40.530136 26950 net.cpp:86] Creating Layer SCNN_D_23_SCNN_D_22/sum_0_split
I0313 11:50:40.530143 26950 net.cpp:408] SCNN_D_23_SCNN_D_22/sum_0_split <- SCNN_D_23
I0313 11:50:40.530149 26950 net.cpp:382] SCNN_D_23_SCNN_D_22/sum_0_split -> SCNN_D_23_SCNN_D_22/sum_0_split_0
I0313 11:50:40.530158 26950 net.cpp:382] SCNN_D_23_SCNN_D_22/sum_0_split -> SCNN_D_23_SCNN_D_22/sum_0_split_1
I0313 11:50:40.530197 26950 net.cpp:124] Setting up SCNN_D_23_SCNN_D_22/sum_0_split
I0313 11:50:40.530205 26950 net.cpp:131] Top shape: 1 64 1 80 (5120)
I0313 11:50:40.530210 26950 net.cpp:131] Top shape: 1 64 1 80 (5120)
I0313 11:50:40.530213 26950 net.cpp:139] Memory required for data: 319938560
I0313 11:50:40.530215 26950 layer_factory.hpp:77] Creating layer SCNN_D_23
I0313 11:50:40.530225 26950 net.cpp:86] Creating Layer SCNN_D_23
I0313 11:50:40.530230 26950 net.cpp:408] SCNN_D_23 <- SCNN_D_23_SCNN_D_22/sum_0_split_0
I0313 11:50:40.530237 26950 net.cpp:382] SCNN_D_23 -> SCNN_D_23/message
I0313 11:50:40.531455 26950 net.cpp:124] Setting up SCNN_D_23
I0313 11:50:40.531468 26950 net.cpp:131] Top shape: 1 64 1 80 (5120)
I0313 11:50:40.531473 26950 net.cpp:139] Memory required for data: 319959040
I0313 11:50:40.531478 26950 net.cpp:467] Sharing parameters 'SCNN_D_w' owned by layer 'SCNN_D_1', param index 0
I0313 11:50:40.531482 26950 layer_factory.hpp:77] Creating layer SCNN_D_23/relu
I0313 11:50:40.531491 26950 net.cpp:86] Creating Layer SCNN_D_23/relu
I0313 11:50:40.531497 26950 net.cpp:408] SCNN_D_23/relu <- SCNN_D_23/message
I0313 11:50:40.531504 26950 net.cpp:369] SCNN_D_23/relu -> SCNN_D_23/message (in-place)
I0313 11:50:40.531649 26950 net.cpp:124] Setting up SCNN_D_23/relu
I0313 11:50:40.531658 26950 net.cpp:131] Top shape: 1 64 1 80 (5120)
I0313 11:50:40.531662 26950 net.cpp:139] Memory required for data: 319979520
I0313 11:50:40.531666 26950 layer_factory.hpp:77] Creating layer SCNN_D_23/sum
I0313 11:50:40.531671 26950 net.cpp:86] Creating Layer SCNN_D_23/sum
I0313 11:50:40.531677 26950 net.cpp:408] SCNN_D_23/sum <- SCNN_D_23/message
I0313 11:50:40.531684 26950 net.cpp:408] SCNN_D_23/sum <- slice1_24
I0313 11:50:40.531689 26950 net.cpp:382] SCNN_D_23/sum -> SCNN_D_24
I0313 11:50:40.531721 26950 net.cpp:124] Setting up SCNN_D_23/sum
I0313 11:50:40.531728 26950 net.cpp:131] Top shape: 1 64 1 80 (5120)
I0313 11:50:40.531733 26950 net.cpp:139] Memory required for data: 320000000
I0313 11:50:40.531735 26950 layer_factory.hpp:77] Creating layer SCNN_D_24_SCNN_D_23/sum_0_split
I0313 11:50:40.531740 26950 net.cpp:86] Creating Layer SCNN_D_24_SCNN_D_23/sum_0_split
I0313 11:50:40.531746 26950 net.cpp:408] SCNN_D_24_SCNN_D_23/sum_0_split <- SCNN_D_24
I0313 11:50:40.531754 26950 net.cpp:382] SCNN_D_24_SCNN_D_23/sum_0_split -> SCNN_D_24_SCNN_D_23/sum_0_split_0
I0313 11:50:40.531761 26950 net.cpp:382] SCNN_D_24_SCNN_D_23/sum_0_split -> SCNN_D_24_SCNN_D_23/sum_0_split_1
I0313 11:50:40.531806 26950 net.cpp:124] Setting up SCNN_D_24_SCNN_D_23/sum_0_split
I0313 11:50:40.531813 26950 net.cpp:131] Top shape: 1 64 1 80 (5120)
I0313 11:50:40.531818 26950 net.cpp:131] Top shape: 1 64 1 80 (5120)
I0313 11:50:40.531821 26950 net.cpp:139] Memory required for data: 320040960
I0313 11:50:40.531824 26950 layer_factory.hpp:77] Creating layer SCNN_D_24
I0313 11:50:40.531831 26950 net.cpp:86] Creating Layer SCNN_D_24
I0313 11:50:40.531836 26950 net.cpp:408] SCNN_D_24 <- SCNN_D_24_SCNN_D_23/sum_0_split_0
I0313 11:50:40.531842 26950 net.cpp:382] SCNN_D_24 -> SCNN_D_24/message
I0313 11:50:40.533030 26950 net.cpp:124] Setting up SCNN_D_24
I0313 11:50:40.533042 26950 net.cpp:131] Top shape: 1 64 1 80 (5120)
I0313 11:50:40.533047 26950 net.cpp:139] Memory required for data: 320061440
I0313 11:50:40.533051 26950 net.cpp:467] Sharing parameters 'SCNN_D_w' owned by layer 'SCNN_D_1', param index 0
I0313 11:50:40.533056 26950 layer_factory.hpp:77] Creating layer SCNN_D_24/relu
I0313 11:50:40.533061 26950 net.cpp:86] Creating Layer SCNN_D_24/relu
I0313 11:50:40.533066 26950 net.cpp:408] SCNN_D_24/relu <- SCNN_D_24/message
I0313 11:50:40.533073 26950 net.cpp:369] SCNN_D_24/relu -> SCNN_D_24/message (in-place)
I0313 11:50:40.533417 26950 net.cpp:124] Setting up SCNN_D_24/relu
I0313 11:50:40.533427 26950 net.cpp:131] Top shape: 1 64 1 80 (5120)
I0313 11:50:40.533432 26950 net.cpp:139] Memory required for data: 320081920
I0313 11:50:40.533434 26950 layer_factory.hpp:77] Creating layer SCNN_D_24/sum
I0313 11:50:40.533440 26950 net.cpp:86] Creating Layer SCNN_D_24/sum
I0313 11:50:40.533447 26950 net.cpp:408] SCNN_D_24/sum <- SCNN_D_24/message
I0313 11:50:40.533454 26950 net.cpp:408] SCNN_D_24/sum <- slice1_25
I0313 11:50:40.533460 26950 net.cpp:382] SCNN_D_24/sum -> SCNN_D_25
I0313 11:50:40.533491 26950 net.cpp:124] Setting up SCNN_D_24/sum
I0313 11:50:40.533500 26950 net.cpp:131] Top shape: 1 64 1 80 (5120)
I0313 11:50:40.533504 26950 net.cpp:139] Memory required for data: 320102400
I0313 11:50:40.533506 26950 layer_factory.hpp:77] Creating layer SCNN_D_25_SCNN_D_24/sum_0_split
I0313 11:50:40.533511 26950 net.cpp:86] Creating Layer SCNN_D_25_SCNN_D_24/sum_0_split
I0313 11:50:40.533517 26950 net.cpp:408] SCNN_D_25_SCNN_D_24/sum_0_split <- SCNN_D_25
I0313 11:50:40.533524 26950 net.cpp:382] SCNN_D_25_SCNN_D_24/sum_0_split -> SCNN_D_25_SCNN_D_24/sum_0_split_0
I0313 11:50:40.533533 26950 net.cpp:382] SCNN_D_25_SCNN_D_24/sum_0_split -> SCNN_D_25_SCNN_D_24/sum_0_split_1
I0313 11:50:40.533573 26950 net.cpp:124] Setting up SCNN_D_25_SCNN_D_24/sum_0_split
I0313 11:50:40.533581 26950 net.cpp:131] Top shape: 1 64 1 80 (5120)
I0313 11:50:40.533586 26950 net.cpp:131] Top shape: 1 64 1 80 (5120)
I0313 11:50:40.533589 26950 net.cpp:139] Memory required for data: 320143360
I0313 11:50:40.533591 26950 layer_factory.hpp:77] Creating layer SCNN_D_25
I0313 11:50:40.533599 26950 net.cpp:86] Creating Layer SCNN_D_25
I0313 11:50:40.533604 26950 net.cpp:408] SCNN_D_25 <- SCNN_D_25_SCNN_D_24/sum_0_split_0
I0313 11:50:40.533612 26950 net.cpp:382] SCNN_D_25 -> SCNN_D_25/message
I0313 11:50:40.535905 26950 net.cpp:124] Setting up SCNN_D_25
I0313 11:50:40.535921 26950 net.cpp:131] Top shape: 1 64 1 80 (5120)
I0313 11:50:40.535926 26950 net.cpp:139] Memory required for data: 320163840
I0313 11:50:40.535933 26950 net.cpp:467] Sharing parameters 'SCNN_D_w' owned by layer 'SCNN_D_1', param index 0
I0313 11:50:40.535936 26950 layer_factory.hpp:77] Creating layer SCNN_D_25/relu
I0313 11:50:40.535943 26950 net.cpp:86] Creating Layer SCNN_D_25/relu
I0313 11:50:40.535950 26950 net.cpp:408] SCNN_D_25/relu <- SCNN_D_25/message
I0313 11:50:40.535959 26950 net.cpp:369] SCNN_D_25/relu -> SCNN_D_25/message (in-place)
I0313 11:50:40.536098 26950 net.cpp:124] Setting up SCNN_D_25/relu
I0313 11:50:40.536106 26950 net.cpp:131] Top shape: 1 64 1 80 (5120)
I0313 11:50:40.536109 26950 net.cpp:139] Memory required for data: 320184320
I0313 11:50:40.536113 26950 layer_factory.hpp:77] Creating layer SCNN_D_25/sum
I0313 11:50:40.536119 26950 net.cpp:86] Creating Layer SCNN_D_25/sum
…
I0313 11:50:40.696041 26950 net.cpp:131] Top shape: 1 64 1 80 (5120)
I0313 11:50:40.696044 26950 net.cpp:139] Memory required for data: 327843840
I0313 11:50:40.696048 26950 net.cpp:467] Sharing parameters 'SCNN_U_w' owned by layer 'SCNN_U_60', param index 0
I0313 11:50:40.696051 26950 layer_factory.hpp:77] Creating layer SCNN_U_20/relu
I0313 11:50:40.696058 26950 net.cpp:86] Creating Layer SCNN_U_20/relu
I0313 11:50:40.696063 26950 net.cpp:408] SCNN_U_20/relu <- SCNN_U_20/message
I0313 11:50:40.696069 26950 net.cpp:369] SCNN_U_20/relu -> SCNN_U_20/message (in-place)
I0313 11:50:40.696234 26950 net.cpp:124] Setting up SCNN_U_20/relu
I0313 11:50:40.696244 26950 net.cpp:131] Top shape: 1 64 1 80 (5120)
I0313 11:50:40.696245 26950 net.cpp:139] Memory required for data: 327864320
I0313 11:50:40.696249 26950 layer_factory.hpp:77] Creating layer SCNN_U_20/sum
I0313 11:50:40.696251 26950 net.cpp:86] Creating Layer SCNN_U_20/sum
I0313 11:50:40.696256 26950 net.cpp:408] SCNN_U_20/sum <- SCNN_U_20/message
I0313 11:50:40.696264 26950 net.cpp:408] SCNN_U_20/sum <- SCNN_D_19_SCNN_D_18/sum_0_split_1
I0313 11:50:40.696269 26950 net.cpp:382] SCNN_U_20/sum -> SCNN_U_19
I0313 11:50:40.696306 26950 net.cpp:124] Setting up SCNN_U_20/sum
I0313 11:50:40.696316 26950 net.cpp:131] Top shape: 1 64 1 80 (5120)
I0313 11:50:40.696317 26950 net.cpp:139] Memory required for data: 327884800
I0313 11:50:40.696319 26950 layer_factory.hpp:77] Creating layer SCNN_U_19_SCNN_U_20/sum_0_split
I0313 11:50:40.696323 26950 net.cpp:86] Creating Layer SCNN_U_19_SCNN_U_20/sum_0_split
I0313 11:50:40.696327 26950 net.cpp:408] SCNN_U_19_SCNN_U_20/sum_0_split <- SCNN_U_19
I0313 11:50:40.696332 26950 net.cpp:382] SCNN_U_19_SCNN_U_20/sum_0_split -> SCNN_U_19_SCNN_U_20/sum_0_split_0
I0313 11:50:40.696339 26950 net.cpp:382] SCNN_U_19_SCNN_U_20/sum_0_split -> SCNN_U_19_SCNN_U_20/sum_0_split_1
I0313 11:50:40.696391 26950 net.cpp:124] Setting up SCNN_U_19_SCNN_U_20/sum_0_split
I0313 11:50:40.696398 26950 net.cpp:131] Top shape: 1 64 1 80 (5120)
I0313 11:50:40.696401 26950 net.cpp:131] Top shape: 1 64 1 80 (5120)
I0313 11:50:40.696403 26950 net.cpp:139] Memory required for data: 327925760
I0313 11:50:40.696405 26950 layer_factory.hpp:77] Creating layer SCNN_U_19
I0313 11:50:40.696413 26950 net.cpp:86] Creating Layer SCNN_U_19
I0313 11:50:40.696418 26950 net.cpp:408] SCNN_U_19 <- SCNN_U_19_SCNN_U_20/sum_0_split_0
I0313 11:50:40.696424 26950 net.cpp:382] SCNN_U_19 -> SCNN_U_19/message
I0313 11:50:40.699055 26950 net.cpp:124] Setting up SCNN_U_19
I0313 11:50:40.699072 26950 net.cpp:131] Top shape: 1 64 1 80 (5120)
I0313 11:50:40.699075 26950 net.cpp:139] Memory required for data: 327946240
I0313 11:50:40.699080 26950 net.cpp:467] Sharing parameters 'SCNN_U_w' owned by layer 'SCNN_U_60', param index 0
I0313 11:50:40.699082 26950 layer_factory.hpp:77] Creating layer SCNN_U_19/relu
I0313 11:50:40.699087 26950 net.cpp:86] Creating Layer SCNN_U_19/relu
I0313 11:50:40.699093 26950 net.cpp:408] SCNN_U_19/relu <- SCNN_U_19/message
I0313 11:50:40.699108 26950 net.cpp:369] SCNN_U_19/relu -> SCNN_U_19/message (in-place)
I0313 11:50:40.699277 26950 net.cpp:124] Setting up SCNN_U_19/relu
I0313 11:50:40.699286 26950 net.cpp:131] Top shape: 1 64 1 80 (5120)
I0313 11:50:40.699290 26950 net.cpp:139] Memory required for data: 327966720
I0313 11:50:40.699291 26950 layer_factory.hpp:77] Creating layer SCNN_U_19/sum
I0313 11:50:40.699296 26950 net.cpp:86] Creating Layer SCNN_U_19/sum
I0313 11:50:40.699301 26950 net.cpp:408] SCNN_U_19/sum <- SCNN_U_19/message
I0313 11:50:40.699308 26950 net.cpp:408] SCNN_U_19/sum <- SCNN_D_18_SCNN_D_17/sum_0_split_1
I0313 11:50:40.699313 26950 net.cpp:382] SCNN_U_19/sum -> SCNN_U_18
I0313 11:50:40.699352 26950 net.cpp:124] Setting up SCNN_U_19/sum
I0313 11:50:40.699359 26950 net.cpp:131] Top shape: 1 64 1 80 (5120)
I0313 11:50:40.699362 26950 net.cpp:139] Memory required for data: 327987200
I0313 11:50:40.699364 26950 layer_factory.hpp:77] Creating layer SCNN_U_18_SCNN_U_19/sum_0_split
I0313 11:50:40.699369 26950 net.cpp:86] Creating Layer SCNN_U_18_SCNN_U_19/sum_0_split
I0313 11:50:40.699373 26950 net.cpp:408] SCNN_U_18_SCNN_U_19/sum_0_split <- SCNN_U_18
I0313 11:50:40.699380 26950 net.cpp:382] SCNN_U_18_SCNN_U_19/sum_0_split -> SCNN_U_18_SCNN_U_19/sum_0_split_0
I0313 11:50:40.699388 26950 net.cpp:382] SCNN_U_18_SCNN_U_19/sum_0_split -> SCNN_U_18_SCNN_U_19/sum_0_split_1
I0313 11:50:40.699443 26950 net.cpp:124] Setting up SCNN_U_18_SCNN_U_19/sum_0_split
I0313 11:50:40.699451 26950 net.cpp:131] Top shape: 1 64 1 80 (5120)
I0313 11:50:40.699456 26950 net.cpp:131] Top shape: 1 64 1 80 (5120)
I0313 11:50:40.699458 26950 net.cpp:139] Memory required for data: 328028160
I0313 11:50:40.699460 26950 layer_factory.hpp:77] Creating layer SCNN_U_18
I0313 11:50:40.699471 26950 net.cpp:86] Creating Layer SCNN_U_18
I0313 11:50:40.699477 26950 net.cpp:408] SCNN_U_18 <- SCNN_U_18_SCNN_U_19/sum_0_split_0
I0313 11:50:40.699486 26950 net.cpp:382] SCNN_U_18 -> SCNN_U_18/message
I0313 11:50:40.700863 26950 net.cpp:124] Setting up SCNN_U_18
I0313 11:50:40.700876 26950 net.cpp:131] Top shape: 1 64 1 80 (5120)
I0313 11:50:40.700881 26950 net.cpp:139] Memory required for data: 328048640
I0313 11:50:40.700886 26950 net.cpp:467] Sharing parameters 'SCNN_U_w' owned by layer 'SCNN_U_60', param index 0
I0313 11:50:40.700891 26950 layer_factory.hpp:77] Creating layer SCNN_U_18/relu
I0313 11:50:40.700932 26950 net.cpp:86] Creating Layer SCNN_U_18/relu
I0313 11:50:40.700939 26950 net.cpp:408] SCNN_U_18/relu <- SCNN_U_18/message
I0313 11:50:40.700947 26950 net.cpp:369] SCNN_U_18/relu -> SCNN_U_18/message (in-place)
I0313 11:50:40.701345 26950 net.cpp:124] Setting up SCNN_U_18/relu
I0313 11:50:40.701355 26950 net.cpp:131] Top shape: 1 64 1 80 (5120)
I0313 11:50:40.701359 26950 net.cpp:139] Memory required for data: 328069120
I0313 11:50:40.701364 26950 layer_factory.hpp:77] Creating layer SCNN_U_18/sum
I0313 11:50:40.701370 26950 net.cpp:86] Creating Layer SCNN_U_18/sum
I0313 11:50:40.701377 26950 net.cpp:408] SCNN_U_18/sum <- SCNN_U_18/message
I0313 11:50:40.701385 26950 net.cpp:408] SCNN_U_18/sum <- SCNN_D_17_SCNN_D_16/sum_0_split_1
I0313 11:50:40.701390 26950 net.cpp:382] SCNN_U_18/sum -> SCNN_U_17
I0313 11:50:40.701428 26950 net.cpp:124] Setting up SCNN_U_18/sum
I0313 11:50:40.701436 26950 net.cpp:131] Top shape: 1 64 1 80 (5120)
I0313 11:50:40.701440 26950 net.cpp:139] Memory required for data: 328089600
I0313 11:50:40.701443 26950 layer_factory.hpp:77] Creating layer SCNN_U_17_SCNN_U_18/sum_0_split
I0313 11:50:40.701452 26950 net.cpp:86] Creating Layer SCNN_U_17_SCNN_U_18/sum_0_split
I0313 11:50:40.701459 26950 net.cpp:408] SCNN_U_17_SCNN_U_18/sum_0_split <- SCNN_U_17
I0313 11:50:40.701467 26950 net.cpp:382] SCNN_U_17_SCNN_U_18/sum_0_split -> SCNN_U_17_SCNN_U_18/sum_0_split_0
I0313 11:50:40.701475 26950 net.cpp:382] SCNN_U_17_SCNN_U_18/sum_0_split -> SCNN_U_17_SCNN_U_18/sum_0_split_1
I0313 11:50:40.701527 26950 net.cpp:124] Setting up SCNN_U_17_SCNN_U_18/sum_0_split
I0313 11:50:40.701534 26950 net.cpp:131] Top shape: 1 64 1 80 (5120)
I0313 11:50:40.701541 26950 net.cpp:131] Top shape: 1 64 1 80 (5120)
I0313 11:50:40.701545 26950 net.cpp:139] Memory required for data: 328130560
I0313 11:50:40.701547 26950 layer_factory.hpp:77] Creating layer SCNN_U_17
I0313 11:50:40.701555 26950 net.cpp:86] Creating Layer SCNN_U_17
I0313 11:50:40.701560 26950 net.cpp:408] SCNN_U_17 <- SCNN_U_17_SCNN_U_18/sum_0_split_0
I0313 11:50:40.701570 26950 net.cpp:382] SCNN_U_17 -> SCNN_U_17/message
I0313 11:50:40.702940 26950 net.cpp:124] Setting up SCNN_U_17
I0313 11:50:40.702955 26950 net.cpp:131] Top shape: 1 64 1 80 (5120)
I0313 11:50:40.702958 26950 net.cpp:139] Memory required for data: 328151040
I0313 11:50:40.702963 26950 net.cpp:467] Sharing parameters 'SCNN_U_w' owned by layer 'SCNN_U_60', param index 0
I0313 11:50:40.702967 26950 layer_factory.hpp:77] Creating layer SCNN_U_17/relu
I0313 11:50:40.702973 26950 net.cpp:86] Creating Layer SCNN_U_17/relu
I0313 11:50:40.702980 26950 net.cpp:408] SCNN_U_17/relu <- SCNN_U_17/message
I0313 11:50:40.702986 26950 net.cpp:369] SCNN_U_17/relu -> SCNN_U_17/message (in-place)
I0313 11:50:40.703153 26950 net.cpp:124] Setting up SCNN_U_17/relu
I0313 11:50:40.703162 26950 net.cpp:131] Top shape: 1 64 1 80 (5120)
I0313 11:50:40.703166 26950 net.cpp:139] Memory required for data: 328171520
I0313 11:50:40.703169 26950 layer_factory.hpp:77] Creating layer SCNN_U_17/sum
I0313 11:50:40.703176 26950 net.cpp:86] Creating Layer SCNN_U_17/sum
I0313 11:50:40.703181 26950 net.cpp:408] SCNN_U_17/sum <- SCNN_U_17/message
I0313 11:50:40.703189 26950 net.cpp:408] SCNN_U_17/sum <- SCNN_D_16_SCNN_D_15/sum_0_split_1
I0313 11:50:40.703197 26950 net.cpp:382] SCNN_U_17/sum -> SCNN_U_16
I0313 11:50:40.703233 26950 net.cpp:124] Setting up SCNN_U_17/sum
I0313 11:50:40.703241 26950 net.cpp:131] Top shape: 1 64 1 80 (5120)
I0313 11:50:40.703245 26950 net.cpp:139] Memory required for data: 328192000
I0313 11:50:40.703248 26950 layer_factory.hpp:77] Creating layer SCNN_U_16_SCNN_U_17/sum_0_split
I0313 11:50:40.703255 26950 net.cpp:86] Creating Layer SCNN_U_16_SCNN_U_17/sum_0_split
I0313 11:50:40.703261 26950 net.cpp:408] SCNN_U_16_SCNN_U_17/sum_0_split <- SCNN_U_16
I0313 11:50:40.703269 26950 net.cpp:382] SCNN_U_16_SCNN_U_17/sum_0_split -> SCNN_U_16_SCNN_U_17/sum_0_split_0
I0313 11:50:40.703279 26950 net.cpp:382] SCNN_U_16_SCNN_U_17/sum_0_split -> SCNN_U_16_SCNN_U_17/sum_0_split_1
I0313 11:50:40.703330 26950 net.cpp:124] Setting up SCNN_U_16_SCNN_U_17/sum_0_split
I0313 11:50:40.703339 26950 net.cpp:131] Top shape: 1 64 1 80 (5120)
I0313 11:50:40.703344 26950 net.cpp:131] Top shape: 1 64 1 80 (5120)
I0313 11:50:40.703347 26950 net.cpp:139] Memory required for data: 328232960
I0313 11:50:40.703351 26950 layer_factory.hpp:77] Creating layer SCNN_U_16
I0313 11:50:40.703358 26950 net.cpp:86] Creating Layer SCNN_U_16
I0313 11:50:40.703364 26950 net.cpp:408] SCNN_U_16 <- SCNN_U_16_SCNN_U_17/sum_0_split_0
I0313 11:50:40.703372 26950 net.cpp:382] SCNN_U_16 -> SCNN_U_16/message
I0313 11:50:40.706221 26950 net.cpp:124] Setting up SCNN_U_16
I0313 11:50:40.706241 26950 net.cpp:131] Top shape: 1 64 1 80 (5120)
I0313 11:50:40.706248 26950 net.cpp:139] Memory required for data: 328253440
I0313 11:50:40.706254 26950 net.cpp:467] Sharing parameters 'SCNN_U_w' owned by layer 'SCNN_U_60', param index 0
I0313 11:50:40.706260 26950 layer_factory.hpp:77] Creating layer SCNN_U_16/relu
I0313 11:50:40.706267 26950 net.cpp:86] Creating Layer SCNN_U_16/relu
I0313 11:50:40.706276 26950 net.cpp:408] SCNN_U_16/relu <- SCNN_U_16/message
I0313 11:50:40.706288 26950 net.cpp:369] SCNN_U_16/relu -> SCNN_U_16/message (in-place)
I0313 11:50:40.706507 26950 net.cpp:124] Setting up SCNN_U_16/relu
I0313 11:50:40.706519 26950 net.cpp:131] Top shape: 1 64 1 80 (5120)
I0313 11:50:40.706524 26950 net.cpp:139] Memory required for data: 328273920
I0313 11:50:40.706529 26950 layer_factory.hpp:77] Creating layer SCNN_U_16/sum
I0313 11:50:40.706537 26950 net.cpp:86] Creating Layer SCNN_U_16/sum
I0313 11:50:40.706547 26950 net.cpp:408] SCNN_U_16/sum <- SCNN_U_16/message
I0313 11:50:40.706557 26950 net.cpp:408] SCNN_U_16/sum <- SCNN_D_15_SCNN_D_14/sum_0_split_1
I0313 11:50:40.706565 26950 net.cpp:382] SCNN_U_16/sum -> SCNN_U_15
I0313 11:50:40.706656 26950 net.cpp:124] Setting up SCNN_U_16/sum
I0313 11:50:40.706672 26950 net.cpp:131] Top shape: 1 64 1 80 (5120)
I0313 11:50:40.706678 26950 net.cpp:139] Memory required for data: 328294400
I0313 11:50:40.706683 26950 layer_factory.hpp:77] Creating layer SCNN_U_15_SCNN_U_16/sum_0_split
I0313 11:50:40.706691 26950 net.cpp:86] Creating Layer SCNN_U_15_SCNN_U_16/sum_0_split
I0313 11:50:40.706699 26950 net.cpp:408] SCNN_U_15_SCNN_U_16/sum_0_split <- SCNN_U_15
I0313 11:50:40.706708 26950 net.cpp:382] SCNN_U_15_SCNN_U_16/sum_0_split -> SCNN_U_15_SCNN_U_16/sum_0_split_0
I0313 11:50:40.706720 26950 net.cpp:382] SCNN_U_15_SCNN_U_16/sum_0_split -> SCNN_U_15_SCNN_U_16/sum_0_split_1
I0313 11:50:40.706791 26950 net.cpp:124] Setting up SCNN_U_15_SCNN_U_16/sum_0_split
I0313 11:50:40.706802 26950 net.cpp:131] Top shape: 1 64 1 80 (5120)
I0313 11:50:40.706809 26950 net.cpp:131] Top shape: 1 64 1 80 (5120)
I0313 11:50:40.706815 26950 net.cpp:139] Memory required for data: 328335360
I0313 11:50:40.706820 26950 layer_factory.hpp:77] Creating layer SCNN_U_15
I0313 11:50:40.706830 26950 net.cpp:86] Creating Layer SCNN_U_15
I0313 11:50:40.706838 26950 net.cpp:408] SCNN_U_15 <- SCNN_U_15_SCNN_U_16/sum_0_split_0
I0313 11:50:40.706848 26950 net.cpp:382] SCNN_U_15 -> SCNN_U_15/message
I0313 11:50:40.708854 26950 net.cpp:124] Setting up SCNN_U_15
I0313 11:50:40.708878 26950 net.cpp:131] Top shape: 1 64 1 80 (5120)
I0313 11:50:40.708884 26950 net.cpp:139] Memory required for data: 328355840
I0313 11:50:40.708891 26950 net.cpp:467] Sharing parameters 'SCNN_U_w' owned by layer 'SCNN_U_60', param index 0
I0313 11:50:40.708895 26950 layer_factory.hpp:77] Creating layer SCNN_U_15/relu
I0313 11:50:40.708904 26950 net.cpp:86] Creating Layer SCNN_U_15/relu
I0313 11:50:40.708914 26950 net.cpp:408] SCNN_U_15/relu <- SCNN_U_15/message
I0313 11:50:40.708925 26950 net.cpp:369] SCNN_U_15/relu -> SCNN_U_15/message (in-place)
I0313 11:50:40.709147 26950 net.cpp:124] Setting up SCNN_U_15/relu
I0313 11:50:40.709159 26950 net.cpp:131] Top shape: 1 64 1 80 (5120)
I0313 11:50:40.709164 26950 net.cpp:139] Memory required for data: 328376320
I0313 11:50:40.709167 26950 layer_factory.hpp:77] Creating layer SCNN_U_15/sum
I0313 11:50:40.709174 26950 net.cpp:86] Creating Layer SCNN_U_15/sum
I0313 11:50:40.709182 26950 net.cpp:408] SCNN_U_15/sum <- SCNN_U_15/message
I0313 11:50:40.709194 26950 net.cpp:408] SCNN_U_15/sum <- SCNN_D_14_SCNN_D_13/sum_0_split_1
I0313 11:50:40.709203 26950 net.cpp:382] SCNN_U_15/sum -> SCNN_U_14
I0313 11:50:40.709255 26950 net.cpp:124] Setting up SCNN_U_15/sum
I0313 11:50:40.709266 26950 net.cpp:131] Top shape: 1 64 1 80 (5120)
I0313 11:50:40.709271 26950 net.cpp:139] Memory required for data: 328396800
I0313 11:50:40.709277 26950 layer_factory.hpp:77] Creating layer SCNN_U_14_SCNN_U_15/sum_0_split
I0313 11:50:40.709285 26950 net.cpp:86] Creating Layer SCNN_U_14_SCNN_U_15/sum_0_split
I0313 11:50:40.709292 26950 net.cpp:408] SCNN_U_14_SCNN_U_15/sum_0_split <- SCNN_U_14
I0313 11:50:40.709301 26950 net.cpp:382] SCNN_U_14_SCNN_U_15/sum_0_split -> SCNN_U_14_SCNN_U_15/sum_0_split_0
I0313 11:50:40.709312 26950 net.cpp:382] SCNN_U_14_SCNN_U_15/sum_0_split -> SCNN_U_14_SCNN_U_15/sum_0_split_1
I0313 11:50:40.709384 26950 net.cpp:124] Setting up SCNN_U_14_SCNN_U_15/sum_0_split
I0313 11:50:40.709394 26950 net.cpp:131] Top shape: 1 64 1 80 (5120)
I0313 11:50:40.709401 26950 net.cpp:131] Top shape: 1 64 1 80 (5120)
I0313 11:50:40.709406 26950 net.cpp:139] Memory required for data: 328437760
I0313 11:50:40.709411 26950 layer_factory.hpp:77] Creating layer SCNN_U_14
I0313 11:50:40.709422 26950 net.cpp:86] Creating Layer SCNN_U_14
I0313 11:50:40.709430 26950 net.cpp:408] SCNN_U_14 <- SCNN_U_14_SCNN_U_15/sum_0_split_0
I0313 11:50:40.709440 26950 net.cpp:382] SCNN_U_14 -> SCNN_U_14/message
I0313 11:50:40.711442 26950 net.cpp:124] Setting up SCNN_U_14
I0313 11:50:40.711467 26950 net.cpp:131] Top shape: 1 64 1 80 (5120)
I0313 11:50:40.711472 26950 net.cpp:139] Memory required for data: 328458240
I0313 11:50:40.711483 26950 net.cpp:467] Sharing parameters 'SCNN_U_w' owned by layer 'SCNN_U_60', param index 0
I0313 11:50:40.711488 26950 layer_factory.hpp:77] Creating layer SCNN_U_14/relu
I0313 11:50:40.711498 26950 net.cpp:86] Creating Layer SCNN_U_14/relu
I0313 11:50:40.711508 26950 net.cpp:408] SCNN_U_14/relu <- SCNN_U_14/message
I0313 11:50:40.711519 26950 net.cpp:369] SCNN_U_14/relu -> SCNN_U_14/message (in-place)
I0313 11:50:40.712324 26950 net.cpp:124] Setting up SCNN_U_14/relu
I0313 11:50:40.712339 26950 net.cpp:131] Top shape: 1 64 1 80 (5120)
I0313 11:50:40.712344 26950 net.cpp:139] Memory required for data: 328478720
I0313 11:50:40.712350 26950 layer_factory.hpp:77] Creating layer SCNN_U_14/sum
I0313 11:50:40.712358 26950 net.cpp:86] Creating Layer SCNN_U_14/sum
I0313 11:50:40.712368 26950 net.cpp:408] SCNN_U_14/sum <- SCNN_U_14/message
I0313 11:50:40.712381 26950 net.cpp:408] SCNN_U_14/sum <- SCNN_D_13_SCNN_D_12/sum_0_split_1
I0313 11:50:40.712389 26950 net.cpp:382] SCNN_U_14/sum -> SCNN_U_13
I0313 11:50:40.712450 26950 net.cpp:124] Setting up SCNN_U_14/sum
I0313 11:50:40.712462 26950 net.cpp:131] Top shape: 1 64 1 80 (5120)
I0313 11:50:40.712467 26950 net.cpp:139] Memory required for data: 328499200
I0313 11:50:40.712472 26950 layer_factory.hpp:77] Creating layer SCNN_U_13_SCNN_U_14/sum_0_split
I0313 11:50:40.712481 26950 net.cpp:86] Creating Layer SCNN_U_13_SCNN_U_14/sum_0_split
I0313 11:50:40.712489 26950 net.cpp:408] SCNN_U_13_SCNN_U_14/sum_0_split <- SCNN_U_13
I0313 11:50:40.712498 26950 net.cpp:382] SCNN_U_13_SCNN_U_14/sum_0_split -> SCNN_U_13_SCNN_U_14/sum_0_split_0
I0313 11:50:40.712508 26950 net.cpp:382] SCNN_U_13_SCNN_U_14/sum_0_split -> SCNN_U_13_SCNN_U_14/sum_0_split_1
I0313 11:50:40.712584 26950 net.cpp:124] Setting up SCNN_U_13_SCNN_U_14/sum_0_split
I0313 11:50:40.712594 26950 net.cpp:131] Top shape: 1 64 1 80 (5120)
I0313 11:50:40.712601 26950 net.cpp:131] Top shape: 1 64 1 80 (5120)
I0313 11:50:40.712606 26950 net.cpp:139] Memory required for data: 328540160
I0313 11:50:40.712611 26950 layer_factory.hpp:77] Creating layer SCNN_U_13
I0313 11:50:40.712623 26950 net.cpp:86] Creating Layer SCNN_U_13
I0313 11:50:40.712631 26950 net.cpp:408] SCNN_U_13 <- SCNN_U_13_SCNN_U_14/sum_0_split_0
I0313 11:50:40.712641 26950 net.cpp:382] SCNN_U_13 -> SCNN_U_13/message
I0313 11:50:40.714799 26950 net.cpp:124] Setting up SCNN_U_13
I0313 11:50:40.714826 26950 net.cpp:131] Top shape: 1 64 1 80 (5120)
I0313 11:50:40.714833 26950 net.cpp:139] Memory required for data: 328560640
I0313 11:50:40.714843 26950 net.cpp:467] Sharing parameters 'SCNN_U_w' owned by layer 'SCNN_U_60', param index 0
I0313 11:50:40.714849 26950 layer_factory.hpp:77] Creating layer SCNN_U_13/relu
I0313 11:50:40.714859 26950 net.cpp:86] Creating Layer SCNN_U_13/relu
I0313 11:50:40.714870 26950 net.cpp:408] SCNN_U_13/relu <- SCNN_U_13/message
I0313 11:50:40.714884 26950 net.cpp:369] SCNN_U_13/relu -> SCNN_U_13/message (in-place)
I0313 11:50:40.717101 26950 net.cpp:124] Setting up SCNN_U_13/relu
I0313 11:50:40.717133 26950 net.cpp:131] Top shape: 1 64 1 80 (5120)
I0313 11:50:40.717139 26950 net.cpp:139] Memory required for data: 328581120
I0313 11:50:40.717144 26950 layer_factory.hpp:77] Creating layer SCNN_U_13/sum
I0313 11:50:40.717159 26950 net.cpp:86] Creating Layer SCNN_U_13/sum
I0313 11:50:40.717188 26950 net.cpp:408] SCNN_U_13/sum <- SCNN_U_13/message
I0313 11:50:40.717206 26950 net.cpp:408] SCNN_U_13/sum <- SCNN_D_12_SCNN_D_11/sum_0_split_1
I0313 11:50:40.717214 26950 net.cpp:382] SCNN_U_13/sum -> SCNN_U_12
I0313 11:50:40.717293 26950 net.cpp:124] Setting up SCNN_U_13/sum
I0313 11:50:40.717308 26950 net.cpp:131] Top shape: 1 64 1 80 (5120)
I0313 11:50:40.717314 26950 net.cpp:139] Memory required for data: 328601600
I0313 11:50:40.717316 26950 layer_factory.hpp:77] Creating layer SCNN_U_12_SCNN_U_13/sum_0_split
I0313 11:50:40.717324 26950 net.cpp:86] Creating Layer SCNN_U_12_SCNN_U_13/sum_0_split
I0313 11:50:40.717331 26950 net.cpp:408] SCNN_U_12_SCNN_U_13/sum_0_split <- SCNN_U_12
I0313 11:50:40.717342 26950 net.cpp:382] SCNN_U_12_SCNN_U_13/sum_0_split -> SCNN_U_12_SCNN_U_13/sum_0_split_0
I0313 11:50:40.717355 26950 net.cpp:382] SCNN_U_12_SCNN_U_13/sum_0_split -> SCNN_U_12_SCNN_U_13/sum_0_split_1
I0313 11:50:40.717445 26950 net.cpp:124] Setting up SCNN_U_12_SCNN_U_13/sum_0_split
I0313 11:50:40.717456 26950 net.cpp:131] Top shape: 1 64 1 80 (5120)
I0313 11:50:40.717464 26950 net.cpp:131] Top shape: 1 64 1 80 (5120)
I0313 11:50:40.717470 26950 net.cpp:139] Memory required for data: 328642560
I0313 11:50:40.717475 26950 layer_factory.hpp:77] Creating layer SCNN_U_12
I0313 11:50:40.717491 26950 net.cpp:86] Creating Layer SCNN_U_12
I0313 11:50:40.717501 26950 net.cpp:408] SCNN_U_12 <- SCNN_U_12_SCNN_U_13/sum_0_split_0
I0313 11:50:40.717514 26950 net.cpp:382] SCNN_U_12 -> SCNN_U_12/message
I0313 11:50:40.719848 26950 net.cpp:124] Setting up SCNN_U_12
I0313 11:50:40.719878 26950 net.cpp:131] Top shape: 1 64 1 80 (5120)
I0313 11:50:40.719885 26950 net.cpp:139] Memory required for data: 328663040
I0313 11:50:40.719897 26950 net.cpp:467] Sharing parameters 'SCNN_U_w' owned by layer 'SCNN_U_60', param index 0
I0313 11:50:40.719903 26950 layer_factory.hpp:77] Creating layer SCNN_U_12/relu
I0313 11:50:40.719914 26950 net.cpp:86] Creating Layer SCNN_U_12/relu
I0313 11:50:40.719926 26950 net.cpp:408] SCNN_U_12/relu <- SCNN_U_12/message
I0313 11:50:40.719941 26950 net.cpp:369] SCNN_U_12/relu -> SCNN_U_12/message (in-place)
I0313 11:50:40.720209 26950 net.cpp:124] Setting up SCNN_U_12/relu
I0313 11:50:40.720222 26950 net.cpp:131] Top shape: 1 64 1 80 (5120)
I0313 11:50:40.720228 26950 net.cpp:139] Memory required for data: 328683520
I0313 11:50:40.720232 26950 layer_factory.hpp:77] Creating layer SCNN_U_12/sum
I0313 11:50:40.720242 26950 net.cpp:86] Creating Layer SCNN_U_12/sum
I0313 11:50:40.720250 26950 net.cpp:408] SCNN_U_12/sum <- SCNN_U_12/message
I0313 11:50:40.720263 26950 net.cpp:408] SCNN_U_12/sum <- SCNN_D_11_SCNN_D_10/sum_0_split_1
I0313 11:50:40.720273 26950 net.cpp:382] SCNN_U_12/sum -> SCNN_U_11
I0313 11:50:40.720335 26950 net.cpp:124] Setting up SCNN_U_12/sum
I0313 11:50:40.720348 26950 net.cpp:131] Top shape: 1 64 1 80 (5120)
I0313 11:50:40.720353 26950 net.cpp:139] Memory required for data: 328704000
I0313 11:50:40.720366 26950 layer_factory.hpp:77] Creating layer SCNN_U_11_SCNN_U_12/sum_0_split
I0313 11:50:40.720376 26950 net.cpp:86] Creating Layer SCNN_U_11_SCNN_U_12/sum_0_split
I0313 11:50:40.720384 26950 net.cpp:408] SCNN_U_11_SCNN_U_12/sum_0_split <- SCNN_U_11
I0313 11:50:40.720396 26950 net.cpp:382] SCNN_U_11_SCNN_U_12/sum_0_split -> SCNN_U_11_SCNN_U_12/sum_0_split_0
I0313 11:50:40.720408 26950 net.cpp:382] SCNN_U_11_SCNN_U_12/sum_0_split -> SCNN_U_11_SCNN_U_12/sum_0_split_1
I0313 11:50:40.720492 26950 net.cpp:124] Setting up SCNN_U_11_SCNN_U_12/sum_0_split
I0313 11:50:40.720504 26950 net.cpp:131] Top shape: 1 64 1 80 (5120)
I0313 11:50:40.720513 26950 net.cpp:131] Top shape: 1 64 1 80 (5120)
I0313 11:50:40.720520 26950 net.cpp:139] Memory required for data: 328744960
I0313 11:50:40.720525 26950 layer_factory.hpp:77] Creating layer SCNN_U_11
I0313 11:50:40.720537 26950 net.cpp:86] Creating Layer SCNN_U_11
I0313 11:50:40.720546 26950 net.cpp:408] SCNN_U_11 <- SCNN_U_11_SCNN_U_12/sum_0_split_0
I0313 11:50:40.720559 26950 net.cpp:382] SCNN_U_11 -> SCNN_U_11/message
I0313 11:50:40.722954 26950 net.cpp:124] Setting up SCNN_U_11
I0313 11:50:40.722986 26950 net.cpp:131] Top shape: 1 64 1 80 (5120)
I0313 11:50:40.722995 26950 net.cpp:139] Memory required for data: 328765440
I0313 11:50:40.723007 26950 net.cpp:467] Sharing parameters 'SCNN_U_w' owned by layer 'SCNN_U_60', param index 0
I0313 11:50:40.723014 26950 layer_factory.hpp:77] Creating layer SCNN_U_11/relu
I0313 11:50:40.723026 26950 net.cpp:86] Creating Layer SCNN_U_11/relu
I0313 11:50:40.723037 26950 net.cpp:408] SCNN_U_11/relu <- SCNN_U_11/message
I0313 11:50:40.723050 26950 net.cpp:369] SCNN_U_11/relu -> SCNN_U_11/message (in-place)
I0313 11:50:40.723335 26950 net.cpp:124] Setting up SCNN_U_11/relu
I0313 11:50:40.723348 26950 net.cpp:131] Top shape: 1 64 1 80 (5120)
I0313 11:50:40.723354 26950 net.cpp:139] Memory required for data: 328785920
I0313 11:50:40.723361 26950 layer_factory.hpp:77] Creating layer SCNN_U_11/sum
I0313 11:50:40.723371 26950 net.cpp:86] Creating Layer SCNN_U_11/sum
I0313 11:50:40.723382 26950 net.cpp:408] SCNN_U_11/sum <- SCNN_U_11/message
I0313 11:50:40.723395 26950 net.cpp:408] SCNN_U_11/sum <- SCNN_D_10_SCNN_D_9/sum_0_split_1
I0313 11:50:40.723405 26950 net.cpp:382] SCNN_U_11/sum -> SCNN_U_10
I0313 11:50:40.723474 26950 net.cpp:124] Setting up SCNN_U_11/sum
I0313 11:50:40.723486 26950 net.cpp:131] Top shape: 1 64 1 80 (5120)
I0313 11:50:40.723492 26950 net.cpp:139] Memory required for data: 328806400
I0313 11:50:40.723498 26950 layer_factory.hpp:77] Creating layer SCNN_U_10_SCNN_U_11/sum_0_split
I0313 11:50:40.723508 26950 net.cpp:86] Creating Layer SCNN_U_10_SCNN_U_11/sum_0_split
I0313 11:50:40.723517 26950 net.cpp:408] SCNN_U_10_SCNN_U_11/sum_0_split <- SCNN_U_10
I0313 11:50:40.723531 26950 net.cpp:382] SCNN_U_10_SCNN_U_11/sum_0_split -> SCNN_U_10_SCNN_U_11/sum_0_split_0
I0313 11:50:40.723543 26950 net.cpp:382] SCNN_U_10_SCNN_U_11/sum_0_split -> SCNN_U_10_SCNN_U_11/sum_0_split_1
I0313 11:50:40.723641 26950 net.cpp:124] Setting up SCNN_U_10_SCNN_U_11/sum_0_split
I0313 11:50:40.723655 26950 net.cpp:131] Top shape: 1 64 1 80 (5120)
I0313 11:50:40.723664 26950 net.cpp:131] Top shape: 1 64 1 80 (5120)
I0313 11:50:40.723670 26950 net.cpp:139] Memory required for data: 328847360
I0313 11:50:40.723675 26950 layer_factory.hpp:77] Creating layer SCNN_U_10
I0313 11:50:40.723690 26950 net.cpp:86] Creating Layer SCNN_U_10
I0313 11:50:40.723697 26950 net.cpp:408] SCNN_U_10 <- SCNN_U_10_SCNN_U_11/sum_0_split_0
I0313 11:50:40.723709 26950 net.cpp:382] SCNN_U_10 -> SCNN_U_10/message
I0313 11:50:40.726181 26950 net.cpp:124] Setting up SCNN_U_10
I0313 11:50:40.726212 26950 net.cpp:131] Top shape: 1 64 1 80 (5120)
I0313 11:50:40.726218 26950 net.cpp:139] Memory required for data: 328867840
I0313 11:50:40.726229 26950 net.cpp:467] Sharing parameters 'SCNN_U_w' owned by layer 'SCNN_U_60', param index 0
I0313 11:50:40.726236 26950 layer_factory.hpp:77] Creating layer SCNN_U_10/relu
I0313 11:50:40.726249 26950 net.cpp:86] Creating Layer SCNN_U_10/relu
I0313 11:50:40.726261 26950 net.cpp:408] SCNN_U_10/relu <- SCNN_U_10/message
I0313 11:50:40.726275 26950 net.cpp:369] SCNN_U_10/relu -> SCNN_U_10/message (in-place)
I0313 11:50:40.726557 26950 net.cpp:124] Setting up SCNN_U_10/relu
I0313 11:50:40.726569 26950 net.cpp:131] Top shape: 1 64 1 80 (5120)
I0313 11:50:40.726577 26950 net.cpp:139] Memory required for data: 328888320
I0313 11:50:40.726583 26950 layer_factory.hpp:77] Creating layer SCNN_U_10/sum
I0313 11:50:40.726593 26950 net.cpp:86] Creating Layer SCNN_U_10/sum
I0313 11:50:40.726604 26950 net.cpp:408] SCNN_U_10/sum <- SCNN_U_10/message
I0313 11:50:40.726616 26950 net.cpp:408] SCNN_U_10/sum <- SCNN_D_9_SCNN_D_8/sum_0_split_1
I0313 11:50:40.726626 26950 net.cpp:382] SCNN_U_10/sum -> SCNN_U_9
I0313 11:50:40.726694 26950 net.cpp:124] Setting up SCNN_U_10/sum
I0313 11:50:40.726708 26950 net.cpp:131] Top shape: 1 64 1 80 (5120)
I0313 11:50:40.726714 26950 net.cpp:139] Memory required for data: 328908800
I0313 11:50:40.726719 26950 layer_factory.hpp:77] Creating layer SCNN_U_9_SCNN_U_10/sum_0_split
I0313 11:50:40.726729 26950 net.cpp:86] Creating Layer SCNN_U_9_SCNN_U_10/sum_0_split
I0313 11:50:40.726738 26950 net.cpp:408] SCNN_U_9_SCNN_U_10/sum_0_split <- SCNN_U_9
I0313 11:50:40.726752 26950 net.cpp:382] SCNN_U_9_SCNN_U_10/sum_0_split -> SCNN_U_9_SCNN_U_10/sum_0_split_0
I0313 11:50:40.726764 26950 net.cpp:382] SCNN_U_9_SCNN_U_10/sum_0_split -> SCNN_U_9_SCNN_U_10/sum_0_split_1
I0313 11:50:40.726855 26950 net.cpp:124] Setting up SCNN_U_9_SCNN_U_10/sum_0_split
I0313 11:50:40.726867 26950 net.cpp:131] Top shape: 1 64 1 80 (5120)
I0313 11:50:40.726876 26950 net.cpp:131] Top shape: 1 64 1 80 (5120)
I0313 11:50:40.726881 26950 net.cpp:139] Memory required for data: 328949760
I0313 11:50:40.726887 26950 layer_factory.hpp:77] Creating layer SCNN_U_9
I0313 11:50:40.726907 26950 net.cpp:86] Creating Layer SCNN_U_9
I0313 11:50:40.726917 26950 net.cpp:408] SCNN_U_9 <- SCNN_U_9_SCNN_U_10/sum_0_split_0
I0313 11:50:40.726928 26950 net.cpp:382] SCNN_U_9 -> SCNN_U_9/message
I0313 11:50:40.732492 26950 net.cpp:124] Setting up SCNN_U_9
I0313 11:50:40.732542 26950 net.cpp:131] Top shape: 1 64 1 80 (5120)
I0313 11:50:40.732547 26950 net.cpp:139] Memory required for data: 328970240
I0313 11:50:40.732561 26950 net.cpp:467] Sharing parameters 'SCNN_U_w' owned by layer 'SCNN_U_60', param index 0
I0313 11:50:40.732568 26950 layer_factory.hpp:77] Creating layer SCNN_U_9/relu
I0313 11:50:40.732584 26950 net.cpp:86] Creating Layer SCNN_U_9/relu
I0313 11:50:40.732599 26950 net.cpp:408] SCNN_U_9/relu <- SCNN_U_9/message
I0313 11:50:40.732615 26950 net.cpp:369] SCNN_U_9/relu -> SCNN_U_9/message (in-place)
I0313 11:50:40.733287 26950 net.cpp:124] Setting up SCNN_U_9/relu
I0313 11:50:40.733305 26950 net.cpp:131] Top shape: 1 64 1 80 (5120)
I0313 11:50:40.733310 26950 net.cpp:139] Memory required for data: 328990720
I0313 11:50:40.733314 26950 layer_factory.hpp:77] Creating layer SCNN_U_9/sum
I0313 11:50:40.733326 26950 net.cpp:86] Creating Layer SCNN_U_9/sum
I0313 11:50:40.733336 26950 net.cpp:408] SCNN_U_9/sum <- SCNN_U_9/message
I0313 11:50:40.733351 26950 net.cpp:408] SCNN_U_9/sum <- SCNN_D_8_SCNN_D_7/sum_0_split_1
I0313 11:50:40.733362 26950 net.cpp:382] SCNN_U_9/sum -> SCNN_U_8
I0313 11:50:40.733443 26950 net.cpp:124] Setting up SCNN_U_9/sum
I0313 11:50:40.733458 26950 net.cpp:131] Top shape: 1 64 1 80 (5120)
I0313 11:50:40.733463 26950 net.cpp:139] Memory required for data: 329011200
I0313 11:50:40.733466 26950 layer_factory.hpp:77] Creating layer SCNN_U_8_SCNN_U_9/sum_0_split
I0313 11:50:40.733476 26950 net.cpp:86] Creating Layer SCNN_U_8_SCNN_U_9/sum_0_split
I0313 11:50:40.733484 26950 net.cpp:408] SCNN_U_8_SCNN_U_9/sum_0_split <- SCNN_U_8
I0313 11:50:40.733495 26950 net.cpp:382] SCNN_U_8_SCNN_U_9/sum_0_split -> SCNN_U_8_SCNN_U_9/sum_0_split_0
I0313 11:50:40.733507 26950 net.cpp:382] SCNN_U_8_SCNN_U_9/sum_0_split -> SCNN_U_8_SCNN_U_9/sum_0_split_1
I0313 11:50:40.733603 26950 net.cpp:124] Setting up SCNN_U_8_SCNN_U_9/sum_0_split
I0313 11:50:40.733615 26950 net.cpp:131] Top shape: 1 64 1 80 (5120)
I0313 11:50:40.733621 26950 net.cpp:131] Top shape: 1 64 1 80 (5120)
I0313 11:50:40.733625 26950 net.cpp:139] Memory required for data: 329052160
I0313 11:50:40.733630 26950 layer_factory.hpp:77] Creating layer SCNN_U_8
I0313 11:50:40.733645 26950 net.cpp:86] Creating Layer SCNN_U_8
I0313 11:50:40.733654 26950 net.cpp:408] SCNN_U_8 <- SCNN_U_8_SCNN_U_9/sum_0_split_0
I0313 11:50:40.733670 26950 net.cpp:382] SCNN_U_8 -> SCNN_U_8/message
I0313 11:50:40.736284 26950 net.cpp:124] Setting up SCNN_U_8
I0313 11:50:40.736315 26950 net.cpp:131] Top shape: 1 64 1 80 (5120)
I0313 11:50:40.736320 26950 net.cpp:139] Memory required for data: 329072640
I0313 11:50:40.736330 26950 net.cpp:467] Sharing parameters 'SCNN_U_w' owned by layer 'SCNN_U_60', param index 0
I0313 11:50:40.736335 26950 layer_factory.hpp:77] Creating layer SCNN_U_8/relu
I0313 11:50:40.736348 26950 net.cpp:86] Creating Layer SCNN_U_8/relu
I0313 11:50:40.736363 26950 net.cpp:408] SCNN_U_8/relu <- SCNN_U_8/message
I0313 11:50:40.736378 26950 net.cpp:369] SCNN_U_8/relu -> SCNN_U_8/message (in-place)
I0313 11:50:40.736680 26950 net.cpp:124] Setting up SCNN_U_8/relu
I0313 11:50:40.736696 26950 net.cpp:131] Top shape: 1 64 1 80 (5120)
I0313 11:50:40.736703 26950 net.cpp:139] Memory required for data: 329093120
I0313 11:50:40.736707 26950 layer_factory.hpp:77] Creating layer SCNN_U_8/sum
I0313 11:50:40.736716 26950 net.cpp:86] Creating Layer SCNN_U_8/sum
I0313 11:50:40.736726 26950 net.cpp:408] SCNN_U_8/sum <- SCNN_U_8/message
I0313 11:50:40.736738 26950 net.cpp:408] SCNN_U_8/sum <- SCNN_D_7_SCNN_D_6/sum_0_split_1
I0313 11:50:40.736750 26950 net.cpp:382] SCNN_U_8/sum -> SCNN_U_7
I0313 11:50:40.736825 26950 net.cpp:124] Setting up SCNN_U_8/sum
I0313 11:50:40.736840 26950 net.cpp:131] Top shape: 1 64 1 80 (5120)
I0313 11:50:40.736845 26950 net.cpp:139] Memory required for data: 329113600
I0313 11:50:40.736848 26950 layer_factory.hpp:77] Creating layer SCNN_U_7_SCNN_U_8/sum_0_split
I0313 11:50:40.736857 26950 net.cpp:86] Creating Layer SCNN_U_7_SCNN_U_8/sum_0_split
I0313 11:50:40.736865 26950 net.cpp:408] SCNN_U_7_SCNN_U_8/sum_0_split <- SCNN_U_7
I0313 11:50:40.736873 26950 net.cpp:382] SCNN_U_7_SCNN_U_8/sum_0_split -> SCNN_U_7_SCNN_U_8/sum_0_split_0
I0313 11:50:40.736893 26950 net.cpp:382] SCNN_U_7_SCNN_U_8/sum_0_split -> SCNN_U_7_SCNN_U_8/sum_0_split_1
I0313 11:50:40.736991 26950 net.cpp:124] Setting up SCNN_U_7_SCNN_U_8/sum_0_split
I0313 11:50:40.737005 26950 net.cpp:131] Top shape: 1 64 1 80 (5120)
I0313 11:50:40.737012 26950 net.cpp:131] Top shape: 1 64 1 80 (5120)
I0313 11:50:40.737017 26950 net.cpp:139] Memory required for data: 329154560
I0313 11:50:40.737021 26950 layer_factory.hpp:77] Creating layer SCNN_U_7
I0313 11:50:40.737035 26950 net.cpp:86] Creating Layer SCNN_U_7
I0313 11:50:40.737046 26950 net.cpp:408] SCNN_U_7 <- SCNN_U_7_SCNN_U_8/sum_0_split_0
I0313 11:50:40.737059 26950 net.cpp:382] SCNN_U_7 -> SCNN_U_7/message
I0313 11:50:40.739660 26950 net.cpp:124] Setting up SCNN_U_7
I0313 11:50:40.739691 26950 net.cpp:131] Top shape: 1 64 1 80 (5120)
I0313 11:50:40.739699 26950 net.cpp:139] Memory required for data: 329175040
I0313 11:50:40.739708 26950 net.cpp:467] Sharing parameters 'SCNN_U_w' owned by layer 'SCNN_U_60', param index 0
I0313 11:50:40.739713 26950 layer_factory.hpp:77] Creating layer SCNN_U_7/relu
I0313 11:50:40.739722 26950 net.cpp:86] Creating Layer SCNN_U_7/relu
I0313 11:50:40.739732 26950 net.cpp:408] SCNN_U_7/relu <- SCNN_U_7/message
I0313 11:50:40.739753 26950 net.cpp:369] SCNN_U_7/relu -> SCNN_U_7/message (in-place)
I0313 11:50:40.740041 26950 net.cpp:124] Setting up SCNN_U_7/relu
I0313 11:50:40.740054 26950 net.cpp:131] Top shape: 1 64 1 80 (5120)
I0313 11:50:40.740059 26950 net.cpp:139] Memory required for data: 329195520
I0313 11:50:40.740063 26950 layer_factory.hpp:77] Creating layer SCNN_U_7/sum
I0313 11:50:40.740070 26950 net.cpp:86] Creating Layer SCNN_U_7/sum
I0313 11:50:40.740079 26950 net.cpp:408] SCNN_U_7/sum <- SCNN_U_7/message
I0313 11:50:40.740101 26950 net.cpp:408] SCNN_U_7/sum <- SCNN_D_6_SCNN_D_5/sum_0_split_1
I0313 11:50:40.740110 26950 net.cpp:382] SCNN_U_7/sum -> SCNN_U_6
I0313 11:50:40.740195 26950 net.cpp:124] Setting up SCNN_U_7/sum
I0313 11:50:40.740208 26950 net.cpp:131] Top shape: 1 64 1 80 (5120)
I0313 11:50:40.740213 26950 net.cpp:139] Memory required for data: 329216000
I0313 11:50:40.740218 26950 layer_factory.hpp:77] Creating layer SCNN_U_6_SCNN_U_7/sum_0_split
I0313 11:50:40.740224 26950 net.cpp:86] Creating Layer SCNN_U_6_SCNN_U_7/sum_0_split
I0313 11:50:40.740231 26950 net.cpp:408] SCNN_U_6_SCNN_U_7/sum_0_split <- SCNN_U_6
I0313 11:50:40.740250 26950 net.cpp:382] SCNN_U_6_SCNN_U_7/sum_0_split -> SCNN_U_6_SCNN_U_7/sum_0_split_0
I0313 11:50:40.740265 26950 net.cpp:382] SCNN_U_6_SCNN_U_7/sum_0_split -> SCNN_U_6_SCNN_U_7/sum_0_split_1
I0313 11:50:40.740366 26950 net.cpp:124] Setting up SCNN_U_6_SCNN_U_7/sum_0_split
I0313 11:50:40.740381 26950 net.cpp:131] Top shape: 1 64 1 80 (5120)
I0313 11:50:40.740386 26950 net.cpp:131] Top shape: 1 64 1 80 (5120)
I0313 11:50:40.740391 26950 net.cpp:139] Memory required for data: 329256960
I0313 11:50:40.740396 26950 layer_factory.hpp:77] Creating layer SCNN_U_6
I0313 11:50:40.740407 26950 net.cpp:86] Creating Layer SCNN_U_6
I0313 11:50:40.740415 26950 net.cpp:408] SCNN_U_6 <- SCNN_U_6_SCNN_U_7/sum_0_split_0
I0313 11:50:40.740437 26950 net.cpp:382] SCNN_U_6 -> SCNN_U_6/message
I0313 11:50:40.745133 26950 net.cpp:124] Setting up SCNN_U_6
I0313 11:50:40.745182 26950 net.cpp:131] Top shape: 1 64 1 80 (5120)
I0313 11:50:40.745189 26950 net.cpp:139] Memory required for data: 329277440
I0313 11:50:40.745203 26950 net.cpp:467] Sharing parameters 'SCNN_U_w' owned by layer 'SCNN_U_60', param index 0
I0313 11:50:40.745209 26950 layer_factory.hpp:77] Creating layer SCNN_U_6/relu
I0313 11:50:40.745221 26950 net.cpp:86] Creating Layer SCNN_U_6/relu
I0313 11:50:40.745236 26950 net.cpp:408] SCNN_U_6/relu <- SCNN_U_6/message
I0313 11:50:40.745255 26950 net.cpp:369] SCNN_U_6/relu -> SCNN_U_6/message (in-place)
I0313 11:50:40.745570 26950 net.cpp:124] Setting up SCNN_U_6/relu
I0313 11:50:40.745587 26950 net.cpp:131] Top shape: 1 64 1 80 (5120)
I0313 11:50:40.745594 26950 net.cpp:139] Memory required for data: 329297920
I0313 11:50:40.745601 26950 layer_factory.hpp:77] Creating layer SCNN_U_6/sum
I0313 11:50:40.745611 26950 net.cpp:86] Creating Layer SCNN_U_6/sum
I0313 11:50:40.745623 26950 net.cpp:408] SCNN_U_6/sum <- SCNN_U_6/message
I0313 11:50:40.745640 26950 net.cpp:408] SCNN_U_6/sum <- SCNN_D_5_SCNN_D_4/sum_0_split_1
I0313 11:50:40.745651 26950 net.cpp:382] SCNN_U_6/sum -> SCNN_U_5
I0313 11:50:40.745728 26950 net.cpp:124] Setting up SCNN_U_6/sum
I0313 11:50:40.745743 26950 net.cpp:131] Top shape: 1 64 1 80 (5120)
I0313 11:50:40.745750 26950 net.cpp:139] Memory required for data: 329318400
I0313 11:50:40.745757 26950 layer_factory.hpp:77] Creating layer SCNN_U_5_SCNN_U_6/sum_0_split
I0313 11:50:40.745767 26950 net.cpp:86] Creating Layer SCNN_U_5_SCNN_U_6/sum_0_split
I0313 11:50:40.745777 26950 net.cpp:408] SCNN_U_5_SCNN_U_6/sum_0_split <- SCNN_U_5
I0313 11:50:40.745788 26950 net.cpp:382] SCNN_U_5_SCNN_U_6/sum_0_split -> SCNN_U_5_SCNN_U_6/sum_0_split_0
I0313 11:50:40.745803 26950 net.cpp:382] SCNN_U_5_SCNN_U_6/sum_0_split -> SCNN_U_5_SCNN_U_6/sum_0_split_1
I0313 11:50:40.745903 26950 net.cpp:124] Setting up SCNN_U_5_SCNN_U_6/sum_0_split
I0313 11:50:40.745918 26950 net.cpp:131] Top shape: 1 64 1 80 (5120)
I0313 11:50:40.745926 26950 net.cpp:131] Top shape: 1 64 1 80 (5120)
I0313 11:50:40.745930 26950 net.cpp:139] Memory required for data: 329359360
I0313 11:50:40.745935 26950 layer_factory.hpp:77] Creating layer SCNN_U_5
I0313 11:50:40.745949 26950 net.cpp:86] Creating Layer SCNN_U_5
I0313 11:50:40.745957 26950 net.cpp:408] SCNN_U_5 <- SCNN_U_5_SCNN_U_6/sum_0_split_0
I0313 11:50:40.745971 26950 net.cpp:382] SCNN_U_5 -> SCNN_U_5/message
I0313 11:50:40.748622 26950 net.cpp:124] Setting up SCNN_U_5
I0313 11:50:40.748656 26950 net.cpp:131] Top shape: 1 64 1 80 (5120)
I0313 11:50:40.748663 26950 net.cpp:139] Memory required for data: 329379840
I0313 11:50:40.748673 26950 net.cpp:467] Sharing parameters 'SCNN_U_w' owned by layer 'SCNN_U_60', param index 0
I0313 11:50:40.748679 26950 layer_factory.hpp:77] Creating layer SCNN_U_5/relu
I0313 11:50:40.748689 26950 net.cpp:86] Creating Layer SCNN_U_5/relu
I0313 11:50:40.748698 26950 net.cpp:408] SCNN_U_5/relu <- SCNN_U_5/message
I0313 11:50:40.748723 26950 net.cpp:369] SCNN_U_5/relu -> SCNN_U_5/message (in-place)
I0313 11:50:40.749387 26950 net.cpp:124] Setting up SCNN_U_5/relu
I0313 11:50:40.749406 26950 net.cpp:131] Top shape: 1 64 1 80 (5120)
I0313 11:50:40.749411 26950 net.cpp:139] Memory required for data: 329400320
I0313 11:50:40.749416 26950 layer_factory.hpp:77] Creating layer SCNN_U_5/sum
I0313 11:50:40.749424 26950 net.cpp:86] Creating Layer SCNN_U_5/sum
I0313 11:50:40.749433 26950 net.cpp:408] SCNN_U_5/sum <- SCNN_U_5/message
I0313 11:50:40.749456 26950 net.cpp:408] SCNN_U_5/sum <- SCNN_D_4_SCNN_D_3/sum_0_split_1
I0313 11:50:40.749469 26950 net.cpp:382] SCNN_U_5/sum -> SCNN_U_4
I0313 11:50:40.749543 26950 net.cpp:124] Setting up SCNN_U_5/sum
I0313 11:50:40.749558 26950 net.cpp:131] Top shape: 1 64 1 80 (5120)
I0313 11:50:40.749563 26950 net.cpp:139] Memory required for data: 329420800
I0313 11:50:40.749568 26950 layer_factory.hpp:77] Creating layer SCNN_U_4_SCNN_U_5/sum_0_split
I0313 11:50:40.749575 26950 net.cpp:86] Creating Layer SCNN_U_4_SCNN_U_5/sum_0_split
I0313 11:50:40.749584 26950 net.cpp:408] SCNN_U_4_SCNN_U_5/sum_0_split <- SCNN_U_4
I0313 11:50:40.749595 26950 net.cpp:382] SCNN_U_4_SCNN_U_5/sum_0_split -> SCNN_U_4_SCNN_U_5/sum_0_split_0
I0313 11:50:40.749613 26950 net.cpp:382] SCNN_U_4_SCNN_U_5/sum_0_split -> SCNN_U_4_SCNN_U_5/sum_0_split_1
I0313 11:50:40.749711 26950 net.cpp:124] Setting up SCNN_U_4_SCNN_U_5/sum_0_split
I0313 11:50:40.749724 26950 net.cpp:131] Top shape: 1 64 1 80 (5120)
I0313 11:50:40.749733 26950 net.cpp:131] Top shape: 1 64 1 80 (5120)
I0313 11:50:40.749740 26950 net.cpp:139] Memory required for data: 329461760
I0313 11:50:40.749747 26950 layer_factory.hpp:77] Creating layer SCNN_U_4
I0313 11:50:40.749761 26950 net.cpp:86] Creating Layer SCNN_U_4
I0313 11:50:40.749773 26950 net.cpp:408] SCNN_U_4 <- SCNN_U_4_SCNN_U_5/sum_0_split_0
I0313 11:50:40.749785 26950 net.cpp:382] SCNN_U_4 -> SCNN_U_4/message
I0313 11:50:40.752053 26950 net.cpp:124] Setting up SCNN_U_4
I0313 11:50:40.752080 26950 net.cpp:131] Top shape: 1 64 1 80 (5120)
I0313 11:50:40.752089 26950 net.cpp:139] Memory required for data: 329482240
I0313 11:50:40.752099 26950 net.cpp:467] Sharing parameters 'SCNN_U_w' owned by layer 'SCNN_U_60', param index 0
I0313 11:50:40.752107 26950 layer_factory.hpp:77] Creating layer SCNN_U_4/relu
I0313 11:50:40.752120 26950 net.cpp:86] Creating Layer SCNN_U_4/relu
I0313 11:50:40.752130 26950 net.cpp:408] SCNN_U_4/relu <- SCNN_U_4/message
I0313 11:50:40.752143 26950 net.cpp:369] SCNN_U_4/relu -> SCNN_U_4/message (in-place)
I0313 11:50:40.752835 26950 net.cpp:124] Setting up SCNN_U_4/relu
I0313 11:50:40.752853 26950 net.cpp:131] Top shape: 1 64 1 80 (5120)
I0313 11:50:40.752861 26950 net.cpp:139] Memory required for data: 329502720
I0313 11:50:40.752868 26950 layer_factory.hpp:77] Creating layer SCNN_U_4/sum
I0313 11:50:40.752878 26950 net.cpp:86] Creating Layer SCNN_U_4/sum
I0313 11:50:40.752892 26950 net.cpp:408] SCNN_U_4/sum <- SCNN_U_4/message
I0313 11:50:40.752907 26950 net.cpp:408] SCNN_U_4/sum <- SCNN_D_3_SCNN_D_2/sum_0_split_1
I0313 11:50:40.752920 26950 net.cpp:382] SCNN_U_4/sum -> SCNN_U_3
I0313 11:50:40.752995 26950 net.cpp:124] Setting up SCNN_U_4/sum
I0313 11:50:40.753010 26950 net.cpp:131] Top shape: 1 64 1 80 (5120)
I0313 11:50:40.753017 26950 net.cpp:139] Memory required for data: 329523200
I0313 11:50:40.753024 26950 layer_factory.hpp:77] Creating layer SCNN_U_3_SCNN_U_4/sum_0_split
I0313 11:50:40.753033 26950 net.cpp:86] Creating Layer SCNN_U_3_SCNN_U_4/sum_0_split
I0313 11:50:40.753044 26950 net.cpp:408] SCNN_U_3_SCNN_U_4/sum_0_split <- SCNN_U_3
I0313 11:50:40.753057 26950 net.cpp:382] SCNN_U_3_SCNN_U_4/sum_0_split -> SCNN_U_3_SCNN_U_4/sum_0_split_0
I0313 11:50:40.753070 26950 net.cpp:382] SCNN_U_3_SCNN_U_4/sum_0_split -> SCNN_U_3_SCNN_U_4/sum_0_split_1
I0313 11:50:40.753171 26950 net.cpp:124] Setting up SCNN_U_3_SCNN_U_4/sum_0_split
I0313 11:50:40.753185 26950 net.cpp:131] Top shape: 1 64 1 80 (5120)
I0313 11:50:40.753193 26950 net.cpp:131] Top shape: 1 64 1 80 (5120)
I0313 11:50:40.753199 26950 net.cpp:139] Memory required for data: 329564160
I0313 11:50:40.753206 26950 layer_factory.hpp:77] Creating layer SCNN_U_3
I0313 11:50:40.753221 26950 net.cpp:86] Creating Layer SCNN_U_3
I0313 11:50:40.753232 26950 net.cpp:408] SCNN_U_3 <- SCNN_U_3_SCNN_U_4/sum_0_split_0
I0313 11:50:40.753244 26950 net.cpp:382] SCNN_U_3 -> SCNN_U_3/message
I0313 11:50:40.757930 26950 net.cpp:124] Setting up SCNN_U_3
I0313 11:50:40.757978 26950 net.cpp:131] Top shape: 1 64 1 80 (5120)
I0313 11:50:40.757987 26950 net.cpp:139] Memory required for data: 329584640
I0313 11:50:40.758030 26950 net.cpp:467] Sharing parameters 'SCNN_U_w' owned by layer 'SCNN_U_60', param index 0
I0313 11:50:40.758044 26950 layer_factory.hpp:77] Creating layer SCNN_U_3/relu
I0313 11:50:40.758059 26950 net.cpp:86] Creating Layer SCNN_U_3/relu
I0313 11:50:40.758075 26950 net.cpp:408] SCNN_U_3/relu <- SCNN_U_3/message
I0313 11:50:40.758093 26950 net.cpp:369] SCNN_U_3/relu -> SCNN_U_3/message (in-place)
I0313 11:50:40.758409 26950 net.cpp:124] Setting up SCNN_U_3/relu
I0313 11:50:40.758424 26950 net.cpp:131] Top shape: 1 64 1 80 (5120)
I0313 11:50:40.758428 26950 net.cpp:139] Memory required for data: 329605120
I0313 11:50:40.758433 26950 layer_factory.hpp:77] Creating layer SCNN_U_3/sum
I0313 11:50:40.758441 26950 net.cpp:86] Creating Layer SCNN_U_3/sum
I0313 11:50:40.758452 26950 net.cpp:408] SCNN_U_3/sum <- SCNN_U_3/message
I0313 11:50:40.758468 26950 net.cpp:408] SCNN_U_3/sum <- SCNN_D_2_SCNN_D_1/sum_0_split_1
I0313 11:50:40.758479 26950 net.cpp:382] SCNN_U_3/sum -> SCNN_U_2
I0313 11:50:40.758559 26950 net.cpp:124] Setting up SCNN_U_3/sum
I0313 11:50:40.758574 26950 net.cpp:131] Top shape: 1 64 1 80 (5120)
I0313 11:50:40.758581 26950 net.cpp:139] Memory required for data: 329625600
I0313 11:50:40.758589 26950 layer_factory.hpp:77] Creating layer SCNN_U_2_SCNN_U_3/sum_0_split
I0313 11:50:40.758599 26950 net.cpp:86] Creating Layer SCNN_U_2_SCNN_U_3/sum_0_split
I0313 11:50:40.758608 26950 net.cpp:408] SCNN_U_2_SCNN_U_3/sum_0_split <- SCNN_U_2
I0313 11:50:40.758620 26950 net.cpp:382] SCNN_U_2_SCNN_U_3/sum_0_split -> SCNN_U_2_SCNN_U_3/sum_0_split_0
I0313 11:50:40.758635 26950 net.cpp:382] SCNN_U_2_SCNN_U_3/sum_0_split -> SCNN_U_2_SCNN_U_3/sum_0_split_1
I0313 11:50:40.758738 26950 net.cpp:124] Setting up SCNN_U_2_SCNN_U_3/sum_0_split
I0313 11:50:40.758751 26950 net.cpp:131] Top shape: 1 64 1 80 (5120)
I0313 11:50:40.758760 26950 net.cpp:131] Top shape: 1 64 1 80 (5120)
I0313 11:50:40.758767 26950 net.cpp:139] Memory required for data: 329666560
I0313 11:50:40.758774 26950 layer_factory.hpp:77] Creating layer SCNN_U_2
I0313 11:50:40.758790 26950 net.cpp:86] Creating Layer SCNN_U_2
I0313 11:50:40.758800 26950 net.cpp:408] SCNN_U_2 <- SCNN_U_2_SCNN_U_3/sum_0_split_0
I0313 11:50:40.758812 26950 net.cpp:382] SCNN_U_2 -> SCNN_U_2/message
I0313 11:50:40.761502 26950 net.cpp:124] Setting up SCNN_U_2
I0313 11:50:40.761533 26950 net.cpp:131] Top shape: 1 64 1 80 (5120)
I0313 11:50:40.761541 26950 net.cpp:139] Memory required for data: 329687040
I0313 11:50:40.761554 26950 net.cpp:467] Sharing parameters 'SCNN_U_w' owned by layer 'SCNN_U_60', param index 0
I0313 11:50:40.761561 26950 layer_factory.hpp:77] Creating layer SCNN_U_2/relu
I0313 11:50:40.761572 26950 net.cpp:86] Creating Layer SCNN_U_2/relu
I0313 11:50:40.761584 26950 net.cpp:408] SCNN_U_2/relu <- SCNN_U_2/message
I0313 11:50:40.761596 26950 net.cpp:369] SCNN_U_2/relu -> SCNN_U_2/message (in-place)
I0313 11:50:40.761898 26950 net.cpp:124] Setting up SCNN_U_2/relu
I0313 11:50:40.761914 26950 net.cpp:131] Top shape: 1 64 1 80 (5120)
I0313 11:50:40.761920 26950 net.cpp:139] Memory required for data: 329707520
I0313 11:50:40.761925 26950 layer_factory.hpp:77] Creating layer SCNN_U_2/sum
I0313 11:50:40.761934 26950 net.cpp:86] Creating Layer SCNN_U_2/sum
I0313 11:50:40.761945 26950 net.cpp:408] SCNN_U_2/sum <- SCNN_U_2/message
I0313 11:50:40.761957 26950 net.cpp:408] SCNN_U_2/sum <- slice1_1_Slice1_0_split_1
I0313 11:50:40.761965 26950 net.cpp:382] SCNN_U_2/sum -> SCNN_U_1
I0313 11:50:40.762037 26950 net.cpp:124] Setting up SCNN_U_2/sum
I0313 11:50:40.762051 26950 net.cpp:131] Top shape: 1 64 1 80 (5120)
I0313 11:50:40.762058 26950 net.cpp:139] Memory required for data: 329728000
I0313 11:50:40.762064 26950 layer_factory.hpp:77] Creating layer Concat1
I0313 11:50:40.762079 26950 net.cpp:86] Creating Layer Concat1
I0313 11:50:40.762089 26950 net.cpp:408] Concat1 <- SCNN_U_1
I0313 11:50:40.762104 26950 net.cpp:408] Concat1 <- SCNN_U_2_SCNN_U_3/sum_0_split_1
I0313 11:50:40.762115 26950 net.cpp:408] Concat1 <- SCNN_U_3_SCNN_U_4/sum_0_split_1
…
I0313 11:50:40.762563 26950 net.cpp:408] Concat1 <- SCNN_U_55_SCNN_U_56/sum_0_split_1
I0313 11:50:40.762571 26950 net.cpp:408] Concat1 <- SCNN_U_56_SCNN_U_57/sum_0_split_1
I0313 11:50:40.762580 26950 net.cpp:408] Concat1 <- SCNN_U_57_SCNN_U_58/sum_0_split_1
I0313 11:50:40.762588 26950 net.cpp:408] Concat1 <- SCNN_U_58_SCNN_U_59/sum_0_split_1
I0313 11:50:40.762596 26950 net.cpp:408] Concat1 <- SCNN_U_59_SCNN_U_60/sum_0_split_1
I0313 11:50:40.762606 26950 net.cpp:408] Concat1 <- SCNN_D_60_SCNN_D_59/sum_0_split_1
I0313 11:50:40.762620 26950 net.cpp:382] Concat1 -> SCNN_U
I0313 11:50:40.762702 26950 net.cpp:124] Setting up Concat1
I0313 11:50:40.762717 26950 net.cpp:131] Top shape: 1 64 60 80 (307200)
I0313 11:50:40.762723 26950 net.cpp:139] Memory required for data: 330956800
I0313 11:50:40.762729 26950 layer_factory.hpp:77] Creating layer conv6
I0313 11:50:40.762744 26950 net.cpp:86] Creating Layer conv6
I0313 11:50:40.762754 26950 net.cpp:408] conv6 <- SCNN_U
I0313 11:50:40.762768 26950 net.cpp:382] conv6 -> conv6
I0313 11:50:40.765002 26950 net.cpp:124] Setting up conv6
I0313 11:50:40.765030 26950 net.cpp:131] Top shape: 1 64 60 80 (307200)
I0313 11:50:40.765038 26950 net.cpp:139] Memory required for data: 332185600
I0313 11:50:40.765058 26950 layer_factory.hpp:77] Creating layer deconv_out
I0313 11:50:40.765075 26950 net.cpp:86] Creating Layer deconv_out
I0313 11:50:40.765089 26950 net.cpp:408] deconv_out <- conv6
I0313 11:50:40.765105 26950 net.cpp:382] deconv_out -> deconv_out
I0313 11:50:40.772974 26950 net.cpp:124] Setting up deconv_out
I0313 11:50:40.773022 26950 net.cpp:131] Top shape: 1 32 480 640 (9830400)
I0313 11:50:40.773030 26950 net.cpp:139] Memory required for data: 371507200
I0313 11:50:40.773043 26950 layer_factory.hpp:77] Creating layer conv_out
I0313 11:50:40.773064 26950 net.cpp:86] Creating Layer conv_out
I0313 11:50:40.773083 26950 net.cpp:408] conv_out <- deconv_out
I0313 11:50:40.773102 26950 net.cpp:382] conv_out -> conv_out
I0313 11:50:40.778764 26950 net.cpp:124] Setting up conv_out
I0313 11:50:40.778812 26950 net.cpp:131] Top shape: 1 13 480 640 (3993600)
I0313 11:50:40.778820 26950 net.cpp:139] Memory required for data: 387481600
I0313 11:50:40.778833 26950 layer_factory.hpp:77] Creating layer softmax
I0313 11:50:40.778847 26950 net.cpp:86] Creating Layer softmax
I0313 11:50:40.778867 26950 net.cpp:408] softmax <- conv_out
I0313 11:50:40.778887 26950 net.cpp:382] softmax -> softmax
I0313 11:50:40.779590 26950 net.cpp:124] Setting up softmax
I0313 11:50:40.779609 26950 net.cpp:131] Top shape: 1 13 480 640 (3993600)
I0313 11:50:40.779615 26950 net.cpp:139] Memory required for data: 403456000
I0313 11:50:40.779621 26950 net.cpp:202] softmax does not need backward computation.
I0313 11:50:40.779628 26950 net.cpp:202] conv_out does not need backward computation.
I0313 11:50:40.779633 26950 net.cpp:202] deconv_out does not need backward computation.
I0313 11:50:40.779639 26950 net.cpp:202] conv6 does not need backward computation.
…
