…
I0313 11:01:53.987751 15997 common.cpp:197] Concurrent copy and execution: Yes
I0313 11:01:53.987758 15997 common.cpp:199] Number of multiprocessors:     10
I0313 11:01:53.987761 15997 common.cpp:200] Kernel execution timeout:      Yes
I0313 11:01:54.019323 15997 net.cpp:53] Initializing net from parameters: 
name: "darknet-16c-16x-3d multitask TEST 960x384, offset L3:440, L4: 312, RM DET"
state {
  phase: TEST
  level: 0
}
layer {
  name: "input"
  type: "Input"
  top: "data"
  input_param {
    shape {
      dim: 1
      dim: 3
      dim: 480
      dim: 640
    }
  }
}
layer {
  name: "scale_data_lane"
  type: "Power"
  bottom: "data"
  top: "scale_data_lane"
  propagate_down: false
  power_param {
    power: 1
    scale: 0.00392157
    shift: 0
  }
}
layer {
  name: "conv1"
  type: "Convolution"
  bottom: "scale_data_lane"
  top: "conv1"
  param {
    lr_mult: 1
    decay_mult: 1
  }
  convolution_param {
    num_output: 16
    bias_term: false
    pad: 1
    kernel_size: 3
    stride: 1
    weight_filler {
      type: "gaussian"
      std: 0.01
    }
    dilation: 1
  }
}
layer {
  name: "conv1_bn"
  type: "BatchNorm"
  bottom: "conv1"
  top: "conv1"
  batch_norm_param {
    use_global_stats: true
    eps: 1e-06
  }
}
layer {
  name: "conv1_scale"
  type: "Scale"
  bottom: "conv1"
  top: "conv1"
  param {
    lr_mult: 1
    decay_mult: 1
  }
  param {
    lr_mult: 1
    decay_mult: 1
  }
  scale_param {
    filler {
      type: "constant"
      value: 1
    }
    bias_term: true
  }
}
layer {
  name: "conv1_relu"
  type: "ReLU"
  bottom: "conv1"
  top: "conv1"
  relu_param {
    negative_slope: 0
  }
}
layer {
  name: "pool1"
  type: "Pooling"
  bottom: "conv1"
  top: "pool1"
  pooling_param {
    pool: MAX
    kernel_size: 2
    stride: 2
    pad: 0
  }
}
layer {
  name: "conv2"
  type: "Convolution"
  bottom: "pool1"
  top: "conv2"
  param {
    lr_mult: 1
    decay_mult: 1
  }
  convolution_param {
    num_output: 32
    bias_term: false
    pad: 1
    kernel_size: 3
    stride: 1
    weight_filler {
      type: "gaussian"
      std: 0.01
    }
    dilation: 1
  }
}
layer {
  name: "conv2_bn"
  type: "BatchNorm"
  bottom: "conv2"
  top: "conv2"
  batch_norm_param {
    use_global_stats: true
    eps: 1e-06
  }
}
layer {
  name: "conv2_scale"
  type: "Scale"
  bottom: "conv2"
  top: "conv2"
  param {
    lr_mult: 1
    decay_mult: 1
  }
  param {
    lr_mult: 1
    decay_mult: 1
  }
  scale_param {
    filler {
      type: "constant"
      value: 1
    }
    bias_term: true
  }
}
layer {
  name: "conv2_relu"
  type: "ReLU"
  bottom: "conv2"
  top: "conv2"
  relu_param {
    negative_slope: 0
  }
}
layer {
  name: "pool2"
  type: "Pooling"
  bottom: "conv2"
  top: "pool2"
  pooling_param {
    pool: MAX
    kernel_size: 2
    stride: 2
    pad: 0
  }
}
layer {
  name: "conv3_1"
  type: "Convolution"
  bottom: "pool2"
  top: "conv3_1"
  param {
    lr_mult: 1
    decay_mult: 1
  }
  convolution_param {
    num_output: 64
    bias_term: false
    pad: 1
    kernel_size: 3
    stride: 1
    weight_filler {
      type: "gaussian"
      std: 0.01
    }
    dilation: 1
  }
}
layer {
  name: "conv3_1_bn"
  type: "BatchNorm"
  bottom: "conv3_1"
  top: "conv3_1"
  batch_norm_param {
    use_global_stats: true
    eps: 1e-06
  }
}
layer {
  name: "conv3_1_scale"
  type: "Scale"
  bottom: "conv3_1"
  top: "conv3_1"
  param {
    lr_mult: 1
    decay_mult: 1
  }
  param {
    lr_mult: 1
    decay_mult: 1
  }
  scale_param {
    filler {
      type: "constant"
      value: 1
    }
    bias_term: true
  }
}
layer {
  name: "conv3_1_relu"
  type: "ReLU"
  bottom: "conv3_1"
  top: "conv3_1"
  relu_param {
    negative_slope: 0
  }
}
layer {
  name: "conv3_2"
  type: "Convolution"
  bottom: "conv3_1"
  top: "conv3_2"
  param {
    lr_mult: 1
    decay_mult: 1
  }
  convolution_param {
    num_output: 32
    bias_term: false
    pad: 0
    kernel_size: 1
    stride: 1
    weight_filler {
      type: "gaussian"
      std: 0.01
    }
    dilation: 1
  }
}
layer {
  name: "conv3_2_bn"
  type: "BatchNorm"
  bottom: "conv3_2"
  top: "conv3_2"
  batch_norm_param {
    use_global_stats: true
    eps: 1e-06
  }
}
layer {
  name: "conv3_2_scale"
  type: "Scale"
  bottom: "conv3_2"
  top: "conv3_2"
  param {
    lr_mult: 1
    decay_mult: 1
  }
  param {
    lr_mult: 1
    decay_mult: 1
  }
  scale_param {
    filler {
      type: "constant"
      value: 1
    }
    bias_term: true
  }
}
layer {
  name: "conv3_2_relu"
  type: "ReLU"
  bottom: "conv3_2"
  top: "conv3_2"
  relu_param {
    negative_slope: 0
  }
}
layer {
  name: "conv3_3"
  type: "Convolution"
  bottom: "conv3_2"
  top: "conv3_3"
  param {
    lr_mult: 1
    decay_mult: 1
  }
  convolution_param {
    num_output: 64
    bias_term: false
    pad: 1
    kernel_size: 3
    stride: 1
    weight_filler {
      type: "gaussian"
      std: 0.01
    }
    dilation: 1
  }
}
layer {
  name: "conv3_3_bn"
  type: "BatchNorm"
  bottom: "conv3_3"
  top: "conv3_3"
  batch_norm_param {
    use_global_stats: true
    eps: 1e-06
  }
}
layer {
  name: "conv3_3_scale"
  type: "Scale"
  bottom: "conv3_3"
  top: "conv3_3"
  param {
    lr_mult: 1
    decay_mult: 1
  }
  param {
    lr_mult: 1
    decay_mult: 1
  }
  scale_param {
    filler {
      type: "constant"
      value: 1
    }
    bias_term: true
  }
}
layer {
  name: "conv3_3_relu"
  type: "ReLU"
  bottom: "conv3_3"
  top: "conv3_3"
  relu_param {
    negative_slope: 0
  }
}
layer {
  name: "pool3"
  type: "Pooling"
  bottom: "conv3_3"
  top: "pool3"
  pooling_param {
    pool: MAX
    kernel_size: 2
    stride: 2
    pad: 0
  }
}
layer {
  name: "conv4_1"
  type: "Convolution"
  bottom: "pool3"
  top: "conv4_1"
  param {
    lr_mult: 1
    decay_mult: 1
  }
  convolution_param {
    num_output: 128
    bias_term: false
    pad: 1
    kernel_size: 3
    stride: 1
    weight_filler {
      type: "gaussian"
      std: 0.01
    }
    dilation: 1
  }
}
layer {
  name: "conv4_1_bn"
  type: "BatchNorm"
  bottom: "conv4_1"
  top: "conv4_1"
  batch_norm_param {
    use_global_stats: true
    eps: 1e-06
  }
}
layer {
  name: "conv4_1_scale"
  type: "Scale"
  bottom: "conv4_1"
  top: "conv4_1"
  param {
    lr_mult: 1
    decay_mult: 1
  }
  param {
    lr_mult: 1
    decay_mult: 1
  }
  scale_param {
    filler {
      type: "constant"
      value: 1
    }
    bias_term: true
  }
}
layer {
  name: "conv4_1_relu"
  type: "ReLU"
  bottom: "conv4_1"
  top: "conv4_1"
  relu_param {
    negative_slope: 0
  }
}
layer {
  name: "conv4_2"
  type: "Convolution"
  bottom: "conv4_1"
  top: "conv4_2"
  param {
    lr_mult: 1
    decay_mult: 1
  }
  convolution_param {
    num_output: 64
    bias_term: false
    pad: 0
    kernel_size: 1
    stride: 1
    weight_filler {
      type: "gaussian"
      std: 0.01
    }
    dilation: 1
  }
}
layer {
  name: "conv4_2_bn"
  type: "BatchNorm"
  bottom: "conv4_2"
  top: "conv4_2"
  batch_norm_param {
    use_global_stats: true
    eps: 1e-06
  }
}
layer {
  name: "conv4_2_scale"
  type: "Scale"
  bottom: "conv4_2"
  top: "conv4_2"
  param {
    lr_mult: 1
    decay_mult: 1
  }
  param {
    lr_mult: 1
    decay_mult: 1
  }
  scale_param {
    filler {
      type: "constant"
      value: 1
    }
    bias_term: true
  }
}
layer {
  name: "conv4_2_relu"
  type: "ReLU"
  bottom: "conv4_2"
  top: "conv4_2"
  relu_param {
    negative_slope: 0
  }
}
layer {
  name: "conv4_3"
  type: "Convolution"
  bottom: "conv4_2"
  top: "conv4_3"
  param {
    lr_mult: 1
    decay_mult: 1
  }
  convolution_param {
    num_output: 128
    bias_term: false
    pad: 1
    kernel_size: 3
    stride: 1
    weight_filler {
      type: "gaussian"
      std: 0.01
    }
    dilation: 1
  }
}
layer {
  name: "conv4_3_bn"
  type: "BatchNorm"
  bottom: "conv4_3"
  top: "conv4_3"
  batch_norm_param {
    use_global_stats: true
    eps: 1e-06
  }
}
layer {
  name: "conv4_3_scale"
  type: "Scale"
  bottom: "conv4_3"
  top: "conv4_3"
  param {
    lr_mult: 1
    decay_mult: 1
  }
  param {
    lr_mult: 1
    decay_mult: 1
  }
  scale_param {
    filler {
      type: "constant"
      value: 1
    }
    bias_term: true
  }
}
layer {
  name: "conv4_3_relu"
  type: "ReLU"
  bottom: "conv4_3"
  top: "conv4_3"
  relu_param {
    negative_slope: 0
  }
}
layer {
  name: "pool4"
  type: "Pooling"
  bottom: "conv4_3"
  top: "pool4"
  pooling_param {
    pool: MAX
    kernel_size: 2
    stride: 2
    pad: 0
  }
}
layer {
  name: "conv5_1"
  type: "Convolution"
  bottom: "pool4"
  top: "conv5_1"
  param {
    lr_mult: 1
    decay_mult: 1
  }
  convolution_param {
    num_output: 256
    bias_term: false
    pad: 1
    kernel_size: 3
    stride: 1
    weight_filler {
      type: "gaussian"
      std: 0.01
    }
    dilation: 1
  }
}
layer {
  name: "conv5_1_bn"
  type: "BatchNorm"
  bottom: "conv5_1"
  top: "conv5_1"
  batch_norm_param {
    use_global_stats: true
    eps: 1e-06
  }
}
layer {
  name: "conv5_1_scale"
  type: "Scale"
  bottom: "conv5_1"
  top: "conv5_1"
  param {
    lr_mult: 1
    decay_mult: 1
  }
  param {
    lr_mult: 1
    decay_mult: 1
  }
  scale_param {
    filler {
      type: "constant"
      value: 1
    }
    bias_term: true
  }
}
layer {
  name: "conv5_1_relu"
  type: "ReLU"
  bottom: "conv5_1"
  top: "conv5_1"
  relu_param {
    negative_slope: 0
  }
}
layer {
  name: "conv5_2"
  type: "Convolution"
  bottom: "conv5_1"
  top: "conv5_2"
  param {
    lr_mult: 1
    decay_mult: 1
  }
  convolution_param {
    num_output: 128
    bias_term: false
    pad: 0
    kernel_size: 1
    stride: 1
    weight_filler {
      type: "gaussian"
      std: 0.01
    }
    dilation: 1
  }
}
layer {
  name: "conv5_2_bn"
  type: "BatchNorm"
  bottom: "conv5_2"
  top: "conv5_2"
  batch_norm_param {
    use_global_stats: true
    eps: 1e-06
  }
}
layer {
  name: "conv5_2_scale"
  type: "Scale"
  bottom: "conv5_2"
  top: "conv5_2"
  param {
    lr_mult: 1
    decay_mult: 1
  }
  param {
    lr_mult: 1
    decay_mult: 1
  }
  scale_param {
    filler {
      type: "constant"
      value: 1
    }
    bias_term: true
  }
}
layer {
  name: "conv5_2_relu"
  type: "ReLU"
  bottom: "conv5_2"
  top: "conv5_2"
  relu_param {
    negative_slope: 0
  }
}
layer {
  name: "conv5_3"
  type: "Convolution"
  bottom: "conv5_2"
  top: "conv5_3"
  param {
    lr_mult: 1
    decay_mult: 1
  }
  convolution_param {
    num_output: 256
    bias_term: false
    pad: 1
    kernel_size: 3
    stride: 1
    weight_filler {
      type: "gaussian"
      std: 0.01
    }
    dilation: 1
  }
}
layer {
  name: "conv5_3_bn"
  type: "BatchNorm"
  bottom: "conv5_3"
  top: "conv5_3"
  batch_norm_param {
    use_global_stats: true
    eps: 1e-06
  }
}
layer {
  name: "conv5_3_scale"
  type: "Scale"
  bottom: "conv5_3"
  top: "conv5_3"
  param {
    lr_mult: 1
    decay_mult: 1
  }
  param {
    lr_mult: 1
    decay_mult: 1
  }
  scale_param {
    filler {
      type: "constant"
      value: 1
    }
    bias_term: true
  }
}
layer {
  name: "conv5_3_relu"
  type: "ReLU"
  bottom: "conv5_3"
  top: "conv5_3"
  relu_param {
    negative_slope: 0
  }
}
layer {
  name: "conv5_4"
  type: "Convolution"
  bottom: "conv5_3"
  top: "conv5_4"
  param {
    lr_mult: 1
    decay_mult: 1
  }
  convolution_param {
    num_output: 128
    bias_term: false
    pad: 0
    kernel_size: 1
    stride: 1
    weight_filler {
      type: "gaussian"
      std: 0.01
    }
    dilation: 1
  }
}
layer {
  name: "conv5_4_bn"
  type: "BatchNorm"
  bottom: "conv5_4"
  top: "conv5_4"
  batch_norm_param {
    use_global_stats: true
    eps: 1e-06
  }
}
layer {
  name: "conv5_4_scale"
  type: "Scale"
  bottom: "conv5_4"
  top: "conv5_4"
  param {
    lr_mult: 1
    decay_mult: 1
  }
  param {
    lr_mult: 1
    decay_mult: 1
  }
  scale_param {
    filler {
      type: "constant"
      value: 1
    }
    bias_term: true
  }
}
layer {
  name: "conv5_4_relu"
  type: "ReLU"
  bottom: "conv5_4"
  top: "conv5_4"
  relu_param {
    negative_slope: 0
  }
}
layer {
  name: "conv5_5"
  type: "Convolution"
  bottom: "conv5_4"
  top: "conv5_5"
  param {
    lr_mult: 1
    decay_mult: 1
  }
  convolution_param {
    num_output: 256
    bias_term: false
    pad: 1
    kernel_size: 3
    stride: 1
    weight_filler {
      type: "gaussian"
      std: 0.01
    }
    dilation: 1
  }
}
layer {
  name: "conv5_5_bn"
  type: "BatchNorm"
  bottom: "conv5_5"
  top: "conv5_5"
  batch_norm_param {
    use_global_stats: true
    eps: 1e-06
  }
}
layer {
  name: "conv5_5_scale"
  type: "Scale"
  bottom: "conv5_5"
  top: "conv5_5"
  param {
    lr_mult: 1
    decay_mult: 1
  }
  param {
    lr_mult: 1
    decay_mult: 1
  }
  scale_param {
    filler {
      type: "constant"
      value: 1
    }
    bias_term: true
  }
}
layer {
  name: "conv5_5_relu"
  type: "ReLU"
  bottom: "conv5_5"
  top: "conv5_5"
  relu_param {
    negative_slope: 0
  }
}
layer {
  name: "pool5"
  type: "Pooling"
  bottom: "conv5_5"
  top: "pool5"
  pooling_param {
    pool: MAX
    kernel_size: 3
    stride: 1
    pad: 1
  }
}
layer {
  name: "conv6_1"
  type: "Convolution"
  bottom: "pool5"
  top: "conv6_1"
  param {
    lr_mult: 1
    decay_mult: 1
  }
  convolution_param {
    num_output: 512
    bias_term: false
    pad: 2
    kernel_size: 3
    stride: 1
    weight_filler {
      type: "gaussian"
      std: 0.01
    }
    dilation: 2
  }
}
layer {
  name: "conv6_1_bn"
  type: "BatchNorm"
  bottom: "conv6_1"
  top: "conv6_1"
  batch_norm_param {
    use_global_stats: true
    eps: 1e-06
  }
}
layer {
  name: "conv6_1_scale"
  type: "Scale"
  bottom: "conv6_1"
  top: "conv6_1"
  param {
    lr_mult: 1
    decay_mult: 1
  }
  param {
    lr_mult: 1
    decay_mult: 1
  }
  scale_param {
    filler {
      type: "constant"
      value: 1
    }
    bias_term: true
  }
}
layer {
  name: "conv6_1_relu"
  type: "ReLU"
  bottom: "conv6_1"
  top: "conv6_1"
  relu_param {
    negative_slope: 0
  }
}
layer {
  name: "conv6_2"
  type: "Convolution"
  bottom: "conv6_1"
  top: "conv6_2"
  param {
    lr_mult: 1
    decay_mult: 1
  }
  convolution_param {
    num_output: 256
    bias_term: false
    pad: 0
    kernel_size: 1
    stride: 1
    weight_filler {
      type: "gaussian"
      std: 0.01
    }
    dilation: 1
  }
}
layer {
  name: "conv6_2_bn"
  type: "BatchNorm"
  bottom: "conv6_2"
  top: "conv6_2"
  batch_norm_param {
    use_global_stats: true
    eps: 1e-06
  }
}
layer {
  name: "conv6_2_scale"
  type: "Scale"
  bottom: "conv6_2"
  top: "conv6_2"
  param {
    lr_mult: 1
    decay_mult: 1
  }
  param {
    lr_mult: 1
    decay_mult: 1
  }
  scale_param {
    filler {
      type: "constant"
      value: 1
    }
    bias_term: true
  }
}
layer {
  name: "conv6_2_relu"
  type: "ReLU"
  bottom: "conv6_2"
  top: "conv6_2"
  relu_param {
    negative_slope: 0
  }
}
layer {
  name: "conv6_3"
  type: "Convolution"
  bottom: "conv6_2"
  top: "conv6_3"
  param {
    lr_mult: 1
    decay_mult: 1
  }
  convolution_param {
    num_output: 512
    bias_term: false
    pad: 1
    kernel_size: 3
    stride: 1
    weight_filler {
      type: "gaussian"
      std: 0.01
    }
    dilation: 1
  }
}
layer {
  name: "conv6_3_bn"
  type: "BatchNorm"
  bottom: "conv6_3"
  top: "conv6_3"
  batch_norm_param {
    use_global_stats: true
    eps: 1e-06
  }
}
layer {
  name: "conv6_3_scale"
  type: "Scale"
  bottom: "conv6_3"
  top: "conv6_3"
  param {
    lr_mult: 1
    decay_mult: 1
  }
  param {
    lr_mult: 1
    decay_mult: 1
  }
  scale_param {
    filler {
      type: "constant"
      value: 1
    }
    bias_term: true
  }
}
layer {
  name: "conv6_3_relu"
  type: "ReLU"
  bottom: "conv6_3"
  top: "conv6_3"
  relu_param {
    negative_slope: 0
  }
}
layer {
  name: "conv6_4"
  type: "Convolution"
  bottom: "conv6_3"
  top: "conv6_4"
  param {
    lr_mult: 1
    decay_mult: 1
  }
  convolution_param {
    num_output: 256
    bias_term: false
    pad: 0
    kernel_size: 1
    stride: 1
    weight_filler {
      type: "gaussian"
      std: 0.01
    }
    dilation: 1
  }
}
layer {
  name: "conv6_4_bn"
  type: "BatchNorm"
  bottom: "conv6_4"
  top: "conv6_4"
  batch_norm_param {
    use_global_stats: true
    eps: 1e-06
  }
}
layer {
  name: "conv6_4_scale"
  type: "Scale"
  bottom: "conv6_4"
  top: "conv6_4"
  param {
    lr_mult: 1
    decay_mult: 1
  }
  param {
    lr_mult: 1
    decay_mult: 1
  }
  scale_param {
    filler {
      type: "constant"
      value: 1
    }
    bias_term: true
  }
}
layer {
  name: "conv6_4_relu"
  type: "ReLU"
  bottom: "conv6_4"
  top: "conv6_4"
  relu_param {
    negative_slope: 0
  }
}
layer {
  name: "conv6_5"
  type: "Convolution"
  bottom: "conv6_4"
  top: "conv6_5"
  param {
    lr_mult: 1
    decay_mult: 1
  }
  convolution_param {
    num_output: 512
    bias_term: false
    pad: 1
    kernel_size: 3
    stride: 1
    weight_filler {
      type: "gaussian"
      std: 0.01
    }
    dilation: 1
  }
}
layer {
  name: "conv6_5_bn"
  type: "BatchNorm"
  bottom: "conv6_5"
  top: "conv6_5"
  batch_norm_param {
    use_global_stats: true
    eps: 1e-06
  }
}
layer {
  name: "conv6_5_scale"
  type: "Scale"
  bottom: "conv6_5"
  top: "conv6_5"
  param {
    lr_mult: 1
    decay_mult: 1
  }
  param {
    lr_mult: 1
    decay_mult: 1
  }
  scale_param {
    filler {
      type: "constant"
      value: 1
    }
    bias_term: true
  }
}
layer {
  name: "conv6_5_relu"
  type: "ReLU"
  bottom: "conv6_5"
  top: "conv6_5"
  relu_param {
    negative_slope: 0
  }
}
layer {
  name: "conv7_1"
  type: "Convolution"
  bottom: "conv6_5"
  top: "conv7_1"
  param {
    lr_mult: 1
    decay_mult: 1
  }
  convolution_param {
    num_output: 512
    bias_term: false
    pad: 1
    kernel_size: 3
    stride: 1
    weight_filler {
      type: "gaussian"
      std: 0.01
    }
    dilation: 1
  }
}
layer {
  name: "conv7_1_bn"
  type: "BatchNorm"
  bottom: "conv7_1"
  top: "conv7_1"
  batch_norm_param {
    use_global_stats: true
    eps: 1e-06
  }
}
layer {
  name: "conv7_1_scale"
  type: "Scale"
  bottom: "conv7_1"
  top: "conv7_1"
  param {
    lr_mult: 1
    decay_mult: 1
  }
  param {
    lr_mult: 1
    decay_mult: 1
  }
  scale_param {
    filler {
      type: "constant"
      value: 1
    }
    bias_term: true
  }
}
layer {
  name: "conv7_1_relu"
  type: "ReLU"
  bottom: "conv7_1"
  top: "conv7_1"
  relu_param {
    negative_slope: 0
  }
}
layer {
  name: "conv7_2"
  type: "Convolution"
  bottom: "conv7_1"
  top: "conv7_2"
  param {
    lr_mult: 1
    decay_mult: 1
  }
  convolution_param {
    num_output: 512
    bias_term: false
    pad: 1
    kernel_size: 3
    stride: 1
    weight_filler {
      type: "gaussian"
      std: 0.01
    }
    dilation: 1
  }
}
layer {
  name: "conv7_2_bn"
  type: "BatchNorm"
  bottom: "conv7_2"
  top: "conv7_2"
  batch_norm_param {
    use_global_stats: true
    eps: 1e-06
  }
}
layer {
  name: "conv7_2_scale"
  type: "Scale"
  bottom: "conv7_2"
  top: "conv7_2"
  param {
    lr_mult: 1
    decay_mult: 1
  }
  param {
    lr_mult: 1
    decay_mult: 1
  }
  scale_param {
    filler {
      type: "constant"
      value: 1
    }
    bias_term: true
  }
}
layer {
  name: "conv7_2_relu"
  type: "ReLU"
  bottom: "conv7_2"
  top: "conv7_2"
  relu_param {
    negative_slope: 0
  }
}
layer {
  name: "concat8"
  type: "Concat"
  bottom: "conv5_5"
  bottom: "conv7_2"
  top: "concat8"
  concat_param {
    axis: 1
  }
}
layer {
  name: "reduce1_lane"
  type: "Convolution"
  bottom: "concat8"
  top: "reduce1_lane"
  param {
    lr_mult: 1
    decay_mult: 1
  }
  convolution_param {
    num_output: 128
    bias_term: false
    pad: 1
    kernel_size: 3
    stride: 1
    weight_filler {
      type: "gaussian"
      std: 0.01
    }
  }
}
layer {
  name: "reduce1_lane_bn"
  type: "BatchNorm"
  bottom: "reduce1_lane"
  top: "reduce1_lane"
  batch_norm_param {
    use_global_stats: true
    eps: 1e-06
  }
}
layer {
  name: "reduce1_lane_scale"
  type: "Scale"
  bottom: "reduce1_lane"
  top: "reduce1_lane"
  scale_param {
    filler {
      type: "constant"
      value: 1
    }
    bias_term: true
  }
}
layer {
  name: "reduce1_lane_relu"
  type: "ReLU"
  bottom: "reduce1_lane"
  top: "reduce1_lane"
  relu_param {
    negative_slope: 0
  }
}
layer {
  name: "deconv1_lane"
  type: "Deconvolution"
  bottom: "reduce1_lane"
  top: "deconv1_lane"
  param {
    lr_mult: 1
    decay_mult: 1
  }
  convolution_param {
    num_output: 64
    pad: 0
    kernel_size: 2
    stride: 2
    weight_filler {
      type: "xavier"
    }
    bias_filler {
      type: "constant"
      value: 0
    }
  }
}
layer {
  name: "deconv1_lane_bn"
  type: "BatchNorm"
  bottom: "deconv1_lane"
  top: "deconv1_lane"
  batch_norm_param {
    use_global_stats: true
    eps: 1e-06
  }
}
layer {
  name: "deconv1_lane_scale"
  type: "Scale"
  bottom: "deconv1_lane"
  top: "deconv1_lane"
  scale_param {
    filler {
      type: "constant"
      value: 1
    }
    bias_term: true
  }
}
layer {
  name: "deconv1_lane_relu"
  type: "ReLU"
  bottom: "deconv1_lane"
  top: "deconv1_lane"
  relu_param {
    negative_slope: 0
  }
}
layer {
  name: "reorg4"
  type: "Convolution"
  bottom: "conv4_3"
  top: "reorg4"
  param {
    lr_mult: 1
    decay_mult: 1
  }
  convolution_param {
    num_output: 64
    bias_term: false
    pad: 1
    kernel_size: 3
    stride: 1
    weight_filler {
      type: "gaussian"
      std: 0.01
    }
  }
}
layer {
  name: "reorg4_relu"
  type: "ReLU"
  bottom: "reorg4"
  top: "reorg4"
  relu_param {
    negative_slope: 0
  }
}
layer {
  name: "concat4"
  type: "Concat"
  bottom: "reorg4"
  bottom: "deconv1_lane"
  top: "concat4"
  concat_param {
    axis: 1
  }
}
layer {
  name: "reduce2_lane"
  type: "Convolution"
  bottom: "concat4"
  top: "reduce2_lane"
  param {
    lr_mult: 1
    decay_mult: 1
  }
  convolution_param {
    num_output: 64
    bias_term: false
    pad: 1
    kernel_size: 3
    stride: 1
    weight_filler {
      type: "gaussian"
      std: 0.01
    }
  }
}
layer {
  name: "reduce2_lane_bn"
  type: "BatchNorm"
  bottom: "reduce2_lane"
  top: "reduce2_lane"
  batch_norm_param {
    use_global_stats: true
    eps: 1e-06
  }
}
layer {
  name: "reduce2_lane_scale"
  type: "Scale"
  bottom: "reduce2_lane"
  top: "reduce2_lane"
  scale_param {
    filler {
      type: "constant"
      value: 1
    }
    bias_term: true
  }
}
layer {
  name: "reduce2_lane_relu"
  type: "ReLU"
  bottom: "reduce2_lane"
  top: "reduce2_lane"
  relu_param {
    negative_slope: 0
  }
}
layer {
  name: "Slice1"
  type: "Slice"
  bottom: "reduce2_lane"
  top: "slice1_1"
  top: "slice1_2"
  top: "slice1_3"
  top: "slice1_4"
  top: "slice1_5"
  top: "slice1_6"
  top: "slice1_7"
  top: "slice1_8"
  top: "slice1_9"
  top: "slice1_10"
  top: "slice1_11"
  top: "slice1_12"
  top: "slice1_13"
  top: "slice1_14"
  top: "slice1_15"
  top: "slice1_16"
  top: "slice1_17"
  top: "slice1_18"
  top: "slice1_19"
  top: "slice1_20"
  top: "slice1_21"
…
    slice_point: 33
    slice_point: 34
    slice_point: 35
    slice_point: 36
    slice_point: 37
    slice_point: 38
    slice_point: 39
    slice_point: 40
    slice_point: 41
    slice_point: 42
    slice_point: 43
    slice_point: 44
    slice_point: 45
    slice_point: 46
    slice_point: 47
    slice_point: 48
    slice_point: 49
    slice_point: 50
    slice_point: 51
    slice_point: 52
    slice_point: 53
    slice_point: 54
    slice_point: 55
    slice_point: 56
    slice_point: 57
    slice_point: 58
    slice_point: 59
    axis: 2
  }
}
layer {
  name: "SCNN_D_1"
  type: "Convolution"
  bottom: "slice1_1"
  top: "SCNN_D_1/message"
  param {
    name: "SCNN_D_w"
    lr_mult: 1
    decay_mult: 1
  }
  convolution_param {
    num_output: 64
    bias_term: false
    stride: 1
    weight_filler {
      type: "gaussian"
      std: 0.03536
    }
    pad_h: 0
    pad_w: 2
    kernel_h: 1
    kernel_w: 5
  }
}
layer {
  name: "SCNN_D_1/relu"
  type: "ReLU"
  bottom: "SCNN_D_1/message"
  top: "SCNN_D_1/message"
}
layer {
  name: "SCNN_D_1/sum"
  type: "Eltwise"
  bottom: "SCNN_D_1/message"
  bottom: "slice1_2"
  top: "SCNN_D_2"
  eltwise_param {
    operation: SUM
  }
}
layer {
  name: "SCNN_D_2"
  type: "Convolution"
  bottom: "SCNN_D_2"
  top: "SCNN_D_2/message"
  param {
    name: "SCNN_D_w"
    lr_mult: 1
    decay_mult: 1
  }
  convolution_param {
    num_output: 64
    bias_term: false
    stride: 1
    weight_filler {
      type: "gaussian"
      std: 0.03536
    }
    pad_h: 0
    pad_w: 2
    kernel_h: 1
    kernel_w: 5
  }
}
layer {
  name: "SCNN_D_2/relu"
  type: "ReLU"
  bottom: "SCNN_D_2/message"
  top: "SCNN_D_2/message"
}
layer {
  name: "SCNN_D_2/sum"
  type: "Eltwise"
  bottom: "SCNN_D_2/message"
  bottom: "slice1_3"
  top: "SCNN_D_3"
  eltwise_param {
    operation: SUM
  }
}
layer {
  name: "SCNN_D_3"
  type: "Convolution"
  bottom: "SCNN_D_3"
  top: "SCNN_D_3/message"
  param {
    name: "SCNN_D_w"
    lr_mult: 1
    decay_mult: 1
  }
  convolution_param {
    num_output: 64
    bias_term: false
    stride: 1
    weight_filler {
      type: "gaussian"
      std: 0.03536
    }
    pad_h: 0
    pad_w: 2
    kernel_h: 1
    kernel_w: 5
  }
}
layer {
  name: "SCNN_D_3/relu"
  type: "ReLU"
  bottom: "SCNN_D_3/message"
  top: "SCNN_D_3/message"
}
layer {
  name: "SCNN_D_3/sum"
  type: "Eltwise"
  bottom: "SCNN_D_3/message"
  bottom: "slice1_4"
  top: "SCNN_D_4"
  eltwise_param {
    operation: SUM
  }
}
layer {
  name: "SCNN_D_4"
  type: "Convolution"
  bottom: "SCNN_D_4"
  top: "SCNN_D_4/message"
  param {
    name: "SCNN_D_w"
    lr_mult: 1
    decay_mult: 1
  }
  convolution_param {
    num_output: 64
    bias_term: false
    stride: 1
    weight_filler {
      type: "gaussian"
      std: 0.03536
    }
    pad_h: 0
    pad_w: 2
    kernel_h: 1
    kernel_w: 5
  }
}
layer {
  name: "SCNN_D_4/relu"
  type: "ReLU"
  bottom: "SCNN_D_4/message"
  top: "SCNN_D_4/message"
}
layer {
  name: "SCNN_D_4/sum"
  type: "Eltwise"
  bottom: "SCNN_D_4/message"
  bottom: "slice1_5"
  top: "SCNN_D_5"
  eltwise_param {
    operation: SUM
  }
}
layer {
  name: "SCNN_D_5"
  type: "Convolution"
  bottom: "SCNN_D_5"
  top: "SCNN_D_5/message"
  param {
    name: "SCNN_D_w"
    lr_mult: 1
    decay_mult: 1
  }
  convolution_param {
    num_output: 64
    bias_term: false
    stride: 1
    weight_filler {
      type: "gaussian"
      std: 0.03536
    }
    pad_h: 0
    pad_w: 2
    kernel_h: 1
    kernel_w: 5
  }
}
layer {
  name: "SCNN_D_5/relu"
  type: "ReLU"
  bottom: "SCNN_D_5/message"
  top: "SCNN_D_5/message"
}
layer {
  name: "SCNN_D_5/sum"
  type: "Eltwise"
  bottom: "SCNN_D_5/message"
  bottom: "slice1_6"
  top: "SCNN_D_6"
  eltwise_param {
    operation: SUM
  }
}
layer {
  name: "SCNN_D_6"
  type: "Convolution"
  bottom: "SCNN_D_6"
  top: "SCNN_D_6/message"
  param {
    name: "SCNN_D_w"
    lr_mult: 1
    decay_mult: 1
  }
  convolution_param {
    num_output: 64
    bias_term: false
    stride: 1
    weight_filler {
      type: "gaussian"
      std: 0.03536
    }
    pad_h: 0
    pad_w: 2
    kernel_h: 1
    kernel_w: 5
  }
}
layer {
  name: "SCNN_D_6/relu"
  type: "ReLU"
  bottom: "SCNN_D_6/message"
  top: "SCNN_D_6/message"
}
layer {
  name: "SCNN_D_6/sum"
  type: "Eltwise"
  bottom: "SCNN_D_6/message"
  bottom: "slice1_7"
  top: "SCNN_D_7"
  eltwise_param {
    operation: SUM
  }
}
layer {
  name: "SCNN_D_7"
  type: "Convolution"
  bottom: "SCNN_D_7"
  top: "SCNN_D_7/message"
  param {
    name: "SCNN_D_w"
    lr_mult: 1
    decay_mult: 1
  }
  convolution_param {
    num_output: 64
    bias_term: false
    stride: 1
    weight_filler {
      type: "gaussian"
      std: 0.03536
    }
    pad_h: 0
    pad_w: 2
    kernel_h: 1
    kernel_w: 5
  }
}
layer {
  name: "SCNN_D_7/relu"
  type: "ReLU"
  bottom: "SCNN_D_7/message"
  top: "SCNN_D_7/message"
}
layer {
  name: "SCNN_D_7/sum"
  type: "Eltwise"
  bottom: "SCNN_D_7/message"
  bottom: "slice1_8"
  top: "SCNN_D_8"
  eltwise_param {
    operation: SUM
  }
}
layer {
  name: "SCNN_D_8"
  type: "Convolution"
  bottom: "SCNN_D_8"
  top: "SCNN_D_8/message"
  param {
    name: "SCNN_D_w"
    lr_mult: 1
    decay_mult: 1
  }
  convolution_param {
    num_output: 64
    bias_term: false
    stride: 1
    weight_filler {
      type: "gaussian"
      std: 0.03536
    }
    pad_h: 0
    pad_w: 2
    kernel_h: 1
    kernel_w: 5
  }
}
layer {
  name: "SCNN_D_8/relu"
  type: "ReLU"
  bottom: "SCNN_D_8/message"
  top: "SCNN_D_8/message"
}
layer {
  name: "SCNN_D_8/sum"
  type: "Eltwise"
  bottom: "SCNN_D_8/message"
  bottom: "slice1_9"
  top: "SCNN_D_9"
  eltwise_param {
    operation: SUM
  }
}
layer {
  name: "SCNN_D_9"
  type: "Convolution"
  bottom: "SCNN_D_9"
  top: "SCNN_D_9/message"
  param {
    name: "SCNN_D_w"
    lr_mult: 1
    decay_mult: 1
  }
  convolution_param {
    num_output: 64
    bias_term: false
    stride: 1
    weight_filler {
      type: "gaussian"
      std: 0.03536
    }
    pad_h: 
I0313 11:01:54.022374 15997 layer_factory.hpp:77] Creating layer input
I0313 11:01:54.043292 15997 net.cpp:86] Creating Layer input
I0313 11:01:54.043334 15997 net.cpp:382] input -> data
I0313 11:01:54.207070 15997 net.cpp:124] Setting up input
I0313 11:01:54.207283 15997 net.cpp:131] Top shape: 1 3 480 640 (921600)
I0313 11:01:54.207314 15997 net.cpp:139] Memory required for data: 3686400
I0313 11:01:54.207404 15997 layer_factory.hpp:77] Creating layer scale_data_lane
I0313 11:01:54.268095 15997 net.cpp:86] Creating Layer scale_data_lane
I0313 11:01:54.268215 15997 net.cpp:408] scale_data_lane <- data
I0313 11:01:54.268353 15997 net.cpp:382] scale_data_lane -> scale_data_lane
I0313 11:01:54.268628 15997 net.cpp:124] Setting up scale_data_lane
I0313 11:01:54.268684 15997 net.cpp:131] Top shape: 1 3 480 640 (921600)
I0313 11:01:54.268726 15997 net.cpp:139] Memory required for data: 7372800
I0313 11:01:54.268760 15997 layer_factory.hpp:77] Creating layer conv1
I0313 11:01:54.315745 15997 net.cpp:86] Creating Layer conv1
I0313 11:01:54.315830 15997 net.cpp:408] conv1 <- scale_data_lane
I0313 11:01:54.315876 15997 net.cpp:382] conv1 -> conv1
I0313 11:01:54.467952 15997 net.cpp:124] Setting up conv1
I0313 11:01:54.468065 15997 net.cpp:131] Top shape: 1 16 480 640 (4915200)
I0313 11:01:54.468104 15997 net.cpp:139] Memory required for data: 27033600
I0313 11:01:54.468353 15997 layer_factory.hpp:77] Creating layer conv1_bn
I0313 11:01:54.474297 15997 net.cpp:86] Creating Layer conv1_bn
I0313 11:01:54.474328 15997 net.cpp:408] conv1_bn <- conv1
I0313 11:01:54.474349 15997 net.cpp:369] conv1_bn -> conv1 (in-place)
I0313 11:01:54.475638 15997 net.cpp:124] Setting up conv1_bn
I0313 11:01:54.475663 15997 net.cpp:131] Top shape: 1 16 480 640 (4915200)
I0313 11:01:54.475666 15997 net.cpp:139] Memory required for data: 46694400
I0313 11:01:54.475697 15997 layer_factory.hpp:77] Creating layer conv1_scale
I0313 11:01:54.475749 15997 net.cpp:86] Creating Layer conv1_scale
I0313 11:01:54.475761 15997 net.cpp:408] conv1_scale <- conv1
I0313 11:01:54.475773 15997 net.cpp:369] conv1_scale -> conv1 (in-place)
I0313 11:01:54.475914 15997 layer_factory.hpp:77] Creating layer conv1_scale
I0313 11:01:54.477982 15997 net.cpp:124] Setting up conv1_scale
I0313 11:01:54.478008 15997 net.cpp:131] Top shape: 1 16 480 640 (4915200)
I0313 11:01:54.478014 15997 net.cpp:139] Memory required for data: 66355200
I0313 11:01:54.478030 15997 layer_factory.hpp:77] Creating layer conv1_relu
I0313 11:01:54.478080 15997 net.cpp:86] Creating Layer conv1_relu
I0313 11:01:54.478096 15997 net.cpp:408] conv1_relu <- conv1
I0313 11:01:54.478109 15997 net.cpp:369] conv1_relu -> conv1 (in-place)
I0313 11:01:54.478440 15997 net.cpp:124] Setting up conv1_relu
I0313 11:01:54.478456 15997 net.cpp:131] Top shape: 1 16 480 640 (4915200)
I0313 11:01:54.478462 15997 net.cpp:139] Memory required for data: 86016000
I0313 11:01:54.478468 15997 layer_factory.hpp:77] Creating layer pool1
I0313 11:01:54.478507 15997 net.cpp:86] Creating Layer pool1
I0313 11:01:54.478518 15997 net.cpp:408] pool1 <- conv1
I0313 11:01:54.478528 15997 net.cpp:382] pool1 -> pool1
I0313 11:01:54.478657 15997 net.cpp:124] Setting up pool1
I0313 11:01:54.478684 15997 net.cpp:131] Top shape: 1 16 240 320 (1228800)
I0313 11:01:54.478691 15997 net.cpp:139] Memory required for data: 90931200
I0313 11:01:54.478698 15997 layer_factory.hpp:77] Creating layer conv2
I0313 11:01:54.478714 15997 net.cpp:86] Creating Layer conv2
I0313 11:01:54.478724 15997 net.cpp:408] conv2 <- pool1
I0313 11:01:54.478739 15997 net.cpp:382] conv2 -> conv2
I0313 11:01:54.480338 15997 net.cpp:124] Setting up conv2
I0313 11:01:54.480360 15997 net.cpp:131] Top shape: 1 32 240 320 (2457600)
I0313 11:01:54.480363 15997 net.cpp:139] Memory required for data: 100761600
I0313 11:01:54.480370 15997 layer_factory.hpp:77] Creating layer conv2_bn
I0313 11:01:54.480379 15997 net.cpp:86] Creating Layer conv2_bn
I0313 11:01:54.480386 15997 net.cpp:408] conv2_bn <- conv2
I0313 11:01:54.480393 15997 net.cpp:369] conv2_bn -> conv2 (in-place)
I0313 11:01:54.480568 15997 net.cpp:124] Setting up conv2_bn
I0313 11:01:54.480574 15997 net.cpp:131] Top shape: 1 32 240 320 (2457600)
I0313 11:01:54.480578 15997 net.cpp:139] Memory required for data: 110592000
I0313 11:01:54.480590 15997 layer_factory.hpp:77] Creating layer conv2_scale
I0313 11:01:54.480597 15997 net.cpp:86] Creating Layer conv2_scale
I0313 11:01:54.480602 15997 net.cpp:408] conv2_scale <- conv2
I0313 11:01:54.480608 15997 net.cpp:369] conv2_scale -> conv2 (in-place)
I0313 11:01:54.480643 15997 layer_factory.hpp:77] Creating layer conv2_scale
I0313 11:01:54.480779 15997 net.cpp:124] Setting up conv2_scale
I0313 11:01:54.480787 15997 net.cpp:131] Top shape: 1 32 240 320 (2457600)
I0313 11:01:54.480792 15997 net.cpp:139] Memory required for data: 120422400
I0313 11:01:54.480796 15997 layer_factory.hpp:77] Creating layer conv2_relu
I0313 11:01:54.480801 15997 net.cpp:86] Creating Layer conv2_relu
I0313 11:01:54.480806 15997 net.cpp:408] conv2_relu <- conv2
I0313 11:01:54.480813 15997 net.cpp:369] conv2_relu -> conv2 (in-place)
I0313 11:01:54.481132 15997 net.cpp:124] Setting up conv2_relu
I0313 11:01:54.481142 15997 net.cpp:131] Top shape: 1 32 240 320 (2457600)
I0313 11:01:54.481146 15997 net.cpp:139] Memory required for data: 130252800
I0313 11:01:54.481149 15997 layer_factory.hpp:77] Creating layer pool2
I0313 11:01:54.481155 15997 net.cpp:86] Creating Layer pool2
I0313 11:01:54.481161 15997 net.cpp:408] pool2 <- conv2
I0313 11:01:54.481169 15997 net.cpp:382] pool2 -> pool2
I0313 11:01:54.481207 15997 net.cpp:124] Setting up pool2
I0313 11:01:54.481216 15997 net.cpp:131] Top shape: 1 32 120 160 (614400)
I0313 11:01:54.481220 15997 net.cpp:139] Memory required for data: 132710400
I0313 11:01:54.481222 15997 layer_factory.hpp:77] Creating layer conv3_1
I0313 11:01:54.481232 15997 net.cpp:86] Creating Layer conv3_1
I0313 11:01:54.481237 15997 net.cpp:408] conv3_1 <- pool2
I0313 11:01:54.481245 15997 net.cpp:382] conv3_1 -> conv3_1
I0313 11:01:54.483889 15997 net.cpp:124] Setting up conv3_1
I0313 11:01:54.483908 15997 net.cpp:131] Top shape: 1 64 120 160 (1228800)
I0313 11:01:54.483912 15997 net.cpp:139] Memory required for data: 137625600
I0313 11:01:54.483920 15997 layer_factory.hpp:77] Creating layer conv3_1_bn
I0313 11:01:54.483927 15997 net.cpp:86] Creating Layer conv3_1_bn
I0313 11:01:54.483934 15997 net.cpp:408] conv3_1_bn <- conv3_1
I0313 11:01:54.483942 15997 net.cpp:369] conv3_1_bn -> conv3_1 (in-place)
I0313 11:01:54.484098 15997 net.cpp:124] Setting up conv3_1_bn
I0313 11:01:54.484107 15997 net.cpp:131] Top shape: 1 64 120 160 (1228800)
I0313 11:01:54.484109 15997 net.cpp:139] Memory required for data: 142540800
I0313 11:01:54.484120 15997 layer_factory.hpp:77] Creating layer conv3_1_scale
I0313 11:01:54.484128 15997 net.cpp:86] Creating Layer conv3_1_scale
I0313 11:01:54.484131 15997 net.cpp:408] conv3_1_scale <- conv3_1
I0313 11:01:54.484136 15997 net.cpp:369] conv3_1_scale -> conv3_1 (in-place)
I0313 11:01:54.484169 15997 layer_factory.hpp:77] Creating layer conv3_1_scale
I0313 11:01:54.484267 15997 net.cpp:124] Setting up conv3_1_scale
I0313 11:01:54.484273 15997 net.cpp:131] Top shape: 1 64 120 160 (1228800)
I0313 11:01:54.484277 15997 net.cpp:139] Memory required for data: 147456000
I0313 11:01:54.484285 15997 layer_factory.hpp:77] Creating layer conv3_1_relu
I0313 11:01:54.484289 15997 net.cpp:86] Creating Layer conv3_1_relu
I0313 11:01:54.484293 15997 net.cpp:408] conv3_1_relu <- conv3_1
I0313 11:01:54.484299 15997 net.cpp:369] conv3_1_relu -> conv3_1 (in-place)
I0313 11:01:54.484618 15997 net.cpp:124] Setting up conv3_1_relu
I0313 11:01:54.484628 15997 net.cpp:131] Top shape: 1 64 120 160 (1228800)
I0313 11:01:54.484630 15997 net.cpp:139] Memory required for data: 152371200
I0313 11:01:54.484632 15997 layer_factory.hpp:77] Creating layer conv3_2
I0313 11:01:54.484645 15997 net.cpp:86] Creating Layer conv3_2
I0313 11:01:54.484649 15997 net.cpp:408] conv3_2 <- conv3_1
I0313 11:01:54.484658 15997 net.cpp:382] conv3_2 -> conv3_2
I0313 11:01:54.486035 15997 net.cpp:124] Setting up conv3_2
I0313 11:01:54.486052 15997 net.cpp:131] Top shape: 1 32 120 160 (614400)
I0313 11:01:54.486055 15997 net.cpp:139] Memory required for data: 154828800
I0313 11:01:54.486060 15997 layer_factory.hpp:77] Creating layer conv3_2_bn
I0313 11:01:54.486066 15997 net.cpp:86] Creating Layer conv3_2_bn
I0313 11:01:54.486070 15997 net.cpp:408] conv3_2_bn <- conv3_2
I0313 11:01:54.486076 15997 net.cpp:369] conv3_2_bn -> conv3_2 (in-place)
I0313 11:01:54.486256 15997 net.cpp:124] Setting up conv3_2_bn
I0313 11:01:54.486266 15997 net.cpp:131] Top shape: 1 32 120 160 (614400)
I0313 11:01:54.486270 15997 net.cpp:139] Memory required for data: 157286400
I0313 11:01:54.486281 15997 layer_factory.hpp:77] Creating layer conv3_2_scale
I0313 11:01:54.486289 15997 net.cpp:86] Creating Layer conv3_2_scale
I0313 11:01:54.486294 15997 net.cpp:408] conv3_2_scale <- conv3_2
I0313 11:01:54.486300 15997 net.cpp:369] conv3_2_scale -> conv3_2 (in-place)
I0313 11:01:54.486338 15997 layer_factory.hpp:77] Creating layer conv3_2_scale
I0313 11:01:54.486446 15997 net.cpp:124] Setting up conv3_2_scale
I0313 11:01:54.486455 15997 net.cpp:131] Top shape: 1 32 120 160 (614400)
I0313 11:01:54.486457 15997 net.cpp:139] Memory required for data: 159744000
I0313 11:01:54.486461 15997 layer_factory.hpp:77] Creating layer conv3_2_relu
I0313 11:01:54.486465 15997 net.cpp:86] Creating Layer conv3_2_relu
I0313 11:01:54.486469 15997 net.cpp:408] conv3_2_relu <- conv3_2
I0313 11:01:54.486474 15997 net.cpp:369] conv3_2_relu -> conv3_2 (in-place)
I0313 11:01:54.486596 15997 net.cpp:124] Setting up conv3_2_relu
I0313 11:01:54.486605 15997 net.cpp:131] Top shape: 1 32 120 160 (614400)
I0313 11:01:54.486609 15997 net.cpp:139] Memory required for data: 162201600
I0313 11:01:54.486611 15997 layer_factory.hpp:77] Creating layer conv3_3
I0313 11:01:54.486619 15997 net.cpp:86] Creating Layer conv3_3
I0313 11:01:54.486624 15997 net.cpp:408] conv3_3 <- conv3_2
I0313 11:01:54.486632 15997 net.cpp:382] conv3_3 -> conv3_3
I0313 11:01:54.487694 15997 net.cpp:124] Setting up conv3_3
I0313 11:01:54.487710 15997 net.cpp:131] Top shape: 1 64 120 160 (1228800)
I0313 11:01:54.487715 15997 net.cpp:139] Memory required for data: 167116800
I0313 11:01:54.487720 15997 layer_factory.hpp:77] Creating layer conv3_3_bn
I0313 11:01:54.487725 15997 net.cpp:86] Creating Layer conv3_3_bn
I0313 11:01:54.487730 15997 net.cpp:408] conv3_3_bn <- conv3_3
I0313 11:01:54.487736 15997 net.cpp:369] conv3_3_bn -> conv3_3 (in-place)
I0313 11:01:54.487892 15997 net.cpp:124] Setting up conv3_3_bn
I0313 11:01:54.487898 15997 net.cpp:131] Top shape: 1 64 120 160 (1228800)
I0313 11:01:54.487901 15997 net.cpp:139] Memory required for data: 172032000
I0313 11:01:54.487908 15997 layer_factory.hpp:77] Creating layer conv3_3_scale
I0313 11:01:54.487913 15997 net.cpp:86] Creating Layer conv3_3_scale
I0313 11:01:54.487916 15997 net.cpp:408] conv3_3_scale <- conv3_3
I0313 11:01:54.487922 15997 net.cpp:369] conv3_3_scale -> conv3_3 (in-place)
I0313 11:01:54.487954 15997 layer_factory.hpp:77] Creating layer conv3_3_scale
I0313 11:01:54.488054 15997 net.cpp:124] Setting up conv3_3_scale
I0313 11:01:54.488060 15997 net.cpp:131] Top shape: 1 64 120 160 (1228800)
I0313 11:01:54.488062 15997 net.cpp:139] Memory required for data: 176947200
I0313 11:01:54.488066 15997 layer_factory.hpp:77] Creating layer conv3_3_relu
I0313 11:01:54.488071 15997 net.cpp:86] Creating Layer conv3_3_relu
I0313 11:01:54.488075 15997 net.cpp:408] conv3_3_relu <- conv3_3
I0313 11:01:54.488078 15997 net.cpp:369] conv3_3_relu -> conv3_3 (in-place)
I0313 11:01:54.488196 15997 net.cpp:124] Setting up conv3_3_relu
I0313 11:01:54.488204 15997 net.cpp:131] Top shape: 1 64 120 160 (1228800)
I0313 11:01:54.488207 15997 net.cpp:139] Memory required for data: 181862400
I0313 11:01:54.488209 15997 layer_factory.hpp:77] Creating layer pool3
I0313 11:01:54.488214 15997 net.cpp:86] Creating Layer pool3
I0313 11:01:54.488217 15997 net.cpp:408] pool3 <- conv3_3
I0313 11:01:54.488224 15997 net.cpp:382] pool3 -> pool3
I0313 11:01:54.488258 15997 net.cpp:124] Setting up pool3
I0313 11:01:54.488267 15997 net.cpp:131] Top shape: 1 64 60 80 (307200)
I0313 11:01:54.488270 15997 net.cpp:139] Memory required for data: 183091200
I0313 11:01:54.488271 15997 layer_factory.hpp:77] Creating layer conv4_1
I0313 11:01:54.488278 15997 net.cpp:86] Creating Layer conv4_1
I0313 11:01:54.488282 15997 net.cpp:408] conv4_1 <- pool3
I0313 11:01:54.488287 15997 net.cpp:382] conv4_1 -> conv4_1
I0313 11:01:54.495797 15997 net.cpp:124] Setting up conv4_1
I0313 11:01:54.495828 15997 net.cpp:131] Top shape: 1 128 60 80 (614400)
I0313 11:01:54.495831 15997 net.cpp:139] Memory required for data: 185548800
I0313 11:01:54.495839 15997 layer_factory.hpp:77] Creating layer conv4_1_bn
I0313 11:01:54.495848 15997 net.cpp:86] Creating Layer conv4_1_bn
I0313 11:01:54.495857 15997 net.cpp:408] conv4_1_bn <- conv4_1
I0313 11:01:54.495870 15997 net.cpp:369] conv4_1_bn -> conv4_1 (in-place)
I0313 11:01:54.496050 15997 net.cpp:124] Setting up conv4_1_bn
I0313 11:01:54.496058 15997 net.cpp:131] Top shape: 1 128 60 80 (614400)
I0313 11:01:54.496060 15997 net.cpp:139] Memory required for data: 188006400
I0313 11:01:54.496075 15997 layer_factory.hpp:77] Creating layer conv4_1_scale
I0313 11:01:54.496081 15997 net.cpp:86] Creating Layer conv4_1_scale
I0313 11:01:54.496085 15997 net.cpp:408] conv4_1_scale <- conv4_1
I0313 11:01:54.496090 15997 net.cpp:369] conv4_1_scale -> conv4_1 (in-place)
I0313 11:01:54.496138 15997 layer_factory.hpp:77] Creating layer conv4_1_scale
I0313 11:01:54.496243 15997 net.cpp:124] Setting up conv4_1_scale
I0313 11:01:54.496253 15997 net.cpp:131] Top shape: 1 128 60 80 (614400)
I0313 11:01:54.496255 15997 net.cpp:139] Memory required for data: 190464000
I0313 11:01:54.496261 15997 layer_factory.hpp:77] Creating layer conv4_1_relu
I0313 11:01:54.496268 15997 net.cpp:86] Creating Layer conv4_1_relu
I0313 11:01:54.496271 15997 net.cpp:408] conv4_1_relu <- conv4_1
I0313 11:01:54.496279 15997 net.cpp:369] conv4_1_relu -> conv4_1 (in-place)
I0313 11:01:54.496460 15997 net.cpp:124] Setting up conv4_1_relu
I0313 11:01:54.496472 15997 net.cpp:131] Top shape: 1 128 60 80 (614400)
I0313 11:01:54.496476 15997 net.cpp:139] Memory required for data: 192921600
I0313 11:01:54.496479 15997 layer_factory.hpp:77] Creating layer conv4_2
I0313 11:01:54.496490 15997 net.cpp:86] Creating Layer conv4_2
I0313 11:01:54.496495 15997 net.cpp:408] conv4_2 <- conv4_1
I0313 11:01:54.496506 15997 net.cpp:382] conv4_2 -> conv4_2
I0313 11:01:54.497606 15997 net.cpp:124] Setting up conv4_2
I0313 11:01:54.497622 15997 net.cpp:131] Top shape: 1 64 60 80 (307200)
I0313 11:01:54.497625 15997 net.cpp:139] Memory required for data: 194150400
I0313 11:01:54.497629 15997 layer_factory.hpp:77] Creating layer conv4_2_bn
I0313 11:01:54.497635 15997 net.cpp:86] Creating Layer conv4_2_bn
I0313 11:01:54.497640 15997 net.cpp:408] conv4_2_bn <- conv4_2
I0313 11:01:54.497645 15997 net.cpp:369] conv4_2_bn -> conv4_2 (in-place)
I0313 11:01:54.497799 15997 net.cpp:124] Setting up conv4_2_bn
I0313 11:01:54.497807 15997 net.cpp:131] Top shape: 1 64 60 80 (307200)
I0313 11:01:54.497808 15997 net.cpp:139] Memory required for data: 195379200
I0313 11:01:54.497815 15997 layer_factory.hpp:77] Creating layer conv4_2_scale
I0313 11:01:54.497820 15997 net.cpp:86] Creating Layer conv4_2_scale
I0313 11:01:54.497824 15997 net.cpp:408] conv4_2_scale <- conv4_2
I0313 11:01:54.497829 15997 net.cpp:369] conv4_2_scale -> conv4_2 (in-place)
I0313 11:01:54.497861 15997 layer_factory.hpp:77] Creating layer conv4_2_scale
I0313 11:01:54.497961 15997 net.cpp:124] Setting up conv4_2_scale
I0313 11:01:54.497967 15997 net.cpp:131] Top shape: 1 64 60 80 (307200)
I0313 11:01:54.497970 15997 net.cpp:139] Memory required for data: 196608000
I0313 11:01:54.497974 15997 layer_factory.hpp:77] Creating layer conv4_2_relu
I0313 11:01:54.497982 15997 net.cpp:86] Creating Layer conv4_2_relu
I0313 11:01:54.497985 15997 net.cpp:408] conv4_2_relu <- conv4_2
I0313 11:01:54.497992 15997 net.cpp:369] conv4_2_relu -> conv4_2 (in-place)
I0313 11:01:54.498309 15997 net.cpp:124] Setting up conv4_2_relu
I0313 11:01:54.498319 15997 net.cpp:131] Top shape: 1 64 60 80 (307200)
I0313 11:01:54.498322 15997 net.cpp:139] Memory required for data: 197836800
I0313 11:01:54.498324 15997 layer_factory.hpp:77] Creating layer conv4_3
I0313 11:01:54.498332 15997 net.cpp:86] Creating Layer conv4_3
I0313 11:01:54.498335 15997 net.cpp:408] conv4_3 <- conv4_2
I0313 11:01:54.498344 15997 net.cpp:382] conv4_3 -> conv4_3
I0313 11:01:54.500608 15997 net.cpp:124] Setting up conv4_3
I0313 11:01:54.500622 15997 net.cpp:131] Top shape: 1 128 60 80 (614400)
I0313 11:01:54.500624 15997 net.cpp:139] Memory required for data: 200294400
I0313 11:01:54.500629 15997 layer_factory.hpp:77] Creating layer conv4_3_bn
I0313 11:01:54.500634 15997 net.cpp:86] Creating Layer conv4_3_bn
I0313 11:01:54.500638 15997 net.cpp:408] conv4_3_bn <- conv4_3
I0313 11:01:54.500644 15997 net.cpp:369] conv4_3_bn -> conv4_3 (in-place)
I0313 11:01:54.500802 15997 net.cpp:124] Setting up conv4_3_bn
I0313 11:01:54.500808 15997 net.cpp:131] Top shape: 1 128 60 80 (614400)
I0313 11:01:54.500810 15997 net.cpp:139] Memory required for data: 202752000
I0313 11:01:54.500818 15997 layer_factory.hpp:77] Creating layer conv4_3_scale
I0313 11:01:54.500823 15997 net.cpp:86] Creating Layer conv4_3_scale
I0313 11:01:54.500825 15997 net.cpp:408] conv4_3_scale <- conv4_3
I0313 11:01:54.500833 15997 net.cpp:369] conv4_3_scale -> conv4_3 (in-place)
I0313 11:01:54.500864 15997 layer_factory.hpp:77] Creating layer conv4_3_scale
I0313 11:01:54.500959 15997 net.cpp:124] Setting up conv4_3_scale
I0313 11:01:54.500967 15997 net.cpp:131] Top shape: 1 128 60 80 (614400)
I0313 11:01:54.500969 15997 net.cpp:139] Memory required for data: 205209600
I0313 11:01:54.500973 15997 layer_factory.hpp:77] Creating layer conv4_3_relu
I0313 11:01:54.500977 15997 net.cpp:86] Creating Layer conv4_3_relu
I0313 11:01:54.500980 15997 net.cpp:408] conv4_3_relu <- conv4_3
I0313 11:01:54.500985 15997 net.cpp:369] conv4_3_relu -> conv4_3 (in-place)
I0313 11:01:54.501109 15997 net.cpp:124] Setting up conv4_3_relu
I0313 11:01:54.501117 15997 net.cpp:131] Top shape: 1 128 60 80 (614400)
I0313 11:01:54.501119 15997 net.cpp:139] Memory required for data: 207667200
I0313 11:01:54.501121 15997 layer_factory.hpp:77] Creating layer conv4_3_conv4_3_relu_0_split
I0313 11:01:54.501125 15997 net.cpp:86] Creating Layer conv4_3_conv4_3_relu_0_split
I0313 11:01:54.501129 15997 net.cpp:408] conv4_3_conv4_3_relu_0_split <- conv4_3
I0313 11:01:54.501135 15997 net.cpp:382] conv4_3_conv4_3_relu_0_split -> conv4_3_conv4_3_relu_0_split_0
I0313 11:01:54.501143 15997 net.cpp:382] conv4_3_conv4_3_relu_0_split -> conv4_3_conv4_3_relu_0_split_1
I0313 11:01:54.501204 15997 net.cpp:124] Setting up conv4_3_conv4_3_relu_0_split
I0313 11:01:54.501211 15997 net.cpp:131] Top shape: 1 128 60 80 (614400)
I0313 11:01:54.501215 15997 net.cpp:131] Top shape: 1 128 60 80 (614400)
I0313 11:01:54.501217 15997 net.cpp:139] Memory required for data: 212582400
I0313 11:01:54.501219 15997 layer_factory.hpp:77] Creating layer pool4
I0313 11:01:54.501225 15997 net.cpp:86] Creating Layer pool4
I0313 11:01:54.501230 15997 net.cpp:408] pool4 <- conv4_3_conv4_3_relu_0_split_0
I0313 11:01:54.501251 15997 net.cpp:382] pool4 -> pool4
I0313 11:01:54.501286 15997 net.cpp:124] Setting up pool4
I0313 11:01:54.501293 15997 net.cpp:131] Top shape: 1 128 30 40 (153600)
I0313 11:01:54.501296 15997 net.cpp:139] Memory required for data: 213196800
I0313 11:01:54.501298 15997 layer_factory.hpp:77] Creating layer conv5_1
I0313 11:01:54.501304 15997 net.cpp:86] Creating Layer conv5_1
I0313 11:01:54.501308 15997 net.cpp:408] conv5_1 <- pool4
I0313 11:01:54.501317 15997 net.cpp:382] conv5_1 -> conv5_1
I0313 11:01:54.511402 15997 net.cpp:124] Setting up conv5_1
I0313 11:01:54.511425 15997 net.cpp:131] Top shape: 1 256 30 40 (307200)
I0313 11:01:54.511428 15997 net.cpp:139] Memory required for data: 214425600
I0313 11:01:54.511435 15997 layer_factory.hpp:77] Creating layer conv5_1_bn
I0313 11:01:54.511440 15997 net.cpp:86] Creating Layer conv5_1_bn
I0313 11:01:54.511445 15997 net.cpp:408] conv5_1_bn <- conv5_1
I0313 11:01:54.511452 15997 net.cpp:369] conv5_1_bn -> conv5_1 (in-place)
I0313 11:01:54.511634 15997 net.cpp:124] Setting up conv5_1_bn
I0313 11:01:54.511643 15997 net.cpp:131] Top shape: 1 256 30 40 (307200)
I0313 11:01:54.511646 15997 net.cpp:139] Memory required for data: 215654400
I0313 11:01:54.511654 15997 layer_factory.hpp:77] Creating layer conv5_1_scale
I0313 11:01:54.511659 15997 net.cpp:86] Creating Layer conv5_1_scale
I0313 11:01:54.511663 15997 net.cpp:408] conv5_1_scale <- conv5_1
I0313 11:01:54.511669 15997 net.cpp:369] conv5_1_scale -> conv5_1 (in-place)
I0313 11:01:54.511701 15997 layer_factory.hpp:77] Creating layer conv5_1_scale
I0313 11:01:54.511790 15997 net.cpp:124] Setting up conv5_1_scale
I0313 11:01:54.511796 15997 net.cpp:131] Top shape: 1 256 30 40 (307200)
I0313 11:01:54.511798 15997 net.cpp:139] Memory required for data: 216883200
I0313 11:01:54.511803 15997 layer_factory.hpp:77] Creating layer conv5_1_relu
I0313 11:01:54.511806 15997 net.cpp:86] Creating Layer conv5_1_relu
I0313 11:01:54.511811 15997 net.cpp:408] conv5_1_relu <- conv5_1
I0313 11:01:54.511814 15997 net.cpp:369] conv5_1_relu -> conv5_1 (in-place)
I0313 11:01:54.511956 15997 net.cpp:124] Setting up conv5_1_relu
I0313 11:01:54.511965 15997 net.cpp:131] Top shape: 1 256 30 40 (307200)
I0313 11:01:54.511967 15997 net.cpp:139] Memory required for data: 218112000
I0313 11:01:54.511970 15997 layer_factory.hpp:77] Creating layer conv5_2
I0313 11:01:54.511977 15997 net.cpp:86] Creating Layer conv5_2
I0313 11:01:54.511981 15997 net.cpp:408] conv5_2 <- conv5_1
I0313 11:01:54.511987 15997 net.cpp:382] conv5_2 -> conv5_2
I0313 11:01:54.513398 15997 net.cpp:124] Setting up conv5_2
I0313 11:01:54.513415 15997 net.cpp:131] Top shape: 1 128 30 40 (153600)
I0313 11:01:54.513420 15997 net.cpp:139] Memory required for data: 218726400
I0313 11:01:54.513427 15997 layer_factory.hpp:77] Creating layer conv5_2_bn
I0313 11:01:54.513432 15997 net.cpp:86] Creating Layer conv5_2_bn
I0313 11:01:54.513437 15997 net.cpp:408] conv5_2_bn <- conv5_2
I0313 11:01:54.513442 15997 net.cpp:369] conv5_2_bn -> conv5_2 (in-place)
I0313 11:01:54.513590 15997 net.cpp:124] Setting up conv5_2_bn
I0313 11:01:54.513597 15997 net.cpp:131] Top shape: 1 128 30 40 (153600)
I0313 11:01:54.513599 15997 net.cpp:139] Memory required for data: 219340800
I0313 11:01:54.513607 15997 layer_factory.hpp:77] Creating layer conv5_2_scale
I0313 11:01:54.513612 15997 net.cpp:86] Creating Layer conv5_2_scale
I0313 11:01:54.513614 15997 net.cpp:408] conv5_2_scale <- conv5_2
I0313 11:01:54.513619 15997 net.cpp:369] conv5_2_scale -> conv5_2 (in-place)
I0313 11:01:54.513649 15997 layer_factory.hpp:77] Creating layer conv5_2_scale
I0313 11:01:54.513736 15997 net.cpp:124] Setting up conv5_2_scale
I0313 11:01:54.513741 15997 net.cpp:131] Top shape: 1 128 30 40 (153600)
I0313 11:01:54.513744 15997 net.cpp:139] Memory required for data: 219955200
I0313 11:01:54.513748 15997 layer_factory.hpp:77] Creating layer conv5_2_relu
I0313 11:01:54.513752 15997 net.cpp:86] Creating Layer conv5_2_relu
I0313 11:01:54.513756 15997 net.cpp:408] conv5_2_relu <- conv5_2
I0313 11:01:54.513759 15997 net.cpp:369] conv5_2_relu -> conv5_2 (in-place)
I0313 11:01:54.513880 15997 net.cpp:124] Setting up conv5_2_relu
I0313 11:01:54.513887 15997 net.cpp:131] Top shape: 1 128 30 40 (153600)
I0313 11:01:54.513890 15997 net.cpp:139] Memory required for data: 220569600
I0313 11:01:54.513891 15997 layer_factory.hpp:77] Creating layer conv5_3
I0313 11:01:54.513897 15997 net.cpp:86] Creating Layer conv5_3
I0313 11:01:54.513901 15997 net.cpp:408] conv5_3 <- conv5_2
I0313 11:01:54.513907 15997 net.cpp:382] conv5_3 -> conv5_3
I0313 11:01:54.521031 15997 net.cpp:124] Setting up conv5_3
I0313 11:01:54.521056 15997 net.cpp:131] Top shape: 1 256 30 40 (307200)
I0313 11:01:54.521059 15997 net.cpp:139] Memory required for data: 221798400
I0313 11:01:54.521065 15997 layer_factory.hpp:77] Creating layer conv5_3_bn
I0313 11:01:54.521071 15997 net.cpp:86] Creating Layer conv5_3_bn
I0313 11:01:54.521080 15997 net.cpp:408] conv5_3_bn <- conv5_3
I0313 11:01:54.521086 15997 net.cpp:369] conv5_3_bn -> conv5_3 (in-place)
I0313 11:01:54.521268 15997 net.cpp:124] Setting up conv5_3_bn
I0313 11:01:54.521277 15997 net.cpp:131] Top shape: 1 256 30 40 (307200)
I0313 11:01:54.521279 15997 net.cpp:139] Memory required for data: 223027200
I0313 11:01:54.521287 15997 layer_factory.hpp:77] Creating layer conv5_3_scale
I0313 11:01:54.521293 15997 net.cpp:86] Creating Layer conv5_3_scale
I0313 11:01:54.521297 15997 net.cpp:408] conv5_3_scale <- conv5_3
I0313 11:01:54.521302 15997 net.cpp:369] conv5_3_scale -> conv5_3 (in-place)
I0313 11:01:54.521333 15997 layer_factory.hpp:77] Creating layer conv5_3_scale
I0313 11:01:54.521440 15997 net.cpp:124] Setting up conv5_3_scale
I0313 11:01:54.521450 15997 net.cpp:131] Top shape: 1 256 30 40 (307200)
I0313 11:01:54.521454 15997 net.cpp:139] Memory required for data: 224256000
I0313 11:01:54.521473 15997 layer_factory.hpp:77] Creating layer conv5_3_relu
I0313 11:01:54.521481 15997 net.cpp:86] Creating Layer conv5_3_relu
I0313 11:01:54.521493 15997 net.cpp:408] conv5_3_relu <- conv5_3
I0313 11:01:54.521500 15997 net.cpp:369] conv5_3_relu -> conv5_3 (in-place)
I0313 11:01:54.521632 15997 net.cpp:124] Setting up conv5_3_relu
I0313 11:01:54.521641 15997 net.cpp:131] Top shape: 1 256 30 40 (307200)
I0313 11:01:54.521642 15997 net.cpp:139] Memory required for data: 225484800
I0313 11:01:54.521646 15997 layer_factory.hpp:77] Creating layer conv5_4
I0313 11:01:54.521652 15997 net.cpp:86] Creating Layer conv5_4
I0313 11:01:54.521656 15997 net.cpp:408] conv5_4 <- conv5_3
I0313 11:01:54.521662 15997 net.cpp:382] conv5_4 -> conv5_4
I0313 11:01:54.523072 15997 net.cpp:124] Setting up conv5_4
I0313 11:01:54.523087 15997 net.cpp:131] Top shape: 1 128 30 40 (153600)
I0313 11:01:54.523089 15997 net.cpp:139] Memory required for data: 226099200
I0313 11:01:54.523093 15997 layer_factory.hpp:77] Creating layer conv5_4_bn
I0313 11:01:54.523098 15997 net.cpp:86] Creating Layer conv5_4_bn
I0313 11:01:54.523102 15997 net.cpp:408] conv5_4_bn <- conv5_4
I0313 11:01:54.523108 15997 net.cpp:369] conv5_4_bn -> conv5_4 (in-place)
I0313 11:01:54.523257 15997 net.cpp:124] Setting up conv5_4_bn
I0313 11:01:54.523267 15997 net.cpp:131] Top shape: 1 128 30 40 (153600)
I0313 11:01:54.523270 15997 net.cpp:139] Memory required for data: 226713600
I0313 11:01:54.523281 15997 layer_factory.hpp:77] Creating layer conv5_4_scale
I0313 11:01:54.523289 15997 net.cpp:86] Creating Layer conv5_4_scale
I0313 11:01:54.523293 15997 net.cpp:408] conv5_4_scale <- conv5_4
I0313 11:01:54.523298 15997 net.cpp:369] conv5_4_scale -> conv5_4 (in-place)
I0313 11:01:54.523341 15997 layer_factory.hpp:77] Creating layer conv5_4_scale
I0313 11:01:54.523430 15997 net.cpp:124] Setting up conv5_4_scale
I0313 11:01:54.523437 15997 net.cpp:131] Top shape: 1 128 30 40 (153600)
I0313 11:01:54.523439 15997 net.cpp:139] Memory required for data: 227328000
I0313 11:01:54.523443 15997 layer_factory.hpp:77] Creating layer conv5_4_relu
I0313 11:01:54.523447 15997 net.cpp:86] Creating Layer conv5_4_relu
I0313 11:01:54.523452 15997 net.cpp:408] conv5_4_relu <- conv5_4
I0313 11:01:54.523455 15997 net.cpp:369] conv5_4_relu -> conv5_4 (in-place)
I0313 11:01:54.524799 15997 net.cpp:124] Setting up conv5_4_relu
I0313 11:01:54.524811 15997 net.cpp:131] Top shape: 1 128 30 40 (153600)
I0313 11:01:54.524813 15997 net.cpp:139] Memory required for data: 227942400
I0313 11:01:54.524816 15997 layer_factory.hpp:77] Creating layer conv5_5
I0313 11:01:54.524823 15997 net.cpp:86] Creating Layer conv5_5
I0313 11:01:54.524828 15997 net.cpp:408] conv5_5 <- conv5_4
I0313 11:01:54.524837 15997 net.cpp:382] conv5_5 -> conv5_5
I0313 11:01:54.534543 15997 net.cpp:124] Setting up conv5_5
I0313 11:01:54.534564 15997 net.cpp:131] Top shape: 1 256 30 40 (307200)
I0313 11:01:54.534566 15997 net.cpp:139] Memory required for data: 229171200
I0313 11:01:54.534574 15997 layer_factory.hpp:77] Creating layer conv5_5_bn
I0313 11:01:54.534580 15997 net.cpp:86] Creating Layer conv5_5_bn
I0313 11:01:54.534586 15997 net.cpp:408] conv5_5_bn <- conv5_5
I0313 11:01:54.534592 15997 net.cpp:369] conv5_5_bn -> conv5_5 (in-place)
I0313 11:01:54.534761 15997 net.cpp:124] Setting up conv5_5_bn
I0313 11:01:54.534768 15997 net.cpp:131] Top shape: 1 256 30 40 (307200)
I0313 11:01:54.534770 15997 net.cpp:139] Memory required for data: 230400000
I0313 11:01:54.534778 15997 layer_factory.hpp:77] Creating layer conv5_5_scale
I0313 11:01:54.534782 15997 net.cpp:86] Creating Layer conv5_5_scale
I0313 11:01:54.534786 15997 net.cpp:408] conv5_5_scale <- conv5_5
I0313 11:01:54.534795 15997 net.cpp:369] conv5_5_scale -> conv5_5 (in-place)
I0313 11:01:54.534840 15997 layer_factory.hpp:77] Creating layer conv5_5_scale
I0313 11:01:54.534972 15997 net.cpp:124] Setting up conv5_5_scale
I0313 11:01:54.534981 15997 net.cpp:131] Top shape: 1 256 30 40 (307200)
I0313 11:01:54.534982 15997 net.cpp:139] Memory required for data: 231628800
I0313 11:01:54.534987 15997 layer_factory.hpp:77] Creating layer conv5_5_relu
I0313 11:01:54.534992 15997 net.cpp:86] Creating Layer conv5_5_relu
I0313 11:01:54.534997 15997 net.cpp:408] conv5_5_relu <- conv5_5
I0313 11:01:54.535001 15997 net.cpp:369] conv5_5_relu -> conv5_5 (in-place)
I0313 11:01:54.535135 15997 net.cpp:124] Setting up conv5_5_relu
I0313 11:01:54.535142 15997 net.cpp:131] Top shape: 1 256 30 40 (307200)
I0313 11:01:54.535145 15997 net.cpp:139] Memory required for data: 232857600
I0313 11:01:54.535147 15997 layer_factory.hpp:77] Creating layer conv5_5_conv5_5_relu_0_split
I0313 11:01:54.535151 15997 net.cpp:86] Creating Layer conv5_5_conv5_5_relu_0_split
I0313 11:01:54.535156 15997 net.cpp:408] conv5_5_conv5_5_relu_0_split <- conv5_5
I0313 11:01:54.535162 15997 net.cpp:382] conv5_5_conv5_5_relu_0_split -> conv5_5_conv5_5_relu_0_split_0
I0313 11:01:54.535171 15997 net.cpp:382] conv5_5_conv5_5_relu_0_split -> conv5_5_conv5_5_relu_0_split_1
I0313 11:01:54.535207 15997 net.cpp:124] Setting up conv5_5_conv5_5_relu_0_split
I0313 11:01:54.535217 15997 net.cpp:131] Top shape: 1 256 30 40 (307200)
I0313 11:01:54.535220 15997 net.cpp:131] Top shape: 1 256 30 40 (307200)
I0313 11:01:54.535224 15997 net.cpp:139] Memory required for data: 235315200
I0313 11:01:54.535228 15997 layer_factory.hpp:77] Creating layer pool5
I0313 11:01:54.535233 15997 net.cpp:86] Creating Layer pool5
I0313 11:01:54.535238 15997 net.cpp:408] pool5 <- conv5_5_conv5_5_relu_0_split_0
I0313 11:01:54.535244 15997 net.cpp:382] pool5 -> pool5
I0313 11:01:54.535279 15997 net.cpp:124] Setting up pool5
I0313 11:01:54.535286 15997 net.cpp:131] Top shape: 1 256 30 40 (307200)
I0313 11:01:54.535288 15997 net.cpp:139] Memory required for data: 236544000
I0313 11:01:54.535290 15997 layer_factory.hpp:77] Creating layer conv6_1
I0313 11:01:54.535300 15997 net.cpp:86] Creating Layer conv6_1
I0313 11:01:54.535303 15997 net.cpp:408] conv6_1 <- pool5
I0313 11:01:54.535308 15997 net.cpp:382] conv6_1 -> conv6_1
I0313 11:01:54.559211 15997 net.cpp:124] Setting up conv6_1
I0313 11:01:54.559253 15997 net.cpp:131] Top shape: 1 512 30 40 (614400)
I0313 11:01:54.559260 15997 net.cpp:139] Memory required for data: 239001600
I0313 11:01:54.559271 15997 layer_factory.hpp:77] Creating layer conv6_1_bn
I0313 11:01:54.559283 15997 net.cpp:86] Creating Layer conv6_1_bn
I0313 11:01:54.559298 15997 net.cpp:408] conv6_1_bn <- conv6_1
I0313 11:01:54.559310 15997 net.cpp:369] conv6_1_bn -> conv6_1 (in-place)
I0313 11:01:54.559568 15997 net.cpp:124] Setting up conv6_1_bn
I0313 11:01:54.559586 15997 net.cpp:131] Top shape: 1 512 30 40 (614400)
I0313 11:01:54.559592 15997 net.cpp:139] Memory required for data: 241459200
I0313 11:01:54.559605 15997 layer_factory.hpp:77] Creating layer conv6_1_scale
I0313 11:01:54.559615 15997 net.cpp:86] Creating Layer conv6_1_scale
I0313 11:01:54.559624 15997 net.cpp:408] conv6_1_scale <- conv6_1
I0313 11:01:54.559635 15997 net.cpp:369] conv6_1_scale -> conv6_1 (in-place)
I0313 11:01:54.559686 15997 layer_factory.hpp:77] Creating layer conv6_1_scale
I0313 11:01:54.559839 15997 net.cpp:124] Setting up conv6_1_scale
I0313 11:01:54.559850 15997 net.cpp:131] Top shape: 1 512 30 40 (614400)
I0313 11:01:54.559855 15997 net.cpp:139] Memory required for data: 243916800
I0313 11:01:54.559864 15997 layer_factory.hpp:77] Creating layer conv6_1_relu
I0313 11:01:54.559880 15997 net.cpp:86] Creating Layer conv6_1_relu
I0313 11:01:54.559890 15997 net.cpp:408] conv6_1_relu <- conv6_1
I0313 11:01:54.559900 15997 net.cpp:369] conv6_1_relu -> conv6_1 (in-place)
I0313 11:01:54.560139 15997 net.cpp:124] Setting up conv6_1_relu
I0313 11:01:54.560151 15997 net.cpp:131] Top shape: 1 512 30 40 (614400)
I0313 11:01:54.560158 15997 net.cpp:139] Memory required for data: 246374400
I0313 11:01:54.560165 15997 layer_factory.hpp:77] Creating layer conv6_2
I0313 11:01:54.560181 15997 net.cpp:86] Creating Layer conv6_2
I0313 11:01:54.560189 15997 net.cpp:408] conv6_2 <- conv6_1
I0313 11:01:54.560201 15997 net.cpp:382] conv6_2 -> conv6_2
I0313 11:01:54.564085 15997 net.cpp:124] Setting up conv6_2
I0313 11:01:54.564108 15997 net.cpp:131] Top shape: 1 256 30 40 (307200)
I0313 11:01:54.564111 15997 net.cpp:139] Memory required for data: 247603200
I0313 11:01:54.564117 15997 layer_factory.hpp:77] Creating layer conv6_2_bn
I0313 11:01:54.564123 15997 net.cpp:86] Creating Layer conv6_2_bn
I0313 11:01:54.564131 15997 net.cpp:408] conv6_2_bn <- conv6_2
I0313 11:01:54.564137 15997 net.cpp:369] conv6_2_bn -> conv6_2 (in-place)
I0313 11:01:54.564309 15997 net.cpp:124] Setting up conv6_2_bn
I0313 11:01:54.564317 15997 net.cpp:131] Top shape: 1 256 30 40 (307200)
I0313 11:01:54.564319 15997 net.cpp:139] Memory required for data: 248832000
I0313 11:01:54.564327 15997 layer_factory.hpp:77] Creating layer conv6_2_scale
I0313 11:01:54.564332 15997 net.cpp:86] Creating Layer conv6_2_scale
I0313 11:01:54.564337 15997 net.cpp:408] conv6_2_scale <- conv6_2
I0313 11:01:54.564342 15997 net.cpp:369] conv6_2_scale -> conv6_2 (in-place)
I0313 11:01:54.564375 15997 layer_factory.hpp:77] Creating layer conv6_2_scale
I0313 11:01:54.564471 15997 net.cpp:124] Setting up conv6_2_scale
I0313 11:01:54.564479 15997 net.cpp:131] Top shape: 1 256 30 40 (307200)
I0313 11:01:54.564481 15997 net.cpp:139] Memory required for data: 250060800
I0313 11:01:54.564486 15997 layer_factory.hpp:77] Creating layer conv6_2_relu
I0313 11:01:54.564489 15997 net.cpp:86] Creating Layer conv6_2_relu
I0313 11:01:54.564493 15997 net.cpp:408] conv6_2_relu <- conv6_2
I0313 11:01:54.564498 15997 net.cpp:369] conv6_2_relu -> conv6_2 (in-place)
I0313 11:01:54.564628 15997 net.cpp:124] Setting up conv6_2_relu
I0313 11:01:54.564637 15997 net.cpp:131] Top shape: 1 256 30 40 (307200)
I0313 11:01:54.564640 15997 net.cpp:139] Memory required for data: 251289600
I0313 11:01:54.564641 15997 layer_factory.hpp:77] Creating layer conv6_3
I0313 11:01:54.564651 15997 net.cpp:86] Creating Layer conv6_3
I0313 11:01:54.564654 15997 net.cpp:408] conv6_3 <- conv6_2
I0313 11:01:54.564662 15997 net.cpp:382] conv6_3 -> conv6_3
I0313 11:01:54.588716 15997 net.cpp:124] Setting up conv6_3
I0313 11:01:54.588747 15997 net.cpp:131] Top shape: 1 512 30 40 (614400)
I0313 11:01:54.588752 15997 net.cpp:139] Memory required for data: 253747200
I0313 11:01:54.588760 15997 layer_factory.hpp:77] Creating layer conv6_3_bn
I0313 11:01:54.588770 15997 net.cpp:86] Creating Layer conv6_3_bn
I0313 11:01:54.588780 15997 net.cpp:408] conv6_3_bn <- conv6_3
I0313 11:01:54.588790 15997 net.cpp:369] conv6_3_bn -> conv6_3 (in-place)
I0313 11:01:54.588965 15997 net.cpp:124] Setting up conv6_3_bn
I0313 11:01:54.588971 15997 net.cpp:131] Top shape: 1 512 30 40 (614400)
I0313 11:01:54.588973 15997 net.cpp:139] Memory required for data: 256204800
I0313 11:01:54.588981 15997 layer_factory.hpp:77] Creating layer conv6_3_scale
I0313 11:01:54.588986 15997 net.cpp:86] Creating Layer conv6_3_scale
I0313 11:01:54.588990 15997 net.cpp:408] conv6_3_scale <- conv6_3
I0313 11:01:54.588994 15997 net.cpp:369] conv6_3_scale -> conv6_3 (in-place)
I0313 11:01:54.589028 15997 layer_factory.hpp:77] Creating layer conv6_3_scale
I0313 11:01:54.589129 15997 net.cpp:124] Setting up conv6_3_scale
I0313 11:01:54.589135 15997 net.cpp:131] Top shape: 1 512 30 40 (614400)
I0313 11:01:54.589138 15997 net.cpp:139] Memory required for data: 258662400
I0313 11:01:54.589143 15997 layer_factory.hpp:77] Creating layer conv6_3_relu
I0313 11:01:54.589148 15997 net.cpp:86] Creating Layer conv6_3_relu
I0313 11:01:54.589151 15997 net.cpp:408] conv6_3_relu <- conv6_3
I0313 11:01:54.589155 15997 net.cpp:369] conv6_3_relu -> conv6_3 (in-place)
I0313 11:01:54.590476 15997 net.cpp:124] Setting up conv6_3_relu
I0313 11:01:54.590488 15997 net.cpp:131] Top shape: 1 512 30 40 (614400)
I0313 11:01:54.590492 15997 net.cpp:139] Memory required for data: 261120000
I0313 11:01:54.590494 15997 layer_factory.hpp:77] Creating layer conv6_4
I0313 11:01:54.590503 15997 net.cpp:86] Creating Layer conv6_4
I0313 11:01:54.590508 15997 net.cpp:408] conv6_4 <- conv6_3
I0313 11:01:54.590517 15997 net.cpp:382] conv6_4 -> conv6_4
I0313 11:01:54.593691 15997 net.cpp:124] Setting up conv6_4
I0313 11:01:54.593704 15997 net.cpp:131] Top shape: 1 256 30 40 (307200)
I0313 11:01:54.593708 15997 net.cpp:139] Memory required for data: 262348800
I0313 11:01:54.593711 15997 layer_factory.hpp:77] Creating layer conv6_4_bn
I0313 11:01:54.593717 15997 net.cpp:86] Creating Layer conv6_4_bn
I0313 11:01:54.593721 15997 net.cpp:408] conv6_4_bn <- conv6_4
I0313 11:01:54.593729 15997 net.cpp:369] conv6_4_bn -> conv6_4 (in-place)
I0313 11:01:54.593899 15997 net.cpp:124] Setting up conv6_4_bn
I0313 11:01:54.593906 15997 net.cpp:131] Top shape: 1 256 30 40 (307200)
I0313 11:01:54.593909 15997 net.cpp:139] Memory required for data: 263577600
I0313 11:01:54.593915 15997 layer_factory.hpp:77] Creating layer conv6_4_scale
I0313 11:01:54.593920 15997 net.cpp:86] Creating Layer conv6_4_scale
I0313 11:01:54.593924 15997 net.cpp:408] conv6_4_scale <- conv6_4
I0313 11:01:54.593928 15997 net.cpp:369] conv6_4_scale -> conv6_4 (in-place)
I0313 11:01:54.593961 15997 layer_factory.hpp:77] Creating layer conv6_4_scale
I0313 11:01:54.594058 15997 net.cpp:124] Setting up conv6_4_scale
I0313 11:01:54.594065 15997 net.cpp:131] Top shape: 1 256 30 40 (307200)
I0313 11:01:54.594067 15997 net.cpp:139] Memory required for data: 264806400
I0313 11:01:54.594071 15997 layer_factory.hpp:77] Creating layer conv6_4_relu
I0313 11:01:54.594074 15997 net.cpp:86] Creating Layer conv6_4_relu
I0313 11:01:54.594079 15997 net.cpp:408] conv6_4_relu <- conv6_4
I0313 11:01:54.594084 15997 net.cpp:369] conv6_4_relu -> conv6_4 (in-place)
I0313 11:01:54.594214 15997 net.cpp:124] Setting up conv6_4_relu
I0313 11:01:54.594223 15997 net.cpp:131] Top shape: 1 256 30 40 (307200)
I0313 11:01:54.594225 15997 net.cpp:139] Memory required for data: 266035200
I0313 11:01:54.594228 15997 layer_factory.hpp:77] Creating layer conv6_5
I0313 11:01:54.594233 15997 net.cpp:86] Creating Layer conv6_5
I0313 11:01:54.594238 15997 net.cpp:408] conv6_5 <- conv6_4
I0313 11:01:54.594244 15997 net.cpp:382] conv6_5 -> conv6_5
I0313 11:01:54.617802 15997 net.cpp:124] Setting up conv6_5
I0313 11:01:54.617827 15997 net.cpp:131] Top shape: 1 512 30 40 (614400)
I0313 11:01:54.617832 15997 net.cpp:139] Memory required for data: 268492800
I0313 11:01:54.617841 15997 layer_factory.hpp:77] Creating layer conv6_5_bn
I0313 11:01:54.617848 15997 net.cpp:86] Creating Layer conv6_5_bn
I0313 11:01:54.617857 15997 net.cpp:408] conv6_5_bn <- conv6_5
I0313 11:01:54.617867 15997 net.cpp:369] conv6_5_bn -> conv6_5 (in-place)
I0313 11:01:54.618113 15997 net.cpp:124] Setting up conv6_5_bn
I0313 11:01:54.618127 15997 net.cpp:131] Top shape: 1 512 30 40 (614400)
I0313 11:01:54.618134 15997 net.cpp:139] Memory required for data: 270950400
I0313 11:01:54.618147 15997 layer_factory.hpp:77] Creating layer conv6_5_scale
I0313 11:01:54.618157 15997 net.cpp:86] Creating Layer conv6_5_scale
I0313 11:01:54.618165 15997 net.cpp:408] conv6_5_scale <- conv6_5
I0313 11:01:54.618175 15997 net.cpp:369] conv6_5_scale -> conv6_5 (in-place)
I0313 11:01:54.618222 15997 layer_factory.hpp:77] Creating layer conv6_5_scale
I0313 11:01:54.618356 15997 net.cpp:124] Setting up conv6_5_scale
I0313 11:01:54.618366 15997 net.cpp:131] Top shape: 1 512 30 40 (614400)
I0313 11:01:54.618371 15997 net.cpp:139] Memory required for data: 273408000
I0313 11:01:54.618376 15997 layer_factory.hpp:77] Creating layer conv6_5_relu
I0313 11:01:54.618382 15997 net.cpp:86] Creating Layer conv6_5_relu
I0313 11:01:54.618388 15997 net.cpp:408] conv6_5_relu <- conv6_5
I0313 11:01:54.618394 15997 net.cpp:369] conv6_5_relu -> conv6_5 (in-place)
I0313 11:01:54.618721 15997 net.cpp:124] Setting up conv6_5_relu
I0313 11:01:54.618731 15997 net.cpp:131] Top shape: 1 512 30 40 (614400)
I0313 11:01:54.618736 15997 net.cpp:139] Memory required for data: 275865600
I0313 11:01:54.618738 15997 layer_factory.hpp:77] Creating layer conv7_1
I0313 11:01:54.618748 15997 net.cpp:86] Creating Layer conv7_1
I0313 11:01:54.618755 15997 net.cpp:408] conv7_1 <- conv6_5
I0313 11:01:54.618763 15997 net.cpp:382] conv7_1 -> conv7_1
I0313 11:01:54.663831 15997 net.cpp:124] Setting up conv7_1
I0313 11:01:54.663866 15997 net.cpp:131] Top shape: 1 512 30 40 (614400)
I0313 11:01:54.663870 15997 net.cpp:139] Memory required for data: 278323200
I0313 11:01:54.663877 15997 layer_factory.hpp:77] Creating layer conv7_1_bn
I0313 11:01:54.663885 15997 net.cpp:86] Creating Layer conv7_1_bn
I0313 11:01:54.663897 15997 net.cpp:408] conv7_1_bn <- conv7_1
I0313 11:01:54.663908 15997 net.cpp:369] conv7_1_bn -> conv7_1 (in-place)
I0313 11:01:54.664088 15997 net.cpp:124] Setting up conv7_1_bn
I0313 11:01:54.664094 15997 net.cpp:131] Top shape: 1 512 30 40 (614400)
I0313 11:01:54.664096 15997 net.cpp:139] Memory required for data: 280780800
I0313 11:01:54.664105 15997 layer_factory.hpp:77] Creating layer conv7_1_scale
I0313 11:01:54.664111 15997 net.cpp:86] Creating Layer conv7_1_scale
I0313 11:01:54.664115 15997 net.cpp:408] conv7_1_scale <- conv7_1
I0313 11:01:54.664120 15997 net.cpp:369] conv7_1_scale -> conv7_1 (in-place)
I0313 11:01:54.664151 15997 layer_factory.hpp:77] Creating layer conv7_1_scale
I0313 11:01:54.664252 15997 net.cpp:124] Setting up conv7_1_scale
I0313 11:01:54.664259 15997 net.cpp:131] Top shape: 1 512 30 40 (614400)
I0313 11:01:54.664261 15997 net.cpp:139] Memory required for data: 283238400
I0313 11:01:54.664266 15997 layer_factory.hpp:77] Creating layer conv7_1_relu
I0313 11:01:54.664270 15997 net.cpp:86] Creating Layer conv7_1_relu
I0313 11:01:54.664273 15997 net.cpp:408] conv7_1_relu <- conv7_1
I0313 11:01:54.664279 15997 net.cpp:369] conv7_1_relu -> conv7_1 (in-place)
I0313 11:01:54.664409 15997 net.cpp:124] Setting up conv7_1_relu
I0313 11:01:54.664417 15997 net.cpp:131] Top shape: 1 512 30 40 (614400)
I0313 11:01:54.664419 15997 net.cpp:139] Memory required for data: 285696000
I0313 11:01:54.664422 15997 layer_factory.hpp:77] Creating layer conv7_2
I0313 11:01:54.664429 15997 net.cpp:86] Creating Layer conv7_2
I0313 11:01:54.664433 15997 net.cpp:408] conv7_2 <- conv7_1
I0313 11:01:54.664441 15997 net.cpp:382] conv7_2 -> conv7_2
I0313 11:01:54.710923 15997 net.cpp:124] Setting up conv7_2
I0313 11:01:54.710958 15997 net.cpp:131] Top shape: 1 512 30 40 (614400)
I0313 11:01:54.710963 15997 net.cpp:139] Memory required for data: 288153600
I0313 11:01:54.710971 15997 layer_factory.hpp:77] Creating layer conv7_2_bn
I0313 11:01:54.710981 15997 net.cpp:86] Creating Layer conv7_2_bn
I0313 11:01:54.710991 15997 net.cpp:408] conv7_2_bn <- conv7_2
I0313 11:01:54.711000 15997 net.cpp:369] conv7_2_bn -> conv7_2 (in-place)
I0313 11:01:54.711176 15997 net.cpp:124] Setting up conv7_2_bn
I0313 11:01:54.711182 15997 net.cpp:131] Top shape: 1 512 30 40 (614400)
I0313 11:01:54.711184 15997 net.cpp:139] Memory required for data: 290611200
I0313 11:01:54.711191 15997 layer_factory.hpp:77] Creating layer conv7_2_scale
I0313 11:01:54.711197 15997 net.cpp:86] Creating Layer conv7_2_scale
I0313 11:01:54.711201 15997 net.cpp:408] conv7_2_scale <- conv7_2
I0313 11:01:54.711205 15997 net.cpp:369] conv7_2_scale -> conv7_2 (in-place)
I0313 11:01:54.711238 15997 layer_factory.hpp:77] Creating layer conv7_2_scale
I0313 11:01:54.711340 15997 net.cpp:124] Setting up conv7_2_scale
I0313 11:01:54.711347 15997 net.cpp:131] Top shape: 1 512 30 40 (614400)
I0313 11:01:54.711349 15997 net.cpp:139] Memory required for data: 293068800
I0313 11:01:54.711354 15997 layer_factory.hpp:77] Creating layer conv7_2_relu
I0313 11:01:54.711359 15997 net.cpp:86] Creating Layer conv7_2_relu
I0313 11:01:54.711362 15997 net.cpp:408] conv7_2_relu <- conv7_2
I0313 11:01:54.711367 15997 net.cpp:369] conv7_2_relu -> conv7_2 (in-place)
I0313 11:01:54.711709 15997 net.cpp:124] Setting up conv7_2_relu
I0313 11:01:54.711719 15997 net.cpp:131] Top shape: 1 512 30 40 (614400)
I0313 11:01:54.711721 15997 net.cpp:139] Memory required for data: 295526400
I0313 11:01:54.711724 15997 layer_factory.hpp:77] Creating layer concat8
I0313 11:01:54.711760 15997 net.cpp:86] Creating Layer concat8
I0313 11:01:54.711767 15997 net.cpp:408] concat8 <- conv5_5_conv5_5_relu_0_split_1
I0313 11:01:54.711773 15997 net.cpp:408] concat8 <- conv7_2
I0313 11:01:54.711778 15997 net.cpp:382] concat8 -> concat8
I0313 11:01:54.711833 15997 net.cpp:124] Setting up concat8
I0313 11:01:54.711843 15997 net.cpp:131] Top shape: 1 768 30 40 (921600)
I0313 11:01:54.711845 15997 net.cpp:139] Memory required for data: 299212800
I0313 11:01:54.711848 15997 layer_factory.hpp:77] Creating layer reduce1_lane
I0313 11:01:54.711858 15997 net.cpp:86] Creating Layer reduce1_lane
I0313 11:01:54.711863 15997 net.cpp:408] reduce1_lane <- concat8
I0313 11:01:54.711871 15997 net.cpp:382] reduce1_lane -> reduce1_lane
I0313 11:01:54.729655 15997 net.cpp:124] Setting up reduce1_lane
I0313 11:01:54.729681 15997 net.cpp:131] Top shape: 1 128 30 40 (153600)
I0313 11:01:54.729686 15997 net.cpp:139] Memory required for data: 299827200
I0313 11:01:54.729692 15997 layer_factory.hpp:77] Creating layer reduce1_lane_bn
I0313 11:01:54.729699 15997 net.cpp:86] Creating Layer reduce1_lane_bn
I0313 11:01:54.729708 15997 net.cpp:408] reduce1_lane_bn <- reduce1_lane
I0313 11:01:54.729717 15997 net.cpp:369] reduce1_lane_bn -> reduce1_lane (in-place)
I0313 11:01:54.729897 15997 net.cpp:124] Setting up reduce1_lane_bn
I0313 11:01:54.729904 15997 net.cpp:131] Top shape: 1 128 30 40 (153600)
I0313 11:01:54.729908 15997 net.cpp:139] Memory required for data: 300441600
I0313 11:01:54.729915 15997 layer_factory.hpp:77] Creating layer reduce1_lane_scale
I0313 11:01:54.729921 15997 net.cpp:86] Creating Layer reduce1_lane_scale
I0313 11:01:54.729926 15997 net.cpp:408] reduce1_lane_scale <- reduce1_lane
I0313 11:01:54.729934 15997 net.cpp:369] reduce1_lane_scale -> reduce1_lane (in-place)
I0313 11:01:54.729969 15997 layer_factory.hpp:77] Creating layer reduce1_lane_scale
I0313 11:01:54.730069 15997 net.cpp:124] Setting up reduce1_lane_scale
I0313 11:01:54.730077 15997 net.cpp:131] Top shape: 1 128 30 40 (153600)
I0313 11:01:54.730080 15997 net.cpp:139] Memory required for data: 301056000
I0313 11:01:54.730084 15997 layer_factory.hpp:77] Creating layer reduce1_lane_relu
I0313 11:01:54.730089 15997 net.cpp:86] Creating Layer reduce1_lane_relu
I0313 11:01:54.730094 15997 net.cpp:408] reduce1_lane_relu <- reduce1_lane
I0313 11:01:54.730101 15997 net.cpp:369] reduce1_lane_relu -> reduce1_lane (in-place)
I0313 11:01:54.730432 15997 net.cpp:124] Setting up reduce1_lane_relu
I0313 11:01:54.730443 15997 net.cpp:131] Top shape: 1 128 30 40 (153600)
I0313 11:01:54.730446 15997 net.cpp:139] Memory required for data: 301670400
I0313 11:01:54.730448 15997 layer_factory.hpp:77] Creating layer deconv1_lane
I0313 11:01:54.730459 15997 net.cpp:86] Creating Layer deconv1_lane
I0313 11:01:54.730465 15997 net.cpp:408] deconv1_lane <- reduce1_lane
I0313 11:01:54.730474 15997 net.cpp:382] deconv1_lane -> deconv1_lane
I0313 11:01:54.731516 15997 net.cpp:124] Setting up deconv1_lane
I0313 11:01:54.731530 15997 net.cpp:131] Top shape: 1 64 60 80 (307200)
I0313 11:01:54.731535 15997 net.cpp:139] Memory required for data: 302899200
I0313 11:01:54.731540 15997 layer_factory.hpp:77] Creating layer deconv1_lane_bn
I0313 11:01:54.731546 15997 net.cpp:86] Creating Layer deconv1_lane_bn
I0313 11:01:54.731554 15997 net.cpp:408] deconv1_lane_bn <- deconv1_lane
I0313 11:01:54.731561 15997 net.cpp:369] deconv1_lane_bn -> deconv1_lane (in-place)
I0313 11:01:54.731747 15997 net.cpp:124] Setting up deconv1_lane_bn
I0313 11:01:54.731755 15997 net.cpp:131] Top shape: 1 64 60 80 (307200)
I0313 11:01:54.731758 15997 net.cpp:139] Memory required for data: 304128000
I0313 11:01:54.731781 15997 layer_factory.hpp:77] Creating layer deconv1_lane_scale
I0313 11:01:54.731787 15997 net.cpp:86] Creating Layer deconv1_lane_scale
I0313 11:01:54.731792 15997 net.cpp:408] deconv1_lane_scale <- deconv1_lane
I0313 11:01:54.731799 15997 net.cpp:369] deconv1_lane_scale -> deconv1_lane (in-place)
I0313 11:01:54.731835 15997 layer_factory.hpp:77] Creating layer deconv1_lane_scale
I0313 11:01:54.731940 15997 net.cpp:124] Setting up deconv1_lane_scale
I0313 11:01:54.731947 15997 net.cpp:131] Top shape: 1 64 60 80 (307200)
I0313 11:01:54.731950 15997 net.cpp:139] Memory required for data: 305356800
I0313 11:01:54.731956 15997 layer_factory.hpp:77] Creating layer deconv1_lane_relu
I0313 11:01:54.731961 15997 net.cpp:86] Creating Layer deconv1_lane_relu
I0313 11:01:54.731966 15997 net.cpp:408] deconv1_lane_relu <- deconv1_lane
I0313 11:01:54.731971 15997 net.cpp:369] deconv1_lane_relu -> deconv1_lane (in-place)
I0313 11:01:54.732101 15997 net.cpp:124] Setting up deconv1_lane_relu
I0313 11:01:54.732110 15997 net.cpp:131] Top shape: 1 64 60 80 (307200)
I0313 11:01:54.732112 15997 net.cpp:139] Memory required for data: 306585600
I0313 11:01:54.732115 15997 layer_factory.hpp:77] Creating layer reorg4
I0313 11:01:54.732123 15997 net.cpp:86] Creating Layer reorg4
I0313 11:01:54.732127 15997 net.cpp:408] reorg4 <- conv4_3_conv4_3_relu_0_split_1
I0313 11:01:54.732136 15997 net.cpp:382] reorg4 -> reorg4
I0313 11:01:54.735400 15997 net.cpp:124] Setting up reorg4
I0313 11:01:54.735416 15997 net.cpp:131] Top shape: 1 64 60 80 (307200)
I0313 11:01:54.735420 15997 net.cpp:139] Memory required for data: 307814400
I0313 11:01:54.735426 15997 layer_factory.hpp:77] Creating layer reorg4_relu
I0313 11:01:54.735433 15997 net.cpp:86] Creating Layer reorg4_relu
I0313 11:01:54.735440 15997 net.cpp:408] reorg4_relu <- reorg4
I0313 11:01:54.735447 15997 net.cpp:369] reorg4_relu -> reorg4 (in-place)
I0313 11:01:54.735594 15997 net.cpp:124] Setting up reorg4_relu
I0313 11:01:54.735604 15997 net.cpp:131] Top shape: 1 64 60 80 (307200)
I0313 11:01:54.735607 15997 net.cpp:139] Memory required for data: 309043200
I0313 11:01:54.735610 15997 layer_factory.hpp:77] Creating layer concat4
I0313 11:01:54.735616 15997 net.cpp:86] Creating Layer concat4
I0313 11:01:54.735621 15997 net.cpp:408] concat4 <- reorg4
I0313 11:01:54.735628 15997 net.cpp:408] concat4 <- deconv1_lane
I0313 11:01:54.735635 15997 net.cpp:382] concat4 -> concat4
I0313 11:01:54.735661 15997 net.cpp:124] Setting up concat4
I0313 11:01:54.735669 15997 net.cpp:131] Top shape: 1 128 60 80 (614400)
I0313 11:01:54.735673 15997 net.cpp:139] Memory required for data: 311500800
I0313 11:01:54.735675 15997 layer_factory.hpp:77] Creating layer reduce2_lane
I0313 11:01:54.735683 15997 net.cpp:86] Creating Layer reduce2_lane
I0313 11:01:54.735688 15997 net.cpp:408] reduce2_lane <- concat4
I0313 11:01:54.735697 15997 net.cpp:382] reduce2_lane -> reduce2_lane
I0313 11:01:54.738008 15997 net.cpp:124] Setting up reduce2_lane
I0313 11:01:54.738021 15997 net.cpp:131] Top shape: 1 64 60 80 (307200)
I0313 11:01:54.738025 15997 net.cpp:139] Memory required for data: 312729600
I0313 11:01:54.738030 15997 layer_factory.hpp:77] Creating layer reduce2_lane_bn
I0313 11:01:54.738039 15997 net.cpp:86] Creating Layer reduce2_lane_bn
I0313 11:01:54.738044 15997 net.cpp:408] reduce2_lane_bn <- reduce2_lane
I0313 11:01:54.738051 15997 net.cpp:369] reduce2_lane_bn -> reduce2_lane (in-place)
I0313 11:01:54.738237 15997 net.cpp:124] Setting up reduce2_lane_bn
I0313 11:01:54.738245 15997 net.cpp:131] Top shape: 1 64 60 80 (307200)
I0313 11:01:54.738248 15997 net.cpp:139] Memory required for data: 313958400
I0313 11:01:54.738255 15997 layer_factory.hpp:77] Creating layer reduce2_lane_scale
I0313 11:01:54.738261 15997 net.cpp:86] Creating Layer reduce2_lane_scale
I0313 11:01:54.738266 15997 net.cpp:408] reduce2_lane_scale <- reduce2_lane
I0313 11:01:54.738272 15997 net.cpp:369] reduce2_lane_scale -> reduce2_lane (in-place)
I0313 11:01:54.738307 15997 layer_factory.hpp:77] Creating layer reduce2_lane_scale
I0313 11:01:54.738415 15997 net.cpp:124] Setting up reduce2_lane_scale
I0313 11:01:54.738422 15997 net.cpp:131] Top shape: 1 64 60 80 (307200)
I0313 11:01:54.738426 15997 net.cpp:139] Memory required for data: 315187200
I0313 11:01:54.738430 15997 layer_factory.hpp:77] Creating layer reduce2_lane_relu
I0313 11:01:54.738436 15997 net.cpp:86] Creating Layer reduce2_lane_relu
I0313 11:01:54.738441 15997 net.cpp:408] reduce2_lane_relu <- reduce2_lane
I0313 11:01:54.738447 15997 net.cpp:369] reduce2_lane_relu -> reduce2_lane (in-place)
I0313 11:01:54.738579 15997 net.cpp:124] Setting up reduce2_lane_relu
I0313 11:01:54.738587 15997 net.cpp:131] Top shape: 1 64 60 80 (307200)
I0313 11:01:54.738591 15997 net.cpp:139] Memory required for data: 316416000
I0313 11:01:54.738595 15997 layer_factory.hpp:77] Creating layer Slice1
I0313 11:01:54.738628 15997 net.cpp:86] Creating Layer Slice1
I0313 11:01:54.738634 15997 net.cpp:408] Slice1 <- reduce2_lane
I0313 11:01:54.738646 15997 net.cpp:382] Slice1 -> slice1_1
I0313 11:01:54.738677 15997 net.cpp:382] Slice1 -> slice1_2
…
I0313 11:01:54.739171 15997 net.cpp:382] Slice1 -> slice1_52
I0313 11:01:54.739179 15997 net.cpp:382] Slice1 -> slice1_53
I0313 11:01:54.739189 15997 net.cpp:382] Slice1 -> slice1_54
I0313 11:01:54.739198 15997 net.cpp:382] Slice1 -> slice1_55
I0313 11:01:54.739207 15997 net.cpp:382] Slice1 -> slice1_56
I0313 11:01:54.739217 15997 net.cpp:382] Slice1 -> slice1_57
I0313 11:01:54.739225 15997 net.cpp:382] Slice1 -> slice1_58
I0313 11:01:54.739234 15997 net.cpp:382] Slice1 -> slice1_59
I0313 11:01:54.739248 15997 net.cpp:382] Slice1 -> slice1_60
I0313 11:01:54.739903 15997 net.cpp:124] Setting up Slice1
I0313 11:01:54.739913 15997 net.cpp:131] Top shape: 1 64 1 80 (5120)
I0313 11:01:54.739919 15997 net.cpp:131] Top shape: 1 64 1 80 (5120)
I0313 11:01:54.739924 15997 net.cpp:131] Top shape: 1 64 1 80 (5120)
I0313 11:01:54.739928 15997 net.cpp:131] Top shape: 1 64 1 80 (5120)
I0313 11:01:54.739933 15997 net.cpp:131] Top shape: 1 64 1 80 (5120)
I0313 11:01:54.739938 15997 net.cpp:131] Top shape: 1 64 1 80 (5120)
I0313 11:01:54.739941 15997 net.cpp:131] Top shape: 1 64 1 80 (5120)
I0313 11:01:54.739945 15997 net.cpp:131] Top shape: 1 64 1 80 (5120)
I0313 11:01:54.739950 15997 net.cpp:131] Top shape: 1 64 1 80 (5120)
I0313 11:01:54.739954 15997 net.cpp:131] Top shape: 1 64 1 80 (5120)
I0313 11:01:54.739958 15997 net.cpp:131] Top shape: 1 64 1 80 (5120)
I0313 11:01:54.739960 15997 net.cpp:131] Top shape: 1 64 1 80 (5120)
I0313 11:01:54.739964 15997 net.cpp:131] Top shape: 1 64 1 80 (5120)
I0313 11:01:54.739967 15997 net.cpp:131] Top shape: 1 64 1 80 (5120)
I0313 11:01:54.739972 15997 net.cpp:131] Top shape: 1 64 1 80 (5120)
I0313 11:01:54.739976 15997 net.cpp:131] Top shape: 1 64 1 80 (5120)
I0313 11:01:54.739980 15997 net.cpp:131] Top shape: 1 64 1 80 (5120)
I0313 11:01:54.739984 15997 net.cpp:131] Top shape: 1 64 1 80 (5120)
I0313 11:01:54.739989 15997 net.cpp:131] Top shape: 1 64 1 80 (5120)
I0313 11:01:54.739993 15997 net.cpp:131] Top shape: 1 64 1 80 (5120)
I0313 11:01:54.739997 15997 net.cpp:131] Top shape: 1 64 1 80 (5120)
I0313 11:01:54.740001 15997 net.cpp:131] Top shape: 1 64 1 80 (5120)
I0313 11:01:54.740005 15997 net.cpp:131] Top shape: 1 64 1 80 (5120)
I0313 11:01:54.740010 15997 net.cpp:131] Top shape: 1 64 1 80 (5120)
I0313 11:01:54.740015 15997 net.cpp:131] Top shape: 1 64 1 80 (5120)
I0313 11:01:54.740018 15997 net.cpp:131] Top shape: 1 64 1 80 (5120)
I0313 11:01:54.740022 15997 net.cpp:131] Top shape: 1 64 1 80 (5120)
I0313 11:01:54.740031 15997 net.cpp:131] Top shape: 1 64 1 80 (5120)
I0313 11:01:54.740034 15997 net.cpp:131] Top shape: 1 64 1 80 (5120)
I0313 11:01:54.740039 15997 net.cpp:131] Top shape: 1 64 1 80 (5120)
I0313 11:01:54.740043 15997 net.cpp:131] Top shape: 1 64 1 80 (5120)
I0313 11:01:54.740047 15997 net.cpp:131] Top shape: 1 64 1 80 (5120)
I0313 11:01:54.740051 15997 net.cpp:131] Top shape: 1 64 1 80 (5120)
I0313 11:01:54.740056 15997 net.cpp:131] Top shape: 1 64 1 80 (5120)
I0313 11:01:54.740061 15997 net.cpp:131] Top shape: 1 64 1 80 (5120)
I0313 11:01:54.740064 15997 net.cpp:131] Top shape: 1 64 1 80 (5120)
I0313 11:01:54.740068 15997 net.cpp:131] Top shape: 1 64 1 80 (5120)
I0313 11:01:54.740072 15997 net.cpp:131] Top shape: 1 64 1 80 (5120)
I0313 11:01:54.740077 15997 net.cpp:131] Top shape: 1 64 1 80 (5120)
I0313 11:01:54.740082 15997 net.cpp:131] Top shape: 1 64 1 80 (5120)
I0313 11:01:54.740085 15997 net.cpp:131] Top shape: 1 64 1 80 (5120)
I0313 11:01:54.740089 15997 net.cpp:131] Top shape: 1 64 1 80 (5120)
I0313 11:01:54.740094 15997 net.cpp:131] Top shape: 1 64 1 80 (5120)
I0313 11:01:54.740098 15997 net.cpp:131] Top shape: 1 64 1 80 (5120)
I0313 11:01:54.740103 15997 net.cpp:131] Top shape: 1 64 1 80 (5120)
I0313 11:01:54.740106 15997 net.cpp:131] Top shape: 1 64 1 80 (5120)
I0313 11:01:54.740110 15997 net.cpp:131] Top shape: 1 64 1 80 (5120)
I0313 11:01:54.740115 15997 net.cpp:131] Top shape: 1 64 1 80 (5120)
I0313 11:01:54.740119 15997 net.cpp:131] Top shape: 1 64 1 80 (5120)
I0313 11:01:54.740123 15997 net.cpp:131] Top shape: 1 64 1 80 (5120)
I0313 11:01:54.740128 15997 net.cpp:131] Top shape: 1 64 1 80 (5120)
I0313 11:01:54.740131 15997 net.cpp:131] Top shape: 1 64 1 80 (5120)
I0313 11:01:54.740136 15997 net.cpp:131] Top shape: 1 64 1 80 (5120)
I0313 11:01:54.740140 15997 net.cpp:131] Top shape: 1 64 1 80 (5120)
I0313 11:01:54.740144 15997 net.cpp:131] Top shape: 1 64 1 80 (5120)
I0313 11:01:54.740149 15997 net.cpp:131] Top shape: 1 64 1 80 (5120)
I0313 11:01:54.740152 15997 net.cpp:131] Top shape: 1 64 1 80 (5120)
I0313 11:01:54.740157 15997 net.cpp:131] Top shape: 1 64 1 80 (5120)
I0313 11:01:54.740161 15997 net.cpp:131] Top shape: 1 64 1 80 (5120)
I0313 11:01:54.740165 15997 net.cpp:131] Top shape: 1 64 1 80 (5120)
I0313 11:01:54.740170 15997 net.cpp:139] Memory required for data: 317644800
I0313 11:01:54.740172 15997 layer_factory.hpp:77] Creating layer slice1_1_Slice1_0_split
I0313 11:01:54.740177 15997 net.cpp:86] Creating Layer slice1_1_Slice1_0_split
I0313 11:01:54.740183 15997 net.cpp:408] slice1_1_Slice1_0_split <- slice1_1
I0313 11:01:54.740190 15997 net.cpp:382] slice1_1_Slice1_0_split -> slice1_1_Slice1_0_split_0
I0313 11:01:54.740198 15997 net.cpp:382] slice1_1_Slice1_0_split -> slice1_1_Slice1_0_split_1
I0313 11:01:54.740234 15997 net.cpp:124] Setting up slice1_1_Slice1_0_split
I0313 11:01:54.740242 15997 net.cpp:131] Top shape: 1 64 1 80 (5120)
I0313 11:01:54.740244 15997 net.cpp:131] Top shape: 1 64 1 80 (5120)
I0313 11:01:54.740247 15997 net.cpp:139] Memory required for data: 317685760
I0313 11:01:54.740252 15997 layer_factory.hpp:77] Creating layer SCNN_D_1
I0313 11:01:54.740258 15997 net.cpp:86] Creating Layer SCNN_D_1
I0313 11:01:54.740263 15997 net.cpp:408] SCNN_D_1 <- slice1_1_Slice1_0_split_0
I0313 11:01:54.740272 15997 net.cpp:382] SCNN_D_1 -> SCNN_D_1/message
I0313 11:01:54.741454 15997 net.cpp:124] Setting up SCNN_D_1
I0313 11:01:54.741466 15997 net.cpp:131] Top shape: 1 64 1 80 (5120)
I0313 11:01:54.741472 15997 net.cpp:139] Memory required for data: 317706240
I0313 11:01:54.741477 15997 layer_factory.hpp:77] Creating layer SCNN_D_1/relu
I0313 11:01:54.741485 15997 net.cpp:86] Creating Layer SCNN_D_1/relu
I0313 11:01:54.741492 15997 net.cpp:408] SCNN_D_1/relu <- SCNN_D_1/message
I0313 11:01:54.741498 15997 net.cpp:369] SCNN_D_1/relu -> SCNN_D_1/message (in-place)
I0313 11:01:54.741832 15997 net.cpp:124] Setting up SCNN_D_1/relu
I0313 11:01:54.741842 15997 net.cpp:131] Top shape: 1 64 1 80 (5120)
I0313 11:01:54.741847 15997 net.cpp:139] Memory required for data: 317726720
I0313 11:01:54.741849 15997 layer_factory.hpp:77] Creating layer SCNN_D_1/sum
I0313 11:01:54.741875 15997 net.cpp:86] Creating Layer SCNN_D_1/sum
I0313 11:01:54.741883 15997 net.cpp:408] SCNN_D_1/sum <- SCNN_D_1/message
I0313 11:01:54.741890 15997 net.cpp:408] SCNN_D_1/sum <- slice1_2
I0313 11:01:54.741895 15997 net.cpp:382] SCNN_D_1/sum -> SCNN_D_2
I0313 11:01:54.741972 15997 net.cpp:124] Setting up SCNN_D_1/sum
I0313 11:01:54.741981 15997 net.cpp:131] Top shape: 1 64 1 80 (5120)
I0313 11:01:54.741984 15997 net.cpp:139] Memory required for data: 317747200
I0313 11:01:54.741987 15997 layer_factory.hpp:77] Creating layer SCNN_D_2_SCNN_D_1/sum_0_split
I0313 11:01:54.741992 15997 net.cpp:86] Creating Layer SCNN_D_2_SCNN_D_1/sum_0_split
I0313 11:01:54.741998 15997 net.cpp:408] SCNN_D_2_SCNN_D_1/sum_0_split <- SCNN_D_2
I0313 11:01:54.742007 15997 net.cpp:382] SCNN_D_2_SCNN_D_1/sum_0_split -> SCNN_D_2_SCNN_D_1/sum_0_split_0
I0313 11:01:54.742014 15997 net.cpp:382] SCNN_D_2_SCNN_D_1/sum_0_split -> SCNN_D_2_SCNN_D_1/sum_0_split_1
I0313 11:01:54.742058 15997 net.cpp:124] Setting up SCNN_D_2_SCNN_D_1/sum_0_split
I0313 11:01:54.742064 15997 net.cpp:131] Top shape: 1 64 1 80 (5120)
I0313 11:01:54.742069 15997 net.cpp:131] Top shape: 1 64 1 80 (5120)
I0313 11:01:54.742072 15997 net.cpp:139] Memory required for data: 317788160
I0313 11:01:54.742075 15997 layer_factory.hpp:77] Creating layer SCNN_D_2
I0313 11:01:54.742084 15997 net.cpp:86] Creating Layer SCNN_D_2
I0313 11:01:54.742090 15997 net.cpp:408] SCNN_D_2 <- SCNN_D_2_SCNN_D_1/sum_0_split_0
I0313 11:01:54.742097 15997 net.cpp:382] SCNN_D_2 -> SCNN_D_2/message
I0313 11:01:54.743237 15997 net.cpp:124] Setting up SCNN_D_2
I0313 11:01:54.743250 15997 net.cpp:131] Top shape: 1 64 1 80 (5120)
I0313 11:01:54.743254 15997 net.cpp:139] Memory required for data: 317808640
I0313 11:01:54.743260 15997 net.cpp:467] Sharing parameters 'SCNN_D_w' owned by layer 'SCNN_D_1', param index 0
I0313 11:01:54.743265 15997 layer_factory.hpp:77] Creating layer SCNN_D_2/relu
I0313 11:01:54.743271 15997 net.cpp:86] Creating Layer SCNN_D_2/relu
I0313 11:01:54.743276 15997 net.cpp:408] SCNN_D_2/relu <- SCNN_D_2/message
I0313 11:01:54.743283 15997 net.cpp:369] SCNN_D_2/relu -> SCNN_D_2/message (in-place)
I0313 11:01:54.744370 15997 net.cpp:124] Setting up SCNN_D_2/relu
I0313 11:01:54.744382 15997 net.cpp:131] Top shape: 1 64 1 80 (5120)
I0313 11:01:54.744385 15997 net.cpp:139] Memory required for data: 317829120
I0313 11:01:54.744388 15997 layer_factory.hpp:77] Creating layer SCNN_D_2/sum
I0313 11:01:54.744395 15997 net.cpp:86] Creating Layer SCNN_D_2/sum
I0313 11:01:54.744400 15997 net.cpp:408] SCNN_D_2/sum <- SCNN_D_2/message
I0313 11:01:54.744410 15997 net.cpp:408] SCNN_D_2/sum <- slice1_3
I0313 11:01:54.744421 15997 net.cpp:382] SCNN_D_2/sum -> SCNN_D_3
I0313 11:01:54.744454 15997 net.cpp:124] Setting up SCNN_D_2/sum
I0313 11:01:54.744462 15997 net.cpp:131] Top shape: 1 64 1 80 (5120)
I0313 11:01:54.744465 15997 net.cpp:139] Memory required for data: 317849600
I0313 11:01:54.744467 15997 layer_factory.hpp:77] Creating layer SCNN_D_3_SCNN_D_2/sum_0_split
I0313 11:01:54.744472 15997 net.cpp:86] Creating Layer SCNN_D_3_SCNN_D_2/sum_0_split
I0313 11:01:54.744475 15997 net.cpp:408] SCNN_D_3_SCNN_D_2/sum_0_split <- SCNN_D_3
I0313 11:01:54.744482 15997 net.cpp:382] SCNN_D_3_SCNN_D_2/sum_0_split -> SCNN_D_3_SCNN_D_2/sum_0_split_0
I0313 11:01:54.744491 15997 net.cpp:382] SCNN_D_3_SCNN_D_2/sum_0_split -> SCNN_D_3_SCNN_D_2/sum_0_split_1
I0313 11:01:54.744527 15997 net.cpp:124] Setting up SCNN_D_3_SCNN_D_2/sum_0_split
I0313 11:01:54.744534 15997 net.cpp:131] Top shape: 1 64 1 80 (5120)
I0313 11:01:54.744539 15997 net.cpp:131] Top shape: 1 64 1 80 (5120)
I0313 11:01:54.744542 15997 net.cpp:139] Memory required for data: 317890560
I0313 11:01:54.744545 15997 layer_factory.hpp:77] Creating layer SCNN_D_3
I0313 11:01:54.744554 15997 net.cpp:86] Creating Layer SCNN_D_3
I0313 11:01:54.744558 15997 net.cpp:408] SCNN_D_3 <- SCNN_D_3_SCNN_D_2/sum_0_split_0
I0313 11:01:54.744565 15997 net.cpp:382] SCNN_D_3 -> SCNN_D_3/message
I0313 11:01:54.745693 15997 net.cpp:124] Setting up SCNN_D_3
I0313 11:01:54.745707 15997 net.cpp:131] Top shape: 1 64 1 80 (5120)
I0313 11:01:54.745710 15997 net.cpp:139] Memory required for data: 317911040
I0313 11:01:54.745717 15997 net.cpp:467] Sharing parameters 'SCNN_D_w' owned by layer 'SCNN_D_1', param index 0
I0313 11:01:54.745721 15997 layer_factory.hpp:77] Creating layer SCNN_D_3/relu
I0313 11:01:54.745728 15997 net.cpp:86] Creating Layer SCNN_D_3/relu
I0313 11:01:54.745733 15997 net.cpp:408] SCNN_D_3/relu <- SCNN_D_3/message
I0313 11:01:54.745739 15997 net.cpp:369] SCNN_D_3/relu -> SCNN_D_3/message (in-place)
I0313 11:01:54.745863 15997 net.cpp:124] Setting up SCNN_D_3/relu
I0313 11:01:54.745872 15997 net.cpp:131] Top shape: 1 64 1 80 (5120)
I0313 11:01:54.745874 15997 net.cpp:139] Memory required for data: 317931520
I0313 11:01:54.745878 15997 layer_factory.hpp:77] Creating layer SCNN_D_3/sum
I0313 11:01:54.745883 15997 net.cpp:86] Creating Layer SCNN_D_3/sum
I0313 11:01:54.745889 15997 net.cpp:408] SCNN_D_3/sum <- SCNN_D_3/message
I0313 11:01:54.745898 15997 net.cpp:408] SCNN_D_3/sum <- slice1_4
I0313 11:01:54.745903 15997 net.cpp:382] SCNN_D_3/sum -> SCNN_D_4
I0313 11:01:54.745930 15997 net.cpp:124] Setting up SCNN_D_3/sum
I0313 11:01:54.745937 15997 net.cpp:131] Top shape: 1 64 1 80 (5120)
I0313 11:01:54.745941 15997 net.cpp:139] Memory required for data: 317952000
I0313 11:01:54.745944 15997 layer_factory.hpp:77] Creating layer SCNN_D_4_SCNN_D_3/sum_0_split
I0313 11:01:54.745949 15997 net.cpp:86] Creating Layer SCNN_D_4_SCNN_D_3/sum_0_split
I0313 11:01:54.745954 15997 net.cpp:408] SCNN_D_4_SCNN_D_3/sum_0_split <- SCNN_D_4
I0313 11:01:54.745960 15997 net.cpp:382] SCNN_D_4_SCNN_D_3/sum_0_split -> SCNN_D_4_SCNN_D_3/sum_0_split_0
I0313 11:01:54.745968 15997 net.cpp:382] SCNN_D_4_SCNN_D_3/sum_0_split -> SCNN_D_4_SCNN_D_3/sum_0_split_1
I0313 11:01:54.746003 15997 net.cpp:124] Setting up SCNN_D_4_SCNN_D_3/sum_0_split
I0313 11:01:54.746011 15997 net.cpp:131] Top shape: 1 64 1 80 (5120)
I0313 11:01:54.746016 15997 net.cpp:131] Top shape: 1 64 1 80 (5120)
I0313 11:01:54.746018 15997 net.cpp:139] Memory required for data: 317992960
I0313 11:01:54.746021 15997 layer_factory.hpp:77] Creating layer SCNN_D_4
I0313 11:01:54.746028 15997 net.cpp:86] Creating Layer SCNN_D_4
I0313 11:01:54.746033 15997 net.cpp:408] SCNN_D_4 <- SCNN_D_4_SCNN_D_3/sum_0_split_0
I0313 11:01:54.746040 15997 net.cpp:382] SCNN_D_4 -> SCNN_D_4/message
I0313 11:01:54.747157 15997 net.cpp:124] Setting up SCNN_D_4
I0313 11:01:54.747169 15997 net.cpp:131] Top shape: 1 64 1 80 (5120)
I0313 11:01:54.747174 15997 net.cpp:139] Memory required for data: 318013440
I0313 11:01:54.747179 15997 net.cpp:467] Sharing parameters 'SCNN_D_w' owned by layer 'SCNN_D_1', param index 0
I0313 11:01:54.747182 15997 layer_factory.hpp:77] Creating layer SCNN_D_4/relu
I0313 11:01:54.747189 15997 net.cpp:86] Creating Layer SCNN_D_4/relu
I0313 11:01:54.747193 15997 net.cpp:408] SCNN_D_4/relu <- SCNN_D_4/message
I0313 11:01:54.747200 15997 net.cpp:369] SCNN_D_4/relu -> SCNN_D_4/message (in-place)
I0313 11:01:54.747320 15997 net.cpp:124] Setting up SCNN_D_4/relu
I0313 11:01:54.747328 15997 net.cpp:131] Top shape: 1 64 1 80 (5120)
I0313 11:01:54.747332 15997 net.cpp:139] Memory required for data: 318033920
I0313 11:01:54.747334 15997 layer_factory.hpp:77] Creating layer SCNN_D_4/sum
I0313 11:01:54.747340 15997 net.cpp:86] Creating Layer SCNN_D_4/sum
I0313 11:01:54.747346 15997 net.cpp:408] SCNN_D_4/sum <- SCNN_D_4/message
I0313 11:01:54.747354 15997 net.cpp:408] SCNN_D_4/sum <- slice1_5
I0313 11:01:54.747359 15997 net.cpp:382] SCNN_D_4/sum -> SCNN_D_5
I0313 11:01:54.747386 15997 net.cpp:124] Setting up SCNN_D_4/sum
I0313 11:01:54.747393 15997 net.cpp:131] Top shape: 1 64 1 80 (5120)
I0313 11:01:54.747396 15997 net.cpp:139] Memory required for data: 318054400
I0313 11:01:54.747400 15997 layer_factory.hpp:77] Creating layer SCNN_D_5_SCNN_D_4/sum_0_split
I0313 11:01:54.747404 15997 net.cpp:86] Creating Layer SCNN_D_5_SCNN_D_4/sum_0_split
I0313 11:01:54.747409 15997 net.cpp:408] SCNN_D_5_SCNN_D_4/sum_0_split <- SCNN_D_5
I0313 11:01:54.747416 15997 net.cpp:382] SCNN_D_5_SCNN_D_4/sum_0_split -> SCNN_D_5_SCNN_D_4/sum_0_split_0
I0313 11:01:54.747422 15997 net.cpp:382] SCNN_D_5_SCNN_D_4/sum_0_split -> SCNN_D_5_SCNN_D_4/sum_0_split_1
I0313 11:01:54.747458 15997 net.cpp:124] Setting up SCNN_D_5_SCNN_D_4/sum_0_split
I0313 11:01:54.747465 15997 net.cpp:131] Top shape: 1 64 1 80 (5120)
I0313 11:01:54.747469 15997 net.cpp:131] Top shape: 1 64 1 80 (5120)
I0313 11:01:54.747473 15997 net.cpp:139] Memory required for data: 318095360
I0313 11:01:54.747475 15997 layer_factory.hpp:77] Creating layer SCNN_D_5
I0313 11:01:54.747483 15997 net.cpp:86] Creating Layer SCNN_D_5
I0313 11:01:54.747488 15997 net.cpp:408] SCNN_D_5 <- SCNN_D_5_SCNN_D_4/sum_0_split_0
I0313 11:01:54.747494 15997 net.cpp:382] SCNN_D_5 -> SCNN_D_5/message
I0313 11:01:54.748610 15997 net.cpp:124] Setting up SCNN_D_5
I0313 11:01:54.748621 15997 net.cpp:131] Top shape: 1 64 1 80 (5120)
I0313 11:01:54.748625 15997 net.cpp:139] Memory required for data: 318115840
I0313 11:01:54.748631 15997 net.cpp:467] Sharing parameters 'SCNN_D_w' owned by layer 'SCNN_D_1', param index 0
I0313 11:01:54.748634 15997 layer_factory.hpp:77] Creating layer SCNN_D_5/relu
I0313 11:01:54.748639 15997 net.cpp:86] Creating Layer SCNN_D_5/relu
I0313 11:01:54.748646 15997 net.cpp:408] SCNN_D_5/relu <- SCNN_D_5/message
I0313 11:01:54.748652 15997 net.cpp:369] SCNN_D_5/relu -> SCNN_D_5/message (in-place)
I0313 11:01:54.748775 15997 net.cpp:124] Setting up SCNN_D_5/relu
I0313 11:01:54.748782 15997 net.cpp:131] Top shape: 1 64 1 80 (5120)
I0313 11:01:54.748785 15997 net.cpp:139] Memory required for data: 318136320
I0313 11:01:54.748788 15997 layer_factory.hpp:77] Creating layer SCNN_D_5/sum
I0313 11:01:54.748792 15997 net.cpp:86] Creating Layer SCNN_D_5/sum
I0313 11:01:54.748797 15997 net.cpp:408] SCNN_D_5/sum <- SCNN_D_5/message
I0313 11:01:54.748805 15997 net.cpp:408] SCNN_D_5/sum <- slice1_6
I0313 11:01:54.748811 15997 net.cpp:382] SCNN_D_5/sum -> SCNN_D_6
I0313 11:01:54.748837 15997 net.cpp:124] Setting up SCNN_D_5/sum
I0313 11:01:54.748844 15997 net.cpp:131] Top shape: 1 64 1 80 (5120)
I0313 11:01:54.748848 15997 net.cpp:139] Memory required for data: 318156800
I0313 11:01:54.748850 15997 layer_factory.hpp:77] Creating layer SCNN_D_6_SCNN_D_5/sum_0_split
I0313 11:01:54.748855 15997 net.cpp:86] Creating Layer SCNN_D_6_SCNN_D_5/sum_0_split
I0313 11:01:54.748860 15997 net.cpp:408] SCNN_D_6_SCNN_D_5/sum_0_split <- SCNN_D_6
I0313 11:01:54.748867 15997 net.cpp:382] SCNN_D_6_SCNN_D_5/sum_0_split -> SCNN_D_6_SCNN_D_5/sum_0_split_0
I0313 11:01:54.748874 15997 net.cpp:382] SCNN_D_6_SCNN_D_5/sum_0_split -> SCNN_D_6_SCNN_D_5/sum_0_split_1
I0313 11:01:54.748909 15997 net.cpp:124] Setting up SCNN_D_6_SCNN_D_5/sum_0_split
I0313 11:01:54.748916 15997 net.cpp:131] Top shape: 1 64 1 80 (5120)
I0313 11:01:54.748920 15997 net.cpp:131] Top shape: 1 64 1 80 (5120)
I0313 11:01:54.748924 15997 net.cpp:139] Memory required for data: 318197760
I0313 11:01:54.748925 15997 layer_factory.hpp:77] Creating layer SCNN_D_6
I0313 11:01:54.748931 15997 net.cpp:86] Creating Layer SCNN_D_6
I0313 11:01:54.748936 15997 net.cpp:408] SCNN_D_6 <- SCNN_D_6_SCNN_D_5/sum_0_split_0
I0313 11:01:54.748944 15997 net.cpp:382] SCNN_D_6 -> SCNN_D_6/message
I0313 11:01:54.751057 15997 net.cpp:124] Setting up SCNN_D_6
I0313 11:01:54.751073 15997 net.cpp:131] Top shape: 1 64 1 80 (5120)
I0313 11:01:54.751078 15997 net.cpp:139] Memory required for data: 318218240
I0313 11:01:54.751085 15997 net.cpp:467] Sharing parameters 'SCNN_D_w' owned by layer 'SCNN_D_1', param index 0
I0313 11:01:54.751089 15997 layer_factory.hpp:77] Creating layer SCNN_D_6/relu
I0313 11:01:54.751106 15997 net.cpp:86] Creating Layer SCNN_D_6/relu
I0313 11:01:54.751114 15997 net.cpp:408] SCNN_D_6/relu <- SCNN_D_6/message
I0313 11:01:54.751122 15997 net.cpp:369] SCNN_D_6/relu -> SCNN_D_6/message (in-place)
I0313 11:01:54.751462 15997 net.cpp:124] Setting up SCNN_D_6/relu
I0313 11:01:54.751472 15997 net.cpp:131] Top shape: 1 64 1 80 (5120)
I0313 11:01:54.751477 15997 net.cpp:139] Memory required for data: 318238720
I0313 11:01:54.751482 15997 layer_factory.hpp:77] Creating layer SCNN_D_6/sum
I0313 11:01:54.751489 15997 net.cpp:86] Creating Layer SCNN_D_6/sum
I0313 11:01:54.751495 15997 net.cpp:408] SCNN_D_6/sum <- SCNN_D_6/message
I0313 11:01:54.751502 15997 net.cpp:408] SCNN_D_6/sum <- slice1_7
I0313 11:01:54.751508 15997 net.cpp:382] SCNN_D_6/sum -> SCNN_D_7
I0313 11:01:54.751541 15997 net.cpp:124] Setting up SCNN_D_6/sum
I0313 11:01:54.751549 15997 net.cpp:131] Top shape: 1 64 1 80 (5120)
I0313 11:01:54.751552 15997 net.cpp:139] Memory required for data: 318259200
I0313 11:01:54.751555 15997 layer_factory.hpp:77] Creating layer SCNN_D_7_SCNN_D_6/sum_0_split
I0313 11:01:54.751560 15997 net.cpp:86] Creating Layer SCNN_D_7_SCNN_D_6/sum_0_split
I0313 11:01:54.751565 15997 net.cpp:408] SCNN_D_7_SCNN_D_6/sum_0_split <- SCNN_D_7
I0313 11:01:54.751579 15997 net.cpp:382] SCNN_D_7_SCNN_D_6/sum_0_split -> SCNN_D_7_SCNN_D_6/sum_0_split_0
I0313 11:01:54.751590 15997 net.cpp:382] SCNN_D_7_SCNN_D_6/sum_0_split -> SCNN_D_7_SCNN_D_6/sum_0_split_1
I0313 11:01:54.751632 15997 net.cpp:124] Setting up SCNN_D_7_SCNN_D_6/sum_0_split
I0313 11:01:54.751641 15997 net.cpp:131] Top shape: 1 64 1 80 (5120)
I0313 11:01:54.751646 15997 net.cpp:131] Top shape: 1 64 1 80 (5120)
I0313 11:01:54.751649 15997 net.cpp:139] Memory required for data: 318300160
I0313 11:01:54.751654 15997 layer_factory.hpp:77] Creating layer SCNN_D_7
I0313 11:01:54.751662 15997 net.cpp:86] Creating Layer SCNN_D_7
I0313 11:01:54.751667 15997 net.cpp:408] SCNN_D_7 <- SCNN_D_7_SCNN_D_6/sum_0_split_0
I0313 11:01:54.751675 15997 net.cpp:382] SCNN_D_7 -> SCNN_D_7/message
I0313 11:01:54.752882 15997 net.cpp:124] Setting up SCNN_D_7
I0313 11:01:54.752895 15997 net.cpp:131] Top shape: 1 64 1 80 (5120)
I0313 11:01:54.752899 15997 net.cpp:139] Memory required for data: 318320640
I0313 11:01:54.752904 15997 net.cpp:467] Sharing parameters 'SCNN_D_w' owned by layer 'SCNN_D_1', param index 0
I0313 11:01:54.752908 15997 layer_factory.hpp:77] Creating layer SCNN_D_7/relu
I0313 11:01:54.752913 15997 net.cpp:86] Creating Layer SCNN_D_7/relu
I0313 11:01:54.752918 15997 net.cpp:408] SCNN_D_7/relu <- SCNN_D_7/message
I0313 11:01:54.752928 15997 net.cpp:369] SCNN_D_7/relu -> SCNN_D_7/message (in-place)
I0313 11:01:54.753064 15997 net.cpp:124] Setting up SCNN_D_7/relu
I0313 11:01:54.753072 15997 net.cpp:131] Top shape: 1 64 1 80 (5120)
I0313 11:01:54.753077 15997 net.cpp:139] Memory required for data: 318341120
I0313 11:01:54.753079 15997 layer_factory.hpp:77] Creating layer SCNN_D_7/sum
I0313 11:01:54.753084 15997 net.cpp:86] Creating Layer SCNN_D_7/sum
I0313 11:01:54.753090 15997 net.cpp:408] SCNN_D_7/sum <- SCNN_D_7/message
I0313 11:01:54.753098 15997 net.cpp:408] SCNN_D_7/sum <- slice1_8
I0313 11:01:54.753105 15997 net.cpp:382] SCNN_D_7/sum -> SCNN_D_8
I0313 11:01:54.753134 15997 net.cpp:124] Setting up SCNN_D_7/sum
I0313 11:01:54.753142 15997 net.cpp:131] Top shape: 1 64 1 80 (5120)
I0313 11:01:54.753146 15997 net.cpp:139] Memory required for data: 318361600
I0313 11:01:54.753149 15997 layer_factory.hpp:77] Creating layer SCNN_D_8_SCNN_D_7/sum_0_split
I0313 11:01:54.753155 15997 net.cpp:86] Creating Layer SCNN_D_8_SCNN_D_7/sum_0_split
I0313 11:01:54.753160 15997 net.cpp:408] SCNN_D_8_SCNN_D_7/sum_0_split <- SCNN_D_8
I0313 11:01:54.753167 15997 net.cpp:382] SCNN_D_8_SCNN_D_7/sum_0_split -> SCNN_D_8_SCNN_D_7/sum_0_split_0
I0313 11:01:54.753176 15997 net.cpp:382] SCNN_D_8_SCNN_D_7/sum_0_split -> SCNN_D_8_SCNN_D_7/sum_0_split_1
I0313 11:01:54.753221 15997 net.cpp:124] Setting up SCNN_D_8_SCNN_D_7/sum_0_split
I0313 11:01:54.753228 15997 net.cpp:131] Top shape: 1 64 1 80 (5120)
I0313 11:01:54.753233 15997 net.cpp:131] Top shape: 1 64 1 80 (5120)
I0313 11:01:54.753237 15997 net.cpp:139] Memory required for data: 318402560
I0313 11:01:54.753239 15997 layer_factory.hpp:77] Creating layer SCNN_D_8
I0313 11:01:54.753247 15997 net.cpp:86] Creating Layer SCNN_D_8
I0313 11:01:54.753253 15997 net.cpp:408] SCNN_D_8 <- SCNN_D_8_SCNN_D_7/sum_0_split_0
I0313 11:01:54.753262 15997 net.cpp:382] SCNN_D_8 -> SCNN_D_8/message
I0313 11:01:54.754451 15997 net.cpp:124] Setting up SCNN_D_8
I0313 11:01:54.754462 15997 net.cpp:131] Top shape: 1 64 1 80 (5120)
I0313 11:01:54.754467 15997 net.cpp:139] Memory required for data: 318423040
I0313 11:01:54.754472 15997 net.cpp:467] Sharing parameters 'SCNN_D_w' owned by layer 'SCNN_D_1', param index 0
I0313 11:01:54.754475 15997 layer_factory.hpp:77] Creating layer SCNN_D_8/relu
I0313 11:01:54.754480 15997 net.cpp:86] Creating Layer SCNN_D_8/relu
I0313 11:01:54.754487 15997 net.cpp:408] SCNN_D_8/relu <- SCNN_D_8/message
I0313 11:01:54.754493 15997 net.cpp:369] SCNN_D_8/relu -> SCNN_D_8/message (in-place)
I0313 11:01:54.754627 15997 net.cpp:124] Setting up SCNN_D_8/relu
I0313 11:01:54.754637 15997 net.cpp:131] Top shape: 1 64 1 80 (5120)
I0313 11:01:54.754640 15997 net.cpp:139] Memory required for data: 318443520
I0313 11:01:54.754642 15997 layer_factory.hpp:77] Creating layer SCNN_D_8/sum
I0313 11:01:54.754648 15997 net.cpp:86] Creating Layer SCNN_D_8/sum
I0313 11:01:54.754653 15997 net.cpp:408] SCNN_D_8/sum <- SCNN_D_8/message
I0313 11:01:54.754662 15997 net.cpp:408] SCNN_D_8/sum <- slice1_9
I0313 11:01:54.754667 15997 net.cpp:382] SCNN_D_8/sum -> SCNN_D_9
I0313 11:01:54.754706 15997 net.cpp:124] Setting up SCNN_D_8/sum
I0313 11:01:54.754719 15997 net.cpp:131] Top shape: 1 64 1 80 (5120)
I0313 11:01:54.754722 15997 net.cpp:139] Memory required for data: 318464000
I0313 11:01:54.754725 15997 layer_factory.hpp:77] Creating layer SCNN_D_9_SCNN_D_8/sum_0_split
I0313 11:01:54.754730 15997 net.cpp:86] Creating Layer SCNN_D_9_SCNN_D_8/sum_0_split
I0313 11:01:54.754736 15997 net.cpp:408] SCNN_D_9_SCNN_D_8/sum_0_split <- SCNN_D_9
I0313 11:01:54.754742 15997 net.cpp:382] SCNN_D_9_SCNN_D_8/sum_0_split -> SCNN_D_9_SCNN_D_8/sum_0_split_0
I0313 11:01:54.754750 15997 net.cpp:382] SCNN_D_9_SCNN_D_8/sum_0_split -> SCNN_D_9_SCNN_D_8/sum_0_split_1
I0313 11:01:54.754787 15997 net.cpp:124] Setting up SCNN_D_9_SCNN_D_8/sum_0_split
I0313 11:01:54.754796 15997 net.cpp:131] Top shape: 1 64 1 80 (5120)
I0313 11:01:54.754801 15997 net.cpp:131] Top shape: 1 64 1 80 (5120)
I0313 11:01:54.754804 15997 net.cpp:139] Memory required for data: 318504960
I0313 11:01:54.754806 15997 layer_factory.hpp:77] Creating layer SCNN_D_9
I0313 11:01:54.754813 15997 net.cpp:86] Creating Layer SCNN_D_9
I0313 11:01:54.754819 15997 net.cpp:408] SCNN_D_9 <- SCNN_D_9_SCNN_D_8/sum_0_split_0
I0313 11:01:54.754827 15997 net.cpp:382] SCNN_D_9 -> SCNN_D_9/message
I0313 11:01:54.756958 15997 net.cpp:124] Setting up SCNN_D_9
I0313 11:01:54.756973 15997 net.cpp:131] Top shape: 1 64 1 80 (5120)
I0313 11:01:54.756978 15997 net.cpp:139] Memory required for data: 318525440
I0313 11:01:54.756983 15997 net.cpp:467] Sharing parameters 'SCNN_D_w' owned by layer 'SCNN_D_1', param index 0
I0313 11:01:54.756989 15997 layer_factory.hpp:77] Creating layer SCNN_D_9/relu
I0313 11:01:54.756994 15997 net.cpp:86] Creating Layer SCNN_D_9/relu
I0313 11:01:54.756999 15997 net.cpp:408] SCNN_D_9/relu <- SCNN_D_9/message
I0313 11:01:54.757005 15997 net.cpp:369] SCNN_D_9/relu -> SCNN_D_9/message (in-place)
I0313 11:01:54.757143 15997 net.cpp:124] Setting up SCNN_D_9/relu
I0313 11:01:54.757151 15997 net.cpp:131] Top shape: 1 64 1 80 (5120)
I0313 11:01:54.757155 15997 net.cpp:139] Memory required for data: 318545920
I0313 11:01:54.757158 15997 layer_factory.hpp:77] Creating layer SCNN_D_9/sum
I0313 11:01:54.757163 15997 net.cpp:86] Creating Layer SCNN_D_9/sum
I0313 11:01:54.757169 15997 net.cpp:408] SCNN_D_9/sum <- SCNN_D_9/message
I0313 11:01:54.757174 15997 net.cpp:408] SCNN_D_9/sum <- slice1_10
I0313 11:01:54.757179 15997 net.cpp:382] SCNN_D_9/sum -> SCNN_D_10
I0313 11:01:54.757211 15997 net.cpp:124] Setting up SCNN_D_9/sum
I0313 11:01:54.757220 15997 net.cpp:131] Top shape: 1 64 1 80 (5120)
I0313 11:01:54.757222 15997 net.cpp:139] Memory required for data: 318566400
I0313 11:01:54.757225 15997 layer_factory.hpp:77] Creating layer SCNN_D_10_SCNN_D_9/sum_0_split
I0313 11:01:54.757232 15997 net.cpp:86] Creating Layer SCNN_D_10_SCNN_D_9/sum_0_split
I0313 11:01:54.757237 15997 net.cpp:408] SCNN_D_10_SCNN_D_9/sum_0_split <- SCNN_D_10
I0313 11:01:54.757246 15997 net.cpp:382] SCNN_D_10_SCNN_D_9/sum_0_split -> SCNN_D_10_SCNN_D_9/sum_0_split_0
I0313 11:01:54.757254 15997 net.cpp:382] SCNN_D_10_SCNN_D_9/sum_0_split -> SCNN_D_10_SCNN_D_9/sum_0_split_1
I0313 11:01:54.757297 15997 net.cpp:124] Setting up SCNN_D_10_SCNN_D_9/sum_0_split
I0313 11:01:54.757304 15997 net.cpp:131] Top shape: 1 64 1 80 (5120)
I0313 11:01:54.757309 15997 net.cpp:131] Top shape: 1 64 1 80 (5120)
I0313 11:01:54.757313 15997 net.cpp:139] Memory required for data: 318607360
I0313 11:01:54.757314 15997 layer_factory.hpp:77] Creating layer SCNN_D_10
I0313 11:01:54.757324 15997 net.cpp:86] Creating Layer SCNN_D_10
I0313 11:01:54.757330 15997 net.cpp:408] SCNN_D_10 <- SCNN_D_10_SCNN_D_9/sum_0_split_0
I0313 11:01:54.757338 15997 net.cpp:382] SCNN_D_10 -> SCNN_D_10/message
I0313 11:01:54.758705 15997 net.cpp:124] Setting up SCNN_D_10
I0313 11:01:54.758718 15997 net.cpp:131] Top shape: 1 64 1 80 (5120)
I0313 11:01:54.758723 15997 net.cpp:139] Memory required for data: 318627840
I0313 11:01:54.758726 15997 net.cpp:467] Sharing parameters 'SCNN_D_w' owned by layer 'SCNN_D_1', param index 0
I0313 11:01:54.758730 15997 layer_factory.hpp:77] Creating layer SCNN_D_10/relu
I0313 11:01:54.758735 15997 net.cpp:86] Creating Layer SCNN_D_10/relu
I0313 11:01:54.758743 15997 net.cpp:408] SCNN_D_10/relu <- SCNN_D_10/message
I0313 11:01:54.758749 15997 net.cpp:369] SCNN_D_10/relu -> SCNN_D_10/message (in-place)
I0313 11:01:54.759089 15997 net.cpp:124] Setting up SCNN_D_10/relu
I0313 11:01:54.759099 15997 net.cpp:131] Top shape: 1 64 1 80 (5120)
I0313 11:01:54.759102 15997 net.cpp:139] Memory required for data: 318648320
I0313 11:01:54.759105 15997 layer_factory.hpp:77] Creating layer SCNN_D_10/sum
I0313 11:01:54.759112 15997 net.cpp:86] Creating Layer SCNN_D_10/sum
I0313 11:01:54.759119 15997 net.cpp:408] SCNN_D_10/sum <- SCNN_D_10/message
I0313 11:01:54.759126 15997 net.cpp:408] SCNN_D_10/sum <- slice1_11
I0313 11:01:54.759133 15997 net.cpp:382] SCNN_D_10/sum -> SCNN_D_11
I0313 11:01:54.759162 15997 net.cpp:124] Setting up SCNN_D_10/sum
I0313 11:01:54.759171 15997 net.cpp:131] Top shape: 1 64 1 80 (5120)
I0313 11:01:54.759176 15997 net.cpp:139] Memory required for data: 318668800
I0313 11:01:54.759178 15997 layer_factory.hpp:77] Creating layer SCNN_D_11_SCNN_D_10/sum_0_split
I0313 11:01:54.759184 15997 net.cpp:86] Creating Layer SCNN_D_11_SCNN_D_10/sum_0_split
I0313 11:01:54.759189 15997 net.cpp:408] SCNN_D_11_SCNN_D_10/sum_0_split <- SCNN_D_11
I0313 11:01:54.759196 15997 net.cpp:382] SCNN_D_11_SCNN_D_10/sum_0_split -> SCNN_D_11_SCNN_D_10/sum_0_split_0
I0313 11:01:54.759205 15997 net.cpp:382] SCNN_D_11_SCNN_D_10/sum_0_split -> SCNN_D_11_SCNN_D_10/sum_0_split_1
I0313 11:01:54.759248 15997 net.cpp:124] Setting up SCNN_D_11_SCNN_D_10/sum_0_split
I0313 11:01:54.759255 15997 net.cpp:131] Top shape: 1 64 1 80 (5120)
I0313 11:01:54.759259 15997 net.cpp:131] Top shape: 1 64 1 80 (5120)
I0313 11:01:54.759261 15997 net.cpp:139] Memory required for data: 318709760
I0313 11:01:54.759263 15997 layer_factory.hpp:77] Creating layer SCNN_D_11
I0313 11:01:54.759270 15997 net.cpp:86] Creating Layer SCNN_D_11
I0313 11:01:54.759276 15997 net.cpp:408] SCNN_D_11 <- SCNN_D_11_SCNN_D_10/sum_0_split_0
I0313 11:01:54.759285 15997 net.cpp:382] SCNN_D_11 -> SCNN_D_11/message
I0313 11:01:54.761071 15997 net.cpp:124] Setting up SCNN_D_11
I0313 11:01:54.761085 15997 net.cpp:131] Top shape: 1 64 1 80 (5120)
I0313 11:01:54.761090 15997 net.cpp:139] Memory required for data: 318730240
I0313 11:01:54.761095 15997 net.cpp:467] Sharing parameters 'SCNN_D_w' owned by layer 'SCNN_D_1', param index 0
I0313 11:01:54.761098 15997 layer_factory.hpp:77] Creating layer SCNN_D_11/relu
I0313 11:01:54.761103 15997 net.cpp:86] Creating Layer SCNN_D_11/relu
I0313 11:01:54.761111 15997 net.cpp:408] SCNN_D_11/relu <- SCNN_D_11/message
I0313 11:01:54.761117 15997 net.cpp:369] SCNN_D_11/relu -> SCNN_D_11/message (in-place)
I0313 11:01:54.761253 15997 net.cpp:124] Setting up SCNN_D_11/relu
I0313 11:01:54.761262 15997 net.cpp:131] Top shape: 1 64 1 80 (5120)
I0313 11:01:54.761266 15997 net.cpp:139] Memory required for data: 318750720
I0313 11:01:54.761276 15997 layer_factory.hpp:77] Creating layer SCNN_D_11/sum
I0313 11:01:54.761281 15997 net.cpp:86] Creating Layer SCNN_D_11/sum
I0313 11:01:54.761287 15997 net.cpp:408] SCNN_D_11/sum <- SCNN_D_11/message
I0313 11:01:54.761294 15997 net.cpp:408] SCNN_D_11/sum <- slice1_12
I0313 11:01:54.761301 15997 net.cpp:382] SCNN_D_11/sum -> SCNN_D_12
I0313 11:01:54.761332 15997 net.cpp:124] Setting up SCNN_D_11/sum
I0313 11:01:54.761339 15997 net.cpp:131] Top shape: 1 64 1 80 (5120)
I0313 11:01:54.761343 15997 net.cpp:139] Memory required for data: 318771200
I0313 11:01:54.761345 15997 layer_factory.hpp:77] Creating layer SCNN_D_12_SCNN_D_11/sum_0_split
I0313 11:01:54.761353 15997 net.cpp:86] Creating Layer SCNN_D_12_SCNN_D_11/sum_0_split
I0313 11:01:54.761358 15997 net.cpp:408] SCNN_D_12_SCNN_D_11/sum_0_split <- SCNN_D_12
I0313 11:01:54.761364 15997 net.cpp:382] SCNN_D_12_SCNN_D_11/sum_0_split -> SCNN_D_12_SCNN_D_11/sum_0_split_0
I0313 11:01:54.761373 15997 net.cpp:382] SCNN_D_12_SCNN_D_11/sum_0_split -> SCNN_D_12_SCNN_D_11/sum_0_split_1
I0313 11:01:54.761415 15997 net.cpp:124] Setting up SCNN_D_12_SCNN_D_11/sum_0_split
I0313 11:01:54.761422 15997 net.cpp:131] Top shape: 1 64 1 80 (5120)
I0313 11:01:54.761427 15997 net.cpp:131] Top shape: 1 64 1 80 (5120)
I0313 11:01:54.761430 15997 net.cpp:139] Memory required for data: 318812160
I0313 11:01:54.761433 15997 layer_factory.hpp:77] Creating layer SCNN_D_12
I0313 11:01:54.761441 15997 net.cpp:86] Creating Layer SCNN_D_12
I0313 11:01:54.761447 15997 net.cpp:408] SCNN_D_12 <- SCNN_D_12_SCNN_D_11/sum_0_split_0
I0313 11:01:54.761456 15997 net.cpp:382] SCNN_D_12 -> SCNN_D_12/message
I0313 11:01:54.763698 15997 net.cpp:124] Setting up SCNN_D_12
I0313 11:01:54.763716 15997 net.cpp:131] Top shape: 1 64 1 80 (5120)
I0313 11:01:54.763721 15997 net.cpp:139] Memory required for data: 318832640
I0313 11:01:54.763726 15997 net.cpp:467] Sharing parameters 'SCNN_D_w' owned by layer 'SCNN_D_1', param index 0
I0313 11:01:54.763731 15997 layer_factory.hpp:77] Creating layer SCNN_D_12/relu
I0313 11:01:54.763736 15997 net.cpp:86] Creating Layer SCNN_D_12/relu
I0313 11:01:54.763743 15997 net.cpp:408] SCNN_D_12/relu <- SCNN_D_12/message
I0313 11:01:54.763751 15997 net.cpp:369] SCNN_D_12/relu -> SCNN_D_12/message (in-place)
I0313 11:01:54.763895 15997 net.cpp:124] Setting up SCNN_D_12/relu
I0313 11:01:54.763903 15997 net.cpp:131] Top shape: 1 64 1 80 (5120)
I0313 11:01:54.763906 15997 net.cpp:139] Memory required for data: 318853120
I0313 11:01:54.763908 15997 layer_factory.hpp:77] Creating layer SCNN_D_12/sum
I0313 11:01:54.763913 15997 net.cpp:86] Creating Layer SCNN_D_12/sum
I0313 11:01:54.763918 15997 net.cpp:408] SCNN_D_12/sum <- SCNN_D_12/message
I0313 11:01:54.763926 15997 net.cpp:408] SCNN_D_12/sum <- slice1_13
I0313 11:01:54.763931 15997 net.cpp:382] SCNN_D_12/sum -> SCNN_D_13
I0313 11:01:54.763962 15997 net.cpp:124] Setting up SCNN_D_12/sum
I0313 11:01:54.763969 15997 net.cpp:131] Top shape: 1 64 1 80 (5120)
I0313 11:01:54.763972 15997 net.cpp:139] Memory required for data: 318873600
I0313 11:01:54.763974 15997 layer_factory.hpp:77] Creating layer SCNN_D_13_SCNN_D_12/sum_0_split
I0313 11:01:54.763978 15997 net.cpp:86] Creating Layer SCNN_D_13_SCNN_D_12/sum_0_split
I0313 11:01:54.763983 15997 net.cpp:408] SCNN_D_13_SCNN_D_12/sum_0_split <- SCNN_D_13
I0313 11:01:54.763991 15997 net.cpp:382] SCNN_D_13_SCNN_D_12/sum_0_split -> SCNN_D_13_SCNN_D_12/sum_0_split_0
I0313 11:01:54.763998 15997 net.cpp:382] SCNN_D_13_SCNN_D_12/sum_0_split -> SCNN_D_13_SCNN_D_12/sum_0_split_1
I0313 11:01:54.764040 15997 net.cpp:124] Setting up SCNN_D_13_SCNN_D_12/sum_0_split
I0313 11:01:54.764046 15997 net.cpp:131] Top shape: 1 64 1 80 (5120)
I0313 11:01:54.764051 15997 net.cpp:131] Top shape: 1 64 1 80 (5120)
I0313 11:01:54.764055 15997 net.cpp:139] Memory required for data: 318914560
I0313 11:01:54.764056 15997 layer_factory.hpp:77] Creating layer SCNN_D_13
I0313 11:01:54.764063 15997 net.cpp:86] Creating Layer SCNN_D_13
I0313 11:01:54.764068 15997 net.cpp:408] SCNN_D_13 <- SCNN_D_13_SCNN_D_12/sum_0_split_0
I0313 11:01:54.764075 15997 net.cpp:382] SCNN_D_13 -> SCNN_D_13/message
I0313 11:01:54.765280 15997 net.cpp:124] Setting up SCNN_D_13
I0313 11:01:54.765297 15997 net.cpp:131] Top shape: 1 64 1 80 (5120)
I0313 11:01:54.765300 15997 net.cpp:139] Memory required for data: 318935040
I0313 11:01:54.765305 15997 net.cpp:467] Sharing parameters 'SCNN_D_w' owned by layer 'SCNN_D_1', param index 0
I0313 11:01:54.765307 15997 layer_factory.hpp:77] Creating layer SCNN_D_13/relu
I0313 11:01:54.765312 15997 net.cpp:86] Creating Layer SCNN_D_13/relu
I0313 11:01:54.765323 15997 net.cpp:408] SCNN_D_13/relu <- SCNN_D_13/message
I0313 11:01:54.765331 15997 net.cpp:369] SCNN_D_13/relu -> SCNN_D_13/message (in-place)
I0313 11:01:54.765470 15997 net.cpp:124] Setting up SCNN_D_13/relu
I0313 11:01:54.765477 15997 net.cpp:131] Top shape: 1 64 1 80 (5120)
I0313 11:01:54.765480 15997 net.cpp:139] Memory required for data: 318955520
I0313 11:01:54.765482 15997 layer_factory.hpp:77] Creating layer SCNN_D_13/sum
I0313 11:01:54.765487 15997 net.cpp:86] Creating Layer SCNN_D_13/sum
I0313 11:01:54.765492 15997 net.cpp:408] SCNN_D_13/sum <- SCNN_D_13/message
I0313 11:01:54.765497 15997 net.cpp:408] SCNN_D_13/sum <- slice1_14
I0313 11:01:54.765503 15997 net.cpp:382] SCNN_D_13/sum -> SCNN_D_14
I0313 11:01:54.765533 15997 net.cpp:124] Setting up SCNN_D_13/sum
I0313 11:01:54.765542 15997 net.cpp:131] Top shape: 1 64 1 80 (5120)
I0313 11:01:54.765543 15997 net.cpp:139] Memory required for data: 318976000
I0313 11:01:54.765545 15997 layer_factory.hpp:77] Creating layer SCNN_D_14_SCNN_D_13/sum_0_split
I0313 11:01:54.765550 15997 net.cpp:86] Creating Layer SCNN_D_14_SCNN_D_13/sum_0_split
I0313 11:01:54.765554 15997 net.cpp:408] SCNN_D_14_SCNN_D_13/sum_0_split <- SCNN_D_14
I0313 11:01:54.765561 15997 net.cpp:382] SCNN_D_14_SCNN_D_13/sum_0_split -> SCNN_D_14_SCNN_D_13/sum_0_split_0
I0313 11:01:54.765568 15997 net.cpp:382] SCNN_D_14_SCNN_D_13/sum_0_split -> SCNN_D_14_SCNN_D_13/sum_0_split_1
I0313 11:01:54.765606 15997 net.cpp:124] Setting up SCNN_D_14_SCNN_D_13/sum_0_split
I0313 11:01:54.765612 15997 net.cpp:131] Top shape: 1 64 1 80 (5120)
I0313 11:01:54.765616 15997 net.cpp:131] Top shape: 1 64 1 80 (5120)
I0313 11:01:54.765619 15997 net.cpp:139] Memory required for data: 319016960
I0313 11:01:54.765620 15997 layer_factory.hpp:77] Creating layer SCNN_D_14
I0313 11:01:54.765628 15997 net.cpp:86] Creating Layer SCNN_D_14
I0313 11:01:54.765632 15997 net.cpp:408] SCNN_D_14 <- SCNN_D_14_SCNN_D_13/sum_0_split_0
I0313 11:01:54.765638 15997 net.cpp:382] SCNN_D_14 -> SCNN_D_14/message
I0313 11:01:54.766825 15997 net.cpp:124] Setting up SCNN_D_14
I0313 11:01:54.766839 15997 net.cpp:131] Top shape: 1 64 1 80 (5120)
I0313 11:01:54.766842 15997 net.cpp:139] Memory required for data: 319037440
I0313 11:01:54.766846 15997 net.cpp:467] Sharing parameters 'SCNN_D_w' owned by layer 'SCNN_D_1', param index 0
I0313 11:01:54.766849 15997 layer_factory.hpp:77] Creating layer SCNN_D_14/relu
I0313 11:01:54.766855 15997 net.cpp:86] Creating Layer SCNN_D_14/relu
I0313 11:01:54.766860 15997 net.cpp:408] SCNN_D_14/relu <- SCNN_D_14/message
I0313 11:01:54.766867 15997 net.cpp:369] SCNN_D_14/relu -> SCNN_D_14/message (in-place)
I0313 11:01:54.767006 15997 net.cpp:124] Setting up SCNN_D_14/relu
I0313 11:01:54.767014 15997 net.cpp:131] Top shape: 1 64 1 80 (5120)
I0313 11:01:54.767016 15997 net.cpp:139] Memory required for data: 319057920
I0313 11:01:54.767019 15997 layer_factory.hpp:77] Creating layer SCNN_D_14/sum
I0313 11:01:54.767026 15997 net.cpp:86] Creating Layer SCNN_D_14/sum
I0313 11:01:54.767032 15997 net.cpp:408] SCNN_D_14/sum <- SCNN_D_14/message
I0313 11:01:54.767040 15997 net.cpp:408] SCNN_D_14/sum <- slice1_15
I0313 11:01:54.767045 15997 net.cpp:382] SCNN_D_14/sum -> SCNN_D_15
I0313 11:01:54.767076 15997 net.cpp:124] Setting up SCNN_D_14/sum
I0313 11:01:54.767083 15997 net.cpp:131] Top shape: 1 64 1 80 (5120)
I0313 11:01:54.767087 15997 net.cpp:139] Memory required for data: 319078400
I0313 11:01:54.767091 15997 layer_factory.hpp:77] Creating layer SCNN_D_15_SCNN_D_14/sum_0_split
I0313 11:01:54.767099 15997 net.cpp:86] Creating Layer SCNN_D_15_SCNN_D_14/sum_0_split
I0313 11:01:54.767105 15997 net.cpp:408] SCNN_D_15_SCNN_D_14/sum_0_split <- SCNN_D_15
I0313 11:01:54.767112 15997 net.cpp:382] SCNN_D_15_SCNN_D_14/sum_0_split -> SCNN_D_15_SCNN_D_14/sum_0_split_0
I0313 11:01:54.767122 15997 net.cpp:382] SCNN_D_15_SCNN_D_14/sum_0_split -> SCNN_D_15_SCNN_D_14/sum_0_split_1
I0313 11:01:54.767165 15997 net.cpp:124] Setting up SCNN_D_15_SCNN_D_14/sum_0_split
I0313 11:01:54.767172 15997 net.cpp:131] Top shape: 1 64 1 80 (5120)
I0313 11:01:54.767177 15997 net.cpp:131] Top shape: 1 64 1 80 (5120)
I0313 11:01:54.767181 15997 net.cpp:139] Memory required for data: 319119360
I0313 11:01:54.767184 15997 layer_factory.hpp:77] Creating layer SCNN_D_15
I0313 11:01:54.767192 15997 net.cpp:86] Creating Layer SCNN_D_15
I0313 11:01:54.767199 15997 net.cpp:408] SCNN_D_15 <- SCNN_D_15_SCNN_D_14/sum_0_split_0
I0313 11:01:54.767207 15997 net.cpp:382] SCNN_D_15 -> SCNN_D_15/message
I0313 11:01:54.768399 15997 net.cpp:124] Setting up SCNN_D_15
I0313 11:01:54.768411 15997 net.cpp:131] Top shape: 1 64 1 80 (5120)
I0313 11:01:54.768415 15997 net.cpp:139] Memory required for data: 319139840
I0313 11:01:54.768420 15997 net.cpp:467] Sharing parameters 'SCNN_D_w' owned by layer 'SCNN_D_1', param index 0
I0313 11:01:54.768424 15997 layer_factory.hpp:77] Creating layer SCNN_D_15/relu
I0313 11:01:54.768430 15997 net.cpp:86] Creating Layer SCNN_D_15/relu
I0313 11:01:54.768436 15997 net.cpp:408] SCNN_D_15/relu <- SCNN_D_15/message
I0313 11:01:54.768443 15997 net.cpp:369] SCNN_D_15/relu -> SCNN_D_15/message (in-place)
I0313 11:01:54.769809 15997 net.cpp:124] Setting up SCNN_D_15/relu
I0313 11:01:54.769822 15997 net.cpp:131] Top shape: 1 64 1 80 (5120)
I0313 11:01:54.769826 15997 net.cpp:139] Memory required for data: 319160320
I0313 11:01:54.769829 15997 layer_factory.hpp:77] Creating layer SCNN_D_15/sum
I0313 11:01:54.769834 15997 net.cpp:86] Creating Layer SCNN_D_15/sum
I0313 11:01:54.769840 15997 net.cpp:408] SCNN_D_15/sum <- SCNN_D_15/message
I0313 11:01:54.769848 15997 net.cpp:408] SCNN_D_15/sum <- slice1_16
I0313 11:01:54.769856 15997 net.cpp:382] SCNN_D_15/sum -> SCNN_D_16
I0313 11:01:54.769889 15997 net.cpp:124] Setting up SCNN_D_15/sum
I0313 11:01:54.769898 15997 net.cpp:131] Top shape: 1 64 1 80 (5120)
I0313 11:01:54.769901 15997 net.cpp:139] Memory required for data: 319180800
I0313 11:01:54.769904 15997 layer_factory.hpp:77] Creating layer SCNN_D_16_SCNN_D_15/sum_0_split
I0313 11:01:54.769912 15997 net.cpp:86] Creating Layer SCNN_D_16_SCNN_D_15/sum_0_split
I0313 11:01:54.769917 15997 net.cpp:408] SCNN_D_16_SCNN_D_15/sum_0_split <- SCNN_D_16
I0313 11:01:54.769923 15997 net.cpp:382] SCNN_D_16_SCNN_D_15/sum_0_split -> SCNN_D_16_SCNN_D_15/sum_0_split_0
I0313 11:01:54.769932 15997 net.cpp:382] SCNN_D_16_SCNN_D_15/sum_0_split -> SCNN_D_16_SCNN_D_15/sum_0_split_1
I0313 11:01:54.769973 15997 net.cpp:124] Setting up SCNN_D_16_SCNN_D_15/sum_0_split
I0313 11:01:54.769981 15997 net.cpp:131] Top shape: 1 64 1 80 (5120)
I0313 11:01:54.769986 15997 net.cpp:131] Top shape: 1 64 1 80 (5120)
I0313 11:01:54.769990 15997 net.cpp:139] Memory required for data: 319221760
I0313 11:01:54.769994 15997 layer_factory.hpp:77] Creating layer SCNN_D_16
I0313 11:01:54.770001 15997 net.cpp:86] Creating Layer SCNN_D_16
I0313 11:01:54.770007 15997 net.cpp:408] SCNN_D_16 <- SCNN_D_16_SCNN_D_15/sum_0_split_0
I0313 11:01:54.770016 15997 net.cpp:382] SCNN_D_16 -> SCNN_D_16/message
I0313 11:01:54.771219 15997 net.cpp:124] Setting up SCNN_D_16
I0313 11:01:54.771232 15997 net.cpp:131] Top shape: 1 64 1 80 (5120)
I0313 11:01:54.771237 15997 net.cpp:139] Memory required for data: 319242240
I0313 11:01:54.771241 15997 net.cpp:467] Sharing parameters 'SCNN_D_w' owned by layer 'SCNN_D_1', param index 0
I0313 11:01:54.771246 15997 layer_factory.hpp:77] Creating layer SCNN_D_16/relu
I0313 11:01:54.771250 15997 net.cpp:86] Creating Layer SCNN_D_16/relu
I0313 11:01:54.771258 15997 net.cpp:408] SCNN_D_16/relu <- SCNN_D_16/message
I0313 11:01:54.771265 15997 net.cpp:369] SCNN_D_16/relu -> SCNN_D_16/message (in-place)
I0313 11:01:54.771402 15997 net.cpp:124] Setting up SCNN_D_16/relu
I0313 11:01:54.771411 15997 net.cpp:131] Top shape: 1 64 1 80 (5120)
I0313 11:01:54.771414 15997 net.cpp:139] Memory required for data: 319262720
I0313 11:01:54.771417 15997 layer_factory.hpp:77] Creating layer SCNN_D_16/sum
I0313 11:01:54.771425 15997 net.cpp:86] Creating Layer SCNN_D_16/sum
I0313 11:01:54.771430 15997 net.cpp:408] SCNN_D_16/sum <- SCNN_D_16/message
I0313 11:01:54.771438 15997 net.cpp:408] SCNN_D_16/sum <- slice1_17
I0313 11:01:54.771443 15997 net.cpp:382] SCNN_D_16/sum -> SCNN_D_17
I0313 11:01:54.771474 15997 net.cpp:124] Setting up SCNN_D_16/sum
I0313 11:01:54.771482 15997 net.cpp:131] Top shape: 1 64 1 80 (5120)
I0313 11:01:54.771486 15997 net.cpp:139] Memory required for data: 319283200
I0313 11:01:54.771488 15997 layer_factory.hpp:77] Creating layer SCNN_D_17_SCNN_D_16/sum_0_split
I0313 11:01:54.771494 15997 net.cpp:86] Creating Layer SCNN_D_17_SCNN_D_16/sum_0_split
I0313 11:01:54.771500 15997 net.cpp:408] SCNN_D_17_SCNN_D_16/sum_0_split <- SCNN_D_17
I0313 11:01:54.771509 15997 net.cpp:382] SCNN_D_17_SCNN_D_16/sum_0_split -> SCNN_D_17_SCNN_D_16/sum_0_split_0
I0313 11:01:54.771518 15997 net.cpp:382] SCNN_D_17_SCNN_D_16/sum_0_split -> SCNN_D_17_SCNN_D_16/sum_0_split_1
I0313 11:01:54.771559 15997 net.cpp:124] Setting up SCNN_D_17_SCNN_D_16/sum_0_split
I0313 11:01:54.771566 15997 net.cpp:131] Top shape: 1 64 1 80 (5120)
I0313 11:01:54.771576 15997 net.cpp:131] Top shape: 1 64 1 80 (5120)
I0313 11:01:54.771580 15997 net.cpp:139] Memory required for data: 319324160
I0313 11:01:54.771584 15997 layer_factory.hpp:77] Creating layer SCNN_D_17
I0313 11:01:54.771590 15997 net.cpp:86] Creating Layer SCNN_D_17
I0313 11:01:54.771597 15997 net.cpp:408] SCNN_D_17 <- SCNN_D_17_SCNN_D_16/sum_0_split_0
I0313 11:01:54.771605 15997 net.cpp:382] SCNN_D_17 -> SCNN_D_17/message
I0313 11:01:54.772817 15997 net.cpp:124] Setting up SCNN_D_17
I0313 11:01:54.772831 15997 net.cpp:131] Top shape: 1 64 1 80 (5120)
I0313 11:01:54.772836 15997 net.cpp:139] Memory required for data: 319344640
I0313 11:01:54.772840 15997 net.cpp:467] Sharing parameters 'SCNN_D_w' owned by layer 'SCNN_D_1', param index 0
I0313 11:01:54.772845 15997 layer_factory.hpp:77] Creating layer SCNN_D_17/relu
I0313 11:01:54.772850 15997 net.cpp:86] Creating Layer SCNN_D_17/relu
I0313 11:01:54.772856 15997 net.cpp:408] SCNN_D_17/relu <- SCNN_D_17/message
I0313 11:01:54.772863 15997 net.cpp:369] SCNN_D_17/relu -> SCNN_D_17/message (in-place)
I0313 11:01:54.773008 15997 net.cpp:124] Setting up SCNN_D_17/relu
I0313 11:01:54.773016 15997 net.cpp:131] Top shape: 1 64 1 80 (5120)
I0313 11:01:54.773020 15997 net.cpp:139] Memory required for data: 319365120
I0313 11:01:54.773022 15997 layer_factory.hpp:77] Creating layer SCNN_D_17/sum
I0313 11:01:54.773027 15997 net.cpp:86] Creating Layer SCNN_D_17/sum
I0313 11:01:54.773032 15997 net.cpp:408] SCNN_D_17/sum <- SCNN_D_17/message
I0313 11:01:54.773041 15997 net.cpp:408] SCNN_D_17/sum <- slice1_18
I0313 11:01:54.773048 15997 net.cpp:382] SCNN_D_17/sum -> SCNN_D_18
I0313 11:01:54.773078 15997 net.cpp:124] Setting up SCNN_D_17/sum
I0313 11:01:54.773087 15997 net.cpp:131] Top shape: 1 64 1 80 (5120)
I0313 11:01:54.773089 15997 net.cpp:139] Memory required for data: 319385600
I0313 11:01:54.773092 15997 layer_factory.hpp:77] Creating layer SCNN_D_18_SCNN_D_17/sum_0_split
I0313 11:01:54.773098 15997 net.cpp:86] Creating Layer SCNN_D_18_SCNN_D_17/sum_0_split
I0313 11:01:54.773105 15997 net.cpp:408] SCNN_D_18_SCNN_D_17/sum_0_split <- SCNN_D_18
I0313 11:01:54.773113 15997 net.cpp:382] SCNN_D_18_SCNN_D_17/sum_0_split -> SCNN_D_18_SCNN_D_17/sum_0_split_0
I0313 11:01:54.773121 15997 net.cpp:382] SCNN_D_18_SCNN_D_17/sum_0_split -> SCNN_D_18_SCNN_D_17/sum_0_split_1
I0313 11:01:54.773161 15997 net.cpp:124] Setting up SCNN_D_18_SCNN_D_17/sum_0_split
I0313 11:01:54.773169 15997 net.cpp:131] Top shape: 1 64 1 80 (5120)
I0313 11:01:54.773175 15997 net.cpp:131] Top shape: 1 64 1 80 (5120)
I0313 11:01:54.773178 15997 net.cpp:139] Memory required for data: 319426560
I0313 11:01:54.773180 15997 layer_factory.hpp:77] Creating layer SCNN_D_18
I0313 11:01:54.773190 15997 net.cpp:86] Creating Layer SCNN_D_18
I0313 11:01:54.773195 15997 net.cpp:408] SCNN_D_18 <- SCNN_D_18_SCNN_D_17/sum_0_split_0
I0313 11:01:54.773203 15997 net.cpp:382] SCNN_D_18 -> SCNN_D_18/message
I0313 11:01:54.774420 15997 net.cpp:124] Setting up SCNN_D_18
I0313 11:01:54.774435 15997 net.cpp:131] Top shape: 1 64 1 80 (5120)
I0313 11:01:54.774441 15997 net.cpp:139] Memory required for data: 319447040
I0313 11:01:54.774446 15997 net.cpp:467] Sharing parameters 'SCNN_D_w' owned by layer 'SCNN_D_1', param index 0
I0313 11:01:54.774449 15997 layer_factory.hpp:77] Creating layer SCNN_D_18/relu
I0313 11:01:54.774453 15997 net.cpp:86] Creating Layer SCNN_D_18/relu
I0313 11:01:54.774459 15997 net.cpp:408] SCNN_D_18/relu <- SCNN_D_18/message
I0313 11:01:54.774467 15997 net.cpp:369] SCNN_D_18/relu -> SCNN_D_18/message (in-place)
I0313 11:01:54.774605 15997 net.cpp:124] Setting up SCNN_D_18/relu
I0313 11:01:54.774613 15997 net.cpp:131] Top shape: 1 64 1 80 (5120)
I0313 11:01:54.774616 15997 net.cpp:139] Memory required for data: 319467520
I0313 11:01:54.774621 15997 layer_factory.hpp:77] Creating layer SCNN_D_18/sum
I0313 11:01:54.774626 15997 net.cpp:86] Creating Layer SCNN_D_18/sum
I0313 11:01:54.774632 15997 net.cpp:408] SCNN_D_18/sum <- SCNN_D_18/message
I0313 11:01:54.774639 15997 net.cpp:408] SCNN_D_18/sum <- slice1_19
I0313 11:01:54.774646 15997 net.cpp:382] SCNN_D_18/sum -> SCNN_D_19
I0313 11:01:54.774677 15997 net.cpp:124] Setting up SCNN_D_18/sum
I0313 11:01:54.774684 15997 net.cpp:131] Top shape: 1 64 1 80 (5120)
I0313 11:01:54.774688 15997 net.cpp:139] Memory required for data: 319488000
I0313 11:01:54.774690 15997 layer_factory.hpp:77] Creating layer SCNN_D_19_SCNN_D_18/sum_0_split
I0313 11:01:54.774698 15997 net.cpp:86] Creating Layer SCNN_D_19_SCNN_D_18/sum_0_split
I0313 11:01:54.774703 15997 net.cpp:408] SCNN_D_19_SCNN_D_18/sum_0_split <- SCNN_D_19
I0313 11:01:54.774710 15997 net.cpp:382] SCNN_D_19_SCNN_D_18/sum_0_split -> SCNN_D_19_SCNN_D_18/sum_0_split_0
I0313 11:01:54.774719 15997 net.cpp:382] SCNN_D_19_SCNN_D_18/sum_0_split -> SCNN_D_19_SCNN_D_18/sum_0_split_1
I0313 11:01:54.774760 15997 net.cpp:124] Setting up SCNN_D_19_SCNN_D_18/sum_0_split
I0313 11:01:54.774766 15997 net.cpp:131] Top shape: 1 64 1 80 (5120)
I0313 11:01:54.774771 15997 net.cpp:131] Top shape: 1 64 1 80 (5120)
I0313 11:01:54.774775 15997 net.cpp:139] Memory required for data: 319528960
I0313 11:01:54.774778 15997 layer_factory.hpp:77] Creating layer SCNN_D_19
I0313 11:01:54.774787 15997 net.cpp:86] Creating Layer SCNN_D_19
I0313 11:01:54.774793 15997 net.cpp:408] SCNN_D_19 <- SCNN_D_19_SCNN_D_18/sum_0_split_0
I0313 11:01:54.774801 15997 net.cpp:382] SCNN_D_19 -> SCNN_D_19/message
I0313 11:01:54.777009 15997 net.cpp:124] Setting up SCNN_D_19
I0313 11:01:54.777027 15997 net.cpp:131] Top shape: 1 64 1 80 (5120)
I0313 11:01:54.777030 15997 net.cpp:139] Memory required for data: 319549440
I0313 11:01:54.777034 15997 net.cpp:467] Sharing parameters 'SCNN_D_w' owned by layer 'SCNN_D_1', param index 0
I0313 11:01:54.777037 15997 layer_factory.hpp:77] Creating layer SCNN_D_19/relu
I0313 11:01:54.777042 15997 net.cpp:86] Creating Layer SCNN_D_19/relu
I0313 11:01:54.777047 15997 net.cpp:408] SCNN_D_19/relu <- SCNN_D_19/message
I0313 11:01:54.777052 15997 net.cpp:369] SCNN_D_19/relu -> SCNN_D_19/message (in-place)
I0313 11:01:54.777398 15997 net.cpp:124] Setting up SCNN_D_19/relu
I0313 11:01:54.777408 15997 net.cpp:131] Top shape: 1 64 1 80 (5120)
I0313 11:01:54.777411 15997 net.cpp:139] Memory required for data: 319569920
I0313 11:01:54.777413 15997 layer_factory.hpp:77] Creating layer SCNN_D_19/sum
I0313 11:01:54.777418 15997 net.cpp:86] Creating Layer SCNN_D_19/sum
I0313 11:01:54.777423 15997 net.cpp:408] SCNN_D_19/sum <- SCNN_D_19/message
I0313 11:01:54.777431 15997 net.cpp:408] SCNN_D_19/sum <- slice1_20
I0313 11:01:54.777436 15997 net.cpp:382] SCNN_D_19/sum -> SCNN_D_20
I0313 11:01:54.777468 15997 net.cpp:124] Setting up SCNN_D_19/sum
I0313 11:01:54.777479 15997 net.cpp:131] Top shape: 1 64 1 80 (5120)
I0313 11:01:54.777482 15997 net.cpp:139] Memory required for data: 319590400
I0313 11:01:54.777483 15997 layer_factory.hpp:77] Creating layer SCNN_D_20_SCNN_D_19/sum_0_split
I0313 11:01:54.777487 15997 net.cpp:86] Creating Layer SCNN_D_20_SCNN_D_19/sum_0_split
I0313 11:01:54.777492 15997 net.cpp:408] SCNN_D_20_SCNN_D_19/sum_0_split <- SCNN_D_20
I0313 11:01:54.777498 15997 net.cpp:382] SCNN_D_20_SCNN_D_19/sum_0_split -> SCNN_D_20_SCNN_D_19/sum_0_split_0
I0313 11:01:54.777504 15997 net.cpp:382] SCNN_D_20_SCNN_D_19/sum_0_split -> SCNN_D_20_SCNN_D_19/sum_0_split_1
I0313 11:01:54.777544 15997 net.cpp:124] Setting up SCNN_D_20_SCNN_D_19/sum_0_split
I0313 11:01:54.777551 15997 net.cpp:131] Top shape: 1 64 1 80 (5120)
I0313 11:01:54.777555 15997 net.cpp:131] Top shape: 1 64 1 80 (5120)
I0313 11:01:54.777557 15997 net.cpp:139] Memory required for data: 319631360
I0313 11:01:54.777559 15997 layer_factory.hpp:77] Creating layer SCNN_D_20
I0313 11:01:54.777566 15997 net.cpp:86] Creating Layer SCNN_D_20
I0313 11:01:54.777571 15997 net.cpp:408] SCNN_D_20 <- SCNN_D_20_SCNN_D_19/sum_0_split_0
I0313 11:01:54.777578 15997 net.cpp:382] SCNN_D_20 -> SCNN_D_20/message
I0313 11:01:54.778558 15997 net.cpp:124] Setting up SCNN_D_20
I0313 11:01:54.778569 15997 net.cpp:131] Top shape: 1 64 1 80 (5120)
I0313 11:01:54.778573 15997 net.cpp:139] Memory required for data: 319651840
I0313 11:01:54.778576 15997 net.cpp:467] Sharing parameters 'SCNN_D_w' owned by layer 'SCNN_D_1', param index 0
I0313 11:01:54.778578 15997 layer_factory.hpp:77] Creating layer SCNN_D_20/relu
I0313 11:01:54.778584 15997 net.cpp:86] Creating Layer SCNN_D_20/relu
I0313 11:01:54.778587 15997 net.cpp:408] SCNN_D_20/relu <- SCNN_D_20/message
I0313 11:01:54.778594 15997 net.cpp:369] SCNN_D_20/relu -> SCNN_D_20/message (in-place)
I0313 11:01:54.778928 15997 net.cpp:124] Setting up SCNN_D_20/relu
I0313 11:01:54.778939 15997 net.cpp:131] Top shape: 1 64 1 80 (5120)
I0313 11:01:54.778941 15997 net.cpp:139] Memory required for data: 319672320
I0313 11:01:54.778949 15997 layer_factory.hpp:77] Creating layer SCNN_D_20/sum
I0313 11:01:54.778955 15997 net.cpp:86] Creating Layer SCNN_D_20/sum
I0313 11:01:54.778962 15997 net.cpp:408] SCNN_D_20/sum <- SCNN_D_20/message
I0313 11:01:54.778970 15997 net.cpp:408] SCNN_D_20/sum <- slice1_21
I0313 11:01:54.778976 15997 net.cpp:382] SCNN_D_20/sum -> SCNN_D_21
I0313 11:01:54.779009 15997 net.cpp:124] Setting up SCNN_D_20/sum
I0313 11:01:54.779017 15997 net.cpp:131] Top shape: 1 64 1 80 (5120)
I0313 11:01:54.779021 15997 net.cpp:139] Memory required for data: 319692800
I0313 11:01:54.779023 15997 layer_factory.hpp:77] Creating layer SCNN_D_21_SCNN_D_20/sum_0_split
I0313 11:01:54.779027 15997 net.cpp:86] Creating Layer SCNN_D_21_SCNN_D_20/sum_0_split
I0313 11:01:54.779031 15997 net.cpp:408] SCNN_D_21_SCNN_D_20/sum_0_split <- SCNN_D_21
I0313 11:01:54.779036 15997 net.cpp:382] SCNN_D_21_SCNN_D_20/sum_0_split -> SCNN_D_21_SCNN_D_20/sum_0_split_0
I0313 11:01:54.779043 15997 net.cpp:382] SCNN_D_21_SCNN_D_20/sum_0_split -> SCNN_D_21_SCNN_D_20/sum_0_split_1
I0313 11:01:54.779083 15997 net.cpp:124] Setting up SCNN_D_21_SCNN_D_20/sum_0_split
I0313 11:01:54.779089 15997 net.cpp:131] Top shape: 1 64 1 80 (5120)
I0313 11:01:54.779094 15997 net.cpp:131] Top shape: 1 64 1 80 (5120)
I0313 11:01:54.779098 15997 net.cpp:139] Memory required for data: 319733760
I0313 11:01:54.779101 15997 layer_factory.hpp:77] Creating layer SCNN_D_21
I0313 11:01:54.779109 15997 net.cpp:86] Creating Layer SCNN_D_21
I0313 11:01:54.779114 15997 net.cpp:408] SCNN_D_21 <- SCNN_D_21_SCNN_D_20/sum_0_split_0
I0313 11:01:54.779121 15997 net.cpp:382] SCNN_D_21 -> SCNN_D_21/message
I0313 11:01:54.780292 15997 net.cpp:124] Setting up SCNN_D_21
I0313 11:01:54.780305 15997 net.cpp:131] Top shape: 1 64 1 80 (5120)
I0313 11:01:54.780309 15997 net.cpp:139] Memory required for data: 319754240
I0313 11:01:54.780314 15997 net.cpp:467] Sharing parameters 'SCNN_D_w' owned by layer 'SCNN_D_1', param index 0
I0313 11:01:54.780318 15997 layer_factory.hpp:77] Creating layer SCNN_D_21/relu
I0313 11:01:54.780323 15997 net.cpp:86] Creating Layer SCNN_D_21/relu
I0313 11:01:54.780329 15997 net.cpp:408] SCNN_D_21/relu <- SCNN_D_21/message
I0313 11:01:54.780338 15997 net.cpp:369] SCNN_D_21/relu -> SCNN_D_21/message (in-place)
I0313 11:01:54.780469 15997 net.cpp:124] Setting up SCNN_D_21/relu
I0313 11:01:54.780478 15997 net.cpp:131] Top shape: 1 64 1 80 (5120)
I0313 11:01:54.780481 15997 net.cpp:139] Memory required for data: 319774720
I0313 11:01:54.780484 15997 layer_factory.hpp:77] Creating layer SCNN_D_21/sum
I0313 11:01:54.780490 15997 net.cpp:86] Creating Layer SCNN_D_21/sum
I0313 11:01:54.780496 15997 net.cpp:408] SCNN_D_21/sum <- SCNN_D_21/message
I0313 11:01:54.780503 15997 net.cpp:408] SCNN_D_21/sum <- slice1_22
I0313 11:01:54.780509 15997 net.cpp:382] SCNN_D_21/sum -> SCNN_D_22
I0313 11:01:54.780539 15997 net.cpp:124] Setting up SCNN_D_21/sum
I0313 11:01:54.780546 15997 net.cpp:131] Top shape: 1 64 1 80 (5120)
I0313 11:01:54.780550 15997 net.cpp:139] Memory required for data: 319795200
I0313 11:01:54.780552 15997 layer_factory.hpp:77] Creating layer SCNN_D_22_SCNN_D_21/sum_0_split
I0313 11:01:54.780557 15997 net.cpp:86] Creating Layer SCNN_D_22_SCNN_D_21/sum_0_split
I0313 11:01:54.780563 15997 net.cpp:408] SCNN_D_22_SCNN_D_21/sum_0_split <- SCNN_D_22
I0313 11:01:54.780570 15997 net.cpp:382] SCNN_D_22_SCNN_D_21/sum_0_split -> SCNN_D_22_SCNN_D_21/sum_0_split_0
I0313 11:01:54.780577 15997 net.cpp:382] SCNN_D_22_SCNN_D_21/sum_0_split -> SCNN_D_22_SCNN_D_21/sum_0_split_1
I0313 11:01:54.780616 15997 net.cpp:124] Setting up SCNN_D_22_SCNN_D_21/sum_0_split
I0313 11:01:54.780623 15997 net.cpp:131] Top shape: 1 64 1 80 (5120)
I0313 11:01:54.780627 15997 net.cpp:131] Top shape: 1 64 1 80 (5120)
I0313 11:01:54.780632 15997 net.cpp:139] Memory required for data: 319836160
I0313 11:01:54.780634 15997 layer_factory.hpp:77] Creating layer SCNN_D_22
I0313 11:01:54.780642 15997 net.cpp:86] Creating Layer SCNN_D_22
I0313 11:01:54.780647 15997 net.cpp:408] SCNN_D_22 <- SCNN_D_22_SCNN_D_21/sum_0_split_0
I0313 11:01:54.780655 15997 net.cpp:382] SCNN_D_22 -> SCNN_D_22/message
I0313 11:01:54.782876 15997 net.cpp:124] Setting up SCNN_D_22
I0313 11:01:54.782894 15997 net.cpp:131] Top shape: 1 64 1 80 (5120)
I0313 11:01:54.782902 15997 net.cpp:139] Memory required for data: 319856640
I0313 11:01:54.782909 15997 net.cpp:467] Sharing parameters 'SCNN_D_w' owned by layer 'SCNN_D_1', param index 0
I0313 11:01:54.782917 15997 layer_factory.hpp:77] Creating layer SCNN_D_22/relu
I0313 11:01:54.782924 15997 net.cpp:86] Creating Layer SCNN_D_22/relu
I0313 11:01:54.782934 15997 net.cpp:408] SCNN_D_22/relu <- SCNN_D_22/message
I0313 11:01:54.782945 15997 net.cpp:369] SCNN_D_22/relu -> SCNN_D_22/message (in-place)
I0313 11:01:54.783124 15997 net.cpp:124] Setting up SCNN_D_22/relu
I0313 11:01:54.783136 15997 net.cpp:131] Top shape: 1 64 1 80 (5120)
I0313 11:01:54.783138 15997 net.cpp:139] Memory required for data: 319877120
I0313 11:01:54.783141 15997 layer_factory.hpp:77] Creating layer SCNN_D_22/sum
I0313 11:01:54.783146 15997 net.cpp:86] Creating Layer SCNN_D_22/sum
I0313 11:01:54.783154 15997 net.cpp:408] SCNN_D_22/sum <- SCNN_D_22/message
I0313 11:01:54.783162 15997 net.cpp:408] SCNN_D_22/sum <- slice1_23
I0313 11:01:54.783169 15997 net.cpp:382] SCNN_D_22/sum -> SCNN_D_23
I0313 11:01:54.783200 15997 net.cpp:124] Setting up SCNN_D_22/sum
I0313 11:01:54.783210 15997 net.cpp:131] Top shape: 1 64 1 80 (5120)
I0313 11:01:54.783212 15997 net.cpp:139] Memory required for data: 319897600
I0313 11:01:54.783215 15997 layer_factory.hpp:77] Creating layer SCNN_D_23_SCNN_D_22/sum_0_split
I0313 11:01:54.783221 15997 net.cpp:86] Creating Layer SCNN_D_23_SCNN_D_22/sum_0_split
I0313 11:01:54.783226 15997 net.cpp:408] SCNN_D_23_SCNN_D_22/sum_0_split <- SCNN_D_23
I0313 11:01:54.783233 15997 net.cpp:382] SCNN_D_23_SCNN_D_22/sum_0_split -> SCNN_D_23_SCNN_D_22/sum_0_split_0
I0313 11:01:54.783241 15997 net.cpp:382] SCNN_D_23_SCNN_D_22/sum_0_split -> SCNN_D_23_SCNN_D_22/sum_0_split_1
I0313 11:01:54.783294 15997 net.cpp:124] Setting up SCNN_D_23_SCNN_D_22/sum_0_split
I0313 11:01:54.783308 15997 net.cpp:131] Top shape: 1 64 1 80 (5120)
I0313 11:01:54.783313 15997 net.cpp:131] Top shape: 1 64 1 80 (5120)
I0313 11:01:54.783318 15997 net.cpp:139] Memory required for data: 319938560
I0313 11:01:54.783321 15997 layer_factory.hpp:77] Creating layer SCNN_D_23
I0313 11:01:54.783330 15997 net.cpp:86] Creating Layer SCNN_D_23
I0313 11:01:54.783337 15997 net.cpp:408] SCNN_D_23 <- SCNN_D_23_SCNN_D_22/sum_0_split_0
I0313 11:01:54.783347 15997 net.cpp:382] SCNN_D_23 -> SCNN_D_23/message
I0313 11:01:54.784552 15997 net.cpp:124] Setting up SCNN_D_23
I0313 11:01:54.784565 15997 net.cpp:131] Top shape: 1 64 1 80 (5120)
I0313 11:01:54.784569 15997 net.cpp:139] Memory required for data: 319959040
I0313 11:01:54.784572 15997 net.cpp:467] Sharing parameters 'SCNN_D_w' owned by layer 'SCNN_D_1', param index 0
I0313 11:01:54.784575 15997 layer_factory.hpp:77] Creating layer SCNN_D_23/relu
I0313 11:01:54.784580 15997 net.cpp:86] Creating Layer SCNN_D_23/relu
I0313 11:01:54.784585 15997 net.cpp:408] SCNN_D_23/relu <- SCNN_D_23/message
I0313 11:01:54.784591 15997 net.cpp:369] SCNN_D_23/relu -> SCNN_D_23/message (in-place)
I0313 11:01:54.784723 15997 net.cpp:124] Setting up SCNN_D_23/relu
I0313 11:01:54.784730 15997 net.cpp:131] Top shape: 1 64 1 80 (5120)
I0313 11:01:54.784732 15997 net.cpp:139] Memory required for data: 319979520
I0313 11:01:54.784735 15997 layer_factory.hpp:77] Creating layer SCNN_D_23/sum
I0313 11:01:54.784739 15997 net.cpp:86] Creating Layer SCNN_D_23/sum
I0313 11:01:54.784744 15997 net.cpp:408] SCNN_D_23/sum <- SCNN_D_23/message
I0313 11:01:54.784749 15997 net.cpp:408] SCNN_D_23/sum <- slice1_24
I0313 11:01:54.784754 15997 net.cpp:382] SCNN_D_23/sum -> SCNN_D_24
I0313 11:01:54.784783 15997 net.cpp:124] Setting up SCNN_D_23/sum
I0313 11:01:54.784790 15997 net.cpp:131] Top shape: 1 64 1 80 (5120)
I0313 11:01:54.784793 15997 net.cpp:139] Memory required for data: 320000000
I0313 11:01:54.784795 15997 layer_factory.hpp:77] Creating layer SCNN_D_24_SCNN_D_23/sum_0_split
I0313 11:01:54.784798 15997 net.cpp:86] Creating Layer SCNN_D_24_SCNN_D_23/sum_0_split
I0313 11:01:54.784803 15997 net.cpp:408] SCNN_D_24_SCNN_D_23/sum_0_split <- SCNN_D_24
I0313 11:01:54.784808 15997 net.cpp:382] SCNN_D_24_SCNN_D_23/sum_0_split -> SCNN_D_24_SCNN_D_23/sum_0_split_0
I0313 11:01:54.784814 15997 net.cpp:382] SCNN_D_24_SCNN_D_23/sum_0_split -> SCNN_D_24_SCNN_D_23/sum_0_split_1
I0313 11:01:54.784853 15997 net.cpp:124] Setting up SCNN_D_24_SCNN_D_23/sum_0_split
I0313 11:01:54.784859 15997 net.cpp:131] Top shape: 1 64 1 80 (5120)
I0313 11:01:54.784863 15997 net.cpp:131] Top shape: 1 64 1 80 (5120)
I0313 11:01:54.784865 15997 net.cpp:139] Memory required for data: 320040960
I0313 11:01:54.784868 15997 layer_factory.hpp:77] Creating layer SCNN_D_24
I0313 11:01:54.784873 15997 net.cpp:86] Creating Layer SCNN_D_24
I0313 11:01:54.784878 15997 net.cpp:408] SCNN_D_24 <- SCNN_D_24_SCNN_D_23/sum_0_split_0
I0313 11:01:54.784883 15997 net.cpp:382] SCNN_D_24 -> SCNN_D_24/message
I0313 11:01:54.786046 15997 net.cpp:124] Setting up SCNN_D_24
I0313 11:01:54.786059 15997 net.cpp:131] Top shape: 1 64 1 80 (5120)
I0313 11:01:54.786063 15997 net.cpp:139] Memory required for data: 320061440
I0313 11:01:54.786067 15997 net.cpp:467] Sharing parameters 'SCNN_D_w' owned by layer 'SCNN_D_1', param index 0
I0313 11:01:54.786072 15997 layer_factory.hpp:77] Creating layer SCNN_D_24/relu
I0313 11:01:54.786077 15997 net.cpp:86] Creating Layer SCNN_D_24/relu
I0313 11:01:54.786083 15997 net.cpp:408] SCNN_D_24/relu <- SCNN_D_24/message
I0313 11:01:54.786090 15997 net.cpp:369] SCNN_D_24/relu -> SCNN_D_24/message (in-place)
I0313 11:01:54.786423 15997 net.cpp:124] Setting up SCNN_D_24/relu
I0313 11:01:54.786433 15997 net.cpp:131] Top shape: 1 64 1 80 (5120)
I0313 11:01:54.786435 15997 net.cpp:139] Memory required for data: 320081920
I0313 11:01:54.786438 15997 layer_factory.hpp:77] Creating layer SCNN_D_24/sum
I0313 11:01:54.786442 15997 net.cpp:86] Creating Layer SCNN_D_24/sum
I0313 11:01:54.786448 15997 net.cpp:408] SCNN_D_24/sum <- SCNN_D_24/message
I0313 11:01:54.786453 15997 net.cpp:408] SCNN_D_24/sum <- slice1_25
I0313 11:01:54.786458 15997 net.cpp:382] SCNN_D_24/sum -> SCNN_D_25
I0313 11:01:54.786489 15997 net.cpp:124] Setting up SCNN_D_24/sum
I0313 11:01:54.786495 15997 net.cpp:131] Top shape: 1 64 1 80 (5120)
I0313 11:01:54.786499 15997 net.cpp:139] Memory required for data: 320102400
I0313 11:01:54.786500 15997 layer_factory.hpp:77] Creating layer SCNN_D_25_SCNN_D_24/sum_0_split
I0313 11:01:54.786504 15997 net.cpp:86] Creating Layer SCNN_D_25_SCNN_D_24/sum_0_split
I0313 11:01:54.786509 15997 net.cpp:408] SCNN_D_25_SCNN_D_24/sum_0_split <- SCNN_D_25
I0313 11:01:54.786514 15997 net.cpp:382] SCNN_D_25_SCNN_D_24/sum_0_split -> SCNN_D_25_SCNN_D_24/sum_0_split_0
I0313 11:01:54.786520 15997 net.cpp:382] SCNN_D_25_SCNN_D_24/sum_0_split -> SCNN_D_25_SCNN_D_24/sum_0_split_1
I0313 11:01:54.786566 15997 net.cpp:124] Setting up SCNN_D_25_SCNN_D_24/sum_0_split
I0313 11:01:54.786572 15997 net.cpp:131] Top shape: 1 64 1 80 (5120)
I0313 11:01:54.786577 15997 net.cpp:131] Top shape: 1 64 1 80 (5120)
I0313 11:01:54.786581 15997 net.cpp:139] Memory required for data: 320143360
I0313 11:01:54.786584 15997 layer_factory.hpp:77] Creating layer SCNN_D_25
I0313 11:01:54.786592 15997 net.cpp:86] Creating Layer SCNN_D_25
I0313 11:01:54.786597 15997 net.cpp:408] SCNN_D_25 <- SCNN_D_25_SCNN_D_24/sum_0_split_0
I0313 11:01:54.786605 15997 net.cpp:382] SCNN_D_25 -> SCNN_D_25/message
I0313 11:01:54.788774 15997 net.cpp:124] Setting up SCNN_D_25
I0313 11:01:54.788787 15997 net.cpp:131] Top shape: 1 64 1 80 (5120)
I0313 11:01:54.788791 15997 net.cpp:139] Memory required for data: 320163840
I0313 11:01:54.788796 15997 net.cpp:467] Sharing parameters 'SCNN_D_w' owned by layer 'SCNN_D_1', param index 0
I0313 11:01:54.788800 15997 layer_factory.hpp:77] Creating layer SCNN_D_25/relu
I0313 11:01:54.788805 15997 net.cpp:86] Creating Layer SCNN_D_25/relu
I0313 11:01:54.788811 15997 net.cpp:408] SCNN_D_25/relu <- SCNN_D_25/message
I0313 11:01:54.788818 15997 net.cpp:369] SCNN_D_25/relu -> SCNN_D_25/message (in-place)
I0313 11:01:54.788951 15997 net.cpp:124] Setting up SCNN_D_25/relu
I0313 11:01:54.788960 15997 net.cpp:131] Top shape: 1 64 1 80 (5120)
I0313 11:01:54.788964 15997 net.cpp:139] Memory required for data: 320184320
I0313 11:01:54.788966 15997 layer_factory.hpp:77] Creating layer SCNN_D_25/sum
I0313 11:01:54.788972 15997 net.cpp:86] Creating Layer SCNN_D_25/sum
…
I0313 11:01:54.944151 15997 net.cpp:131] Top shape: 1 64 1 80 (5120)
I0313 11:01:54.944155 15997 net.cpp:139] Memory required for data: 327843840
I0313 11:01:54.944160 15997 net.cpp:467] Sharing parameters 'SCNN_U_w' owned by layer 'SCNN_U_60', param index 0
I0313 11:01:54.944164 15997 layer_factory.hpp:77] Creating layer SCNN_U_20/relu
I0313 11:01:54.944169 15997 net.cpp:86] Creating Layer SCNN_U_20/relu
I0313 11:01:54.944175 15997 net.cpp:408] SCNN_U_20/relu <- SCNN_U_20/message
I0313 11:01:54.944183 15997 net.cpp:369] SCNN_U_20/relu -> SCNN_U_20/message (in-place)
I0313 11:01:54.944339 15997 net.cpp:124] Setting up SCNN_U_20/relu
I0313 11:01:54.944350 15997 net.cpp:131] Top shape: 1 64 1 80 (5120)
I0313 11:01:54.944352 15997 net.cpp:139] Memory required for data: 327864320
I0313 11:01:54.944355 15997 layer_factory.hpp:77] Creating layer SCNN_U_20/sum
I0313 11:01:54.944362 15997 net.cpp:86] Creating Layer SCNN_U_20/sum
I0313 11:01:54.944368 15997 net.cpp:408] SCNN_U_20/sum <- SCNN_U_20/message
I0313 11:01:54.944376 15997 net.cpp:408] SCNN_U_20/sum <- SCNN_D_19_SCNN_D_18/sum_0_split_1
I0313 11:01:54.944382 15997 net.cpp:382] SCNN_U_20/sum -> SCNN_U_19
I0313 11:01:54.944418 15997 net.cpp:124] Setting up SCNN_U_20/sum
I0313 11:01:54.944427 15997 net.cpp:131] Top shape: 1 64 1 80 (5120)
I0313 11:01:54.944430 15997 net.cpp:139] Memory required for data: 327884800
I0313 11:01:54.944432 15997 layer_factory.hpp:77] Creating layer SCNN_U_19_SCNN_U_20/sum_0_split
I0313 11:01:54.944439 15997 net.cpp:86] Creating Layer SCNN_U_19_SCNN_U_20/sum_0_split
I0313 11:01:54.944447 15997 net.cpp:408] SCNN_U_19_SCNN_U_20/sum_0_split <- SCNN_U_19
I0313 11:01:54.944453 15997 net.cpp:382] SCNN_U_19_SCNN_U_20/sum_0_split -> SCNN_U_19_SCNN_U_20/sum_0_split_0
I0313 11:01:54.944461 15997 net.cpp:382] SCNN_U_19_SCNN_U_20/sum_0_split -> SCNN_U_19_SCNN_U_20/sum_0_split_1
I0313 11:01:54.944512 15997 net.cpp:124] Setting up SCNN_U_19_SCNN_U_20/sum_0_split
I0313 11:01:54.944521 15997 net.cpp:131] Top shape: 1 64 1 80 (5120)
I0313 11:01:54.944527 15997 net.cpp:131] Top shape: 1 64 1 80 (5120)
I0313 11:01:54.944530 15997 net.cpp:139] Memory required for data: 327925760
I0313 11:01:54.944533 15997 layer_factory.hpp:77] Creating layer SCNN_U_19
I0313 11:01:54.944540 15997 net.cpp:86] Creating Layer SCNN_U_19
I0313 11:01:54.944546 15997 net.cpp:408] SCNN_U_19 <- SCNN_U_19_SCNN_U_20/sum_0_split_0
I0313 11:01:54.944553 15997 net.cpp:382] SCNN_U_19 -> SCNN_U_19/message
I0313 11:01:54.947029 15997 net.cpp:124] Setting up SCNN_U_19
I0313 11:01:54.947043 15997 net.cpp:131] Top shape: 1 64 1 80 (5120)
I0313 11:01:54.947047 15997 net.cpp:139] Memory required for data: 327946240
I0313 11:01:54.947052 15997 net.cpp:467] Sharing parameters 'SCNN_U_w' owned by layer 'SCNN_U_60', param index 0
I0313 11:01:54.947057 15997 layer_factory.hpp:77] Creating layer SCNN_U_19/relu
I0313 11:01:54.947062 15997 net.cpp:86] Creating Layer SCNN_U_19/relu
I0313 11:01:54.947069 15997 net.cpp:408] SCNN_U_19/relu <- SCNN_U_19/message
I0313 11:01:54.947077 15997 net.cpp:369] SCNN_U_19/relu -> SCNN_U_19/message (in-place)
I0313 11:01:54.947235 15997 net.cpp:124] Setting up SCNN_U_19/relu
I0313 11:01:54.947244 15997 net.cpp:131] Top shape: 1 64 1 80 (5120)
I0313 11:01:54.947248 15997 net.cpp:139] Memory required for data: 327966720
I0313 11:01:54.947252 15997 layer_factory.hpp:77] Creating layer SCNN_U_19/sum
I0313 11:01:54.947257 15997 net.cpp:86] Creating Layer SCNN_U_19/sum
I0313 11:01:54.947263 15997 net.cpp:408] SCNN_U_19/sum <- SCNN_U_19/message
I0313 11:01:54.947271 15997 net.cpp:408] SCNN_U_19/sum <- SCNN_D_18_SCNN_D_17/sum_0_split_1
I0313 11:01:54.947280 15997 net.cpp:382] SCNN_U_19/sum -> SCNN_U_18
I0313 11:01:54.947319 15997 net.cpp:124] Setting up SCNN_U_19/sum
I0313 11:01:54.947326 15997 net.cpp:131] Top shape: 1 64 1 80 (5120)
I0313 11:01:54.947329 15997 net.cpp:139] Memory required for data: 327987200
I0313 11:01:54.947332 15997 layer_factory.hpp:77] Creating layer SCNN_U_18_SCNN_U_19/sum_0_split
I0313 11:01:54.947337 15997 net.cpp:86] Creating Layer SCNN_U_18_SCNN_U_19/sum_0_split
I0313 11:01:54.947343 15997 net.cpp:408] SCNN_U_18_SCNN_U_19/sum_0_split <- SCNN_U_18
I0313 11:01:54.947350 15997 net.cpp:382] SCNN_U_18_SCNN_U_19/sum_0_split -> SCNN_U_18_SCNN_U_19/sum_0_split_0
I0313 11:01:54.947358 15997 net.cpp:382] SCNN_U_18_SCNN_U_19/sum_0_split -> SCNN_U_18_SCNN_U_19/sum_0_split_1
I0313 11:01:54.947410 15997 net.cpp:124] Setting up SCNN_U_18_SCNN_U_19/sum_0_split
I0313 11:01:54.947418 15997 net.cpp:131] Top shape: 1 64 1 80 (5120)
I0313 11:01:54.947423 15997 net.cpp:131] Top shape: 1 64 1 80 (5120)
I0313 11:01:54.947427 15997 net.cpp:139] Memory required for data: 328028160
I0313 11:01:54.947428 15997 layer_factory.hpp:77] Creating layer SCNN_U_18
I0313 11:01:54.947434 15997 net.cpp:86] Creating Layer SCNN_U_18
I0313 11:01:54.947440 15997 net.cpp:408] SCNN_U_18 <- SCNN_U_18_SCNN_U_19/sum_0_split_0
I0313 11:01:54.947450 15997 net.cpp:382] SCNN_U_18 -> SCNN_U_18/message
I0313 11:01:54.948758 15997 net.cpp:124] Setting up SCNN_U_18
I0313 11:01:54.948771 15997 net.cpp:131] Top shape: 1 64 1 80 (5120)
I0313 11:01:54.948776 15997 net.cpp:139] Memory required for data: 328048640
I0313 11:01:54.948781 15997 net.cpp:467] Sharing parameters 'SCNN_U_w' owned by layer 'SCNN_U_60', param index 0
I0313 11:01:54.948784 15997 layer_factory.hpp:77] Creating layer SCNN_U_18/relu
I0313 11:01:54.948822 15997 net.cpp:86] Creating Layer SCNN_U_18/relu
I0313 11:01:54.948828 15997 net.cpp:408] SCNN_U_18/relu <- SCNN_U_18/message
I0313 11:01:54.948835 15997 net.cpp:369] SCNN_U_18/relu -> SCNN_U_18/message (in-place)
I0313 11:01:54.949195 15997 net.cpp:124] Setting up SCNN_U_18/relu
I0313 11:01:54.949205 15997 net.cpp:131] Top shape: 1 64 1 80 (5120)
I0313 11:01:54.949208 15997 net.cpp:139] Memory required for data: 328069120
I0313 11:01:54.949213 15997 layer_factory.hpp:77] Creating layer SCNN_U_18/sum
I0313 11:01:54.949219 15997 net.cpp:86] Creating Layer SCNN_U_18/sum
I0313 11:01:54.949226 15997 net.cpp:408] SCNN_U_18/sum <- SCNN_U_18/message
I0313 11:01:54.949234 15997 net.cpp:408] SCNN_U_18/sum <- SCNN_D_17_SCNN_D_16/sum_0_split_1
I0313 11:01:54.949239 15997 net.cpp:382] SCNN_U_18/sum -> SCNN_U_17
I0313 11:01:54.949275 15997 net.cpp:124] Setting up SCNN_U_18/sum
I0313 11:01:54.949283 15997 net.cpp:131] Top shape: 1 64 1 80 (5120)
I0313 11:01:54.949287 15997 net.cpp:139] Memory required for data: 328089600
I0313 11:01:54.949290 15997 layer_factory.hpp:77] Creating layer SCNN_U_17_SCNN_U_18/sum_0_split
I0313 11:01:54.949295 15997 net.cpp:86] Creating Layer SCNN_U_17_SCNN_U_18/sum_0_split
I0313 11:01:54.949301 15997 net.cpp:408] SCNN_U_17_SCNN_U_18/sum_0_split <- SCNN_U_17
I0313 11:01:54.949307 15997 net.cpp:382] SCNN_U_17_SCNN_U_18/sum_0_split -> SCNN_U_17_SCNN_U_18/sum_0_split_0
I0313 11:01:54.949316 15997 net.cpp:382] SCNN_U_17_SCNN_U_18/sum_0_split -> SCNN_U_17_SCNN_U_18/sum_0_split_1
I0313 11:01:54.949365 15997 net.cpp:124] Setting up SCNN_U_17_SCNN_U_18/sum_0_split
I0313 11:01:54.949373 15997 net.cpp:131] Top shape: 1 64 1 80 (5120)
I0313 11:01:54.949378 15997 net.cpp:131] Top shape: 1 64 1 80 (5120)
I0313 11:01:54.949380 15997 net.cpp:139] Memory required for data: 328130560
I0313 11:01:54.949383 15997 layer_factory.hpp:77] Creating layer SCNN_U_17
I0313 11:01:54.949390 15997 net.cpp:86] Creating Layer SCNN_U_17
I0313 11:01:54.949396 15997 net.cpp:408] SCNN_U_17 <- SCNN_U_17_SCNN_U_18/sum_0_split_0
I0313 11:01:54.949404 15997 net.cpp:382] SCNN_U_17 -> SCNN_U_17/message
I0313 11:01:54.950685 15997 net.cpp:124] Setting up SCNN_U_17
I0313 11:01:54.950697 15997 net.cpp:131] Top shape: 1 64 1 80 (5120)
I0313 11:01:54.950702 15997 net.cpp:139] Memory required for data: 328151040
I0313 11:01:54.950706 15997 net.cpp:467] Sharing parameters 'SCNN_U_w' owned by layer 'SCNN_U_60', param index 0
I0313 11:01:54.950711 15997 layer_factory.hpp:77] Creating layer SCNN_U_17/relu
I0313 11:01:54.950716 15997 net.cpp:86] Creating Layer SCNN_U_17/relu
I0313 11:01:54.950721 15997 net.cpp:408] SCNN_U_17/relu <- SCNN_U_17/message
I0313 11:01:54.950729 15997 net.cpp:369] SCNN_U_17/relu -> SCNN_U_17/message (in-place)
I0313 11:01:54.950879 15997 net.cpp:124] Setting up SCNN_U_17/relu
I0313 11:01:54.950887 15997 net.cpp:131] Top shape: 1 64 1 80 (5120)
I0313 11:01:54.950891 15997 net.cpp:139] Memory required for data: 328171520
I0313 11:01:54.950893 15997 layer_factory.hpp:77] Creating layer SCNN_U_17/sum
I0313 11:01:54.950898 15997 net.cpp:86] Creating Layer SCNN_U_17/sum
I0313 11:01:54.950906 15997 net.cpp:408] SCNN_U_17/sum <- SCNN_U_17/message
I0313 11:01:54.950913 15997 net.cpp:408] SCNN_U_17/sum <- SCNN_D_16_SCNN_D_15/sum_0_split_1
I0313 11:01:54.950919 15997 net.cpp:382] SCNN_U_17/sum -> SCNN_U_16
I0313 11:01:54.950953 15997 net.cpp:124] Setting up SCNN_U_17/sum
I0313 11:01:54.950960 15997 net.cpp:131] Top shape: 1 64 1 80 (5120)
I0313 11:01:54.950964 15997 net.cpp:139] Memory required for data: 328192000
I0313 11:01:54.950966 15997 layer_factory.hpp:77] Creating layer SCNN_U_16_SCNN_U_17/sum_0_split
I0313 11:01:54.950971 15997 net.cpp:86] Creating Layer SCNN_U_16_SCNN_U_17/sum_0_split
I0313 11:01:54.950978 15997 net.cpp:408] SCNN_U_16_SCNN_U_17/sum_0_split <- SCNN_U_16
I0313 11:01:54.950984 15997 net.cpp:382] SCNN_U_16_SCNN_U_17/sum_0_split -> SCNN_U_16_SCNN_U_17/sum_0_split_0
I0313 11:01:54.950992 15997 net.cpp:382] SCNN_U_16_SCNN_U_17/sum_0_split -> SCNN_U_16_SCNN_U_17/sum_0_split_1
I0313 11:01:54.951041 15997 net.cpp:124] Setting up SCNN_U_16_SCNN_U_17/sum_0_split
I0313 11:01:54.951048 15997 net.cpp:131] Top shape: 1 64 1 80 (5120)
I0313 11:01:54.951053 15997 net.cpp:131] Top shape: 1 64 1 80 (5120)
I0313 11:01:54.951057 15997 net.cpp:139] Memory required for data: 328232960
I0313 11:01:54.951059 15997 layer_factory.hpp:77] Creating layer SCNN_U_16
I0313 11:01:54.951066 15997 net.cpp:86] Creating Layer SCNN_U_16
I0313 11:01:54.951072 15997 net.cpp:408] SCNN_U_16 <- SCNN_U_16_SCNN_U_17/sum_0_split_0
I0313 11:01:54.951079 15997 net.cpp:382] SCNN_U_16 -> SCNN_U_16/message
I0313 11:01:54.953577 15997 net.cpp:124] Setting up SCNN_U_16
I0313 11:01:54.953591 15997 net.cpp:131] Top shape: 1 64 1 80 (5120)
I0313 11:01:54.953596 15997 net.cpp:139] Memory required for data: 328253440
I0313 11:01:54.953601 15997 net.cpp:467] Sharing parameters 'SCNN_U_w' owned by layer 'SCNN_U_60', param index 0
I0313 11:01:54.953606 15997 layer_factory.hpp:77] Creating layer SCNN_U_16/relu
I0313 11:01:54.953613 15997 net.cpp:86] Creating Layer SCNN_U_16/relu
I0313 11:01:54.953619 15997 net.cpp:408] SCNN_U_16/relu <- SCNN_U_16/message
I0313 11:01:54.953626 15997 net.cpp:369] SCNN_U_16/relu -> SCNN_U_16/message (in-place)
I0313 11:01:54.953790 15997 net.cpp:124] Setting up SCNN_U_16/relu
I0313 11:01:54.953799 15997 net.cpp:131] Top shape: 1 64 1 80 (5120)
I0313 11:01:54.953804 15997 net.cpp:139] Memory required for data: 328273920
I0313 11:01:54.953811 15997 layer_factory.hpp:77] Creating layer SCNN_U_16/sum
I0313 11:01:54.953819 15997 net.cpp:86] Creating Layer SCNN_U_16/sum
I0313 11:01:54.953825 15997 net.cpp:408] SCNN_U_16/sum <- SCNN_U_16/message
I0313 11:01:54.953835 15997 net.cpp:408] SCNN_U_16/sum <- SCNN_D_15_SCNN_D_14/sum_0_split_1
I0313 11:01:54.953840 15997 net.cpp:382] SCNN_U_16/sum -> SCNN_U_15
I0313 11:01:54.953913 15997 net.cpp:124] Setting up SCNN_U_16/sum
I0313 11:01:54.953927 15997 net.cpp:131] Top shape: 1 64 1 80 (5120)
I0313 11:01:54.953932 15997 net.cpp:139] Memory required for data: 328294400
I0313 11:01:54.953934 15997 layer_factory.hpp:77] Creating layer SCNN_U_15_SCNN_U_16/sum_0_split
I0313 11:01:54.953939 15997 net.cpp:86] Creating Layer SCNN_U_15_SCNN_U_16/sum_0_split
I0313 11:01:54.953945 15997 net.cpp:408] SCNN_U_15_SCNN_U_16/sum_0_split <- SCNN_U_15
I0313 11:01:54.953953 15997 net.cpp:382] SCNN_U_15_SCNN_U_16/sum_0_split -> SCNN_U_15_SCNN_U_16/sum_0_split_0
I0313 11:01:54.953960 15997 net.cpp:382] SCNN_U_15_SCNN_U_16/sum_0_split -> SCNN_U_15_SCNN_U_16/sum_0_split_1
I0313 11:01:54.954010 15997 net.cpp:124] Setting up SCNN_U_15_SCNN_U_16/sum_0_split
I0313 11:01:54.954017 15997 net.cpp:131] Top shape: 1 64 1 80 (5120)
I0313 11:01:54.954022 15997 net.cpp:131] Top shape: 1 64 1 80 (5120)
I0313 11:01:54.954025 15997 net.cpp:139] Memory required for data: 328335360
I0313 11:01:54.954028 15997 layer_factory.hpp:77] Creating layer SCNN_U_15
I0313 11:01:54.954036 15997 net.cpp:86] Creating Layer SCNN_U_15
I0313 11:01:54.954042 15997 net.cpp:408] SCNN_U_15 <- SCNN_U_15_SCNN_U_16/sum_0_split_0
I0313 11:01:54.954051 15997 net.cpp:382] SCNN_U_15 -> SCNN_U_15/message
I0313 11:01:54.955380 15997 net.cpp:124] Setting up SCNN_U_15
I0313 11:01:54.955394 15997 net.cpp:131] Top shape: 1 64 1 80 (5120)
I0313 11:01:54.955397 15997 net.cpp:139] Memory required for data: 328355840
I0313 11:01:54.955401 15997 net.cpp:467] Sharing parameters 'SCNN_U_w' owned by layer 'SCNN_U_60', param index 0
I0313 11:01:54.955404 15997 layer_factory.hpp:77] Creating layer SCNN_U_15/relu
I0313 11:01:54.955410 15997 net.cpp:86] Creating Layer SCNN_U_15/relu
I0313 11:01:54.955415 15997 net.cpp:408] SCNN_U_15/relu <- SCNN_U_15/message
I0313 11:01:54.955423 15997 net.cpp:369] SCNN_U_15/relu -> SCNN_U_15/message (in-place)
I0313 11:01:54.955590 15997 net.cpp:124] Setting up SCNN_U_15/relu
I0313 11:01:54.955598 15997 net.cpp:131] Top shape: 1 64 1 80 (5120)
I0313 11:01:54.955602 15997 net.cpp:139] Memory required for data: 328376320
I0313 11:01:54.955606 15997 layer_factory.hpp:77] Creating layer SCNN_U_15/sum
I0313 11:01:54.955611 15997 net.cpp:86] Creating Layer SCNN_U_15/sum
I0313 11:01:54.955617 15997 net.cpp:408] SCNN_U_15/sum <- SCNN_U_15/message
I0313 11:01:54.955626 15997 net.cpp:408] SCNN_U_15/sum <- SCNN_D_14_SCNN_D_13/sum_0_split_1
I0313 11:01:54.955633 15997 net.cpp:382] SCNN_U_15/sum -> SCNN_U_14
I0313 11:01:54.955669 15997 net.cpp:124] Setting up SCNN_U_15/sum
I0313 11:01:54.955677 15997 net.cpp:131] Top shape: 1 64 1 80 (5120)
I0313 11:01:54.955682 15997 net.cpp:139] Memory required for data: 328396800
I0313 11:01:54.955683 15997 layer_factory.hpp:77] Creating layer SCNN_U_14_SCNN_U_15/sum_0_split
I0313 11:01:54.955691 15997 net.cpp:86] Creating Layer SCNN_U_14_SCNN_U_15/sum_0_split
I0313 11:01:54.955698 15997 net.cpp:408] SCNN_U_14_SCNN_U_15/sum_0_split <- SCNN_U_14
I0313 11:01:54.955704 15997 net.cpp:382] SCNN_U_14_SCNN_U_15/sum_0_split -> SCNN_U_14_SCNN_U_15/sum_0_split_0
I0313 11:01:54.955714 15997 net.cpp:382] SCNN_U_14_SCNN_U_15/sum_0_split -> SCNN_U_14_SCNN_U_15/sum_0_split_1
I0313 11:01:54.955768 15997 net.cpp:124] Setting up SCNN_U_14_SCNN_U_15/sum_0_split
I0313 11:01:54.955776 15997 net.cpp:131] Top shape: 1 64 1 80 (5120)
I0313 11:01:54.955781 15997 net.cpp:131] Top shape: 1 64 1 80 (5120)
I0313 11:01:54.955785 15997 net.cpp:139] Memory required for data: 328437760
I0313 11:01:54.955788 15997 layer_factory.hpp:77] Creating layer SCNN_U_14
I0313 11:01:54.955796 15997 net.cpp:86] Creating Layer SCNN_U_14
I0313 11:01:54.955801 15997 net.cpp:408] SCNN_U_14 <- SCNN_U_14_SCNN_U_15/sum_0_split_0
I0313 11:01:54.955811 15997 net.cpp:382] SCNN_U_14 -> SCNN_U_14/message
I0313 11:01:54.957345 15997 net.cpp:124] Setting up SCNN_U_14
I0313 11:01:54.957357 15997 net.cpp:131] Top shape: 1 64 1 80 (5120)
I0313 11:01:54.957362 15997 net.cpp:139] Memory required for data: 328458240
I0313 11:01:54.957366 15997 net.cpp:467] Sharing parameters 'SCNN_U_w' owned by layer 'SCNN_U_60', param index 0
I0313 11:01:54.957370 15997 layer_factory.hpp:77] Creating layer SCNN_U_14/relu
I0313 11:01:54.957376 15997 net.cpp:86] Creating Layer SCNN_U_14/relu
I0313 11:01:54.957381 15997 net.cpp:408] SCNN_U_14/relu <- SCNN_U_14/message
I0313 11:01:54.957388 15997 net.cpp:369] SCNN_U_14/relu -> SCNN_U_14/message (in-place)
I0313 11:01:54.957763 15997 net.cpp:124] Setting up SCNN_U_14/relu
I0313 11:01:54.957773 15997 net.cpp:131] Top shape: 1 64 1 80 (5120)
I0313 11:01:54.957777 15997 net.cpp:139] Memory required for data: 328478720
I0313 11:01:54.957780 15997 layer_factory.hpp:77] Creating layer SCNN_U_14/sum
I0313 11:01:54.957789 15997 net.cpp:86] Creating Layer SCNN_U_14/sum
I0313 11:01:54.957798 15997 net.cpp:408] SCNN_U_14/sum <- SCNN_U_14/message
I0313 11:01:54.957805 15997 net.cpp:408] SCNN_U_14/sum <- SCNN_D_13_SCNN_D_12/sum_0_split_1
I0313 11:01:54.957811 15997 net.cpp:382] SCNN_U_14/sum -> SCNN_U_13
I0313 11:01:54.957850 15997 net.cpp:124] Setting up SCNN_U_14/sum
I0313 11:01:54.957859 15997 net.cpp:131] Top shape: 1 64 1 80 (5120)
I0313 11:01:54.957862 15997 net.cpp:139] Memory required for data: 328499200
I0313 11:01:54.957864 15997 layer_factory.hpp:77] Creating layer SCNN_U_13_SCNN_U_14/sum_0_split
I0313 11:01:54.957871 15997 net.cpp:86] Creating Layer SCNN_U_13_SCNN_U_14/sum_0_split
I0313 11:01:54.957877 15997 net.cpp:408] SCNN_U_13_SCNN_U_14/sum_0_split <- SCNN_U_13
I0313 11:01:54.957885 15997 net.cpp:382] SCNN_U_13_SCNN_U_14/sum_0_split -> SCNN_U_13_SCNN_U_14/sum_0_split_0
I0313 11:01:54.957893 15997 net.cpp:382] SCNN_U_13_SCNN_U_14/sum_0_split -> SCNN_U_13_SCNN_U_14/sum_0_split_1
I0313 11:01:54.957944 15997 net.cpp:124] Setting up SCNN_U_13_SCNN_U_14/sum_0_split
I0313 11:01:54.957952 15997 net.cpp:131] Top shape: 1 64 1 80 (5120)
I0313 11:01:54.957957 15997 net.cpp:131] Top shape: 1 64 1 80 (5120)
I0313 11:01:54.957959 15997 net.cpp:139] Memory required for data: 328540160
I0313 11:01:54.957962 15997 layer_factory.hpp:77] Creating layer SCNN_U_13
I0313 11:01:54.957971 15997 net.cpp:86] Creating Layer SCNN_U_13
I0313 11:01:54.957978 15997 net.cpp:408] SCNN_U_13 <- SCNN_U_13_SCNN_U_14/sum_0_split_0
I0313 11:01:54.957986 15997 net.cpp:382] SCNN_U_13 -> SCNN_U_13/message
I0313 11:01:54.959307 15997 net.cpp:124] Setting up SCNN_U_13
I0313 11:01:54.959321 15997 net.cpp:131] Top shape: 1 64 1 80 (5120)
I0313 11:01:54.959326 15997 net.cpp:139] Memory required for data: 328560640
I0313 11:01:54.959331 15997 net.cpp:467] Sharing parameters 'SCNN_U_w' owned by layer 'SCNN_U_60', param index 0
I0313 11:01:54.959336 15997 layer_factory.hpp:77] Creating layer SCNN_U_13/relu
I0313 11:01:54.959340 15997 net.cpp:86] Creating Layer SCNN_U_13/relu
I0313 11:01:54.959347 15997 net.cpp:408] SCNN_U_13/relu <- SCNN_U_13/message
I0313 11:01:54.959354 15997 net.cpp:369] SCNN_U_13/relu -> SCNN_U_13/message (in-place)
I0313 11:01:54.960713 15997 net.cpp:124] Setting up SCNN_U_13/relu
I0313 11:01:54.960726 15997 net.cpp:131] Top shape: 1 64 1 80 (5120)
I0313 11:01:54.960729 15997 net.cpp:139] Memory required for data: 328581120
I0313 11:01:54.960731 15997 layer_factory.hpp:77] Creating layer SCNN_U_13/sum
I0313 11:01:54.960738 15997 net.cpp:86] Creating Layer SCNN_U_13/sum
I0313 11:01:54.960745 15997 net.cpp:408] SCNN_U_13/sum <- SCNN_U_13/message
I0313 11:01:54.960757 15997 net.cpp:408] SCNN_U_13/sum <- SCNN_D_12_SCNN_D_11/sum_0_split_1
I0313 11:01:54.960762 15997 net.cpp:382] SCNN_U_13/sum -> SCNN_U_12
I0313 11:01:54.960804 15997 net.cpp:124] Setting up SCNN_U_13/sum
I0313 11:01:54.960813 15997 net.cpp:131] Top shape: 1 64 1 80 (5120)
I0313 11:01:54.960817 15997 net.cpp:139] Memory required for data: 328601600
I0313 11:01:54.960820 15997 layer_factory.hpp:77] Creating layer SCNN_U_12_SCNN_U_13/sum_0_split
I0313 11:01:54.960827 15997 net.cpp:86] Creating Layer SCNN_U_12_SCNN_U_13/sum_0_split
I0313 11:01:54.960834 15997 net.cpp:408] SCNN_U_12_SCNN_U_13/sum_0_split <- SCNN_U_12
I0313 11:01:54.960842 15997 net.cpp:382] SCNN_U_12_SCNN_U_13/sum_0_split -> SCNN_U_12_SCNN_U_13/sum_0_split_0
I0313 11:01:54.960851 15997 net.cpp:382] SCNN_U_12_SCNN_U_13/sum_0_split -> SCNN_U_12_SCNN_U_13/sum_0_split_1
I0313 11:01:54.960911 15997 net.cpp:124] Setting up SCNN_U_12_SCNN_U_13/sum_0_split
I0313 11:01:54.960919 15997 net.cpp:131] Top shape: 1 64 1 80 (5120)
I0313 11:01:54.960924 15997 net.cpp:131] Top shape: 1 64 1 80 (5120)
I0313 11:01:54.960928 15997 net.cpp:139] Memory required for data: 328642560
I0313 11:01:54.960930 15997 layer_factory.hpp:77] Creating layer SCNN_U_12
I0313 11:01:54.960939 15997 net.cpp:86] Creating Layer SCNN_U_12
I0313 11:01:54.960947 15997 net.cpp:408] SCNN_U_12 <- SCNN_U_12_SCNN_U_13/sum_0_split_0
I0313 11:01:54.960953 15997 net.cpp:382] SCNN_U_12 -> SCNN_U_12/message
I0313 11:01:54.962358 15997 net.cpp:124] Setting up SCNN_U_12
I0313 11:01:54.962373 15997 net.cpp:131] Top shape: 1 64 1 80 (5120)
I0313 11:01:54.962378 15997 net.cpp:139] Memory required for data: 328663040
I0313 11:01:54.962383 15997 net.cpp:467] Sharing parameters 'SCNN_U_w' owned by layer 'SCNN_U_60', param index 0
I0313 11:01:54.962386 15997 layer_factory.hpp:77] Creating layer SCNN_U_12/relu
I0313 11:01:54.962391 15997 net.cpp:86] Creating Layer SCNN_U_12/relu
I0313 11:01:54.962399 15997 net.cpp:408] SCNN_U_12/relu <- SCNN_U_12/message
I0313 11:01:54.962407 15997 net.cpp:369] SCNN_U_12/relu -> SCNN_U_12/message (in-place)
I0313 11:01:54.962574 15997 net.cpp:124] Setting up SCNN_U_12/relu
I0313 11:01:54.962582 15997 net.cpp:131] Top shape: 1 64 1 80 (5120)
I0313 11:01:54.962585 15997 net.cpp:139] Memory required for data: 328683520
I0313 11:01:54.962589 15997 layer_factory.hpp:77] Creating layer SCNN_U_12/sum
I0313 11:01:54.962595 15997 net.cpp:86] Creating Layer SCNN_U_12/sum
I0313 11:01:54.962600 15997 net.cpp:408] SCNN_U_12/sum <- SCNN_U_12/message
I0313 11:01:54.962607 15997 net.cpp:408] SCNN_U_12/sum <- SCNN_D_11_SCNN_D_10/sum_0_split_1
I0313 11:01:54.962615 15997 net.cpp:382] SCNN_U_12/sum -> SCNN_U_11
I0313 11:01:54.962651 15997 net.cpp:124] Setting up SCNN_U_12/sum
I0313 11:01:54.962661 15997 net.cpp:131] Top shape: 1 64 1 80 (5120)
I0313 11:01:54.962666 15997 net.cpp:139] Memory required for data: 328704000
I0313 11:01:54.962668 15997 layer_factory.hpp:77] Creating layer SCNN_U_11_SCNN_U_12/sum_0_split
I0313 11:01:54.962673 15997 net.cpp:86] Creating Layer SCNN_U_11_SCNN_U_12/sum_0_split
I0313 11:01:54.962679 15997 net.cpp:408] SCNN_U_11_SCNN_U_12/sum_0_split <- SCNN_U_11
I0313 11:01:54.962687 15997 net.cpp:382] SCNN_U_11_SCNN_U_12/sum_0_split -> SCNN_U_11_SCNN_U_12/sum_0_split_0
I0313 11:01:54.962697 15997 net.cpp:382] SCNN_U_11_SCNN_U_12/sum_0_split -> SCNN_U_11_SCNN_U_12/sum_0_split_1
I0313 11:01:54.962749 15997 net.cpp:124] Setting up SCNN_U_11_SCNN_U_12/sum_0_split
I0313 11:01:54.962756 15997 net.cpp:131] Top shape: 1 64 1 80 (5120)
I0313 11:01:54.962761 15997 net.cpp:131] Top shape: 1 64 1 80 (5120)
I0313 11:01:54.962764 15997 net.cpp:139] Memory required for data: 328744960
I0313 11:01:54.962767 15997 layer_factory.hpp:77] Creating layer SCNN_U_11
I0313 11:01:54.962775 15997 net.cpp:86] Creating Layer SCNN_U_11
I0313 11:01:54.962781 15997 net.cpp:408] SCNN_U_11 <- SCNN_U_11_SCNN_U_12/sum_0_split_0
I0313 11:01:54.962790 15997 net.cpp:382] SCNN_U_11 -> SCNN_U_11/message
I0313 11:01:54.964177 15997 net.cpp:124] Setting up SCNN_U_11
I0313 11:01:54.964191 15997 net.cpp:131] Top shape: 1 64 1 80 (5120)
I0313 11:01:54.964195 15997 net.cpp:139] Memory required for data: 328765440
I0313 11:01:54.964200 15997 net.cpp:467] Sharing parameters 'SCNN_U_w' owned by layer 'SCNN_U_60', param index 0
I0313 11:01:54.964205 15997 layer_factory.hpp:77] Creating layer SCNN_U_11/relu
I0313 11:01:54.964211 15997 net.cpp:86] Creating Layer SCNN_U_11/relu
I0313 11:01:54.964217 15997 net.cpp:408] SCNN_U_11/relu <- SCNN_U_11/message
I0313 11:01:54.964226 15997 net.cpp:369] SCNN_U_11/relu -> SCNN_U_11/message (in-place)
I0313 11:01:54.964396 15997 net.cpp:124] Setting up SCNN_U_11/relu
I0313 11:01:54.964406 15997 net.cpp:131] Top shape: 1 64 1 80 (5120)
I0313 11:01:54.964411 15997 net.cpp:139] Memory required for data: 328785920
I0313 11:01:54.964412 15997 layer_factory.hpp:77] Creating layer SCNN_U_11/sum
I0313 11:01:54.964418 15997 net.cpp:86] Creating Layer SCNN_U_11/sum
I0313 11:01:54.964426 15997 net.cpp:408] SCNN_U_11/sum <- SCNN_U_11/message
I0313 11:01:54.964432 15997 net.cpp:408] SCNN_U_11/sum <- SCNN_D_10_SCNN_D_9/sum_0_split_1
I0313 11:01:54.964440 15997 net.cpp:382] SCNN_U_11/sum -> SCNN_U_10
I0313 11:01:54.964479 15997 net.cpp:124] Setting up SCNN_U_11/sum
I0313 11:01:54.964488 15997 net.cpp:131] Top shape: 1 64 1 80 (5120)
I0313 11:01:54.964491 15997 net.cpp:139] Memory required for data: 328806400
I0313 11:01:54.964493 15997 layer_factory.hpp:77] Creating layer SCNN_U_10_SCNN_U_11/sum_0_split
I0313 11:01:54.964498 15997 net.cpp:86] Creating Layer SCNN_U_10_SCNN_U_11/sum_0_split
I0313 11:01:54.964504 15997 net.cpp:408] SCNN_U_10_SCNN_U_11/sum_0_split <- SCNN_U_10
I0313 11:01:54.964514 15997 net.cpp:382] SCNN_U_10_SCNN_U_11/sum_0_split -> SCNN_U_10_SCNN_U_11/sum_0_split_0
I0313 11:01:54.964522 15997 net.cpp:382] SCNN_U_10_SCNN_U_11/sum_0_split -> SCNN_U_10_SCNN_U_11/sum_0_split_1
I0313 11:01:54.964574 15997 net.cpp:124] Setting up SCNN_U_10_SCNN_U_11/sum_0_split
I0313 11:01:54.964582 15997 net.cpp:131] Top shape: 1 64 1 80 (5120)
I0313 11:01:54.964587 15997 net.cpp:131] Top shape: 1 64 1 80 (5120)
I0313 11:01:54.964591 15997 net.cpp:139] Memory required for data: 328847360
I0313 11:01:54.964593 15997 layer_factory.hpp:77] Creating layer SCNN_U_10
I0313 11:01:54.964601 15997 net.cpp:86] Creating Layer SCNN_U_10
I0313 11:01:54.964607 15997 net.cpp:408] SCNN_U_10 <- SCNN_U_10_SCNN_U_11/sum_0_split_0
I0313 11:01:54.964613 15997 net.cpp:382] SCNN_U_10 -> SCNN_U_10/message
I0313 11:01:54.966001 15997 net.cpp:124] Setting up SCNN_U_10
I0313 11:01:54.966014 15997 net.cpp:131] Top shape: 1 64 1 80 (5120)
I0313 11:01:54.966018 15997 net.cpp:139] Memory required for data: 328867840
I0313 11:01:54.966024 15997 net.cpp:467] Sharing parameters 'SCNN_U_w' owned by layer 'SCNN_U_60', param index 0
I0313 11:01:54.966028 15997 layer_factory.hpp:77] Creating layer SCNN_U_10/relu
I0313 11:01:54.966033 15997 net.cpp:86] Creating Layer SCNN_U_10/relu
I0313 11:01:54.966039 15997 net.cpp:408] SCNN_U_10/relu <- SCNN_U_10/message
I0313 11:01:54.966048 15997 net.cpp:369] SCNN_U_10/relu -> SCNN_U_10/message (in-place)
I0313 11:01:54.966214 15997 net.cpp:124] Setting up SCNN_U_10/relu
I0313 11:01:54.966223 15997 net.cpp:131] Top shape: 1 64 1 80 (5120)
I0313 11:01:54.966228 15997 net.cpp:139] Memory required for data: 328888320
I0313 11:01:54.966229 15997 layer_factory.hpp:77] Creating layer SCNN_U_10/sum
I0313 11:01:54.966238 15997 net.cpp:86] Creating Layer SCNN_U_10/sum
I0313 11:01:54.966244 15997 net.cpp:408] SCNN_U_10/sum <- SCNN_U_10/message
I0313 11:01:54.966253 15997 net.cpp:408] SCNN_U_10/sum <- SCNN_D_9_SCNN_D_8/sum_0_split_1
I0313 11:01:54.966259 15997 net.cpp:382] SCNN_U_10/sum -> SCNN_U_9
I0313 11:01:54.966297 15997 net.cpp:124] Setting up SCNN_U_10/sum
I0313 11:01:54.966305 15997 net.cpp:131] Top shape: 1 64 1 80 (5120)
I0313 11:01:54.966310 15997 net.cpp:139] Memory required for data: 328908800
I0313 11:01:54.966311 15997 layer_factory.hpp:77] Creating layer SCNN_U_9_SCNN_U_10/sum_0_split
I0313 11:01:54.966318 15997 net.cpp:86] Creating Layer SCNN_U_9_SCNN_U_10/sum_0_split
I0313 11:01:54.966325 15997 net.cpp:408] SCNN_U_9_SCNN_U_10/sum_0_split <- SCNN_U_9
I0313 11:01:54.966332 15997 net.cpp:382] SCNN_U_9_SCNN_U_10/sum_0_split -> SCNN_U_9_SCNN_U_10/sum_0_split_0
I0313 11:01:54.966342 15997 net.cpp:382] SCNN_U_9_SCNN_U_10/sum_0_split -> SCNN_U_9_SCNN_U_10/sum_0_split_1
I0313 11:01:54.966395 15997 net.cpp:124] Setting up SCNN_U_9_SCNN_U_10/sum_0_split
I0313 11:01:54.966403 15997 net.cpp:131] Top shape: 1 64 1 80 (5120)
I0313 11:01:54.966408 15997 net.cpp:131] Top shape: 1 64 1 80 (5120)
I0313 11:01:54.966411 15997 net.cpp:139] Memory required for data: 328949760
I0313 11:01:54.966414 15997 layer_factory.hpp:77] Creating layer SCNN_U_9
I0313 11:01:54.966421 15997 net.cpp:86] Creating Layer SCNN_U_9
I0313 11:01:54.966428 15997 net.cpp:408] SCNN_U_9 <- SCNN_U_9_SCNN_U_10/sum_0_split_0
I0313 11:01:54.966436 15997 net.cpp:382] SCNN_U_9 -> SCNN_U_9/message
I0313 11:01:54.969581 15997 net.cpp:124] Setting up SCNN_U_9
I0313 11:01:54.969595 15997 net.cpp:131] Top shape: 1 64 1 80 (5120)
I0313 11:01:54.969600 15997 net.cpp:139] Memory required for data: 328970240
I0313 11:01:54.969606 15997 net.cpp:467] Sharing parameters 'SCNN_U_w' owned by layer 'SCNN_U_60', param index 0
I0313 11:01:54.969610 15997 layer_factory.hpp:77] Creating layer SCNN_U_9/relu
I0313 11:01:54.969615 15997 net.cpp:86] Creating Layer SCNN_U_9/relu
I0313 11:01:54.969621 15997 net.cpp:408] SCNN_U_9/relu <- SCNN_U_9/message
I0313 11:01:54.969628 15997 net.cpp:369] SCNN_U_9/relu -> SCNN_U_9/message (in-place)
I0313 11:01:54.970000 15997 net.cpp:124] Setting up SCNN_U_9/relu
I0313 11:01:54.970010 15997 net.cpp:131] Top shape: 1 64 1 80 (5120)
I0313 11:01:54.970014 15997 net.cpp:139] Memory required for data: 328990720
I0313 11:01:54.970017 15997 layer_factory.hpp:77] Creating layer SCNN_U_9/sum
I0313 11:01:54.970024 15997 net.cpp:86] Creating Layer SCNN_U_9/sum
I0313 11:01:54.970031 15997 net.cpp:408] SCNN_U_9/sum <- SCNN_U_9/message
I0313 11:01:54.970039 15997 net.cpp:408] SCNN_U_9/sum <- SCNN_D_8_SCNN_D_7/sum_0_split_1
I0313 11:01:54.970046 15997 net.cpp:382] SCNN_U_9/sum -> SCNN_U_8
I0313 11:01:54.970084 15997 net.cpp:124] Setting up SCNN_U_9/sum
I0313 11:01:54.970093 15997 net.cpp:131] Top shape: 1 64 1 80 (5120)
I0313 11:01:54.970098 15997 net.cpp:139] Memory required for data: 329011200
I0313 11:01:54.970099 15997 layer_factory.hpp:77] Creating layer SCNN_U_8_SCNN_U_9/sum_0_split
I0313 11:01:54.970103 15997 net.cpp:86] Creating Layer SCNN_U_8_SCNN_U_9/sum_0_split
I0313 11:01:54.970108 15997 net.cpp:408] SCNN_U_8_SCNN_U_9/sum_0_split <- SCNN_U_8
I0313 11:01:54.970113 15997 net.cpp:382] SCNN_U_8_SCNN_U_9/sum_0_split -> SCNN_U_8_SCNN_U_9/sum_0_split_0
I0313 11:01:54.970121 15997 net.cpp:382] SCNN_U_8_SCNN_U_9/sum_0_split -> SCNN_U_8_SCNN_U_9/sum_0_split_1
I0313 11:01:54.970173 15997 net.cpp:124] Setting up SCNN_U_8_SCNN_U_9/sum_0_split
I0313 11:01:54.970180 15997 net.cpp:131] Top shape: 1 64 1 80 (5120)
I0313 11:01:54.970185 15997 net.cpp:131] Top shape: 1 64 1 80 (5120)
I0313 11:01:54.970190 15997 net.cpp:139] Memory required for data: 329052160
I0313 11:01:54.970192 15997 layer_factory.hpp:77] Creating layer SCNN_U_8
I0313 11:01:54.970199 15997 net.cpp:86] Creating Layer SCNN_U_8
I0313 11:01:54.970206 15997 net.cpp:408] SCNN_U_8 <- SCNN_U_8_SCNN_U_9/sum_0_split_0
I0313 11:01:54.970212 15997 net.cpp:382] SCNN_U_8 -> SCNN_U_8/message
I0313 11:01:54.971554 15997 net.cpp:124] Setting up SCNN_U_8
I0313 11:01:54.971566 15997 net.cpp:131] Top shape: 1 64 1 80 (5120)
I0313 11:01:54.971575 15997 net.cpp:139] Memory required for data: 329072640
I0313 11:01:54.971585 15997 net.cpp:467] Sharing parameters 'SCNN_U_w' owned by layer 'SCNN_U_60', param index 0
I0313 11:01:54.971588 15997 layer_factory.hpp:77] Creating layer SCNN_U_8/relu
I0313 11:01:54.971593 15997 net.cpp:86] Creating Layer SCNN_U_8/relu
I0313 11:01:54.971599 15997 net.cpp:408] SCNN_U_8/relu <- SCNN_U_8/message
I0313 11:01:54.971606 15997 net.cpp:369] SCNN_U_8/relu -> SCNN_U_8/message (in-place)
I0313 11:01:54.971765 15997 net.cpp:124] Setting up SCNN_U_8/relu
I0313 11:01:54.971773 15997 net.cpp:131] Top shape: 1 64 1 80 (5120)
I0313 11:01:54.971777 15997 net.cpp:139] Memory required for data: 329093120
I0313 11:01:54.971781 15997 layer_factory.hpp:77] Creating layer SCNN_U_8/sum
I0313 11:01:54.971786 15997 net.cpp:86] Creating Layer SCNN_U_8/sum
I0313 11:01:54.971791 15997 net.cpp:408] SCNN_U_8/sum <- SCNN_U_8/message
I0313 11:01:54.971799 15997 net.cpp:408] SCNN_U_8/sum <- SCNN_D_7_SCNN_D_6/sum_0_split_1
I0313 11:01:54.971805 15997 net.cpp:382] SCNN_U_8/sum -> SCNN_U_7
I0313 11:01:54.971841 15997 net.cpp:124] Setting up SCNN_U_8/sum
I0313 11:01:54.971849 15997 net.cpp:131] Top shape: 1 64 1 80 (5120)
I0313 11:01:54.971853 15997 net.cpp:139] Memory required for data: 329113600
I0313 11:01:54.971856 15997 layer_factory.hpp:77] Creating layer SCNN_U_7_SCNN_U_8/sum_0_split
I0313 11:01:54.971861 15997 net.cpp:86] Creating Layer SCNN_U_7_SCNN_U_8/sum_0_split
I0313 11:01:54.971866 15997 net.cpp:408] SCNN_U_7_SCNN_U_8/sum_0_split <- SCNN_U_7
I0313 11:01:54.971873 15997 net.cpp:382] SCNN_U_7_SCNN_U_8/sum_0_split -> SCNN_U_7_SCNN_U_8/sum_0_split_0
I0313 11:01:54.971882 15997 net.cpp:382] SCNN_U_7_SCNN_U_8/sum_0_split -> SCNN_U_7_SCNN_U_8/sum_0_split_1
I0313 11:01:54.971940 15997 net.cpp:124] Setting up SCNN_U_7_SCNN_U_8/sum_0_split
I0313 11:01:54.971947 15997 net.cpp:131] Top shape: 1 64 1 80 (5120)
I0313 11:01:54.971952 15997 net.cpp:131] Top shape: 1 64 1 80 (5120)
I0313 11:01:54.971956 15997 net.cpp:139] Memory required for data: 329154560
I0313 11:01:54.971958 15997 layer_factory.hpp:77] Creating layer SCNN_U_7
I0313 11:01:54.971966 15997 net.cpp:86] Creating Layer SCNN_U_7
I0313 11:01:54.971971 15997 net.cpp:408] SCNN_U_7 <- SCNN_U_7_SCNN_U_8/sum_0_split_0
I0313 11:01:54.971979 15997 net.cpp:382] SCNN_U_7 -> SCNN_U_7/message
I0313 11:01:54.973327 15997 net.cpp:124] Setting up SCNN_U_7
I0313 11:01:54.973340 15997 net.cpp:131] Top shape: 1 64 1 80 (5120)
I0313 11:01:54.973345 15997 net.cpp:139] Memory required for data: 329175040
I0313 11:01:54.973351 15997 net.cpp:467] Sharing parameters 'SCNN_U_w' owned by layer 'SCNN_U_60', param index 0
I0313 11:01:54.973354 15997 layer_factory.hpp:77] Creating layer SCNN_U_7/relu
I0313 11:01:54.973358 15997 net.cpp:86] Creating Layer SCNN_U_7/relu
I0313 11:01:54.973364 15997 net.cpp:408] SCNN_U_7/relu <- SCNN_U_7/message
I0313 11:01:54.973371 15997 net.cpp:369] SCNN_U_7/relu -> SCNN_U_7/message (in-place)
I0313 11:01:54.973527 15997 net.cpp:124] Setting up SCNN_U_7/relu
I0313 11:01:54.973536 15997 net.cpp:131] Top shape: 1 64 1 80 (5120)
I0313 11:01:54.973541 15997 net.cpp:139] Memory required for data: 329195520
I0313 11:01:54.973544 15997 layer_factory.hpp:77] Creating layer SCNN_U_7/sum
I0313 11:01:54.973551 15997 net.cpp:86] Creating Layer SCNN_U_7/sum
I0313 11:01:54.973556 15997 net.cpp:408] SCNN_U_7/sum <- SCNN_U_7/message
I0313 11:01:54.973565 15997 net.cpp:408] SCNN_U_7/sum <- SCNN_D_6_SCNN_D_5/sum_0_split_1
I0313 11:01:54.973570 15997 net.cpp:382] SCNN_U_7/sum -> SCNN_U_6
I0313 11:01:54.973608 15997 net.cpp:124] Setting up SCNN_U_7/sum
I0313 11:01:54.973616 15997 net.cpp:131] Top shape: 1 64 1 80 (5120)
I0313 11:01:54.973619 15997 net.cpp:139] Memory required for data: 329216000
I0313 11:01:54.973623 15997 layer_factory.hpp:77] Creating layer SCNN_U_6_SCNN_U_7/sum_0_split
I0313 11:01:54.973628 15997 net.cpp:86] Creating Layer SCNN_U_6_SCNN_U_7/sum_0_split
I0313 11:01:54.973632 15997 net.cpp:408] SCNN_U_6_SCNN_U_7/sum_0_split <- SCNN_U_6
I0313 11:01:54.973639 15997 net.cpp:382] SCNN_U_6_SCNN_U_7/sum_0_split -> SCNN_U_6_SCNN_U_7/sum_0_split_0
I0313 11:01:54.973647 15997 net.cpp:382] SCNN_U_6_SCNN_U_7/sum_0_split -> SCNN_U_6_SCNN_U_7/sum_0_split_1
I0313 11:01:54.973711 15997 net.cpp:124] Setting up SCNN_U_6_SCNN_U_7/sum_0_split
I0313 11:01:54.973718 15997 net.cpp:131] Top shape: 1 64 1 80 (5120)
I0313 11:01:54.973723 15997 net.cpp:131] Top shape: 1 64 1 80 (5120)
I0313 11:01:54.973726 15997 net.cpp:139] Memory required for data: 329256960
I0313 11:01:54.973729 15997 layer_factory.hpp:77] Creating layer SCNN_U_6
I0313 11:01:54.973736 15997 net.cpp:86] Creating Layer SCNN_U_6
I0313 11:01:54.973742 15997 net.cpp:408] SCNN_U_6 <- SCNN_U_6_SCNN_U_7/sum_0_split_0
I0313 11:01:54.973748 15997 net.cpp:382] SCNN_U_6 -> SCNN_U_6/message
I0313 11:01:54.976289 15997 net.cpp:124] Setting up SCNN_U_6
I0313 11:01:54.976303 15997 net.cpp:131] Top shape: 1 64 1 80 (5120)
I0313 11:01:54.976308 15997 net.cpp:139] Memory required for data: 329277440
I0313 11:01:54.976313 15997 net.cpp:467] Sharing parameters 'SCNN_U_w' owned by layer 'SCNN_U_60', param index 0
I0313 11:01:54.976317 15997 layer_factory.hpp:77] Creating layer SCNN_U_6/relu
I0313 11:01:54.976322 15997 net.cpp:86] Creating Layer SCNN_U_6/relu
I0313 11:01:54.976328 15997 net.cpp:408] SCNN_U_6/relu <- SCNN_U_6/message
I0313 11:01:54.976336 15997 net.cpp:369] SCNN_U_6/relu -> SCNN_U_6/message (in-place)
I0313 11:01:54.976496 15997 net.cpp:124] Setting up SCNN_U_6/relu
I0313 11:01:54.976505 15997 net.cpp:131] Top shape: 1 64 1 80 (5120)
I0313 11:01:54.976508 15997 net.cpp:139] Memory required for data: 329297920
I0313 11:01:54.976512 15997 layer_factory.hpp:77] Creating layer SCNN_U_6/sum
I0313 11:01:54.976517 15997 net.cpp:86] Creating Layer SCNN_U_6/sum
I0313 11:01:54.976524 15997 net.cpp:408] SCNN_U_6/sum <- SCNN_U_6/message
I0313 11:01:54.976532 15997 net.cpp:408] SCNN_U_6/sum <- SCNN_D_5_SCNN_D_4/sum_0_split_1
I0313 11:01:54.976539 15997 net.cpp:382] SCNN_U_6/sum -> SCNN_U_5
I0313 11:01:54.976577 15997 net.cpp:124] Setting up SCNN_U_6/sum
I0313 11:01:54.976584 15997 net.cpp:131] Top shape: 1 64 1 80 (5120)
I0313 11:01:54.976588 15997 net.cpp:139] Memory required for data: 329318400
I0313 11:01:54.976591 15997 layer_factory.hpp:77] Creating layer SCNN_U_5_SCNN_U_6/sum_0_split
I0313 11:01:54.976595 15997 net.cpp:86] Creating Layer SCNN_U_5_SCNN_U_6/sum_0_split
I0313 11:01:54.976601 15997 net.cpp:408] SCNN_U_5_SCNN_U_6/sum_0_split <- SCNN_U_5
I0313 11:01:54.976608 15997 net.cpp:382] SCNN_U_5_SCNN_U_6/sum_0_split -> SCNN_U_5_SCNN_U_6/sum_0_split_0
I0313 11:01:54.976617 15997 net.cpp:382] SCNN_U_5_SCNN_U_6/sum_0_split -> SCNN_U_5_SCNN_U_6/sum_0_split_1
I0313 11:01:54.976682 15997 net.cpp:124] Setting up SCNN_U_5_SCNN_U_6/sum_0_split
I0313 11:01:54.976691 15997 net.cpp:131] Top shape: 1 64 1 80 (5120)
I0313 11:01:54.976694 15997 net.cpp:131] Top shape: 1 64 1 80 (5120)
I0313 11:01:54.976697 15997 net.cpp:139] Memory required for data: 329359360
I0313 11:01:54.976699 15997 layer_factory.hpp:77] Creating layer SCNN_U_5
I0313 11:01:54.976706 15997 net.cpp:86] Creating Layer SCNN_U_5
I0313 11:01:54.976709 15997 net.cpp:408] SCNN_U_5 <- SCNN_U_5_SCNN_U_6/sum_0_split_0
I0313 11:01:54.976717 15997 net.cpp:382] SCNN_U_5 -> SCNN_U_5/message
I0313 11:01:54.978032 15997 net.cpp:124] Setting up SCNN_U_5
I0313 11:01:54.978045 15997 net.cpp:131] Top shape: 1 64 1 80 (5120)
I0313 11:01:54.978049 15997 net.cpp:139] Memory required for data: 329379840
I0313 11:01:54.978055 15997 net.cpp:467] Sharing parameters 'SCNN_U_w' owned by layer 'SCNN_U_60', param index 0
I0313 11:01:54.978058 15997 layer_factory.hpp:77] Creating layer SCNN_U_5/relu
I0313 11:01:54.978063 15997 net.cpp:86] Creating Layer SCNN_U_5/relu
I0313 11:01:54.978068 15997 net.cpp:408] SCNN_U_5/relu <- SCNN_U_5/message
I0313 11:01:54.978075 15997 net.cpp:369] SCNN_U_5/relu -> SCNN_U_5/message (in-place)
I0313 11:01:54.978440 15997 net.cpp:124] Setting up SCNN_U_5/relu
I0313 11:01:54.978449 15997 net.cpp:131] Top shape: 1 64 1 80 (5120)
I0313 11:01:54.978453 15997 net.cpp:139] Memory required for data: 329400320
I0313 11:01:54.978456 15997 layer_factory.hpp:77] Creating layer SCNN_U_5/sum
I0313 11:01:54.978461 15997 net.cpp:86] Creating Layer SCNN_U_5/sum
I0313 11:01:54.978467 15997 net.cpp:408] SCNN_U_5/sum <- SCNN_U_5/message
I0313 11:01:54.978477 15997 net.cpp:408] SCNN_U_5/sum <- SCNN_D_4_SCNN_D_3/sum_0_split_1
I0313 11:01:54.978482 15997 net.cpp:382] SCNN_U_5/sum -> SCNN_U_4
I0313 11:01:54.978519 15997 net.cpp:124] Setting up SCNN_U_5/sum
I0313 11:01:54.978528 15997 net.cpp:131] Top shape: 1 64 1 80 (5120)
I0313 11:01:54.978531 15997 net.cpp:139] Memory required for data: 329420800
I0313 11:01:54.978534 15997 layer_factory.hpp:77] Creating layer SCNN_U_4_SCNN_U_5/sum_0_split
I0313 11:01:54.978539 15997 net.cpp:86] Creating Layer SCNN_U_4_SCNN_U_5/sum_0_split
I0313 11:01:54.978544 15997 net.cpp:408] SCNN_U_4_SCNN_U_5/sum_0_split <- SCNN_U_4
I0313 11:01:54.978551 15997 net.cpp:382] SCNN_U_4_SCNN_U_5/sum_0_split -> SCNN_U_4_SCNN_U_5/sum_0_split_0
I0313 11:01:54.978559 15997 net.cpp:382] SCNN_U_4_SCNN_U_5/sum_0_split -> SCNN_U_4_SCNN_U_5/sum_0_split_1
I0313 11:01:54.978610 15997 net.cpp:124] Setting up SCNN_U_4_SCNN_U_5/sum_0_split
I0313 11:01:54.978617 15997 net.cpp:131] Top shape: 1 64 1 80 (5120)
I0313 11:01:54.978622 15997 net.cpp:131] Top shape: 1 64 1 80 (5120)
I0313 11:01:54.978626 15997 net.cpp:139] Memory required for data: 329461760
I0313 11:01:54.978628 15997 layer_factory.hpp:77] Creating layer SCNN_U_4
I0313 11:01:54.978636 15997 net.cpp:86] Creating Layer SCNN_U_4
I0313 11:01:54.978641 15997 net.cpp:408] SCNN_U_4 <- SCNN_U_4_SCNN_U_5/sum_0_split_0
I0313 11:01:54.978648 15997 net.cpp:382] SCNN_U_4 -> SCNN_U_4/message
I0313 11:01:54.979753 15997 net.cpp:124] Setting up SCNN_U_4
I0313 11:01:54.979764 15997 net.cpp:131] Top shape: 1 64 1 80 (5120)
I0313 11:01:54.979768 15997 net.cpp:139] Memory required for data: 329482240
I0313 11:01:54.979773 15997 net.cpp:467] Sharing parameters 'SCNN_U_w' owned by layer 'SCNN_U_60', param index 0
I0313 11:01:54.979776 15997 layer_factory.hpp:77] Creating layer SCNN_U_4/relu
I0313 11:01:54.979781 15997 net.cpp:86] Creating Layer SCNN_U_4/relu
I0313 11:01:54.979787 15997 net.cpp:408] SCNN_U_4/relu <- SCNN_U_4/message
I0313 11:01:54.979794 15997 net.cpp:369] SCNN_U_4/relu -> SCNN_U_4/message (in-place)
I0313 11:01:54.980163 15997 net.cpp:124] Setting up SCNN_U_4/relu
I0313 11:01:54.980173 15997 net.cpp:131] Top shape: 1 64 1 80 (5120)
I0313 11:01:54.980177 15997 net.cpp:139] Memory required for data: 329502720
I0313 11:01:54.980180 15997 layer_factory.hpp:77] Creating layer SCNN_U_4/sum
I0313 11:01:54.980185 15997 net.cpp:86] Creating Layer SCNN_U_4/sum
I0313 11:01:54.980191 15997 net.cpp:408] SCNN_U_4/sum <- SCNN_U_4/message
I0313 11:01:54.980201 15997 net.cpp:408] SCNN_U_4/sum <- SCNN_D_3_SCNN_D_2/sum_0_split_1
I0313 11:01:54.980206 15997 net.cpp:382] SCNN_U_4/sum -> SCNN_U_3
I0313 11:01:54.980242 15997 net.cpp:124] Setting up SCNN_U_4/sum
I0313 11:01:54.980250 15997 net.cpp:131] Top shape: 1 64 1 80 (5120)
I0313 11:01:54.980254 15997 net.cpp:139] Memory required for data: 329523200
I0313 11:01:54.980257 15997 layer_factory.hpp:77] Creating layer SCNN_U_3_SCNN_U_4/sum_0_split
I0313 11:01:54.980262 15997 net.cpp:86] Creating Layer SCNN_U_3_SCNN_U_4/sum_0_split
I0313 11:01:54.980268 15997 net.cpp:408] SCNN_U_3_SCNN_U_4/sum_0_split <- SCNN_U_3
I0313 11:01:54.980275 15997 net.cpp:382] SCNN_U_3_SCNN_U_4/sum_0_split -> SCNN_U_3_SCNN_U_4/sum_0_split_0
I0313 11:01:54.980284 15997 net.cpp:382] SCNN_U_3_SCNN_U_4/sum_0_split -> SCNN_U_3_SCNN_U_4/sum_0_split_1
I0313 11:01:54.980335 15997 net.cpp:124] Setting up SCNN_U_3_SCNN_U_4/sum_0_split
I0313 11:01:54.980342 15997 net.cpp:131] Top shape: 1 64 1 80 (5120)
I0313 11:01:54.980347 15997 net.cpp:131] Top shape: 1 64 1 80 (5120)
I0313 11:01:54.980350 15997 net.cpp:139] Memory required for data: 329564160
I0313 11:01:54.980355 15997 layer_factory.hpp:77] Creating layer SCNN_U_3
I0313 11:01:54.980360 15997 net.cpp:86] Creating Layer SCNN_U_3
I0313 11:01:54.980366 15997 net.cpp:408] SCNN_U_3 <- SCNN_U_3_SCNN_U_4/sum_0_split_0
I0313 11:01:54.980373 15997 net.cpp:382] SCNN_U_3 -> SCNN_U_3/message
I0313 11:01:54.982831 15997 net.cpp:124] Setting up SCNN_U_3
I0313 11:01:54.982844 15997 net.cpp:131] Top shape: 1 64 1 80 (5120)
I0313 11:01:54.982848 15997 net.cpp:139] Memory required for data: 329584640
I0313 11:01:54.982868 15997 net.cpp:467] Sharing parameters 'SCNN_U_w' owned by layer 'SCNN_U_60', param index 0
I0313 11:01:54.982873 15997 layer_factory.hpp:77] Creating layer SCNN_U_3/relu
I0313 11:01:54.982882 15997 net.cpp:86] Creating Layer SCNN_U_3/relu
I0313 11:01:54.982887 15997 net.cpp:408] SCNN_U_3/relu <- SCNN_U_3/message
I0313 11:01:54.982894 15997 net.cpp:369] SCNN_U_3/relu -> SCNN_U_3/message (in-place)
I0313 11:01:54.983057 15997 net.cpp:124] Setting up SCNN_U_3/relu
I0313 11:01:54.983064 15997 net.cpp:131] Top shape: 1 64 1 80 (5120)
I0313 11:01:54.983068 15997 net.cpp:139] Memory required for data: 329605120
I0313 11:01:54.983072 15997 layer_factory.hpp:77] Creating layer SCNN_U_3/sum
I0313 11:01:54.983078 15997 net.cpp:86] Creating Layer SCNN_U_3/sum
I0313 11:01:54.983083 15997 net.cpp:408] SCNN_U_3/sum <- SCNN_U_3/message
I0313 11:01:54.983091 15997 net.cpp:408] SCNN_U_3/sum <- SCNN_D_2_SCNN_D_1/sum_0_split_1
I0313 11:01:54.983098 15997 net.cpp:382] SCNN_U_3/sum -> SCNN_U_2
I0313 11:01:54.983135 15997 net.cpp:124] Setting up SCNN_U_3/sum
I0313 11:01:54.983144 15997 net.cpp:131] Top shape: 1 64 1 80 (5120)
I0313 11:01:54.983146 15997 net.cpp:139] Memory required for data: 329625600
I0313 11:01:54.983150 15997 layer_factory.hpp:77] Creating layer SCNN_U_2_SCNN_U_3/sum_0_split
I0313 11:01:54.983155 15997 net.cpp:86] Creating Layer SCNN_U_2_SCNN_U_3/sum_0_split
I0313 11:01:54.983160 15997 net.cpp:408] SCNN_U_2_SCNN_U_3/sum_0_split <- SCNN_U_2
I0313 11:01:54.983166 15997 net.cpp:382] SCNN_U_2_SCNN_U_3/sum_0_split -> SCNN_U_2_SCNN_U_3/sum_0_split_0
I0313 11:01:54.983175 15997 net.cpp:382] SCNN_U_2_SCNN_U_3/sum_0_split -> SCNN_U_2_SCNN_U_3/sum_0_split_1
I0313 11:01:54.983227 15997 net.cpp:124] Setting up SCNN_U_2_SCNN_U_3/sum_0_split
I0313 11:01:54.983233 15997 net.cpp:131] Top shape: 1 64 1 80 (5120)
I0313 11:01:54.983238 15997 net.cpp:131] Top shape: 1 64 1 80 (5120)
I0313 11:01:54.983242 15997 net.cpp:139] Memory required for data: 329666560
I0313 11:01:54.983244 15997 layer_factory.hpp:77] Creating layer SCNN_U_2
I0313 11:01:54.983252 15997 net.cpp:86] Creating Layer SCNN_U_2
I0313 11:01:54.983258 15997 net.cpp:408] SCNN_U_2 <- SCNN_U_2_SCNN_U_3/sum_0_split_0
I0313 11:01:54.983264 15997 net.cpp:382] SCNN_U_2 -> SCNN_U_2/message
I0313 11:01:54.984596 15997 net.cpp:124] Setting up SCNN_U_2
I0313 11:01:54.984609 15997 net.cpp:131] Top shape: 1 64 1 80 (5120)
I0313 11:01:54.984613 15997 net.cpp:139] Memory required for data: 329687040
I0313 11:01:54.984618 15997 net.cpp:467] Sharing parameters 'SCNN_U_w' owned by layer 'SCNN_U_60', param index 0
I0313 11:01:54.984622 15997 layer_factory.hpp:77] Creating layer SCNN_U_2/relu
I0313 11:01:54.984627 15997 net.cpp:86] Creating Layer SCNN_U_2/relu
I0313 11:01:54.984632 15997 net.cpp:408] SCNN_U_2/relu <- SCNN_U_2/message
I0313 11:01:54.984637 15997 net.cpp:369] SCNN_U_2/relu -> SCNN_U_2/message (in-place)
I0313 11:01:54.984797 15997 net.cpp:124] Setting up SCNN_U_2/relu
I0313 11:01:54.984805 15997 net.cpp:131] Top shape: 1 64 1 80 (5120)
I0313 11:01:54.984810 15997 net.cpp:139] Memory required for data: 329707520
I0313 11:01:54.984814 15997 layer_factory.hpp:77] Creating layer SCNN_U_2/sum
I0313 11:01:54.984819 15997 net.cpp:86] Creating Layer SCNN_U_2/sum
I0313 11:01:54.984825 15997 net.cpp:408] SCNN_U_2/sum <- SCNN_U_2/message
I0313 11:01:54.984833 15997 net.cpp:408] SCNN_U_2/sum <- slice1_1_Slice1_0_split_1
I0313 11:01:54.984839 15997 net.cpp:382] SCNN_U_2/sum -> SCNN_U_1
I0313 11:01:54.984876 15997 net.cpp:124] Setting up SCNN_U_2/sum
I0313 11:01:54.984884 15997 net.cpp:131] Top shape: 1 64 1 80 (5120)
I0313 11:01:54.984887 15997 net.cpp:139] Memory required for data: 329728000
I0313 11:01:54.984890 15997 layer_factory.hpp:77] Creating layer Concat1
I0313 11:01:54.984899 15997 net.cpp:86] Creating Layer Concat1
I0313 11:01:54.984905 15997 net.cpp:408] Concat1 <- SCNN_U_1
I0313 11:01:54.984912 15997 net.cpp:408] Concat1 <- SCNN_U_2_SCNN_U_3/sum_0_split_1
I0313 11:01:54.984918 15997 net.cpp:408] Concat1 <- SCNN_U_3_SCNN_U_4/sum_0_split_1
…
I0313 11:01:54.985158 15997 net.cpp:408] Concat1 <- SCNN_U_55_SCNN_U_56/sum_0_split_1
I0313 11:01:54.985162 15997 net.cpp:408] Concat1 <- SCNN_U_56_SCNN_U_57/sum_0_split_1
I0313 11:01:54.985167 15997 net.cpp:408] Concat1 <- SCNN_U_57_SCNN_U_58/sum_0_split_1
I0313 11:01:54.985172 15997 net.cpp:408] Concat1 <- SCNN_U_58_SCNN_U_59/sum_0_split_1
I0313 11:01:54.985177 15997 net.cpp:408] Concat1 <- SCNN_U_59_SCNN_U_60/sum_0_split_1
I0313 11:01:54.985182 15997 net.cpp:408] Concat1 <- SCNN_D_60_SCNN_D_59/sum_0_split_1
I0313 11:01:54.985189 15997 net.cpp:382] Concat1 -> SCNN_U
I0313 11:01:54.985229 15997 net.cpp:124] Setting up Concat1
I0313 11:01:54.985237 15997 net.cpp:131] Top shape: 1 64 60 80 (307200)
I0313 11:01:54.985240 15997 net.cpp:139] Memory required for data: 330956800
I0313 11:01:54.985244 15997 layer_factory.hpp:77] Creating layer conv6
I0313 11:01:54.985250 15997 net.cpp:86] Creating Layer conv6
I0313 11:01:54.985255 15997 net.cpp:408] conv6 <- SCNN_U
I0313 11:01:54.985263 15997 net.cpp:382] conv6 -> conv6
I0313 11:01:54.986388 15997 net.cpp:124] Setting up conv6
I0313 11:01:54.986402 15997 net.cpp:131] Top shape: 1 64 60 80 (307200)
I0313 11:01:54.986407 15997 net.cpp:139] Memory required for data: 332185600
I0313 11:01:54.986413 15997 layer_factory.hpp:77] Creating layer deconv_out
I0313 11:01:54.986423 15997 net.cpp:86] Creating Layer deconv_out
I0313 11:01:54.986429 15997 net.cpp:408] deconv_out <- conv6
I0313 11:01:54.986438 15997 net.cpp:382] deconv_out -> deconv_out
I0313 11:01:54.990768 15997 net.cpp:124] Setting up deconv_out
I0313 11:01:54.990784 15997 net.cpp:131] Top shape: 1 32 480 640 (9830400)
I0313 11:01:54.990788 15997 net.cpp:139] Memory required for data: 371507200
I0313 11:01:54.990795 15997 layer_factory.hpp:77] Creating layer conv_out
I0313 11:01:54.990804 15997 net.cpp:86] Creating Layer conv_out
I0313 11:01:54.990811 15997 net.cpp:408] conv_out <- deconv_out
I0313 11:01:54.990820 15997 net.cpp:382] conv_out -> conv_out
I0313 11:01:54.994292 15997 net.cpp:124] Setting up conv_out
I0313 11:01:54.994314 15997 net.cpp:131] Top shape: 1 13 480 640 (3993600)
I0313 11:01:54.994319 15997 net.cpp:139] Memory required for data: 387481600
I0313 11:01:54.994329 15997 layer_factory.hpp:77] Creating layer softmax
I0313 11:01:54.994338 15997 net.cpp:86] Creating Layer softmax
I0313 11:01:54.994346 15997 net.cpp:408] softmax <- conv_out
I0313 11:01:54.994357 15997 net.cpp:382] softmax -> softmax
I0313 11:01:54.994678 15997 net.cpp:124] Setting up softmax
I0313 11:01:54.994688 15997 net.cpp:131] Top shape: 1 13 480 640 (3993600)
I0313 11:01:54.994693 15997 net.cpp:139] Memory required for data: 403456000
I0313 11:01:54.994695 15997 net.cpp:202] softmax does not need backward computation.
I0313 11:01:54.994699 15997 net.cpp:202] conv_out does not need backward computation.
I0313 11:01:54.994704 15997 net.cpp:202] deconv_out does not need backward computation.
I0313 11:01:54.994707 15997 net.cpp:202] conv6 does not need backward computation.
…
