…
I0313 10:45:28.302366 10269 common.cpp:197] Concurrent copy and execution: Yes
I0313 10:45:28.302368 10269 common.cpp:199] Number of multiprocessors:     10
I0313 10:45:28.302371 10269 common.cpp:200] Kernel execution timeout:      Yes
I0313 10:45:28.321306 10269 net.cpp:53] Initializing net from parameters: 
name: "darknet-16c-16x-3d multitask TEST 960x384, offset L3:440, L4: 312, RM DET"
state {
  phase: TEST
  level: 0
}
layer {
  name: "input"
  type: "Input"
  top: "data"
  input_param {
    shape {
      dim: 1
      dim: 3
      dim: 480
      dim: 640
    }
  }
}
layer {
  name: "scale_data_lane"
  type: "Power"
  bottom: "data"
  top: "scale_data_lane"
  propagate_down: false
  power_param {
    power: 1
    scale: 0.00392157
    shift: 0
  }
}
layer {
  name: "conv1"
  type: "Convolution"
  bottom: "scale_data_lane"
  top: "conv1"
  param {
    lr_mult: 1
    decay_mult: 1
  }
  convolution_param {
    num_output: 16
    bias_term: false
    pad: 1
    kernel_size: 3
    stride: 1
    weight_filler {
      type: "gaussian"
      std: 0.01
    }
    dilation: 1
  }
}
layer {
  name: "conv1_bn"
  type: "BatchNorm"
  bottom: "conv1"
  top: "conv1"
  batch_norm_param {
    use_global_stats: true
    eps: 1e-06
  }
}
layer {
  name: "conv1_scale"
  type: "Scale"
  bottom: "conv1"
  top: "conv1"
  param {
    lr_mult: 1
    decay_mult: 1
  }
  param {
    lr_mult: 1
    decay_mult: 1
  }
  scale_param {
    filler {
      type: "constant"
      value: 1
    }
    bias_term: true
  }
}
layer {
  name: "conv1_relu"
  type: "ReLU"
  bottom: "conv1"
  top: "conv1"
  relu_param {
    negative_slope: 0
  }
}
layer {
  name: "pool1"
  type: "Pooling"
  bottom: "conv1"
  top: "pool1"
  pooling_param {
    pool: MAX
    kernel_size: 2
    stride: 2
    pad: 0
  }
}
layer {
  name: "conv2"
  type: "Convolution"
  bottom: "pool1"
  top: "conv2"
  param {
    lr_mult: 1
    decay_mult: 1
  }
  convolution_param {
    num_output: 32
    bias_term: false
    pad: 1
    kernel_size: 3
    stride: 1
    weight_filler {
      type: "gaussian"
      std: 0.01
    }
    dilation: 1
  }
}
layer {
  name: "conv2_bn"
  type: "BatchNorm"
  bottom: "conv2"
  top: "conv2"
  batch_norm_param {
    use_global_stats: true
    eps: 1e-06
  }
}
layer {
  name: "conv2_scale"
  type: "Scale"
  bottom: "conv2"
  top: "conv2"
  param {
    lr_mult: 1
    decay_mult: 1
  }
  param {
    lr_mult: 1
    decay_mult: 1
  }
  scale_param {
    filler {
      type: "constant"
      value: 1
    }
    bias_term: true
  }
}
layer {
  name: "conv2_relu"
  type: "ReLU"
  bottom: "conv2"
  top: "conv2"
  relu_param {
    negative_slope: 0
  }
}
layer {
  name: "pool2"
  type: "Pooling"
  bottom: "conv2"
  top: "pool2"
  pooling_param {
    pool: MAX
    kernel_size: 2
    stride: 2
    pad: 0
  }
}
layer {
  name: "conv3_1"
  type: "Convolution"
  bottom: "pool2"
  top: "conv3_1"
  param {
    lr_mult: 1
    decay_mult: 1
  }
  convolution_param {
    num_output: 64
    bias_term: false
    pad: 1
    kernel_size: 3
    stride: 1
    weight_filler {
      type: "gaussian"
      std: 0.01
    }
    dilation: 1
  }
}
layer {
  name: "conv3_1_bn"
  type: "BatchNorm"
  bottom: "conv3_1"
  top: "conv3_1"
  batch_norm_param {
    use_global_stats: true
    eps: 1e-06
  }
}
layer {
  name: "conv3_1_scale"
  type: "Scale"
  bottom: "conv3_1"
  top: "conv3_1"
  param {
    lr_mult: 1
    decay_mult: 1
  }
  param {
    lr_mult: 1
    decay_mult: 1
  }
  scale_param {
    filler {
      type: "constant"
      value: 1
    }
    bias_term: true
  }
}
layer {
  name: "conv3_1_relu"
  type: "ReLU"
  bottom: "conv3_1"
  top: "conv3_1"
  relu_param {
    negative_slope: 0
  }
}
layer {
  name: "conv3_2"
  type: "Convolution"
  bottom: "conv3_1"
  top: "conv3_2"
  param {
    lr_mult: 1
    decay_mult: 1
  }
  convolution_param {
    num_output: 32
    bias_term: false
    pad: 0
    kernel_size: 1
    stride: 1
    weight_filler {
      type: "gaussian"
      std: 0.01
    }
    dilation: 1
  }
}
layer {
  name: "conv3_2_bn"
  type: "BatchNorm"
  bottom: "conv3_2"
  top: "conv3_2"
  batch_norm_param {
    use_global_stats: true
    eps: 1e-06
  }
}
layer {
  name: "conv3_2_scale"
  type: "Scale"
  bottom: "conv3_2"
  top: "conv3_2"
  param {
    lr_mult: 1
    decay_mult: 1
  }
  param {
    lr_mult: 1
    decay_mult: 1
  }
  scale_param {
    filler {
      type: "constant"
      value: 1
    }
    bias_term: true
  }
}
layer {
  name: "conv3_2_relu"
  type: "ReLU"
  bottom: "conv3_2"
  top: "conv3_2"
  relu_param {
    negative_slope: 0
  }
}
layer {
  name: "conv3_3"
  type: "Convolution"
  bottom: "conv3_2"
  top: "conv3_3"
  param {
    lr_mult: 1
    decay_mult: 1
  }
  convolution_param {
    num_output: 64
    bias_term: false
    pad: 1
    kernel_size: 3
    stride: 1
    weight_filler {
      type: "gaussian"
      std: 0.01
    }
    dilation: 1
  }
}
layer {
  name: "conv3_3_bn"
  type: "BatchNorm"
  bottom: "conv3_3"
  top: "conv3_3"
  batch_norm_param {
    use_global_stats: true
    eps: 1e-06
  }
}
layer {
  name: "conv3_3_scale"
  type: "Scale"
  bottom: "conv3_3"
  top: "conv3_3"
  param {
    lr_mult: 1
    decay_mult: 1
  }
  param {
    lr_mult: 1
    decay_mult: 1
  }
  scale_param {
    filler {
      type: "constant"
      value: 1
    }
    bias_term: true
  }
}
layer {
  name: "conv3_3_relu"
  type: "ReLU"
  bottom: "conv3_3"
  top: "conv3_3"
  relu_param {
    negative_slope: 0
  }
}
layer {
  name: "pool3"
  type: "Pooling"
  bottom: "conv3_3"
  top: "pool3"
  pooling_param {
    pool: MAX
    kernel_size: 2
    stride: 2
    pad: 0
  }
}
layer {
  name: "conv4_1"
  type: "Convolution"
  bottom: "pool3"
  top: "conv4_1"
  param {
    lr_mult: 1
    decay_mult: 1
  }
  convolution_param {
    num_output: 128
    bias_term: false
    pad: 1
    kernel_size: 3
    stride: 1
    weight_filler {
      type: "gaussian"
      std: 0.01
    }
    dilation: 1
  }
}
layer {
  name: "conv4_1_bn"
  type: "BatchNorm"
  bottom: "conv4_1"
  top: "conv4_1"
  batch_norm_param {
    use_global_stats: true
    eps: 1e-06
  }
}
layer {
  name: "conv4_1_scale"
  type: "Scale"
  bottom: "conv4_1"
  top: "conv4_1"
  param {
    lr_mult: 1
    decay_mult: 1
  }
  param {
    lr_mult: 1
    decay_mult: 1
  }
  scale_param {
    filler {
      type: "constant"
      value: 1
    }
    bias_term: true
  }
}
layer {
  name: "conv4_1_relu"
  type: "ReLU"
  bottom: "conv4_1"
  top: "conv4_1"
  relu_param {
    negative_slope: 0
  }
}
layer {
  name: "conv4_2"
  type: "Convolution"
  bottom: "conv4_1"
  top: "conv4_2"
  param {
    lr_mult: 1
    decay_mult: 1
  }
  convolution_param {
    num_output: 64
    bias_term: false
    pad: 0
    kernel_size: 1
    stride: 1
    weight_filler {
      type: "gaussian"
      std: 0.01
    }
    dilation: 1
  }
}
layer {
  name: "conv4_2_bn"
  type: "BatchNorm"
  bottom: "conv4_2"
  top: "conv4_2"
  batch_norm_param {
    use_global_stats: true
    eps: 1e-06
  }
}
layer {
  name: "conv4_2_scale"
  type: "Scale"
  bottom: "conv4_2"
  top: "conv4_2"
  param {
    lr_mult: 1
    decay_mult: 1
  }
  param {
    lr_mult: 1
    decay_mult: 1
  }
  scale_param {
    filler {
      type: "constant"
      value: 1
    }
    bias_term: true
  }
}
layer {
  name: "conv4_2_relu"
  type: "ReLU"
  bottom: "conv4_2"
  top: "conv4_2"
  relu_param {
    negative_slope: 0
  }
}
layer {
  name: "conv4_3"
  type: "Convolution"
  bottom: "conv4_2"
  top: "conv4_3"
  param {
    lr_mult: 1
    decay_mult: 1
  }
  convolution_param {
    num_output: 128
    bias_term: false
    pad: 1
    kernel_size: 3
    stride: 1
    weight_filler {
      type: "gaussian"
      std: 0.01
    }
    dilation: 1
  }
}
layer {
  name: "conv4_3_bn"
  type: "BatchNorm"
  bottom: "conv4_3"
  top: "conv4_3"
  batch_norm_param {
    use_global_stats: true
    eps: 1e-06
  }
}
layer {
  name: "conv4_3_scale"
  type: "Scale"
  bottom: "conv4_3"
  top: "conv4_3"
  param {
    lr_mult: 1
    decay_mult: 1
  }
  param {
    lr_mult: 1
    decay_mult: 1
  }
  scale_param {
    filler {
      type: "constant"
      value: 1
    }
    bias_term: true
  }
}
layer {
  name: "conv4_3_relu"
  type: "ReLU"
  bottom: "conv4_3"
  top: "conv4_3"
  relu_param {
    negative_slope: 0
  }
}
layer {
  name: "pool4"
  type: "Pooling"
  bottom: "conv4_3"
  top: "pool4"
  pooling_param {
    pool: MAX
    kernel_size: 2
    stride: 2
    pad: 0
  }
}
layer {
  name: "conv5_1"
  type: "Convolution"
  bottom: "pool4"
  top: "conv5_1"
  param {
    lr_mult: 1
    decay_mult: 1
  }
  convolution_param {
    num_output: 256
    bias_term: false
    pad: 1
    kernel_size: 3
    stride: 1
    weight_filler {
      type: "gaussian"
      std: 0.01
    }
    dilation: 1
  }
}
layer {
  name: "conv5_1_bn"
  type: "BatchNorm"
  bottom: "conv5_1"
  top: "conv5_1"
  batch_norm_param {
    use_global_stats: true
    eps: 1e-06
  }
}
layer {
  name: "conv5_1_scale"
  type: "Scale"
  bottom: "conv5_1"
  top: "conv5_1"
  param {
    lr_mult: 1
    decay_mult: 1
  }
  param {
    lr_mult: 1
    decay_mult: 1
  }
  scale_param {
    filler {
      type: "constant"
      value: 1
    }
    bias_term: true
  }
}
layer {
  name: "conv5_1_relu"
  type: "ReLU"
  bottom: "conv5_1"
  top: "conv5_1"
  relu_param {
    negative_slope: 0
  }
}
layer {
  name: "conv5_2"
  type: "Convolution"
  bottom: "conv5_1"
  top: "conv5_2"
  param {
    lr_mult: 1
    decay_mult: 1
  }
  convolution_param {
    num_output: 128
    bias_term: false
    pad: 0
    kernel_size: 1
    stride: 1
    weight_filler {
      type: "gaussian"
      std: 0.01
    }
    dilation: 1
  }
}
layer {
  name: "conv5_2_bn"
  type: "BatchNorm"
  bottom: "conv5_2"
  top: "conv5_2"
  batch_norm_param {
    use_global_stats: true
    eps: 1e-06
  }
}
layer {
  name: "conv5_2_scale"
  type: "Scale"
  bottom: "conv5_2"
  top: "conv5_2"
  param {
    lr_mult: 1
    decay_mult: 1
  }
  param {
    lr_mult: 1
    decay_mult: 1
  }
  scale_param {
    filler {
      type: "constant"
      value: 1
    }
    bias_term: true
  }
}
layer {
  name: "conv5_2_relu"
  type: "ReLU"
  bottom: "conv5_2"
  top: "conv5_2"
  relu_param {
    negative_slope: 0
  }
}
layer {
  name: "conv5_3"
  type: "Convolution"
  bottom: "conv5_2"
  top: "conv5_3"
  param {
    lr_mult: 1
    decay_mult: 1
  }
  convolution_param {
    num_output: 256
    bias_term: false
    pad: 1
    kernel_size: 3
    stride: 1
    weight_filler {
      type: "gaussian"
      std: 0.01
    }
    dilation: 1
  }
}
layer {
  name: "conv5_3_bn"
  type: "BatchNorm"
  bottom: "conv5_3"
  top: "conv5_3"
  batch_norm_param {
    use_global_stats: true
    eps: 1e-06
  }
}
layer {
  name: "conv5_3_scale"
  type: "Scale"
  bottom: "conv5_3"
  top: "conv5_3"
  param {
    lr_mult: 1
    decay_mult: 1
  }
  param {
    lr_mult: 1
    decay_mult: 1
  }
  scale_param {
    filler {
      type: "constant"
      value: 1
    }
    bias_term: true
  }
}
layer {
  name: "conv5_3_relu"
  type: "ReLU"
  bottom: "conv5_3"
  top: "conv5_3"
  relu_param {
    negative_slope: 0
  }
}
layer {
  name: "conv5_4"
  type: "Convolution"
  bottom: "conv5_3"
  top: "conv5_4"
  param {
    lr_mult: 1
    decay_mult: 1
  }
  convolution_param {
    num_output: 128
    bias_term: false
    pad: 0
    kernel_size: 1
    stride: 1
    weight_filler {
      type: "gaussian"
      std: 0.01
    }
    dilation: 1
  }
}
layer {
  name: "conv5_4_bn"
  type: "BatchNorm"
  bottom: "conv5_4"
  top: "conv5_4"
  batch_norm_param {
    use_global_stats: true
    eps: 1e-06
  }
}
layer {
  name: "conv5_4_scale"
  type: "Scale"
  bottom: "conv5_4"
  top: "conv5_4"
  param {
    lr_mult: 1
    decay_mult: 1
  }
  param {
    lr_mult: 1
    decay_mult: 1
  }
  scale_param {
    filler {
      type: "constant"
      value: 1
    }
    bias_term: true
  }
}
layer {
  name: "conv5_4_relu"
  type: "ReLU"
  bottom: "conv5_4"
  top: "conv5_4"
  relu_param {
    negative_slope: 0
  }
}
layer {
  name: "conv5_5"
  type: "Convolution"
  bottom: "conv5_4"
  top: "conv5_5"
  param {
    lr_mult: 1
    decay_mult: 1
  }
  convolution_param {
    num_output: 256
    bias_term: false
    pad: 1
    kernel_size: 3
    stride: 1
    weight_filler {
      type: "gaussian"
      std: 0.01
    }
    dilation: 1
  }
}
layer {
  name: "conv5_5_bn"
  type: "BatchNorm"
  bottom: "conv5_5"
  top: "conv5_5"
  batch_norm_param {
    use_global_stats: true
    eps: 1e-06
  }
}
layer {
  name: "conv5_5_scale"
  type: "Scale"
  bottom: "conv5_5"
  top: "conv5_5"
  param {
    lr_mult: 1
    decay_mult: 1
  }
  param {
    lr_mult: 1
    decay_mult: 1
  }
  scale_param {
    filler {
      type: "constant"
      value: 1
    }
    bias_term: true
  }
}
layer {
  name: "conv5_5_relu"
  type: "ReLU"
  bottom: "conv5_5"
  top: "conv5_5"
  relu_param {
    negative_slope: 0
  }
}
layer {
  name: "pool5"
  type: "Pooling"
  bottom: "conv5_5"
  top: "pool5"
  pooling_param {
    pool: MAX
    kernel_size: 3
    stride: 1
    pad: 1
  }
}
layer {
  name: "conv6_1"
  type: "Convolution"
  bottom: "pool5"
  top: "conv6_1"
  param {
    lr_mult: 1
    decay_mult: 1
  }
  convolution_param {
    num_output: 512
    bias_term: false
    pad: 2
    kernel_size: 3
    stride: 1
    weight_filler {
      type: "gaussian"
      std: 0.01
    }
    dilation: 2
  }
}
layer {
  name: "conv6_1_bn"
  type: "BatchNorm"
  bottom: "conv6_1"
  top: "conv6_1"
  batch_norm_param {
    use_global_stats: true
    eps: 1e-06
  }
}
layer {
  name: "conv6_1_scale"
  type: "Scale"
  bottom: "conv6_1"
  top: "conv6_1"
  param {
    lr_mult: 1
    decay_mult: 1
  }
  param {
    lr_mult: 1
    decay_mult: 1
  }
  scale_param {
    filler {
      type: "constant"
      value: 1
    }
    bias_term: true
  }
}
layer {
  name: "conv6_1_relu"
  type: "ReLU"
  bottom: "conv6_1"
  top: "conv6_1"
  relu_param {
    negative_slope: 0
  }
}
layer {
  name: "conv6_2"
  type: "Convolution"
  bottom: "conv6_1"
  top: "conv6_2"
  param {
    lr_mult: 1
    decay_mult: 1
  }
  convolution_param {
    num_output: 256
    bias_term: false
    pad: 0
    kernel_size: 1
    stride: 1
    weight_filler {
      type: "gaussian"
      std: 0.01
    }
    dilation: 1
  }
}
layer {
  name: "conv6_2_bn"
  type: "BatchNorm"
  bottom: "conv6_2"
  top: "conv6_2"
  batch_norm_param {
    use_global_stats: true
    eps: 1e-06
  }
}
layer {
  name: "conv6_2_scale"
  type: "Scale"
  bottom: "conv6_2"
  top: "conv6_2"
  param {
    lr_mult: 1
    decay_mult: 1
  }
  param {
    lr_mult: 1
    decay_mult: 1
  }
  scale_param {
    filler {
      type: "constant"
      value: 1
    }
    bias_term: true
  }
}
layer {
  name: "conv6_2_relu"
  type: "ReLU"
  bottom: "conv6_2"
  top: "conv6_2"
  relu_param {
    negative_slope: 0
  }
}
layer {
  name: "conv6_3"
  type: "Convolution"
  bottom: "conv6_2"
  top: "conv6_3"
  param {
    lr_mult: 1
    decay_mult: 1
  }
  convolution_param {
    num_output: 512
    bias_term: false
    pad: 1
    kernel_size: 3
    stride: 1
    weight_filler {
      type: "gaussian"
      std: 0.01
    }
    dilation: 1
  }
}
layer {
  name: "conv6_3_bn"
  type: "BatchNorm"
  bottom: "conv6_3"
  top: "conv6_3"
  batch_norm_param {
    use_global_stats: true
    eps: 1e-06
  }
}
layer {
  name: "conv6_3_scale"
  type: "Scale"
  bottom: "conv6_3"
  top: "conv6_3"
  param {
    lr_mult: 1
    decay_mult: 1
  }
  param {
    lr_mult: 1
    decay_mult: 1
  }
  scale_param {
    filler {
      type: "constant"
      value: 1
    }
    bias_term: true
  }
}
layer {
  name: "conv6_3_relu"
  type: "ReLU"
  bottom: "conv6_3"
  top: "conv6_3"
  relu_param {
    negative_slope: 0
  }
}
layer {
  name: "conv6_4"
  type: "Convolution"
  bottom: "conv6_3"
  top: "conv6_4"
  param {
    lr_mult: 1
    decay_mult: 1
  }
  convolution_param {
    num_output: 256
    bias_term: false
    pad: 0
    kernel_size: 1
    stride: 1
    weight_filler {
      type: "gaussian"
      std: 0.01
    }
    dilation: 1
  }
}
layer {
  name: "conv6_4_bn"
  type: "BatchNorm"
  bottom: "conv6_4"
  top: "conv6_4"
  batch_norm_param {
    use_global_stats: true
    eps: 1e-06
  }
}
layer {
  name: "conv6_4_scale"
  type: "Scale"
  bottom: "conv6_4"
  top: "conv6_4"
  param {
    lr_mult: 1
    decay_mult: 1
  }
  param {
    lr_mult: 1
    decay_mult: 1
  }
  scale_param {
    filler {
      type: "constant"
      value: 1
    }
    bias_term: true
  }
}
layer {
  name: "conv6_4_relu"
  type: "ReLU"
  bottom: "conv6_4"
  top: "conv6_4"
  relu_param {
    negative_slope: 0
  }
}
layer {
  name: "conv6_5"
  type: "Convolution"
  bottom: "conv6_4"
  top: "conv6_5"
  param {
    lr_mult: 1
    decay_mult: 1
  }
  convolution_param {
    num_output: 512
    bias_term: false
    pad: 1
    kernel_size: 3
    stride: 1
    weight_filler {
      type: "gaussian"
      std: 0.01
    }
    dilation: 1
  }
}
layer {
  name: "conv6_5_bn"
  type: "BatchNorm"
  bottom: "conv6_5"
  top: "conv6_5"
  batch_norm_param {
    use_global_stats: true
    eps: 1e-06
  }
}
layer {
  name: "conv6_5_scale"
  type: "Scale"
  bottom: "conv6_5"
  top: "conv6_5"
  param {
    lr_mult: 1
    decay_mult: 1
  }
  param {
    lr_mult: 1
    decay_mult: 1
  }
  scale_param {
    filler {
      type: "constant"
      value: 1
    }
    bias_term: true
  }
}
layer {
  name: "conv6_5_relu"
  type: "ReLU"
  bottom: "conv6_5"
  top: "conv6_5"
  relu_param {
    negative_slope: 0
  }
}
layer {
  name: "conv7_1"
  type: "Convolution"
  bottom: "conv6_5"
  top: "conv7_1"
  param {
    lr_mult: 1
    decay_mult: 1
  }
  convolution_param {
    num_output: 512
    bias_term: false
    pad: 1
    kernel_size: 3
    stride: 1
    weight_filler {
      type: "gaussian"
      std: 0.01
    }
    dilation: 1
  }
}
layer {
  name: "conv7_1_bn"
  type: "BatchNorm"
  bottom: "conv7_1"
  top: "conv7_1"
  batch_norm_param {
    use_global_stats: true
    eps: 1e-06
  }
}
layer {
  name: "conv7_1_scale"
  type: "Scale"
  bottom: "conv7_1"
  top: "conv7_1"
  param {
    lr_mult: 1
    decay_mult: 1
  }
  param {
    lr_mult: 1
    decay_mult: 1
  }
  scale_param {
    filler {
      type: "constant"
      value: 1
    }
    bias_term: true
  }
}
layer {
  name: "conv7_1_relu"
  type: "ReLU"
  bottom: "conv7_1"
  top: "conv7_1"
  relu_param {
    negative_slope: 0
  }
}
layer {
  name: "conv7_2"
  type: "Convolution"
  bottom: "conv7_1"
  top: "conv7_2"
  param {
    lr_mult: 1
    decay_mult: 1
  }
  convolution_param {
    num_output: 512
    bias_term: false
    pad: 1
    kernel_size: 3
    stride: 1
    weight_filler {
      type: "gaussian"
      std: 0.01
    }
    dilation: 1
  }
}
layer {
  name: "conv7_2_bn"
  type: "BatchNorm"
  bottom: "conv7_2"
  top: "conv7_2"
  batch_norm_param {
    use_global_stats: true
    eps: 1e-06
  }
}
layer {
  name: "conv7_2_scale"
  type: "Scale"
  bottom: "conv7_2"
  top: "conv7_2"
  param {
    lr_mult: 1
    decay_mult: 1
  }
  param {
    lr_mult: 1
    decay_mult: 1
  }
  scale_param {
    filler {
      type: "constant"
      value: 1
    }
    bias_term: true
  }
}
layer {
  name: "conv7_2_relu"
  type: "ReLU"
  bottom: "conv7_2"
  top: "conv7_2"
  relu_param {
    negative_slope: 0
  }
}
layer {
  name: "concat8"
  type: "Concat"
  bottom: "conv5_5"
  bottom: "conv7_2"
  top: "concat8"
  concat_param {
    axis: 1
  }
}
layer {
  name: "reduce1_lane"
  type: "Convolution"
  bottom: "concat8"
  top: "reduce1_lane"
  param {
    lr_mult: 1
    decay_mult: 1
  }
  convolution_param {
    num_output: 128
    bias_term: false
    pad: 1
    kernel_size: 3
    stride: 1
    weight_filler {
      type: "gaussian"
      std: 0.01
    }
  }
}
layer {
  name: "reduce1_lane_bn"
  type: "BatchNorm"
  bottom: "reduce1_lane"
  top: "reduce1_lane"
  batch_norm_param {
    use_global_stats: true
    eps: 1e-06
  }
}
layer {
  name: "reduce1_lane_scale"
  type: "Scale"
  bottom: "reduce1_lane"
  top: "reduce1_lane"
  scale_param {
    filler {
      type: "constant"
      value: 1
    }
    bias_term: true
  }
}
layer {
  name: "reduce1_lane_relu"
  type: "ReLU"
  bottom: "reduce1_lane"
  top: "reduce1_lane"
  relu_param {
    negative_slope: 0
  }
}
layer {
  name: "deconv1_lane"
  type: "Deconvolution"
  bottom: "reduce1_lane"
  top: "deconv1_lane"
  param {
    lr_mult: 1
    decay_mult: 1
  }
  convolution_param {
    num_output: 64
    pad: 0
    kernel_size: 2
    stride: 2
    weight_filler {
      type: "xavier"
    }
    bias_filler {
      type: "constant"
      value: 0
    }
  }
}
layer {
  name: "deconv1_lane_bn"
  type: "BatchNorm"
  bottom: "deconv1_lane"
  top: "deconv1_lane"
  batch_norm_param {
    use_global_stats: true
    eps: 1e-06
  }
}
layer {
  name: "deconv1_lane_scale"
  type: "Scale"
  bottom: "deconv1_lane"
  top: "deconv1_lane"
  scale_param {
    filler {
      type: "constant"
      value: 1
    }
    bias_term: true
  }
}
layer {
  name: "deconv1_lane_relu"
  type: "ReLU"
  bottom: "deconv1_lane"
  top: "deconv1_lane"
  relu_param {
    negative_slope: 0
  }
}
layer {
  name: "reorg4"
  type: "Convolution"
  bottom: "conv4_3"
  top: "reorg4"
  param {
    lr_mult: 1
    decay_mult: 1
  }
  convolution_param {
    num_output: 64
    bias_term: false
    pad: 1
    kernel_size: 3
    stride: 1
    weight_filler {
      type: "gaussian"
      std: 0.01
    }
  }
}
layer {
  name: "reorg4_relu"
  type: "ReLU"
  bottom: "reorg4"
  top: "reorg4"
  relu_param {
    negative_slope: 0
  }
}
layer {
  name: "concat4"
  type: "Concat"
  bottom: "reorg4"
  bottom: "deconv1_lane"
  top: "concat4"
  concat_param {
    axis: 1
  }
}
layer {
  name: "reduce2_lane"
  type: "Convolution"
  bottom: "concat4"
  top: "reduce2_lane"
  param {
    lr_mult: 1
    decay_mult: 1
  }
  convolution_param {
    num_output: 64
    bias_term: false
    pad: 1
    kernel_size: 3
    stride: 1
    weight_filler {
      type: "gaussian"
      std: 0.01
    }
  }
}
layer {
  name: "reduce2_lane_bn"
  type: "BatchNorm"
  bottom: "reduce2_lane"
  top: "reduce2_lane"
  batch_norm_param {
    use_global_stats: true
    eps: 1e-06
  }
}
layer {
  name: "reduce2_lane_scale"
  type: "Scale"
  bottom: "reduce2_lane"
  top: "reduce2_lane"
  scale_param {
    filler {
      type: "constant"
      value: 1
    }
    bias_term: true
  }
}
layer {
  name: "reduce2_lane_relu"
  type: "ReLU"
  bottom: "reduce2_lane"
  top: "reduce2_lane"
  relu_param {
    negative_slope: 0
  }
}
layer {
  name: "Slice1"
  type: "Slice"
  bottom: "reduce2_lane"
  top: "slice1_1"
  top: "slice1_2"
  top: "slice1_3"
  top: "slice1_4"
  top: "slice1_5"
  top: "slice1_6"
  top: "slice1_7"
  top: "slice1_8"
  top: "slice1_9"
  top: "slice1_10"
  top: "slice1_11"
  top: "slice1_12"
  top: "slice1_13"
  top: "slice1_14"
  top: "slice1_15"
  top: "slice1_16"
  top: "slice1_17"
  top: "slice1_18"
  top: "slice1_19"
  top: "slice1_20"
  top: "slice1_21"
…
    slice_point: 33
    slice_point: 34
    slice_point: 35
    slice_point: 36
    slice_point: 37
    slice_point: 38
    slice_point: 39
    slice_point: 40
    slice_point: 41
    slice_point: 42
    slice_point: 43
    slice_point: 44
    slice_point: 45
    slice_point: 46
    slice_point: 47
    slice_point: 48
    slice_point: 49
    slice_point: 50
    slice_point: 51
    slice_point: 52
    slice_point: 53
    slice_point: 54
    slice_point: 55
    slice_point: 56
    slice_point: 57
    slice_point: 58
    slice_point: 59
    axis: 2
  }
}
layer {
  name: "SCNN_D_1"
  type: "Convolution"
  bottom: "slice1_1"
  top: "SCNN_D_1/message"
  param {
    name: "SCNN_D_w"
    lr_mult: 1
    decay_mult: 1
  }
  convolution_param {
    num_output: 64
    bias_term: false
    stride: 1
    weight_filler {
      type: "gaussian"
      std: 0.03536
    }
    pad_h: 0
    pad_w: 2
    kernel_h: 1
    kernel_w: 5
  }
}
layer {
  name: "SCNN_D_1/relu"
  type: "ReLU"
  bottom: "SCNN_D_1/message"
  top: "SCNN_D_1/message"
}
layer {
  name: "SCNN_D_1/sum"
  type: "Eltwise"
  bottom: "SCNN_D_1/message"
  bottom: "slice1_2"
  top: "SCNN_D_2"
  eltwise_param {
    operation: SUM
  }
}
layer {
  name: "SCNN_D_2"
  type: "Convolution"
  bottom: "SCNN_D_2"
  top: "SCNN_D_2/message"
  param {
    name: "SCNN_D_w"
    lr_mult: 1
    decay_mult: 1
  }
  convolution_param {
    num_output: 64
    bias_term: false
    stride: 1
    weight_filler {
      type: "gaussian"
      std: 0.03536
    }
    pad_h: 0
    pad_w: 2
    kernel_h: 1
    kernel_w: 5
  }
}
layer {
  name: "SCNN_D_2/relu"
  type: "ReLU"
  bottom: "SCNN_D_2/message"
  top: "SCNN_D_2/message"
}
layer {
  name: "SCNN_D_2/sum"
  type: "Eltwise"
  bottom: "SCNN_D_2/message"
  bottom: "slice1_3"
  top: "SCNN_D_3"
  eltwise_param {
    operation: SUM
  }
}
layer {
  name: "SCNN_D_3"
  type: "Convolution"
  bottom: "SCNN_D_3"
  top: "SCNN_D_3/message"
  param {
    name: "SCNN_D_w"
    lr_mult: 1
    decay_mult: 1
  }
  convolution_param {
    num_output: 64
    bias_term: false
    stride: 1
    weight_filler {
      type: "gaussian"
      std: 0.03536
    }
    pad_h: 0
    pad_w: 2
    kernel_h: 1
    kernel_w: 5
  }
}
layer {
  name: "SCNN_D_3/relu"
  type: "ReLU"
  bottom: "SCNN_D_3/message"
  top: "SCNN_D_3/message"
}
layer {
  name: "SCNN_D_3/sum"
  type: "Eltwise"
  bottom: "SCNN_D_3/message"
  bottom: "slice1_4"
  top: "SCNN_D_4"
  eltwise_param {
    operation: SUM
  }
}
layer {
  name: "SCNN_D_4"
  type: "Convolution"
  bottom: "SCNN_D_4"
  top: "SCNN_D_4/message"
  param {
    name: "SCNN_D_w"
    lr_mult: 1
    decay_mult: 1
  }
  convolution_param {
    num_output: 64
    bias_term: false
    stride: 1
    weight_filler {
      type: "gaussian"
      std: 0.03536
    }
    pad_h: 0
    pad_w: 2
    kernel_h: 1
    kernel_w: 5
  }
}
layer {
  name: "SCNN_D_4/relu"
  type: "ReLU"
  bottom: "SCNN_D_4/message"
  top: "SCNN_D_4/message"
}
layer {
  name: "SCNN_D_4/sum"
  type: "Eltwise"
  bottom: "SCNN_D_4/message"
  bottom: "slice1_5"
  top: "SCNN_D_5"
  eltwise_param {
    operation: SUM
  }
}
layer {
  name: "SCNN_D_5"
  type: "Convolution"
  bottom: "SCNN_D_5"
  top: "SCNN_D_5/message"
  param {
    name: "SCNN_D_w"
    lr_mult: 1
    decay_mult: 1
  }
  convolution_param {
    num_output: 64
    bias_term: false
    stride: 1
    weight_filler {
      type: "gaussian"
      std: 0.03536
    }
    pad_h: 0
    pad_w: 2
    kernel_h: 1
    kernel_w: 5
  }
}
layer {
  name: "SCNN_D_5/relu"
  type: "ReLU"
  bottom: "SCNN_D_5/message"
  top: "SCNN_D_5/message"
}
layer {
  name: "SCNN_D_5/sum"
  type: "Eltwise"
  bottom: "SCNN_D_5/message"
  bottom: "slice1_6"
  top: "SCNN_D_6"
  eltwise_param {
    operation: SUM
  }
}
layer {
  name: "SCNN_D_6"
  type: "Convolution"
  bottom: "SCNN_D_6"
  top: "SCNN_D_6/message"
  param {
    name: "SCNN_D_w"
    lr_mult: 1
    decay_mult: 1
  }
  convolution_param {
    num_output: 64
    bias_term: false
    stride: 1
    weight_filler {
      type: "gaussian"
      std: 0.03536
    }
    pad_h: 0
    pad_w: 2
    kernel_h: 1
    kernel_w: 5
  }
}
layer {
  name: "SCNN_D_6/relu"
  type: "ReLU"
  bottom: "SCNN_D_6/message"
  top: "SCNN_D_6/message"
}
layer {
  name: "SCNN_D_6/sum"
  type: "Eltwise"
  bottom: "SCNN_D_6/message"
  bottom: "slice1_7"
  top: "SCNN_D_7"
  eltwise_param {
    operation: SUM
  }
}
layer {
  name: "SCNN_D_7"
  type: "Convolution"
  bottom: "SCNN_D_7"
  top: "SCNN_D_7/message"
  param {
    name: "SCNN_D_w"
    lr_mult: 1
    decay_mult: 1
  }
  convolution_param {
    num_output: 64
    bias_term: false
    stride: 1
    weight_filler {
      type: "gaussian"
      std: 0.03536
    }
    pad_h: 0
    pad_w: 2
    kernel_h: 1
    kernel_w: 5
  }
}
layer {
  name: "SCNN_D_7/relu"
  type: "ReLU"
  bottom: "SCNN_D_7/message"
  top: "SCNN_D_7/message"
}
layer {
  name: "SCNN_D_7/sum"
  type: "Eltwise"
  bottom: "SCNN_D_7/message"
  bottom: "slice1_8"
  top: "SCNN_D_8"
  eltwise_param {
    operation: SUM
  }
}
layer {
  name: "SCNN_D_8"
  type: "Convolution"
  bottom: "SCNN_D_8"
  top: "SCNN_D_8/message"
  param {
    name: "SCNN_D_w"
    lr_mult: 1
    decay_mult: 1
  }
  convolution_param {
    num_output: 64
    bias_term: false
    stride: 1
    weight_filler {
      type: "gaussian"
      std: 0.03536
    }
    pad_h: 0
    pad_w: 2
    kernel_h: 1
    kernel_w: 5
  }
}
layer {
  name: "SCNN_D_8/relu"
  type: "ReLU"
  bottom: "SCNN_D_8/message"
  top: "SCNN_D_8/message"
}
layer {
  name: "SCNN_D_8/sum"
  type: "Eltwise"
  bottom: "SCNN_D_8/message"
  bottom: "slice1_9"
  top: "SCNN_D_9"
  eltwise_param {
    operation: SUM
  }
}
layer {
  name: "SCNN_D_9"
  type: "Convolution"
  bottom: "SCNN_D_9"
  top: "SCNN_D_9/message"
  param {
    name: "SCNN_D_w"
    lr_mult: 1
    decay_mult: 1
  }
  convolution_param {
    num_output: 64
    bias_term: false
    stride: 1
    weight_filler {
      type: "gaussian"
      std: 0.03536
    }
    pad_h: 
I0313 10:45:28.323173 10269 layer_factory.hpp:77] Creating layer input
I0313 10:45:28.323216 10269 net.cpp:86] Creating Layer input
I0313 10:45:28.323247 10269 net.cpp:382] input -> data
I0313 10:45:28.323451 10269 net.cpp:124] Setting up input
I0313 10:45:28.323487 10269 net.cpp:131] Top shape: 1 3 480 640 (921600)
I0313 10:45:28.323491 10269 net.cpp:139] Memory required for data: 3686400
I0313 10:45:28.323508 10269 layer_factory.hpp:77] Creating layer scale_data_lane
I0313 10:45:28.323523 10269 net.cpp:86] Creating Layer scale_data_lane
I0313 10:45:28.323541 10269 net.cpp:408] scale_data_lane <- data
I0313 10:45:28.323562 10269 net.cpp:382] scale_data_lane -> scale_data_lane
I0313 10:45:28.323621 10269 net.cpp:124] Setting up scale_data_lane
I0313 10:45:28.323629 10269 net.cpp:131] Top shape: 1 3 480 640 (921600)
I0313 10:45:28.323633 10269 net.cpp:139] Memory required for data: 7372800
I0313 10:45:28.323637 10269 layer_factory.hpp:77] Creating layer conv1
I0313 10:45:28.323690 10269 net.cpp:86] Creating Layer conv1
I0313 10:45:28.323696 10269 net.cpp:408] conv1 <- scale_data_lane
I0313 10:45:28.323704 10269 net.cpp:382] conv1 -> conv1
I0313 10:45:28.326056 10269 net.cpp:124] Setting up conv1
I0313 10:45:28.326076 10269 net.cpp:131] Top shape: 1 16 480 640 (4915200)
I0313 10:45:28.326079 10269 net.cpp:139] Memory required for data: 27033600
I0313 10:45:28.326119 10269 layer_factory.hpp:77] Creating layer conv1_bn
I0313 10:45:28.326138 10269 net.cpp:86] Creating Layer conv1_bn
I0313 10:45:28.326146 10269 net.cpp:408] conv1_bn <- conv1
I0313 10:45:28.326153 10269 net.cpp:369] conv1_bn -> conv1 (in-place)
I0313 10:45:28.326995 10269 net.cpp:124] Setting up conv1_bn
I0313 10:45:28.327006 10269 net.cpp:131] Top shape: 1 16 480 640 (4915200)
I0313 10:45:28.327015 10269 net.cpp:139] Memory required for data: 46694400
I0313 10:45:28.327028 10269 layer_factory.hpp:77] Creating layer conv1_scale
I0313 10:45:28.327049 10269 net.cpp:86] Creating Layer conv1_scale
I0313 10:45:28.327056 10269 net.cpp:408] conv1_scale <- conv1
I0313 10:45:28.327062 10269 net.cpp:369] conv1_scale -> conv1 (in-place)
I0313 10:45:28.327131 10269 layer_factory.hpp:77] Creating layer conv1_scale
I0313 10:45:28.328577 10269 net.cpp:124] Setting up conv1_scale
I0313 10:45:28.328590 10269 net.cpp:131] Top shape: 1 16 480 640 (4915200)
I0313 10:45:28.328598 10269 net.cpp:139] Memory required for data: 66355200
I0313 10:45:28.328608 10269 layer_factory.hpp:77] Creating layer conv1_relu
I0313 10:45:28.328634 10269 net.cpp:86] Creating Layer conv1_relu
I0313 10:45:28.328641 10269 net.cpp:408] conv1_relu <- conv1
I0313 10:45:28.328649 10269 net.cpp:369] conv1_relu -> conv1 (in-place)
I0313 10:45:28.328860 10269 net.cpp:124] Setting up conv1_relu
I0313 10:45:28.328868 10269 net.cpp:131] Top shape: 1 16 480 640 (4915200)
I0313 10:45:28.328872 10269 net.cpp:139] Memory required for data: 86016000
I0313 10:45:28.328876 10269 layer_factory.hpp:77] Creating layer pool1
I0313 10:45:28.328897 10269 net.cpp:86] Creating Layer pool1
I0313 10:45:28.328904 10269 net.cpp:408] pool1 <- conv1
I0313 10:45:28.328912 10269 net.cpp:382] pool1 -> pool1
I0313 10:45:28.328994 10269 net.cpp:124] Setting up pool1
I0313 10:45:28.329010 10269 net.cpp:131] Top shape: 1 16 240 320 (1228800)
I0313 10:45:28.329015 10269 net.cpp:139] Memory required for data: 90931200
I0313 10:45:28.329017 10269 layer_factory.hpp:77] Creating layer conv2
I0313 10:45:28.329028 10269 net.cpp:86] Creating Layer conv2
I0313 10:45:28.329033 10269 net.cpp:408] conv2 <- pool1
I0313 10:45:28.329041 10269 net.cpp:382] conv2 -> conv2
I0313 10:45:28.330494 10269 net.cpp:124] Setting up conv2
I0313 10:45:28.330513 10269 net.cpp:131] Top shape: 1 32 240 320 (2457600)
I0313 10:45:28.330518 10269 net.cpp:139] Memory required for data: 100761600
I0313 10:45:28.330524 10269 layer_factory.hpp:77] Creating layer conv2_bn
I0313 10:45:28.330534 10269 net.cpp:86] Creating Layer conv2_bn
I0313 10:45:28.330540 10269 net.cpp:408] conv2_bn <- conv2
I0313 10:45:28.330549 10269 net.cpp:369] conv2_bn -> conv2 (in-place)
I0313 10:45:28.330730 10269 net.cpp:124] Setting up conv2_bn
I0313 10:45:28.330736 10269 net.cpp:131] Top shape: 1 32 240 320 (2457600)
I0313 10:45:28.330739 10269 net.cpp:139] Memory required for data: 110592000
I0313 10:45:28.330750 10269 layer_factory.hpp:77] Creating layer conv2_scale
I0313 10:45:28.330757 10269 net.cpp:86] Creating Layer conv2_scale
I0313 10:45:28.330761 10269 net.cpp:408] conv2_scale <- conv2
I0313 10:45:28.330770 10269 net.cpp:369] conv2_scale -> conv2 (in-place)
I0313 10:45:28.330802 10269 layer_factory.hpp:77] Creating layer conv2_scale
I0313 10:45:28.330943 10269 net.cpp:124] Setting up conv2_scale
I0313 10:45:28.330950 10269 net.cpp:131] Top shape: 1 32 240 320 (2457600)
I0313 10:45:28.330953 10269 net.cpp:139] Memory required for data: 120422400
I0313 10:45:28.330960 10269 layer_factory.hpp:77] Creating layer conv2_relu
I0313 10:45:28.330965 10269 net.cpp:86] Creating Layer conv2_relu
I0313 10:45:28.330971 10269 net.cpp:408] conv2_relu <- conv2
I0313 10:45:28.330977 10269 net.cpp:369] conv2_relu -> conv2 (in-place)
I0313 10:45:28.331310 10269 net.cpp:124] Setting up conv2_relu
I0313 10:45:28.331321 10269 net.cpp:131] Top shape: 1 32 240 320 (2457600)
I0313 10:45:28.331326 10269 net.cpp:139] Memory required for data: 130252800
I0313 10:45:28.331329 10269 layer_factory.hpp:77] Creating layer pool2
I0313 10:45:28.331336 10269 net.cpp:86] Creating Layer pool2
I0313 10:45:28.331341 10269 net.cpp:408] pool2 <- conv2
I0313 10:45:28.331348 10269 net.cpp:382] pool2 -> pool2
I0313 10:45:28.331387 10269 net.cpp:124] Setting up pool2
I0313 10:45:28.331395 10269 net.cpp:131] Top shape: 1 32 120 160 (614400)
I0313 10:45:28.331399 10269 net.cpp:139] Memory required for data: 132710400
I0313 10:45:28.331403 10269 layer_factory.hpp:77] Creating layer conv3_1
I0313 10:45:28.331413 10269 net.cpp:86] Creating Layer conv3_1
I0313 10:45:28.331418 10269 net.cpp:408] conv3_1 <- pool2
I0313 10:45:28.331426 10269 net.cpp:382] conv3_1 -> conv3_1
I0313 10:45:28.334128 10269 net.cpp:124] Setting up conv3_1
I0313 10:45:28.334151 10269 net.cpp:131] Top shape: 1 64 120 160 (1228800)
I0313 10:45:28.334154 10269 net.cpp:139] Memory required for data: 137625600
I0313 10:45:28.334163 10269 layer_factory.hpp:77] Creating layer conv3_1_bn
I0313 10:45:28.334170 10269 net.cpp:86] Creating Layer conv3_1_bn
I0313 10:45:28.334177 10269 net.cpp:408] conv3_1_bn <- conv3_1
I0313 10:45:28.334187 10269 net.cpp:369] conv3_1_bn -> conv3_1 (in-place)
I0313 10:45:28.334352 10269 net.cpp:124] Setting up conv3_1_bn
I0313 10:45:28.334358 10269 net.cpp:131] Top shape: 1 64 120 160 (1228800)
I0313 10:45:28.334360 10269 net.cpp:139] Memory required for data: 142540800
I0313 10:45:28.334368 10269 layer_factory.hpp:77] Creating layer conv3_1_scale
I0313 10:45:28.334375 10269 net.cpp:86] Creating Layer conv3_1_scale
I0313 10:45:28.334378 10269 net.cpp:408] conv3_1_scale <- conv3_1
I0313 10:45:28.334386 10269 net.cpp:369] conv3_1_scale -> conv3_1 (in-place)
I0313 10:45:28.334419 10269 layer_factory.hpp:77] Creating layer conv3_1_scale
I0313 10:45:28.334520 10269 net.cpp:124] Setting up conv3_1_scale
I0313 10:45:28.334527 10269 net.cpp:131] Top shape: 1 64 120 160 (1228800)
I0313 10:45:28.334529 10269 net.cpp:139] Memory required for data: 147456000
I0313 10:45:28.334539 10269 layer_factory.hpp:77] Creating layer conv3_1_relu
I0313 10:45:28.334545 10269 net.cpp:86] Creating Layer conv3_1_relu
I0313 10:45:28.334551 10269 net.cpp:408] conv3_1_relu <- conv3_1
I0313 10:45:28.334558 10269 net.cpp:369] conv3_1_relu -> conv3_1 (in-place)
I0313 10:45:28.334879 10269 net.cpp:124] Setting up conv3_1_relu
I0313 10:45:28.334889 10269 net.cpp:131] Top shape: 1 64 120 160 (1228800)
I0313 10:45:28.334898 10269 net.cpp:139] Memory required for data: 152371200
I0313 10:45:28.334908 10269 layer_factory.hpp:77] Creating layer conv3_2
I0313 10:45:28.334919 10269 net.cpp:86] Creating Layer conv3_2
I0313 10:45:28.334925 10269 net.cpp:408] conv3_2 <- conv3_1
I0313 10:45:28.334933 10269 net.cpp:382] conv3_2 -> conv3_2
I0313 10:45:28.336303 10269 net.cpp:124] Setting up conv3_2
I0313 10:45:28.336318 10269 net.cpp:131] Top shape: 1 32 120 160 (614400)
I0313 10:45:28.336324 10269 net.cpp:139] Memory required for data: 154828800
I0313 10:45:28.336331 10269 layer_factory.hpp:77] Creating layer conv3_2_bn
I0313 10:45:28.336338 10269 net.cpp:86] Creating Layer conv3_2_bn
I0313 10:45:28.336344 10269 net.cpp:408] conv3_2_bn <- conv3_2
I0313 10:45:28.336354 10269 net.cpp:369] conv3_2_bn -> conv3_2 (in-place)
I0313 10:45:28.336520 10269 net.cpp:124] Setting up conv3_2_bn
I0313 10:45:28.336527 10269 net.cpp:131] Top shape: 1 32 120 160 (614400)
I0313 10:45:28.336531 10269 net.cpp:139] Memory required for data: 157286400
I0313 10:45:28.336539 10269 layer_factory.hpp:77] Creating layer conv3_2_scale
I0313 10:45:28.336545 10269 net.cpp:86] Creating Layer conv3_2_scale
I0313 10:45:28.336550 10269 net.cpp:408] conv3_2_scale <- conv3_2
I0313 10:45:28.336558 10269 net.cpp:369] conv3_2_scale -> conv3_2 (in-place)
I0313 10:45:28.336591 10269 layer_factory.hpp:77] Creating layer conv3_2_scale
I0313 10:45:28.336695 10269 net.cpp:124] Setting up conv3_2_scale
I0313 10:45:28.336701 10269 net.cpp:131] Top shape: 1 32 120 160 (614400)
I0313 10:45:28.336705 10269 net.cpp:139] Memory required for data: 159744000
I0313 10:45:28.336710 10269 layer_factory.hpp:77] Creating layer conv3_2_relu
I0313 10:45:28.336715 10269 net.cpp:86] Creating Layer conv3_2_relu
I0313 10:45:28.336720 10269 net.cpp:408] conv3_2_relu <- conv3_2
I0313 10:45:28.336725 10269 net.cpp:369] conv3_2_relu -> conv3_2 (in-place)
I0313 10:45:28.336846 10269 net.cpp:124] Setting up conv3_2_relu
I0313 10:45:28.336855 10269 net.cpp:131] Top shape: 1 32 120 160 (614400)
I0313 10:45:28.336858 10269 net.cpp:139] Memory required for data: 162201600
I0313 10:45:28.336860 10269 layer_factory.hpp:77] Creating layer conv3_3
I0313 10:45:28.336876 10269 net.cpp:86] Creating Layer conv3_3
I0313 10:45:28.336882 10269 net.cpp:408] conv3_3 <- conv3_2
I0313 10:45:28.336889 10269 net.cpp:382] conv3_3 -> conv3_3
I0313 10:45:28.337968 10269 net.cpp:124] Setting up conv3_3
I0313 10:45:28.337987 10269 net.cpp:131] Top shape: 1 64 120 160 (1228800)
I0313 10:45:28.337991 10269 net.cpp:139] Memory required for data: 167116800
I0313 10:45:28.338003 10269 layer_factory.hpp:77] Creating layer conv3_3_bn
I0313 10:45:28.338011 10269 net.cpp:86] Creating Layer conv3_3_bn
I0313 10:45:28.338016 10269 net.cpp:408] conv3_3_bn <- conv3_3
I0313 10:45:28.338026 10269 net.cpp:369] conv3_3_bn -> conv3_3 (in-place)
I0313 10:45:28.338191 10269 net.cpp:124] Setting up conv3_3_bn
I0313 10:45:28.338197 10269 net.cpp:131] Top shape: 1 64 120 160 (1228800)
I0313 10:45:28.338201 10269 net.cpp:139] Memory required for data: 172032000
I0313 10:45:28.338209 10269 layer_factory.hpp:77] Creating layer conv3_3_scale
I0313 10:45:28.338215 10269 net.cpp:86] Creating Layer conv3_3_scale
I0313 10:45:28.338220 10269 net.cpp:408] conv3_3_scale <- conv3_3
I0313 10:45:28.338227 10269 net.cpp:369] conv3_3_scale -> conv3_3 (in-place)
I0313 10:45:28.338263 10269 layer_factory.hpp:77] Creating layer conv3_3_scale
I0313 10:45:28.338363 10269 net.cpp:124] Setting up conv3_3_scale
I0313 10:45:28.338369 10269 net.cpp:131] Top shape: 1 64 120 160 (1228800)
I0313 10:45:28.338373 10269 net.cpp:139] Memory required for data: 176947200
I0313 10:45:28.338378 10269 layer_factory.hpp:77] Creating layer conv3_3_relu
I0313 10:45:28.338384 10269 net.cpp:86] Creating Layer conv3_3_relu
I0313 10:45:28.338389 10269 net.cpp:408] conv3_3_relu <- conv3_3
I0313 10:45:28.338395 10269 net.cpp:369] conv3_3_relu -> conv3_3 (in-place)
I0313 10:45:28.338522 10269 net.cpp:124] Setting up conv3_3_relu
I0313 10:45:28.338532 10269 net.cpp:131] Top shape: 1 64 120 160 (1228800)
I0313 10:45:28.338536 10269 net.cpp:139] Memory required for data: 181862400
I0313 10:45:28.338539 10269 layer_factory.hpp:77] Creating layer pool3
I0313 10:45:28.338546 10269 net.cpp:86] Creating Layer pool3
I0313 10:45:28.338551 10269 net.cpp:408] pool3 <- conv3_3
I0313 10:45:28.338558 10269 net.cpp:382] pool3 -> pool3
I0313 10:45:28.338596 10269 net.cpp:124] Setting up pool3
I0313 10:45:28.338605 10269 net.cpp:131] Top shape: 1 64 60 80 (307200)
I0313 10:45:28.338609 10269 net.cpp:139] Memory required for data: 183091200
I0313 10:45:28.338613 10269 layer_factory.hpp:77] Creating layer conv4_1
I0313 10:45:28.338621 10269 net.cpp:86] Creating Layer conv4_1
I0313 10:45:28.338626 10269 net.cpp:408] conv4_1 <- pool3
I0313 10:45:28.338634 10269 net.cpp:382] conv4_1 -> conv4_1
I0313 10:45:28.342172 10269 net.cpp:124] Setting up conv4_1
I0313 10:45:28.342195 10269 net.cpp:131] Top shape: 1 128 60 80 (614400)
I0313 10:45:28.342200 10269 net.cpp:139] Memory required for data: 185548800
I0313 10:45:28.342206 10269 layer_factory.hpp:77] Creating layer conv4_1_bn
I0313 10:45:28.342216 10269 net.cpp:86] Creating Layer conv4_1_bn
I0313 10:45:28.342223 10269 net.cpp:408] conv4_1_bn <- conv4_1
I0313 10:45:28.342233 10269 net.cpp:369] conv4_1_bn -> conv4_1 (in-place)
I0313 10:45:28.342392 10269 net.cpp:124] Setting up conv4_1_bn
I0313 10:45:28.342399 10269 net.cpp:131] Top shape: 1 128 60 80 (614400)
I0313 10:45:28.342403 10269 net.cpp:139] Memory required for data: 188006400
I0313 10:45:28.342417 10269 layer_factory.hpp:77] Creating layer conv4_1_scale
I0313 10:45:28.342427 10269 net.cpp:86] Creating Layer conv4_1_scale
I0313 10:45:28.342432 10269 net.cpp:408] conv4_1_scale <- conv4_1
I0313 10:45:28.342438 10269 net.cpp:369] conv4_1_scale -> conv4_1 (in-place)
I0313 10:45:28.342474 10269 layer_factory.hpp:77] Creating layer conv4_1_scale
I0313 10:45:28.342574 10269 net.cpp:124] Setting up conv4_1_scale
I0313 10:45:28.342581 10269 net.cpp:131] Top shape: 1 128 60 80 (614400)
I0313 10:45:28.342583 10269 net.cpp:139] Memory required for data: 190464000
I0313 10:45:28.342589 10269 layer_factory.hpp:77] Creating layer conv4_1_relu
I0313 10:45:28.342595 10269 net.cpp:86] Creating Layer conv4_1_relu
I0313 10:45:28.342600 10269 net.cpp:408] conv4_1_relu <- conv4_1
I0313 10:45:28.342607 10269 net.cpp:369] conv4_1_relu -> conv4_1 (in-place)
I0313 10:45:28.342738 10269 net.cpp:124] Setting up conv4_1_relu
I0313 10:45:28.342748 10269 net.cpp:131] Top shape: 1 128 60 80 (614400)
I0313 10:45:28.342751 10269 net.cpp:139] Memory required for data: 192921600
I0313 10:45:28.342761 10269 layer_factory.hpp:77] Creating layer conv4_2
I0313 10:45:28.342772 10269 net.cpp:86] Creating Layer conv4_2
I0313 10:45:28.342778 10269 net.cpp:408] conv4_2 <- conv4_1
I0313 10:45:28.342785 10269 net.cpp:382] conv4_2 -> conv4_2
I0313 10:45:28.343719 10269 net.cpp:124] Setting up conv4_2
I0313 10:45:28.343734 10269 net.cpp:131] Top shape: 1 64 60 80 (307200)
I0313 10:45:28.343736 10269 net.cpp:139] Memory required for data: 194150400
I0313 10:45:28.343741 10269 layer_factory.hpp:77] Creating layer conv4_2_bn
I0313 10:45:28.343750 10269 net.cpp:86] Creating Layer conv4_2_bn
I0313 10:45:28.343755 10269 net.cpp:408] conv4_2_bn <- conv4_2
I0313 10:45:28.343763 10269 net.cpp:369] conv4_2_bn -> conv4_2 (in-place)
I0313 10:45:28.343922 10269 net.cpp:124] Setting up conv4_2_bn
I0313 10:45:28.343928 10269 net.cpp:131] Top shape: 1 64 60 80 (307200)
I0313 10:45:28.343930 10269 net.cpp:139] Memory required for data: 195379200
I0313 10:45:28.343938 10269 layer_factory.hpp:77] Creating layer conv4_2_scale
I0313 10:45:28.343945 10269 net.cpp:86] Creating Layer conv4_2_scale
I0313 10:45:28.343950 10269 net.cpp:408] conv4_2_scale <- conv4_2
I0313 10:45:28.343957 10269 net.cpp:369] conv4_2_scale -> conv4_2 (in-place)
I0313 10:45:28.343991 10269 layer_factory.hpp:77] Creating layer conv4_2_scale
I0313 10:45:28.344092 10269 net.cpp:124] Setting up conv4_2_scale
I0313 10:45:28.344099 10269 net.cpp:131] Top shape: 1 64 60 80 (307200)
I0313 10:45:28.344100 10269 net.cpp:139] Memory required for data: 196608000
I0313 10:45:28.344105 10269 layer_factory.hpp:77] Creating layer conv4_2_relu
I0313 10:45:28.344113 10269 net.cpp:86] Creating Layer conv4_2_relu
I0313 10:45:28.344117 10269 net.cpp:408] conv4_2_relu <- conv4_2
I0313 10:45:28.344122 10269 net.cpp:369] conv4_2_relu -> conv4_2 (in-place)
I0313 10:45:28.344444 10269 net.cpp:124] Setting up conv4_2_relu
I0313 10:45:28.344453 10269 net.cpp:131] Top shape: 1 64 60 80 (307200)
I0313 10:45:28.344455 10269 net.cpp:139] Memory required for data: 197836800
I0313 10:45:28.344458 10269 layer_factory.hpp:77] Creating layer conv4_3
I0313 10:45:28.344465 10269 net.cpp:86] Creating Layer conv4_3
I0313 10:45:28.344470 10269 net.cpp:408] conv4_3 <- conv4_2
I0313 10:45:28.344477 10269 net.cpp:382] conv4_3 -> conv4_3
I0313 10:45:28.346747 10269 net.cpp:124] Setting up conv4_3
I0313 10:45:28.346762 10269 net.cpp:131] Top shape: 1 128 60 80 (614400)
I0313 10:45:28.346765 10269 net.cpp:139] Memory required for data: 200294400
I0313 10:45:28.346771 10269 layer_factory.hpp:77] Creating layer conv4_3_bn
I0313 10:45:28.346777 10269 net.cpp:86] Creating Layer conv4_3_bn
I0313 10:45:28.346784 10269 net.cpp:408] conv4_3_bn <- conv4_3
I0313 10:45:28.346792 10269 net.cpp:369] conv4_3_bn -> conv4_3 (in-place)
I0313 10:45:28.346952 10269 net.cpp:124] Setting up conv4_3_bn
I0313 10:45:28.346959 10269 net.cpp:131] Top shape: 1 128 60 80 (614400)
I0313 10:45:28.346966 10269 net.cpp:139] Memory required for data: 202752000
I0313 10:45:28.346976 10269 layer_factory.hpp:77] Creating layer conv4_3_scale
I0313 10:45:28.346983 10269 net.cpp:86] Creating Layer conv4_3_scale
I0313 10:45:28.346987 10269 net.cpp:408] conv4_3_scale <- conv4_3
I0313 10:45:28.346994 10269 net.cpp:369] conv4_3_scale -> conv4_3 (in-place)
I0313 10:45:28.347028 10269 layer_factory.hpp:77] Creating layer conv4_3_scale
I0313 10:45:28.347120 10269 net.cpp:124] Setting up conv4_3_scale
I0313 10:45:28.347127 10269 net.cpp:131] Top shape: 1 128 60 80 (614400)
I0313 10:45:28.347131 10269 net.cpp:139] Memory required for data: 205209600
I0313 10:45:28.347134 10269 layer_factory.hpp:77] Creating layer conv4_3_relu
I0313 10:45:28.347141 10269 net.cpp:86] Creating Layer conv4_3_relu
I0313 10:45:28.347144 10269 net.cpp:408] conv4_3_relu <- conv4_3
I0313 10:45:28.347151 10269 net.cpp:369] conv4_3_relu -> conv4_3 (in-place)
I0313 10:45:28.347276 10269 net.cpp:124] Setting up conv4_3_relu
I0313 10:45:28.347283 10269 net.cpp:131] Top shape: 1 128 60 80 (614400)
I0313 10:45:28.347286 10269 net.cpp:139] Memory required for data: 207667200
I0313 10:45:28.347288 10269 layer_factory.hpp:77] Creating layer conv4_3_conv4_3_relu_0_split
I0313 10:45:28.347295 10269 net.cpp:86] Creating Layer conv4_3_conv4_3_relu_0_split
I0313 10:45:28.347301 10269 net.cpp:408] conv4_3_conv4_3_relu_0_split <- conv4_3
I0313 10:45:28.347306 10269 net.cpp:382] conv4_3_conv4_3_relu_0_split -> conv4_3_conv4_3_relu_0_split_0
I0313 10:45:28.347317 10269 net.cpp:382] conv4_3_conv4_3_relu_0_split -> conv4_3_conv4_3_relu_0_split_1
I0313 10:45:28.347378 10269 net.cpp:124] Setting up conv4_3_conv4_3_relu_0_split
I0313 10:45:28.347388 10269 net.cpp:131] Top shape: 1 128 60 80 (614400)
I0313 10:45:28.347393 10269 net.cpp:131] Top shape: 1 128 60 80 (614400)
I0313 10:45:28.347395 10269 net.cpp:139] Memory required for data: 212582400
I0313 10:45:28.347399 10269 layer_factory.hpp:77] Creating layer pool4
I0313 10:45:28.347404 10269 net.cpp:86] Creating Layer pool4
I0313 10:45:28.347409 10269 net.cpp:408] pool4 <- conv4_3_conv4_3_relu_0_split_0
I0313 10:45:28.347434 10269 net.cpp:382] pool4 -> pool4
I0313 10:45:28.347467 10269 net.cpp:124] Setting up pool4
I0313 10:45:28.347476 10269 net.cpp:131] Top shape: 1 128 30 40 (153600)
I0313 10:45:28.347479 10269 net.cpp:139] Memory required for data: 213196800
I0313 10:45:28.347482 10269 layer_factory.hpp:77] Creating layer conv5_1
I0313 10:45:28.347491 10269 net.cpp:86] Creating Layer conv5_1
I0313 10:45:28.347496 10269 net.cpp:408] conv5_1 <- pool4
I0313 10:45:28.347504 10269 net.cpp:382] conv5_1 -> conv5_1
I0313 10:45:28.355588 10269 net.cpp:124] Setting up conv5_1
I0313 10:45:28.355621 10269 net.cpp:131] Top shape: 1 256 30 40 (307200)
I0313 10:45:28.355625 10269 net.cpp:139] Memory required for data: 214425600
I0313 10:45:28.355633 10269 layer_factory.hpp:77] Creating layer conv5_1_bn
I0313 10:45:28.355643 10269 net.cpp:86] Creating Layer conv5_1_bn
I0313 10:45:28.355654 10269 net.cpp:408] conv5_1_bn <- conv5_1
I0313 10:45:28.355662 10269 net.cpp:369] conv5_1_bn -> conv5_1 (in-place)
I0313 10:45:28.355818 10269 net.cpp:124] Setting up conv5_1_bn
I0313 10:45:28.355824 10269 net.cpp:131] Top shape: 1 256 30 40 (307200)
I0313 10:45:28.355829 10269 net.cpp:139] Memory required for data: 215654400
I0313 10:45:28.355836 10269 layer_factory.hpp:77] Creating layer conv5_1_scale
I0313 10:45:28.355844 10269 net.cpp:86] Creating Layer conv5_1_scale
I0313 10:45:28.355849 10269 net.cpp:408] conv5_1_scale <- conv5_1
I0313 10:45:28.355854 10269 net.cpp:369] conv5_1_scale -> conv5_1 (in-place)
I0313 10:45:28.355888 10269 layer_factory.hpp:77] Creating layer conv5_1_scale
I0313 10:45:28.355980 10269 net.cpp:124] Setting up conv5_1_scale
I0313 10:45:28.355988 10269 net.cpp:131] Top shape: 1 256 30 40 (307200)
I0313 10:45:28.355990 10269 net.cpp:139] Memory required for data: 216883200
I0313 10:45:28.355995 10269 layer_factory.hpp:77] Creating layer conv5_1_relu
I0313 10:45:28.356000 10269 net.cpp:86] Creating Layer conv5_1_relu
I0313 10:45:28.356006 10269 net.cpp:408] conv5_1_relu <- conv5_1
I0313 10:45:28.356011 10269 net.cpp:369] conv5_1_relu -> conv5_1 (in-place)
I0313 10:45:28.356137 10269 net.cpp:124] Setting up conv5_1_relu
I0313 10:45:28.356145 10269 net.cpp:131] Top shape: 1 256 30 40 (307200)
I0313 10:45:28.356149 10269 net.cpp:139] Memory required for data: 218112000
I0313 10:45:28.356153 10269 layer_factory.hpp:77] Creating layer conv5_2
I0313 10:45:28.356160 10269 net.cpp:86] Creating Layer conv5_2
I0313 10:45:28.356165 10269 net.cpp:408] conv5_2 <- conv5_1
I0313 10:45:28.356171 10269 net.cpp:382] conv5_2 -> conv5_2
I0313 10:45:28.357492 10269 net.cpp:124] Setting up conv5_2
I0313 10:45:28.357506 10269 net.cpp:131] Top shape: 1 128 30 40 (153600)
I0313 10:45:28.357509 10269 net.cpp:139] Memory required for data: 218726400
I0313 10:45:28.357515 10269 layer_factory.hpp:77] Creating layer conv5_2_bn
I0313 10:45:28.357522 10269 net.cpp:86] Creating Layer conv5_2_bn
I0313 10:45:28.357527 10269 net.cpp:408] conv5_2_bn <- conv5_2
I0313 10:45:28.357535 10269 net.cpp:369] conv5_2_bn -> conv5_2 (in-place)
I0313 10:45:28.357686 10269 net.cpp:124] Setting up conv5_2_bn
I0313 10:45:28.357692 10269 net.cpp:131] Top shape: 1 128 30 40 (153600)
I0313 10:45:28.357697 10269 net.cpp:139] Memory required for data: 219340800
I0313 10:45:28.357704 10269 layer_factory.hpp:77] Creating layer conv5_2_scale
I0313 10:45:28.357710 10269 net.cpp:86] Creating Layer conv5_2_scale
I0313 10:45:28.357715 10269 net.cpp:408] conv5_2_scale <- conv5_2
I0313 10:45:28.357722 10269 net.cpp:369] conv5_2_scale -> conv5_2 (in-place)
I0313 10:45:28.357754 10269 layer_factory.hpp:77] Creating layer conv5_2_scale
I0313 10:45:28.357841 10269 net.cpp:124] Setting up conv5_2_scale
I0313 10:45:28.357848 10269 net.cpp:131] Top shape: 1 128 30 40 (153600)
I0313 10:45:28.357852 10269 net.cpp:139] Memory required for data: 219955200
I0313 10:45:28.357856 10269 layer_factory.hpp:77] Creating layer conv5_2_relu
I0313 10:45:28.357861 10269 net.cpp:86] Creating Layer conv5_2_relu
I0313 10:45:28.357867 10269 net.cpp:408] conv5_2_relu <- conv5_2
I0313 10:45:28.357873 10269 net.cpp:369] conv5_2_relu -> conv5_2 (in-place)
I0313 10:45:28.357995 10269 net.cpp:124] Setting up conv5_2_relu
I0313 10:45:28.358002 10269 net.cpp:131] Top shape: 1 128 30 40 (153600)
I0313 10:45:28.358006 10269 net.cpp:139] Memory required for data: 220569600
I0313 10:45:28.358009 10269 layer_factory.hpp:77] Creating layer conv5_3
I0313 10:45:28.358017 10269 net.cpp:86] Creating Layer conv5_3
I0313 10:45:28.358023 10269 net.cpp:408] conv5_3 <- conv5_2
I0313 10:45:28.358031 10269 net.cpp:382] conv5_3 -> conv5_3
I0313 10:45:28.368325 10269 net.cpp:124] Setting up conv5_3
I0313 10:45:28.368347 10269 net.cpp:131] Top shape: 1 256 30 40 (307200)
I0313 10:45:28.368355 10269 net.cpp:139] Memory required for data: 221798400
I0313 10:45:28.368362 10269 layer_factory.hpp:77] Creating layer conv5_3_bn
I0313 10:45:28.368371 10269 net.cpp:86] Creating Layer conv5_3_bn
I0313 10:45:28.368381 10269 net.cpp:408] conv5_3_bn <- conv5_3
I0313 10:45:28.368391 10269 net.cpp:369] conv5_3_bn -> conv5_3 (in-place)
I0313 10:45:28.368600 10269 net.cpp:124] Setting up conv5_3_bn
I0313 10:45:28.368608 10269 net.cpp:131] Top shape: 1 256 30 40 (307200)
I0313 10:45:28.368614 10269 net.cpp:139] Memory required for data: 223027200
I0313 10:45:28.368625 10269 layer_factory.hpp:77] Creating layer conv5_3_scale
I0313 10:45:28.368634 10269 net.cpp:86] Creating Layer conv5_3_scale
I0313 10:45:28.368641 10269 net.cpp:408] conv5_3_scale <- conv5_3
I0313 10:45:28.368650 10269 net.cpp:369] conv5_3_scale -> conv5_3 (in-place)
I0313 10:45:28.368695 10269 layer_factory.hpp:77] Creating layer conv5_3_scale
I0313 10:45:28.368813 10269 net.cpp:124] Setting up conv5_3_scale
I0313 10:45:28.368822 10269 net.cpp:131] Top shape: 1 256 30 40 (307200)
I0313 10:45:28.368827 10269 net.cpp:139] Memory required for data: 224256000
I0313 10:45:28.368849 10269 layer_factory.hpp:77] Creating layer conv5_3_relu
I0313 10:45:28.368856 10269 net.cpp:86] Creating Layer conv5_3_relu
I0313 10:45:28.368863 10269 net.cpp:408] conv5_3_relu <- conv5_3
I0313 10:45:28.368871 10269 net.cpp:369] conv5_3_relu -> conv5_3 (in-place)
I0313 10:45:28.369035 10269 net.cpp:124] Setting up conv5_3_relu
I0313 10:45:28.369046 10269 net.cpp:131] Top shape: 1 256 30 40 (307200)
I0313 10:45:28.369052 10269 net.cpp:139] Memory required for data: 225484800
I0313 10:45:28.369057 10269 layer_factory.hpp:77] Creating layer conv5_4
I0313 10:45:28.369069 10269 net.cpp:86] Creating Layer conv5_4
I0313 10:45:28.369074 10269 net.cpp:408] conv5_4 <- conv5_3
I0313 10:45:28.369082 10269 net.cpp:382] conv5_4 -> conv5_4
I0313 10:45:28.370541 10269 net.cpp:124] Setting up conv5_4
I0313 10:45:28.370554 10269 net.cpp:131] Top shape: 1 128 30 40 (153600)
I0313 10:45:28.370558 10269 net.cpp:139] Memory required for data: 226099200
I0313 10:45:28.370563 10269 layer_factory.hpp:77] Creating layer conv5_4_bn
I0313 10:45:28.370568 10269 net.cpp:86] Creating Layer conv5_4_bn
I0313 10:45:28.370574 10269 net.cpp:408] conv5_4_bn <- conv5_4
I0313 10:45:28.370581 10269 net.cpp:369] conv5_4_bn -> conv5_4 (in-place)
I0313 10:45:28.370729 10269 net.cpp:124] Setting up conv5_4_bn
I0313 10:45:28.370735 10269 net.cpp:131] Top shape: 1 128 30 40 (153600)
I0313 10:45:28.370738 10269 net.cpp:139] Memory required for data: 226713600
I0313 10:45:28.370746 10269 layer_factory.hpp:77] Creating layer conv5_4_scale
I0313 10:45:28.370752 10269 net.cpp:86] Creating Layer conv5_4_scale
I0313 10:45:28.370757 10269 net.cpp:408] conv5_4_scale <- conv5_4
I0313 10:45:28.370764 10269 net.cpp:369] conv5_4_scale -> conv5_4 (in-place)
I0313 10:45:28.370795 10269 layer_factory.hpp:77] Creating layer conv5_4_scale
I0313 10:45:28.370880 10269 net.cpp:124] Setting up conv5_4_scale
I0313 10:45:28.370887 10269 net.cpp:131] Top shape: 1 128 30 40 (153600)
I0313 10:45:28.370889 10269 net.cpp:139] Memory required for data: 227328000
I0313 10:45:28.370894 10269 layer_factory.hpp:77] Creating layer conv5_4_relu
I0313 10:45:28.370899 10269 net.cpp:86] Creating Layer conv5_4_relu
I0313 10:45:28.370904 10269 net.cpp:408] conv5_4_relu <- conv5_4
I0313 10:45:28.370910 10269 net.cpp:369] conv5_4_relu -> conv5_4 (in-place)
I0313 10:45:28.372157 10269 net.cpp:124] Setting up conv5_4_relu
I0313 10:45:28.372169 10269 net.cpp:131] Top shape: 1 128 30 40 (153600)
I0313 10:45:28.372171 10269 net.cpp:139] Memory required for data: 227942400
I0313 10:45:28.372175 10269 layer_factory.hpp:77] Creating layer conv5_5
I0313 10:45:28.372184 10269 net.cpp:86] Creating Layer conv5_5
I0313 10:45:28.372191 10269 net.cpp:408] conv5_5 <- conv5_4
I0313 10:45:28.372198 10269 net.cpp:382] conv5_5 -> conv5_5
I0313 10:45:28.379290 10269 net.cpp:124] Setting up conv5_5
I0313 10:45:28.379323 10269 net.cpp:131] Top shape: 1 256 30 40 (307200)
I0313 10:45:28.379325 10269 net.cpp:139] Memory required for data: 229171200
I0313 10:45:28.379333 10269 layer_factory.hpp:77] Creating layer conv5_5_bn
I0313 10:45:28.379343 10269 net.cpp:86] Creating Layer conv5_5_bn
I0313 10:45:28.379353 10269 net.cpp:408] conv5_5_bn <- conv5_5
I0313 10:45:28.379364 10269 net.cpp:369] conv5_5_bn -> conv5_5 (in-place)
I0313 10:45:28.379539 10269 net.cpp:124] Setting up conv5_5_bn
I0313 10:45:28.379545 10269 net.cpp:131] Top shape: 1 256 30 40 (307200)
I0313 10:45:28.379549 10269 net.cpp:139] Memory required for data: 230400000
I0313 10:45:28.379557 10269 layer_factory.hpp:77] Creating layer conv5_5_scale
I0313 10:45:28.379562 10269 net.cpp:86] Creating Layer conv5_5_scale
I0313 10:45:28.379566 10269 net.cpp:408] conv5_5_scale <- conv5_5
I0313 10:45:28.379576 10269 net.cpp:369] conv5_5_scale -> conv5_5 (in-place)
I0313 10:45:28.379616 10269 layer_factory.hpp:77] Creating layer conv5_5_scale
I0313 10:45:28.379714 10269 net.cpp:124] Setting up conv5_5_scale
I0313 10:45:28.379720 10269 net.cpp:131] Top shape: 1 256 30 40 (307200)
I0313 10:45:28.379724 10269 net.cpp:139] Memory required for data: 231628800
I0313 10:45:28.379727 10269 layer_factory.hpp:77] Creating layer conv5_5_relu
I0313 10:45:28.379732 10269 net.cpp:86] Creating Layer conv5_5_relu
I0313 10:45:28.379736 10269 net.cpp:408] conv5_5_relu <- conv5_5
I0313 10:45:28.379741 10269 net.cpp:369] conv5_5_relu -> conv5_5 (in-place)
I0313 10:45:28.379875 10269 net.cpp:124] Setting up conv5_5_relu
I0313 10:45:28.379882 10269 net.cpp:131] Top shape: 1 256 30 40 (307200)
I0313 10:45:28.379885 10269 net.cpp:139] Memory required for data: 232857600
I0313 10:45:28.379887 10269 layer_factory.hpp:77] Creating layer conv5_5_conv5_5_relu_0_split
I0313 10:45:28.379891 10269 net.cpp:86] Creating Layer conv5_5_conv5_5_relu_0_split
I0313 10:45:28.379895 10269 net.cpp:408] conv5_5_conv5_5_relu_0_split <- conv5_5
I0313 10:45:28.379901 10269 net.cpp:382] conv5_5_conv5_5_relu_0_split -> conv5_5_conv5_5_relu_0_split_0
I0313 10:45:28.379912 10269 net.cpp:382] conv5_5_conv5_5_relu_0_split -> conv5_5_conv5_5_relu_0_split_1
I0313 10:45:28.379951 10269 net.cpp:124] Setting up conv5_5_conv5_5_relu_0_split
I0313 10:45:28.379959 10269 net.cpp:131] Top shape: 1 256 30 40 (307200)
I0313 10:45:28.379964 10269 net.cpp:131] Top shape: 1 256 30 40 (307200)
I0313 10:45:28.379968 10269 net.cpp:139] Memory required for data: 235315200
I0313 10:45:28.379971 10269 layer_factory.hpp:77] Creating layer pool5
I0313 10:45:28.379976 10269 net.cpp:86] Creating Layer pool5
I0313 10:45:28.379981 10269 net.cpp:408] pool5 <- conv5_5_conv5_5_relu_0_split_0
I0313 10:45:28.379989 10269 net.cpp:382] pool5 -> pool5
I0313 10:45:28.380026 10269 net.cpp:124] Setting up pool5
I0313 10:45:28.380033 10269 net.cpp:131] Top shape: 1 256 30 40 (307200)
I0313 10:45:28.380035 10269 net.cpp:139] Memory required for data: 236544000
I0313 10:45:28.380038 10269 layer_factory.hpp:77] Creating layer conv6_1
I0313 10:45:28.380048 10269 net.cpp:86] Creating Layer conv6_1
I0313 10:45:28.380054 10269 net.cpp:408] conv6_1 <- pool5
I0313 10:45:28.380060 10269 net.cpp:382] conv6_1 -> conv6_1
I0313 10:45:28.402963 10269 net.cpp:124] Setting up conv6_1
I0313 10:45:28.402992 10269 net.cpp:131] Top shape: 1 512 30 40 (614400)
I0313 10:45:28.403002 10269 net.cpp:139] Memory required for data: 239001600
I0313 10:45:28.403012 10269 layer_factory.hpp:77] Creating layer conv6_1_bn
I0313 10:45:28.403019 10269 net.cpp:86] Creating Layer conv6_1_bn
I0313 10:45:28.403029 10269 net.cpp:408] conv6_1_bn <- conv6_1
I0313 10:45:28.403039 10269 net.cpp:369] conv6_1_bn -> conv6_1 (in-place)
I0313 10:45:28.403218 10269 net.cpp:124] Setting up conv6_1_bn
I0313 10:45:28.403225 10269 net.cpp:131] Top shape: 1 512 30 40 (614400)
I0313 10:45:28.403229 10269 net.cpp:139] Memory required for data: 241459200
I0313 10:45:28.403236 10269 layer_factory.hpp:77] Creating layer conv6_1_scale
I0313 10:45:28.403244 10269 net.cpp:86] Creating Layer conv6_1_scale
I0313 10:45:28.403247 10269 net.cpp:408] conv6_1_scale <- conv6_1
I0313 10:45:28.403252 10269 net.cpp:369] conv6_1_scale -> conv6_1 (in-place)
I0313 10:45:28.403282 10269 layer_factory.hpp:77] Creating layer conv6_1_scale
I0313 10:45:28.403383 10269 net.cpp:124] Setting up conv6_1_scale
I0313 10:45:28.403389 10269 net.cpp:131] Top shape: 1 512 30 40 (614400)
I0313 10:45:28.403393 10269 net.cpp:139] Memory required for data: 243916800
I0313 10:45:28.403398 10269 layer_factory.hpp:77] Creating layer conv6_1_relu
I0313 10:45:28.403412 10269 net.cpp:86] Creating Layer conv6_1_relu
I0313 10:45:28.403419 10269 net.cpp:408] conv6_1_relu <- conv6_1
I0313 10:45:28.403424 10269 net.cpp:369] conv6_1_relu -> conv6_1 (in-place)
I0313 10:45:28.403604 10269 net.cpp:124] Setting up conv6_1_relu
I0313 10:45:28.403614 10269 net.cpp:131] Top shape: 1 512 30 40 (614400)
I0313 10:45:28.403617 10269 net.cpp:139] Memory required for data: 246374400
I0313 10:45:28.403622 10269 layer_factory.hpp:77] Creating layer conv6_2
I0313 10:45:28.403633 10269 net.cpp:86] Creating Layer conv6_2
I0313 10:45:28.403638 10269 net.cpp:408] conv6_2 <- conv6_1
I0313 10:45:28.403645 10269 net.cpp:382] conv6_2 -> conv6_2
I0313 10:45:28.406838 10269 net.cpp:124] Setting up conv6_2
I0313 10:45:28.406852 10269 net.cpp:131] Top shape: 1 256 30 40 (307200)
I0313 10:45:28.406857 10269 net.cpp:139] Memory required for data: 247603200
I0313 10:45:28.406862 10269 layer_factory.hpp:77] Creating layer conv6_2_bn
I0313 10:45:28.406867 10269 net.cpp:86] Creating Layer conv6_2_bn
I0313 10:45:28.406873 10269 net.cpp:408] conv6_2_bn <- conv6_2
I0313 10:45:28.406882 10269 net.cpp:369] conv6_2_bn -> conv6_2 (in-place)
I0313 10:45:28.407047 10269 net.cpp:124] Setting up conv6_2_bn
I0313 10:45:28.407053 10269 net.cpp:131] Top shape: 1 256 30 40 (307200)
I0313 10:45:28.407058 10269 net.cpp:139] Memory required for data: 248832000
I0313 10:45:28.407065 10269 layer_factory.hpp:77] Creating layer conv6_2_scale
I0313 10:45:28.407069 10269 net.cpp:86] Creating Layer conv6_2_scale
I0313 10:45:28.407073 10269 net.cpp:408] conv6_2_scale <- conv6_2
I0313 10:45:28.407078 10269 net.cpp:369] conv6_2_scale -> conv6_2 (in-place)
I0313 10:45:28.407111 10269 layer_factory.hpp:77] Creating layer conv6_2_scale
I0313 10:45:28.407207 10269 net.cpp:124] Setting up conv6_2_scale
I0313 10:45:28.407212 10269 net.cpp:131] Top shape: 1 256 30 40 (307200)
I0313 10:45:28.407220 10269 net.cpp:139] Memory required for data: 250060800
I0313 10:45:28.407227 10269 layer_factory.hpp:77] Creating layer conv6_2_relu
I0313 10:45:28.407232 10269 net.cpp:86] Creating Layer conv6_2_relu
I0313 10:45:28.407238 10269 net.cpp:408] conv6_2_relu <- conv6_2
I0313 10:45:28.407244 10269 net.cpp:369] conv6_2_relu -> conv6_2 (in-place)
I0313 10:45:28.407377 10269 net.cpp:124] Setting up conv6_2_relu
I0313 10:45:28.407387 10269 net.cpp:131] Top shape: 1 256 30 40 (307200)
I0313 10:45:28.407389 10269 net.cpp:139] Memory required for data: 251289600
I0313 10:45:28.407397 10269 layer_factory.hpp:77] Creating layer conv6_3
I0313 10:45:28.407405 10269 net.cpp:86] Creating Layer conv6_3
I0313 10:45:28.407410 10269 net.cpp:408] conv6_3 <- conv6_2
I0313 10:45:28.407416 10269 net.cpp:382] conv6_3 -> conv6_3
I0313 10:45:28.430811 10269 net.cpp:124] Setting up conv6_3
I0313 10:45:28.430835 10269 net.cpp:131] Top shape: 1 512 30 40 (614400)
I0313 10:45:28.430837 10269 net.cpp:139] Memory required for data: 253747200
I0313 10:45:28.430845 10269 layer_factory.hpp:77] Creating layer conv6_3_bn
I0313 10:45:28.430851 10269 net.cpp:86] Creating Layer conv6_3_bn
I0313 10:45:28.430857 10269 net.cpp:408] conv6_3_bn <- conv6_3
I0313 10:45:28.430864 10269 net.cpp:369] conv6_3_bn -> conv6_3 (in-place)
I0313 10:45:28.431038 10269 net.cpp:124] Setting up conv6_3_bn
I0313 10:45:28.431046 10269 net.cpp:131] Top shape: 1 512 30 40 (614400)
I0313 10:45:28.431047 10269 net.cpp:139] Memory required for data: 256204800
I0313 10:45:28.431056 10269 layer_factory.hpp:77] Creating layer conv6_3_scale
I0313 10:45:28.431061 10269 net.cpp:86] Creating Layer conv6_3_scale
I0313 10:45:28.431064 10269 net.cpp:408] conv6_3_scale <- conv6_3
I0313 10:45:28.431069 10269 net.cpp:369] conv6_3_scale -> conv6_3 (in-place)
I0313 10:45:28.431102 10269 layer_factory.hpp:77] Creating layer conv6_3_scale
I0313 10:45:28.431205 10269 net.cpp:124] Setting up conv6_3_scale
I0313 10:45:28.431210 10269 net.cpp:131] Top shape: 1 512 30 40 (614400)
I0313 10:45:28.431212 10269 net.cpp:139] Memory required for data: 258662400
I0313 10:45:28.431216 10269 layer_factory.hpp:77] Creating layer conv6_3_relu
I0313 10:45:28.431221 10269 net.cpp:86] Creating Layer conv6_3_relu
I0313 10:45:28.431224 10269 net.cpp:408] conv6_3_relu <- conv6_3
I0313 10:45:28.431231 10269 net.cpp:369] conv6_3_relu -> conv6_3 (in-place)
I0313 10:45:28.432523 10269 net.cpp:124] Setting up conv6_3_relu
I0313 10:45:28.432535 10269 net.cpp:131] Top shape: 1 512 30 40 (614400)
I0313 10:45:28.432538 10269 net.cpp:139] Memory required for data: 261120000
I0313 10:45:28.432540 10269 layer_factory.hpp:77] Creating layer conv6_4
I0313 10:45:28.432550 10269 net.cpp:86] Creating Layer conv6_4
I0313 10:45:28.432555 10269 net.cpp:408] conv6_4 <- conv6_3
I0313 10:45:28.432562 10269 net.cpp:382] conv6_4 -> conv6_4
I0313 10:45:28.435724 10269 net.cpp:124] Setting up conv6_4
I0313 10:45:28.435739 10269 net.cpp:131] Top shape: 1 256 30 40 (307200)
I0313 10:45:28.435742 10269 net.cpp:139] Memory required for data: 262348800
I0313 10:45:28.435747 10269 layer_factory.hpp:77] Creating layer conv6_4_bn
I0313 10:45:28.435753 10269 net.cpp:86] Creating Layer conv6_4_bn
I0313 10:45:28.435758 10269 net.cpp:408] conv6_4_bn <- conv6_4
I0313 10:45:28.435763 10269 net.cpp:369] conv6_4_bn -> conv6_4 (in-place)
I0313 10:45:28.435937 10269 net.cpp:124] Setting up conv6_4_bn
I0313 10:45:28.435943 10269 net.cpp:131] Top shape: 1 256 30 40 (307200)
I0313 10:45:28.435946 10269 net.cpp:139] Memory required for data: 263577600
I0313 10:45:28.435953 10269 layer_factory.hpp:77] Creating layer conv6_4_scale
I0313 10:45:28.435957 10269 net.cpp:86] Creating Layer conv6_4_scale
I0313 10:45:28.435961 10269 net.cpp:408] conv6_4_scale <- conv6_4
I0313 10:45:28.435967 10269 net.cpp:369] conv6_4_scale -> conv6_4 (in-place)
I0313 10:45:28.436000 10269 layer_factory.hpp:77] Creating layer conv6_4_scale
I0313 10:45:28.436102 10269 net.cpp:124] Setting up conv6_4_scale
I0313 10:45:28.436110 10269 net.cpp:131] Top shape: 1 256 30 40 (307200)
I0313 10:45:28.436111 10269 net.cpp:139] Memory required for data: 264806400
I0313 10:45:28.436115 10269 layer_factory.hpp:77] Creating layer conv6_4_relu
I0313 10:45:28.436121 10269 net.cpp:86] Creating Layer conv6_4_relu
I0313 10:45:28.436126 10269 net.cpp:408] conv6_4_relu <- conv6_4
I0313 10:45:28.436131 10269 net.cpp:369] conv6_4_relu -> conv6_4 (in-place)
I0313 10:45:28.436261 10269 net.cpp:124] Setting up conv6_4_relu
I0313 10:45:28.436269 10269 net.cpp:131] Top shape: 1 256 30 40 (307200)
I0313 10:45:28.436271 10269 net.cpp:139] Memory required for data: 266035200
I0313 10:45:28.436273 10269 layer_factory.hpp:77] Creating layer conv6_5
I0313 10:45:28.436281 10269 net.cpp:86] Creating Layer conv6_5
I0313 10:45:28.436285 10269 net.cpp:408] conv6_5 <- conv6_4
I0313 10:45:28.436291 10269 net.cpp:382] conv6_5 -> conv6_5
I0313 10:45:28.459722 10269 net.cpp:124] Setting up conv6_5
I0313 10:45:28.459754 10269 net.cpp:131] Top shape: 1 512 30 40 (614400)
I0313 10:45:28.459758 10269 net.cpp:139] Memory required for data: 268492800
I0313 10:45:28.459765 10269 layer_factory.hpp:77] Creating layer conv6_5_bn
I0313 10:45:28.459774 10269 net.cpp:86] Creating Layer conv6_5_bn
I0313 10:45:28.459782 10269 net.cpp:408] conv6_5_bn <- conv6_5
I0313 10:45:28.459800 10269 net.cpp:369] conv6_5_bn -> conv6_5 (in-place)
I0313 10:45:28.459980 10269 net.cpp:124] Setting up conv6_5_bn
I0313 10:45:28.459986 10269 net.cpp:131] Top shape: 1 512 30 40 (614400)
I0313 10:45:28.459990 10269 net.cpp:139] Memory required for data: 270950400
I0313 10:45:28.459997 10269 layer_factory.hpp:77] Creating layer conv6_5_scale
I0313 10:45:28.460003 10269 net.cpp:86] Creating Layer conv6_5_scale
I0313 10:45:28.460007 10269 net.cpp:408] conv6_5_scale <- conv6_5
I0313 10:45:28.460011 10269 net.cpp:369] conv6_5_scale -> conv6_5 (in-place)
I0313 10:45:28.460043 10269 layer_factory.hpp:77] Creating layer conv6_5_scale
I0313 10:45:28.460145 10269 net.cpp:124] Setting up conv6_5_scale
I0313 10:45:28.460151 10269 net.cpp:131] Top shape: 1 512 30 40 (614400)
I0313 10:45:28.460155 10269 net.cpp:139] Memory required for data: 273408000
I0313 10:45:28.460158 10269 layer_factory.hpp:77] Creating layer conv6_5_relu
I0313 10:45:28.460162 10269 net.cpp:86] Creating Layer conv6_5_relu
I0313 10:45:28.460166 10269 net.cpp:408] conv6_5_relu <- conv6_5
I0313 10:45:28.460171 10269 net.cpp:369] conv6_5_relu -> conv6_5 (in-place)
I0313 10:45:28.460494 10269 net.cpp:124] Setting up conv6_5_relu
I0313 10:45:28.460505 10269 net.cpp:131] Top shape: 1 512 30 40 (614400)
I0313 10:45:28.460506 10269 net.cpp:139] Memory required for data: 275865600
I0313 10:45:28.460510 10269 layer_factory.hpp:77] Creating layer conv7_1
I0313 10:45:28.460517 10269 net.cpp:86] Creating Layer conv7_1
I0313 10:45:28.460522 10269 net.cpp:408] conv7_1 <- conv6_5
I0313 10:45:28.460530 10269 net.cpp:382] conv7_1 -> conv7_1
I0313 10:45:28.505764 10269 net.cpp:124] Setting up conv7_1
I0313 10:45:28.505792 10269 net.cpp:131] Top shape: 1 512 30 40 (614400)
I0313 10:45:28.505795 10269 net.cpp:139] Memory required for data: 278323200
I0313 10:45:28.505802 10269 layer_factory.hpp:77] Creating layer conv7_1_bn
I0313 10:45:28.505810 10269 net.cpp:86] Creating Layer conv7_1_bn
I0313 10:45:28.505821 10269 net.cpp:408] conv7_1_bn <- conv7_1
I0313 10:45:28.505829 10269 net.cpp:369] conv7_1_bn -> conv7_1 (in-place)
I0313 10:45:28.506006 10269 net.cpp:124] Setting up conv7_1_bn
I0313 10:45:28.506013 10269 net.cpp:131] Top shape: 1 512 30 40 (614400)
I0313 10:45:28.506016 10269 net.cpp:139] Memory required for data: 280780800
I0313 10:45:28.506023 10269 layer_factory.hpp:77] Creating layer conv7_1_scale
I0313 10:45:28.506029 10269 net.cpp:86] Creating Layer conv7_1_scale
I0313 10:45:28.506033 10269 net.cpp:408] conv7_1_scale <- conv7_1
I0313 10:45:28.506037 10269 net.cpp:369] conv7_1_scale -> conv7_1 (in-place)
I0313 10:45:28.506068 10269 layer_factory.hpp:77] Creating layer conv7_1_scale
I0313 10:45:28.506170 10269 net.cpp:124] Setting up conv7_1_scale
I0313 10:45:28.506177 10269 net.cpp:131] Top shape: 1 512 30 40 (614400)
I0313 10:45:28.506180 10269 net.cpp:139] Memory required for data: 283238400
I0313 10:45:28.506183 10269 layer_factory.hpp:77] Creating layer conv7_1_relu
I0313 10:45:28.506189 10269 net.cpp:86] Creating Layer conv7_1_relu
I0313 10:45:28.506194 10269 net.cpp:408] conv7_1_relu <- conv7_1
I0313 10:45:28.506199 10269 net.cpp:369] conv7_1_relu -> conv7_1 (in-place)
I0313 10:45:28.506330 10269 net.cpp:124] Setting up conv7_1_relu
I0313 10:45:28.506338 10269 net.cpp:131] Top shape: 1 512 30 40 (614400)
I0313 10:45:28.506340 10269 net.cpp:139] Memory required for data: 285696000
I0313 10:45:28.506342 10269 layer_factory.hpp:77] Creating layer conv7_2
I0313 10:45:28.506352 10269 net.cpp:86] Creating Layer conv7_2
I0313 10:45:28.506356 10269 net.cpp:408] conv7_2 <- conv7_1
I0313 10:45:28.506363 10269 net.cpp:382] conv7_2 -> conv7_2
I0313 10:45:28.553439 10269 net.cpp:124] Setting up conv7_2
I0313 10:45:28.553472 10269 net.cpp:131] Top shape: 1 512 30 40 (614400)
I0313 10:45:28.553474 10269 net.cpp:139] Memory required for data: 288153600
I0313 10:45:28.553481 10269 layer_factory.hpp:77] Creating layer conv7_2_bn
I0313 10:45:28.553490 10269 net.cpp:86] Creating Layer conv7_2_bn
I0313 10:45:28.553501 10269 net.cpp:408] conv7_2_bn <- conv7_2
I0313 10:45:28.553512 10269 net.cpp:369] conv7_2_bn -> conv7_2 (in-place)
I0313 10:45:28.553683 10269 net.cpp:124] Setting up conv7_2_bn
I0313 10:45:28.553687 10269 net.cpp:131] Top shape: 1 512 30 40 (614400)
I0313 10:45:28.553690 10269 net.cpp:139] Memory required for data: 290611200
I0313 10:45:28.553697 10269 layer_factory.hpp:77] Creating layer conv7_2_scale
I0313 10:45:28.553704 10269 net.cpp:86] Creating Layer conv7_2_scale
I0313 10:45:28.553706 10269 net.cpp:408] conv7_2_scale <- conv7_2
I0313 10:45:28.553711 10269 net.cpp:369] conv7_2_scale -> conv7_2 (in-place)
I0313 10:45:28.553743 10269 layer_factory.hpp:77] Creating layer conv7_2_scale
I0313 10:45:28.553843 10269 net.cpp:124] Setting up conv7_2_scale
I0313 10:45:28.553850 10269 net.cpp:131] Top shape: 1 512 30 40 (614400)
I0313 10:45:28.553853 10269 net.cpp:139] Memory required for data: 293068800
I0313 10:45:28.553856 10269 layer_factory.hpp:77] Creating layer conv7_2_relu
I0313 10:45:28.553860 10269 net.cpp:86] Creating Layer conv7_2_relu
I0313 10:45:28.553864 10269 net.cpp:408] conv7_2_relu <- conv7_2
I0313 10:45:28.553869 10269 net.cpp:369] conv7_2_relu -> conv7_2 (in-place)
I0313 10:45:28.554200 10269 net.cpp:124] Setting up conv7_2_relu
I0313 10:45:28.554210 10269 net.cpp:131] Top shape: 1 512 30 40 (614400)
I0313 10:45:28.554213 10269 net.cpp:139] Memory required for data: 295526400
I0313 10:45:28.554214 10269 layer_factory.hpp:77] Creating layer concat8
I0313 10:45:28.554250 10269 net.cpp:86] Creating Layer concat8
I0313 10:45:28.554255 10269 net.cpp:408] concat8 <- conv5_5_conv5_5_relu_0_split_1
I0313 10:45:28.554261 10269 net.cpp:408] concat8 <- conv7_2
I0313 10:45:28.554265 10269 net.cpp:382] concat8 -> concat8
I0313 10:45:28.554319 10269 net.cpp:124] Setting up concat8
I0313 10:45:28.554327 10269 net.cpp:131] Top shape: 1 768 30 40 (921600)
I0313 10:45:28.554329 10269 net.cpp:139] Memory required for data: 299212800
I0313 10:45:28.554332 10269 layer_factory.hpp:77] Creating layer reduce1_lane
I0313 10:45:28.554339 10269 net.cpp:86] Creating Layer reduce1_lane
I0313 10:45:28.554343 10269 net.cpp:408] reduce1_lane <- concat8
I0313 10:45:28.554349 10269 net.cpp:382] reduce1_lane -> reduce1_lane
I0313 10:45:28.572059 10269 net.cpp:124] Setting up reduce1_lane
I0313 10:45:28.572093 10269 net.cpp:131] Top shape: 1 128 30 40 (153600)
I0313 10:45:28.572098 10269 net.cpp:139] Memory required for data: 299827200
I0313 10:45:28.572105 10269 layer_factory.hpp:77] Creating layer reduce1_lane_bn
I0313 10:45:28.572115 10269 net.cpp:86] Creating Layer reduce1_lane_bn
I0313 10:45:28.572126 10269 net.cpp:408] reduce1_lane_bn <- reduce1_lane
I0313 10:45:28.572135 10269 net.cpp:369] reduce1_lane_bn -> reduce1_lane (in-place)
I0313 10:45:28.572319 10269 net.cpp:124] Setting up reduce1_lane_bn
I0313 10:45:28.572327 10269 net.cpp:131] Top shape: 1 128 30 40 (153600)
I0313 10:45:28.572330 10269 net.cpp:139] Memory required for data: 300441600
I0313 10:45:28.572338 10269 layer_factory.hpp:77] Creating layer reduce1_lane_scale
I0313 10:45:28.572345 10269 net.cpp:86] Creating Layer reduce1_lane_scale
I0313 10:45:28.572350 10269 net.cpp:408] reduce1_lane_scale <- reduce1_lane
I0313 10:45:28.572355 10269 net.cpp:369] reduce1_lane_scale -> reduce1_lane (in-place)
I0313 10:45:28.572392 10269 layer_factory.hpp:77] Creating layer reduce1_lane_scale
I0313 10:45:28.572494 10269 net.cpp:124] Setting up reduce1_lane_scale
I0313 10:45:28.572500 10269 net.cpp:131] Top shape: 1 128 30 40 (153600)
I0313 10:45:28.572504 10269 net.cpp:139] Memory required for data: 301056000
I0313 10:45:28.572510 10269 layer_factory.hpp:77] Creating layer reduce1_lane_relu
I0313 10:45:28.572516 10269 net.cpp:86] Creating Layer reduce1_lane_relu
I0313 10:45:28.572521 10269 net.cpp:408] reduce1_lane_relu <- reduce1_lane
I0313 10:45:28.572528 10269 net.cpp:369] reduce1_lane_relu -> reduce1_lane (in-place)
I0313 10:45:28.572863 10269 net.cpp:124] Setting up reduce1_lane_relu
I0313 10:45:28.572872 10269 net.cpp:131] Top shape: 1 128 30 40 (153600)
I0313 10:45:28.572876 10269 net.cpp:139] Memory required for data: 301670400
I0313 10:45:28.572880 10269 layer_factory.hpp:77] Creating layer deconv1_lane
I0313 10:45:28.572890 10269 net.cpp:86] Creating Layer deconv1_lane
I0313 10:45:28.572896 10269 net.cpp:408] deconv1_lane <- reduce1_lane
I0313 10:45:28.572906 10269 net.cpp:382] deconv1_lane -> deconv1_lane
I0313 10:45:28.573957 10269 net.cpp:124] Setting up deconv1_lane
I0313 10:45:28.573971 10269 net.cpp:131] Top shape: 1 64 60 80 (307200)
I0313 10:45:28.573976 10269 net.cpp:139] Memory required for data: 302899200
I0313 10:45:28.573982 10269 layer_factory.hpp:77] Creating layer deconv1_lane_bn
I0313 10:45:28.573988 10269 net.cpp:86] Creating Layer deconv1_lane_bn
I0313 10:45:28.573994 10269 net.cpp:408] deconv1_lane_bn <- deconv1_lane
I0313 10:45:28.574002 10269 net.cpp:369] deconv1_lane_bn -> deconv1_lane (in-place)
I0313 10:45:28.574182 10269 net.cpp:124] Setting up deconv1_lane_bn
I0313 10:45:28.574188 10269 net.cpp:131] Top shape: 1 64 60 80 (307200)
I0313 10:45:28.574192 10269 net.cpp:139] Memory required for data: 304128000
I0313 10:45:28.574214 10269 layer_factory.hpp:77] Creating layer deconv1_lane_scale
I0313 10:45:28.574221 10269 net.cpp:86] Creating Layer deconv1_lane_scale
I0313 10:45:28.574226 10269 net.cpp:408] deconv1_lane_scale <- deconv1_lane
I0313 10:45:28.574234 10269 net.cpp:369] deconv1_lane_scale -> deconv1_lane (in-place)
I0313 10:45:28.574271 10269 layer_factory.hpp:77] Creating layer deconv1_lane_scale
I0313 10:45:28.574380 10269 net.cpp:124] Setting up deconv1_lane_scale
I0313 10:45:28.574388 10269 net.cpp:131] Top shape: 1 64 60 80 (307200)
I0313 10:45:28.574390 10269 net.cpp:139] Memory required for data: 305356800
I0313 10:45:28.574396 10269 layer_factory.hpp:77] Creating layer deconv1_lane_relu
I0313 10:45:28.574401 10269 net.cpp:86] Creating Layer deconv1_lane_relu
I0313 10:45:28.574406 10269 net.cpp:408] deconv1_lane_relu <- deconv1_lane
I0313 10:45:28.574414 10269 net.cpp:369] deconv1_lane_relu -> deconv1_lane (in-place)
I0313 10:45:28.574542 10269 net.cpp:124] Setting up deconv1_lane_relu
I0313 10:45:28.574548 10269 net.cpp:131] Top shape: 1 64 60 80 (307200)
I0313 10:45:28.574553 10269 net.cpp:139] Memory required for data: 306585600
I0313 10:45:28.574555 10269 layer_factory.hpp:77] Creating layer reorg4
I0313 10:45:28.574563 10269 net.cpp:86] Creating Layer reorg4
I0313 10:45:28.574568 10269 net.cpp:408] reorg4 <- conv4_3_conv4_3_relu_0_split_1
I0313 10:45:28.574573 10269 net.cpp:382] reorg4 -> reorg4
I0313 10:45:28.577852 10269 net.cpp:124] Setting up reorg4
I0313 10:45:28.577867 10269 net.cpp:131] Top shape: 1 64 60 80 (307200)
I0313 10:45:28.577870 10269 net.cpp:139] Memory required for data: 307814400
I0313 10:45:28.577875 10269 layer_factory.hpp:77] Creating layer reorg4_relu
I0313 10:45:28.577883 10269 net.cpp:86] Creating Layer reorg4_relu
I0313 10:45:28.577889 10269 net.cpp:408] reorg4_relu <- reorg4
I0313 10:45:28.577898 10269 net.cpp:369] reorg4_relu -> reorg4 (in-place)
I0313 10:45:28.578040 10269 net.cpp:124] Setting up reorg4_relu
I0313 10:45:28.578050 10269 net.cpp:131] Top shape: 1 64 60 80 (307200)
I0313 10:45:28.578054 10269 net.cpp:139] Memory required for data: 309043200
I0313 10:45:28.578058 10269 layer_factory.hpp:77] Creating layer concat4
I0313 10:45:28.578063 10269 net.cpp:86] Creating Layer concat4
I0313 10:45:28.578068 10269 net.cpp:408] concat4 <- reorg4
I0313 10:45:28.578075 10269 net.cpp:408] concat4 <- deconv1_lane
I0313 10:45:28.578083 10269 net.cpp:382] concat4 -> concat4
I0313 10:45:28.578110 10269 net.cpp:124] Setting up concat4
I0313 10:45:28.578119 10269 net.cpp:131] Top shape: 1 128 60 80 (614400)
I0313 10:45:28.578121 10269 net.cpp:139] Memory required for data: 311500800
I0313 10:45:28.578125 10269 layer_factory.hpp:77] Creating layer reduce2_lane
I0313 10:45:28.578133 10269 net.cpp:86] Creating Layer reduce2_lane
I0313 10:45:28.578138 10269 net.cpp:408] reduce2_lane <- concat4
I0313 10:45:28.578146 10269 net.cpp:382] reduce2_lane -> reduce2_lane
I0313 10:45:28.580453 10269 net.cpp:124] Setting up reduce2_lane
I0313 10:45:28.580467 10269 net.cpp:131] Top shape: 1 64 60 80 (307200)
I0313 10:45:28.580471 10269 net.cpp:139] Memory required for data: 312729600
I0313 10:45:28.580476 10269 layer_factory.hpp:77] Creating layer reduce2_lane_bn
I0313 10:45:28.580482 10269 net.cpp:86] Creating Layer reduce2_lane_bn
I0313 10:45:28.580489 10269 net.cpp:408] reduce2_lane_bn <- reduce2_lane
I0313 10:45:28.580497 10269 net.cpp:369] reduce2_lane_bn -> reduce2_lane (in-place)
I0313 10:45:28.580685 10269 net.cpp:124] Setting up reduce2_lane_bn
I0313 10:45:28.580693 10269 net.cpp:131] Top shape: 1 64 60 80 (307200)
I0313 10:45:28.580695 10269 net.cpp:139] Memory required for data: 313958400
I0313 10:45:28.580703 10269 layer_factory.hpp:77] Creating layer reduce2_lane_scale
I0313 10:45:28.580710 10269 net.cpp:86] Creating Layer reduce2_lane_scale
I0313 10:45:28.580715 10269 net.cpp:408] reduce2_lane_scale <- reduce2_lane
I0313 10:45:28.580721 10269 net.cpp:369] reduce2_lane_scale -> reduce2_lane (in-place)
I0313 10:45:28.580759 10269 layer_factory.hpp:77] Creating layer reduce2_lane_scale
I0313 10:45:28.580869 10269 net.cpp:124] Setting up reduce2_lane_scale
I0313 10:45:28.580875 10269 net.cpp:131] Top shape: 1 64 60 80 (307200)
I0313 10:45:28.580879 10269 net.cpp:139] Memory required for data: 315187200
I0313 10:45:28.580884 10269 layer_factory.hpp:77] Creating layer reduce2_lane_relu
I0313 10:45:28.580889 10269 net.cpp:86] Creating Layer reduce2_lane_relu
I0313 10:45:28.580895 10269 net.cpp:408] reduce2_lane_relu <- reduce2_lane
I0313 10:45:28.580902 10269 net.cpp:369] reduce2_lane_relu -> reduce2_lane (in-place)
I0313 10:45:28.581037 10269 net.cpp:124] Setting up reduce2_lane_relu
I0313 10:45:28.581045 10269 net.cpp:131] Top shape: 1 64 60 80 (307200)
I0313 10:45:28.581048 10269 net.cpp:139] Memory required for data: 316416000
I0313 10:45:28.581051 10269 layer_factory.hpp:77] Creating layer Slice1
I0313 10:45:28.581084 10269 net.cpp:86] Creating Layer Slice1
I0313 10:45:28.581091 10269 net.cpp:408] Slice1 <- reduce2_lane
I0313 10:45:28.581102 10269 net.cpp:382] Slice1 -> slice1_1
I0313 10:45:28.581135 10269 net.cpp:382] Slice1 -> slice1_2
…
I0313 10:45:28.581636 10269 net.cpp:382] Slice1 -> slice1_52
I0313 10:45:28.581645 10269 net.cpp:382] Slice1 -> slice1_53
I0313 10:45:28.581655 10269 net.cpp:382] Slice1 -> slice1_54
I0313 10:45:28.581663 10269 net.cpp:382] Slice1 -> slice1_55
I0313 10:45:28.581672 10269 net.cpp:382] Slice1 -> slice1_56
I0313 10:45:28.581681 10269 net.cpp:382] Slice1 -> slice1_57
I0313 10:45:28.581692 10269 net.cpp:382] Slice1 -> slice1_58
I0313 10:45:28.581701 10269 net.cpp:382] Slice1 -> slice1_59
I0313 10:45:28.581710 10269 net.cpp:382] Slice1 -> slice1_60
I0313 10:45:28.582356 10269 net.cpp:124] Setting up Slice1
I0313 10:45:28.582365 10269 net.cpp:131] Top shape: 1 64 1 80 (5120)
I0313 10:45:28.582370 10269 net.cpp:131] Top shape: 1 64 1 80 (5120)
I0313 10:45:28.582381 10269 net.cpp:131] Top shape: 1 64 1 80 (5120)
I0313 10:45:28.582384 10269 net.cpp:131] Top shape: 1 64 1 80 (5120)
I0313 10:45:28.582389 10269 net.cpp:131] Top shape: 1 64 1 80 (5120)
I0313 10:45:28.582392 10269 net.cpp:131] Top shape: 1 64 1 80 (5120)
I0313 10:45:28.582396 10269 net.cpp:131] Top shape: 1 64 1 80 (5120)
I0313 10:45:28.582401 10269 net.cpp:131] Top shape: 1 64 1 80 (5120)
I0313 10:45:28.582404 10269 net.cpp:131] Top shape: 1 64 1 80 (5120)
I0313 10:45:28.582407 10269 net.cpp:131] Top shape: 1 64 1 80 (5120)
I0313 10:45:28.582410 10269 net.cpp:131] Top shape: 1 64 1 80 (5120)
I0313 10:45:28.582413 10269 net.cpp:131] Top shape: 1 64 1 80 (5120)
I0313 10:45:28.582417 10269 net.cpp:131] Top shape: 1 64 1 80 (5120)
I0313 10:45:28.582419 10269 net.cpp:131] Top shape: 1 64 1 80 (5120)
I0313 10:45:28.582424 10269 net.cpp:131] Top shape: 1 64 1 80 (5120)
I0313 10:45:28.582428 10269 net.cpp:131] Top shape: 1 64 1 80 (5120)
I0313 10:45:28.582432 10269 net.cpp:131] Top shape: 1 64 1 80 (5120)
I0313 10:45:28.582435 10269 net.cpp:131] Top shape: 1 64 1 80 (5120)
I0313 10:45:28.582439 10269 net.cpp:131] Top shape: 1 64 1 80 (5120)
I0313 10:45:28.582443 10269 net.cpp:131] Top shape: 1 64 1 80 (5120)
I0313 10:45:28.582448 10269 net.cpp:131] Top shape: 1 64 1 80 (5120)
I0313 10:45:28.582451 10269 net.cpp:131] Top shape: 1 64 1 80 (5120)
I0313 10:45:28.582455 10269 net.cpp:131] Top shape: 1 64 1 80 (5120)
I0313 10:45:28.582458 10269 net.cpp:131] Top shape: 1 64 1 80 (5120)
I0313 10:45:28.582463 10269 net.cpp:131] Top shape: 1 64 1 80 (5120)
I0313 10:45:28.582466 10269 net.cpp:131] Top shape: 1 64 1 80 (5120)
I0313 10:45:28.582470 10269 net.cpp:131] Top shape: 1 64 1 80 (5120)
I0313 10:45:28.582476 10269 net.cpp:131] Top shape: 1 64 1 80 (5120)
I0313 10:45:28.582480 10269 net.cpp:131] Top shape: 1 64 1 80 (5120)
I0313 10:45:28.582484 10269 net.cpp:131] Top shape: 1 64 1 80 (5120)
I0313 10:45:28.582489 10269 net.cpp:131] Top shape: 1 64 1 80 (5120)
I0313 10:45:28.582491 10269 net.cpp:131] Top shape: 1 64 1 80 (5120)
I0313 10:45:28.582495 10269 net.cpp:131] Top shape: 1 64 1 80 (5120)
I0313 10:45:28.582499 10269 net.cpp:131] Top shape: 1 64 1 80 (5120)
I0313 10:45:28.582504 10269 net.cpp:131] Top shape: 1 64 1 80 (5120)
I0313 10:45:28.582506 10269 net.cpp:131] Top shape: 1 64 1 80 (5120)
I0313 10:45:28.582510 10269 net.cpp:131] Top shape: 1 64 1 80 (5120)
I0313 10:45:28.582514 10269 net.cpp:131] Top shape: 1 64 1 80 (5120)
I0313 10:45:28.582518 10269 net.cpp:131] Top shape: 1 64 1 80 (5120)
I0313 10:45:28.582521 10269 net.cpp:131] Top shape: 1 64 1 80 (5120)
I0313 10:45:28.582525 10269 net.cpp:131] Top shape: 1 64 1 80 (5120)
I0313 10:45:28.582530 10269 net.cpp:131] Top shape: 1 64 1 80 (5120)
I0313 10:45:28.582533 10269 net.cpp:131] Top shape: 1 64 1 80 (5120)
I0313 10:45:28.582536 10269 net.cpp:131] Top shape: 1 64 1 80 (5120)
I0313 10:45:28.582541 10269 net.cpp:131] Top shape: 1 64 1 80 (5120)
I0313 10:45:28.582545 10269 net.cpp:131] Top shape: 1 64 1 80 (5120)
I0313 10:45:28.582548 10269 net.cpp:131] Top shape: 1 64 1 80 (5120)
I0313 10:45:28.582552 10269 net.cpp:131] Top shape: 1 64 1 80 (5120)
I0313 10:45:28.582556 10269 net.cpp:131] Top shape: 1 64 1 80 (5120)
I0313 10:45:28.582561 10269 net.cpp:131] Top shape: 1 64 1 80 (5120)
I0313 10:45:28.582564 10269 net.cpp:131] Top shape: 1 64 1 80 (5120)
I0313 10:45:28.582567 10269 net.cpp:131] Top shape: 1 64 1 80 (5120)
I0313 10:45:28.582571 10269 net.cpp:131] Top shape: 1 64 1 80 (5120)
I0313 10:45:28.582576 10269 net.cpp:131] Top shape: 1 64 1 80 (5120)
I0313 10:45:28.582579 10269 net.cpp:131] Top shape: 1 64 1 80 (5120)
I0313 10:45:28.582582 10269 net.cpp:131] Top shape: 1 64 1 80 (5120)
I0313 10:45:28.582587 10269 net.cpp:131] Top shape: 1 64 1 80 (5120)
I0313 10:45:28.582592 10269 net.cpp:131] Top shape: 1 64 1 80 (5120)
I0313 10:45:28.582595 10269 net.cpp:131] Top shape: 1 64 1 80 (5120)
I0313 10:45:28.582599 10269 net.cpp:131] Top shape: 1 64 1 80 (5120)
I0313 10:45:28.582602 10269 net.cpp:139] Memory required for data: 317644800
I0313 10:45:28.582605 10269 layer_factory.hpp:77] Creating layer slice1_1_Slice1_0_split
I0313 10:45:28.582610 10269 net.cpp:86] Creating Layer slice1_1_Slice1_0_split
I0313 10:45:28.582617 10269 net.cpp:408] slice1_1_Slice1_0_split <- slice1_1
I0313 10:45:28.582624 10269 net.cpp:382] slice1_1_Slice1_0_split -> slice1_1_Slice1_0_split_0
I0313 10:45:28.582633 10269 net.cpp:382] slice1_1_Slice1_0_split -> slice1_1_Slice1_0_split_1
I0313 10:45:28.582669 10269 net.cpp:124] Setting up slice1_1_Slice1_0_split
I0313 10:45:28.582675 10269 net.cpp:131] Top shape: 1 64 1 80 (5120)
I0313 10:45:28.582679 10269 net.cpp:131] Top shape: 1 64 1 80 (5120)
I0313 10:45:28.582681 10269 net.cpp:139] Memory required for data: 317685760
I0313 10:45:28.582684 10269 layer_factory.hpp:77] Creating layer SCNN_D_1
I0313 10:45:28.582690 10269 net.cpp:86] Creating Layer SCNN_D_1
I0313 10:45:28.582695 10269 net.cpp:408] SCNN_D_1 <- slice1_1_Slice1_0_split_0
I0313 10:45:28.582705 10269 net.cpp:382] SCNN_D_1 -> SCNN_D_1/message
I0313 10:45:28.583881 10269 net.cpp:124] Setting up SCNN_D_1
I0313 10:45:28.583896 10269 net.cpp:131] Top shape: 1 64 1 80 (5120)
I0313 10:45:28.583899 10269 net.cpp:139] Memory required for data: 317706240
I0313 10:45:28.583909 10269 layer_factory.hpp:77] Creating layer SCNN_D_1/relu
I0313 10:45:28.583915 10269 net.cpp:86] Creating Layer SCNN_D_1/relu
I0313 10:45:28.583921 10269 net.cpp:408] SCNN_D_1/relu <- SCNN_D_1/message
I0313 10:45:28.583928 10269 net.cpp:369] SCNN_D_1/relu -> SCNN_D_1/message (in-place)
I0313 10:45:28.584265 10269 net.cpp:124] Setting up SCNN_D_1/relu
I0313 10:45:28.584275 10269 net.cpp:131] Top shape: 1 64 1 80 (5120)
I0313 10:45:28.584278 10269 net.cpp:139] Memory required for data: 317726720
I0313 10:45:28.584282 10269 layer_factory.hpp:77] Creating layer SCNN_D_1/sum
I0313 10:45:28.584303 10269 net.cpp:86] Creating Layer SCNN_D_1/sum
I0313 10:45:28.584311 10269 net.cpp:408] SCNN_D_1/sum <- SCNN_D_1/message
I0313 10:45:28.584318 10269 net.cpp:408] SCNN_D_1/sum <- slice1_2
I0313 10:45:28.584323 10269 net.cpp:382] SCNN_D_1/sum -> SCNN_D_2
I0313 10:45:28.584398 10269 net.cpp:124] Setting up SCNN_D_1/sum
I0313 10:45:28.584406 10269 net.cpp:131] Top shape: 1 64 1 80 (5120)
I0313 10:45:28.584409 10269 net.cpp:139] Memory required for data: 317747200
I0313 10:45:28.584412 10269 layer_factory.hpp:77] Creating layer SCNN_D_2_SCNN_D_1/sum_0_split
I0313 10:45:28.584417 10269 net.cpp:86] Creating Layer SCNN_D_2_SCNN_D_1/sum_0_split
I0313 10:45:28.584424 10269 net.cpp:408] SCNN_D_2_SCNN_D_1/sum_0_split <- SCNN_D_2
I0313 10:45:28.584430 10269 net.cpp:382] SCNN_D_2_SCNN_D_1/sum_0_split -> SCNN_D_2_SCNN_D_1/sum_0_split_0
I0313 10:45:28.584441 10269 net.cpp:382] SCNN_D_2_SCNN_D_1/sum_0_split -> SCNN_D_2_SCNN_D_1/sum_0_split_1
I0313 10:45:28.584478 10269 net.cpp:124] Setting up SCNN_D_2_SCNN_D_1/sum_0_split
I0313 10:45:28.584486 10269 net.cpp:131] Top shape: 1 64 1 80 (5120)
I0313 10:45:28.584491 10269 net.cpp:131] Top shape: 1 64 1 80 (5120)
I0313 10:45:28.584496 10269 net.cpp:139] Memory required for data: 317788160
I0313 10:45:28.584498 10269 layer_factory.hpp:77] Creating layer SCNN_D_2
I0313 10:45:28.584506 10269 net.cpp:86] Creating Layer SCNN_D_2
I0313 10:45:28.584512 10269 net.cpp:408] SCNN_D_2 <- SCNN_D_2_SCNN_D_1/sum_0_split_0
I0313 10:45:28.584519 10269 net.cpp:382] SCNN_D_2 -> SCNN_D_2/message
I0313 10:45:28.585649 10269 net.cpp:124] Setting up SCNN_D_2
I0313 10:45:28.585660 10269 net.cpp:131] Top shape: 1 64 1 80 (5120)
I0313 10:45:28.585664 10269 net.cpp:139] Memory required for data: 317808640
I0313 10:45:28.585670 10269 net.cpp:467] Sharing parameters 'SCNN_D_w' owned by layer 'SCNN_D_1', param index 0
I0313 10:45:28.585675 10269 layer_factory.hpp:77] Creating layer SCNN_D_2/relu
I0313 10:45:28.585680 10269 net.cpp:86] Creating Layer SCNN_D_2/relu
I0313 10:45:28.585685 10269 net.cpp:408] SCNN_D_2/relu <- SCNN_D_2/message
I0313 10:45:28.585692 10269 net.cpp:369] SCNN_D_2/relu -> SCNN_D_2/message (in-place)
I0313 10:45:28.586776 10269 net.cpp:124] Setting up SCNN_D_2/relu
I0313 10:45:28.586786 10269 net.cpp:131] Top shape: 1 64 1 80 (5120)
I0313 10:45:28.586789 10269 net.cpp:139] Memory required for data: 317829120
I0313 10:45:28.586792 10269 layer_factory.hpp:77] Creating layer SCNN_D_2/sum
I0313 10:45:28.586799 10269 net.cpp:86] Creating Layer SCNN_D_2/sum
I0313 10:45:28.586807 10269 net.cpp:408] SCNN_D_2/sum <- SCNN_D_2/message
I0313 10:45:28.586815 10269 net.cpp:408] SCNN_D_2/sum <- slice1_3
I0313 10:45:28.586822 10269 net.cpp:382] SCNN_D_2/sum -> SCNN_D_3
I0313 10:45:28.586853 10269 net.cpp:124] Setting up SCNN_D_2/sum
I0313 10:45:28.586861 10269 net.cpp:131] Top shape: 1 64 1 80 (5120)
I0313 10:45:28.586864 10269 net.cpp:139] Memory required for data: 317849600
I0313 10:45:28.586866 10269 layer_factory.hpp:77] Creating layer SCNN_D_3_SCNN_D_2/sum_0_split
I0313 10:45:28.586869 10269 net.cpp:86] Creating Layer SCNN_D_3_SCNN_D_2/sum_0_split
I0313 10:45:28.586874 10269 net.cpp:408] SCNN_D_3_SCNN_D_2/sum_0_split <- SCNN_D_3
I0313 10:45:28.586879 10269 net.cpp:382] SCNN_D_3_SCNN_D_2/sum_0_split -> SCNN_D_3_SCNN_D_2/sum_0_split_0
I0313 10:45:28.586885 10269 net.cpp:382] SCNN_D_3_SCNN_D_2/sum_0_split -> SCNN_D_3_SCNN_D_2/sum_0_split_1
I0313 10:45:28.586922 10269 net.cpp:124] Setting up SCNN_D_3_SCNN_D_2/sum_0_split
I0313 10:45:28.586930 10269 net.cpp:131] Top shape: 1 64 1 80 (5120)
I0313 10:45:28.586935 10269 net.cpp:131] Top shape: 1 64 1 80 (5120)
I0313 10:45:28.586938 10269 net.cpp:139] Memory required for data: 317890560
I0313 10:45:28.586942 10269 layer_factory.hpp:77] Creating layer SCNN_D_3
I0313 10:45:28.586948 10269 net.cpp:86] Creating Layer SCNN_D_3
I0313 10:45:28.586954 10269 net.cpp:408] SCNN_D_3 <- SCNN_D_3_SCNN_D_2/sum_0_split_0
I0313 10:45:28.586962 10269 net.cpp:382] SCNN_D_3 -> SCNN_D_3/message
I0313 10:45:28.588124 10269 net.cpp:124] Setting up SCNN_D_3
I0313 10:45:28.588137 10269 net.cpp:131] Top shape: 1 64 1 80 (5120)
I0313 10:45:28.588142 10269 net.cpp:139] Memory required for data: 317911040
I0313 10:45:28.588147 10269 net.cpp:467] Sharing parameters 'SCNN_D_w' owned by layer 'SCNN_D_1', param index 0
I0313 10:45:28.588151 10269 layer_factory.hpp:77] Creating layer SCNN_D_3/relu
I0313 10:45:28.588156 10269 net.cpp:86] Creating Layer SCNN_D_3/relu
I0313 10:45:28.588162 10269 net.cpp:408] SCNN_D_3/relu <- SCNN_D_3/message
I0313 10:45:28.588169 10269 net.cpp:369] SCNN_D_3/relu -> SCNN_D_3/message (in-place)
I0313 10:45:28.588291 10269 net.cpp:124] Setting up SCNN_D_3/relu
I0313 10:45:28.588299 10269 net.cpp:131] Top shape: 1 64 1 80 (5120)
I0313 10:45:28.588302 10269 net.cpp:139] Memory required for data: 317931520
I0313 10:45:28.588305 10269 layer_factory.hpp:77] Creating layer SCNN_D_3/sum
I0313 10:45:28.588310 10269 net.cpp:86] Creating Layer SCNN_D_3/sum
I0313 10:45:28.588315 10269 net.cpp:408] SCNN_D_3/sum <- SCNN_D_3/message
I0313 10:45:28.588323 10269 net.cpp:408] SCNN_D_3/sum <- slice1_4
I0313 10:45:28.588328 10269 net.cpp:382] SCNN_D_3/sum -> SCNN_D_4
I0313 10:45:28.588357 10269 net.cpp:124] Setting up SCNN_D_3/sum
I0313 10:45:28.588364 10269 net.cpp:131] Top shape: 1 64 1 80 (5120)
I0313 10:45:28.588368 10269 net.cpp:139] Memory required for data: 317952000
I0313 10:45:28.588371 10269 layer_factory.hpp:77] Creating layer SCNN_D_4_SCNN_D_3/sum_0_split
I0313 10:45:28.588376 10269 net.cpp:86] Creating Layer SCNN_D_4_SCNN_D_3/sum_0_split
I0313 10:45:28.588382 10269 net.cpp:408] SCNN_D_4_SCNN_D_3/sum_0_split <- SCNN_D_4
I0313 10:45:28.588388 10269 net.cpp:382] SCNN_D_4_SCNN_D_3/sum_0_split -> SCNN_D_4_SCNN_D_3/sum_0_split_0
I0313 10:45:28.588397 10269 net.cpp:382] SCNN_D_4_SCNN_D_3/sum_0_split -> SCNN_D_4_SCNN_D_3/sum_0_split_1
I0313 10:45:28.588433 10269 net.cpp:124] Setting up SCNN_D_4_SCNN_D_3/sum_0_split
I0313 10:45:28.588438 10269 net.cpp:131] Top shape: 1 64 1 80 (5120)
I0313 10:45:28.588444 10269 net.cpp:131] Top shape: 1 64 1 80 (5120)
I0313 10:45:28.588448 10269 net.cpp:139] Memory required for data: 317992960
I0313 10:45:28.588451 10269 layer_factory.hpp:77] Creating layer SCNN_D_4
I0313 10:45:28.588457 10269 net.cpp:86] Creating Layer SCNN_D_4
I0313 10:45:28.588462 10269 net.cpp:408] SCNN_D_4 <- SCNN_D_4_SCNN_D_3/sum_0_split_0
I0313 10:45:28.588470 10269 net.cpp:382] SCNN_D_4 -> SCNN_D_4/message
I0313 10:45:28.589594 10269 net.cpp:124] Setting up SCNN_D_4
I0313 10:45:28.589607 10269 net.cpp:131] Top shape: 1 64 1 80 (5120)
I0313 10:45:28.589610 10269 net.cpp:139] Memory required for data: 318013440
I0313 10:45:28.589615 10269 net.cpp:467] Sharing parameters 'SCNN_D_w' owned by layer 'SCNN_D_1', param index 0
I0313 10:45:28.589620 10269 layer_factory.hpp:77] Creating layer SCNN_D_4/relu
I0313 10:45:28.589625 10269 net.cpp:86] Creating Layer SCNN_D_4/relu
I0313 10:45:28.589630 10269 net.cpp:408] SCNN_D_4/relu <- SCNN_D_4/message
I0313 10:45:28.589635 10269 net.cpp:369] SCNN_D_4/relu -> SCNN_D_4/message (in-place)
I0313 10:45:28.589756 10269 net.cpp:124] Setting up SCNN_D_4/relu
I0313 10:45:28.589764 10269 net.cpp:131] Top shape: 1 64 1 80 (5120)
I0313 10:45:28.589766 10269 net.cpp:139] Memory required for data: 318033920
I0313 10:45:28.589768 10269 layer_factory.hpp:77] Creating layer SCNN_D_4/sum
I0313 10:45:28.589774 10269 net.cpp:86] Creating Layer SCNN_D_4/sum
I0313 10:45:28.589781 10269 net.cpp:408] SCNN_D_4/sum <- SCNN_D_4/message
I0313 10:45:28.589787 10269 net.cpp:408] SCNN_D_4/sum <- slice1_5
I0313 10:45:28.589792 10269 net.cpp:382] SCNN_D_4/sum -> SCNN_D_5
I0313 10:45:28.589819 10269 net.cpp:124] Setting up SCNN_D_4/sum
I0313 10:45:28.589826 10269 net.cpp:131] Top shape: 1 64 1 80 (5120)
I0313 10:45:28.589829 10269 net.cpp:139] Memory required for data: 318054400
I0313 10:45:28.589833 10269 layer_factory.hpp:77] Creating layer SCNN_D_5_SCNN_D_4/sum_0_split
I0313 10:45:28.589838 10269 net.cpp:86] Creating Layer SCNN_D_5_SCNN_D_4/sum_0_split
I0313 10:45:28.589843 10269 net.cpp:408] SCNN_D_5_SCNN_D_4/sum_0_split <- SCNN_D_5
I0313 10:45:28.589849 10269 net.cpp:382] SCNN_D_5_SCNN_D_4/sum_0_split -> SCNN_D_5_SCNN_D_4/sum_0_split_0
I0313 10:45:28.589859 10269 net.cpp:382] SCNN_D_5_SCNN_D_4/sum_0_split -> SCNN_D_5_SCNN_D_4/sum_0_split_1
I0313 10:45:28.589893 10269 net.cpp:124] Setting up SCNN_D_5_SCNN_D_4/sum_0_split
I0313 10:45:28.589900 10269 net.cpp:131] Top shape: 1 64 1 80 (5120)
I0313 10:45:28.589905 10269 net.cpp:131] Top shape: 1 64 1 80 (5120)
I0313 10:45:28.589907 10269 net.cpp:139] Memory required for data: 318095360
I0313 10:45:28.589916 10269 layer_factory.hpp:77] Creating layer SCNN_D_5
I0313 10:45:28.589923 10269 net.cpp:86] Creating Layer SCNN_D_5
I0313 10:45:28.589928 10269 net.cpp:408] SCNN_D_5 <- SCNN_D_5_SCNN_D_4/sum_0_split_0
I0313 10:45:28.589936 10269 net.cpp:382] SCNN_D_5 -> SCNN_D_5/message
I0313 10:45:28.591045 10269 net.cpp:124] Setting up SCNN_D_5
I0313 10:45:28.591058 10269 net.cpp:131] Top shape: 1 64 1 80 (5120)
I0313 10:45:28.591061 10269 net.cpp:139] Memory required for data: 318115840
I0313 10:45:28.591065 10269 net.cpp:467] Sharing parameters 'SCNN_D_w' owned by layer 'SCNN_D_1', param index 0
I0313 10:45:28.591070 10269 layer_factory.hpp:77] Creating layer SCNN_D_5/relu
I0313 10:45:28.591074 10269 net.cpp:86] Creating Layer SCNN_D_5/relu
I0313 10:45:28.591080 10269 net.cpp:408] SCNN_D_5/relu <- SCNN_D_5/message
I0313 10:45:28.591087 10269 net.cpp:369] SCNN_D_5/relu -> SCNN_D_5/message (in-place)
I0313 10:45:28.591208 10269 net.cpp:124] Setting up SCNN_D_5/relu
I0313 10:45:28.591217 10269 net.cpp:131] Top shape: 1 64 1 80 (5120)
I0313 10:45:28.591218 10269 net.cpp:139] Memory required for data: 318136320
I0313 10:45:28.591222 10269 layer_factory.hpp:77] Creating layer SCNN_D_5/sum
I0313 10:45:28.591228 10269 net.cpp:86] Creating Layer SCNN_D_5/sum
I0313 10:45:28.591233 10269 net.cpp:408] SCNN_D_5/sum <- SCNN_D_5/message
I0313 10:45:28.591240 10269 net.cpp:408] SCNN_D_5/sum <- slice1_6
I0313 10:45:28.591246 10269 net.cpp:382] SCNN_D_5/sum -> SCNN_D_6
I0313 10:45:28.591280 10269 net.cpp:124] Setting up SCNN_D_5/sum
I0313 10:45:28.591289 10269 net.cpp:131] Top shape: 1 64 1 80 (5120)
I0313 10:45:28.591292 10269 net.cpp:139] Memory required for data: 318156800
I0313 10:45:28.591295 10269 layer_factory.hpp:77] Creating layer SCNN_D_6_SCNN_D_5/sum_0_split
I0313 10:45:28.591300 10269 net.cpp:86] Creating Layer SCNN_D_6_SCNN_D_5/sum_0_split
I0313 10:45:28.591306 10269 net.cpp:408] SCNN_D_6_SCNN_D_5/sum_0_split <- SCNN_D_6
I0313 10:45:28.591312 10269 net.cpp:382] SCNN_D_6_SCNN_D_5/sum_0_split -> SCNN_D_6_SCNN_D_5/sum_0_split_0
I0313 10:45:28.591321 10269 net.cpp:382] SCNN_D_6_SCNN_D_5/sum_0_split -> SCNN_D_6_SCNN_D_5/sum_0_split_1
I0313 10:45:28.591357 10269 net.cpp:124] Setting up SCNN_D_6_SCNN_D_5/sum_0_split
I0313 10:45:28.591363 10269 net.cpp:131] Top shape: 1 64 1 80 (5120)
I0313 10:45:28.591372 10269 net.cpp:131] Top shape: 1 64 1 80 (5120)
I0313 10:45:28.591375 10269 net.cpp:139] Memory required for data: 318197760
I0313 10:45:28.591377 10269 layer_factory.hpp:77] Creating layer SCNN_D_6
I0313 10:45:28.591383 10269 net.cpp:86] Creating Layer SCNN_D_6
I0313 10:45:28.591388 10269 net.cpp:408] SCNN_D_6 <- SCNN_D_6_SCNN_D_5/sum_0_split_0
I0313 10:45:28.591395 10269 net.cpp:382] SCNN_D_6 -> SCNN_D_6/message
I0313 10:45:28.593488 10269 net.cpp:124] Setting up SCNN_D_6
I0313 10:45:28.593505 10269 net.cpp:131] Top shape: 1 64 1 80 (5120)
I0313 10:45:28.593508 10269 net.cpp:139] Memory required for data: 318218240
I0313 10:45:28.593521 10269 net.cpp:467] Sharing parameters 'SCNN_D_w' owned by layer 'SCNN_D_1', param index 0
I0313 10:45:28.593525 10269 layer_factory.hpp:77] Creating layer SCNN_D_6/relu
I0313 10:45:28.593541 10269 net.cpp:86] Creating Layer SCNN_D_6/relu
I0313 10:45:28.593549 10269 net.cpp:408] SCNN_D_6/relu <- SCNN_D_6/message
I0313 10:45:28.593556 10269 net.cpp:369] SCNN_D_6/relu -> SCNN_D_6/message (in-place)
I0313 10:45:28.593899 10269 net.cpp:124] Setting up SCNN_D_6/relu
I0313 10:45:28.593909 10269 net.cpp:131] Top shape: 1 64 1 80 (5120)
I0313 10:45:28.593911 10269 net.cpp:139] Memory required for data: 318238720
I0313 10:45:28.593917 10269 layer_factory.hpp:77] Creating layer SCNN_D_6/sum
I0313 10:45:28.593925 10269 net.cpp:86] Creating Layer SCNN_D_6/sum
I0313 10:45:28.593931 10269 net.cpp:408] SCNN_D_6/sum <- SCNN_D_6/message
I0313 10:45:28.593938 10269 net.cpp:408] SCNN_D_6/sum <- slice1_7
I0313 10:45:28.593945 10269 net.cpp:382] SCNN_D_6/sum -> SCNN_D_7
I0313 10:45:28.593979 10269 net.cpp:124] Setting up SCNN_D_6/sum
I0313 10:45:28.593987 10269 net.cpp:131] Top shape: 1 64 1 80 (5120)
I0313 10:45:28.593991 10269 net.cpp:139] Memory required for data: 318259200
I0313 10:45:28.593993 10269 layer_factory.hpp:77] Creating layer SCNN_D_7_SCNN_D_6/sum_0_split
I0313 10:45:28.593999 10269 net.cpp:86] Creating Layer SCNN_D_7_SCNN_D_6/sum_0_split
I0313 10:45:28.594004 10269 net.cpp:408] SCNN_D_7_SCNN_D_6/sum_0_split <- SCNN_D_7
I0313 10:45:28.594012 10269 net.cpp:382] SCNN_D_7_SCNN_D_6/sum_0_split -> SCNN_D_7_SCNN_D_6/sum_0_split_0
I0313 10:45:28.594022 10269 net.cpp:382] SCNN_D_7_SCNN_D_6/sum_0_split -> SCNN_D_7_SCNN_D_6/sum_0_split_1
I0313 10:45:28.594060 10269 net.cpp:124] Setting up SCNN_D_7_SCNN_D_6/sum_0_split
I0313 10:45:28.594069 10269 net.cpp:131] Top shape: 1 64 1 80 (5120)
I0313 10:45:28.594074 10269 net.cpp:131] Top shape: 1 64 1 80 (5120)
I0313 10:45:28.594076 10269 net.cpp:139] Memory required for data: 318300160
I0313 10:45:28.594079 10269 layer_factory.hpp:77] Creating layer SCNN_D_7
I0313 10:45:28.594085 10269 net.cpp:86] Creating Layer SCNN_D_7
I0313 10:45:28.594091 10269 net.cpp:408] SCNN_D_7 <- SCNN_D_7_SCNN_D_6/sum_0_split_0
I0313 10:45:28.594100 10269 net.cpp:382] SCNN_D_7 -> SCNN_D_7/message
I0313 10:45:28.595281 10269 net.cpp:124] Setting up SCNN_D_7
I0313 10:45:28.595295 10269 net.cpp:131] Top shape: 1 64 1 80 (5120)
I0313 10:45:28.595300 10269 net.cpp:139] Memory required for data: 318320640
I0313 10:45:28.595304 10269 net.cpp:467] Sharing parameters 'SCNN_D_w' owned by layer 'SCNN_D_1', param index 0
I0313 10:45:28.595309 10269 layer_factory.hpp:77] Creating layer SCNN_D_7/relu
I0313 10:45:28.595314 10269 net.cpp:86] Creating Layer SCNN_D_7/relu
I0313 10:45:28.595319 10269 net.cpp:408] SCNN_D_7/relu <- SCNN_D_7/message
I0313 10:45:28.595326 10269 net.cpp:369] SCNN_D_7/relu -> SCNN_D_7/message (in-place)
I0313 10:45:28.595463 10269 net.cpp:124] Setting up SCNN_D_7/relu
I0313 10:45:28.595470 10269 net.cpp:131] Top shape: 1 64 1 80 (5120)
I0313 10:45:28.595474 10269 net.cpp:139] Memory required for data: 318341120
I0313 10:45:28.595479 10269 layer_factory.hpp:77] Creating layer SCNN_D_7/sum
I0313 10:45:28.595482 10269 net.cpp:86] Creating Layer SCNN_D_7/sum
I0313 10:45:28.595489 10269 net.cpp:408] SCNN_D_7/sum <- SCNN_D_7/message
I0313 10:45:28.595495 10269 net.cpp:408] SCNN_D_7/sum <- slice1_8
I0313 10:45:28.595500 10269 net.cpp:382] SCNN_D_7/sum -> SCNN_D_8
I0313 10:45:28.595531 10269 net.cpp:124] Setting up SCNN_D_7/sum
I0313 10:45:28.595538 10269 net.cpp:131] Top shape: 1 64 1 80 (5120)
I0313 10:45:28.595542 10269 net.cpp:139] Memory required for data: 318361600
I0313 10:45:28.595544 10269 layer_factory.hpp:77] Creating layer SCNN_D_8_SCNN_D_7/sum_0_split
I0313 10:45:28.595551 10269 net.cpp:86] Creating Layer SCNN_D_8_SCNN_D_7/sum_0_split
I0313 10:45:28.595556 10269 net.cpp:408] SCNN_D_8_SCNN_D_7/sum_0_split <- SCNN_D_8
I0313 10:45:28.595564 10269 net.cpp:382] SCNN_D_8_SCNN_D_7/sum_0_split -> SCNN_D_8_SCNN_D_7/sum_0_split_0
I0313 10:45:28.595584 10269 net.cpp:382] SCNN_D_8_SCNN_D_7/sum_0_split -> SCNN_D_8_SCNN_D_7/sum_0_split_1
I0313 10:45:28.595630 10269 net.cpp:124] Setting up SCNN_D_8_SCNN_D_7/sum_0_split
I0313 10:45:28.595638 10269 net.cpp:131] Top shape: 1 64 1 80 (5120)
I0313 10:45:28.595643 10269 net.cpp:131] Top shape: 1 64 1 80 (5120)
I0313 10:45:28.595646 10269 net.cpp:139] Memory required for data: 318402560
I0313 10:45:28.595649 10269 layer_factory.hpp:77] Creating layer SCNN_D_8
I0313 10:45:28.595657 10269 net.cpp:86] Creating Layer SCNN_D_8
I0313 10:45:28.595664 10269 net.cpp:408] SCNN_D_8 <- SCNN_D_8_SCNN_D_7/sum_0_split_0
I0313 10:45:28.595670 10269 net.cpp:382] SCNN_D_8 -> SCNN_D_8/message
I0313 10:45:28.596854 10269 net.cpp:124] Setting up SCNN_D_8
I0313 10:45:28.596868 10269 net.cpp:131] Top shape: 1 64 1 80 (5120)
I0313 10:45:28.596873 10269 net.cpp:139] Memory required for data: 318423040
I0313 10:45:28.596879 10269 net.cpp:467] Sharing parameters 'SCNN_D_w' owned by layer 'SCNN_D_1', param index 0
I0313 10:45:28.596882 10269 layer_factory.hpp:77] Creating layer SCNN_D_8/relu
I0313 10:45:28.596887 10269 net.cpp:86] Creating Layer SCNN_D_8/relu
I0313 10:45:28.596892 10269 net.cpp:408] SCNN_D_8/relu <- SCNN_D_8/message
I0313 10:45:28.596901 10269 net.cpp:369] SCNN_D_8/relu -> SCNN_D_8/message (in-place)
I0313 10:45:28.597043 10269 net.cpp:124] Setting up SCNN_D_8/relu
I0313 10:45:28.597050 10269 net.cpp:131] Top shape: 1 64 1 80 (5120)
I0313 10:45:28.597054 10269 net.cpp:139] Memory required for data: 318443520
I0313 10:45:28.597057 10269 layer_factory.hpp:77] Creating layer SCNN_D_8/sum
I0313 10:45:28.597061 10269 net.cpp:86] Creating Layer SCNN_D_8/sum
I0313 10:45:28.597067 10269 net.cpp:408] SCNN_D_8/sum <- SCNN_D_8/message
I0313 10:45:28.597075 10269 net.cpp:408] SCNN_D_8/sum <- slice1_9
I0313 10:45:28.597081 10269 net.cpp:382] SCNN_D_8/sum -> SCNN_D_9
I0313 10:45:28.597123 10269 net.cpp:124] Setting up SCNN_D_8/sum
I0313 10:45:28.597149 10269 net.cpp:131] Top shape: 1 64 1 80 (5120)
I0313 10:45:28.597153 10269 net.cpp:139] Memory required for data: 318464000
I0313 10:45:28.597156 10269 layer_factory.hpp:77] Creating layer SCNN_D_9_SCNN_D_8/sum_0_split
I0313 10:45:28.597162 10269 net.cpp:86] Creating Layer SCNN_D_9_SCNN_D_8/sum_0_split
I0313 10:45:28.597167 10269 net.cpp:408] SCNN_D_9_SCNN_D_8/sum_0_split <- SCNN_D_9
I0313 10:45:28.597173 10269 net.cpp:382] SCNN_D_9_SCNN_D_8/sum_0_split -> SCNN_D_9_SCNN_D_8/sum_0_split_0
I0313 10:45:28.597182 10269 net.cpp:382] SCNN_D_9_SCNN_D_8/sum_0_split -> SCNN_D_9_SCNN_D_8/sum_0_split_1
I0313 10:45:28.597223 10269 net.cpp:124] Setting up SCNN_D_9_SCNN_D_8/sum_0_split
I0313 10:45:28.597231 10269 net.cpp:131] Top shape: 1 64 1 80 (5120)
I0313 10:45:28.597236 10269 net.cpp:131] Top shape: 1 64 1 80 (5120)
I0313 10:45:28.597240 10269 net.cpp:139] Memory required for data: 318504960
I0313 10:45:28.597244 10269 layer_factory.hpp:77] Creating layer SCNN_D_9
I0313 10:45:28.597252 10269 net.cpp:86] Creating Layer SCNN_D_9
I0313 10:45:28.597259 10269 net.cpp:408] SCNN_D_9 <- SCNN_D_9_SCNN_D_8/sum_0_split_0
I0313 10:45:28.597267 10269 net.cpp:382] SCNN_D_9 -> SCNN_D_9/message
I0313 10:45:28.599503 10269 net.cpp:124] Setting up SCNN_D_9
I0313 10:45:28.599520 10269 net.cpp:131] Top shape: 1 64 1 80 (5120)
I0313 10:45:28.599524 10269 net.cpp:139] Memory required for data: 318525440
I0313 10:45:28.599537 10269 net.cpp:467] Sharing parameters 'SCNN_D_w' owned by layer 'SCNN_D_1', param index 0
I0313 10:45:28.599542 10269 layer_factory.hpp:77] Creating layer SCNN_D_9/relu
I0313 10:45:28.599548 10269 net.cpp:86] Creating Layer SCNN_D_9/relu
I0313 10:45:28.599553 10269 net.cpp:408] SCNN_D_9/relu <- SCNN_D_9/message
I0313 10:45:28.599560 10269 net.cpp:369] SCNN_D_9/relu -> SCNN_D_9/message (in-place)
I0313 10:45:28.599711 10269 net.cpp:124] Setting up SCNN_D_9/relu
I0313 10:45:28.599720 10269 net.cpp:131] Top shape: 1 64 1 80 (5120)
I0313 10:45:28.599723 10269 net.cpp:139] Memory required for data: 318545920
I0313 10:45:28.599725 10269 layer_factory.hpp:77] Creating layer SCNN_D_9/sum
I0313 10:45:28.599733 10269 net.cpp:86] Creating Layer SCNN_D_9/sum
I0313 10:45:28.599740 10269 net.cpp:408] SCNN_D_9/sum <- SCNN_D_9/message
I0313 10:45:28.599746 10269 net.cpp:408] SCNN_D_9/sum <- slice1_10
I0313 10:45:28.599752 10269 net.cpp:382] SCNN_D_9/sum -> SCNN_D_10
I0313 10:45:28.599784 10269 net.cpp:124] Setting up SCNN_D_9/sum
I0313 10:45:28.599792 10269 net.cpp:131] Top shape: 1 64 1 80 (5120)
I0313 10:45:28.599795 10269 net.cpp:139] Memory required for data: 318566400
I0313 10:45:28.599799 10269 layer_factory.hpp:77] Creating layer SCNN_D_10_SCNN_D_9/sum_0_split
I0313 10:45:28.599805 10269 net.cpp:86] Creating Layer SCNN_D_10_SCNN_D_9/sum_0_split
I0313 10:45:28.599810 10269 net.cpp:408] SCNN_D_10_SCNN_D_9/sum_0_split <- SCNN_D_10
I0313 10:45:28.599817 10269 net.cpp:382] SCNN_D_10_SCNN_D_9/sum_0_split -> SCNN_D_10_SCNN_D_9/sum_0_split_0
I0313 10:45:28.599828 10269 net.cpp:382] SCNN_D_10_SCNN_D_9/sum_0_split -> SCNN_D_10_SCNN_D_9/sum_0_split_1
I0313 10:45:28.599865 10269 net.cpp:124] Setting up SCNN_D_10_SCNN_D_9/sum_0_split
I0313 10:45:28.599874 10269 net.cpp:131] Top shape: 1 64 1 80 (5120)
I0313 10:45:28.599879 10269 net.cpp:131] Top shape: 1 64 1 80 (5120)
I0313 10:45:28.599882 10269 net.cpp:139] Memory required for data: 318607360
I0313 10:45:28.599895 10269 layer_factory.hpp:77] Creating layer SCNN_D_10
I0313 10:45:28.599903 10269 net.cpp:86] Creating Layer SCNN_D_10
I0313 10:45:28.599908 10269 net.cpp:408] SCNN_D_10 <- SCNN_D_10_SCNN_D_9/sum_0_split_0
I0313 10:45:28.599915 10269 net.cpp:382] SCNN_D_10 -> SCNN_D_10/message
I0313 10:45:28.601337 10269 net.cpp:124] Setting up SCNN_D_10
I0313 10:45:28.601351 10269 net.cpp:131] Top shape: 1 64 1 80 (5120)
I0313 10:45:28.601357 10269 net.cpp:139] Memory required for data: 318627840
I0313 10:45:28.601362 10269 net.cpp:467] Sharing parameters 'SCNN_D_w' owned by layer 'SCNN_D_1', param index 0
I0313 10:45:28.601366 10269 layer_factory.hpp:77] Creating layer SCNN_D_10/relu
I0313 10:45:28.601372 10269 net.cpp:86] Creating Layer SCNN_D_10/relu
I0313 10:45:28.601377 10269 net.cpp:408] SCNN_D_10/relu <- SCNN_D_10/message
I0313 10:45:28.601385 10269 net.cpp:369] SCNN_D_10/relu -> SCNN_D_10/message (in-place)
I0313 10:45:28.601732 10269 net.cpp:124] Setting up SCNN_D_10/relu
I0313 10:45:28.601742 10269 net.cpp:131] Top shape: 1 64 1 80 (5120)
I0313 10:45:28.601745 10269 net.cpp:139] Memory required for data: 318648320
I0313 10:45:28.601748 10269 layer_factory.hpp:77] Creating layer SCNN_D_10/sum
I0313 10:45:28.601755 10269 net.cpp:86] Creating Layer SCNN_D_10/sum
I0313 10:45:28.601761 10269 net.cpp:408] SCNN_D_10/sum <- SCNN_D_10/message
I0313 10:45:28.601769 10269 net.cpp:408] SCNN_D_10/sum <- slice1_11
I0313 10:45:28.601775 10269 net.cpp:382] SCNN_D_10/sum -> SCNN_D_11
I0313 10:45:28.601809 10269 net.cpp:124] Setting up SCNN_D_10/sum
I0313 10:45:28.601816 10269 net.cpp:131] Top shape: 1 64 1 80 (5120)
I0313 10:45:28.601820 10269 net.cpp:139] Memory required for data: 318668800
I0313 10:45:28.601822 10269 layer_factory.hpp:77] Creating layer SCNN_D_11_SCNN_D_10/sum_0_split
I0313 10:45:28.601830 10269 net.cpp:86] Creating Layer SCNN_D_11_SCNN_D_10/sum_0_split
I0313 10:45:28.601835 10269 net.cpp:408] SCNN_D_11_SCNN_D_10/sum_0_split <- SCNN_D_11
I0313 10:45:28.601843 10269 net.cpp:382] SCNN_D_11_SCNN_D_10/sum_0_split -> SCNN_D_11_SCNN_D_10/sum_0_split_0
I0313 10:45:28.601852 10269 net.cpp:382] SCNN_D_11_SCNN_D_10/sum_0_split -> SCNN_D_11_SCNN_D_10/sum_0_split_1
I0313 10:45:28.601892 10269 net.cpp:124] Setting up SCNN_D_11_SCNN_D_10/sum_0_split
I0313 10:45:28.601900 10269 net.cpp:131] Top shape: 1 64 1 80 (5120)
I0313 10:45:28.601903 10269 net.cpp:131] Top shape: 1 64 1 80 (5120)
I0313 10:45:28.601905 10269 net.cpp:139] Memory required for data: 318709760
I0313 10:45:28.601908 10269 layer_factory.hpp:77] Creating layer SCNN_D_11
I0313 10:45:28.601914 10269 net.cpp:86] Creating Layer SCNN_D_11
I0313 10:45:28.601920 10269 net.cpp:408] SCNN_D_11 <- SCNN_D_11_SCNN_D_10/sum_0_split_0
I0313 10:45:28.601930 10269 net.cpp:382] SCNN_D_11 -> SCNN_D_11/message
I0313 10:45:28.603749 10269 net.cpp:124] Setting up SCNN_D_11
I0313 10:45:28.603763 10269 net.cpp:131] Top shape: 1 64 1 80 (5120)
I0313 10:45:28.603766 10269 net.cpp:139] Memory required for data: 318730240
I0313 10:45:28.603771 10269 net.cpp:467] Sharing parameters 'SCNN_D_w' owned by layer 'SCNN_D_1', param index 0
I0313 10:45:28.603776 10269 layer_factory.hpp:77] Creating layer SCNN_D_11/relu
I0313 10:45:28.603782 10269 net.cpp:86] Creating Layer SCNN_D_11/relu
I0313 10:45:28.603788 10269 net.cpp:408] SCNN_D_11/relu <- SCNN_D_11/message
I0313 10:45:28.603796 10269 net.cpp:369] SCNN_D_11/relu -> SCNN_D_11/message (in-place)
I0313 10:45:28.603935 10269 net.cpp:124] Setting up SCNN_D_11/relu
I0313 10:45:28.603942 10269 net.cpp:131] Top shape: 1 64 1 80 (5120)
I0313 10:45:28.603945 10269 net.cpp:139] Memory required for data: 318750720
I0313 10:45:28.603950 10269 layer_factory.hpp:77] Creating layer SCNN_D_11/sum
I0313 10:45:28.603955 10269 net.cpp:86] Creating Layer SCNN_D_11/sum
I0313 10:45:28.603961 10269 net.cpp:408] SCNN_D_11/sum <- SCNN_D_11/message
I0313 10:45:28.603967 10269 net.cpp:408] SCNN_D_11/sum <- slice1_12
I0313 10:45:28.603973 10269 net.cpp:382] SCNN_D_11/sum -> SCNN_D_12
I0313 10:45:28.604004 10269 net.cpp:124] Setting up SCNN_D_11/sum
I0313 10:45:28.604012 10269 net.cpp:131] Top shape: 1 64 1 80 (5120)
I0313 10:45:28.604015 10269 net.cpp:139] Memory required for data: 318771200
I0313 10:45:28.604017 10269 layer_factory.hpp:77] Creating layer SCNN_D_12_SCNN_D_11/sum_0_split
I0313 10:45:28.604028 10269 net.cpp:86] Creating Layer SCNN_D_12_SCNN_D_11/sum_0_split
I0313 10:45:28.604034 10269 net.cpp:408] SCNN_D_12_SCNN_D_11/sum_0_split <- SCNN_D_12
I0313 10:45:28.604043 10269 net.cpp:382] SCNN_D_12_SCNN_D_11/sum_0_split -> SCNN_D_12_SCNN_D_11/sum_0_split_0
I0313 10:45:28.604051 10269 net.cpp:382] SCNN_D_12_SCNN_D_11/sum_0_split -> SCNN_D_12_SCNN_D_11/sum_0_split_1
I0313 10:45:28.604099 10269 net.cpp:124] Setting up SCNN_D_12_SCNN_D_11/sum_0_split
I0313 10:45:28.604107 10269 net.cpp:131] Top shape: 1 64 1 80 (5120)
I0313 10:45:28.604112 10269 net.cpp:131] Top shape: 1 64 1 80 (5120)
I0313 10:45:28.604116 10269 net.cpp:139] Memory required for data: 318812160
I0313 10:45:28.604120 10269 layer_factory.hpp:77] Creating layer SCNN_D_12
I0313 10:45:28.604128 10269 net.cpp:86] Creating Layer SCNN_D_12
I0313 10:45:28.604135 10269 net.cpp:408] SCNN_D_12 <- SCNN_D_12_SCNN_D_11/sum_0_split_0
I0313 10:45:28.604141 10269 net.cpp:382] SCNN_D_12 -> SCNN_D_12/message
I0313 10:45:28.606375 10269 net.cpp:124] Setting up SCNN_D_12
I0313 10:45:28.606393 10269 net.cpp:131] Top shape: 1 64 1 80 (5120)
I0313 10:45:28.606398 10269 net.cpp:139] Memory required for data: 318832640
I0313 10:45:28.606405 10269 net.cpp:467] Sharing parameters 'SCNN_D_w' owned by layer 'SCNN_D_1', param index 0
I0313 10:45:28.606408 10269 layer_factory.hpp:77] Creating layer SCNN_D_12/relu
I0313 10:45:28.606415 10269 net.cpp:86] Creating Layer SCNN_D_12/relu
I0313 10:45:28.606420 10269 net.cpp:408] SCNN_D_12/relu <- SCNN_D_12/message
I0313 10:45:28.606429 10269 net.cpp:369] SCNN_D_12/relu -> SCNN_D_12/message (in-place)
I0313 10:45:28.606570 10269 net.cpp:124] Setting up SCNN_D_12/relu
I0313 10:45:28.606580 10269 net.cpp:131] Top shape: 1 64 1 80 (5120)
I0313 10:45:28.606581 10269 net.cpp:139] Memory required for data: 318853120
I0313 10:45:28.606586 10269 layer_factory.hpp:77] Creating layer SCNN_D_12/sum
I0313 10:45:28.606591 10269 net.cpp:86] Creating Layer SCNN_D_12/sum
I0313 10:45:28.606597 10269 net.cpp:408] SCNN_D_12/sum <- SCNN_D_12/message
I0313 10:45:28.606603 10269 net.cpp:408] SCNN_D_12/sum <- slice1_13
I0313 10:45:28.606608 10269 net.cpp:382] SCNN_D_12/sum -> SCNN_D_13
I0313 10:45:28.606640 10269 net.cpp:124] Setting up SCNN_D_12/sum
I0313 10:45:28.606648 10269 net.cpp:131] Top shape: 1 64 1 80 (5120)
I0313 10:45:28.606650 10269 net.cpp:139] Memory required for data: 318873600
I0313 10:45:28.606654 10269 layer_factory.hpp:77] Creating layer SCNN_D_13_SCNN_D_12/sum_0_split
I0313 10:45:28.606662 10269 net.cpp:86] Creating Layer SCNN_D_13_SCNN_D_12/sum_0_split
I0313 10:45:28.606667 10269 net.cpp:408] SCNN_D_13_SCNN_D_12/sum_0_split <- SCNN_D_13
I0313 10:45:28.606674 10269 net.cpp:382] SCNN_D_13_SCNN_D_12/sum_0_split -> SCNN_D_13_SCNN_D_12/sum_0_split_0
I0313 10:45:28.606683 10269 net.cpp:382] SCNN_D_13_SCNN_D_12/sum_0_split -> SCNN_D_13_SCNN_D_12/sum_0_split_1
I0313 10:45:28.606721 10269 net.cpp:124] Setting up SCNN_D_13_SCNN_D_12/sum_0_split
I0313 10:45:28.606730 10269 net.cpp:131] Top shape: 1 64 1 80 (5120)
I0313 10:45:28.606735 10269 net.cpp:131] Top shape: 1 64 1 80 (5120)
I0313 10:45:28.606739 10269 net.cpp:139] Memory required for data: 318914560
I0313 10:45:28.606743 10269 layer_factory.hpp:77] Creating layer SCNN_D_13
I0313 10:45:28.606750 10269 net.cpp:86] Creating Layer SCNN_D_13
I0313 10:45:28.606755 10269 net.cpp:408] SCNN_D_13 <- SCNN_D_13_SCNN_D_12/sum_0_split_0
I0313 10:45:28.606765 10269 net.cpp:382] SCNN_D_13 -> SCNN_D_13/message
I0313 10:45:28.607996 10269 net.cpp:124] Setting up SCNN_D_13
I0313 10:45:28.608012 10269 net.cpp:131] Top shape: 1 64 1 80 (5120)
I0313 10:45:28.608016 10269 net.cpp:139] Memory required for data: 318935040
I0313 10:45:28.608027 10269 net.cpp:467] Sharing parameters 'SCNN_D_w' owned by layer 'SCNN_D_1', param index 0
I0313 10:45:28.608032 10269 layer_factory.hpp:77] Creating layer SCNN_D_13/relu
I0313 10:45:28.608037 10269 net.cpp:86] Creating Layer SCNN_D_13/relu
I0313 10:45:28.608043 10269 net.cpp:408] SCNN_D_13/relu <- SCNN_D_13/message
I0313 10:45:28.608050 10269 net.cpp:369] SCNN_D_13/relu -> SCNN_D_13/message (in-place)
I0313 10:45:28.608191 10269 net.cpp:124] Setting up SCNN_D_13/relu
I0313 10:45:28.608199 10269 net.cpp:131] Top shape: 1 64 1 80 (5120)
I0313 10:45:28.608202 10269 net.cpp:139] Memory required for data: 318955520
I0313 10:45:28.608206 10269 layer_factory.hpp:77] Creating layer SCNN_D_13/sum
I0313 10:45:28.608211 10269 net.cpp:86] Creating Layer SCNN_D_13/sum
I0313 10:45:28.608217 10269 net.cpp:408] SCNN_D_13/sum <- SCNN_D_13/message
I0313 10:45:28.608225 10269 net.cpp:408] SCNN_D_13/sum <- slice1_14
I0313 10:45:28.608232 10269 net.cpp:382] SCNN_D_13/sum -> SCNN_D_14
I0313 10:45:28.608263 10269 net.cpp:124] Setting up SCNN_D_13/sum
I0313 10:45:28.608270 10269 net.cpp:131] Top shape: 1 64 1 80 (5120)
I0313 10:45:28.608274 10269 net.cpp:139] Memory required for data: 318976000
I0313 10:45:28.608278 10269 layer_factory.hpp:77] Creating layer SCNN_D_14_SCNN_D_13/sum_0_split
I0313 10:45:28.608284 10269 net.cpp:86] Creating Layer SCNN_D_14_SCNN_D_13/sum_0_split
I0313 10:45:28.608290 10269 net.cpp:408] SCNN_D_14_SCNN_D_13/sum_0_split <- SCNN_D_14
I0313 10:45:28.608299 10269 net.cpp:382] SCNN_D_14_SCNN_D_13/sum_0_split -> SCNN_D_14_SCNN_D_13/sum_0_split_0
I0313 10:45:28.608312 10269 net.cpp:382] SCNN_D_14_SCNN_D_13/sum_0_split -> SCNN_D_14_SCNN_D_13/sum_0_split_1
I0313 10:45:28.608353 10269 net.cpp:124] Setting up SCNN_D_14_SCNN_D_13/sum_0_split
I0313 10:45:28.608362 10269 net.cpp:131] Top shape: 1 64 1 80 (5120)
I0313 10:45:28.608372 10269 net.cpp:131] Top shape: 1 64 1 80 (5120)
I0313 10:45:28.608376 10269 net.cpp:139] Memory required for data: 319016960
I0313 10:45:28.608381 10269 layer_factory.hpp:77] Creating layer SCNN_D_14
I0313 10:45:28.608388 10269 net.cpp:86] Creating Layer SCNN_D_14
I0313 10:45:28.608394 10269 net.cpp:408] SCNN_D_14 <- SCNN_D_14_SCNN_D_13/sum_0_split_0
I0313 10:45:28.608403 10269 net.cpp:382] SCNN_D_14 -> SCNN_D_14/message
I0313 10:45:28.609601 10269 net.cpp:124] Setting up SCNN_D_14
I0313 10:45:28.609614 10269 net.cpp:131] Top shape: 1 64 1 80 (5120)
I0313 10:45:28.609618 10269 net.cpp:139] Memory required for data: 319037440
I0313 10:45:28.609623 10269 net.cpp:467] Sharing parameters 'SCNN_D_w' owned by layer 'SCNN_D_1', param index 0
I0313 10:45:28.609625 10269 layer_factory.hpp:77] Creating layer SCNN_D_14/relu
I0313 10:45:28.609632 10269 net.cpp:86] Creating Layer SCNN_D_14/relu
I0313 10:45:28.609638 10269 net.cpp:408] SCNN_D_14/relu <- SCNN_D_14/message
I0313 10:45:28.609647 10269 net.cpp:369] SCNN_D_14/relu -> SCNN_D_14/message (in-place)
I0313 10:45:28.609783 10269 net.cpp:124] Setting up SCNN_D_14/relu
I0313 10:45:28.609791 10269 net.cpp:131] Top shape: 1 64 1 80 (5120)
I0313 10:45:28.609796 10269 net.cpp:139] Memory required for data: 319057920
I0313 10:45:28.609797 10269 layer_factory.hpp:77] Creating layer SCNN_D_14/sum
I0313 10:45:28.609804 10269 net.cpp:86] Creating Layer SCNN_D_14/sum
I0313 10:45:28.609812 10269 net.cpp:408] SCNN_D_14/sum <- SCNN_D_14/message
I0313 10:45:28.609819 10269 net.cpp:408] SCNN_D_14/sum <- slice1_15
I0313 10:45:28.609824 10269 net.cpp:382] SCNN_D_14/sum -> SCNN_D_15
I0313 10:45:28.609858 10269 net.cpp:124] Setting up SCNN_D_14/sum
I0313 10:45:28.609864 10269 net.cpp:131] Top shape: 1 64 1 80 (5120)
I0313 10:45:28.609869 10269 net.cpp:139] Memory required for data: 319078400
I0313 10:45:28.609872 10269 layer_factory.hpp:77] Creating layer SCNN_D_15_SCNN_D_14/sum_0_split
I0313 10:45:28.609879 10269 net.cpp:86] Creating Layer SCNN_D_15_SCNN_D_14/sum_0_split
I0313 10:45:28.609884 10269 net.cpp:408] SCNN_D_15_SCNN_D_14/sum_0_split <- SCNN_D_15
I0313 10:45:28.609891 10269 net.cpp:382] SCNN_D_15_SCNN_D_14/sum_0_split -> SCNN_D_15_SCNN_D_14/sum_0_split_0
I0313 10:45:28.609901 10269 net.cpp:382] SCNN_D_15_SCNN_D_14/sum_0_split -> SCNN_D_15_SCNN_D_14/sum_0_split_1
I0313 10:45:28.609941 10269 net.cpp:124] Setting up SCNN_D_15_SCNN_D_14/sum_0_split
I0313 10:45:28.609951 10269 net.cpp:131] Top shape: 1 64 1 80 (5120)
I0313 10:45:28.609961 10269 net.cpp:131] Top shape: 1 64 1 80 (5120)
I0313 10:45:28.609964 10269 net.cpp:139] Memory required for data: 319119360
I0313 10:45:28.609968 10269 layer_factory.hpp:77] Creating layer SCNN_D_15
I0313 10:45:28.609977 10269 net.cpp:86] Creating Layer SCNN_D_15
I0313 10:45:28.609982 10269 net.cpp:408] SCNN_D_15 <- SCNN_D_15_SCNN_D_14/sum_0_split_0
I0313 10:45:28.609990 10269 net.cpp:382] SCNN_D_15 -> SCNN_D_15/message
I0313 10:45:28.611181 10269 net.cpp:124] Setting up SCNN_D_15
I0313 10:45:28.611196 10269 net.cpp:131] Top shape: 1 64 1 80 (5120)
I0313 10:45:28.611201 10269 net.cpp:139] Memory required for data: 319139840
I0313 10:45:28.611205 10269 net.cpp:467] Sharing parameters 'SCNN_D_w' owned by layer 'SCNN_D_1', param index 0
I0313 10:45:28.611210 10269 layer_factory.hpp:77] Creating layer SCNN_D_15/relu
I0313 10:45:28.611217 10269 net.cpp:86] Creating Layer SCNN_D_15/relu
I0313 10:45:28.611223 10269 net.cpp:408] SCNN_D_15/relu <- SCNN_D_15/message
I0313 10:45:28.611232 10269 net.cpp:369] SCNN_D_15/relu -> SCNN_D_15/message (in-place)
I0313 10:45:28.612823 10269 net.cpp:124] Setting up SCNN_D_15/relu
I0313 10:45:28.612838 10269 net.cpp:131] Top shape: 1 64 1 80 (5120)
I0313 10:45:28.612844 10269 net.cpp:139] Memory required for data: 319160320
I0313 10:45:28.612849 10269 layer_factory.hpp:77] Creating layer SCNN_D_15/sum
I0313 10:45:28.612857 10269 net.cpp:86] Creating Layer SCNN_D_15/sum
I0313 10:45:28.612867 10269 net.cpp:408] SCNN_D_15/sum <- SCNN_D_15/message
I0313 10:45:28.612877 10269 net.cpp:408] SCNN_D_15/sum <- slice1_16
I0313 10:45:28.612886 10269 net.cpp:382] SCNN_D_15/sum -> SCNN_D_16
I0313 10:45:28.612929 10269 net.cpp:124] Setting up SCNN_D_15/sum
I0313 10:45:28.612941 10269 net.cpp:131] Top shape: 1 64 1 80 (5120)
I0313 10:45:28.612947 10269 net.cpp:139] Memory required for data: 319180800
I0313 10:45:28.612952 10269 layer_factory.hpp:77] Creating layer SCNN_D_16_SCNN_D_15/sum_0_split
I0313 10:45:28.612962 10269 net.cpp:86] Creating Layer SCNN_D_16_SCNN_D_15/sum_0_split
I0313 10:45:28.612969 10269 net.cpp:408] SCNN_D_16_SCNN_D_15/sum_0_split <- SCNN_D_16
I0313 10:45:28.612982 10269 net.cpp:382] SCNN_D_16_SCNN_D_15/sum_0_split -> SCNN_D_16_SCNN_D_15/sum_0_split_0
I0313 10:45:28.612990 10269 net.cpp:382] SCNN_D_16_SCNN_D_15/sum_0_split -> SCNN_D_16_SCNN_D_15/sum_0_split_1
I0313 10:45:28.613047 10269 net.cpp:124] Setting up SCNN_D_16_SCNN_D_15/sum_0_split
I0313 10:45:28.613059 10269 net.cpp:131] Top shape: 1 64 1 80 (5120)
I0313 10:45:28.613066 10269 net.cpp:131] Top shape: 1 64 1 80 (5120)
I0313 10:45:28.613072 10269 net.cpp:139] Memory required for data: 319221760
I0313 10:45:28.613076 10269 layer_factory.hpp:77] Creating layer SCNN_D_16
I0313 10:45:28.613090 10269 net.cpp:86] Creating Layer SCNN_D_16
I0313 10:45:28.613099 10269 net.cpp:408] SCNN_D_16 <- SCNN_D_16_SCNN_D_15/sum_0_split_0
I0313 10:45:28.613111 10269 net.cpp:382] SCNN_D_16 -> SCNN_D_16/message
I0313 10:45:28.614768 10269 net.cpp:124] Setting up SCNN_D_16
I0313 10:45:28.614785 10269 net.cpp:131] Top shape: 1 64 1 80 (5120)
I0313 10:45:28.614792 10269 net.cpp:139] Memory required for data: 319242240
I0313 10:45:28.614800 10269 net.cpp:467] Sharing parameters 'SCNN_D_w' owned by layer 'SCNN_D_1', param index 0
I0313 10:45:28.614806 10269 layer_factory.hpp:77] Creating layer SCNN_D_16/relu
I0313 10:45:28.614816 10269 net.cpp:86] Creating Layer SCNN_D_16/relu
I0313 10:45:28.614825 10269 net.cpp:408] SCNN_D_16/relu <- SCNN_D_16/message
I0313 10:45:28.614835 10269 net.cpp:369] SCNN_D_16/relu -> SCNN_D_16/message (in-place)
I0313 10:45:28.615018 10269 net.cpp:124] Setting up SCNN_D_16/relu
I0313 10:45:28.615031 10269 net.cpp:131] Top shape: 1 64 1 80 (5120)
I0313 10:45:28.615036 10269 net.cpp:139] Memory required for data: 319262720
I0313 10:45:28.615041 10269 layer_factory.hpp:77] Creating layer SCNN_D_16/sum
I0313 10:45:28.615049 10269 net.cpp:86] Creating Layer SCNN_D_16/sum
I0313 10:45:28.615057 10269 net.cpp:408] SCNN_D_16/sum <- SCNN_D_16/message
I0313 10:45:28.615067 10269 net.cpp:408] SCNN_D_16/sum <- slice1_17
I0313 10:45:28.615075 10269 net.cpp:382] SCNN_D_16/sum -> SCNN_D_17
I0313 10:45:28.615116 10269 net.cpp:124] Setting up SCNN_D_16/sum
I0313 10:45:28.615126 10269 net.cpp:131] Top shape: 1 64 1 80 (5120)
I0313 10:45:28.615131 10269 net.cpp:139] Memory required for data: 319283200
I0313 10:45:28.615137 10269 layer_factory.hpp:77] Creating layer SCNN_D_17_SCNN_D_16/sum_0_split
I0313 10:45:28.615151 10269 net.cpp:86] Creating Layer SCNN_D_17_SCNN_D_16/sum_0_split
I0313 10:45:28.615159 10269 net.cpp:408] SCNN_D_17_SCNN_D_16/sum_0_split <- SCNN_D_17
I0313 10:45:28.615170 10269 net.cpp:382] SCNN_D_17_SCNN_D_16/sum_0_split -> SCNN_D_17_SCNN_D_16/sum_0_split_0
I0313 10:45:28.615180 10269 net.cpp:382] SCNN_D_17_SCNN_D_16/sum_0_split -> SCNN_D_17_SCNN_D_16/sum_0_split_1
I0313 10:45:28.615233 10269 net.cpp:124] Setting up SCNN_D_17_SCNN_D_16/sum_0_split
I0313 10:45:28.615243 10269 net.cpp:131] Top shape: 1 64 1 80 (5120)
I0313 10:45:28.615250 10269 net.cpp:131] Top shape: 1 64 1 80 (5120)
I0313 10:45:28.615257 10269 net.cpp:139] Memory required for data: 319324160
I0313 10:45:28.615262 10269 layer_factory.hpp:77] Creating layer SCNN_D_17
I0313 10:45:28.615272 10269 net.cpp:86] Creating Layer SCNN_D_17
I0313 10:45:28.615280 10269 net.cpp:408] SCNN_D_17 <- SCNN_D_17_SCNN_D_16/sum_0_split_0
I0313 10:45:28.615293 10269 net.cpp:382] SCNN_D_17 -> SCNN_D_17/message
I0313 10:45:28.616967 10269 net.cpp:124] Setting up SCNN_D_17
I0313 10:45:28.616984 10269 net.cpp:131] Top shape: 1 64 1 80 (5120)
I0313 10:45:28.616991 10269 net.cpp:139] Memory required for data: 319344640
I0313 10:45:28.617000 10269 net.cpp:467] Sharing parameters 'SCNN_D_w' owned by layer 'SCNN_D_1', param index 0
I0313 10:45:28.617007 10269 layer_factory.hpp:77] Creating layer SCNN_D_17/relu
I0313 10:45:28.617014 10269 net.cpp:86] Creating Layer SCNN_D_17/relu
I0313 10:45:28.617023 10269 net.cpp:408] SCNN_D_17/relu <- SCNN_D_17/message
I0313 10:45:28.617035 10269 net.cpp:369] SCNN_D_17/relu -> SCNN_D_17/message (in-place)
I0313 10:45:28.617218 10269 net.cpp:124] Setting up SCNN_D_17/relu
I0313 10:45:28.617228 10269 net.cpp:131] Top shape: 1 64 1 80 (5120)
I0313 10:45:28.617233 10269 net.cpp:139] Memory required for data: 319365120
I0313 10:45:28.617238 10269 layer_factory.hpp:77] Creating layer SCNN_D_17/sum
I0313 10:45:28.617245 10269 net.cpp:86] Creating Layer SCNN_D_17/sum
I0313 10:45:28.617254 10269 net.cpp:408] SCNN_D_17/sum <- SCNN_D_17/message
I0313 10:45:28.617264 10269 net.cpp:408] SCNN_D_17/sum <- slice1_18
I0313 10:45:28.617271 10269 net.cpp:382] SCNN_D_17/sum -> SCNN_D_18
I0313 10:45:28.617310 10269 net.cpp:124] Setting up SCNN_D_17/sum
I0313 10:45:28.617318 10269 net.cpp:131] Top shape: 1 64 1 80 (5120)
I0313 10:45:28.617326 10269 net.cpp:139] Memory required for data: 319385600
I0313 10:45:28.617337 10269 layer_factory.hpp:77] Creating layer SCNN_D_18_SCNN_D_17/sum_0_split
I0313 10:45:28.617349 10269 net.cpp:86] Creating Layer SCNN_D_18_SCNN_D_17/sum_0_split
I0313 10:45:28.617357 10269 net.cpp:408] SCNN_D_18_SCNN_D_17/sum_0_split <- SCNN_D_18
I0313 10:45:28.617367 10269 net.cpp:382] SCNN_D_18_SCNN_D_17/sum_0_split -> SCNN_D_18_SCNN_D_17/sum_0_split_0
I0313 10:45:28.617378 10269 net.cpp:382] SCNN_D_18_SCNN_D_17/sum_0_split -> SCNN_D_18_SCNN_D_17/sum_0_split_1
I0313 10:45:28.617434 10269 net.cpp:124] Setting up SCNN_D_18_SCNN_D_17/sum_0_split
I0313 10:45:28.617444 10269 net.cpp:131] Top shape: 1 64 1 80 (5120)
I0313 10:45:28.617452 10269 net.cpp:131] Top shape: 1 64 1 80 (5120)
I0313 10:45:28.617457 10269 net.cpp:139] Memory required for data: 319426560
I0313 10:45:28.617463 10269 layer_factory.hpp:77] Creating layer SCNN_D_18
I0313 10:45:28.617472 10269 net.cpp:86] Creating Layer SCNN_D_18
I0313 10:45:28.617480 10269 net.cpp:408] SCNN_D_18 <- SCNN_D_18_SCNN_D_17/sum_0_split_0
I0313 10:45:28.617492 10269 net.cpp:382] SCNN_D_18 -> SCNN_D_18/message
I0313 10:45:28.619158 10269 net.cpp:124] Setting up SCNN_D_18
I0313 10:45:28.619176 10269 net.cpp:131] Top shape: 1 64 1 80 (5120)
I0313 10:45:28.619184 10269 net.cpp:139] Memory required for data: 319447040
I0313 10:45:28.619191 10269 net.cpp:467] Sharing parameters 'SCNN_D_w' owned by layer 'SCNN_D_1', param index 0
I0313 10:45:28.619197 10269 layer_factory.hpp:77] Creating layer SCNN_D_18/relu
I0313 10:45:28.619206 10269 net.cpp:86] Creating Layer SCNN_D_18/relu
I0313 10:45:28.619215 10269 net.cpp:408] SCNN_D_18/relu <- SCNN_D_18/message
I0313 10:45:28.619226 10269 net.cpp:369] SCNN_D_18/relu -> SCNN_D_18/message (in-place)
I0313 10:45:28.619416 10269 net.cpp:124] Setting up SCNN_D_18/relu
I0313 10:45:28.619428 10269 net.cpp:131] Top shape: 1 64 1 80 (5120)
I0313 10:45:28.619433 10269 net.cpp:139] Memory required for data: 319467520
I0313 10:45:28.619441 10269 layer_factory.hpp:77] Creating layer SCNN_D_18/sum
I0313 10:45:28.619448 10269 net.cpp:86] Creating Layer SCNN_D_18/sum
I0313 10:45:28.619457 10269 net.cpp:408] SCNN_D_18/sum <- SCNN_D_18/message
I0313 10:45:28.619467 10269 net.cpp:408] SCNN_D_18/sum <- slice1_19
I0313 10:45:28.619475 10269 net.cpp:382] SCNN_D_18/sum -> SCNN_D_19
I0313 10:45:28.619515 10269 net.cpp:124] Setting up SCNN_D_18/sum
I0313 10:45:28.619525 10269 net.cpp:131] Top shape: 1 64 1 80 (5120)
I0313 10:45:28.619530 10269 net.cpp:139] Memory required for data: 319488000
I0313 10:45:28.619534 10269 layer_factory.hpp:77] Creating layer SCNN_D_19_SCNN_D_18/sum_0_split
I0313 10:45:28.619545 10269 net.cpp:86] Creating Layer SCNN_D_19_SCNN_D_18/sum_0_split
I0313 10:45:28.619554 10269 net.cpp:408] SCNN_D_19_SCNN_D_18/sum_0_split <- SCNN_D_19
I0313 10:45:28.619563 10269 net.cpp:382] SCNN_D_19_SCNN_D_18/sum_0_split -> SCNN_D_19_SCNN_D_18/sum_0_split_0
I0313 10:45:28.619582 10269 net.cpp:382] SCNN_D_19_SCNN_D_18/sum_0_split -> SCNN_D_19_SCNN_D_18/sum_0_split_1
I0313 10:45:28.619639 10269 net.cpp:124] Setting up SCNN_D_19_SCNN_D_18/sum_0_split
I0313 10:45:28.619650 10269 net.cpp:131] Top shape: 1 64 1 80 (5120)
I0313 10:45:28.619657 10269 net.cpp:131] Top shape: 1 64 1 80 (5120)
I0313 10:45:28.619663 10269 net.cpp:139] Memory required for data: 319528960
I0313 10:45:28.619666 10269 layer_factory.hpp:77] Creating layer SCNN_D_19
I0313 10:45:28.619678 10269 net.cpp:86] Creating Layer SCNN_D_19
I0313 10:45:28.619685 10269 net.cpp:408] SCNN_D_19 <- SCNN_D_19_SCNN_D_18/sum_0_split_0
I0313 10:45:28.619695 10269 net.cpp:382] SCNN_D_19 -> SCNN_D_19/message
I0313 10:45:28.622669 10269 net.cpp:124] Setting up SCNN_D_19
I0313 10:45:28.622696 10269 net.cpp:131] Top shape: 1 64 1 80 (5120)
I0313 10:45:28.622704 10269 net.cpp:139] Memory required for data: 319549440
I0313 10:45:28.622714 10269 net.cpp:467] Sharing parameters 'SCNN_D_w' owned by layer 'SCNN_D_1', param index 0
I0313 10:45:28.622721 10269 layer_factory.hpp:77] Creating layer SCNN_D_19/relu
I0313 10:45:28.622732 10269 net.cpp:86] Creating Layer SCNN_D_19/relu
I0313 10:45:28.622742 10269 net.cpp:408] SCNN_D_19/relu <- SCNN_D_19/message
I0313 10:45:28.622759 10269 net.cpp:369] SCNN_D_19/relu -> SCNN_D_19/message (in-place)
I0313 10:45:28.623195 10269 net.cpp:124] Setting up SCNN_D_19/relu
I0313 10:45:28.623209 10269 net.cpp:131] Top shape: 1 64 1 80 (5120)
I0313 10:45:28.623214 10269 net.cpp:139] Memory required for data: 319569920
I0313 10:45:28.623226 10269 layer_factory.hpp:77] Creating layer SCNN_D_19/sum
I0313 10:45:28.623235 10269 net.cpp:86] Creating Layer SCNN_D_19/sum
I0313 10:45:28.623245 10269 net.cpp:408] SCNN_D_19/sum <- SCNN_D_19/message
I0313 10:45:28.623255 10269 net.cpp:408] SCNN_D_19/sum <- slice1_20
I0313 10:45:28.623265 10269 net.cpp:382] SCNN_D_19/sum -> SCNN_D_20
I0313 10:45:28.623309 10269 net.cpp:124] Setting up SCNN_D_19/sum
I0313 10:45:28.623319 10269 net.cpp:131] Top shape: 1 64 1 80 (5120)
I0313 10:45:28.623324 10269 net.cpp:139] Memory required for data: 319590400
I0313 10:45:28.623329 10269 layer_factory.hpp:77] Creating layer SCNN_D_20_SCNN_D_19/sum_0_split
I0313 10:45:28.623339 10269 net.cpp:86] Creating Layer SCNN_D_20_SCNN_D_19/sum_0_split
I0313 10:45:28.623347 10269 net.cpp:408] SCNN_D_20_SCNN_D_19/sum_0_split <- SCNN_D_20
I0313 10:45:28.623355 10269 net.cpp:382] SCNN_D_20_SCNN_D_19/sum_0_split -> SCNN_D_20_SCNN_D_19/sum_0_split_0
I0313 10:45:28.623366 10269 net.cpp:382] SCNN_D_20_SCNN_D_19/sum_0_split -> SCNN_D_20_SCNN_D_19/sum_0_split_1
I0313 10:45:28.623426 10269 net.cpp:124] Setting up SCNN_D_20_SCNN_D_19/sum_0_split
I0313 10:45:28.623436 10269 net.cpp:131] Top shape: 1 64 1 80 (5120)
I0313 10:45:28.623445 10269 net.cpp:131] Top shape: 1 64 1 80 (5120)
I0313 10:45:28.623450 10269 net.cpp:139] Memory required for data: 319631360
I0313 10:45:28.623453 10269 layer_factory.hpp:77] Creating layer SCNN_D_20
I0313 10:45:28.623466 10269 net.cpp:86] Creating Layer SCNN_D_20
I0313 10:45:28.623476 10269 net.cpp:408] SCNN_D_20 <- SCNN_D_20_SCNN_D_19/sum_0_split_0
I0313 10:45:28.623487 10269 net.cpp:382] SCNN_D_20 -> SCNN_D_20/message
I0313 10:45:28.624678 10269 net.cpp:124] Setting up SCNN_D_20
I0313 10:45:28.624691 10269 net.cpp:131] Top shape: 1 64 1 80 (5120)
I0313 10:45:28.624693 10269 net.cpp:139] Memory required for data: 319651840
I0313 10:45:28.624698 10269 net.cpp:467] Sharing parameters 'SCNN_D_w' owned by layer 'SCNN_D_1', param index 0
I0313 10:45:28.624703 10269 layer_factory.hpp:77] Creating layer SCNN_D_20/relu
I0313 10:45:28.624707 10269 net.cpp:86] Creating Layer SCNN_D_20/relu
I0313 10:45:28.624713 10269 net.cpp:408] SCNN_D_20/relu <- SCNN_D_20/message
I0313 10:45:28.624722 10269 net.cpp:369] SCNN_D_20/relu -> SCNN_D_20/message (in-place)
I0313 10:45:28.625066 10269 net.cpp:124] Setting up SCNN_D_20/relu
I0313 10:45:28.625077 10269 net.cpp:131] Top shape: 1 64 1 80 (5120)
I0313 10:45:28.625080 10269 net.cpp:139] Memory required for data: 319672320
I0313 10:45:28.625083 10269 layer_factory.hpp:77] Creating layer SCNN_D_20/sum
I0313 10:45:28.625089 10269 net.cpp:86] Creating Layer SCNN_D_20/sum
I0313 10:45:28.625095 10269 net.cpp:408] SCNN_D_20/sum <- SCNN_D_20/message
I0313 10:45:28.625103 10269 net.cpp:408] SCNN_D_20/sum <- slice1_21
I0313 10:45:28.625110 10269 net.cpp:382] SCNN_D_20/sum -> SCNN_D_21
I0313 10:45:28.625142 10269 net.cpp:124] Setting up SCNN_D_20/sum
I0313 10:45:28.625151 10269 net.cpp:131] Top shape: 1 64 1 80 (5120)
I0313 10:45:28.625155 10269 net.cpp:139] Memory required for data: 319692800
I0313 10:45:28.625157 10269 layer_factory.hpp:77] Creating layer SCNN_D_21_SCNN_D_20/sum_0_split
I0313 10:45:28.625161 10269 net.cpp:86] Creating Layer SCNN_D_21_SCNN_D_20/sum_0_split
I0313 10:45:28.625165 10269 net.cpp:408] SCNN_D_21_SCNN_D_20/sum_0_split <- SCNN_D_21
I0313 10:45:28.625171 10269 net.cpp:382] SCNN_D_21_SCNN_D_20/sum_0_split -> SCNN_D_21_SCNN_D_20/sum_0_split_0
I0313 10:45:28.625183 10269 net.cpp:382] SCNN_D_21_SCNN_D_20/sum_0_split -> SCNN_D_21_SCNN_D_20/sum_0_split_1
I0313 10:45:28.625224 10269 net.cpp:124] Setting up SCNN_D_21_SCNN_D_20/sum_0_split
I0313 10:45:28.625231 10269 net.cpp:131] Top shape: 1 64 1 80 (5120)
I0313 10:45:28.625236 10269 net.cpp:131] Top shape: 1 64 1 80 (5120)
I0313 10:45:28.625241 10269 net.cpp:139] Memory required for data: 319733760
I0313 10:45:28.625243 10269 layer_factory.hpp:77] Creating layer SCNN_D_21
I0313 10:45:28.625250 10269 net.cpp:86] Creating Layer SCNN_D_21
I0313 10:45:28.625257 10269 net.cpp:408] SCNN_D_21 <- SCNN_D_21_SCNN_D_20/sum_0_split_0
I0313 10:45:28.625264 10269 net.cpp:382] SCNN_D_21 -> SCNN_D_21/message
I0313 10:45:28.626466 10269 net.cpp:124] Setting up SCNN_D_21
I0313 10:45:28.626479 10269 net.cpp:131] Top shape: 1 64 1 80 (5120)
I0313 10:45:28.626483 10269 net.cpp:139] Memory required for data: 319754240
I0313 10:45:28.626488 10269 net.cpp:467] Sharing parameters 'SCNN_D_w' owned by layer 'SCNN_D_1', param index 0
I0313 10:45:28.626492 10269 layer_factory.hpp:77] Creating layer SCNN_D_21/relu
I0313 10:45:28.626498 10269 net.cpp:86] Creating Layer SCNN_D_21/relu
I0313 10:45:28.626504 10269 net.cpp:408] SCNN_D_21/relu <- SCNN_D_21/message
I0313 10:45:28.626511 10269 net.cpp:369] SCNN_D_21/relu -> SCNN_D_21/message (in-place)
I0313 10:45:28.626642 10269 net.cpp:124] Setting up SCNN_D_21/relu
I0313 10:45:28.626652 10269 net.cpp:131] Top shape: 1 64 1 80 (5120)
I0313 10:45:28.626654 10269 net.cpp:139] Memory required for data: 319774720
I0313 10:45:28.626657 10269 layer_factory.hpp:77] Creating layer SCNN_D_21/sum
I0313 10:45:28.626662 10269 net.cpp:86] Creating Layer SCNN_D_21/sum
I0313 10:45:28.626668 10269 net.cpp:408] SCNN_D_21/sum <- SCNN_D_21/message
I0313 10:45:28.626675 10269 net.cpp:408] SCNN_D_21/sum <- slice1_22
I0313 10:45:28.626682 10269 net.cpp:382] SCNN_D_21/sum -> SCNN_D_22
I0313 10:45:28.626713 10269 net.cpp:124] Setting up SCNN_D_21/sum
I0313 10:45:28.626720 10269 net.cpp:131] Top shape: 1 64 1 80 (5120)
I0313 10:45:28.626724 10269 net.cpp:139] Memory required for data: 319795200
I0313 10:45:28.626726 10269 layer_factory.hpp:77] Creating layer SCNN_D_22_SCNN_D_21/sum_0_split
I0313 10:45:28.626731 10269 net.cpp:86] Creating Layer SCNN_D_22_SCNN_D_21/sum_0_split
I0313 10:45:28.626737 10269 net.cpp:408] SCNN_D_22_SCNN_D_21/sum_0_split <- SCNN_D_22
I0313 10:45:28.626744 10269 net.cpp:382] SCNN_D_22_SCNN_D_21/sum_0_split -> SCNN_D_22_SCNN_D_21/sum_0_split_0
I0313 10:45:28.626754 10269 net.cpp:382] SCNN_D_22_SCNN_D_21/sum_0_split -> SCNN_D_22_SCNN_D_21/sum_0_split_1
I0313 10:45:28.626792 10269 net.cpp:124] Setting up SCNN_D_22_SCNN_D_21/sum_0_split
I0313 10:45:28.626799 10269 net.cpp:131] Top shape: 1 64 1 80 (5120)
I0313 10:45:28.626804 10269 net.cpp:131] Top shape: 1 64 1 80 (5120)
I0313 10:45:28.626808 10269 net.cpp:139] Memory required for data: 319836160
I0313 10:45:28.626811 10269 layer_factory.hpp:77] Creating layer SCNN_D_22
I0313 10:45:28.626817 10269 net.cpp:86] Creating Layer SCNN_D_22
I0313 10:45:28.626823 10269 net.cpp:408] SCNN_D_22 <- SCNN_D_22_SCNN_D_21/sum_0_split_0
I0313 10:45:28.626832 10269 net.cpp:382] SCNN_D_22 -> SCNN_D_22/message
I0313 10:45:28.629034 10269 net.cpp:124] Setting up SCNN_D_22
I0313 10:45:28.629050 10269 net.cpp:131] Top shape: 1 64 1 80 (5120)
I0313 10:45:28.629052 10269 net.cpp:139] Memory required for data: 319856640
I0313 10:45:28.629058 10269 net.cpp:467] Sharing parameters 'SCNN_D_w' owned by layer 'SCNN_D_1', param index 0
I0313 10:45:28.629062 10269 layer_factory.hpp:77] Creating layer SCNN_D_22/relu
I0313 10:45:28.629067 10269 net.cpp:86] Creating Layer SCNN_D_22/relu
I0313 10:45:28.629074 10269 net.cpp:408] SCNN_D_22/relu <- SCNN_D_22/message
I0313 10:45:28.629081 10269 net.cpp:369] SCNN_D_22/relu -> SCNN_D_22/message (in-place)
I0313 10:45:28.629215 10269 net.cpp:124] Setting up SCNN_D_22/relu
I0313 10:45:28.629223 10269 net.cpp:131] Top shape: 1 64 1 80 (5120)
I0313 10:45:28.629226 10269 net.cpp:139] Memory required for data: 319877120
I0313 10:45:28.629230 10269 layer_factory.hpp:77] Creating layer SCNN_D_22/sum
I0313 10:45:28.629235 10269 net.cpp:86] Creating Layer SCNN_D_22/sum
I0313 10:45:28.629241 10269 net.cpp:408] SCNN_D_22/sum <- SCNN_D_22/message
I0313 10:45:28.629248 10269 net.cpp:408] SCNN_D_22/sum <- slice1_23
I0313 10:45:28.629256 10269 net.cpp:382] SCNN_D_22/sum -> SCNN_D_23
I0313 10:45:28.629288 10269 net.cpp:124] Setting up SCNN_D_22/sum
I0313 10:45:28.629297 10269 net.cpp:131] Top shape: 1 64 1 80 (5120)
I0313 10:45:28.629299 10269 net.cpp:139] Memory required for data: 319897600
I0313 10:45:28.629303 10269 layer_factory.hpp:77] Creating layer SCNN_D_23_SCNN_D_22/sum_0_split
I0313 10:45:28.629309 10269 net.cpp:86] Creating Layer SCNN_D_23_SCNN_D_22/sum_0_split
I0313 10:45:28.629315 10269 net.cpp:408] SCNN_D_23_SCNN_D_22/sum_0_split <- SCNN_D_23
I0313 10:45:28.629321 10269 net.cpp:382] SCNN_D_23_SCNN_D_22/sum_0_split -> SCNN_D_23_SCNN_D_22/sum_0_split_0
I0313 10:45:28.629329 10269 net.cpp:382] SCNN_D_23_SCNN_D_22/sum_0_split -> SCNN_D_23_SCNN_D_22/sum_0_split_1
I0313 10:45:28.629369 10269 net.cpp:124] Setting up SCNN_D_23_SCNN_D_22/sum_0_split
I0313 10:45:28.629376 10269 net.cpp:131] Top shape: 1 64 1 80 (5120)
I0313 10:45:28.629387 10269 net.cpp:131] Top shape: 1 64 1 80 (5120)
I0313 10:45:28.629390 10269 net.cpp:139] Memory required for data: 319938560
I0313 10:45:28.629395 10269 layer_factory.hpp:77] Creating layer SCNN_D_23
I0313 10:45:28.629401 10269 net.cpp:86] Creating Layer SCNN_D_23
I0313 10:45:28.629407 10269 net.cpp:408] SCNN_D_23 <- SCNN_D_23_SCNN_D_22/sum_0_split_0
I0313 10:45:28.629415 10269 net.cpp:382] SCNN_D_23 -> SCNN_D_23/message
I0313 10:45:28.630621 10269 net.cpp:124] Setting up SCNN_D_23
I0313 10:45:28.630635 10269 net.cpp:131] Top shape: 1 64 1 80 (5120)
I0313 10:45:28.630638 10269 net.cpp:139] Memory required for data: 319959040
I0313 10:45:28.630650 10269 net.cpp:467] Sharing parameters 'SCNN_D_w' owned by layer 'SCNN_D_1', param index 0
I0313 10:45:28.630654 10269 layer_factory.hpp:77] Creating layer SCNN_D_23/relu
I0313 10:45:28.630659 10269 net.cpp:86] Creating Layer SCNN_D_23/relu
I0313 10:45:28.630666 10269 net.cpp:408] SCNN_D_23/relu <- SCNN_D_23/message
I0313 10:45:28.630673 10269 net.cpp:369] SCNN_D_23/relu -> SCNN_D_23/message (in-place)
I0313 10:45:28.630807 10269 net.cpp:124] Setting up SCNN_D_23/relu
I0313 10:45:28.630815 10269 net.cpp:131] Top shape: 1 64 1 80 (5120)
I0313 10:45:28.630820 10269 net.cpp:139] Memory required for data: 319979520
I0313 10:45:28.630822 10269 layer_factory.hpp:77] Creating layer SCNN_D_23/sum
I0313 10:45:28.630827 10269 net.cpp:86] Creating Layer SCNN_D_23/sum
I0313 10:45:28.630833 10269 net.cpp:408] SCNN_D_23/sum <- SCNN_D_23/message
I0313 10:45:28.630841 10269 net.cpp:408] SCNN_D_23/sum <- slice1_24
I0313 10:45:28.630846 10269 net.cpp:382] SCNN_D_23/sum -> SCNN_D_24
I0313 10:45:28.630877 10269 net.cpp:124] Setting up SCNN_D_23/sum
I0313 10:45:28.630885 10269 net.cpp:131] Top shape: 1 64 1 80 (5120)
I0313 10:45:28.630889 10269 net.cpp:139] Memory required for data: 320000000
I0313 10:45:28.630892 10269 layer_factory.hpp:77] Creating layer SCNN_D_24_SCNN_D_23/sum_0_split
I0313 10:45:28.630897 10269 net.cpp:86] Creating Layer SCNN_D_24_SCNN_D_23/sum_0_split
I0313 10:45:28.630903 10269 net.cpp:408] SCNN_D_24_SCNN_D_23/sum_0_split <- SCNN_D_24
I0313 10:45:28.630909 10269 net.cpp:382] SCNN_D_24_SCNN_D_23/sum_0_split -> SCNN_D_24_SCNN_D_23/sum_0_split_0
I0313 10:45:28.630918 10269 net.cpp:382] SCNN_D_24_SCNN_D_23/sum_0_split -> SCNN_D_24_SCNN_D_23/sum_0_split_1
I0313 10:45:28.630961 10269 net.cpp:124] Setting up SCNN_D_24_SCNN_D_23/sum_0_split
I0313 10:45:28.630969 10269 net.cpp:131] Top shape: 1 64 1 80 (5120)
I0313 10:45:28.630973 10269 net.cpp:131] Top shape: 1 64 1 80 (5120)
I0313 10:45:28.630977 10269 net.cpp:139] Memory required for data: 320040960
I0313 10:45:28.630980 10269 layer_factory.hpp:77] Creating layer SCNN_D_24
I0313 10:45:28.630985 10269 net.cpp:86] Creating Layer SCNN_D_24
I0313 10:45:28.630990 10269 net.cpp:408] SCNN_D_24 <- SCNN_D_24_SCNN_D_23/sum_0_split_0
I0313 10:45:28.630996 10269 net.cpp:382] SCNN_D_24 -> SCNN_D_24/message
I0313 10:45:28.632227 10269 net.cpp:124] Setting up SCNN_D_24
I0313 10:45:28.632241 10269 net.cpp:131] Top shape: 1 64 1 80 (5120)
I0313 10:45:28.632243 10269 net.cpp:139] Memory required for data: 320061440
I0313 10:45:28.632254 10269 net.cpp:467] Sharing parameters 'SCNN_D_w' owned by layer 'SCNN_D_1', param index 0
I0313 10:45:28.632259 10269 layer_factory.hpp:77] Creating layer SCNN_D_24/relu
I0313 10:45:28.632264 10269 net.cpp:86] Creating Layer SCNN_D_24/relu
I0313 10:45:28.632272 10269 net.cpp:408] SCNN_D_24/relu <- SCNN_D_24/message
I0313 10:45:28.632278 10269 net.cpp:369] SCNN_D_24/relu -> SCNN_D_24/message (in-place)
I0313 10:45:28.632617 10269 net.cpp:124] Setting up SCNN_D_24/relu
I0313 10:45:28.632628 10269 net.cpp:131] Top shape: 1 64 1 80 (5120)
I0313 10:45:28.632632 10269 net.cpp:139] Memory required for data: 320081920
I0313 10:45:28.632635 10269 layer_factory.hpp:77] Creating layer SCNN_D_24/sum
I0313 10:45:28.632642 10269 net.cpp:86] Creating Layer SCNN_D_24/sum
I0313 10:45:28.632648 10269 net.cpp:408] SCNN_D_24/sum <- SCNN_D_24/message
I0313 10:45:28.632656 10269 net.cpp:408] SCNN_D_24/sum <- slice1_25
I0313 10:45:28.632663 10269 net.cpp:382] SCNN_D_24/sum -> SCNN_D_25
I0313 10:45:28.632694 10269 net.cpp:124] Setting up SCNN_D_24/sum
I0313 10:45:28.632702 10269 net.cpp:131] Top shape: 1 64 1 80 (5120)
I0313 10:45:28.632706 10269 net.cpp:139] Memory required for data: 320102400
I0313 10:45:28.632709 10269 layer_factory.hpp:77] Creating layer SCNN_D_25_SCNN_D_24/sum_0_split
I0313 10:45:28.632714 10269 net.cpp:86] Creating Layer SCNN_D_25_SCNN_D_24/sum_0_split
I0313 10:45:28.632719 10269 net.cpp:408] SCNN_D_25_SCNN_D_24/sum_0_split <- SCNN_D_25
I0313 10:45:28.632726 10269 net.cpp:382] SCNN_D_25_SCNN_D_24/sum_0_split -> SCNN_D_25_SCNN_D_24/sum_0_split_0
I0313 10:45:28.632735 10269 net.cpp:382] SCNN_D_25_SCNN_D_24/sum_0_split -> SCNN_D_25_SCNN_D_24/sum_0_split_1
I0313 10:45:28.632776 10269 net.cpp:124] Setting up SCNN_D_25_SCNN_D_24/sum_0_split
I0313 10:45:28.632782 10269 net.cpp:131] Top shape: 1 64 1 80 (5120)
I0313 10:45:28.632787 10269 net.cpp:131] Top shape: 1 64 1 80 (5120)
I0313 10:45:28.632791 10269 net.cpp:139] Memory required for data: 320143360
I0313 10:45:28.632793 10269 layer_factory.hpp:77] Creating layer SCNN_D_25
I0313 10:45:28.632802 10269 net.cpp:86] Creating Layer SCNN_D_25
I0313 10:45:28.632807 10269 net.cpp:408] SCNN_D_25 <- SCNN_D_25_SCNN_D_24/sum_0_split_0
I0313 10:45:28.632814 10269 net.cpp:382] SCNN_D_25 -> SCNN_D_25/message
I0313 10:45:28.634968 10269 net.cpp:124] Setting up SCNN_D_25
I0313 10:45:28.634981 10269 net.cpp:131] Top shape: 1 64 1 80 (5120)
I0313 10:45:28.634986 10269 net.cpp:139] Memory required for data: 320163840
I0313 10:45:28.634991 10269 net.cpp:467] Sharing parameters 'SCNN_D_w' owned by layer 'SCNN_D_1', param index 0
I0313 10:45:28.634995 10269 layer_factory.hpp:77] Creating layer SCNN_D_25/relu
I0313 10:45:28.634999 10269 net.cpp:86] Creating Layer SCNN_D_25/relu
I0313 10:45:28.635006 10269 net.cpp:408] SCNN_D_25/relu <- SCNN_D_25/message
I0313 10:45:28.635013 10269 net.cpp:369] SCNN_D_25/relu -> SCNN_D_25/message (in-place)
I0313 10:45:28.635150 10269 net.cpp:124] Setting up SCNN_D_25/relu
I0313 10:45:28.635159 10269 net.cpp:131] Top shape: 1 64 1 80 (5120)
I0313 10:45:28.635164 10269 net.cpp:139] Memory required for data: 320184320
I0313 10:45:28.635167 10269 layer_factory.hpp:77] Creating layer SCNN_D_25/sum
I0313 10:45:28.635174 10269 net.cpp:86] Creating Layer SCNN_D_25/sum
…
I0313 10:45:28.796835 10269 net.cpp:131] Top shape: 1 64 1 80 (5120)
I0313 10:45:28.796839 10269 net.cpp:139] Memory required for data: 327843840
I0313 10:45:28.796844 10269 net.cpp:467] Sharing parameters 'SCNN_U_w' owned by layer 'SCNN_U_60', param index 0
I0313 10:45:28.796849 10269 layer_factory.hpp:77] Creating layer SCNN_U_20/relu
I0313 10:45:28.796854 10269 net.cpp:86] Creating Layer SCNN_U_20/relu
I0313 10:45:28.796859 10269 net.cpp:408] SCNN_U_20/relu <- SCNN_U_20/message
I0313 10:45:28.796869 10269 net.cpp:369] SCNN_U_20/relu -> SCNN_U_20/message (in-place)
I0313 10:45:28.797032 10269 net.cpp:124] Setting up SCNN_U_20/relu
I0313 10:45:28.797041 10269 net.cpp:131] Top shape: 1 64 1 80 (5120)
I0313 10:45:28.797045 10269 net.cpp:139] Memory required for data: 327864320
I0313 10:45:28.797049 10269 layer_factory.hpp:77] Creating layer SCNN_U_20/sum
I0313 10:45:28.797053 10269 net.cpp:86] Creating Layer SCNN_U_20/sum
I0313 10:45:28.797060 10269 net.cpp:408] SCNN_U_20/sum <- SCNN_U_20/message
I0313 10:45:28.797068 10269 net.cpp:408] SCNN_U_20/sum <- SCNN_D_19_SCNN_D_18/sum_0_split_1
I0313 10:45:28.797075 10269 net.cpp:382] SCNN_U_20/sum -> SCNN_U_19
I0313 10:45:28.797112 10269 net.cpp:124] Setting up SCNN_U_20/sum
I0313 10:45:28.797121 10269 net.cpp:131] Top shape: 1 64 1 80 (5120)
I0313 10:45:28.797124 10269 net.cpp:139] Memory required for data: 327884800
I0313 10:45:28.797127 10269 layer_factory.hpp:77] Creating layer SCNN_U_19_SCNN_U_20/sum_0_split
I0313 10:45:28.797134 10269 net.cpp:86] Creating Layer SCNN_U_19_SCNN_U_20/sum_0_split
I0313 10:45:28.797140 10269 net.cpp:408] SCNN_U_19_SCNN_U_20/sum_0_split <- SCNN_U_19
I0313 10:45:28.797147 10269 net.cpp:382] SCNN_U_19_SCNN_U_20/sum_0_split -> SCNN_U_19_SCNN_U_20/sum_0_split_0
I0313 10:45:28.797155 10269 net.cpp:382] SCNN_U_19_SCNN_U_20/sum_0_split -> SCNN_U_19_SCNN_U_20/sum_0_split_1
I0313 10:45:28.797209 10269 net.cpp:124] Setting up SCNN_U_19_SCNN_U_20/sum_0_split
I0313 10:45:28.797217 10269 net.cpp:131] Top shape: 1 64 1 80 (5120)
I0313 10:45:28.797222 10269 net.cpp:131] Top shape: 1 64 1 80 (5120)
I0313 10:45:28.797226 10269 net.cpp:139] Memory required for data: 327925760
I0313 10:45:28.797228 10269 layer_factory.hpp:77] Creating layer SCNN_U_19
I0313 10:45:28.797236 10269 net.cpp:86] Creating Layer SCNN_U_19
I0313 10:45:28.797243 10269 net.cpp:408] SCNN_U_19 <- SCNN_U_19_SCNN_U_20/sum_0_split_0
I0313 10:45:28.797251 10269 net.cpp:382] SCNN_U_19 -> SCNN_U_19/message
I0313 10:45:28.800256 10269 net.cpp:124] Setting up SCNN_U_19
I0313 10:45:28.800277 10269 net.cpp:131] Top shape: 1 64 1 80 (5120)
I0313 10:45:28.800283 10269 net.cpp:139] Memory required for data: 327946240
I0313 10:45:28.800292 10269 net.cpp:467] Sharing parameters 'SCNN_U_w' owned by layer 'SCNN_U_60', param index 0
I0313 10:45:28.800298 10269 layer_factory.hpp:77] Creating layer SCNN_U_19/relu
I0313 10:45:28.800307 10269 net.cpp:86] Creating Layer SCNN_U_19/relu
I0313 10:45:28.800316 10269 net.cpp:408] SCNN_U_19/relu <- SCNN_U_19/message
I0313 10:45:28.800328 10269 net.cpp:369] SCNN_U_19/relu -> SCNN_U_19/message (in-place)
I0313 10:45:28.800550 10269 net.cpp:124] Setting up SCNN_U_19/relu
I0313 10:45:28.800562 10269 net.cpp:131] Top shape: 1 64 1 80 (5120)
I0313 10:45:28.800567 10269 net.cpp:139] Memory required for data: 327966720
I0313 10:45:28.800573 10269 layer_factory.hpp:77] Creating layer SCNN_U_19/sum
I0313 10:45:28.800580 10269 net.cpp:86] Creating Layer SCNN_U_19/sum
I0313 10:45:28.800590 10269 net.cpp:408] SCNN_U_19/sum <- SCNN_U_19/message
I0313 10:45:28.800601 10269 net.cpp:408] SCNN_U_19/sum <- SCNN_D_18_SCNN_D_17/sum_0_split_1
I0313 10:45:28.800611 10269 net.cpp:382] SCNN_U_19/sum -> SCNN_U_18
I0313 10:45:28.800658 10269 net.cpp:124] Setting up SCNN_U_19/sum
I0313 10:45:28.800668 10269 net.cpp:131] Top shape: 1 64 1 80 (5120)
I0313 10:45:28.800673 10269 net.cpp:139] Memory required for data: 327987200
I0313 10:45:28.800679 10269 layer_factory.hpp:77] Creating layer SCNN_U_18_SCNN_U_19/sum_0_split
I0313 10:45:28.800688 10269 net.cpp:86] Creating Layer SCNN_U_18_SCNN_U_19/sum_0_split
I0313 10:45:28.800696 10269 net.cpp:408] SCNN_U_18_SCNN_U_19/sum_0_split <- SCNN_U_18
I0313 10:45:28.800705 10269 net.cpp:382] SCNN_U_18_SCNN_U_19/sum_0_split -> SCNN_U_18_SCNN_U_19/sum_0_split_0
I0313 10:45:28.800715 10269 net.cpp:382] SCNN_U_18_SCNN_U_19/sum_0_split -> SCNN_U_18_SCNN_U_19/sum_0_split_1
I0313 10:45:28.800784 10269 net.cpp:124] Setting up SCNN_U_18_SCNN_U_19/sum_0_split
I0313 10:45:28.800794 10269 net.cpp:131] Top shape: 1 64 1 80 (5120)
I0313 10:45:28.800801 10269 net.cpp:131] Top shape: 1 64 1 80 (5120)
I0313 10:45:28.800806 10269 net.cpp:139] Memory required for data: 328028160
I0313 10:45:28.800808 10269 layer_factory.hpp:77] Creating layer SCNN_U_18
I0313 10:45:28.800819 10269 net.cpp:86] Creating Layer SCNN_U_18
I0313 10:45:28.800827 10269 net.cpp:408] SCNN_U_18 <- SCNN_U_18_SCNN_U_19/sum_0_split_0
I0313 10:45:28.800838 10269 net.cpp:382] SCNN_U_18 -> SCNN_U_18/message
I0313 10:45:28.802732 10269 net.cpp:124] Setting up SCNN_U_18
I0313 10:45:28.802748 10269 net.cpp:131] Top shape: 1 64 1 80 (5120)
I0313 10:45:28.802755 10269 net.cpp:139] Memory required for data: 328048640
I0313 10:45:28.802763 10269 net.cpp:467] Sharing parameters 'SCNN_U_w' owned by layer 'SCNN_U_60', param index 0
I0313 10:45:28.802769 10269 layer_factory.hpp:77] Creating layer SCNN_U_18/relu
I0313 10:45:28.802816 10269 net.cpp:86] Creating Layer SCNN_U_18/relu
I0313 10:45:28.802826 10269 net.cpp:408] SCNN_U_18/relu <- SCNN_U_18/message
I0313 10:45:28.802835 10269 net.cpp:369] SCNN_U_18/relu -> SCNN_U_18/message (in-place)
I0313 10:45:28.803326 10269 net.cpp:124] Setting up SCNN_U_18/relu
I0313 10:45:28.803340 10269 net.cpp:131] Top shape: 1 64 1 80 (5120)
I0313 10:45:28.803346 10269 net.cpp:139] Memory required for data: 328069120
I0313 10:45:28.803354 10269 layer_factory.hpp:77] Creating layer SCNN_U_18/sum
I0313 10:45:28.803362 10269 net.cpp:86] Creating Layer SCNN_U_18/sum
I0313 10:45:28.803370 10269 net.cpp:408] SCNN_U_18/sum <- SCNN_U_18/message
I0313 10:45:28.803380 10269 net.cpp:408] SCNN_U_18/sum <- SCNN_D_17_SCNN_D_16/sum_0_split_1
I0313 10:45:28.803387 10269 net.cpp:382] SCNN_U_18/sum -> SCNN_U_17
I0313 10:45:28.803432 10269 net.cpp:124] Setting up SCNN_U_18/sum
I0313 10:45:28.803442 10269 net.cpp:131] Top shape: 1 64 1 80 (5120)
I0313 10:45:28.803447 10269 net.cpp:139] Memory required for data: 328089600
I0313 10:45:28.803452 10269 layer_factory.hpp:77] Creating layer SCNN_U_17_SCNN_U_18/sum_0_split
I0313 10:45:28.803460 10269 net.cpp:86] Creating Layer SCNN_U_17_SCNN_U_18/sum_0_split
I0313 10:45:28.803468 10269 net.cpp:408] SCNN_U_17_SCNN_U_18/sum_0_split <- SCNN_U_17
I0313 10:45:28.803478 10269 net.cpp:382] SCNN_U_17_SCNN_U_18/sum_0_split -> SCNN_U_17_SCNN_U_18/sum_0_split_0
I0313 10:45:28.803489 10269 net.cpp:382] SCNN_U_17_SCNN_U_18/sum_0_split -> SCNN_U_17_SCNN_U_18/sum_0_split_1
I0313 10:45:28.803555 10269 net.cpp:124] Setting up SCNN_U_17_SCNN_U_18/sum_0_split
I0313 10:45:28.803563 10269 net.cpp:131] Top shape: 1 64 1 80 (5120)
I0313 10:45:28.803570 10269 net.cpp:131] Top shape: 1 64 1 80 (5120)
I0313 10:45:28.803580 10269 net.cpp:139] Memory required for data: 328130560
I0313 10:45:28.803586 10269 layer_factory.hpp:77] Creating layer SCNN_U_17
I0313 10:45:28.803596 10269 net.cpp:86] Creating Layer SCNN_U_17
I0313 10:45:28.803604 10269 net.cpp:408] SCNN_U_17 <- SCNN_U_17_SCNN_U_18/sum_0_split_0
I0313 10:45:28.803614 10269 net.cpp:382] SCNN_U_17 -> SCNN_U_17/message
I0313 10:45:28.805091 10269 net.cpp:124] Setting up SCNN_U_17
I0313 10:45:28.805104 10269 net.cpp:131] Top shape: 1 64 1 80 (5120)
I0313 10:45:28.805109 10269 net.cpp:139] Memory required for data: 328151040
I0313 10:45:28.805114 10269 net.cpp:467] Sharing parameters 'SCNN_U_w' owned by layer 'SCNN_U_60', param index 0
I0313 10:45:28.805117 10269 layer_factory.hpp:77] Creating layer SCNN_U_17/relu
I0313 10:45:28.805122 10269 net.cpp:86] Creating Layer SCNN_U_17/relu
I0313 10:45:28.805128 10269 net.cpp:408] SCNN_U_17/relu <- SCNN_U_17/message
I0313 10:45:28.805135 10269 net.cpp:369] SCNN_U_17/relu -> SCNN_U_17/message (in-place)
I0313 10:45:28.805289 10269 net.cpp:124] Setting up SCNN_U_17/relu
I0313 10:45:28.805296 10269 net.cpp:131] Top shape: 1 64 1 80 (5120)
I0313 10:45:28.805300 10269 net.cpp:139] Memory required for data: 328171520
I0313 10:45:28.805303 10269 layer_factory.hpp:77] Creating layer SCNN_U_17/sum
I0313 10:45:28.805308 10269 net.cpp:86] Creating Layer SCNN_U_17/sum
I0313 10:45:28.805315 10269 net.cpp:408] SCNN_U_17/sum <- SCNN_U_17/message
I0313 10:45:28.805323 10269 net.cpp:408] SCNN_U_17/sum <- SCNN_D_16_SCNN_D_15/sum_0_split_1
I0313 10:45:28.805328 10269 net.cpp:382] SCNN_U_17/sum -> SCNN_U_16
I0313 10:45:28.805363 10269 net.cpp:124] Setting up SCNN_U_17/sum
I0313 10:45:28.805371 10269 net.cpp:131] Top shape: 1 64 1 80 (5120)
I0313 10:45:28.805375 10269 net.cpp:139] Memory required for data: 328192000
I0313 10:45:28.805377 10269 layer_factory.hpp:77] Creating layer SCNN_U_16_SCNN_U_17/sum_0_split
I0313 10:45:28.805382 10269 net.cpp:86] Creating Layer SCNN_U_16_SCNN_U_17/sum_0_split
I0313 10:45:28.805388 10269 net.cpp:408] SCNN_U_16_SCNN_U_17/sum_0_split <- SCNN_U_16
I0313 10:45:28.805394 10269 net.cpp:382] SCNN_U_16_SCNN_U_17/sum_0_split -> SCNN_U_16_SCNN_U_17/sum_0_split_0
I0313 10:45:28.805402 10269 net.cpp:382] SCNN_U_16_SCNN_U_17/sum_0_split -> SCNN_U_16_SCNN_U_17/sum_0_split_1
I0313 10:45:28.805459 10269 net.cpp:124] Setting up SCNN_U_16_SCNN_U_17/sum_0_split
I0313 10:45:28.805466 10269 net.cpp:131] Top shape: 1 64 1 80 (5120)
I0313 10:45:28.805470 10269 net.cpp:131] Top shape: 1 64 1 80 (5120)
I0313 10:45:28.805474 10269 net.cpp:139] Memory required for data: 328232960
I0313 10:45:28.805476 10269 layer_factory.hpp:77] Creating layer SCNN_U_16
I0313 10:45:28.805483 10269 net.cpp:86] Creating Layer SCNN_U_16
I0313 10:45:28.805490 10269 net.cpp:408] SCNN_U_16 <- SCNN_U_16_SCNN_U_17/sum_0_split_0
I0313 10:45:28.805497 10269 net.cpp:382] SCNN_U_16 -> SCNN_U_16/message
I0313 10:45:28.807996 10269 net.cpp:124] Setting up SCNN_U_16
I0313 10:45:28.808012 10269 net.cpp:131] Top shape: 1 64 1 80 (5120)
I0313 10:45:28.808017 10269 net.cpp:139] Memory required for data: 328253440
I0313 10:45:28.808022 10269 net.cpp:467] Sharing parameters 'SCNN_U_w' owned by layer 'SCNN_U_60', param index 0
I0313 10:45:28.808025 10269 layer_factory.hpp:77] Creating layer SCNN_U_16/relu
I0313 10:45:28.808030 10269 net.cpp:86] Creating Layer SCNN_U_16/relu
I0313 10:45:28.808037 10269 net.cpp:408] SCNN_U_16/relu <- SCNN_U_16/message
I0313 10:45:28.808043 10269 net.cpp:369] SCNN_U_16/relu -> SCNN_U_16/message (in-place)
I0313 10:45:28.808209 10269 net.cpp:124] Setting up SCNN_U_16/relu
I0313 10:45:28.808218 10269 net.cpp:131] Top shape: 1 64 1 80 (5120)
I0313 10:45:28.808223 10269 net.cpp:139] Memory required for data: 328273920
I0313 10:45:28.808224 10269 layer_factory.hpp:77] Creating layer SCNN_U_16/sum
I0313 10:45:28.808230 10269 net.cpp:86] Creating Layer SCNN_U_16/sum
I0313 10:45:28.808238 10269 net.cpp:408] SCNN_U_16/sum <- SCNN_U_16/message
I0313 10:45:28.808245 10269 net.cpp:408] SCNN_U_16/sum <- SCNN_D_15_SCNN_D_14/sum_0_split_1
I0313 10:45:28.808252 10269 net.cpp:382] SCNN_U_16/sum -> SCNN_U_15
I0313 10:45:28.808326 10269 net.cpp:124] Setting up SCNN_U_16/sum
I0313 10:45:28.808339 10269 net.cpp:131] Top shape: 1 64 1 80 (5120)
I0313 10:45:28.808343 10269 net.cpp:139] Memory required for data: 328294400
I0313 10:45:28.808346 10269 layer_factory.hpp:77] Creating layer SCNN_U_15_SCNN_U_16/sum_0_split
I0313 10:45:28.808351 10269 net.cpp:86] Creating Layer SCNN_U_15_SCNN_U_16/sum_0_split
I0313 10:45:28.808357 10269 net.cpp:408] SCNN_U_15_SCNN_U_16/sum_0_split <- SCNN_U_15
I0313 10:45:28.808364 10269 net.cpp:382] SCNN_U_15_SCNN_U_16/sum_0_split -> SCNN_U_15_SCNN_U_16/sum_0_split_0
I0313 10:45:28.808373 10269 net.cpp:382] SCNN_U_15_SCNN_U_16/sum_0_split -> SCNN_U_15_SCNN_U_16/sum_0_split_1
I0313 10:45:28.808424 10269 net.cpp:124] Setting up SCNN_U_15_SCNN_U_16/sum_0_split
I0313 10:45:28.808431 10269 net.cpp:131] Top shape: 1 64 1 80 (5120)
I0313 10:45:28.808436 10269 net.cpp:131] Top shape: 1 64 1 80 (5120)
I0313 10:45:28.808440 10269 net.cpp:139] Memory required for data: 328335360
I0313 10:45:28.808442 10269 layer_factory.hpp:77] Creating layer SCNN_U_15
I0313 10:45:28.808451 10269 net.cpp:86] Creating Layer SCNN_U_15
I0313 10:45:28.808457 10269 net.cpp:408] SCNN_U_15 <- SCNN_U_15_SCNN_U_16/sum_0_split_0
I0313 10:45:28.808465 10269 net.cpp:382] SCNN_U_15 -> SCNN_U_15/message
I0313 10:45:28.809808 10269 net.cpp:124] Setting up SCNN_U_15
I0313 10:45:28.809821 10269 net.cpp:131] Top shape: 1 64 1 80 (5120)
I0313 10:45:28.809825 10269 net.cpp:139] Memory required for data: 328355840
I0313 10:45:28.809830 10269 net.cpp:467] Sharing parameters 'SCNN_U_w' owned by layer 'SCNN_U_60', param index 0
I0313 10:45:28.809832 10269 layer_factory.hpp:77] Creating layer SCNN_U_15/relu
I0313 10:45:28.809837 10269 net.cpp:86] Creating Layer SCNN_U_15/relu
I0313 10:45:28.809845 10269 net.cpp:408] SCNN_U_15/relu <- SCNN_U_15/message
I0313 10:45:28.809854 10269 net.cpp:369] SCNN_U_15/relu -> SCNN_U_15/message (in-place)
I0313 10:45:28.810020 10269 net.cpp:124] Setting up SCNN_U_15/relu
I0313 10:45:28.810029 10269 net.cpp:131] Top shape: 1 64 1 80 (5120)
I0313 10:45:28.810034 10269 net.cpp:139] Memory required for data: 328376320
I0313 10:45:28.810036 10269 layer_factory.hpp:77] Creating layer SCNN_U_15/sum
I0313 10:45:28.810042 10269 net.cpp:86] Creating Layer SCNN_U_15/sum
I0313 10:45:28.810048 10269 net.cpp:408] SCNN_U_15/sum <- SCNN_U_15/message
I0313 10:45:28.810056 10269 net.cpp:408] SCNN_U_15/sum <- SCNN_D_14_SCNN_D_13/sum_0_split_1
I0313 10:45:28.810065 10269 net.cpp:382] SCNN_U_15/sum -> SCNN_U_14
I0313 10:45:28.810101 10269 net.cpp:124] Setting up SCNN_U_15/sum
I0313 10:45:28.810109 10269 net.cpp:131] Top shape: 1 64 1 80 (5120)
I0313 10:45:28.810113 10269 net.cpp:139] Memory required for data: 328396800
I0313 10:45:28.810117 10269 layer_factory.hpp:77] Creating layer SCNN_U_14_SCNN_U_15/sum_0_split
I0313 10:45:28.810122 10269 net.cpp:86] Creating Layer SCNN_U_14_SCNN_U_15/sum_0_split
I0313 10:45:28.810127 10269 net.cpp:408] SCNN_U_14_SCNN_U_15/sum_0_split <- SCNN_U_14
I0313 10:45:28.810135 10269 net.cpp:382] SCNN_U_14_SCNN_U_15/sum_0_split -> SCNN_U_14_SCNN_U_15/sum_0_split_0
I0313 10:45:28.810143 10269 net.cpp:382] SCNN_U_14_SCNN_U_15/sum_0_split -> SCNN_U_14_SCNN_U_15/sum_0_split_1
I0313 10:45:28.810196 10269 net.cpp:124] Setting up SCNN_U_14_SCNN_U_15/sum_0_split
I0313 10:45:28.810204 10269 net.cpp:131] Top shape: 1 64 1 80 (5120)
I0313 10:45:28.810209 10269 net.cpp:131] Top shape: 1 64 1 80 (5120)
I0313 10:45:28.810214 10269 net.cpp:139] Memory required for data: 328437760
I0313 10:45:28.810215 10269 layer_factory.hpp:77] Creating layer SCNN_U_14
I0313 10:45:28.810223 10269 net.cpp:86] Creating Layer SCNN_U_14
I0313 10:45:28.810230 10269 net.cpp:408] SCNN_U_14 <- SCNN_U_14_SCNN_U_15/sum_0_split_0
I0313 10:45:28.810237 10269 net.cpp:382] SCNN_U_14 -> SCNN_U_14/message
I0313 10:45:28.811823 10269 net.cpp:124] Setting up SCNN_U_14
I0313 10:45:28.811836 10269 net.cpp:131] Top shape: 1 64 1 80 (5120)
I0313 10:45:28.811841 10269 net.cpp:139] Memory required for data: 328458240
I0313 10:45:28.811846 10269 net.cpp:467] Sharing parameters 'SCNN_U_w' owned by layer 'SCNN_U_60', param index 0
I0313 10:45:28.811851 10269 layer_factory.hpp:77] Creating layer SCNN_U_14/relu
I0313 10:45:28.811854 10269 net.cpp:86] Creating Layer SCNN_U_14/relu
I0313 10:45:28.811861 10269 net.cpp:408] SCNN_U_14/relu <- SCNN_U_14/message
I0313 10:45:28.811869 10269 net.cpp:369] SCNN_U_14/relu -> SCNN_U_14/message (in-place)
I0313 10:45:28.812248 10269 net.cpp:124] Setting up SCNN_U_14/relu
I0313 10:45:28.812258 10269 net.cpp:131] Top shape: 1 64 1 80 (5120)
I0313 10:45:28.812263 10269 net.cpp:139] Memory required for data: 328478720
I0313 10:45:28.812265 10269 layer_factory.hpp:77] Creating layer SCNN_U_14/sum
I0313 10:45:28.812273 10269 net.cpp:86] Creating Layer SCNN_U_14/sum
I0313 10:45:28.812280 10269 net.cpp:408] SCNN_U_14/sum <- SCNN_U_14/message
I0313 10:45:28.812288 10269 net.cpp:408] SCNN_U_14/sum <- SCNN_D_13_SCNN_D_12/sum_0_split_1
I0313 10:45:28.812294 10269 net.cpp:382] SCNN_U_14/sum -> SCNN_U_13
I0313 10:45:28.812333 10269 net.cpp:124] Setting up SCNN_U_14/sum
I0313 10:45:28.812341 10269 net.cpp:131] Top shape: 1 64 1 80 (5120)
I0313 10:45:28.812345 10269 net.cpp:139] Memory required for data: 328499200
I0313 10:45:28.812348 10269 layer_factory.hpp:77] Creating layer SCNN_U_13_SCNN_U_14/sum_0_split
I0313 10:45:28.812355 10269 net.cpp:86] Creating Layer SCNN_U_13_SCNN_U_14/sum_0_split
I0313 10:45:28.812361 10269 net.cpp:408] SCNN_U_13_SCNN_U_14/sum_0_split <- SCNN_U_13
I0313 10:45:28.812368 10269 net.cpp:382] SCNN_U_13_SCNN_U_14/sum_0_split -> SCNN_U_13_SCNN_U_14/sum_0_split_0
I0313 10:45:28.812376 10269 net.cpp:382] SCNN_U_13_SCNN_U_14/sum_0_split -> SCNN_U_13_SCNN_U_14/sum_0_split_1
I0313 10:45:28.812430 10269 net.cpp:124] Setting up SCNN_U_13_SCNN_U_14/sum_0_split
I0313 10:45:28.812438 10269 net.cpp:131] Top shape: 1 64 1 80 (5120)
I0313 10:45:28.812443 10269 net.cpp:131] Top shape: 1 64 1 80 (5120)
I0313 10:45:28.812446 10269 net.cpp:139] Memory required for data: 328540160
I0313 10:45:28.812449 10269 layer_factory.hpp:77] Creating layer SCNN_U_13
I0313 10:45:28.812458 10269 net.cpp:86] Creating Layer SCNN_U_13
I0313 10:45:28.812463 10269 net.cpp:408] SCNN_U_13 <- SCNN_U_13_SCNN_U_14/sum_0_split_0
I0313 10:45:28.812470 10269 net.cpp:382] SCNN_U_13 -> SCNN_U_13/message
I0313 10:45:28.813807 10269 net.cpp:124] Setting up SCNN_U_13
I0313 10:45:28.813820 10269 net.cpp:131] Top shape: 1 64 1 80 (5120)
I0313 10:45:28.813825 10269 net.cpp:139] Memory required for data: 328560640
I0313 10:45:28.813829 10269 net.cpp:467] Sharing parameters 'SCNN_U_w' owned by layer 'SCNN_U_60', param index 0
I0313 10:45:28.813833 10269 layer_factory.hpp:77] Creating layer SCNN_U_13/relu
I0313 10:45:28.813839 10269 net.cpp:86] Creating Layer SCNN_U_13/relu
I0313 10:45:28.813845 10269 net.cpp:408] SCNN_U_13/relu <- SCNN_U_13/message
I0313 10:45:28.813853 10269 net.cpp:369] SCNN_U_13/relu -> SCNN_U_13/message (in-place)
I0313 10:45:28.815201 10269 net.cpp:124] Setting up SCNN_U_13/relu
I0313 10:45:28.815214 10269 net.cpp:131] Top shape: 1 64 1 80 (5120)
I0313 10:45:28.815218 10269 net.cpp:139] Memory required for data: 328581120
I0313 10:45:28.815222 10269 layer_factory.hpp:77] Creating layer SCNN_U_13/sum
I0313 10:45:28.815227 10269 net.cpp:86] Creating Layer SCNN_U_13/sum
I0313 10:45:28.815235 10269 net.cpp:408] SCNN_U_13/sum <- SCNN_U_13/message
I0313 10:45:28.815244 10269 net.cpp:408] SCNN_U_13/sum <- SCNN_D_12_SCNN_D_11/sum_0_split_1
I0313 10:45:28.815253 10269 net.cpp:382] SCNN_U_13/sum -> SCNN_U_12
I0313 10:45:28.815291 10269 net.cpp:124] Setting up SCNN_U_13/sum
I0313 10:45:28.815299 10269 net.cpp:131] Top shape: 1 64 1 80 (5120)
I0313 10:45:28.815304 10269 net.cpp:139] Memory required for data: 328601600
I0313 10:45:28.815306 10269 layer_factory.hpp:77] Creating layer SCNN_U_12_SCNN_U_13/sum_0_split
I0313 10:45:28.815315 10269 net.cpp:86] Creating Layer SCNN_U_12_SCNN_U_13/sum_0_split
I0313 10:45:28.815320 10269 net.cpp:408] SCNN_U_12_SCNN_U_13/sum_0_split <- SCNN_U_12
I0313 10:45:28.815327 10269 net.cpp:382] SCNN_U_12_SCNN_U_13/sum_0_split -> SCNN_U_12_SCNN_U_13/sum_0_split_0
I0313 10:45:28.815337 10269 net.cpp:382] SCNN_U_12_SCNN_U_13/sum_0_split -> SCNN_U_12_SCNN_U_13/sum_0_split_1
I0313 10:45:28.815393 10269 net.cpp:124] Setting up SCNN_U_12_SCNN_U_13/sum_0_split
I0313 10:45:28.815402 10269 net.cpp:131] Top shape: 1 64 1 80 (5120)
I0313 10:45:28.815407 10269 net.cpp:131] Top shape: 1 64 1 80 (5120)
I0313 10:45:28.815410 10269 net.cpp:139] Memory required for data: 328642560
I0313 10:45:28.815412 10269 layer_factory.hpp:77] Creating layer SCNN_U_12
I0313 10:45:28.815420 10269 net.cpp:86] Creating Layer SCNN_U_12
I0313 10:45:28.815428 10269 net.cpp:408] SCNN_U_12 <- SCNN_U_12_SCNN_U_13/sum_0_split_0
I0313 10:45:28.815436 10269 net.cpp:382] SCNN_U_12 -> SCNN_U_12/message
I0313 10:45:28.816797 10269 net.cpp:124] Setting up SCNN_U_12
I0313 10:45:28.816809 10269 net.cpp:131] Top shape: 1 64 1 80 (5120)
I0313 10:45:28.816813 10269 net.cpp:139] Memory required for data: 328663040
I0313 10:45:28.816818 10269 net.cpp:467] Sharing parameters 'SCNN_U_w' owned by layer 'SCNN_U_60', param index 0
I0313 10:45:28.816823 10269 layer_factory.hpp:77] Creating layer SCNN_U_12/relu
I0313 10:45:28.816828 10269 net.cpp:86] Creating Layer SCNN_U_12/relu
I0313 10:45:28.816834 10269 net.cpp:408] SCNN_U_12/relu <- SCNN_U_12/message
I0313 10:45:28.816841 10269 net.cpp:369] SCNN_U_12/relu -> SCNN_U_12/message (in-place)
I0313 10:45:28.817005 10269 net.cpp:124] Setting up SCNN_U_12/relu
I0313 10:45:28.817014 10269 net.cpp:131] Top shape: 1 64 1 80 (5120)
I0313 10:45:28.817018 10269 net.cpp:139] Memory required for data: 328683520
I0313 10:45:28.817020 10269 layer_factory.hpp:77] Creating layer SCNN_U_12/sum
I0313 10:45:28.817025 10269 net.cpp:86] Creating Layer SCNN_U_12/sum
I0313 10:45:28.817030 10269 net.cpp:408] SCNN_U_12/sum <- SCNN_U_12/message
I0313 10:45:28.817040 10269 net.cpp:408] SCNN_U_12/sum <- SCNN_D_11_SCNN_D_10/sum_0_split_1
I0313 10:45:28.817046 10269 net.cpp:382] SCNN_U_12/sum -> SCNN_U_11
I0313 10:45:28.817085 10269 net.cpp:124] Setting up SCNN_U_12/sum
I0313 10:45:28.817092 10269 net.cpp:131] Top shape: 1 64 1 80 (5120)
I0313 10:45:28.817096 10269 net.cpp:139] Memory required for data: 328704000
I0313 10:45:28.817100 10269 layer_factory.hpp:77] Creating layer SCNN_U_11_SCNN_U_12/sum_0_split
I0313 10:45:28.817106 10269 net.cpp:86] Creating Layer SCNN_U_11_SCNN_U_12/sum_0_split
I0313 10:45:28.817111 10269 net.cpp:408] SCNN_U_11_SCNN_U_12/sum_0_split <- SCNN_U_11
I0313 10:45:28.817119 10269 net.cpp:382] SCNN_U_11_SCNN_U_12/sum_0_split -> SCNN_U_11_SCNN_U_12/sum_0_split_0
I0313 10:45:28.817128 10269 net.cpp:382] SCNN_U_11_SCNN_U_12/sum_0_split -> SCNN_U_11_SCNN_U_12/sum_0_split_1
I0313 10:45:28.817183 10269 net.cpp:124] Setting up SCNN_U_11_SCNN_U_12/sum_0_split
I0313 10:45:28.817189 10269 net.cpp:131] Top shape: 1 64 1 80 (5120)
I0313 10:45:28.817194 10269 net.cpp:131] Top shape: 1 64 1 80 (5120)
I0313 10:45:28.817198 10269 net.cpp:139] Memory required for data: 328744960
I0313 10:45:28.817200 10269 layer_factory.hpp:77] Creating layer SCNN_U_11
I0313 10:45:28.817209 10269 net.cpp:86] Creating Layer SCNN_U_11
I0313 10:45:28.817215 10269 net.cpp:408] SCNN_U_11 <- SCNN_U_11_SCNN_U_12/sum_0_split_0
I0313 10:45:28.817224 10269 net.cpp:382] SCNN_U_11 -> SCNN_U_11/message
I0313 10:45:28.818570 10269 net.cpp:124] Setting up SCNN_U_11
I0313 10:45:28.818583 10269 net.cpp:131] Top shape: 1 64 1 80 (5120)
I0313 10:45:28.818588 10269 net.cpp:139] Memory required for data: 328765440
I0313 10:45:28.818593 10269 net.cpp:467] Sharing parameters 'SCNN_U_w' owned by layer 'SCNN_U_60', param index 0
I0313 10:45:28.818596 10269 layer_factory.hpp:77] Creating layer SCNN_U_11/relu
I0313 10:45:28.818601 10269 net.cpp:86] Creating Layer SCNN_U_11/relu
I0313 10:45:28.818608 10269 net.cpp:408] SCNN_U_11/relu <- SCNN_U_11/message
I0313 10:45:28.818615 10269 net.cpp:369] SCNN_U_11/relu -> SCNN_U_11/message (in-place)
I0313 10:45:28.818779 10269 net.cpp:124] Setting up SCNN_U_11/relu
I0313 10:45:28.818787 10269 net.cpp:131] Top shape: 1 64 1 80 (5120)
I0313 10:45:28.818791 10269 net.cpp:139] Memory required for data: 328785920
I0313 10:45:28.818794 10269 layer_factory.hpp:77] Creating layer SCNN_U_11/sum
I0313 10:45:28.818799 10269 net.cpp:86] Creating Layer SCNN_U_11/sum
I0313 10:45:28.818805 10269 net.cpp:408] SCNN_U_11/sum <- SCNN_U_11/message
I0313 10:45:28.818814 10269 net.cpp:408] SCNN_U_11/sum <- SCNN_D_10_SCNN_D_9/sum_0_split_1
I0313 10:45:28.818820 10269 net.cpp:382] SCNN_U_11/sum -> SCNN_U_10
I0313 10:45:28.818858 10269 net.cpp:124] Setting up SCNN_U_11/sum
I0313 10:45:28.818867 10269 net.cpp:131] Top shape: 1 64 1 80 (5120)
I0313 10:45:28.818871 10269 net.cpp:139] Memory required for data: 328806400
I0313 10:45:28.818873 10269 layer_factory.hpp:77] Creating layer SCNN_U_10_SCNN_U_11/sum_0_split
I0313 10:45:28.818878 10269 net.cpp:86] Creating Layer SCNN_U_10_SCNN_U_11/sum_0_split
I0313 10:45:28.818884 10269 net.cpp:408] SCNN_U_10_SCNN_U_11/sum_0_split <- SCNN_U_10
I0313 10:45:28.818892 10269 net.cpp:382] SCNN_U_10_SCNN_U_11/sum_0_split -> SCNN_U_10_SCNN_U_11/sum_0_split_0
I0313 10:45:28.818899 10269 net.cpp:382] SCNN_U_10_SCNN_U_11/sum_0_split -> SCNN_U_10_SCNN_U_11/sum_0_split_1
I0313 10:45:28.818953 10269 net.cpp:124] Setting up SCNN_U_10_SCNN_U_11/sum_0_split
I0313 10:45:28.818960 10269 net.cpp:131] Top shape: 1 64 1 80 (5120)
I0313 10:45:28.818965 10269 net.cpp:131] Top shape: 1 64 1 80 (5120)
I0313 10:45:28.818969 10269 net.cpp:139] Memory required for data: 328847360
I0313 10:45:28.818971 10269 layer_factory.hpp:77] Creating layer SCNN_U_10
I0313 10:45:28.818979 10269 net.cpp:86] Creating Layer SCNN_U_10
I0313 10:45:28.818985 10269 net.cpp:408] SCNN_U_10 <- SCNN_U_10_SCNN_U_11/sum_0_split_0
I0313 10:45:28.818994 10269 net.cpp:382] SCNN_U_10 -> SCNN_U_10/message
I0313 10:45:28.820341 10269 net.cpp:124] Setting up SCNN_U_10
I0313 10:45:28.820354 10269 net.cpp:131] Top shape: 1 64 1 80 (5120)
I0313 10:45:28.820358 10269 net.cpp:139] Memory required for data: 328867840
I0313 10:45:28.820363 10269 net.cpp:467] Sharing parameters 'SCNN_U_w' owned by layer 'SCNN_U_60', param index 0
I0313 10:45:28.820367 10269 layer_factory.hpp:77] Creating layer SCNN_U_10/relu
I0313 10:45:28.820374 10269 net.cpp:86] Creating Layer SCNN_U_10/relu
I0313 10:45:28.820379 10269 net.cpp:408] SCNN_U_10/relu <- SCNN_U_10/message
I0313 10:45:28.820386 10269 net.cpp:369] SCNN_U_10/relu -> SCNN_U_10/message (in-place)
I0313 10:45:28.820551 10269 net.cpp:124] Setting up SCNN_U_10/relu
I0313 10:45:28.820561 10269 net.cpp:131] Top shape: 1 64 1 80 (5120)
I0313 10:45:28.820564 10269 net.cpp:139] Memory required for data: 328888320
I0313 10:45:28.820567 10269 layer_factory.hpp:77] Creating layer SCNN_U_10/sum
I0313 10:45:28.820572 10269 net.cpp:86] Creating Layer SCNN_U_10/sum
I0313 10:45:28.820578 10269 net.cpp:408] SCNN_U_10/sum <- SCNN_U_10/message
I0313 10:45:28.820586 10269 net.cpp:408] SCNN_U_10/sum <- SCNN_D_9_SCNN_D_8/sum_0_split_1
I0313 10:45:28.820593 10269 net.cpp:382] SCNN_U_10/sum -> SCNN_U_9
I0313 10:45:28.820631 10269 net.cpp:124] Setting up SCNN_U_10/sum
I0313 10:45:28.820639 10269 net.cpp:131] Top shape: 1 64 1 80 (5120)
I0313 10:45:28.820642 10269 net.cpp:139] Memory required for data: 328908800
I0313 10:45:28.820646 10269 layer_factory.hpp:77] Creating layer SCNN_U_9_SCNN_U_10/sum_0_split
I0313 10:45:28.820652 10269 net.cpp:86] Creating Layer SCNN_U_9_SCNN_U_10/sum_0_split
I0313 10:45:28.820657 10269 net.cpp:408] SCNN_U_9_SCNN_U_10/sum_0_split <- SCNN_U_9
I0313 10:45:28.820664 10269 net.cpp:382] SCNN_U_9_SCNN_U_10/sum_0_split -> SCNN_U_9_SCNN_U_10/sum_0_split_0
I0313 10:45:28.820672 10269 net.cpp:382] SCNN_U_9_SCNN_U_10/sum_0_split -> SCNN_U_9_SCNN_U_10/sum_0_split_1
I0313 10:45:28.820725 10269 net.cpp:124] Setting up SCNN_U_9_SCNN_U_10/sum_0_split
I0313 10:45:28.820734 10269 net.cpp:131] Top shape: 1 64 1 80 (5120)
I0313 10:45:28.820739 10269 net.cpp:131] Top shape: 1 64 1 80 (5120)
I0313 10:45:28.820742 10269 net.cpp:139] Memory required for data: 328949760
I0313 10:45:28.820744 10269 layer_factory.hpp:77] Creating layer SCNN_U_9
I0313 10:45:28.820752 10269 net.cpp:86] Creating Layer SCNN_U_9
I0313 10:45:28.820758 10269 net.cpp:408] SCNN_U_9 <- SCNN_U_9_SCNN_U_10/sum_0_split_0
I0313 10:45:28.820765 10269 net.cpp:382] SCNN_U_9 -> SCNN_U_9/message
I0313 10:45:28.823823 10269 net.cpp:124] Setting up SCNN_U_9
I0313 10:45:28.823837 10269 net.cpp:131] Top shape: 1 64 1 80 (5120)
I0313 10:45:28.823843 10269 net.cpp:139] Memory required for data: 328970240
I0313 10:45:28.823851 10269 net.cpp:467] Sharing parameters 'SCNN_U_w' owned by layer 'SCNN_U_60', param index 0
I0313 10:45:28.823855 10269 layer_factory.hpp:77] Creating layer SCNN_U_9/relu
I0313 10:45:28.823861 10269 net.cpp:86] Creating Layer SCNN_U_9/relu
I0313 10:45:28.823868 10269 net.cpp:408] SCNN_U_9/relu <- SCNN_U_9/message
I0313 10:45:28.823875 10269 net.cpp:369] SCNN_U_9/relu -> SCNN_U_9/message (in-place)
I0313 10:45:28.824242 10269 net.cpp:124] Setting up SCNN_U_9/relu
I0313 10:45:28.824254 10269 net.cpp:131] Top shape: 1 64 1 80 (5120)
I0313 10:45:28.824257 10269 net.cpp:139] Memory required for data: 328990720
I0313 10:45:28.824259 10269 layer_factory.hpp:77] Creating layer SCNN_U_9/sum
I0313 10:45:28.824265 10269 net.cpp:86] Creating Layer SCNN_U_9/sum
I0313 10:45:28.824270 10269 net.cpp:408] SCNN_U_9/sum <- SCNN_U_9/message
I0313 10:45:28.824278 10269 net.cpp:408] SCNN_U_9/sum <- SCNN_D_8_SCNN_D_7/sum_0_split_1
I0313 10:45:28.824285 10269 net.cpp:382] SCNN_U_9/sum -> SCNN_U_8
I0313 10:45:28.824322 10269 net.cpp:124] Setting up SCNN_U_9/sum
I0313 10:45:28.824331 10269 net.cpp:131] Top shape: 1 64 1 80 (5120)
I0313 10:45:28.824334 10269 net.cpp:139] Memory required for data: 329011200
I0313 10:45:28.824337 10269 layer_factory.hpp:77] Creating layer SCNN_U_8_SCNN_U_9/sum_0_split
I0313 10:45:28.824340 10269 net.cpp:86] Creating Layer SCNN_U_8_SCNN_U_9/sum_0_split
I0313 10:45:28.824344 10269 net.cpp:408] SCNN_U_8_SCNN_U_9/sum_0_split <- SCNN_U_8
I0313 10:45:28.824350 10269 net.cpp:382] SCNN_U_8_SCNN_U_9/sum_0_split -> SCNN_U_8_SCNN_U_9/sum_0_split_0
I0313 10:45:28.824357 10269 net.cpp:382] SCNN_U_8_SCNN_U_9/sum_0_split -> SCNN_U_8_SCNN_U_9/sum_0_split_1
I0313 10:45:28.824409 10269 net.cpp:124] Setting up SCNN_U_8_SCNN_U_9/sum_0_split
I0313 10:45:28.824416 10269 net.cpp:131] Top shape: 1 64 1 80 (5120)
I0313 10:45:28.824421 10269 net.cpp:131] Top shape: 1 64 1 80 (5120)
I0313 10:45:28.824424 10269 net.cpp:139] Memory required for data: 329052160
I0313 10:45:28.824427 10269 layer_factory.hpp:77] Creating layer SCNN_U_8
I0313 10:45:28.824434 10269 net.cpp:86] Creating Layer SCNN_U_8
I0313 10:45:28.824440 10269 net.cpp:408] SCNN_U_8 <- SCNN_U_8_SCNN_U_9/sum_0_split_0
I0313 10:45:28.824447 10269 net.cpp:382] SCNN_U_8 -> SCNN_U_8/message
I0313 10:45:28.825767 10269 net.cpp:124] Setting up SCNN_U_8
I0313 10:45:28.825779 10269 net.cpp:131] Top shape: 1 64 1 80 (5120)
I0313 10:45:28.825784 10269 net.cpp:139] Memory required for data: 329072640
I0313 10:45:28.825788 10269 net.cpp:467] Sharing parameters 'SCNN_U_w' owned by layer 'SCNN_U_60', param index 0
I0313 10:45:28.825793 10269 layer_factory.hpp:77] Creating layer SCNN_U_8/relu
I0313 10:45:28.825798 10269 net.cpp:86] Creating Layer SCNN_U_8/relu
I0313 10:45:28.825803 10269 net.cpp:408] SCNN_U_8/relu <- SCNN_U_8/message
I0313 10:45:28.825809 10269 net.cpp:369] SCNN_U_8/relu -> SCNN_U_8/message (in-place)
I0313 10:45:28.825965 10269 net.cpp:124] Setting up SCNN_U_8/relu
I0313 10:45:28.825973 10269 net.cpp:131] Top shape: 1 64 1 80 (5120)
I0313 10:45:28.825978 10269 net.cpp:139] Memory required for data: 329093120
I0313 10:45:28.825979 10269 layer_factory.hpp:77] Creating layer SCNN_U_8/sum
I0313 10:45:28.825985 10269 net.cpp:86] Creating Layer SCNN_U_8/sum
I0313 10:45:28.825991 10269 net.cpp:408] SCNN_U_8/sum <- SCNN_U_8/message
I0313 10:45:28.825999 10269 net.cpp:408] SCNN_U_8/sum <- SCNN_D_7_SCNN_D_6/sum_0_split_1
I0313 10:45:28.826004 10269 net.cpp:382] SCNN_U_8/sum -> SCNN_U_7
I0313 10:45:28.826040 10269 net.cpp:124] Setting up SCNN_U_8/sum
I0313 10:45:28.826048 10269 net.cpp:131] Top shape: 1 64 1 80 (5120)
I0313 10:45:28.826051 10269 net.cpp:139] Memory required for data: 329113600
I0313 10:45:28.826054 10269 layer_factory.hpp:77] Creating layer SCNN_U_7_SCNN_U_8/sum_0_split
I0313 10:45:28.826059 10269 net.cpp:86] Creating Layer SCNN_U_7_SCNN_U_8/sum_0_split
I0313 10:45:28.826066 10269 net.cpp:408] SCNN_U_7_SCNN_U_8/sum_0_split <- SCNN_U_7
I0313 10:45:28.826071 10269 net.cpp:382] SCNN_U_7_SCNN_U_8/sum_0_split -> SCNN_U_7_SCNN_U_8/sum_0_split_0
I0313 10:45:28.826081 10269 net.cpp:382] SCNN_U_7_SCNN_U_8/sum_0_split -> SCNN_U_7_SCNN_U_8/sum_0_split_1
I0313 10:45:28.826133 10269 net.cpp:124] Setting up SCNN_U_7_SCNN_U_8/sum_0_split
I0313 10:45:28.826139 10269 net.cpp:131] Top shape: 1 64 1 80 (5120)
I0313 10:45:28.826144 10269 net.cpp:131] Top shape: 1 64 1 80 (5120)
I0313 10:45:28.826148 10269 net.cpp:139] Memory required for data: 329154560
I0313 10:45:28.826150 10269 layer_factory.hpp:77] Creating layer SCNN_U_7
I0313 10:45:28.826158 10269 net.cpp:86] Creating Layer SCNN_U_7
I0313 10:45:28.826164 10269 net.cpp:408] SCNN_U_7 <- SCNN_U_7_SCNN_U_8/sum_0_split_0
I0313 10:45:28.826170 10269 net.cpp:382] SCNN_U_7 -> SCNN_U_7/message
I0313 10:45:28.827488 10269 net.cpp:124] Setting up SCNN_U_7
I0313 10:45:28.827502 10269 net.cpp:131] Top shape: 1 64 1 80 (5120)
I0313 10:45:28.827505 10269 net.cpp:139] Memory required for data: 329175040
I0313 10:45:28.827510 10269 net.cpp:467] Sharing parameters 'SCNN_U_w' owned by layer 'SCNN_U_60', param index 0
I0313 10:45:28.827514 10269 layer_factory.hpp:77] Creating layer SCNN_U_7/relu
I0313 10:45:28.827519 10269 net.cpp:86] Creating Layer SCNN_U_7/relu
I0313 10:45:28.827524 10269 net.cpp:408] SCNN_U_7/relu <- SCNN_U_7/message
I0313 10:45:28.827530 10269 net.cpp:369] SCNN_U_7/relu -> SCNN_U_7/message (in-place)
I0313 10:45:28.827694 10269 net.cpp:124] Setting up SCNN_U_7/relu
I0313 10:45:28.827702 10269 net.cpp:131] Top shape: 1 64 1 80 (5120)
I0313 10:45:28.827706 10269 net.cpp:139] Memory required for data: 329195520
I0313 10:45:28.827709 10269 layer_factory.hpp:77] Creating layer SCNN_U_7/sum
I0313 10:45:28.827714 10269 net.cpp:86] Creating Layer SCNN_U_7/sum
I0313 10:45:28.827721 10269 net.cpp:408] SCNN_U_7/sum <- SCNN_U_7/message
I0313 10:45:28.827729 10269 net.cpp:408] SCNN_U_7/sum <- SCNN_D_6_SCNN_D_5/sum_0_split_1
I0313 10:45:28.827735 10269 net.cpp:382] SCNN_U_7/sum -> SCNN_U_6
I0313 10:45:28.827772 10269 net.cpp:124] Setting up SCNN_U_7/sum
I0313 10:45:28.827780 10269 net.cpp:131] Top shape: 1 64 1 80 (5120)
I0313 10:45:28.827783 10269 net.cpp:139] Memory required for data: 329216000
I0313 10:45:28.827786 10269 layer_factory.hpp:77] Creating layer SCNN_U_6_SCNN_U_7/sum_0_split
I0313 10:45:28.827791 10269 net.cpp:86] Creating Layer SCNN_U_6_SCNN_U_7/sum_0_split
I0313 10:45:28.827796 10269 net.cpp:408] SCNN_U_6_SCNN_U_7/sum_0_split <- SCNN_U_6
I0313 10:45:28.827803 10269 net.cpp:382] SCNN_U_6_SCNN_U_7/sum_0_split -> SCNN_U_6_SCNN_U_7/sum_0_split_0
I0313 10:45:28.827811 10269 net.cpp:382] SCNN_U_6_SCNN_U_7/sum_0_split -> SCNN_U_6_SCNN_U_7/sum_0_split_1
I0313 10:45:28.827863 10269 net.cpp:124] Setting up SCNN_U_6_SCNN_U_7/sum_0_split
I0313 10:45:28.827870 10269 net.cpp:131] Top shape: 1 64 1 80 (5120)
I0313 10:45:28.827875 10269 net.cpp:131] Top shape: 1 64 1 80 (5120)
I0313 10:45:28.827878 10269 net.cpp:139] Memory required for data: 329256960
I0313 10:45:28.827881 10269 layer_factory.hpp:77] Creating layer SCNN_U_6
I0313 10:45:28.827888 10269 net.cpp:86] Creating Layer SCNN_U_6
I0313 10:45:28.827893 10269 net.cpp:408] SCNN_U_6 <- SCNN_U_6_SCNN_U_7/sum_0_split_0
I0313 10:45:28.827900 10269 net.cpp:382] SCNN_U_6 -> SCNN_U_6/message
I0313 10:45:28.830353 10269 net.cpp:124] Setting up SCNN_U_6
I0313 10:45:28.830365 10269 net.cpp:131] Top shape: 1 64 1 80 (5120)
I0313 10:45:28.830370 10269 net.cpp:139] Memory required for data: 329277440
I0313 10:45:28.830375 10269 net.cpp:467] Sharing parameters 'SCNN_U_w' owned by layer 'SCNN_U_60', param index 0
I0313 10:45:28.830379 10269 layer_factory.hpp:77] Creating layer SCNN_U_6/relu
I0313 10:45:28.830384 10269 net.cpp:86] Creating Layer SCNN_U_6/relu
I0313 10:45:28.830390 10269 net.cpp:408] SCNN_U_6/relu <- SCNN_U_6/message
I0313 10:45:28.830397 10269 net.cpp:369] SCNN_U_6/relu -> SCNN_U_6/message (in-place)
I0313 10:45:28.830555 10269 net.cpp:124] Setting up SCNN_U_6/relu
I0313 10:45:28.830564 10269 net.cpp:131] Top shape: 1 64 1 80 (5120)
I0313 10:45:28.830567 10269 net.cpp:139] Memory required for data: 329297920
I0313 10:45:28.830570 10269 layer_factory.hpp:77] Creating layer SCNN_U_6/sum
I0313 10:45:28.830576 10269 net.cpp:86] Creating Layer SCNN_U_6/sum
I0313 10:45:28.830583 10269 net.cpp:408] SCNN_U_6/sum <- SCNN_U_6/message
I0313 10:45:28.830590 10269 net.cpp:408] SCNN_U_6/sum <- SCNN_D_5_SCNN_D_4/sum_0_split_1
I0313 10:45:28.830596 10269 net.cpp:382] SCNN_U_6/sum -> SCNN_U_5
I0313 10:45:28.830634 10269 net.cpp:124] Setting up SCNN_U_6/sum
I0313 10:45:28.830642 10269 net.cpp:131] Top shape: 1 64 1 80 (5120)
I0313 10:45:28.830646 10269 net.cpp:139] Memory required for data: 329318400
I0313 10:45:28.830648 10269 layer_factory.hpp:77] Creating layer SCNN_U_5_SCNN_U_6/sum_0_split
I0313 10:45:28.830653 10269 net.cpp:86] Creating Layer SCNN_U_5_SCNN_U_6/sum_0_split
I0313 10:45:28.830659 10269 net.cpp:408] SCNN_U_5_SCNN_U_6/sum_0_split <- SCNN_U_5
I0313 10:45:28.830665 10269 net.cpp:382] SCNN_U_5_SCNN_U_6/sum_0_split -> SCNN_U_5_SCNN_U_6/sum_0_split_0
I0313 10:45:28.830673 10269 net.cpp:382] SCNN_U_5_SCNN_U_6/sum_0_split -> SCNN_U_5_SCNN_U_6/sum_0_split_1
I0313 10:45:28.830726 10269 net.cpp:124] Setting up SCNN_U_5_SCNN_U_6/sum_0_split
I0313 10:45:28.830734 10269 net.cpp:131] Top shape: 1 64 1 80 (5120)
I0313 10:45:28.830739 10269 net.cpp:131] Top shape: 1 64 1 80 (5120)
I0313 10:45:28.830741 10269 net.cpp:139] Memory required for data: 329359360
I0313 10:45:28.830744 10269 layer_factory.hpp:77] Creating layer SCNN_U_5
I0313 10:45:28.830749 10269 net.cpp:86] Creating Layer SCNN_U_5
I0313 10:45:28.830756 10269 net.cpp:408] SCNN_U_5 <- SCNN_U_5_SCNN_U_6/sum_0_split_0
I0313 10:45:28.830763 10269 net.cpp:382] SCNN_U_5 -> SCNN_U_5/message
I0313 10:45:28.832095 10269 net.cpp:124] Setting up SCNN_U_5
I0313 10:45:28.832108 10269 net.cpp:131] Top shape: 1 64 1 80 (5120)
I0313 10:45:28.832113 10269 net.cpp:139] Memory required for data: 329379840
I0313 10:45:28.832118 10269 net.cpp:467] Sharing parameters 'SCNN_U_w' owned by layer 'SCNN_U_60', param index 0
I0313 10:45:28.832121 10269 layer_factory.hpp:77] Creating layer SCNN_U_5/relu
I0313 10:45:28.832125 10269 net.cpp:86] Creating Layer SCNN_U_5/relu
I0313 10:45:28.832131 10269 net.cpp:408] SCNN_U_5/relu <- SCNN_U_5/message
I0313 10:45:28.832139 10269 net.cpp:369] SCNN_U_5/relu -> SCNN_U_5/message (in-place)
I0313 10:45:28.832507 10269 net.cpp:124] Setting up SCNN_U_5/relu
I0313 10:45:28.832517 10269 net.cpp:131] Top shape: 1 64 1 80 (5120)
I0313 10:45:28.832521 10269 net.cpp:139] Memory required for data: 329400320
I0313 10:45:28.832525 10269 layer_factory.hpp:77] Creating layer SCNN_U_5/sum
I0313 10:45:28.832530 10269 net.cpp:86] Creating Layer SCNN_U_5/sum
I0313 10:45:28.832536 10269 net.cpp:408] SCNN_U_5/sum <- SCNN_U_5/message
I0313 10:45:28.832545 10269 net.cpp:408] SCNN_U_5/sum <- SCNN_D_4_SCNN_D_3/sum_0_split_1
I0313 10:45:28.832552 10269 net.cpp:382] SCNN_U_5/sum -> SCNN_U_4
I0313 10:45:28.832589 10269 net.cpp:124] Setting up SCNN_U_5/sum
I0313 10:45:28.832598 10269 net.cpp:131] Top shape: 1 64 1 80 (5120)
I0313 10:45:28.832602 10269 net.cpp:139] Memory required for data: 329420800
I0313 10:45:28.832604 10269 layer_factory.hpp:77] Creating layer SCNN_U_4_SCNN_U_5/sum_0_split
I0313 10:45:28.832609 10269 net.cpp:86] Creating Layer SCNN_U_4_SCNN_U_5/sum_0_split
I0313 10:45:28.832614 10269 net.cpp:408] SCNN_U_4_SCNN_U_5/sum_0_split <- SCNN_U_4
I0313 10:45:28.832621 10269 net.cpp:382] SCNN_U_4_SCNN_U_5/sum_0_split -> SCNN_U_4_SCNN_U_5/sum_0_split_0
I0313 10:45:28.832629 10269 net.cpp:382] SCNN_U_4_SCNN_U_5/sum_0_split -> SCNN_U_4_SCNN_U_5/sum_0_split_1
I0313 10:45:28.832682 10269 net.cpp:124] Setting up SCNN_U_4_SCNN_U_5/sum_0_split
I0313 10:45:28.832690 10269 net.cpp:131] Top shape: 1 64 1 80 (5120)
I0313 10:45:28.832695 10269 net.cpp:131] Top shape: 1 64 1 80 (5120)
I0313 10:45:28.832697 10269 net.cpp:139] Memory required for data: 329461760
I0313 10:45:28.832700 10269 layer_factory.hpp:77] Creating layer SCNN_U_4
I0313 10:45:28.832707 10269 net.cpp:86] Creating Layer SCNN_U_4
I0313 10:45:28.832713 10269 net.cpp:408] SCNN_U_4 <- SCNN_U_4_SCNN_U_5/sum_0_split_0
I0313 10:45:28.832720 10269 net.cpp:382] SCNN_U_4 -> SCNN_U_4/message
I0313 10:45:28.833830 10269 net.cpp:124] Setting up SCNN_U_4
I0313 10:45:28.833842 10269 net.cpp:131] Top shape: 1 64 1 80 (5120)
I0313 10:45:28.833847 10269 net.cpp:139] Memory required for data: 329482240
I0313 10:45:28.833850 10269 net.cpp:467] Sharing parameters 'SCNN_U_w' owned by layer 'SCNN_U_60', param index 0
I0313 10:45:28.833854 10269 layer_factory.hpp:77] Creating layer SCNN_U_4/relu
I0313 10:45:28.833859 10269 net.cpp:86] Creating Layer SCNN_U_4/relu
I0313 10:45:28.833865 10269 net.cpp:408] SCNN_U_4/relu <- SCNN_U_4/message
I0313 10:45:28.833873 10269 net.cpp:369] SCNN_U_4/relu -> SCNN_U_4/message (in-place)
I0313 10:45:28.834237 10269 net.cpp:124] Setting up SCNN_U_4/relu
I0313 10:45:28.834247 10269 net.cpp:131] Top shape: 1 64 1 80 (5120)
I0313 10:45:28.834251 10269 net.cpp:139] Memory required for data: 329502720
I0313 10:45:28.834254 10269 layer_factory.hpp:77] Creating layer SCNN_U_4/sum
I0313 10:45:28.834260 10269 net.cpp:86] Creating Layer SCNN_U_4/sum
I0313 10:45:28.834266 10269 net.cpp:408] SCNN_U_4/sum <- SCNN_U_4/message
I0313 10:45:28.834275 10269 net.cpp:408] SCNN_U_4/sum <- SCNN_D_3_SCNN_D_2/sum_0_split_1
I0313 10:45:28.834281 10269 net.cpp:382] SCNN_U_4/sum -> SCNN_U_3
I0313 10:45:28.834318 10269 net.cpp:124] Setting up SCNN_U_4/sum
I0313 10:45:28.834326 10269 net.cpp:131] Top shape: 1 64 1 80 (5120)
I0313 10:45:28.834331 10269 net.cpp:139] Memory required for data: 329523200
I0313 10:45:28.834333 10269 layer_factory.hpp:77] Creating layer SCNN_U_3_SCNN_U_4/sum_0_split
I0313 10:45:28.834337 10269 net.cpp:86] Creating Layer SCNN_U_3_SCNN_U_4/sum_0_split
I0313 10:45:28.834343 10269 net.cpp:408] SCNN_U_3_SCNN_U_4/sum_0_split <- SCNN_U_3
I0313 10:45:28.834350 10269 net.cpp:382] SCNN_U_3_SCNN_U_4/sum_0_split -> SCNN_U_3_SCNN_U_4/sum_0_split_0
I0313 10:45:28.834358 10269 net.cpp:382] SCNN_U_3_SCNN_U_4/sum_0_split -> SCNN_U_3_SCNN_U_4/sum_0_split_1
I0313 10:45:28.834411 10269 net.cpp:124] Setting up SCNN_U_3_SCNN_U_4/sum_0_split
I0313 10:45:28.834419 10269 net.cpp:131] Top shape: 1 64 1 80 (5120)
I0313 10:45:28.834424 10269 net.cpp:131] Top shape: 1 64 1 80 (5120)
I0313 10:45:28.834427 10269 net.cpp:139] Memory required for data: 329564160
I0313 10:45:28.834429 10269 layer_factory.hpp:77] Creating layer SCNN_U_3
I0313 10:45:28.834436 10269 net.cpp:86] Creating Layer SCNN_U_3
I0313 10:45:28.834442 10269 net.cpp:408] SCNN_U_3 <- SCNN_U_3_SCNN_U_4/sum_0_split_0
I0313 10:45:28.834450 10269 net.cpp:382] SCNN_U_3 -> SCNN_U_3/message
I0313 10:45:28.836969 10269 net.cpp:124] Setting up SCNN_U_3
I0313 10:45:28.836987 10269 net.cpp:131] Top shape: 1 64 1 80 (5120)
I0313 10:45:28.836992 10269 net.cpp:139] Memory required for data: 329584640
I0313 10:45:28.837016 10269 net.cpp:467] Sharing parameters 'SCNN_U_w' owned by layer 'SCNN_U_60', param index 0
I0313 10:45:28.837021 10269 layer_factory.hpp:77] Creating layer SCNN_U_3/relu
I0313 10:45:28.837028 10269 net.cpp:86] Creating Layer SCNN_U_3/relu
I0313 10:45:28.837034 10269 net.cpp:408] SCNN_U_3/relu <- SCNN_U_3/message
I0313 10:45:28.837043 10269 net.cpp:369] SCNN_U_3/relu -> SCNN_U_3/message (in-place)
I0313 10:45:28.837210 10269 net.cpp:124] Setting up SCNN_U_3/relu
I0313 10:45:28.837219 10269 net.cpp:131] Top shape: 1 64 1 80 (5120)
I0313 10:45:28.837224 10269 net.cpp:139] Memory required for data: 329605120
I0313 10:45:28.837226 10269 layer_factory.hpp:77] Creating layer SCNN_U_3/sum
I0313 10:45:28.837231 10269 net.cpp:86] Creating Layer SCNN_U_3/sum
I0313 10:45:28.837237 10269 net.cpp:408] SCNN_U_3/sum <- SCNN_U_3/message
I0313 10:45:28.837246 10269 net.cpp:408] SCNN_U_3/sum <- SCNN_D_2_SCNN_D_1/sum_0_split_1
I0313 10:45:28.837254 10269 net.cpp:382] SCNN_U_3/sum -> SCNN_U_2
I0313 10:45:28.837293 10269 net.cpp:124] Setting up SCNN_U_3/sum
I0313 10:45:28.837301 10269 net.cpp:131] Top shape: 1 64 1 80 (5120)
I0313 10:45:28.837304 10269 net.cpp:139] Memory required for data: 329625600
I0313 10:45:28.837307 10269 layer_factory.hpp:77] Creating layer SCNN_U_2_SCNN_U_3/sum_0_split
I0313 10:45:28.837312 10269 net.cpp:86] Creating Layer SCNN_U_2_SCNN_U_3/sum_0_split
I0313 10:45:28.837317 10269 net.cpp:408] SCNN_U_2_SCNN_U_3/sum_0_split <- SCNN_U_2
I0313 10:45:28.837324 10269 net.cpp:382] SCNN_U_2_SCNN_U_3/sum_0_split -> SCNN_U_2_SCNN_U_3/sum_0_split_0
I0313 10:45:28.837332 10269 net.cpp:382] SCNN_U_2_SCNN_U_3/sum_0_split -> SCNN_U_2_SCNN_U_3/sum_0_split_1
I0313 10:45:28.837391 10269 net.cpp:124] Setting up SCNN_U_2_SCNN_U_3/sum_0_split
I0313 10:45:28.837399 10269 net.cpp:131] Top shape: 1 64 1 80 (5120)
I0313 10:45:28.837404 10269 net.cpp:131] Top shape: 1 64 1 80 (5120)
I0313 10:45:28.837407 10269 net.cpp:139] Memory required for data: 329666560
I0313 10:45:28.837411 10269 layer_factory.hpp:77] Creating layer SCNN_U_2
I0313 10:45:28.837417 10269 net.cpp:86] Creating Layer SCNN_U_2
I0313 10:45:28.837424 10269 net.cpp:408] SCNN_U_2 <- SCNN_U_2_SCNN_U_3/sum_0_split_0
I0313 10:45:28.837430 10269 net.cpp:382] SCNN_U_2 -> SCNN_U_2/message
I0313 10:45:28.838847 10269 net.cpp:124] Setting up SCNN_U_2
I0313 10:45:28.838863 10269 net.cpp:131] Top shape: 1 64 1 80 (5120)
I0313 10:45:28.838866 10269 net.cpp:139] Memory required for data: 329687040
I0313 10:45:28.838872 10269 net.cpp:467] Sharing parameters 'SCNN_U_w' owned by layer 'SCNN_U_60', param index 0
I0313 10:45:28.838877 10269 layer_factory.hpp:77] Creating layer SCNN_U_2/relu
I0313 10:45:28.838882 10269 net.cpp:86] Creating Layer SCNN_U_2/relu
I0313 10:45:28.838887 10269 net.cpp:408] SCNN_U_2/relu <- SCNN_U_2/message
I0313 10:45:28.838893 10269 net.cpp:369] SCNN_U_2/relu -> SCNN_U_2/message (in-place)
I0313 10:45:28.839059 10269 net.cpp:124] Setting up SCNN_U_2/relu
I0313 10:45:28.839068 10269 net.cpp:131] Top shape: 1 64 1 80 (5120)
I0313 10:45:28.839071 10269 net.cpp:139] Memory required for data: 329707520
I0313 10:45:28.839076 10269 layer_factory.hpp:77] Creating layer SCNN_U_2/sum
I0313 10:45:28.839080 10269 net.cpp:86] Creating Layer SCNN_U_2/sum
I0313 10:45:28.839087 10269 net.cpp:408] SCNN_U_2/sum <- SCNN_U_2/message
I0313 10:45:28.839095 10269 net.cpp:408] SCNN_U_2/sum <- slice1_1_Slice1_0_split_1
I0313 10:45:28.839102 10269 net.cpp:382] SCNN_U_2/sum -> SCNN_U_1
I0313 10:45:28.839145 10269 net.cpp:124] Setting up SCNN_U_2/sum
I0313 10:45:28.839154 10269 net.cpp:131] Top shape: 1 64 1 80 (5120)
I0313 10:45:28.839156 10269 net.cpp:139] Memory required for data: 329728000
I0313 10:45:28.839159 10269 layer_factory.hpp:77] Creating layer Concat1
I0313 10:45:28.839169 10269 net.cpp:86] Creating Layer Concat1
I0313 10:45:28.839174 10269 net.cpp:408] Concat1 <- SCNN_U_1
I0313 10:45:28.839181 10269 net.cpp:408] Concat1 <- SCNN_U_2_SCNN_U_3/sum_0_split_1
I0313 10:45:28.839188 10269 net.cpp:408] Concat1 <- SCNN_U_3_SCNN_U_4/sum_0_split_1
…
I0313 10:45:28.839431 10269 net.cpp:408] Concat1 <- SCNN_U_55_SCNN_U_56/sum_0_split_1
I0313 10:45:28.839434 10269 net.cpp:408] Concat1 <- SCNN_U_56_SCNN_U_57/sum_0_split_1
I0313 10:45:28.839439 10269 net.cpp:408] Concat1 <- SCNN_U_57_SCNN_U_58/sum_0_split_1
I0313 10:45:28.839443 10269 net.cpp:408] Concat1 <- SCNN_U_58_SCNN_U_59/sum_0_split_1
I0313 10:45:28.839448 10269 net.cpp:408] Concat1 <- SCNN_U_59_SCNN_U_60/sum_0_split_1
I0313 10:45:28.839453 10269 net.cpp:408] Concat1 <- SCNN_D_60_SCNN_D_59/sum_0_split_1
I0313 10:45:28.839462 10269 net.cpp:382] Concat1 -> SCNN_U
I0313 10:45:28.839505 10269 net.cpp:124] Setting up Concat1
I0313 10:45:28.839514 10269 net.cpp:131] Top shape: 1 64 60 80 (307200)
I0313 10:45:28.839517 10269 net.cpp:139] Memory required for data: 330956800
I0313 10:45:28.839519 10269 layer_factory.hpp:77] Creating layer conv6
I0313 10:45:28.839529 10269 net.cpp:86] Creating Layer conv6
I0313 10:45:28.839534 10269 net.cpp:408] conv6 <- SCNN_U
I0313 10:45:28.839541 10269 net.cpp:382] conv6 -> conv6
I0313 10:45:28.840983 10269 net.cpp:124] Setting up conv6
I0313 10:45:28.840998 10269 net.cpp:131] Top shape: 1 64 60 80 (307200)
I0313 10:45:28.841002 10269 net.cpp:139] Memory required for data: 332185600
I0313 10:45:28.841011 10269 layer_factory.hpp:77] Creating layer deconv_out
I0313 10:45:28.841020 10269 net.cpp:86] Creating Layer deconv_out
I0313 10:45:28.841027 10269 net.cpp:408] deconv_out <- conv6
I0313 10:45:28.841037 10269 net.cpp:382] deconv_out -> deconv_out
I0313 10:45:28.845652 10269 net.cpp:124] Setting up deconv_out
I0313 10:45:28.845679 10269 net.cpp:131] Top shape: 1 32 480 640 (9830400)
I0313 10:45:28.845681 10269 net.cpp:139] Memory required for data: 371507200
I0313 10:45:28.845690 10269 layer_factory.hpp:77] Creating layer conv_out
I0313 10:45:28.845700 10269 net.cpp:86] Creating Layer conv_out
I0313 10:45:28.845711 10269 net.cpp:408] conv_out <- deconv_out
I0313 10:45:28.845724 10269 net.cpp:382] conv_out -> conv_out
I0313 10:45:28.849566 10269 net.cpp:124] Setting up conv_out
I0313 10:45:28.849591 10269 net.cpp:131] Top shape: 1 13 480 640 (3993600)
I0313 10:45:28.849596 10269 net.cpp:139] Memory required for data: 387481600
I0313 10:45:28.849606 10269 layer_factory.hpp:77] Creating layer softmax
I0313 10:45:28.849615 10269 net.cpp:86] Creating Layer softmax
I0313 10:45:28.849627 10269 net.cpp:408] softmax <- conv_out
I0313 10:45:28.849637 10269 net.cpp:382] softmax -> softmax
I0313 10:45:28.850049 10269 net.cpp:124] Setting up softmax
I0313 10:45:28.850062 10269 net.cpp:131] Top shape: 1 13 480 640 (3993600)
I0313 10:45:28.850065 10269 net.cpp:139] Memory required for data: 403456000
I0313 10:45:28.850070 10269 net.cpp:202] softmax does not need backward computation.
I0313 10:45:28.850075 10269 net.cpp:202] conv_out does not need backward computation.
I0313 10:45:28.850080 10269 net.cpp:202] deconv_out does not need backward computation.
I0313 10:45:28.850085 10269 net.cpp:202] conv6 does not need backward computation.
…
