…
I0313 11:35:49.771194 22390 common.cpp:197] Concurrent copy and execution: Yes
I0313 11:35:49.771196 22390 common.cpp:199] Number of multiprocessors:     10
I0313 11:35:49.771198 22390 common.cpp:200] Kernel execution timeout:      Yes
I0313 11:35:49.790807 22390 net.cpp:53] Initializing net from parameters: 
name: "darknet-16c-16x-3d multitask TEST 960x384, offset L3:440, L4: 312, RM DET"
state {
  phase: TEST
  level: 0
}
layer {
  name: "input"
  type: "Input"
  top: "data"
  input_param {
    shape {
      dim: 1
      dim: 3
      dim: 480
      dim: 640
    }
  }
}
layer {
  name: "scale_data_lane"
  type: "Power"
  bottom: "data"
  top: "scale_data_lane"
  propagate_down: false
  power_param {
    power: 1
    scale: 0.00392157
    shift: 0
  }
}
layer {
  name: "conv1"
  type: "Convolution"
  bottom: "scale_data_lane"
  top: "conv1"
  param {
    lr_mult: 1
    decay_mult: 1
  }
  convolution_param {
    num_output: 16
    bias_term: false
    pad: 1
    kernel_size: 3
    stride: 1
    weight_filler {
      type: "gaussian"
      std: 0.01
    }
    dilation: 1
  }
}
layer {
  name: "conv1_bn"
  type: "BatchNorm"
  bottom: "conv1"
  top: "conv1"
  batch_norm_param {
    use_global_stats: true
    eps: 1e-06
  }
}
layer {
  name: "conv1_scale"
  type: "Scale"
  bottom: "conv1"
  top: "conv1"
  param {
    lr_mult: 1
    decay_mult: 1
  }
  param {
    lr_mult: 1
    decay_mult: 1
  }
  scale_param {
    filler {
      type: "constant"
      value: 1
    }
    bias_term: true
  }
}
layer {
  name: "conv1_relu"
  type: "ReLU"
  bottom: "conv1"
  top: "conv1"
  relu_param {
    negative_slope: 0
  }
}
layer {
  name: "pool1"
  type: "Pooling"
  bottom: "conv1"
  top: "pool1"
  pooling_param {
    pool: MAX
    kernel_size: 2
    stride: 2
    pad: 0
  }
}
layer {
  name: "conv2"
  type: "Convolution"
  bottom: "pool1"
  top: "conv2"
  param {
    lr_mult: 1
    decay_mult: 1
  }
  convolution_param {
    num_output: 32
    bias_term: false
    pad: 1
    kernel_size: 3
    stride: 1
    weight_filler {
      type: "gaussian"
      std: 0.01
    }
    dilation: 1
  }
}
layer {
  name: "conv2_bn"
  type: "BatchNorm"
  bottom: "conv2"
  top: "conv2"
  batch_norm_param {
    use_global_stats: true
    eps: 1e-06
  }
}
layer {
  name: "conv2_scale"
  type: "Scale"
  bottom: "conv2"
  top: "conv2"
  param {
    lr_mult: 1
    decay_mult: 1
  }
  param {
    lr_mult: 1
    decay_mult: 1
  }
  scale_param {
    filler {
      type: "constant"
      value: 1
    }
    bias_term: true
  }
}
layer {
  name: "conv2_relu"
  type: "ReLU"
  bottom: "conv2"
  top: "conv2"
  relu_param {
    negative_slope: 0
  }
}
layer {
  name: "pool2"
  type: "Pooling"
  bottom: "conv2"
  top: "pool2"
  pooling_param {
    pool: MAX
    kernel_size: 2
    stride: 2
    pad: 0
  }
}
layer {
  name: "conv3_1"
  type: "Convolution"
  bottom: "pool2"
  top: "conv3_1"
  param {
    lr_mult: 1
    decay_mult: 1
  }
  convolution_param {
    num_output: 64
    bias_term: false
    pad: 1
    kernel_size: 3
    stride: 1
    weight_filler {
      type: "gaussian"
      std: 0.01
    }
    dilation: 1
  }
}
layer {
  name: "conv3_1_bn"
  type: "BatchNorm"
  bottom: "conv3_1"
  top: "conv3_1"
  batch_norm_param {
    use_global_stats: true
    eps: 1e-06
  }
}
layer {
  name: "conv3_1_scale"
  type: "Scale"
  bottom: "conv3_1"
  top: "conv3_1"
  param {
    lr_mult: 1
    decay_mult: 1
  }
  param {
    lr_mult: 1
    decay_mult: 1
  }
  scale_param {
    filler {
      type: "constant"
      value: 1
    }
    bias_term: true
  }
}
layer {
  name: "conv3_1_relu"
  type: "ReLU"
  bottom: "conv3_1"
  top: "conv3_1"
  relu_param {
    negative_slope: 0
  }
}
layer {
  name: "conv3_2"
  type: "Convolution"
  bottom: "conv3_1"
  top: "conv3_2"
  param {
    lr_mult: 1
    decay_mult: 1
  }
  convolution_param {
    num_output: 32
    bias_term: false
    pad: 0
    kernel_size: 1
    stride: 1
    weight_filler {
      type: "gaussian"
      std: 0.01
    }
    dilation: 1
  }
}
layer {
  name: "conv3_2_bn"
  type: "BatchNorm"
  bottom: "conv3_2"
  top: "conv3_2"
  batch_norm_param {
    use_global_stats: true
    eps: 1e-06
  }
}
layer {
  name: "conv3_2_scale"
  type: "Scale"
  bottom: "conv3_2"
  top: "conv3_2"
  param {
    lr_mult: 1
    decay_mult: 1
  }
  param {
    lr_mult: 1
    decay_mult: 1
  }
  scale_param {
    filler {
      type: "constant"
      value: 1
    }
    bias_term: true
  }
}
layer {
  name: "conv3_2_relu"
  type: "ReLU"
  bottom: "conv3_2"
  top: "conv3_2"
  relu_param {
    negative_slope: 0
  }
}
layer {
  name: "conv3_3"
  type: "Convolution"
  bottom: "conv3_2"
  top: "conv3_3"
  param {
    lr_mult: 1
    decay_mult: 1
  }
  convolution_param {
    num_output: 64
    bias_term: false
    pad: 1
    kernel_size: 3
    stride: 1
    weight_filler {
      type: "gaussian"
      std: 0.01
    }
    dilation: 1
  }
}
layer {
  name: "conv3_3_bn"
  type: "BatchNorm"
  bottom: "conv3_3"
  top: "conv3_3"
  batch_norm_param {
    use_global_stats: true
    eps: 1e-06
  }
}
layer {
  name: "conv3_3_scale"
  type: "Scale"
  bottom: "conv3_3"
  top: "conv3_3"
  param {
    lr_mult: 1
    decay_mult: 1
  }
  param {
    lr_mult: 1
    decay_mult: 1
  }
  scale_param {
    filler {
      type: "constant"
      value: 1
    }
    bias_term: true
  }
}
layer {
  name: "conv3_3_relu"
  type: "ReLU"
  bottom: "conv3_3"
  top: "conv3_3"
  relu_param {
    negative_slope: 0
  }
}
layer {
  name: "pool3"
  type: "Pooling"
  bottom: "conv3_3"
  top: "pool3"
  pooling_param {
    pool: MAX
    kernel_size: 2
    stride: 2
    pad: 0
  }
}
layer {
  name: "conv4_1"
  type: "Convolution"
  bottom: "pool3"
  top: "conv4_1"
  param {
    lr_mult: 1
    decay_mult: 1
  }
  convolution_param {
    num_output: 128
    bias_term: false
    pad: 1
    kernel_size: 3
    stride: 1
    weight_filler {
      type: "gaussian"
      std: 0.01
    }
    dilation: 1
  }
}
layer {
  name: "conv4_1_bn"
  type: "BatchNorm"
  bottom: "conv4_1"
  top: "conv4_1"
  batch_norm_param {
    use_global_stats: true
    eps: 1e-06
  }
}
layer {
  name: "conv4_1_scale"
  type: "Scale"
  bottom: "conv4_1"
  top: "conv4_1"
  param {
    lr_mult: 1
    decay_mult: 1
  }
  param {
    lr_mult: 1
    decay_mult: 1
  }
  scale_param {
    filler {
      type: "constant"
      value: 1
    }
    bias_term: true
  }
}
layer {
  name: "conv4_1_relu"
  type: "ReLU"
  bottom: "conv4_1"
  top: "conv4_1"
  relu_param {
    negative_slope: 0
  }
}
layer {
  name: "conv4_2"
  type: "Convolution"
  bottom: "conv4_1"
  top: "conv4_2"
  param {
    lr_mult: 1
    decay_mult: 1
  }
  convolution_param {
    num_output: 64
    bias_term: false
    pad: 0
    kernel_size: 1
    stride: 1
    weight_filler {
      type: "gaussian"
      std: 0.01
    }
    dilation: 1
  }
}
layer {
  name: "conv4_2_bn"
  type: "BatchNorm"
  bottom: "conv4_2"
  top: "conv4_2"
  batch_norm_param {
    use_global_stats: true
    eps: 1e-06
  }
}
layer {
  name: "conv4_2_scale"
  type: "Scale"
  bottom: "conv4_2"
  top: "conv4_2"
  param {
    lr_mult: 1
    decay_mult: 1
  }
  param {
    lr_mult: 1
    decay_mult: 1
  }
  scale_param {
    filler {
      type: "constant"
      value: 1
    }
    bias_term: true
  }
}
layer {
  name: "conv4_2_relu"
  type: "ReLU"
  bottom: "conv4_2"
  top: "conv4_2"
  relu_param {
    negative_slope: 0
  }
}
layer {
  name: "conv4_3"
  type: "Convolution"
  bottom: "conv4_2"
  top: "conv4_3"
  param {
    lr_mult: 1
    decay_mult: 1
  }
  convolution_param {
    num_output: 128
    bias_term: false
    pad: 1
    kernel_size: 3
    stride: 1
    weight_filler {
      type: "gaussian"
      std: 0.01
    }
    dilation: 1
  }
}
layer {
  name: "conv4_3_bn"
  type: "BatchNorm"
  bottom: "conv4_3"
  top: "conv4_3"
  batch_norm_param {
    use_global_stats: true
    eps: 1e-06
  }
}
layer {
  name: "conv4_3_scale"
  type: "Scale"
  bottom: "conv4_3"
  top: "conv4_3"
  param {
    lr_mult: 1
    decay_mult: 1
  }
  param {
    lr_mult: 1
    decay_mult: 1
  }
  scale_param {
    filler {
      type: "constant"
      value: 1
    }
    bias_term: true
  }
}
layer {
  name: "conv4_3_relu"
  type: "ReLU"
  bottom: "conv4_3"
  top: "conv4_3"
  relu_param {
    negative_slope: 0
  }
}
layer {
  name: "pool4"
  type: "Pooling"
  bottom: "conv4_3"
  top: "pool4"
  pooling_param {
    pool: MAX
    kernel_size: 2
    stride: 2
    pad: 0
  }
}
layer {
  name: "conv5_1"
  type: "Convolution"
  bottom: "pool4"
  top: "conv5_1"
  param {
    lr_mult: 1
    decay_mult: 1
  }
  convolution_param {
    num_output: 256
    bias_term: false
    pad: 1
    kernel_size: 3
    stride: 1
    weight_filler {
      type: "gaussian"
      std: 0.01
    }
    dilation: 1
  }
}
layer {
  name: "conv5_1_bn"
  type: "BatchNorm"
  bottom: "conv5_1"
  top: "conv5_1"
  batch_norm_param {
    use_global_stats: true
    eps: 1e-06
  }
}
layer {
  name: "conv5_1_scale"
  type: "Scale"
  bottom: "conv5_1"
  top: "conv5_1"
  param {
    lr_mult: 1
    decay_mult: 1
  }
  param {
    lr_mult: 1
    decay_mult: 1
  }
  scale_param {
    filler {
      type: "constant"
      value: 1
    }
    bias_term: true
  }
}
layer {
  name: "conv5_1_relu"
  type: "ReLU"
  bottom: "conv5_1"
  top: "conv5_1"
  relu_param {
    negative_slope: 0
  }
}
layer {
  name: "conv5_2"
  type: "Convolution"
  bottom: "conv5_1"
  top: "conv5_2"
  param {
    lr_mult: 1
    decay_mult: 1
  }
  convolution_param {
    num_output: 128
    bias_term: false
    pad: 0
    kernel_size: 1
    stride: 1
    weight_filler {
      type: "gaussian"
      std: 0.01
    }
    dilation: 1
  }
}
layer {
  name: "conv5_2_bn"
  type: "BatchNorm"
  bottom: "conv5_2"
  top: "conv5_2"
  batch_norm_param {
    use_global_stats: true
    eps: 1e-06
  }
}
layer {
  name: "conv5_2_scale"
  type: "Scale"
  bottom: "conv5_2"
  top: "conv5_2"
  param {
    lr_mult: 1
    decay_mult: 1
  }
  param {
    lr_mult: 1
    decay_mult: 1
  }
  scale_param {
    filler {
      type: "constant"
      value: 1
    }
    bias_term: true
  }
}
layer {
  name: "conv5_2_relu"
  type: "ReLU"
  bottom: "conv5_2"
  top: "conv5_2"
  relu_param {
    negative_slope: 0
  }
}
layer {
  name: "conv5_3"
  type: "Convolution"
  bottom: "conv5_2"
  top: "conv5_3"
  param {
    lr_mult: 1
    decay_mult: 1
  }
  convolution_param {
    num_output: 256
    bias_term: false
    pad: 1
    kernel_size: 3
    stride: 1
    weight_filler {
      type: "gaussian"
      std: 0.01
    }
    dilation: 1
  }
}
layer {
  name: "conv5_3_bn"
  type: "BatchNorm"
  bottom: "conv5_3"
  top: "conv5_3"
  batch_norm_param {
    use_global_stats: true
    eps: 1e-06
  }
}
layer {
  name: "conv5_3_scale"
  type: "Scale"
  bottom: "conv5_3"
  top: "conv5_3"
  param {
    lr_mult: 1
    decay_mult: 1
  }
  param {
    lr_mult: 1
    decay_mult: 1
  }
  scale_param {
    filler {
      type: "constant"
      value: 1
    }
    bias_term: true
  }
}
layer {
  name: "conv5_3_relu"
  type: "ReLU"
  bottom: "conv5_3"
  top: "conv5_3"
  relu_param {
    negative_slope: 0
  }
}
layer {
  name: "conv5_4"
  type: "Convolution"
  bottom: "conv5_3"
  top: "conv5_4"
  param {
    lr_mult: 1
    decay_mult: 1
  }
  convolution_param {
    num_output: 128
    bias_term: false
    pad: 0
    kernel_size: 1
    stride: 1
    weight_filler {
      type: "gaussian"
      std: 0.01
    }
    dilation: 1
  }
}
layer {
  name: "conv5_4_bn"
  type: "BatchNorm"
  bottom: "conv5_4"
  top: "conv5_4"
  batch_norm_param {
    use_global_stats: true
    eps: 1e-06
  }
}
layer {
  name: "conv5_4_scale"
  type: "Scale"
  bottom: "conv5_4"
  top: "conv5_4"
  param {
    lr_mult: 1
    decay_mult: 1
  }
  param {
    lr_mult: 1
    decay_mult: 1
  }
  scale_param {
    filler {
      type: "constant"
      value: 1
    }
    bias_term: true
  }
}
layer {
  name: "conv5_4_relu"
  type: "ReLU"
  bottom: "conv5_4"
  top: "conv5_4"
  relu_param {
    negative_slope: 0
  }
}
layer {
  name: "conv5_5"
  type: "Convolution"
  bottom: "conv5_4"
  top: "conv5_5"
  param {
    lr_mult: 1
    decay_mult: 1
  }
  convolution_param {
    num_output: 256
    bias_term: false
    pad: 1
    kernel_size: 3
    stride: 1
    weight_filler {
      type: "gaussian"
      std: 0.01
    }
    dilation: 1
  }
}
layer {
  name: "conv5_5_bn"
  type: "BatchNorm"
  bottom: "conv5_5"
  top: "conv5_5"
  batch_norm_param {
    use_global_stats: true
    eps: 1e-06
  }
}
layer {
  name: "conv5_5_scale"
  type: "Scale"
  bottom: "conv5_5"
  top: "conv5_5"
  param {
    lr_mult: 1
    decay_mult: 1
  }
  param {
    lr_mult: 1
    decay_mult: 1
  }
  scale_param {
    filler {
      type: "constant"
      value: 1
    }
    bias_term: true
  }
}
layer {
  name: "conv5_5_relu"
  type: "ReLU"
  bottom: "conv5_5"
  top: "conv5_5"
  relu_param {
    negative_slope: 0
  }
}
layer {
  name: "pool5"
  type: "Pooling"
  bottom: "conv5_5"
  top: "pool5"
  pooling_param {
    pool: MAX
    kernel_size: 3
    stride: 1
    pad: 1
  }
}
layer {
  name: "conv6_1"
  type: "Convolution"
  bottom: "pool5"
  top: "conv6_1"
  param {
    lr_mult: 1
    decay_mult: 1
  }
  convolution_param {
    num_output: 512
    bias_term: false
    pad: 2
    kernel_size: 3
    stride: 1
    weight_filler {
      type: "gaussian"
      std: 0.01
    }
    dilation: 2
  }
}
layer {
  name: "conv6_1_bn"
  type: "BatchNorm"
  bottom: "conv6_1"
  top: "conv6_1"
  batch_norm_param {
    use_global_stats: true
    eps: 1e-06
  }
}
layer {
  name: "conv6_1_scale"
  type: "Scale"
  bottom: "conv6_1"
  top: "conv6_1"
  param {
    lr_mult: 1
    decay_mult: 1
  }
  param {
    lr_mult: 1
    decay_mult: 1
  }
  scale_param {
    filler {
      type: "constant"
      value: 1
    }
    bias_term: true
  }
}
layer {
  name: "conv6_1_relu"
  type: "ReLU"
  bottom: "conv6_1"
  top: "conv6_1"
  relu_param {
    negative_slope: 0
  }
}
layer {
  name: "conv6_2"
  type: "Convolution"
  bottom: "conv6_1"
  top: "conv6_2"
  param {
    lr_mult: 1
    decay_mult: 1
  }
  convolution_param {
    num_output: 256
    bias_term: false
    pad: 0
    kernel_size: 1
    stride: 1
    weight_filler {
      type: "gaussian"
      std: 0.01
    }
    dilation: 1
  }
}
layer {
  name: "conv6_2_bn"
  type: "BatchNorm"
  bottom: "conv6_2"
  top: "conv6_2"
  batch_norm_param {
    use_global_stats: true
    eps: 1e-06
  }
}
layer {
  name: "conv6_2_scale"
  type: "Scale"
  bottom: "conv6_2"
  top: "conv6_2"
  param {
    lr_mult: 1
    decay_mult: 1
  }
  param {
    lr_mult: 1
    decay_mult: 1
  }
  scale_param {
    filler {
      type: "constant"
      value: 1
    }
    bias_term: true
  }
}
layer {
  name: "conv6_2_relu"
  type: "ReLU"
  bottom: "conv6_2"
  top: "conv6_2"
  relu_param {
    negative_slope: 0
  }
}
layer {
  name: "conv6_3"
  type: "Convolution"
  bottom: "conv6_2"
  top: "conv6_3"
  param {
    lr_mult: 1
    decay_mult: 1
  }
  convolution_param {
    num_output: 512
    bias_term: false
    pad: 1
    kernel_size: 3
    stride: 1
    weight_filler {
      type: "gaussian"
      std: 0.01
    }
    dilation: 1
  }
}
layer {
  name: "conv6_3_bn"
  type: "BatchNorm"
  bottom: "conv6_3"
  top: "conv6_3"
  batch_norm_param {
    use_global_stats: true
    eps: 1e-06
  }
}
layer {
  name: "conv6_3_scale"
  type: "Scale"
  bottom: "conv6_3"
  top: "conv6_3"
  param {
    lr_mult: 1
    decay_mult: 1
  }
  param {
    lr_mult: 1
    decay_mult: 1
  }
  scale_param {
    filler {
      type: "constant"
      value: 1
    }
    bias_term: true
  }
}
layer {
  name: "conv6_3_relu"
  type: "ReLU"
  bottom: "conv6_3"
  top: "conv6_3"
  relu_param {
    negative_slope: 0
  }
}
layer {
  name: "conv6_4"
  type: "Convolution"
  bottom: "conv6_3"
  top: "conv6_4"
  param {
    lr_mult: 1
    decay_mult: 1
  }
  convolution_param {
    num_output: 256
    bias_term: false
    pad: 0
    kernel_size: 1
    stride: 1
    weight_filler {
      type: "gaussian"
      std: 0.01
    }
    dilation: 1
  }
}
layer {
  name: "conv6_4_bn"
  type: "BatchNorm"
  bottom: "conv6_4"
  top: "conv6_4"
  batch_norm_param {
    use_global_stats: true
    eps: 1e-06
  }
}
layer {
  name: "conv6_4_scale"
  type: "Scale"
  bottom: "conv6_4"
  top: "conv6_4"
  param {
    lr_mult: 1
    decay_mult: 1
  }
  param {
    lr_mult: 1
    decay_mult: 1
  }
  scale_param {
    filler {
      type: "constant"
      value: 1
    }
    bias_term: true
  }
}
layer {
  name: "conv6_4_relu"
  type: "ReLU"
  bottom: "conv6_4"
  top: "conv6_4"
  relu_param {
    negative_slope: 0
  }
}
layer {
  name: "conv6_5"
  type: "Convolution"
  bottom: "conv6_4"
  top: "conv6_5"
  param {
    lr_mult: 1
    decay_mult: 1
  }
  convolution_param {
    num_output: 512
    bias_term: false
    pad: 1
    kernel_size: 3
    stride: 1
    weight_filler {
      type: "gaussian"
      std: 0.01
    }
    dilation: 1
  }
}
layer {
  name: "conv6_5_bn"
  type: "BatchNorm"
  bottom: "conv6_5"
  top: "conv6_5"
  batch_norm_param {
    use_global_stats: true
    eps: 1e-06
  }
}
layer {
  name: "conv6_5_scale"
  type: "Scale"
  bottom: "conv6_5"
  top: "conv6_5"
  param {
    lr_mult: 1
    decay_mult: 1
  }
  param {
    lr_mult: 1
    decay_mult: 1
  }
  scale_param {
    filler {
      type: "constant"
      value: 1
    }
    bias_term: true
  }
}
layer {
  name: "conv6_5_relu"
  type: "ReLU"
  bottom: "conv6_5"
  top: "conv6_5"
  relu_param {
    negative_slope: 0
  }
}
layer {
  name: "conv7_1"
  type: "Convolution"
  bottom: "conv6_5"
  top: "conv7_1"
  param {
    lr_mult: 1
    decay_mult: 1
  }
  convolution_param {
    num_output: 512
    bias_term: false
    pad: 1
    kernel_size: 3
    stride: 1
    weight_filler {
      type: "gaussian"
      std: 0.01
    }
    dilation: 1
  }
}
layer {
  name: "conv7_1_bn"
  type: "BatchNorm"
  bottom: "conv7_1"
  top: "conv7_1"
  batch_norm_param {
    use_global_stats: true
    eps: 1e-06
  }
}
layer {
  name: "conv7_1_scale"
  type: "Scale"
  bottom: "conv7_1"
  top: "conv7_1"
  param {
    lr_mult: 1
    decay_mult: 1
  }
  param {
    lr_mult: 1
    decay_mult: 1
  }
  scale_param {
    filler {
      type: "constant"
      value: 1
    }
    bias_term: true
  }
}
layer {
  name: "conv7_1_relu"
  type: "ReLU"
  bottom: "conv7_1"
  top: "conv7_1"
  relu_param {
    negative_slope: 0
  }
}
layer {
  name: "conv7_2"
  type: "Convolution"
  bottom: "conv7_1"
  top: "conv7_2"
  param {
    lr_mult: 1
    decay_mult: 1
  }
  convolution_param {
    num_output: 512
    bias_term: false
    pad: 1
    kernel_size: 3
    stride: 1
    weight_filler {
      type: "gaussian"
      std: 0.01
    }
    dilation: 1
  }
}
layer {
  name: "conv7_2_bn"
  type: "BatchNorm"
  bottom: "conv7_2"
  top: "conv7_2"
  batch_norm_param {
    use_global_stats: true
    eps: 1e-06
  }
}
layer {
  name: "conv7_2_scale"
  type: "Scale"
  bottom: "conv7_2"
  top: "conv7_2"
  param {
    lr_mult: 1
    decay_mult: 1
  }
  param {
    lr_mult: 1
    decay_mult: 1
  }
  scale_param {
    filler {
      type: "constant"
      value: 1
    }
    bias_term: true
  }
}
layer {
  name: "conv7_2_relu"
  type: "ReLU"
  bottom: "conv7_2"
  top: "conv7_2"
  relu_param {
    negative_slope: 0
  }
}
layer {
  name: "concat8"
  type: "Concat"
  bottom: "conv5_5"
  bottom: "conv7_2"
  top: "concat8"
  concat_param {
    axis: 1
  }
}
layer {
  name: "reduce1_lane"
  type: "Convolution"
  bottom: "concat8"
  top: "reduce1_lane"
  param {
    lr_mult: 1
    decay_mult: 1
  }
  convolution_param {
    num_output: 128
    bias_term: false
    pad: 1
    kernel_size: 3
    stride: 1
    weight_filler {
      type: "gaussian"
      std: 0.01
    }
  }
}
layer {
  name: "reduce1_lane_bn"
  type: "BatchNorm"
  bottom: "reduce1_lane"
  top: "reduce1_lane"
  batch_norm_param {
    use_global_stats: true
    eps: 1e-06
  }
}
layer {
  name: "reduce1_lane_scale"
  type: "Scale"
  bottom: "reduce1_lane"
  top: "reduce1_lane"
  scale_param {
    filler {
      type: "constant"
      value: 1
    }
    bias_term: true
  }
}
layer {
  name: "reduce1_lane_relu"
  type: "ReLU"
  bottom: "reduce1_lane"
  top: "reduce1_lane"
  relu_param {
    negative_slope: 0
  }
}
layer {
  name: "deconv1_lane"
  type: "Deconvolution"
  bottom: "reduce1_lane"
  top: "deconv1_lane"
  param {
    lr_mult: 1
    decay_mult: 1
  }
  convolution_param {
    num_output: 64
    pad: 0
    kernel_size: 2
    stride: 2
    weight_filler {
      type: "xavier"
    }
    bias_filler {
      type: "constant"
      value: 0
    }
  }
}
layer {
  name: "deconv1_lane_bn"
  type: "BatchNorm"
  bottom: "deconv1_lane"
  top: "deconv1_lane"
  batch_norm_param {
    use_global_stats: true
    eps: 1e-06
  }
}
layer {
  name: "deconv1_lane_scale"
  type: "Scale"
  bottom: "deconv1_lane"
  top: "deconv1_lane"
  scale_param {
    filler {
      type: "constant"
      value: 1
    }
    bias_term: true
  }
}
layer {
  name: "deconv1_lane_relu"
  type: "ReLU"
  bottom: "deconv1_lane"
  top: "deconv1_lane"
  relu_param {
    negative_slope: 0
  }
}
layer {
  name: "reorg4"
  type: "Convolution"
  bottom: "conv4_3"
  top: "reorg4"
  param {
    lr_mult: 1
    decay_mult: 1
  }
  convolution_param {
    num_output: 64
    bias_term: false
    pad: 1
    kernel_size: 3
    stride: 1
    weight_filler {
      type: "gaussian"
      std: 0.01
    }
  }
}
layer {
  name: "reorg4_relu"
  type: "ReLU"
  bottom: "reorg4"
  top: "reorg4"
  relu_param {
    negative_slope: 0
  }
}
layer {
  name: "concat4"
  type: "Concat"
  bottom: "reorg4"
  bottom: "deconv1_lane"
  top: "concat4"
  concat_param {
    axis: 1
  }
}
layer {
  name: "reduce2_lane"
  type: "Convolution"
  bottom: "concat4"
  top: "reduce2_lane"
  param {
    lr_mult: 1
    decay_mult: 1
  }
  convolution_param {
    num_output: 64
    bias_term: false
    pad: 1
    kernel_size: 3
    stride: 1
    weight_filler {
      type: "gaussian"
      std: 0.01
    }
  }
}
layer {
  name: "reduce2_lane_bn"
  type: "BatchNorm"
  bottom: "reduce2_lane"
  top: "reduce2_lane"
  batch_norm_param {
    use_global_stats: true
    eps: 1e-06
  }
}
layer {
  name: "reduce2_lane_scale"
  type: "Scale"
  bottom: "reduce2_lane"
  top: "reduce2_lane"
  scale_param {
    filler {
      type: "constant"
      value: 1
    }
    bias_term: true
  }
}
layer {
  name: "reduce2_lane_relu"
  type: "ReLU"
  bottom: "reduce2_lane"
  top: "reduce2_lane"
  relu_param {
    negative_slope: 0
  }
}
layer {
  name: "Slice1"
  type: "Slice"
  bottom: "reduce2_lane"
  top: "slice1_1"
  top: "slice1_2"
  top: "slice1_3"
  top: "slice1_4"
  top: "slice1_5"
  top: "slice1_6"
  top: "slice1_7"
  top: "slice1_8"
  top: "slice1_9"
  top: "slice1_10"
  top: "slice1_11"
  top: "slice1_12"
  top: "slice1_13"
  top: "slice1_14"
  top: "slice1_15"
  top: "slice1_16"
  top: "slice1_17"
  top: "slice1_18"
  top: "slice1_19"
  top: "slice1_20"
  top: "slice1_21"
…
    slice_point: 33
    slice_point: 34
    slice_point: 35
    slice_point: 36
    slice_point: 37
    slice_point: 38
    slice_point: 39
    slice_point: 40
    slice_point: 41
    slice_point: 42
    slice_point: 43
    slice_point: 44
    slice_point: 45
    slice_point: 46
    slice_point: 47
    slice_point: 48
    slice_point: 49
    slice_point: 50
    slice_point: 51
    slice_point: 52
    slice_point: 53
    slice_point: 54
    slice_point: 55
    slice_point: 56
    slice_point: 57
    slice_point: 58
    slice_point: 59
    axis: 2
  }
}
layer {
  name: "SCNN_D_1"
  type: "Convolution"
  bottom: "slice1_1"
  top: "SCNN_D_1/message"
  param {
    name: "SCNN_D_w"
    lr_mult: 1
    decay_mult: 1
  }
  convolution_param {
    num_output: 64
    bias_term: false
    stride: 1
    weight_filler {
      type: "gaussian"
      std: 0.03536
    }
    pad_h: 0
    pad_w: 2
    kernel_h: 1
    kernel_w: 5
  }
}
layer {
  name: "SCNN_D_1/relu"
  type: "ReLU"
  bottom: "SCNN_D_1/message"
  top: "SCNN_D_1/message"
}
layer {
  name: "SCNN_D_1/sum"
  type: "Eltwise"
  bottom: "SCNN_D_1/message"
  bottom: "slice1_2"
  top: "SCNN_D_2"
  eltwise_param {
    operation: SUM
  }
}
layer {
  name: "SCNN_D_2"
  type: "Convolution"
  bottom: "SCNN_D_2"
  top: "SCNN_D_2/message"
  param {
    name: "SCNN_D_w"
    lr_mult: 1
    decay_mult: 1
  }
  convolution_param {
    num_output: 64
    bias_term: false
    stride: 1
    weight_filler {
      type: "gaussian"
      std: 0.03536
    }
    pad_h: 0
    pad_w: 2
    kernel_h: 1
    kernel_w: 5
  }
}
layer {
  name: "SCNN_D_2/relu"
  type: "ReLU"
  bottom: "SCNN_D_2/message"
  top: "SCNN_D_2/message"
}
layer {
  name: "SCNN_D_2/sum"
  type: "Eltwise"
  bottom: "SCNN_D_2/message"
  bottom: "slice1_3"
  top: "SCNN_D_3"
  eltwise_param {
    operation: SUM
  }
}
layer {
  name: "SCNN_D_3"
  type: "Convolution"
  bottom: "SCNN_D_3"
  top: "SCNN_D_3/message"
  param {
    name: "SCNN_D_w"
    lr_mult: 1
    decay_mult: 1
  }
  convolution_param {
    num_output: 64
    bias_term: false
    stride: 1
    weight_filler {
      type: "gaussian"
      std: 0.03536
    }
    pad_h: 0
    pad_w: 2
    kernel_h: 1
    kernel_w: 5
  }
}
layer {
  name: "SCNN_D_3/relu"
  type: "ReLU"
  bottom: "SCNN_D_3/message"
  top: "SCNN_D_3/message"
}
layer {
  name: "SCNN_D_3/sum"
  type: "Eltwise"
  bottom: "SCNN_D_3/message"
  bottom: "slice1_4"
  top: "SCNN_D_4"
  eltwise_param {
    operation: SUM
  }
}
layer {
  name: "SCNN_D_4"
  type: "Convolution"
  bottom: "SCNN_D_4"
  top: "SCNN_D_4/message"
  param {
    name: "SCNN_D_w"
    lr_mult: 1
    decay_mult: 1
  }
  convolution_param {
    num_output: 64
    bias_term: false
    stride: 1
    weight_filler {
      type: "gaussian"
      std: 0.03536
    }
    pad_h: 0
    pad_w: 2
    kernel_h: 1
    kernel_w: 5
  }
}
layer {
  name: "SCNN_D_4/relu"
  type: "ReLU"
  bottom: "SCNN_D_4/message"
  top: "SCNN_D_4/message"
}
layer {
  name: "SCNN_D_4/sum"
  type: "Eltwise"
  bottom: "SCNN_D_4/message"
  bottom: "slice1_5"
  top: "SCNN_D_5"
  eltwise_param {
    operation: SUM
  }
}
layer {
  name: "SCNN_D_5"
  type: "Convolution"
  bottom: "SCNN_D_5"
  top: "SCNN_D_5/message"
  param {
    name: "SCNN_D_w"
    lr_mult: 1
    decay_mult: 1
  }
  convolution_param {
    num_output: 64
    bias_term: false
    stride: 1
    weight_filler {
      type: "gaussian"
      std: 0.03536
    }
    pad_h: 0
    pad_w: 2
    kernel_h: 1
    kernel_w: 5
  }
}
layer {
  name: "SCNN_D_5/relu"
  type: "ReLU"
  bottom: "SCNN_D_5/message"
  top: "SCNN_D_5/message"
}
layer {
  name: "SCNN_D_5/sum"
  type: "Eltwise"
  bottom: "SCNN_D_5/message"
  bottom: "slice1_6"
  top: "SCNN_D_6"
  eltwise_param {
    operation: SUM
  }
}
layer {
  name: "SCNN_D_6"
  type: "Convolution"
  bottom: "SCNN_D_6"
  top: "SCNN_D_6/message"
  param {
    name: "SCNN_D_w"
    lr_mult: 1
    decay_mult: 1
  }
  convolution_param {
    num_output: 64
    bias_term: false
    stride: 1
    weight_filler {
      type: "gaussian"
      std: 0.03536
    }
    pad_h: 0
    pad_w: 2
    kernel_h: 1
    kernel_w: 5
  }
}
layer {
  name: "SCNN_D_6/relu"
  type: "ReLU"
  bottom: "SCNN_D_6/message"
  top: "SCNN_D_6/message"
}
layer {
  name: "SCNN_D_6/sum"
  type: "Eltwise"
  bottom: "SCNN_D_6/message"
  bottom: "slice1_7"
  top: "SCNN_D_7"
  eltwise_param {
    operation: SUM
  }
}
layer {
  name: "SCNN_D_7"
  type: "Convolution"
  bottom: "SCNN_D_7"
  top: "SCNN_D_7/message"
  param {
    name: "SCNN_D_w"
    lr_mult: 1
    decay_mult: 1
  }
  convolution_param {
    num_output: 64
    bias_term: false
    stride: 1
    weight_filler {
      type: "gaussian"
      std: 0.03536
    }
    pad_h: 0
    pad_w: 2
    kernel_h: 1
    kernel_w: 5
  }
}
layer {
  name: "SCNN_D_7/relu"
  type: "ReLU"
  bottom: "SCNN_D_7/message"
  top: "SCNN_D_7/message"
}
layer {
  name: "SCNN_D_7/sum"
  type: "Eltwise"
  bottom: "SCNN_D_7/message"
  bottom: "slice1_8"
  top: "SCNN_D_8"
  eltwise_param {
    operation: SUM
  }
}
layer {
  name: "SCNN_D_8"
  type: "Convolution"
  bottom: "SCNN_D_8"
  top: "SCNN_D_8/message"
  param {
    name: "SCNN_D_w"
    lr_mult: 1
    decay_mult: 1
  }
  convolution_param {
    num_output: 64
    bias_term: false
    stride: 1
    weight_filler {
      type: "gaussian"
      std: 0.03536
    }
    pad_h: 0
    pad_w: 2
    kernel_h: 1
    kernel_w: 5
  }
}
layer {
  name: "SCNN_D_8/relu"
  type: "ReLU"
  bottom: "SCNN_D_8/message"
  top: "SCNN_D_8/message"
}
layer {
  name: "SCNN_D_8/sum"
  type: "Eltwise"
  bottom: "SCNN_D_8/message"
  bottom: "slice1_9"
  top: "SCNN_D_9"
  eltwise_param {
    operation: SUM
  }
}
layer {
  name: "SCNN_D_9"
  type: "Convolution"
  bottom: "SCNN_D_9"
  top: "SCNN_D_9/message"
  param {
    name: "SCNN_D_w"
    lr_mult: 1
    decay_mult: 1
  }
  convolution_param {
    num_output: 64
    bias_term: false
    stride: 1
    weight_filler {
      type: "gaussian"
      std: 0.03536
    }
    pad_h: 
I0313 11:35:49.792851 22390 layer_factory.hpp:77] Creating layer input
I0313 11:35:49.792902 22390 net.cpp:86] Creating Layer input
I0313 11:35:49.792925 22390 net.cpp:382] input -> data
I0313 11:35:49.793143 22390 net.cpp:124] Setting up input
I0313 11:35:49.793181 22390 net.cpp:131] Top shape: 1 3 480 640 (921600)
I0313 11:35:49.793193 22390 net.cpp:139] Memory required for data: 3686400
I0313 11:35:49.793215 22390 layer_factory.hpp:77] Creating layer scale_data_lane
I0313 11:35:49.793233 22390 net.cpp:86] Creating Layer scale_data_lane
I0313 11:35:49.793251 22390 net.cpp:408] scale_data_lane <- data
I0313 11:35:49.793272 22390 net.cpp:382] scale_data_lane -> scale_data_lane
I0313 11:35:49.793332 22390 net.cpp:124] Setting up scale_data_lane
I0313 11:35:49.793341 22390 net.cpp:131] Top shape: 1 3 480 640 (921600)
I0313 11:35:49.793344 22390 net.cpp:139] Memory required for data: 7372800
I0313 11:35:49.793346 22390 layer_factory.hpp:77] Creating layer conv1
I0313 11:35:49.793402 22390 net.cpp:86] Creating Layer conv1
I0313 11:35:49.793408 22390 net.cpp:408] conv1 <- scale_data_lane
I0313 11:35:49.793416 22390 net.cpp:382] conv1 -> conv1
I0313 11:35:49.795855 22390 net.cpp:124] Setting up conv1
I0313 11:35:49.795879 22390 net.cpp:131] Top shape: 1 16 480 640 (4915200)
I0313 11:35:49.795883 22390 net.cpp:139] Memory required for data: 27033600
I0313 11:35:49.795928 22390 layer_factory.hpp:77] Creating layer conv1_bn
I0313 11:35:49.795946 22390 net.cpp:86] Creating Layer conv1_bn
I0313 11:35:49.795955 22390 net.cpp:408] conv1_bn <- conv1
I0313 11:35:49.795963 22390 net.cpp:369] conv1_bn -> conv1 (in-place)
I0313 11:35:49.796808 22390 net.cpp:124] Setting up conv1_bn
I0313 11:35:49.796818 22390 net.cpp:131] Top shape: 1 16 480 640 (4915200)
I0313 11:35:49.796821 22390 net.cpp:139] Memory required for data: 46694400
I0313 11:35:49.796833 22390 layer_factory.hpp:77] Creating layer conv1_scale
I0313 11:35:49.796854 22390 net.cpp:86] Creating Layer conv1_scale
I0313 11:35:49.796860 22390 net.cpp:408] conv1_scale <- conv1
I0313 11:35:49.796869 22390 net.cpp:369] conv1_scale -> conv1 (in-place)
I0313 11:35:49.796938 22390 layer_factory.hpp:77] Creating layer conv1_scale
I0313 11:35:49.798385 22390 net.cpp:124] Setting up conv1_scale
I0313 11:35:49.798398 22390 net.cpp:131] Top shape: 1 16 480 640 (4915200)
I0313 11:35:49.798400 22390 net.cpp:139] Memory required for data: 66355200
I0313 11:35:49.798409 22390 layer_factory.hpp:77] Creating layer conv1_relu
I0313 11:35:49.798434 22390 net.cpp:86] Creating Layer conv1_relu
I0313 11:35:49.798440 22390 net.cpp:408] conv1_relu <- conv1
I0313 11:35:49.798450 22390 net.cpp:369] conv1_relu -> conv1 (in-place)
I0313 11:35:49.798666 22390 net.cpp:124] Setting up conv1_relu
I0313 11:35:49.798676 22390 net.cpp:131] Top shape: 1 16 480 640 (4915200)
I0313 11:35:49.798678 22390 net.cpp:139] Memory required for data: 86016000
I0313 11:35:49.798681 22390 layer_factory.hpp:77] Creating layer pool1
I0313 11:35:49.798703 22390 net.cpp:86] Creating Layer pool1
I0313 11:35:49.798708 22390 net.cpp:408] pool1 <- conv1
I0313 11:35:49.798717 22390 net.cpp:382] pool1 -> pool1
I0313 11:35:49.798799 22390 net.cpp:124] Setting up pool1
I0313 11:35:49.798815 22390 net.cpp:131] Top shape: 1 16 240 320 (1228800)
I0313 11:35:49.798817 22390 net.cpp:139] Memory required for data: 90931200
I0313 11:35:49.798820 22390 layer_factory.hpp:77] Creating layer conv2
I0313 11:35:49.798828 22390 net.cpp:86] Creating Layer conv2
I0313 11:35:49.798832 22390 net.cpp:408] conv2 <- pool1
I0313 11:35:49.798838 22390 net.cpp:382] conv2 -> conv2
I0313 11:35:49.800338 22390 net.cpp:124] Setting up conv2
I0313 11:35:49.800357 22390 net.cpp:131] Top shape: 1 32 240 320 (2457600)
I0313 11:35:49.800360 22390 net.cpp:139] Memory required for data: 100761600
I0313 11:35:49.800366 22390 layer_factory.hpp:77] Creating layer conv2_bn
I0313 11:35:49.800374 22390 net.cpp:86] Creating Layer conv2_bn
I0313 11:35:49.800379 22390 net.cpp:408] conv2_bn <- conv2
I0313 11:35:49.800388 22390 net.cpp:369] conv2_bn -> conv2 (in-place)
I0313 11:35:49.800567 22390 net.cpp:124] Setting up conv2_bn
I0313 11:35:49.800573 22390 net.cpp:131] Top shape: 1 32 240 320 (2457600)
I0313 11:35:49.800576 22390 net.cpp:139] Memory required for data: 110592000
I0313 11:35:49.800587 22390 layer_factory.hpp:77] Creating layer conv2_scale
I0313 11:35:49.800593 22390 net.cpp:86] Creating Layer conv2_scale
I0313 11:35:49.800596 22390 net.cpp:408] conv2_scale <- conv2
I0313 11:35:49.800601 22390 net.cpp:369] conv2_scale -> conv2 (in-place)
I0313 11:35:49.800652 22390 layer_factory.hpp:77] Creating layer conv2_scale
I0313 11:35:49.800793 22390 net.cpp:124] Setting up conv2_scale
I0313 11:35:49.800801 22390 net.cpp:131] Top shape: 1 32 240 320 (2457600)
I0313 11:35:49.800802 22390 net.cpp:139] Memory required for data: 120422400
I0313 11:35:49.800806 22390 layer_factory.hpp:77] Creating layer conv2_relu
I0313 11:35:49.800812 22390 net.cpp:86] Creating Layer conv2_relu
I0313 11:35:49.800817 22390 net.cpp:408] conv2_relu <- conv2
I0313 11:35:49.800820 22390 net.cpp:369] conv2_relu -> conv2 (in-place)
I0313 11:35:49.801151 22390 net.cpp:124] Setting up conv2_relu
I0313 11:35:49.801159 22390 net.cpp:131] Top shape: 1 32 240 320 (2457600)
I0313 11:35:49.801162 22390 net.cpp:139] Memory required for data: 130252800
I0313 11:35:49.801164 22390 layer_factory.hpp:77] Creating layer pool2
I0313 11:35:49.801169 22390 net.cpp:86] Creating Layer pool2
I0313 11:35:49.801173 22390 net.cpp:408] pool2 <- conv2
I0313 11:35:49.801180 22390 net.cpp:382] pool2 -> pool2
I0313 11:35:49.801218 22390 net.cpp:124] Setting up pool2
I0313 11:35:49.801226 22390 net.cpp:131] Top shape: 1 32 120 160 (614400)
I0313 11:35:49.801229 22390 net.cpp:139] Memory required for data: 132710400
I0313 11:35:49.801231 22390 layer_factory.hpp:77] Creating layer conv3_1
I0313 11:35:49.801239 22390 net.cpp:86] Creating Layer conv3_1
I0313 11:35:49.801242 22390 net.cpp:408] conv3_1 <- pool2
I0313 11:35:49.801247 22390 net.cpp:382] conv3_1 -> conv3_1
I0313 11:35:49.803957 22390 net.cpp:124] Setting up conv3_1
I0313 11:35:49.803978 22390 net.cpp:131] Top shape: 1 64 120 160 (1228800)
I0313 11:35:49.803982 22390 net.cpp:139] Memory required for data: 137625600
I0313 11:35:49.803987 22390 layer_factory.hpp:77] Creating layer conv3_1_bn
I0313 11:35:49.803993 22390 net.cpp:86] Creating Layer conv3_1_bn
I0313 11:35:49.803999 22390 net.cpp:408] conv3_1_bn <- conv3_1
I0313 11:35:49.804008 22390 net.cpp:369] conv3_1_bn -> conv3_1 (in-place)
I0313 11:35:49.804170 22390 net.cpp:124] Setting up conv3_1_bn
I0313 11:35:49.804177 22390 net.cpp:131] Top shape: 1 64 120 160 (1228800)
I0313 11:35:49.804179 22390 net.cpp:139] Memory required for data: 142540800
I0313 11:35:49.804186 22390 layer_factory.hpp:77] Creating layer conv3_1_scale
I0313 11:35:49.804193 22390 net.cpp:86] Creating Layer conv3_1_scale
I0313 11:35:49.804196 22390 net.cpp:408] conv3_1_scale <- conv3_1
I0313 11:35:49.804200 22390 net.cpp:369] conv3_1_scale -> conv3_1 (in-place)
I0313 11:35:49.804234 22390 layer_factory.hpp:77] Creating layer conv3_1_scale
I0313 11:35:49.804335 22390 net.cpp:124] Setting up conv3_1_scale
I0313 11:35:49.804342 22390 net.cpp:131] Top shape: 1 64 120 160 (1228800)
I0313 11:35:49.804344 22390 net.cpp:139] Memory required for data: 147456000
I0313 11:35:49.804353 22390 layer_factory.hpp:77] Creating layer conv3_1_relu
I0313 11:35:49.804358 22390 net.cpp:86] Creating Layer conv3_1_relu
I0313 11:35:49.804361 22390 net.cpp:408] conv3_1_relu <- conv3_1
I0313 11:35:49.804368 22390 net.cpp:369] conv3_1_relu -> conv3_1 (in-place)
I0313 11:35:49.804689 22390 net.cpp:124] Setting up conv3_1_relu
I0313 11:35:49.804700 22390 net.cpp:131] Top shape: 1 64 120 160 (1228800)
I0313 11:35:49.804702 22390 net.cpp:139] Memory required for data: 152371200
I0313 11:35:49.804705 22390 layer_factory.hpp:77] Creating layer conv3_2
I0313 11:35:49.804715 22390 net.cpp:86] Creating Layer conv3_2
I0313 11:35:49.804719 22390 net.cpp:408] conv3_2 <- conv3_1
I0313 11:35:49.804728 22390 net.cpp:382] conv3_2 -> conv3_2
I0313 11:35:49.806124 22390 net.cpp:124] Setting up conv3_2
I0313 11:35:49.806140 22390 net.cpp:131] Top shape: 1 32 120 160 (614400)
I0313 11:35:49.806143 22390 net.cpp:139] Memory required for data: 154828800
I0313 11:35:49.806149 22390 layer_factory.hpp:77] Creating layer conv3_2_bn
I0313 11:35:49.806154 22390 net.cpp:86] Creating Layer conv3_2_bn
I0313 11:35:49.806159 22390 net.cpp:408] conv3_2_bn <- conv3_2
I0313 11:35:49.806165 22390 net.cpp:369] conv3_2_bn -> conv3_2 (in-place)
I0313 11:35:49.806331 22390 net.cpp:124] Setting up conv3_2_bn
I0313 11:35:49.806337 22390 net.cpp:131] Top shape: 1 32 120 160 (614400)
I0313 11:35:49.806339 22390 net.cpp:139] Memory required for data: 157286400
I0313 11:35:49.806347 22390 layer_factory.hpp:77] Creating layer conv3_2_scale
I0313 11:35:49.806351 22390 net.cpp:86] Creating Layer conv3_2_scale
I0313 11:35:49.806355 22390 net.cpp:408] conv3_2_scale <- conv3_2
I0313 11:35:49.806361 22390 net.cpp:369] conv3_2_scale -> conv3_2 (in-place)
I0313 11:35:49.806394 22390 layer_factory.hpp:77] Creating layer conv3_2_scale
I0313 11:35:49.806497 22390 net.cpp:124] Setting up conv3_2_scale
I0313 11:35:49.806504 22390 net.cpp:131] Top shape: 1 32 120 160 (614400)
I0313 11:35:49.806506 22390 net.cpp:139] Memory required for data: 159744000
I0313 11:35:49.806510 22390 layer_factory.hpp:77] Creating layer conv3_2_relu
I0313 11:35:49.806515 22390 net.cpp:86] Creating Layer conv3_2_relu
I0313 11:35:49.806519 22390 net.cpp:408] conv3_2_relu <- conv3_2
I0313 11:35:49.806522 22390 net.cpp:369] conv3_2_relu -> conv3_2 (in-place)
I0313 11:35:49.806641 22390 net.cpp:124] Setting up conv3_2_relu
I0313 11:35:49.806649 22390 net.cpp:131] Top shape: 1 32 120 160 (614400)
I0313 11:35:49.806653 22390 net.cpp:139] Memory required for data: 162201600
I0313 11:35:49.806654 22390 layer_factory.hpp:77] Creating layer conv3_3
I0313 11:35:49.806663 22390 net.cpp:86] Creating Layer conv3_3
I0313 11:35:49.806665 22390 net.cpp:408] conv3_3 <- conv3_2
I0313 11:35:49.806675 22390 net.cpp:382] conv3_3 -> conv3_3
I0313 11:35:49.807760 22390 net.cpp:124] Setting up conv3_3
I0313 11:35:49.807777 22390 net.cpp:131] Top shape: 1 64 120 160 (1228800)
I0313 11:35:49.807780 22390 net.cpp:139] Memory required for data: 167116800
I0313 11:35:49.807785 22390 layer_factory.hpp:77] Creating layer conv3_3_bn
I0313 11:35:49.807791 22390 net.cpp:86] Creating Layer conv3_3_bn
I0313 11:35:49.807796 22390 net.cpp:408] conv3_3_bn <- conv3_3
I0313 11:35:49.807801 22390 net.cpp:369] conv3_3_bn -> conv3_3 (in-place)
I0313 11:35:49.807965 22390 net.cpp:124] Setting up conv3_3_bn
I0313 11:35:49.807971 22390 net.cpp:131] Top shape: 1 64 120 160 (1228800)
I0313 11:35:49.807973 22390 net.cpp:139] Memory required for data: 172032000
I0313 11:35:49.807981 22390 layer_factory.hpp:77] Creating layer conv3_3_scale
I0313 11:35:49.807986 22390 net.cpp:86] Creating Layer conv3_3_scale
I0313 11:35:49.807989 22390 net.cpp:408] conv3_3_scale <- conv3_3
I0313 11:35:49.807994 22390 net.cpp:369] conv3_3_scale -> conv3_3 (in-place)
I0313 11:35:49.808028 22390 layer_factory.hpp:77] Creating layer conv3_3_scale
I0313 11:35:49.808132 22390 net.cpp:124] Setting up conv3_3_scale
I0313 11:35:49.808140 22390 net.cpp:131] Top shape: 1 64 120 160 (1228800)
I0313 11:35:49.808141 22390 net.cpp:139] Memory required for data: 176947200
I0313 11:35:49.808145 22390 layer_factory.hpp:77] Creating layer conv3_3_relu
I0313 11:35:49.808151 22390 net.cpp:86] Creating Layer conv3_3_relu
I0313 11:35:49.808154 22390 net.cpp:408] conv3_3_relu <- conv3_3
I0313 11:35:49.808159 22390 net.cpp:369] conv3_3_relu -> conv3_3 (in-place)
I0313 11:35:49.808280 22390 net.cpp:124] Setting up conv3_3_relu
I0313 11:35:49.808287 22390 net.cpp:131] Top shape: 1 64 120 160 (1228800)
I0313 11:35:49.808290 22390 net.cpp:139] Memory required for data: 181862400
I0313 11:35:49.808292 22390 layer_factory.hpp:77] Creating layer pool3
I0313 11:35:49.808297 22390 net.cpp:86] Creating Layer pool3
I0313 11:35:49.808301 22390 net.cpp:408] pool3 <- conv3_3
I0313 11:35:49.808308 22390 net.cpp:382] pool3 -> pool3
I0313 11:35:49.808344 22390 net.cpp:124] Setting up pool3
I0313 11:35:49.808352 22390 net.cpp:131] Top shape: 1 64 60 80 (307200)
I0313 11:35:49.808354 22390 net.cpp:139] Memory required for data: 183091200
I0313 11:35:49.808357 22390 layer_factory.hpp:77] Creating layer conv4_1
I0313 11:35:49.808364 22390 net.cpp:86] Creating Layer conv4_1
I0313 11:35:49.808367 22390 net.cpp:408] conv4_1 <- pool3
I0313 11:35:49.808373 22390 net.cpp:382] conv4_1 -> conv4_1
I0313 11:35:49.811676 22390 net.cpp:124] Setting up conv4_1
I0313 11:35:49.811694 22390 net.cpp:131] Top shape: 1 128 60 80 (614400)
I0313 11:35:49.811697 22390 net.cpp:139] Memory required for data: 185548800
I0313 11:35:49.811702 22390 layer_factory.hpp:77] Creating layer conv4_1_bn
I0313 11:35:49.811708 22390 net.cpp:86] Creating Layer conv4_1_bn
I0313 11:35:49.811714 22390 net.cpp:408] conv4_1_bn <- conv4_1
I0313 11:35:49.811722 22390 net.cpp:369] conv4_1_bn -> conv4_1 (in-place)
I0313 11:35:49.811882 22390 net.cpp:124] Setting up conv4_1_bn
I0313 11:35:49.811888 22390 net.cpp:131] Top shape: 1 128 60 80 (614400)
I0313 11:35:49.811892 22390 net.cpp:139] Memory required for data: 188006400
I0313 11:35:49.811903 22390 layer_factory.hpp:77] Creating layer conv4_1_scale
I0313 11:35:49.811910 22390 net.cpp:86] Creating Layer conv4_1_scale
I0313 11:35:49.811914 22390 net.cpp:408] conv4_1_scale <- conv4_1
I0313 11:35:49.811919 22390 net.cpp:369] conv4_1_scale -> conv4_1 (in-place)
I0313 11:35:49.811956 22390 layer_factory.hpp:77] Creating layer conv4_1_scale
I0313 11:35:49.812052 22390 net.cpp:124] Setting up conv4_1_scale
I0313 11:35:49.812059 22390 net.cpp:131] Top shape: 1 128 60 80 (614400)
I0313 11:35:49.812062 22390 net.cpp:139] Memory required for data: 190464000
I0313 11:35:49.812065 22390 layer_factory.hpp:77] Creating layer conv4_1_relu
I0313 11:35:49.812070 22390 net.cpp:86] Creating Layer conv4_1_relu
I0313 11:35:49.812074 22390 net.cpp:408] conv4_1_relu <- conv4_1
I0313 11:35:49.812078 22390 net.cpp:369] conv4_1_relu -> conv4_1 (in-place)
I0313 11:35:49.812211 22390 net.cpp:124] Setting up conv4_1_relu
I0313 11:35:49.812218 22390 net.cpp:131] Top shape: 1 128 60 80 (614400)
I0313 11:35:49.812222 22390 net.cpp:139] Memory required for data: 192921600
I0313 11:35:49.812224 22390 layer_factory.hpp:77] Creating layer conv4_2
I0313 11:35:49.812234 22390 net.cpp:86] Creating Layer conv4_2
I0313 11:35:49.812239 22390 net.cpp:408] conv4_2 <- conv4_1
I0313 11:35:49.812247 22390 net.cpp:382] conv4_2 -> conv4_2
I0313 11:35:49.813133 22390 net.cpp:124] Setting up conv4_2
I0313 11:35:49.813148 22390 net.cpp:131] Top shape: 1 64 60 80 (307200)
I0313 11:35:49.813151 22390 net.cpp:139] Memory required for data: 194150400
I0313 11:35:49.813156 22390 layer_factory.hpp:77] Creating layer conv4_2_bn
I0313 11:35:49.813160 22390 net.cpp:86] Creating Layer conv4_2_bn
I0313 11:35:49.813165 22390 net.cpp:408] conv4_2_bn <- conv4_2
I0313 11:35:49.813172 22390 net.cpp:369] conv4_2_bn -> conv4_2 (in-place)
I0313 11:35:49.813329 22390 net.cpp:124] Setting up conv4_2_bn
I0313 11:35:49.813335 22390 net.cpp:131] Top shape: 1 64 60 80 (307200)
I0313 11:35:49.813338 22390 net.cpp:139] Memory required for data: 195379200
I0313 11:35:49.813344 22390 layer_factory.hpp:77] Creating layer conv4_2_scale
I0313 11:35:49.813349 22390 net.cpp:86] Creating Layer conv4_2_scale
I0313 11:35:49.813354 22390 net.cpp:408] conv4_2_scale <- conv4_2
I0313 11:35:49.813359 22390 net.cpp:369] conv4_2_scale -> conv4_2 (in-place)
I0313 11:35:49.813390 22390 layer_factory.hpp:77] Creating layer conv4_2_scale
I0313 11:35:49.813489 22390 net.cpp:124] Setting up conv4_2_scale
I0313 11:35:49.813498 22390 net.cpp:131] Top shape: 1 64 60 80 (307200)
I0313 11:35:49.813499 22390 net.cpp:139] Memory required for data: 196608000
I0313 11:35:49.813503 22390 layer_factory.hpp:77] Creating layer conv4_2_relu
I0313 11:35:49.813510 22390 net.cpp:86] Creating Layer conv4_2_relu
I0313 11:35:49.813513 22390 net.cpp:408] conv4_2_relu <- conv4_2
I0313 11:35:49.813521 22390 net.cpp:369] conv4_2_relu -> conv4_2 (in-place)
I0313 11:35:49.813843 22390 net.cpp:124] Setting up conv4_2_relu
I0313 11:35:49.813853 22390 net.cpp:131] Top shape: 1 64 60 80 (307200)
I0313 11:35:49.813856 22390 net.cpp:139] Memory required for data: 197836800
I0313 11:35:49.813858 22390 layer_factory.hpp:77] Creating layer conv4_3
I0313 11:35:49.813865 22390 net.cpp:86] Creating Layer conv4_3
I0313 11:35:49.813870 22390 net.cpp:408] conv4_3 <- conv4_2
I0313 11:35:49.813879 22390 net.cpp:382] conv4_3 -> conv4_3
I0313 11:35:49.816210 22390 net.cpp:124] Setting up conv4_3
I0313 11:35:49.816227 22390 net.cpp:131] Top shape: 1 128 60 80 (614400)
I0313 11:35:49.816231 22390 net.cpp:139] Memory required for data: 200294400
I0313 11:35:49.816236 22390 layer_factory.hpp:77] Creating layer conv4_3_bn
I0313 11:35:49.816241 22390 net.cpp:86] Creating Layer conv4_3_bn
I0313 11:35:49.816246 22390 net.cpp:408] conv4_3_bn <- conv4_3
I0313 11:35:49.816252 22390 net.cpp:369] conv4_3_bn -> conv4_3 (in-place)
I0313 11:35:49.816409 22390 net.cpp:124] Setting up conv4_3_bn
I0313 11:35:49.816416 22390 net.cpp:131] Top shape: 1 128 60 80 (614400)
I0313 11:35:49.816418 22390 net.cpp:139] Memory required for data: 202752000
I0313 11:35:49.816426 22390 layer_factory.hpp:77] Creating layer conv4_3_scale
I0313 11:35:49.816431 22390 net.cpp:86] Creating Layer conv4_3_scale
I0313 11:35:49.816434 22390 net.cpp:408] conv4_3_scale <- conv4_3
I0313 11:35:49.816438 22390 net.cpp:369] conv4_3_scale -> conv4_3 (in-place)
I0313 11:35:49.816469 22390 layer_factory.hpp:77] Creating layer conv4_3_scale
I0313 11:35:49.816558 22390 net.cpp:124] Setting up conv4_3_scale
I0313 11:35:49.816565 22390 net.cpp:131] Top shape: 1 128 60 80 (614400)
I0313 11:35:49.816567 22390 net.cpp:139] Memory required for data: 205209600
I0313 11:35:49.816571 22390 layer_factory.hpp:77] Creating layer conv4_3_relu
I0313 11:35:49.816576 22390 net.cpp:86] Creating Layer conv4_3_relu
I0313 11:35:49.816578 22390 net.cpp:408] conv4_3_relu <- conv4_3
I0313 11:35:49.816583 22390 net.cpp:369] conv4_3_relu -> conv4_3 (in-place)
I0313 11:35:49.816706 22390 net.cpp:124] Setting up conv4_3_relu
I0313 11:35:49.816715 22390 net.cpp:131] Top shape: 1 128 60 80 (614400)
I0313 11:35:49.816716 22390 net.cpp:139] Memory required for data: 207667200
I0313 11:35:49.816718 22390 layer_factory.hpp:77] Creating layer conv4_3_conv4_3_relu_0_split
I0313 11:35:49.816722 22390 net.cpp:86] Creating Layer conv4_3_conv4_3_relu_0_split
I0313 11:35:49.816725 22390 net.cpp:408] conv4_3_conv4_3_relu_0_split <- conv4_3
I0313 11:35:49.816731 22390 net.cpp:382] conv4_3_conv4_3_relu_0_split -> conv4_3_conv4_3_relu_0_split_0
I0313 11:35:49.816741 22390 net.cpp:382] conv4_3_conv4_3_relu_0_split -> conv4_3_conv4_3_relu_0_split_1
I0313 11:35:49.816802 22390 net.cpp:124] Setting up conv4_3_conv4_3_relu_0_split
I0313 11:35:49.816809 22390 net.cpp:131] Top shape: 1 128 60 80 (614400)
I0313 11:35:49.816813 22390 net.cpp:131] Top shape: 1 128 60 80 (614400)
I0313 11:35:49.816815 22390 net.cpp:139] Memory required for data: 212582400
I0313 11:35:49.816817 22390 layer_factory.hpp:77] Creating layer pool4
I0313 11:35:49.816823 22390 net.cpp:86] Creating Layer pool4
I0313 11:35:49.816825 22390 net.cpp:408] pool4 <- conv4_3_conv4_3_relu_0_split_0
I0313 11:35:49.816849 22390 net.cpp:382] pool4 -> pool4
I0313 11:35:49.816884 22390 net.cpp:124] Setting up pool4
I0313 11:35:49.816890 22390 net.cpp:131] Top shape: 1 128 30 40 (153600)
I0313 11:35:49.816892 22390 net.cpp:139] Memory required for data: 213196800
I0313 11:35:49.816895 22390 layer_factory.hpp:77] Creating layer conv5_1
I0313 11:35:49.816902 22390 net.cpp:86] Creating Layer conv5_1
I0313 11:35:49.816906 22390 net.cpp:408] conv5_1 <- pool4
I0313 11:35:49.816911 22390 net.cpp:382] conv5_1 -> conv5_1
I0313 11:35:49.825117 22390 net.cpp:124] Setting up conv5_1
I0313 11:35:49.825151 22390 net.cpp:131] Top shape: 1 256 30 40 (307200)
I0313 11:35:49.825155 22390 net.cpp:139] Memory required for data: 214425600
I0313 11:35:49.825162 22390 layer_factory.hpp:77] Creating layer conv5_1_bn
I0313 11:35:49.825170 22390 net.cpp:86] Creating Layer conv5_1_bn
I0313 11:35:49.825181 22390 net.cpp:408] conv5_1_bn <- conv5_1
I0313 11:35:49.825191 22390 net.cpp:369] conv5_1_bn -> conv5_1 (in-place)
I0313 11:35:49.825357 22390 net.cpp:124] Setting up conv5_1_bn
I0313 11:35:49.825363 22390 net.cpp:131] Top shape: 1 256 30 40 (307200)
I0313 11:35:49.825366 22390 net.cpp:139] Memory required for data: 215654400
I0313 11:35:49.825373 22390 layer_factory.hpp:77] Creating layer conv5_1_scale
I0313 11:35:49.825378 22390 net.cpp:86] Creating Layer conv5_1_scale
I0313 11:35:49.825382 22390 net.cpp:408] conv5_1_scale <- conv5_1
I0313 11:35:49.825387 22390 net.cpp:369] conv5_1_scale -> conv5_1 (in-place)
I0313 11:35:49.825420 22390 layer_factory.hpp:77] Creating layer conv5_1_scale
I0313 11:35:49.825517 22390 net.cpp:124] Setting up conv5_1_scale
I0313 11:35:49.825523 22390 net.cpp:131] Top shape: 1 256 30 40 (307200)
I0313 11:35:49.825526 22390 net.cpp:139] Memory required for data: 216883200
I0313 11:35:49.825531 22390 layer_factory.hpp:77] Creating layer conv5_1_relu
I0313 11:35:49.825534 22390 net.cpp:86] Creating Layer conv5_1_relu
I0313 11:35:49.825537 22390 net.cpp:408] conv5_1_relu <- conv5_1
I0313 11:35:49.825542 22390 net.cpp:369] conv5_1_relu -> conv5_1 (in-place)
I0313 11:35:49.825671 22390 net.cpp:124] Setting up conv5_1_relu
I0313 11:35:49.825680 22390 net.cpp:131] Top shape: 1 256 30 40 (307200)
I0313 11:35:49.825681 22390 net.cpp:139] Memory required for data: 218112000
I0313 11:35:49.825685 22390 layer_factory.hpp:77] Creating layer conv5_2
I0313 11:35:49.825692 22390 net.cpp:86] Creating Layer conv5_2
I0313 11:35:49.825696 22390 net.cpp:408] conv5_2 <- conv5_1
I0313 11:35:49.825702 22390 net.cpp:382] conv5_2 -> conv5_2
I0313 11:35:49.827051 22390 net.cpp:124] Setting up conv5_2
I0313 11:35:49.827066 22390 net.cpp:131] Top shape: 1 128 30 40 (153600)
I0313 11:35:49.827069 22390 net.cpp:139] Memory required for data: 218726400
I0313 11:35:49.827075 22390 layer_factory.hpp:77] Creating layer conv5_2_bn
I0313 11:35:49.827080 22390 net.cpp:86] Creating Layer conv5_2_bn
I0313 11:35:49.827085 22390 net.cpp:408] conv5_2_bn <- conv5_2
I0313 11:35:49.827091 22390 net.cpp:369] conv5_2_bn -> conv5_2 (in-place)
I0313 11:35:49.827250 22390 net.cpp:124] Setting up conv5_2_bn
I0313 11:35:49.827256 22390 net.cpp:131] Top shape: 1 128 30 40 (153600)
I0313 11:35:49.827260 22390 net.cpp:139] Memory required for data: 219340800
I0313 11:35:49.827266 22390 layer_factory.hpp:77] Creating layer conv5_2_scale
I0313 11:35:49.827270 22390 net.cpp:86] Creating Layer conv5_2_scale
I0313 11:35:49.827275 22390 net.cpp:408] conv5_2_scale <- conv5_2
I0313 11:35:49.827280 22390 net.cpp:369] conv5_2_scale -> conv5_2 (in-place)
I0313 11:35:49.827312 22390 layer_factory.hpp:77] Creating layer conv5_2_scale
I0313 11:35:49.827406 22390 net.cpp:124] Setting up conv5_2_scale
I0313 11:35:49.827414 22390 net.cpp:131] Top shape: 1 128 30 40 (153600)
I0313 11:35:49.827415 22390 net.cpp:139] Memory required for data: 219955200
I0313 11:35:49.827419 22390 layer_factory.hpp:77] Creating layer conv5_2_relu
I0313 11:35:49.827423 22390 net.cpp:86] Creating Layer conv5_2_relu
I0313 11:35:49.827426 22390 net.cpp:408] conv5_2_relu <- conv5_2
I0313 11:35:49.827432 22390 net.cpp:369] conv5_2_relu -> conv5_2 (in-place)
I0313 11:35:49.827560 22390 net.cpp:124] Setting up conv5_2_relu
I0313 11:35:49.827569 22390 net.cpp:131] Top shape: 1 128 30 40 (153600)
I0313 11:35:49.827580 22390 net.cpp:139] Memory required for data: 220569600
I0313 11:35:49.827586 22390 layer_factory.hpp:77] Creating layer conv5_3
I0313 11:35:49.827595 22390 net.cpp:86] Creating Layer conv5_3
I0313 11:35:49.827600 22390 net.cpp:408] conv5_3 <- conv5_2
I0313 11:35:49.827606 22390 net.cpp:382] conv5_3 -> conv5_3
I0313 11:35:49.834673 22390 net.cpp:124] Setting up conv5_3
I0313 11:35:49.834697 22390 net.cpp:131] Top shape: 1 256 30 40 (307200)
I0313 11:35:49.834700 22390 net.cpp:139] Memory required for data: 221798400
I0313 11:35:49.834707 22390 layer_factory.hpp:77] Creating layer conv5_3_bn
I0313 11:35:49.834712 22390 net.cpp:86] Creating Layer conv5_3_bn
I0313 11:35:49.834719 22390 net.cpp:408] conv5_3_bn <- conv5_3
I0313 11:35:49.834725 22390 net.cpp:369] conv5_3_bn -> conv5_3 (in-place)
I0313 11:35:49.834892 22390 net.cpp:124] Setting up conv5_3_bn
I0313 11:35:49.834897 22390 net.cpp:131] Top shape: 1 256 30 40 (307200)
I0313 11:35:49.834900 22390 net.cpp:139] Memory required for data: 223027200
I0313 11:35:49.834908 22390 layer_factory.hpp:77] Creating layer conv5_3_scale
I0313 11:35:49.834913 22390 net.cpp:86] Creating Layer conv5_3_scale
I0313 11:35:49.834916 22390 net.cpp:408] conv5_3_scale <- conv5_3
I0313 11:35:49.834923 22390 net.cpp:369] conv5_3_scale -> conv5_3 (in-place)
I0313 11:35:49.834957 22390 layer_factory.hpp:77] Creating layer conv5_3_scale
I0313 11:35:49.835052 22390 net.cpp:124] Setting up conv5_3_scale
I0313 11:35:49.835057 22390 net.cpp:131] Top shape: 1 256 30 40 (307200)
I0313 11:35:49.835059 22390 net.cpp:139] Memory required for data: 224256000
I0313 11:35:49.835075 22390 layer_factory.hpp:77] Creating layer conv5_3_relu
I0313 11:35:49.835080 22390 net.cpp:86] Creating Layer conv5_3_relu
I0313 11:35:49.835084 22390 net.cpp:408] conv5_3_relu <- conv5_3
I0313 11:35:49.835088 22390 net.cpp:369] conv5_3_relu -> conv5_3 (in-place)
I0313 11:35:49.835220 22390 net.cpp:124] Setting up conv5_3_relu
I0313 11:35:49.835228 22390 net.cpp:131] Top shape: 1 256 30 40 (307200)
I0313 11:35:49.835232 22390 net.cpp:139] Memory required for data: 225484800
I0313 11:35:49.835233 22390 layer_factory.hpp:77] Creating layer conv5_4
I0313 11:35:49.835240 22390 net.cpp:86] Creating Layer conv5_4
I0313 11:35:49.835244 22390 net.cpp:408] conv5_4 <- conv5_3
I0313 11:35:49.835250 22390 net.cpp:382] conv5_4 -> conv5_4
I0313 11:35:49.836585 22390 net.cpp:124] Setting up conv5_4
I0313 11:35:49.836597 22390 net.cpp:131] Top shape: 1 128 30 40 (153600)
I0313 11:35:49.836601 22390 net.cpp:139] Memory required for data: 226099200
I0313 11:35:49.836604 22390 layer_factory.hpp:77] Creating layer conv5_4_bn
I0313 11:35:49.836609 22390 net.cpp:86] Creating Layer conv5_4_bn
I0313 11:35:49.836614 22390 net.cpp:408] conv5_4_bn <- conv5_4
I0313 11:35:49.836619 22390 net.cpp:369] conv5_4_bn -> conv5_4 (in-place)
I0313 11:35:49.836771 22390 net.cpp:124] Setting up conv5_4_bn
I0313 11:35:49.836776 22390 net.cpp:131] Top shape: 1 128 30 40 (153600)
I0313 11:35:49.836778 22390 net.cpp:139] Memory required for data: 226713600
I0313 11:35:49.836786 22390 layer_factory.hpp:77] Creating layer conv5_4_scale
I0313 11:35:49.836791 22390 net.cpp:86] Creating Layer conv5_4_scale
I0313 11:35:49.836793 22390 net.cpp:408] conv5_4_scale <- conv5_4
I0313 11:35:49.836798 22390 net.cpp:369] conv5_4_scale -> conv5_4 (in-place)
I0313 11:35:49.836829 22390 layer_factory.hpp:77] Creating layer conv5_4_scale
I0313 11:35:49.836915 22390 net.cpp:124] Setting up conv5_4_scale
I0313 11:35:49.836921 22390 net.cpp:131] Top shape: 1 128 30 40 (153600)
I0313 11:35:49.836923 22390 net.cpp:139] Memory required for data: 227328000
I0313 11:35:49.836927 22390 layer_factory.hpp:77] Creating layer conv5_4_relu
I0313 11:35:49.836931 22390 net.cpp:86] Creating Layer conv5_4_relu
I0313 11:35:49.836935 22390 net.cpp:408] conv5_4_relu <- conv5_4
I0313 11:35:49.836939 22390 net.cpp:369] conv5_4_relu -> conv5_4 (in-place)
I0313 11:35:49.838198 22390 net.cpp:124] Setting up conv5_4_relu
I0313 11:35:49.838210 22390 net.cpp:131] Top shape: 1 128 30 40 (153600)
I0313 11:35:49.838214 22390 net.cpp:139] Memory required for data: 227942400
I0313 11:35:49.838218 22390 layer_factory.hpp:77] Creating layer conv5_5
I0313 11:35:49.838227 22390 net.cpp:86] Creating Layer conv5_5
I0313 11:35:49.838234 22390 net.cpp:408] conv5_5 <- conv5_4
I0313 11:35:49.838241 22390 net.cpp:382] conv5_5 -> conv5_5
I0313 11:35:49.845332 22390 net.cpp:124] Setting up conv5_5
I0313 11:35:49.845356 22390 net.cpp:131] Top shape: 1 256 30 40 (307200)
I0313 11:35:49.845360 22390 net.cpp:139] Memory required for data: 229171200
I0313 11:35:49.845366 22390 layer_factory.hpp:77] Creating layer conv5_5_bn
I0313 11:35:49.845373 22390 net.cpp:86] Creating Layer conv5_5_bn
I0313 11:35:49.845381 22390 net.cpp:408] conv5_5_bn <- conv5_5
I0313 11:35:49.845387 22390 net.cpp:369] conv5_5_bn -> conv5_5 (in-place)
I0313 11:35:49.845556 22390 net.cpp:124] Setting up conv5_5_bn
I0313 11:35:49.845562 22390 net.cpp:131] Top shape: 1 256 30 40 (307200)
I0313 11:35:49.845564 22390 net.cpp:139] Memory required for data: 230400000
I0313 11:35:49.845572 22390 layer_factory.hpp:77] Creating layer conv5_5_scale
I0313 11:35:49.845577 22390 net.cpp:86] Creating Layer conv5_5_scale
I0313 11:35:49.845582 22390 net.cpp:408] conv5_5_scale <- conv5_5
I0313 11:35:49.845585 22390 net.cpp:369] conv5_5_scale -> conv5_5 (in-place)
I0313 11:35:49.845619 22390 layer_factory.hpp:77] Creating layer conv5_5_scale
I0313 11:35:49.845710 22390 net.cpp:124] Setting up conv5_5_scale
I0313 11:35:49.845716 22390 net.cpp:131] Top shape: 1 256 30 40 (307200)
I0313 11:35:49.845718 22390 net.cpp:139] Memory required for data: 231628800
I0313 11:35:49.845722 22390 layer_factory.hpp:77] Creating layer conv5_5_relu
I0313 11:35:49.845727 22390 net.cpp:86] Creating Layer conv5_5_relu
I0313 11:35:49.845731 22390 net.cpp:408] conv5_5_relu <- conv5_5
I0313 11:35:49.845734 22390 net.cpp:369] conv5_5_relu -> conv5_5 (in-place)
I0313 11:35:49.845860 22390 net.cpp:124] Setting up conv5_5_relu
I0313 11:35:49.845867 22390 net.cpp:131] Top shape: 1 256 30 40 (307200)
I0313 11:35:49.845870 22390 net.cpp:139] Memory required for data: 232857600
I0313 11:35:49.845871 22390 layer_factory.hpp:77] Creating layer conv5_5_conv5_5_relu_0_split
I0313 11:35:49.845875 22390 net.cpp:86] Creating Layer conv5_5_conv5_5_relu_0_split
I0313 11:35:49.845880 22390 net.cpp:408] conv5_5_conv5_5_relu_0_split <- conv5_5
I0313 11:35:49.845885 22390 net.cpp:382] conv5_5_conv5_5_relu_0_split -> conv5_5_conv5_5_relu_0_split_0
I0313 11:35:49.845894 22390 net.cpp:382] conv5_5_conv5_5_relu_0_split -> conv5_5_conv5_5_relu_0_split_1
I0313 11:35:49.845935 22390 net.cpp:124] Setting up conv5_5_conv5_5_relu_0_split
I0313 11:35:49.845942 22390 net.cpp:131] Top shape: 1 256 30 40 (307200)
I0313 11:35:49.845947 22390 net.cpp:131] Top shape: 1 256 30 40 (307200)
I0313 11:35:49.845948 22390 net.cpp:139] Memory required for data: 235315200
I0313 11:35:49.845950 22390 layer_factory.hpp:77] Creating layer pool5
I0313 11:35:49.845954 22390 net.cpp:86] Creating Layer pool5
I0313 11:35:49.845958 22390 net.cpp:408] pool5 <- conv5_5_conv5_5_relu_0_split_0
I0313 11:35:49.845963 22390 net.cpp:382] pool5 -> pool5
I0313 11:35:49.845995 22390 net.cpp:124] Setting up pool5
I0313 11:35:49.846001 22390 net.cpp:131] Top shape: 1 256 30 40 (307200)
I0313 11:35:49.846004 22390 net.cpp:139] Memory required for data: 236544000
I0313 11:35:49.846006 22390 layer_factory.hpp:77] Creating layer conv6_1
I0313 11:35:49.846014 22390 net.cpp:86] Creating Layer conv6_1
I0313 11:35:49.846016 22390 net.cpp:408] conv6_1 <- pool5
I0313 11:35:49.846022 22390 net.cpp:382] conv6_1 -> conv6_1
I0313 11:35:49.869416 22390 net.cpp:124] Setting up conv6_1
I0313 11:35:49.869451 22390 net.cpp:131] Top shape: 1 512 30 40 (614400)
I0313 11:35:49.869453 22390 net.cpp:139] Memory required for data: 239001600
I0313 11:35:49.869462 22390 layer_factory.hpp:77] Creating layer conv6_1_bn
I0313 11:35:49.869469 22390 net.cpp:86] Creating Layer conv6_1_bn
I0313 11:35:49.869482 22390 net.cpp:408] conv6_1_bn <- conv6_1
I0313 11:35:49.869498 22390 net.cpp:369] conv6_1_bn -> conv6_1 (in-place)
I0313 11:35:49.869678 22390 net.cpp:124] Setting up conv6_1_bn
I0313 11:35:49.869683 22390 net.cpp:131] Top shape: 1 512 30 40 (614400)
I0313 11:35:49.869688 22390 net.cpp:139] Memory required for data: 241459200
I0313 11:35:49.869695 22390 layer_factory.hpp:77] Creating layer conv6_1_scale
I0313 11:35:49.869702 22390 net.cpp:86] Creating Layer conv6_1_scale
I0313 11:35:49.869706 22390 net.cpp:408] conv6_1_scale <- conv6_1
I0313 11:35:49.869711 22390 net.cpp:369] conv6_1_scale -> conv6_1 (in-place)
I0313 11:35:49.869743 22390 layer_factory.hpp:77] Creating layer conv6_1_scale
I0313 11:35:49.869839 22390 net.cpp:124] Setting up conv6_1_scale
I0313 11:35:49.869845 22390 net.cpp:131] Top shape: 1 512 30 40 (614400)
I0313 11:35:49.869848 22390 net.cpp:139] Memory required for data: 243916800
I0313 11:35:49.869851 22390 layer_factory.hpp:77] Creating layer conv6_1_relu
I0313 11:35:49.869863 22390 net.cpp:86] Creating Layer conv6_1_relu
I0313 11:35:49.869865 22390 net.cpp:408] conv6_1_relu <- conv6_1
I0313 11:35:49.869870 22390 net.cpp:369] conv6_1_relu -> conv6_1 (in-place)
I0313 11:35:49.870048 22390 net.cpp:124] Setting up conv6_1_relu
I0313 11:35:49.870055 22390 net.cpp:131] Top shape: 1 512 30 40 (614400)
I0313 11:35:49.870057 22390 net.cpp:139] Memory required for data: 246374400
I0313 11:35:49.870061 22390 layer_factory.hpp:77] Creating layer conv6_2
I0313 11:35:49.870070 22390 net.cpp:86] Creating Layer conv6_2
I0313 11:35:49.870074 22390 net.cpp:408] conv6_2 <- conv6_1
I0313 11:35:49.870079 22390 net.cpp:382] conv6_2 -> conv6_2
I0313 11:35:49.873358 22390 net.cpp:124] Setting up conv6_2
I0313 11:35:49.873373 22390 net.cpp:131] Top shape: 1 256 30 40 (307200)
I0313 11:35:49.873375 22390 net.cpp:139] Memory required for data: 247603200
I0313 11:35:49.873379 22390 layer_factory.hpp:77] Creating layer conv6_2_bn
I0313 11:35:49.873385 22390 net.cpp:86] Creating Layer conv6_2_bn
I0313 11:35:49.873389 22390 net.cpp:408] conv6_2_bn <- conv6_2
I0313 11:35:49.873395 22390 net.cpp:369] conv6_2_bn -> conv6_2 (in-place)
I0313 11:35:49.873574 22390 net.cpp:124] Setting up conv6_2_bn
I0313 11:35:49.873581 22390 net.cpp:131] Top shape: 1 256 30 40 (307200)
I0313 11:35:49.873584 22390 net.cpp:139] Memory required for data: 248832000
I0313 11:35:49.873590 22390 layer_factory.hpp:77] Creating layer conv6_2_scale
I0313 11:35:49.873595 22390 net.cpp:86] Creating Layer conv6_2_scale
I0313 11:35:49.873598 22390 net.cpp:408] conv6_2_scale <- conv6_2
I0313 11:35:49.873603 22390 net.cpp:369] conv6_2_scale -> conv6_2 (in-place)
I0313 11:35:49.873636 22390 layer_factory.hpp:77] Creating layer conv6_2_scale
I0313 11:35:49.873723 22390 net.cpp:124] Setting up conv6_2_scale
I0313 11:35:49.873728 22390 net.cpp:131] Top shape: 1 256 30 40 (307200)
I0313 11:35:49.873731 22390 net.cpp:139] Memory required for data: 250060800
I0313 11:35:49.873735 22390 layer_factory.hpp:77] Creating layer conv6_2_relu
I0313 11:35:49.873739 22390 net.cpp:86] Creating Layer conv6_2_relu
I0313 11:35:49.873742 22390 net.cpp:408] conv6_2_relu <- conv6_2
I0313 11:35:49.873746 22390 net.cpp:369] conv6_2_relu -> conv6_2 (in-place)
I0313 11:35:49.873869 22390 net.cpp:124] Setting up conv6_2_relu
I0313 11:35:49.873878 22390 net.cpp:131] Top shape: 1 256 30 40 (307200)
I0313 11:35:49.873879 22390 net.cpp:139] Memory required for data: 251289600
I0313 11:35:49.873881 22390 layer_factory.hpp:77] Creating layer conv6_3
I0313 11:35:49.873888 22390 net.cpp:86] Creating Layer conv6_3
I0313 11:35:49.873891 22390 net.cpp:408] conv6_3 <- conv6_2
I0313 11:35:49.873898 22390 net.cpp:382] conv6_3 -> conv6_3
I0313 11:35:49.898160 22390 net.cpp:124] Setting up conv6_3
I0313 11:35:49.898195 22390 net.cpp:131] Top shape: 1 512 30 40 (614400)
I0313 11:35:49.898197 22390 net.cpp:139] Memory required for data: 253747200
I0313 11:35:49.898208 22390 layer_factory.hpp:77] Creating layer conv6_3_bn
I0313 11:35:49.898216 22390 net.cpp:86] Creating Layer conv6_3_bn
I0313 11:35:49.898227 22390 net.cpp:408] conv6_3_bn <- conv6_3
I0313 11:35:49.898237 22390 net.cpp:369] conv6_3_bn -> conv6_3 (in-place)
I0313 11:35:49.898416 22390 net.cpp:124] Setting up conv6_3_bn
I0313 11:35:49.898422 22390 net.cpp:131] Top shape: 1 512 30 40 (614400)
I0313 11:35:49.898423 22390 net.cpp:139] Memory required for data: 256204800
I0313 11:35:49.898432 22390 layer_factory.hpp:77] Creating layer conv6_3_scale
I0313 11:35:49.898437 22390 net.cpp:86] Creating Layer conv6_3_scale
I0313 11:35:49.898442 22390 net.cpp:408] conv6_3_scale <- conv6_3
I0313 11:35:49.898447 22390 net.cpp:369] conv6_3_scale -> conv6_3 (in-place)
I0313 11:35:49.898479 22390 layer_factory.hpp:77] Creating layer conv6_3_scale
I0313 11:35:49.898583 22390 net.cpp:124] Setting up conv6_3_scale
I0313 11:35:49.898589 22390 net.cpp:131] Top shape: 1 512 30 40 (614400)
I0313 11:35:49.898591 22390 net.cpp:139] Memory required for data: 258662400
I0313 11:35:49.898596 22390 layer_factory.hpp:77] Creating layer conv6_3_relu
I0313 11:35:49.898600 22390 net.cpp:86] Creating Layer conv6_3_relu
I0313 11:35:49.898603 22390 net.cpp:408] conv6_3_relu <- conv6_3
I0313 11:35:49.898609 22390 net.cpp:369] conv6_3_relu -> conv6_3 (in-place)
I0313 11:35:49.899929 22390 net.cpp:124] Setting up conv6_3_relu
I0313 11:35:49.899942 22390 net.cpp:131] Top shape: 1 512 30 40 (614400)
I0313 11:35:49.899945 22390 net.cpp:139] Memory required for data: 261120000
I0313 11:35:49.899948 22390 layer_factory.hpp:77] Creating layer conv6_4
I0313 11:35:49.899957 22390 net.cpp:86] Creating Layer conv6_4
I0313 11:35:49.899963 22390 net.cpp:408] conv6_4 <- conv6_3
I0313 11:35:49.899971 22390 net.cpp:382] conv6_4 -> conv6_4
I0313 11:35:49.903226 22390 net.cpp:124] Setting up conv6_4
I0313 11:35:49.903244 22390 net.cpp:131] Top shape: 1 256 30 40 (307200)
I0313 11:35:49.903246 22390 net.cpp:139] Memory required for data: 262348800
I0313 11:35:49.903254 22390 layer_factory.hpp:77] Creating layer conv6_4_bn
I0313 11:35:49.903259 22390 net.cpp:86] Creating Layer conv6_4_bn
I0313 11:35:49.903264 22390 net.cpp:408] conv6_4_bn <- conv6_4
I0313 11:35:49.903280 22390 net.cpp:369] conv6_4_bn -> conv6_4 (in-place)
I0313 11:35:49.903453 22390 net.cpp:124] Setting up conv6_4_bn
I0313 11:35:49.903460 22390 net.cpp:131] Top shape: 1 256 30 40 (307200)
I0313 11:35:49.903461 22390 net.cpp:139] Memory required for data: 263577600
I0313 11:35:49.903470 22390 layer_factory.hpp:77] Creating layer conv6_4_scale
I0313 11:35:49.903475 22390 net.cpp:86] Creating Layer conv6_4_scale
I0313 11:35:49.903479 22390 net.cpp:408] conv6_4_scale <- conv6_4
I0313 11:35:49.903483 22390 net.cpp:369] conv6_4_scale -> conv6_4 (in-place)
I0313 11:35:49.903517 22390 layer_factory.hpp:77] Creating layer conv6_4_scale
I0313 11:35:49.903628 22390 net.cpp:124] Setting up conv6_4_scale
I0313 11:35:49.903636 22390 net.cpp:131] Top shape: 1 256 30 40 (307200)
I0313 11:35:49.903638 22390 net.cpp:139] Memory required for data: 264806400
I0313 11:35:49.903643 22390 layer_factory.hpp:77] Creating layer conv6_4_relu
I0313 11:35:49.903648 22390 net.cpp:86] Creating Layer conv6_4_relu
I0313 11:35:49.903652 22390 net.cpp:408] conv6_4_relu <- conv6_4
I0313 11:35:49.903657 22390 net.cpp:369] conv6_4_relu -> conv6_4 (in-place)
I0313 11:35:49.903795 22390 net.cpp:124] Setting up conv6_4_relu
I0313 11:35:49.903803 22390 net.cpp:131] Top shape: 1 256 30 40 (307200)
I0313 11:35:49.903805 22390 net.cpp:139] Memory required for data: 266035200
I0313 11:35:49.903807 22390 layer_factory.hpp:77] Creating layer conv6_5
I0313 11:35:49.903815 22390 net.cpp:86] Creating Layer conv6_5
I0313 11:35:49.903818 22390 net.cpp:408] conv6_5 <- conv6_4
I0313 11:35:49.903825 22390 net.cpp:382] conv6_5 -> conv6_5
I0313 11:35:49.928071 22390 net.cpp:124] Setting up conv6_5
I0313 11:35:49.928107 22390 net.cpp:131] Top shape: 1 512 30 40 (614400)
I0313 11:35:49.928109 22390 net.cpp:139] Memory required for data: 268492800
I0313 11:35:49.928117 22390 layer_factory.hpp:77] Creating layer conv6_5_bn
I0313 11:35:49.928125 22390 net.cpp:86] Creating Layer conv6_5_bn
I0313 11:35:49.928136 22390 net.cpp:408] conv6_5_bn <- conv6_5
I0313 11:35:49.928146 22390 net.cpp:369] conv6_5_bn -> conv6_5 (in-place)
I0313 11:35:49.928333 22390 net.cpp:124] Setting up conv6_5_bn
I0313 11:35:49.928340 22390 net.cpp:131] Top shape: 1 512 30 40 (614400)
I0313 11:35:49.928342 22390 net.cpp:139] Memory required for data: 270950400
I0313 11:35:49.928350 22390 layer_factory.hpp:77] Creating layer conv6_5_scale
I0313 11:35:49.928356 22390 net.cpp:86] Creating Layer conv6_5_scale
I0313 11:35:49.928360 22390 net.cpp:408] conv6_5_scale <- conv6_5
I0313 11:35:49.928364 22390 net.cpp:369] conv6_5_scale -> conv6_5 (in-place)
I0313 11:35:49.928397 22390 layer_factory.hpp:77] Creating layer conv6_5_scale
I0313 11:35:49.928504 22390 net.cpp:124] Setting up conv6_5_scale
I0313 11:35:49.928510 22390 net.cpp:131] Top shape: 1 512 30 40 (614400)
I0313 11:35:49.928514 22390 net.cpp:139] Memory required for data: 273408000
I0313 11:35:49.928517 22390 layer_factory.hpp:77] Creating layer conv6_5_relu
I0313 11:35:49.928522 22390 net.cpp:86] Creating Layer conv6_5_relu
I0313 11:35:49.928525 22390 net.cpp:408] conv6_5_relu <- conv6_5
I0313 11:35:49.928530 22390 net.cpp:369] conv6_5_relu -> conv6_5 (in-place)
I0313 11:35:49.928860 22390 net.cpp:124] Setting up conv6_5_relu
I0313 11:35:49.928870 22390 net.cpp:131] Top shape: 1 512 30 40 (614400)
I0313 11:35:49.928872 22390 net.cpp:139] Memory required for data: 275865600
I0313 11:35:49.928875 22390 layer_factory.hpp:77] Creating layer conv7_1
I0313 11:35:49.928884 22390 net.cpp:86] Creating Layer conv7_1
I0313 11:35:49.928889 22390 net.cpp:408] conv7_1 <- conv6_5
I0313 11:35:49.928897 22390 net.cpp:382] conv7_1 -> conv7_1
I0313 11:35:49.987430 22390 net.cpp:124] Setting up conv7_1
I0313 11:35:49.987480 22390 net.cpp:131] Top shape: 1 512 30 40 (614400)
I0313 11:35:49.987486 22390 net.cpp:139] Memory required for data: 278323200
I0313 11:35:49.987501 22390 layer_factory.hpp:77] Creating layer conv7_1_bn
I0313 11:35:49.987517 22390 net.cpp:86] Creating Layer conv7_1_bn
I0313 11:35:49.987548 22390 net.cpp:408] conv7_1_bn <- conv7_1
I0313 11:35:49.987565 22390 net.cpp:369] conv7_1_bn -> conv7_1 (in-place)
I0313 11:35:49.987885 22390 net.cpp:124] Setting up conv7_1_bn
I0313 11:35:49.987897 22390 net.cpp:131] Top shape: 1 512 30 40 (614400)
I0313 11:35:49.987901 22390 net.cpp:139] Memory required for data: 280780800
I0313 11:35:49.987915 22390 layer_factory.hpp:77] Creating layer conv7_1_scale
I0313 11:35:49.987923 22390 net.cpp:86] Creating Layer conv7_1_scale
I0313 11:35:49.987931 22390 net.cpp:408] conv7_1_scale <- conv7_1
I0313 11:35:49.987938 22390 net.cpp:369] conv7_1_scale -> conv7_1 (in-place)
I0313 11:35:49.987993 22390 layer_factory.hpp:77] Creating layer conv7_1_scale
I0313 11:35:49.988179 22390 net.cpp:124] Setting up conv7_1_scale
I0313 11:35:49.988190 22390 net.cpp:131] Top shape: 1 512 30 40 (614400)
I0313 11:35:49.988194 22390 net.cpp:139] Memory required for data: 283238400
I0313 11:35:49.988203 22390 layer_factory.hpp:77] Creating layer conv7_1_relu
I0313 11:35:49.988212 22390 net.cpp:86] Creating Layer conv7_1_relu
I0313 11:35:49.988219 22390 net.cpp:408] conv7_1_relu <- conv7_1
I0313 11:35:49.988236 22390 net.cpp:369] conv7_1_relu -> conv7_1 (in-place)
I0313 11:35:49.988458 22390 net.cpp:124] Setting up conv7_1_relu
I0313 11:35:49.988471 22390 net.cpp:131] Top shape: 1 512 30 40 (614400)
I0313 11:35:49.988474 22390 net.cpp:139] Memory required for data: 285696000
I0313 11:35:49.988478 22390 layer_factory.hpp:77] Creating layer conv7_2
I0313 11:35:49.988495 22390 net.cpp:86] Creating Layer conv7_2
I0313 11:35:49.988512 22390 net.cpp:408] conv7_2 <- conv7_1
I0313 11:35:49.988526 22390 net.cpp:382] conv7_2 -> conv7_2
I0313 11:35:50.081248 22390 net.cpp:124] Setting up conv7_2
I0313 11:35:50.081307 22390 net.cpp:131] Top shape: 1 512 30 40 (614400)
I0313 11:35:50.081315 22390 net.cpp:139] Memory required for data: 288153600
I0313 11:35:50.081326 22390 layer_factory.hpp:77] Creating layer conv7_2_bn
I0313 11:35:50.081343 22390 net.cpp:86] Creating Layer conv7_2_bn
I0313 11:35:50.081362 22390 net.cpp:408] conv7_2_bn <- conv7_2
I0313 11:35:50.081380 22390 net.cpp:369] conv7_2_bn -> conv7_2 (in-place)
I0313 11:35:50.081722 22390 net.cpp:124] Setting up conv7_2_bn
I0313 11:35:50.081734 22390 net.cpp:131] Top shape: 1 512 30 40 (614400)
I0313 11:35:50.081739 22390 net.cpp:139] Memory required for data: 290611200
I0313 11:35:50.081758 22390 layer_factory.hpp:77] Creating layer conv7_2_scale
I0313 11:35:50.081768 22390 net.cpp:86] Creating Layer conv7_2_scale
I0313 11:35:50.081777 22390 net.cpp:408] conv7_2_scale <- conv7_2
I0313 11:35:50.081789 22390 net.cpp:369] conv7_2_scale -> conv7_2 (in-place)
I0313 11:35:50.081853 22390 layer_factory.hpp:77] Creating layer conv7_2_scale
I0313 11:35:50.082056 22390 net.cpp:124] Setting up conv7_2_scale
I0313 11:35:50.082068 22390 net.cpp:131] Top shape: 1 512 30 40 (614400)
I0313 11:35:50.082072 22390 net.cpp:139] Memory required for data: 293068800
I0313 11:35:50.082082 22390 layer_factory.hpp:77] Creating layer conv7_2_relu
I0313 11:35:50.082092 22390 net.cpp:86] Creating Layer conv7_2_relu
I0313 11:35:50.082099 22390 net.cpp:408] conv7_2_relu <- conv7_2
I0313 11:35:50.082108 22390 net.cpp:369] conv7_2_relu -> conv7_2 (in-place)
I0313 11:35:50.082687 22390 net.cpp:124] Setting up conv7_2_relu
I0313 11:35:50.082705 22390 net.cpp:131] Top shape: 1 512 30 40 (614400)
I0313 11:35:50.082710 22390 net.cpp:139] Memory required for data: 295526400
I0313 11:35:50.082715 22390 layer_factory.hpp:77] Creating layer concat8
I0313 11:35:50.082782 22390 net.cpp:86] Creating Layer concat8
I0313 11:35:50.082794 22390 net.cpp:408] concat8 <- conv5_5_conv5_5_relu_0_split_1
I0313 11:35:50.082805 22390 net.cpp:408] concat8 <- conv7_2
I0313 11:35:50.082813 22390 net.cpp:382] concat8 -> concat8
I0313 11:35:50.082916 22390 net.cpp:124] Setting up concat8
I0313 11:35:50.082931 22390 net.cpp:131] Top shape: 1 768 30 40 (921600)
I0313 11:35:50.082937 22390 net.cpp:139] Memory required for data: 299212800
I0313 11:35:50.082942 22390 layer_factory.hpp:77] Creating layer reduce1_lane
I0313 11:35:50.082957 22390 net.cpp:86] Creating Layer reduce1_lane
I0313 11:35:50.082963 22390 net.cpp:408] reduce1_lane <- concat8
I0313 11:35:50.082978 22390 net.cpp:382] reduce1_lane -> reduce1_lane
I0313 11:35:50.118997 22390 net.cpp:124] Setting up reduce1_lane
I0313 11:35:50.119051 22390 net.cpp:131] Top shape: 1 128 30 40 (153600)
I0313 11:35:50.119060 22390 net.cpp:139] Memory required for data: 299827200
I0313 11:35:50.119074 22390 layer_factory.hpp:77] Creating layer reduce1_lane_bn
I0313 11:35:50.119092 22390 net.cpp:86] Creating Layer reduce1_lane_bn
I0313 11:35:50.119109 22390 net.cpp:408] reduce1_lane_bn <- reduce1_lane
I0313 11:35:50.119127 22390 net.cpp:369] reduce1_lane_bn -> reduce1_lane (in-place)
I0313 11:35:50.119480 22390 net.cpp:124] Setting up reduce1_lane_bn
I0313 11:35:50.119493 22390 net.cpp:131] Top shape: 1 128 30 40 (153600)
I0313 11:35:50.119500 22390 net.cpp:139] Memory required for data: 300441600
I0313 11:35:50.119516 22390 layer_factory.hpp:77] Creating layer reduce1_lane_scale
I0313 11:35:50.119529 22390 net.cpp:86] Creating Layer reduce1_lane_scale
I0313 11:35:50.119539 22390 net.cpp:408] reduce1_lane_scale <- reduce1_lane
I0313 11:35:50.119552 22390 net.cpp:369] reduce1_lane_scale -> reduce1_lane (in-place)
I0313 11:35:50.119628 22390 layer_factory.hpp:77] Creating layer reduce1_lane_scale
I0313 11:35:50.119828 22390 net.cpp:124] Setting up reduce1_lane_scale
I0313 11:35:50.119843 22390 net.cpp:131] Top shape: 1 128 30 40 (153600)
I0313 11:35:50.119850 22390 net.cpp:139] Memory required for data: 301056000
I0313 11:35:50.119861 22390 layer_factory.hpp:77] Creating layer reduce1_lane_relu
I0313 11:35:50.119871 22390 net.cpp:86] Creating Layer reduce1_lane_relu
I0313 11:35:50.119881 22390 net.cpp:408] reduce1_lane_relu <- reduce1_lane
I0313 11:35:50.119894 22390 net.cpp:369] reduce1_lane_relu -> reduce1_lane (in-place)
I0313 11:35:50.120456 22390 net.cpp:124] Setting up reduce1_lane_relu
I0313 11:35:50.120474 22390 net.cpp:131] Top shape: 1 128 30 40 (153600)
I0313 11:35:50.120481 22390 net.cpp:139] Memory required for data: 301670400
I0313 11:35:50.120488 22390 layer_factory.hpp:77] Creating layer deconv1_lane
I0313 11:35:50.120507 22390 net.cpp:86] Creating Layer deconv1_lane
I0313 11:35:50.120518 22390 net.cpp:408] deconv1_lane <- reduce1_lane
I0313 11:35:50.120534 22390 net.cpp:382] deconv1_lane -> deconv1_lane
I0313 11:35:50.122450 22390 net.cpp:124] Setting up deconv1_lane
I0313 11:35:50.122480 22390 net.cpp:131] Top shape: 1 64 60 80 (307200)
I0313 11:35:50.122488 22390 net.cpp:139] Memory required for data: 302899200
I0313 11:35:50.122500 22390 layer_factory.hpp:77] Creating layer deconv1_lane_bn
I0313 11:35:50.122514 22390 net.cpp:86] Creating Layer deconv1_lane_bn
I0313 11:35:50.122526 22390 net.cpp:408] deconv1_lane_bn <- deconv1_lane
I0313 11:35:50.122539 22390 net.cpp:369] deconv1_lane_bn -> deconv1_lane (in-place)
I0313 11:35:50.122891 22390 net.cpp:124] Setting up deconv1_lane_bn
I0313 11:35:50.122905 22390 net.cpp:131] Top shape: 1 64 60 80 (307200)
I0313 11:35:50.122911 22390 net.cpp:139] Memory required for data: 304128000
I0313 11:35:50.122952 22390 layer_factory.hpp:77] Creating layer deconv1_lane_scale
I0313 11:35:50.122965 22390 net.cpp:86] Creating Layer deconv1_lane_scale
I0313 11:35:50.122974 22390 net.cpp:408] deconv1_lane_scale <- deconv1_lane
I0313 11:35:50.122987 22390 net.cpp:369] deconv1_lane_scale -> deconv1_lane (in-place)
I0313 11:35:50.123059 22390 layer_factory.hpp:77] Creating layer deconv1_lane_scale
I0313 11:35:50.123275 22390 net.cpp:124] Setting up deconv1_lane_scale
I0313 11:35:50.123287 22390 net.cpp:131] Top shape: 1 64 60 80 (307200)
I0313 11:35:50.123293 22390 net.cpp:139] Memory required for data: 305356800
I0313 11:35:50.123306 22390 layer_factory.hpp:77] Creating layer deconv1_lane_relu
I0313 11:35:50.123315 22390 net.cpp:86] Creating Layer deconv1_lane_relu
I0313 11:35:50.123324 22390 net.cpp:408] deconv1_lane_relu <- deconv1_lane
I0313 11:35:50.123337 22390 net.cpp:369] deconv1_lane_relu -> deconv1_lane (in-place)
I0313 11:35:50.123589 22390 net.cpp:124] Setting up deconv1_lane_relu
I0313 11:35:50.123603 22390 net.cpp:131] Top shape: 1 64 60 80 (307200)
I0313 11:35:50.123611 22390 net.cpp:139] Memory required for data: 306585600
I0313 11:35:50.123618 22390 layer_factory.hpp:77] Creating layer reorg4
I0313 11:35:50.123634 22390 net.cpp:86] Creating Layer reorg4
I0313 11:35:50.123642 22390 net.cpp:408] reorg4 <- conv4_3_conv4_3_relu_0_split_1
I0313 11:35:50.123656 22390 net.cpp:382] reorg4 -> reorg4
I0313 11:35:50.129753 22390 net.cpp:124] Setting up reorg4
I0313 11:35:50.129804 22390 net.cpp:131] Top shape: 1 64 60 80 (307200)
I0313 11:35:50.129812 22390 net.cpp:139] Memory required for data: 307814400
I0313 11:35:50.129827 22390 layer_factory.hpp:77] Creating layer reorg4_relu
I0313 11:35:50.129840 22390 net.cpp:86] Creating Layer reorg4_relu
I0313 11:35:50.129856 22390 net.cpp:408] reorg4_relu <- reorg4
I0313 11:35:50.129873 22390 net.cpp:369] reorg4_relu -> reorg4 (in-place)
I0313 11:35:50.130136 22390 net.cpp:124] Setting up reorg4_relu
I0313 11:35:50.130154 22390 net.cpp:131] Top shape: 1 64 60 80 (307200)
I0313 11:35:50.130159 22390 net.cpp:139] Memory required for data: 309043200
I0313 11:35:50.130164 22390 layer_factory.hpp:77] Creating layer concat4
I0313 11:35:50.130172 22390 net.cpp:86] Creating Layer concat4
I0313 11:35:50.130180 22390 net.cpp:408] concat4 <- reorg4
I0313 11:35:50.130192 22390 net.cpp:408] concat4 <- deconv1_lane
I0313 11:35:50.130203 22390 net.cpp:382] concat4 -> concat4
I0313 11:35:50.130256 22390 net.cpp:124] Setting up concat4
I0313 11:35:50.130270 22390 net.cpp:131] Top shape: 1 128 60 80 (614400)
I0313 11:35:50.130276 22390 net.cpp:139] Memory required for data: 311500800
I0313 11:35:50.130281 22390 layer_factory.hpp:77] Creating layer reduce2_lane
I0313 11:35:50.130296 22390 net.cpp:86] Creating Layer reduce2_lane
I0313 11:35:50.130303 22390 net.cpp:408] reduce2_lane <- concat4
I0313 11:35:50.130313 22390 net.cpp:382] reduce2_lane -> reduce2_lane
I0313 11:35:50.134871 22390 net.cpp:124] Setting up reduce2_lane
I0313 11:35:50.134907 22390 net.cpp:131] Top shape: 1 64 60 80 (307200)
I0313 11:35:50.134914 22390 net.cpp:139] Memory required for data: 312729600
I0313 11:35:50.134925 22390 layer_factory.hpp:77] Creating layer reduce2_lane_bn
I0313 11:35:50.134949 22390 net.cpp:86] Creating Layer reduce2_lane_bn
I0313 11:35:50.134964 22390 net.cpp:408] reduce2_lane_bn <- reduce2_lane
I0313 11:35:50.134979 22390 net.cpp:369] reduce2_lane_bn -> reduce2_lane (in-place)
I0313 11:35:50.135361 22390 net.cpp:124] Setting up reduce2_lane_bn
I0313 11:35:50.135375 22390 net.cpp:131] Top shape: 1 64 60 80 (307200)
I0313 11:35:50.135378 22390 net.cpp:139] Memory required for data: 313958400
I0313 11:35:50.135393 22390 layer_factory.hpp:77] Creating layer reduce2_lane_scale
I0313 11:35:50.135404 22390 net.cpp:86] Creating Layer reduce2_lane_scale
I0313 11:35:50.135414 22390 net.cpp:408] reduce2_lane_scale <- reduce2_lane
I0313 11:35:50.135424 22390 net.cpp:369] reduce2_lane_scale -> reduce2_lane (in-place)
I0313 11:35:50.135499 22390 layer_factory.hpp:77] Creating layer reduce2_lane_scale
I0313 11:35:50.135730 22390 net.cpp:124] Setting up reduce2_lane_scale
I0313 11:35:50.135743 22390 net.cpp:131] Top shape: 1 64 60 80 (307200)
I0313 11:35:50.135749 22390 net.cpp:139] Memory required for data: 315187200
I0313 11:35:50.135759 22390 layer_factory.hpp:77] Creating layer reduce2_lane_relu
I0313 11:35:50.135769 22390 net.cpp:86] Creating Layer reduce2_lane_relu
I0313 11:35:50.135778 22390 net.cpp:408] reduce2_lane_relu <- reduce2_lane
I0313 11:35:50.135790 22390 net.cpp:369] reduce2_lane_relu -> reduce2_lane (in-place)
I0313 11:35:50.136046 22390 net.cpp:124] Setting up reduce2_lane_relu
I0313 11:35:50.136062 22390 net.cpp:131] Top shape: 1 64 60 80 (307200)
I0313 11:35:50.136068 22390 net.cpp:139] Memory required for data: 316416000
I0313 11:35:50.136073 22390 layer_factory.hpp:77] Creating layer Slice1
I0313 11:35:50.136145 22390 net.cpp:86] Creating Layer Slice1
I0313 11:35:50.136158 22390 net.cpp:408] Slice1 <- reduce2_lane
I0313 11:35:50.136176 22390 net.cpp:382] Slice1 -> slice1_1
I0313 11:35:50.136252 22390 net.cpp:382] Slice1 -> slice1_2
…
I0313 11:35:50.137105 22390 net.cpp:382] Slice1 -> slice1_52
I0313 11:35:50.137120 22390 net.cpp:382] Slice1 -> slice1_53
I0313 11:35:50.137136 22390 net.cpp:382] Slice1 -> slice1_54
I0313 11:35:50.137152 22390 net.cpp:382] Slice1 -> slice1_55
I0313 11:35:50.137171 22390 net.cpp:382] Slice1 -> slice1_56
I0313 11:35:50.137187 22390 net.cpp:382] Slice1 -> slice1_57
I0313 11:35:50.137203 22390 net.cpp:382] Slice1 -> slice1_58
I0313 11:35:50.137218 22390 net.cpp:382] Slice1 -> slice1_59
I0313 11:35:50.137234 22390 net.cpp:382] Slice1 -> slice1_60
I0313 11:35:50.138483 22390 net.cpp:124] Setting up Slice1
I0313 11:35:50.138504 22390 net.cpp:131] Top shape: 1 64 1 80 (5120)
I0313 11:35:50.138514 22390 net.cpp:131] Top shape: 1 64 1 80 (5120)
I0313 11:35:50.138522 22390 net.cpp:131] Top shape: 1 64 1 80 (5120)
I0313 11:35:50.138530 22390 net.cpp:131] Top shape: 1 64 1 80 (5120)
I0313 11:35:50.138540 22390 net.cpp:131] Top shape: 1 64 1 80 (5120)
I0313 11:35:50.138547 22390 net.cpp:131] Top shape: 1 64 1 80 (5120)
I0313 11:35:50.138556 22390 net.cpp:131] Top shape: 1 64 1 80 (5120)
I0313 11:35:50.138563 22390 net.cpp:131] Top shape: 1 64 1 80 (5120)
I0313 11:35:50.138571 22390 net.cpp:131] Top shape: 1 64 1 80 (5120)
I0313 11:35:50.138579 22390 net.cpp:131] Top shape: 1 64 1 80 (5120)
I0313 11:35:50.138586 22390 net.cpp:131] Top shape: 1 64 1 80 (5120)
I0313 11:35:50.138592 22390 net.cpp:131] Top shape: 1 64 1 80 (5120)
I0313 11:35:50.138599 22390 net.cpp:131] Top shape: 1 64 1 80 (5120)
I0313 11:35:50.138607 22390 net.cpp:131] Top shape: 1 64 1 80 (5120)
I0313 11:35:50.138615 22390 net.cpp:131] Top shape: 1 64 1 80 (5120)
I0313 11:35:50.138623 22390 net.cpp:131] Top shape: 1 64 1 80 (5120)
I0313 11:35:50.138631 22390 net.cpp:131] Top shape: 1 64 1 80 (5120)
I0313 11:35:50.138638 22390 net.cpp:131] Top shape: 1 64 1 80 (5120)
I0313 11:35:50.138646 22390 net.cpp:131] Top shape: 1 64 1 80 (5120)
I0313 11:35:50.138655 22390 net.cpp:131] Top shape: 1 64 1 80 (5120)
I0313 11:35:50.138664 22390 net.cpp:131] Top shape: 1 64 1 80 (5120)
I0313 11:35:50.138671 22390 net.cpp:131] Top shape: 1 64 1 80 (5120)
I0313 11:35:50.138679 22390 net.cpp:131] Top shape: 1 64 1 80 (5120)
I0313 11:35:50.138687 22390 net.cpp:131] Top shape: 1 64 1 80 (5120)
I0313 11:35:50.138695 22390 net.cpp:131] Top shape: 1 64 1 80 (5120)
I0313 11:35:50.138703 22390 net.cpp:131] Top shape: 1 64 1 80 (5120)
I0313 11:35:50.138711 22390 net.cpp:131] Top shape: 1 64 1 80 (5120)
I0313 11:35:50.138726 22390 net.cpp:131] Top shape: 1 64 1 80 (5120)
I0313 11:35:50.138736 22390 net.cpp:131] Top shape: 1 64 1 80 (5120)
I0313 11:35:50.138743 22390 net.cpp:131] Top shape: 1 64 1 80 (5120)
I0313 11:35:50.138751 22390 net.cpp:131] Top shape: 1 64 1 80 (5120)
I0313 11:35:50.138759 22390 net.cpp:131] Top shape: 1 64 1 80 (5120)
I0313 11:35:50.138768 22390 net.cpp:131] Top shape: 1 64 1 80 (5120)
I0313 11:35:50.138777 22390 net.cpp:131] Top shape: 1 64 1 80 (5120)
I0313 11:35:50.138785 22390 net.cpp:131] Top shape: 1 64 1 80 (5120)
I0313 11:35:50.138793 22390 net.cpp:131] Top shape: 1 64 1 80 (5120)
I0313 11:35:50.138801 22390 net.cpp:131] Top shape: 1 64 1 80 (5120)
I0313 11:35:50.138810 22390 net.cpp:131] Top shape: 1 64 1 80 (5120)
I0313 11:35:50.138818 22390 net.cpp:131] Top shape: 1 64 1 80 (5120)
I0313 11:35:50.138826 22390 net.cpp:131] Top shape: 1 64 1 80 (5120)
I0313 11:35:50.138834 22390 net.cpp:131] Top shape: 1 64 1 80 (5120)
I0313 11:35:50.138842 22390 net.cpp:131] Top shape: 1 64 1 80 (5120)
I0313 11:35:50.138850 22390 net.cpp:131] Top shape: 1 64 1 80 (5120)
I0313 11:35:50.138859 22390 net.cpp:131] Top shape: 1 64 1 80 (5120)
I0313 11:35:50.138866 22390 net.cpp:131] Top shape: 1 64 1 80 (5120)
I0313 11:35:50.138875 22390 net.cpp:131] Top shape: 1 64 1 80 (5120)
I0313 11:35:50.138882 22390 net.cpp:131] Top shape: 1 64 1 80 (5120)
I0313 11:35:50.138890 22390 net.cpp:131] Top shape: 1 64 1 80 (5120)
I0313 11:35:50.138900 22390 net.cpp:131] Top shape: 1 64 1 80 (5120)
I0313 11:35:50.138907 22390 net.cpp:131] Top shape: 1 64 1 80 (5120)
I0313 11:35:50.138916 22390 net.cpp:131] Top shape: 1 64 1 80 (5120)
I0313 11:35:50.138923 22390 net.cpp:131] Top shape: 1 64 1 80 (5120)
I0313 11:35:50.138932 22390 net.cpp:131] Top shape: 1 64 1 80 (5120)
I0313 11:35:50.138940 22390 net.cpp:131] Top shape: 1 64 1 80 (5120)
I0313 11:35:50.138948 22390 net.cpp:131] Top shape: 1 64 1 80 (5120)
I0313 11:35:50.138957 22390 net.cpp:131] Top shape: 1 64 1 80 (5120)
I0313 11:35:50.138965 22390 net.cpp:131] Top shape: 1 64 1 80 (5120)
I0313 11:35:50.138973 22390 net.cpp:131] Top shape: 1 64 1 80 (5120)
I0313 11:35:50.138981 22390 net.cpp:131] Top shape: 1 64 1 80 (5120)
I0313 11:35:50.138989 22390 net.cpp:131] Top shape: 1 64 1 80 (5120)
I0313 11:35:50.138996 22390 net.cpp:139] Memory required for data: 317644800
I0313 11:35:50.139004 22390 layer_factory.hpp:77] Creating layer slice1_1_Slice1_0_split
I0313 11:35:50.139015 22390 net.cpp:86] Creating Layer slice1_1_Slice1_0_split
I0313 11:35:50.139026 22390 net.cpp:408] slice1_1_Slice1_0_split <- slice1_1
I0313 11:35:50.139042 22390 net.cpp:382] slice1_1_Slice1_0_split -> slice1_1_Slice1_0_split_0
I0313 11:35:50.139057 22390 net.cpp:382] slice1_1_Slice1_0_split -> slice1_1_Slice1_0_split_1
I0313 11:35:50.139127 22390 net.cpp:124] Setting up slice1_1_Slice1_0_split
I0313 11:35:50.139140 22390 net.cpp:131] Top shape: 1 64 1 80 (5120)
I0313 11:35:50.139147 22390 net.cpp:131] Top shape: 1 64 1 80 (5120)
I0313 11:35:50.139153 22390 net.cpp:139] Memory required for data: 317685760
I0313 11:35:50.139160 22390 layer_factory.hpp:77] Creating layer SCNN_D_1
I0313 11:35:50.139176 22390 net.cpp:86] Creating Layer SCNN_D_1
I0313 11:35:50.139187 22390 net.cpp:408] SCNN_D_1 <- slice1_1_Slice1_0_split_0
I0313 11:35:50.139201 22390 net.cpp:382] SCNN_D_1 -> SCNN_D_1/message
I0313 11:35:50.141562 22390 net.cpp:124] Setting up SCNN_D_1
I0313 11:35:50.141592 22390 net.cpp:131] Top shape: 1 64 1 80 (5120)
I0313 11:35:50.141599 22390 net.cpp:139] Memory required for data: 317706240
I0313 11:35:50.141615 22390 layer_factory.hpp:77] Creating layer SCNN_D_1/relu
I0313 11:35:50.141629 22390 net.cpp:86] Creating Layer SCNN_D_1/relu
I0313 11:35:50.141641 22390 net.cpp:408] SCNN_D_1/relu <- SCNN_D_1/message
I0313 11:35:50.141655 22390 net.cpp:369] SCNN_D_1/relu -> SCNN_D_1/message (in-place)
I0313 11:35:50.142232 22390 net.cpp:124] Setting up SCNN_D_1/relu
I0313 11:35:50.142251 22390 net.cpp:131] Top shape: 1 64 1 80 (5120)
I0313 11:35:50.142258 22390 net.cpp:139] Memory required for data: 317726720
I0313 11:35:50.142266 22390 layer_factory.hpp:77] Creating layer SCNN_D_1/sum
I0313 11:35:50.142328 22390 net.cpp:86] Creating Layer SCNN_D_1/sum
I0313 11:35:50.142340 22390 net.cpp:408] SCNN_D_1/sum <- SCNN_D_1/message
I0313 11:35:50.142355 22390 net.cpp:408] SCNN_D_1/sum <- slice1_2
I0313 11:35:50.142366 22390 net.cpp:382] SCNN_D_1/sum -> SCNN_D_2
I0313 11:35:50.142518 22390 net.cpp:124] Setting up SCNN_D_1/sum
I0313 11:35:50.142534 22390 net.cpp:131] Top shape: 1 64 1 80 (5120)
I0313 11:35:50.142541 22390 net.cpp:139] Memory required for data: 317747200
I0313 11:35:50.142549 22390 layer_factory.hpp:77] Creating layer SCNN_D_2_SCNN_D_1/sum_0_split
I0313 11:35:50.142558 22390 net.cpp:86] Creating Layer SCNN_D_2_SCNN_D_1/sum_0_split
I0313 11:35:50.142568 22390 net.cpp:408] SCNN_D_2_SCNN_D_1/sum_0_split <- SCNN_D_2
I0313 11:35:50.142582 22390 net.cpp:382] SCNN_D_2_SCNN_D_1/sum_0_split -> SCNN_D_2_SCNN_D_1/sum_0_split_0
I0313 11:35:50.142596 22390 net.cpp:382] SCNN_D_2_SCNN_D_1/sum_0_split -> SCNN_D_2_SCNN_D_1/sum_0_split_1
I0313 11:35:50.142668 22390 net.cpp:124] Setting up SCNN_D_2_SCNN_D_1/sum_0_split
I0313 11:35:50.142683 22390 net.cpp:131] Top shape: 1 64 1 80 (5120)
I0313 11:35:50.142693 22390 net.cpp:131] Top shape: 1 64 1 80 (5120)
I0313 11:35:50.142699 22390 net.cpp:139] Memory required for data: 317788160
I0313 11:35:50.142706 22390 layer_factory.hpp:77] Creating layer SCNN_D_2
I0313 11:35:50.142721 22390 net.cpp:86] Creating Layer SCNN_D_2
I0313 11:35:50.142731 22390 net.cpp:408] SCNN_D_2 <- SCNN_D_2_SCNN_D_1/sum_0_split_0
I0313 11:35:50.142745 22390 net.cpp:382] SCNN_D_2 -> SCNN_D_2/message
I0313 11:35:50.144970 22390 net.cpp:124] Setting up SCNN_D_2
I0313 11:35:50.144997 22390 net.cpp:131] Top shape: 1 64 1 80 (5120)
I0313 11:35:50.145004 22390 net.cpp:139] Memory required for data: 317808640
I0313 11:35:50.145015 22390 net.cpp:467] Sharing parameters 'SCNN_D_w' owned by layer 'SCNN_D_1', param index 0
I0313 11:35:50.145023 22390 layer_factory.hpp:77] Creating layer SCNN_D_2/relu
I0313 11:35:50.145035 22390 net.cpp:86] Creating Layer SCNN_D_2/relu
I0313 11:35:50.145045 22390 net.cpp:408] SCNN_D_2/relu <- SCNN_D_2/message
I0313 11:35:50.145061 22390 net.cpp:369] SCNN_D_2/relu -> SCNN_D_2/message (in-place)
I0313 11:35:50.146875 22390 net.cpp:124] Setting up SCNN_D_2/relu
I0313 11:35:50.146899 22390 net.cpp:131] Top shape: 1 64 1 80 (5120)
I0313 11:35:50.146906 22390 net.cpp:139] Memory required for data: 317829120
I0313 11:35:50.146914 22390 layer_factory.hpp:77] Creating layer SCNN_D_2/sum
I0313 11:35:50.146927 22390 net.cpp:86] Creating Layer SCNN_D_2/sum
I0313 11:35:50.146940 22390 net.cpp:408] SCNN_D_2/sum <- SCNN_D_2/message
I0313 11:35:50.146957 22390 net.cpp:408] SCNN_D_2/sum <- slice1_3
I0313 11:35:50.146968 22390 net.cpp:382] SCNN_D_2/sum -> SCNN_D_3
I0313 11:35:50.147035 22390 net.cpp:124] Setting up SCNN_D_2/sum
I0313 11:35:50.147051 22390 net.cpp:131] Top shape: 1 64 1 80 (5120)
I0313 11:35:50.147056 22390 net.cpp:139] Memory required for data: 317849600
I0313 11:35:50.147060 22390 layer_factory.hpp:77] Creating layer SCNN_D_3_SCNN_D_2/sum_0_split
I0313 11:35:50.147070 22390 net.cpp:86] Creating Layer SCNN_D_3_SCNN_D_2/sum_0_split
I0313 11:35:50.147080 22390 net.cpp:408] SCNN_D_3_SCNN_D_2/sum_0_split <- SCNN_D_3
I0313 11:35:50.147094 22390 net.cpp:382] SCNN_D_3_SCNN_D_2/sum_0_split -> SCNN_D_3_SCNN_D_2/sum_0_split_0
I0313 11:35:50.147109 22390 net.cpp:382] SCNN_D_3_SCNN_D_2/sum_0_split -> SCNN_D_3_SCNN_D_2/sum_0_split_1
I0313 11:35:50.147182 22390 net.cpp:124] Setting up SCNN_D_3_SCNN_D_2/sum_0_split
I0313 11:35:50.147198 22390 net.cpp:131] Top shape: 1 64 1 80 (5120)
I0313 11:35:50.147207 22390 net.cpp:131] Top shape: 1 64 1 80 (5120)
I0313 11:35:50.147213 22390 net.cpp:139] Memory required for data: 317890560
I0313 11:35:50.147220 22390 layer_factory.hpp:77] Creating layer SCNN_D_3
I0313 11:35:50.147235 22390 net.cpp:86] Creating Layer SCNN_D_3
I0313 11:35:50.147246 22390 net.cpp:408] SCNN_D_3 <- SCNN_D_3_SCNN_D_2/sum_0_split_0
I0313 11:35:50.147261 22390 net.cpp:382] SCNN_D_3 -> SCNN_D_3/message
I0313 11:35:50.149508 22390 net.cpp:124] Setting up SCNN_D_3
I0313 11:35:50.149534 22390 net.cpp:131] Top shape: 1 64 1 80 (5120)
I0313 11:35:50.149543 22390 net.cpp:139] Memory required for data: 317911040
I0313 11:35:50.149554 22390 net.cpp:467] Sharing parameters 'SCNN_D_w' owned by layer 'SCNN_D_1', param index 0
I0313 11:35:50.149561 22390 layer_factory.hpp:77] Creating layer SCNN_D_3/relu
I0313 11:35:50.149574 22390 net.cpp:86] Creating Layer SCNN_D_3/relu
I0313 11:35:50.149583 22390 net.cpp:408] SCNN_D_3/relu <- SCNN_D_3/message
I0313 11:35:50.149600 22390 net.cpp:369] SCNN_D_3/relu -> SCNN_D_3/message (in-place)
I0313 11:35:50.149847 22390 net.cpp:124] Setting up SCNN_D_3/relu
I0313 11:35:50.149861 22390 net.cpp:131] Top shape: 1 64 1 80 (5120)
I0313 11:35:50.149869 22390 net.cpp:139] Memory required for data: 317931520
I0313 11:35:50.149876 22390 layer_factory.hpp:77] Creating layer SCNN_D_3/sum
I0313 11:35:50.149886 22390 net.cpp:86] Creating Layer SCNN_D_3/sum
I0313 11:35:50.149897 22390 net.cpp:408] SCNN_D_3/sum <- SCNN_D_3/message
I0313 11:35:50.149910 22390 net.cpp:408] SCNN_D_3/sum <- slice1_4
I0313 11:35:50.149922 22390 net.cpp:382] SCNN_D_3/sum -> SCNN_D_4
I0313 11:35:50.149978 22390 net.cpp:124] Setting up SCNN_D_3/sum
I0313 11:35:50.149992 22390 net.cpp:131] Top shape: 1 64 1 80 (5120)
I0313 11:35:50.149999 22390 net.cpp:139] Memory required for data: 317952000
I0313 11:35:50.150007 22390 layer_factory.hpp:77] Creating layer SCNN_D_4_SCNN_D_3/sum_0_split
I0313 11:35:50.150017 22390 net.cpp:86] Creating Layer SCNN_D_4_SCNN_D_3/sum_0_split
I0313 11:35:50.150027 22390 net.cpp:408] SCNN_D_4_SCNN_D_3/sum_0_split <- SCNN_D_4
I0313 11:35:50.150038 22390 net.cpp:382] SCNN_D_4_SCNN_D_3/sum_0_split -> SCNN_D_4_SCNN_D_3/sum_0_split_0
I0313 11:35:50.150054 22390 net.cpp:382] SCNN_D_4_SCNN_D_3/sum_0_split -> SCNN_D_4_SCNN_D_3/sum_0_split_1
I0313 11:35:50.150122 22390 net.cpp:124] Setting up SCNN_D_4_SCNN_D_3/sum_0_split
I0313 11:35:50.150135 22390 net.cpp:131] Top shape: 1 64 1 80 (5120)
I0313 11:35:50.150144 22390 net.cpp:131] Top shape: 1 64 1 80 (5120)
I0313 11:35:50.150151 22390 net.cpp:139] Memory required for data: 317992960
I0313 11:35:50.150157 22390 layer_factory.hpp:77] Creating layer SCNN_D_4
I0313 11:35:50.150173 22390 net.cpp:86] Creating Layer SCNN_D_4
I0313 11:35:50.150183 22390 net.cpp:408] SCNN_D_4 <- SCNN_D_4_SCNN_D_3/sum_0_split_0
I0313 11:35:50.150198 22390 net.cpp:382] SCNN_D_4 -> SCNN_D_4/message
I0313 11:35:50.152390 22390 net.cpp:124] Setting up SCNN_D_4
I0313 11:35:50.152415 22390 net.cpp:131] Top shape: 1 64 1 80 (5120)
I0313 11:35:50.152422 22390 net.cpp:139] Memory required for data: 318013440
I0313 11:35:50.152433 22390 net.cpp:467] Sharing parameters 'SCNN_D_w' owned by layer 'SCNN_D_1', param index 0
I0313 11:35:50.152441 22390 layer_factory.hpp:77] Creating layer SCNN_D_4/relu
I0313 11:35:50.152452 22390 net.cpp:86] Creating Layer SCNN_D_4/relu
I0313 11:35:50.152460 22390 net.cpp:408] SCNN_D_4/relu <- SCNN_D_4/message
I0313 11:35:50.152472 22390 net.cpp:369] SCNN_D_4/relu -> SCNN_D_4/message (in-place)
I0313 11:35:50.152700 22390 net.cpp:124] Setting up SCNN_D_4/relu
I0313 11:35:50.152715 22390 net.cpp:131] Top shape: 1 64 1 80 (5120)
I0313 11:35:50.152722 22390 net.cpp:139] Memory required for data: 318033920
I0313 11:35:50.152726 22390 layer_factory.hpp:77] Creating layer SCNN_D_4/sum
I0313 11:35:50.152734 22390 net.cpp:86] Creating Layer SCNN_D_4/sum
I0313 11:35:50.152745 22390 net.cpp:408] SCNN_D_4/sum <- SCNN_D_4/message
I0313 11:35:50.152758 22390 net.cpp:408] SCNN_D_4/sum <- slice1_5
I0313 11:35:50.152768 22390 net.cpp:382] SCNN_D_4/sum -> SCNN_D_5
I0313 11:35:50.152822 22390 net.cpp:124] Setting up SCNN_D_4/sum
I0313 11:35:50.152837 22390 net.cpp:131] Top shape: 1 64 1 80 (5120)
I0313 11:35:50.152842 22390 net.cpp:139] Memory required for data: 318054400
I0313 11:35:50.152849 22390 layer_factory.hpp:77] Creating layer SCNN_D_5_SCNN_D_4/sum_0_split
I0313 11:35:50.152858 22390 net.cpp:86] Creating Layer SCNN_D_5_SCNN_D_4/sum_0_split
I0313 11:35:50.152868 22390 net.cpp:408] SCNN_D_5_SCNN_D_4/sum_0_split <- SCNN_D_5
I0313 11:35:50.152879 22390 net.cpp:382] SCNN_D_5_SCNN_D_4/sum_0_split -> SCNN_D_5_SCNN_D_4/sum_0_split_0
I0313 11:35:50.152894 22390 net.cpp:382] SCNN_D_5_SCNN_D_4/sum_0_split -> SCNN_D_5_SCNN_D_4/sum_0_split_1
I0313 11:35:50.152961 22390 net.cpp:124] Setting up SCNN_D_5_SCNN_D_4/sum_0_split
I0313 11:35:50.152973 22390 net.cpp:131] Top shape: 1 64 1 80 (5120)
I0313 11:35:50.152982 22390 net.cpp:131] Top shape: 1 64 1 80 (5120)
I0313 11:35:50.152989 22390 net.cpp:139] Memory required for data: 318095360
I0313 11:35:50.152997 22390 layer_factory.hpp:77] Creating layer SCNN_D_5
I0313 11:35:50.153009 22390 net.cpp:86] Creating Layer SCNN_D_5
I0313 11:35:50.153019 22390 net.cpp:408] SCNN_D_5 <- SCNN_D_5_SCNN_D_4/sum_0_split_0
I0313 11:35:50.153031 22390 net.cpp:382] SCNN_D_5 -> SCNN_D_5/message
I0313 11:35:50.155165 22390 net.cpp:124] Setting up SCNN_D_5
I0313 11:35:50.155191 22390 net.cpp:131] Top shape: 1 64 1 80 (5120)
I0313 11:35:50.155198 22390 net.cpp:139] Memory required for data: 318115840
I0313 11:35:50.155210 22390 net.cpp:467] Sharing parameters 'SCNN_D_w' owned by layer 'SCNN_D_1', param index 0
I0313 11:35:50.155217 22390 layer_factory.hpp:77] Creating layer SCNN_D_5/relu
I0313 11:35:50.155228 22390 net.cpp:86] Creating Layer SCNN_D_5/relu
I0313 11:35:50.155239 22390 net.cpp:408] SCNN_D_5/relu <- SCNN_D_5/message
I0313 11:35:50.155252 22390 net.cpp:369] SCNN_D_5/relu -> SCNN_D_5/message (in-place)
I0313 11:35:50.155475 22390 net.cpp:124] Setting up SCNN_D_5/relu
I0313 11:35:50.155490 22390 net.cpp:131] Top shape: 1 64 1 80 (5120)
I0313 11:35:50.155498 22390 net.cpp:139] Memory required for data: 318136320
I0313 11:35:50.155504 22390 layer_factory.hpp:77] Creating layer SCNN_D_5/sum
I0313 11:35:50.155514 22390 net.cpp:86] Creating Layer SCNN_D_5/sum
I0313 11:35:50.155524 22390 net.cpp:408] SCNN_D_5/sum <- SCNN_D_5/message
I0313 11:35:50.155539 22390 net.cpp:408] SCNN_D_5/sum <- slice1_6
I0313 11:35:50.155548 22390 net.cpp:382] SCNN_D_5/sum -> SCNN_D_6
I0313 11:35:50.155611 22390 net.cpp:124] Setting up SCNN_D_5/sum
I0313 11:35:50.155627 22390 net.cpp:131] Top shape: 1 64 1 80 (5120)
I0313 11:35:50.155632 22390 net.cpp:139] Memory required for data: 318156800
I0313 11:35:50.155639 22390 layer_factory.hpp:77] Creating layer SCNN_D_6_SCNN_D_5/sum_0_split
I0313 11:35:50.155649 22390 net.cpp:86] Creating Layer SCNN_D_6_SCNN_D_5/sum_0_split
I0313 11:35:50.155659 22390 net.cpp:408] SCNN_D_6_SCNN_D_5/sum_0_split <- SCNN_D_6
I0313 11:35:50.155671 22390 net.cpp:382] SCNN_D_6_SCNN_D_5/sum_0_split -> SCNN_D_6_SCNN_D_5/sum_0_split_0
I0313 11:35:50.155684 22390 net.cpp:382] SCNN_D_6_SCNN_D_5/sum_0_split -> SCNN_D_6_SCNN_D_5/sum_0_split_1
I0313 11:35:50.155755 22390 net.cpp:124] Setting up SCNN_D_6_SCNN_D_5/sum_0_split
I0313 11:35:50.155767 22390 net.cpp:131] Top shape: 1 64 1 80 (5120)
I0313 11:35:50.155776 22390 net.cpp:131] Top shape: 1 64 1 80 (5120)
I0313 11:35:50.155781 22390 net.cpp:139] Memory required for data: 318197760
I0313 11:35:50.155786 22390 layer_factory.hpp:77] Creating layer SCNN_D_6
I0313 11:35:50.155797 22390 net.cpp:86] Creating Layer SCNN_D_6
I0313 11:35:50.155807 22390 net.cpp:408] SCNN_D_6 <- SCNN_D_6_SCNN_D_5/sum_0_split_0
I0313 11:35:50.155820 22390 net.cpp:382] SCNN_D_6 -> SCNN_D_6/message
I0313 11:35:50.159467 22390 net.cpp:124] Setting up SCNN_D_6
I0313 11:35:50.159508 22390 net.cpp:131] Top shape: 1 64 1 80 (5120)
I0313 11:35:50.159516 22390 net.cpp:139] Memory required for data: 318218240
I0313 11:35:50.159530 22390 net.cpp:467] Sharing parameters 'SCNN_D_w' owned by layer 'SCNN_D_1', param index 0
I0313 11:35:50.159538 22390 layer_factory.hpp:77] Creating layer SCNN_D_6/relu
I0313 11:35:50.159566 22390 net.cpp:86] Creating Layer SCNN_D_6/relu
I0313 11:35:50.159591 22390 net.cpp:408] SCNN_D_6/relu <- SCNN_D_6/message
I0313 11:35:50.159617 22390 net.cpp:369] SCNN_D_6/relu -> SCNN_D_6/message (in-place)
I0313 11:35:50.160181 22390 net.cpp:124] Setting up SCNN_D_6/relu
I0313 11:35:50.160198 22390 net.cpp:131] Top shape: 1 64 1 80 (5120)
I0313 11:35:50.160207 22390 net.cpp:139] Memory required for data: 318238720
I0313 11:35:50.160218 22390 layer_factory.hpp:77] Creating layer SCNN_D_6/sum
I0313 11:35:50.160228 22390 net.cpp:86] Creating Layer SCNN_D_6/sum
I0313 11:35:50.160240 22390 net.cpp:408] SCNN_D_6/sum <- SCNN_D_6/message
I0313 11:35:50.160254 22390 net.cpp:408] SCNN_D_6/sum <- slice1_7
I0313 11:35:50.160264 22390 net.cpp:382] SCNN_D_6/sum -> SCNN_D_7
I0313 11:35:50.160326 22390 net.cpp:124] Setting up SCNN_D_6/sum
I0313 11:35:50.160341 22390 net.cpp:131] Top shape: 1 64 1 80 (5120)
I0313 11:35:50.160347 22390 net.cpp:139] Memory required for data: 318259200
I0313 11:35:50.160353 22390 layer_factory.hpp:77] Creating layer SCNN_D_7_SCNN_D_6/sum_0_split
I0313 11:35:50.160363 22390 net.cpp:86] Creating Layer SCNN_D_7_SCNN_D_6/sum_0_split
I0313 11:35:50.160373 22390 net.cpp:408] SCNN_D_7_SCNN_D_6/sum_0_split <- SCNN_D_7
I0313 11:35:50.160385 22390 net.cpp:382] SCNN_D_7_SCNN_D_6/sum_0_split -> SCNN_D_7_SCNN_D_6/sum_0_split_0
I0313 11:35:50.160400 22390 net.cpp:382] SCNN_D_7_SCNN_D_6/sum_0_split -> SCNN_D_7_SCNN_D_6/sum_0_split_1
I0313 11:35:50.160470 22390 net.cpp:124] Setting up SCNN_D_7_SCNN_D_6/sum_0_split
I0313 11:35:50.160482 22390 net.cpp:131] Top shape: 1 64 1 80 (5120)
I0313 11:35:50.160491 22390 net.cpp:131] Top shape: 1 64 1 80 (5120)
I0313 11:35:50.160497 22390 net.cpp:139] Memory required for data: 318300160
I0313 11:35:50.160504 22390 layer_factory.hpp:77] Creating layer SCNN_D_7
I0313 11:35:50.160519 22390 net.cpp:86] Creating Layer SCNN_D_7
I0313 11:35:50.160531 22390 net.cpp:408] SCNN_D_7 <- SCNN_D_7_SCNN_D_6/sum_0_split_0
I0313 11:35:50.160543 22390 net.cpp:382] SCNN_D_7 -> SCNN_D_7/message
I0313 11:35:50.162722 22390 net.cpp:124] Setting up SCNN_D_7
I0313 11:35:50.162747 22390 net.cpp:131] Top shape: 1 64 1 80 (5120)
I0313 11:35:50.162755 22390 net.cpp:139] Memory required for data: 318320640
I0313 11:35:50.162766 22390 net.cpp:467] Sharing parameters 'SCNN_D_w' owned by layer 'SCNN_D_1', param index 0
I0313 11:35:50.162773 22390 layer_factory.hpp:77] Creating layer SCNN_D_7/relu
I0313 11:35:50.162786 22390 net.cpp:86] Creating Layer SCNN_D_7/relu
I0313 11:35:50.162796 22390 net.cpp:408] SCNN_D_7/relu <- SCNN_D_7/message
I0313 11:35:50.162809 22390 net.cpp:369] SCNN_D_7/relu -> SCNN_D_7/message (in-place)
I0313 11:35:50.163039 22390 net.cpp:124] Setting up SCNN_D_7/relu
I0313 11:35:50.163054 22390 net.cpp:131] Top shape: 1 64 1 80 (5120)
I0313 11:35:50.163061 22390 net.cpp:139] Memory required for data: 318341120
I0313 11:35:50.163069 22390 layer_factory.hpp:77] Creating layer SCNN_D_7/sum
I0313 11:35:50.163079 22390 net.cpp:86] Creating Layer SCNN_D_7/sum
I0313 11:35:50.163089 22390 net.cpp:408] SCNN_D_7/sum <- SCNN_D_7/message
I0313 11:35:50.163102 22390 net.cpp:408] SCNN_D_7/sum <- slice1_8
I0313 11:35:50.163113 22390 net.cpp:382] SCNN_D_7/sum -> SCNN_D_8
I0313 11:35:50.163168 22390 net.cpp:124] Setting up SCNN_D_7/sum
I0313 11:35:50.163182 22390 net.cpp:131] Top shape: 1 64 1 80 (5120)
I0313 11:35:50.163189 22390 net.cpp:139] Memory required for data: 318361600
I0313 11:35:50.163195 22390 layer_factory.hpp:77] Creating layer SCNN_D_8_SCNN_D_7/sum_0_split
I0313 11:35:50.163205 22390 net.cpp:86] Creating Layer SCNN_D_8_SCNN_D_7/sum_0_split
I0313 11:35:50.163215 22390 net.cpp:408] SCNN_D_8_SCNN_D_7/sum_0_split <- SCNN_D_8
I0313 11:35:50.163226 22390 net.cpp:382] SCNN_D_8_SCNN_D_7/sum_0_split -> SCNN_D_8_SCNN_D_7/sum_0_split_0
I0313 11:35:50.163240 22390 net.cpp:382] SCNN_D_8_SCNN_D_7/sum_0_split -> SCNN_D_8_SCNN_D_7/sum_0_split_1
I0313 11:35:50.163308 22390 net.cpp:124] Setting up SCNN_D_8_SCNN_D_7/sum_0_split
I0313 11:35:50.163321 22390 net.cpp:131] Top shape: 1 64 1 80 (5120)
I0313 11:35:50.163331 22390 net.cpp:131] Top shape: 1 64 1 80 (5120)
I0313 11:35:50.163337 22390 net.cpp:139] Memory required for data: 318402560
I0313 11:35:50.163344 22390 layer_factory.hpp:77] Creating layer SCNN_D_8
I0313 11:35:50.163357 22390 net.cpp:86] Creating Layer SCNN_D_8
I0313 11:35:50.163367 22390 net.cpp:408] SCNN_D_8 <- SCNN_D_8_SCNN_D_7/sum_0_split_0
I0313 11:35:50.163380 22390 net.cpp:382] SCNN_D_8 -> SCNN_D_8/message
I0313 11:35:50.165571 22390 net.cpp:124] Setting up SCNN_D_8
I0313 11:35:50.165597 22390 net.cpp:131] Top shape: 1 64 1 80 (5120)
I0313 11:35:50.165606 22390 net.cpp:139] Memory required for data: 318423040
I0313 11:35:50.165616 22390 net.cpp:467] Sharing parameters 'SCNN_D_w' owned by layer 'SCNN_D_1', param index 0
I0313 11:35:50.165624 22390 layer_factory.hpp:77] Creating layer SCNN_D_8/relu
I0313 11:35:50.165635 22390 net.cpp:86] Creating Layer SCNN_D_8/relu
I0313 11:35:50.165647 22390 net.cpp:408] SCNN_D_8/relu <- SCNN_D_8/message
I0313 11:35:50.165659 22390 net.cpp:369] SCNN_D_8/relu -> SCNN_D_8/message (in-place)
I0313 11:35:50.165900 22390 net.cpp:124] Setting up SCNN_D_8/relu
I0313 11:35:50.165915 22390 net.cpp:131] Top shape: 1 64 1 80 (5120)
I0313 11:35:50.165922 22390 net.cpp:139] Memory required for data: 318443520
I0313 11:35:50.165930 22390 layer_factory.hpp:77] Creating layer SCNN_D_8/sum
I0313 11:35:50.165940 22390 net.cpp:86] Creating Layer SCNN_D_8/sum
I0313 11:35:50.165951 22390 net.cpp:408] SCNN_D_8/sum <- SCNN_D_8/message
I0313 11:35:50.165964 22390 net.cpp:408] SCNN_D_8/sum <- slice1_9
I0313 11:35:50.165974 22390 net.cpp:382] SCNN_D_8/sum -> SCNN_D_9
I0313 11:35:50.166044 22390 net.cpp:124] Setting up SCNN_D_8/sum
I0313 11:35:50.166064 22390 net.cpp:131] Top shape: 1 64 1 80 (5120)
I0313 11:35:50.166070 22390 net.cpp:139] Memory required for data: 318464000
I0313 11:35:50.166077 22390 layer_factory.hpp:77] Creating layer SCNN_D_9_SCNN_D_8/sum_0_split
I0313 11:35:50.166087 22390 net.cpp:86] Creating Layer SCNN_D_9_SCNN_D_8/sum_0_split
I0313 11:35:50.166097 22390 net.cpp:408] SCNN_D_9_SCNN_D_8/sum_0_split <- SCNN_D_9
I0313 11:35:50.166110 22390 net.cpp:382] SCNN_D_9_SCNN_D_8/sum_0_split -> SCNN_D_9_SCNN_D_8/sum_0_split_0
I0313 11:35:50.166124 22390 net.cpp:382] SCNN_D_9_SCNN_D_8/sum_0_split -> SCNN_D_9_SCNN_D_8/sum_0_split_1
I0313 11:35:50.166193 22390 net.cpp:124] Setting up SCNN_D_9_SCNN_D_8/sum_0_split
I0313 11:35:50.166205 22390 net.cpp:131] Top shape: 1 64 1 80 (5120)
I0313 11:35:50.166214 22390 net.cpp:131] Top shape: 1 64 1 80 (5120)
I0313 11:35:50.166220 22390 net.cpp:139] Memory required for data: 318504960
I0313 11:35:50.166227 22390 layer_factory.hpp:77] Creating layer SCNN_D_9
I0313 11:35:50.166241 22390 net.cpp:86] Creating Layer SCNN_D_9
I0313 11:35:50.166252 22390 net.cpp:408] SCNN_D_9 <- SCNN_D_9_SCNN_D_8/sum_0_split_0
I0313 11:35:50.166265 22390 net.cpp:382] SCNN_D_9 -> SCNN_D_9/message
I0313 11:35:50.170063 22390 net.cpp:124] Setting up SCNN_D_9
I0313 11:35:50.170104 22390 net.cpp:131] Top shape: 1 64 1 80 (5120)
I0313 11:35:50.170111 22390 net.cpp:139] Memory required for data: 318525440
I0313 11:35:50.170125 22390 net.cpp:467] Sharing parameters 'SCNN_D_w' owned by layer 'SCNN_D_1', param index 0
I0313 11:35:50.170131 22390 layer_factory.hpp:77] Creating layer SCNN_D_9/relu
I0313 11:35:50.170145 22390 net.cpp:86] Creating Layer SCNN_D_9/relu
I0313 11:35:50.170159 22390 net.cpp:408] SCNN_D_9/relu <- SCNN_D_9/message
I0313 11:35:50.170176 22390 net.cpp:369] SCNN_D_9/relu -> SCNN_D_9/message (in-place)
I0313 11:35:50.170441 22390 net.cpp:124] Setting up SCNN_D_9/relu
I0313 11:35:50.170459 22390 net.cpp:131] Top shape: 1 64 1 80 (5120)
I0313 11:35:50.170465 22390 net.cpp:139] Memory required for data: 318545920
I0313 11:35:50.170473 22390 layer_factory.hpp:77] Creating layer SCNN_D_9/sum
I0313 11:35:50.170485 22390 net.cpp:86] Creating Layer SCNN_D_9/sum
I0313 11:35:50.170495 22390 net.cpp:408] SCNN_D_9/sum <- SCNN_D_9/message
I0313 11:35:50.170508 22390 net.cpp:408] SCNN_D_9/sum <- slice1_10
I0313 11:35:50.170519 22390 net.cpp:382] SCNN_D_9/sum -> SCNN_D_10
I0313 11:35:50.170583 22390 net.cpp:124] Setting up SCNN_D_9/sum
I0313 11:35:50.170596 22390 net.cpp:131] Top shape: 1 64 1 80 (5120)
I0313 11:35:50.170603 22390 net.cpp:139] Memory required for data: 318566400
I0313 11:35:50.170609 22390 layer_factory.hpp:77] Creating layer SCNN_D_10_SCNN_D_9/sum_0_split
I0313 11:35:50.170620 22390 net.cpp:86] Creating Layer SCNN_D_10_SCNN_D_9/sum_0_split
I0313 11:35:50.170630 22390 net.cpp:408] SCNN_D_10_SCNN_D_9/sum_0_split <- SCNN_D_10
I0313 11:35:50.170644 22390 net.cpp:382] SCNN_D_10_SCNN_D_9/sum_0_split -> SCNN_D_10_SCNN_D_9/sum_0_split_0
I0313 11:35:50.170658 22390 net.cpp:382] SCNN_D_10_SCNN_D_9/sum_0_split -> SCNN_D_10_SCNN_D_9/sum_0_split_1
I0313 11:35:50.170730 22390 net.cpp:124] Setting up SCNN_D_10_SCNN_D_9/sum_0_split
I0313 11:35:50.170744 22390 net.cpp:131] Top shape: 1 64 1 80 (5120)
I0313 11:35:50.170753 22390 net.cpp:131] Top shape: 1 64 1 80 (5120)
I0313 11:35:50.170759 22390 net.cpp:139] Memory required for data: 318607360
I0313 11:35:50.170766 22390 layer_factory.hpp:77] Creating layer SCNN_D_10
I0313 11:35:50.170783 22390 net.cpp:86] Creating Layer SCNN_D_10
I0313 11:35:50.170794 22390 net.cpp:408] SCNN_D_10 <- SCNN_D_10_SCNN_D_9/sum_0_split_0
I0313 11:35:50.170805 22390 net.cpp:382] SCNN_D_10 -> SCNN_D_10/message
I0313 11:35:50.173411 22390 net.cpp:124] Setting up SCNN_D_10
I0313 11:35:50.173440 22390 net.cpp:131] Top shape: 1 64 1 80 (5120)
I0313 11:35:50.173449 22390 net.cpp:139] Memory required for data: 318627840
I0313 11:35:50.173460 22390 net.cpp:467] Sharing parameters 'SCNN_D_w' owned by layer 'SCNN_D_1', param index 0
I0313 11:35:50.173467 22390 layer_factory.hpp:77] Creating layer SCNN_D_10/relu
I0313 11:35:50.173480 22390 net.cpp:86] Creating Layer SCNN_D_10/relu
I0313 11:35:50.173491 22390 net.cpp:408] SCNN_D_10/relu <- SCNN_D_10/message
I0313 11:35:50.173503 22390 net.cpp:369] SCNN_D_10/relu -> SCNN_D_10/message (in-place)
I0313 11:35:50.174068 22390 net.cpp:124] Setting up SCNN_D_10/relu
I0313 11:35:50.174087 22390 net.cpp:131] Top shape: 1 64 1 80 (5120)
I0313 11:35:50.174095 22390 net.cpp:139] Memory required for data: 318648320
I0313 11:35:50.174103 22390 layer_factory.hpp:77] Creating layer SCNN_D_10/sum
I0313 11:35:50.174113 22390 net.cpp:86] Creating Layer SCNN_D_10/sum
I0313 11:35:50.174124 22390 net.cpp:408] SCNN_D_10/sum <- SCNN_D_10/message
I0313 11:35:50.174139 22390 net.cpp:408] SCNN_D_10/sum <- slice1_11
I0313 11:35:50.174149 22390 net.cpp:382] SCNN_D_10/sum -> SCNN_D_11
I0313 11:35:50.174211 22390 net.cpp:124] Setting up SCNN_D_10/sum
I0313 11:35:50.174226 22390 net.cpp:131] Top shape: 1 64 1 80 (5120)
I0313 11:35:50.174232 22390 net.cpp:139] Memory required for data: 318668800
I0313 11:35:50.174240 22390 layer_factory.hpp:77] Creating layer SCNN_D_11_SCNN_D_10/sum_0_split
I0313 11:35:50.174252 22390 net.cpp:86] Creating Layer SCNN_D_11_SCNN_D_10/sum_0_split
I0313 11:35:50.174262 22390 net.cpp:408] SCNN_D_11_SCNN_D_10/sum_0_split <- SCNN_D_11
I0313 11:35:50.174275 22390 net.cpp:382] SCNN_D_11_SCNN_D_10/sum_0_split -> SCNN_D_11_SCNN_D_10/sum_0_split_0
I0313 11:35:50.174290 22390 net.cpp:382] SCNN_D_11_SCNN_D_10/sum_0_split -> SCNN_D_11_SCNN_D_10/sum_0_split_1
I0313 11:35:50.174361 22390 net.cpp:124] Setting up SCNN_D_11_SCNN_D_10/sum_0_split
I0313 11:35:50.174377 22390 net.cpp:131] Top shape: 1 64 1 80 (5120)
I0313 11:35:50.174384 22390 net.cpp:131] Top shape: 1 64 1 80 (5120)
I0313 11:35:50.174389 22390 net.cpp:139] Memory required for data: 318709760
I0313 11:35:50.174396 22390 layer_factory.hpp:77] Creating layer SCNN_D_11
I0313 11:35:50.174410 22390 net.cpp:86] Creating Layer SCNN_D_11
I0313 11:35:50.174422 22390 net.cpp:408] SCNN_D_11 <- SCNN_D_11_SCNN_D_10/sum_0_split_0
I0313 11:35:50.174438 22390 net.cpp:382] SCNN_D_11 -> SCNN_D_11/message
I0313 11:35:50.177753 22390 net.cpp:124] Setting up SCNN_D_11
I0313 11:35:50.177793 22390 net.cpp:131] Top shape: 1 64 1 80 (5120)
I0313 11:35:50.177801 22390 net.cpp:139] Memory required for data: 318730240
I0313 11:35:50.177814 22390 net.cpp:467] Sharing parameters 'SCNN_D_w' owned by layer 'SCNN_D_1', param index 0
I0313 11:35:50.177822 22390 layer_factory.hpp:77] Creating layer SCNN_D_11/relu
I0313 11:35:50.177836 22390 net.cpp:86] Creating Layer SCNN_D_11/relu
I0313 11:35:50.177851 22390 net.cpp:408] SCNN_D_11/relu <- SCNN_D_11/message
I0313 11:35:50.177865 22390 net.cpp:369] SCNN_D_11/relu -> SCNN_D_11/message (in-place)
I0313 11:35:50.178113 22390 net.cpp:124] Setting up SCNN_D_11/relu
I0313 11:35:50.178128 22390 net.cpp:131] Top shape: 1 64 1 80 (5120)
I0313 11:35:50.178134 22390 net.cpp:139] Memory required for data: 318750720
I0313 11:35:50.178141 22390 layer_factory.hpp:77] Creating layer SCNN_D_11/sum
I0313 11:35:50.178153 22390 net.cpp:86] Creating Layer SCNN_D_11/sum
I0313 11:35:50.178164 22390 net.cpp:408] SCNN_D_11/sum <- SCNN_D_11/message
I0313 11:35:50.178179 22390 net.cpp:408] SCNN_D_11/sum <- slice1_12
I0313 11:35:50.178189 22390 net.cpp:382] SCNN_D_11/sum -> SCNN_D_12
I0313 11:35:50.178252 22390 net.cpp:124] Setting up SCNN_D_11/sum
I0313 11:35:50.178267 22390 net.cpp:131] Top shape: 1 64 1 80 (5120)
I0313 11:35:50.178273 22390 net.cpp:139] Memory required for data: 318771200
I0313 11:35:50.178280 22390 layer_factory.hpp:77] Creating layer SCNN_D_12_SCNN_D_11/sum_0_split
I0313 11:35:50.178292 22390 net.cpp:86] Creating Layer SCNN_D_12_SCNN_D_11/sum_0_split
I0313 11:35:50.178300 22390 net.cpp:408] SCNN_D_12_SCNN_D_11/sum_0_split <- SCNN_D_12
I0313 11:35:50.178314 22390 net.cpp:382] SCNN_D_12_SCNN_D_11/sum_0_split -> SCNN_D_12_SCNN_D_11/sum_0_split_0
I0313 11:35:50.178329 22390 net.cpp:382] SCNN_D_12_SCNN_D_11/sum_0_split -> SCNN_D_12_SCNN_D_11/sum_0_split_1
I0313 11:35:50.178403 22390 net.cpp:124] Setting up SCNN_D_12_SCNN_D_11/sum_0_split
I0313 11:35:50.178418 22390 net.cpp:131] Top shape: 1 64 1 80 (5120)
I0313 11:35:50.178427 22390 net.cpp:131] Top shape: 1 64 1 80 (5120)
I0313 11:35:50.178434 22390 net.cpp:139] Memory required for data: 318812160
I0313 11:35:50.178442 22390 layer_factory.hpp:77] Creating layer SCNN_D_12
I0313 11:35:50.178457 22390 net.cpp:86] Creating Layer SCNN_D_12
I0313 11:35:50.178467 22390 net.cpp:408] SCNN_D_12 <- SCNN_D_12_SCNN_D_11/sum_0_split_0
I0313 11:35:50.178483 22390 net.cpp:382] SCNN_D_12 -> SCNN_D_12/message
I0313 11:35:50.182332 22390 net.cpp:124] Setting up SCNN_D_12
I0313 11:35:50.182370 22390 net.cpp:131] Top shape: 1 64 1 80 (5120)
I0313 11:35:50.182379 22390 net.cpp:139] Memory required for data: 318832640
I0313 11:35:50.182394 22390 net.cpp:467] Sharing parameters 'SCNN_D_w' owned by layer 'SCNN_D_1', param index 0
I0313 11:35:50.182402 22390 layer_factory.hpp:77] Creating layer SCNN_D_12/relu
I0313 11:35:50.182415 22390 net.cpp:86] Creating Layer SCNN_D_12/relu
I0313 11:35:50.182431 22390 net.cpp:408] SCNN_D_12/relu <- SCNN_D_12/message
I0313 11:35:50.182447 22390 net.cpp:369] SCNN_D_12/relu -> SCNN_D_12/message (in-place)
I0313 11:35:50.182703 22390 net.cpp:124] Setting up SCNN_D_12/relu
I0313 11:35:50.182718 22390 net.cpp:131] Top shape: 1 64 1 80 (5120)
I0313 11:35:50.182724 22390 net.cpp:139] Memory required for data: 318853120
I0313 11:35:50.182731 22390 layer_factory.hpp:77] Creating layer SCNN_D_12/sum
I0313 11:35:50.182744 22390 net.cpp:86] Creating Layer SCNN_D_12/sum
I0313 11:35:50.182754 22390 net.cpp:408] SCNN_D_12/sum <- SCNN_D_12/message
I0313 11:35:50.182768 22390 net.cpp:408] SCNN_D_12/sum <- slice1_13
I0313 11:35:50.182780 22390 net.cpp:382] SCNN_D_12/sum -> SCNN_D_13
I0313 11:35:50.182842 22390 net.cpp:124] Setting up SCNN_D_12/sum
I0313 11:35:50.182855 22390 net.cpp:131] Top shape: 1 64 1 80 (5120)
I0313 11:35:50.182862 22390 net.cpp:139] Memory required for data: 318873600
I0313 11:35:50.182869 22390 layer_factory.hpp:77] Creating layer SCNN_D_13_SCNN_D_12/sum_0_split
I0313 11:35:50.182880 22390 net.cpp:86] Creating Layer SCNN_D_13_SCNN_D_12/sum_0_split
I0313 11:35:50.182890 22390 net.cpp:408] SCNN_D_13_SCNN_D_12/sum_0_split <- SCNN_D_13
I0313 11:35:50.182904 22390 net.cpp:382] SCNN_D_13_SCNN_D_12/sum_0_split -> SCNN_D_13_SCNN_D_12/sum_0_split_0
I0313 11:35:50.182919 22390 net.cpp:382] SCNN_D_13_SCNN_D_12/sum_0_split -> SCNN_D_13_SCNN_D_12/sum_0_split_1
I0313 11:35:50.182991 22390 net.cpp:124] Setting up SCNN_D_13_SCNN_D_12/sum_0_split
I0313 11:35:50.183006 22390 net.cpp:131] Top shape: 1 64 1 80 (5120)
I0313 11:35:50.183014 22390 net.cpp:131] Top shape: 1 64 1 80 (5120)
I0313 11:35:50.183022 22390 net.cpp:139] Memory required for data: 318914560
I0313 11:35:50.183028 22390 layer_factory.hpp:77] Creating layer SCNN_D_13
I0313 11:35:50.183045 22390 net.cpp:86] Creating Layer SCNN_D_13
I0313 11:35:50.183056 22390 net.cpp:408] SCNN_D_13 <- SCNN_D_13_SCNN_D_12/sum_0_split_0
I0313 11:35:50.183071 22390 net.cpp:382] SCNN_D_13 -> SCNN_D_13/message
I0313 11:35:50.185345 22390 net.cpp:124] Setting up SCNN_D_13
I0313 11:35:50.185372 22390 net.cpp:131] Top shape: 1 64 1 80 (5120)
I0313 11:35:50.185380 22390 net.cpp:139] Memory required for data: 318935040
I0313 11:35:50.185392 22390 net.cpp:467] Sharing parameters 'SCNN_D_w' owned by layer 'SCNN_D_1', param index 0
I0313 11:35:50.185400 22390 layer_factory.hpp:77] Creating layer SCNN_D_13/relu
I0313 11:35:50.185410 22390 net.cpp:86] Creating Layer SCNN_D_13/relu
I0313 11:35:50.185420 22390 net.cpp:408] SCNN_D_13/relu <- SCNN_D_13/message
I0313 11:35:50.185433 22390 net.cpp:369] SCNN_D_13/relu -> SCNN_D_13/message (in-place)
I0313 11:35:50.185685 22390 net.cpp:124] Setting up SCNN_D_13/relu
I0313 11:35:50.185700 22390 net.cpp:131] Top shape: 1 64 1 80 (5120)
I0313 11:35:50.185708 22390 net.cpp:139] Memory required for data: 318955520
I0313 11:35:50.185714 22390 layer_factory.hpp:77] Creating layer SCNN_D_13/sum
I0313 11:35:50.185724 22390 net.cpp:86] Creating Layer SCNN_D_13/sum
I0313 11:35:50.185734 22390 net.cpp:408] SCNN_D_13/sum <- SCNN_D_13/message
I0313 11:35:50.185747 22390 net.cpp:408] SCNN_D_13/sum <- slice1_14
I0313 11:35:50.185760 22390 net.cpp:382] SCNN_D_13/sum -> SCNN_D_14
I0313 11:35:50.185815 22390 net.cpp:124] Setting up SCNN_D_13/sum
I0313 11:35:50.185830 22390 net.cpp:131] Top shape: 1 64 1 80 (5120)
I0313 11:35:50.185837 22390 net.cpp:139] Memory required for data: 318976000
I0313 11:35:50.185844 22390 layer_factory.hpp:77] Creating layer SCNN_D_14_SCNN_D_13/sum_0_split
I0313 11:35:50.185856 22390 net.cpp:86] Creating Layer SCNN_D_14_SCNN_D_13/sum_0_split
I0313 11:35:50.185868 22390 net.cpp:408] SCNN_D_14_SCNN_D_13/sum_0_split <- SCNN_D_14
I0313 11:35:50.185879 22390 net.cpp:382] SCNN_D_14_SCNN_D_13/sum_0_split -> SCNN_D_14_SCNN_D_13/sum_0_split_0
I0313 11:35:50.185894 22390 net.cpp:382] SCNN_D_14_SCNN_D_13/sum_0_split -> SCNN_D_14_SCNN_D_13/sum_0_split_1
I0313 11:35:50.185967 22390 net.cpp:124] Setting up SCNN_D_14_SCNN_D_13/sum_0_split
I0313 11:35:50.185981 22390 net.cpp:131] Top shape: 1 64 1 80 (5120)
I0313 11:35:50.185989 22390 net.cpp:131] Top shape: 1 64 1 80 (5120)
I0313 11:35:50.185995 22390 net.cpp:139] Memory required for data: 319016960
I0313 11:35:50.186002 22390 layer_factory.hpp:77] Creating layer SCNN_D_14
I0313 11:35:50.186017 22390 net.cpp:86] Creating Layer SCNN_D_14
I0313 11:35:50.186028 22390 net.cpp:408] SCNN_D_14 <- SCNN_D_14_SCNN_D_13/sum_0_split_0
I0313 11:35:50.186044 22390 net.cpp:382] SCNN_D_14 -> SCNN_D_14/message
I0313 11:35:50.188295 22390 net.cpp:124] Setting up SCNN_D_14
I0313 11:35:50.188323 22390 net.cpp:131] Top shape: 1 64 1 80 (5120)
I0313 11:35:50.188331 22390 net.cpp:139] Memory required for data: 319037440
I0313 11:35:50.188340 22390 net.cpp:467] Sharing parameters 'SCNN_D_w' owned by layer 'SCNN_D_1', param index 0
I0313 11:35:50.188346 22390 layer_factory.hpp:77] Creating layer SCNN_D_14/relu
I0313 11:35:50.188356 22390 net.cpp:86] Creating Layer SCNN_D_14/relu
I0313 11:35:50.188369 22390 net.cpp:408] SCNN_D_14/relu <- SCNN_D_14/message
I0313 11:35:50.188383 22390 net.cpp:369] SCNN_D_14/relu -> SCNN_D_14/message (in-place)
I0313 11:35:50.188630 22390 net.cpp:124] Setting up SCNN_D_14/relu
I0313 11:35:50.188644 22390 net.cpp:131] Top shape: 1 64 1 80 (5120)
I0313 11:35:50.188652 22390 net.cpp:139] Memory required for data: 319057920
I0313 11:35:50.188657 22390 layer_factory.hpp:77] Creating layer SCNN_D_14/sum
I0313 11:35:50.188668 22390 net.cpp:86] Creating Layer SCNN_D_14/sum
I0313 11:35:50.188679 22390 net.cpp:408] SCNN_D_14/sum <- SCNN_D_14/message
I0313 11:35:50.188693 22390 net.cpp:408] SCNN_D_14/sum <- slice1_15
I0313 11:35:50.188702 22390 net.cpp:382] SCNN_D_14/sum -> SCNN_D_15
I0313 11:35:50.188760 22390 net.cpp:124] Setting up SCNN_D_14/sum
I0313 11:35:50.188774 22390 net.cpp:131] Top shape: 1 64 1 80 (5120)
I0313 11:35:50.188781 22390 net.cpp:139] Memory required for data: 319078400
I0313 11:35:50.188788 22390 layer_factory.hpp:77] Creating layer SCNN_D_15_SCNN_D_14/sum_0_split
I0313 11:35:50.188799 22390 net.cpp:86] Creating Layer SCNN_D_15_SCNN_D_14/sum_0_split
I0313 11:35:50.188809 22390 net.cpp:408] SCNN_D_15_SCNN_D_14/sum_0_split <- SCNN_D_15
I0313 11:35:50.188825 22390 net.cpp:382] SCNN_D_15_SCNN_D_14/sum_0_split -> SCNN_D_15_SCNN_D_14/sum_0_split_0
I0313 11:35:50.188840 22390 net.cpp:382] SCNN_D_15_SCNN_D_14/sum_0_split -> SCNN_D_15_SCNN_D_14/sum_0_split_1
I0313 11:35:50.188911 22390 net.cpp:124] Setting up SCNN_D_15_SCNN_D_14/sum_0_split
I0313 11:35:50.188926 22390 net.cpp:131] Top shape: 1 64 1 80 (5120)
I0313 11:35:50.188936 22390 net.cpp:131] Top shape: 1 64 1 80 (5120)
I0313 11:35:50.188942 22390 net.cpp:139] Memory required for data: 319119360
I0313 11:35:50.188949 22390 layer_factory.hpp:77] Creating layer SCNN_D_15
I0313 11:35:50.188963 22390 net.cpp:86] Creating Layer SCNN_D_15
I0313 11:35:50.188974 22390 net.cpp:408] SCNN_D_15 <- SCNN_D_15_SCNN_D_14/sum_0_split_0
I0313 11:35:50.188989 22390 net.cpp:382] SCNN_D_15 -> SCNN_D_15/message
I0313 11:35:50.191227 22390 net.cpp:124] Setting up SCNN_D_15
I0313 11:35:50.191254 22390 net.cpp:131] Top shape: 1 64 1 80 (5120)
I0313 11:35:50.191262 22390 net.cpp:139] Memory required for data: 319139840
I0313 11:35:50.191273 22390 net.cpp:467] Sharing parameters 'SCNN_D_w' owned by layer 'SCNN_D_1', param index 0
I0313 11:35:50.191280 22390 layer_factory.hpp:77] Creating layer SCNN_D_15/relu
I0313 11:35:50.191293 22390 net.cpp:86] Creating Layer SCNN_D_15/relu
I0313 11:35:50.191303 22390 net.cpp:408] SCNN_D_15/relu <- SCNN_D_15/message
I0313 11:35:50.191316 22390 net.cpp:369] SCNN_D_15/relu -> SCNN_D_15/message (in-place)
I0313 11:35:50.193593 22390 net.cpp:124] Setting up SCNN_D_15/relu
I0313 11:35:50.193624 22390 net.cpp:131] Top shape: 1 64 1 80 (5120)
I0313 11:35:50.193630 22390 net.cpp:139] Memory required for data: 319160320
I0313 11:35:50.193636 22390 layer_factory.hpp:77] Creating layer SCNN_D_15/sum
I0313 11:35:50.193658 22390 net.cpp:86] Creating Layer SCNN_D_15/sum
I0313 11:35:50.193676 22390 net.cpp:408] SCNN_D_15/sum <- SCNN_D_15/message
I0313 11:35:50.193694 22390 net.cpp:408] SCNN_D_15/sum <- slice1_16
I0313 11:35:50.193706 22390 net.cpp:382] SCNN_D_15/sum -> SCNN_D_16
I0313 11:35:50.193778 22390 net.cpp:124] Setting up SCNN_D_15/sum
I0313 11:35:50.193795 22390 net.cpp:131] Top shape: 1 64 1 80 (5120)
I0313 11:35:50.193801 22390 net.cpp:139] Memory required for data: 319180800
I0313 11:35:50.193807 22390 layer_factory.hpp:77] Creating layer SCNN_D_16_SCNN_D_15/sum_0_split
I0313 11:35:50.193820 22390 net.cpp:86] Creating Layer SCNN_D_16_SCNN_D_15/sum_0_split
I0313 11:35:50.193830 22390 net.cpp:408] SCNN_D_16_SCNN_D_15/sum_0_split <- SCNN_D_16
I0313 11:35:50.193846 22390 net.cpp:382] SCNN_D_16_SCNN_D_15/sum_0_split -> SCNN_D_16_SCNN_D_15/sum_0_split_0
I0313 11:35:50.193858 22390 net.cpp:382] SCNN_D_16_SCNN_D_15/sum_0_split -> SCNN_D_16_SCNN_D_15/sum_0_split_1
I0313 11:35:50.193933 22390 net.cpp:124] Setting up SCNN_D_16_SCNN_D_15/sum_0_split
I0313 11:35:50.193946 22390 net.cpp:131] Top shape: 1 64 1 80 (5120)
I0313 11:35:50.193955 22390 net.cpp:131] Top shape: 1 64 1 80 (5120)
I0313 11:35:50.193961 22390 net.cpp:139] Memory required for data: 319221760
I0313 11:35:50.193969 22390 layer_factory.hpp:77] Creating layer SCNN_D_16
I0313 11:35:50.193986 22390 net.cpp:86] Creating Layer SCNN_D_16
I0313 11:35:50.193996 22390 net.cpp:408] SCNN_D_16 <- SCNN_D_16_SCNN_D_15/sum_0_split_0
I0313 11:35:50.194011 22390 net.cpp:382] SCNN_D_16 -> SCNN_D_16/message
I0313 11:35:50.196319 22390 net.cpp:124] Setting up SCNN_D_16
I0313 11:35:50.196350 22390 net.cpp:131] Top shape: 1 64 1 80 (5120)
I0313 11:35:50.196358 22390 net.cpp:139] Memory required for data: 319242240
I0313 11:35:50.196369 22390 net.cpp:467] Sharing parameters 'SCNN_D_w' owned by layer 'SCNN_D_1', param index 0
I0313 11:35:50.196377 22390 layer_factory.hpp:77] Creating layer SCNN_D_16/relu
I0313 11:35:50.196388 22390 net.cpp:86] Creating Layer SCNN_D_16/relu
I0313 11:35:50.196399 22390 net.cpp:408] SCNN_D_16/relu <- SCNN_D_16/message
I0313 11:35:50.196413 22390 net.cpp:369] SCNN_D_16/relu -> SCNN_D_16/message (in-place)
I0313 11:35:50.196669 22390 net.cpp:124] Setting up SCNN_D_16/relu
I0313 11:35:50.196686 22390 net.cpp:131] Top shape: 1 64 1 80 (5120)
I0313 11:35:50.196692 22390 net.cpp:139] Memory required for data: 319262720
I0313 11:35:50.196699 22390 layer_factory.hpp:77] Creating layer SCNN_D_16/sum
I0313 11:35:50.196710 22390 net.cpp:86] Creating Layer SCNN_D_16/sum
I0313 11:35:50.196722 22390 net.cpp:408] SCNN_D_16/sum <- SCNN_D_16/message
I0313 11:35:50.196734 22390 net.cpp:408] SCNN_D_16/sum <- slice1_17
I0313 11:35:50.196745 22390 net.cpp:382] SCNN_D_16/sum -> SCNN_D_17
I0313 11:35:50.196805 22390 net.cpp:124] Setting up SCNN_D_16/sum
I0313 11:35:50.196820 22390 net.cpp:131] Top shape: 1 64 1 80 (5120)
I0313 11:35:50.196826 22390 net.cpp:139] Memory required for data: 319283200
I0313 11:35:50.196833 22390 layer_factory.hpp:77] Creating layer SCNN_D_17_SCNN_D_16/sum_0_split
I0313 11:35:50.196844 22390 net.cpp:86] Creating Layer SCNN_D_17_SCNN_D_16/sum_0_split
I0313 11:35:50.196857 22390 net.cpp:408] SCNN_D_17_SCNN_D_16/sum_0_split <- SCNN_D_17
I0313 11:35:50.196869 22390 net.cpp:382] SCNN_D_17_SCNN_D_16/sum_0_split -> SCNN_D_17_SCNN_D_16/sum_0_split_0
I0313 11:35:50.196883 22390 net.cpp:382] SCNN_D_17_SCNN_D_16/sum_0_split -> SCNN_D_17_SCNN_D_16/sum_0_split_1
I0313 11:35:50.196960 22390 net.cpp:124] Setting up SCNN_D_17_SCNN_D_16/sum_0_split
I0313 11:35:50.196974 22390 net.cpp:131] Top shape: 1 64 1 80 (5120)
I0313 11:35:50.196981 22390 net.cpp:131] Top shape: 1 64 1 80 (5120)
I0313 11:35:50.196988 22390 net.cpp:139] Memory required for data: 319324160
I0313 11:35:50.196995 22390 layer_factory.hpp:77] Creating layer SCNN_D_17
I0313 11:35:50.197011 22390 net.cpp:86] Creating Layer SCNN_D_17
I0313 11:35:50.197021 22390 net.cpp:408] SCNN_D_17 <- SCNN_D_17_SCNN_D_16/sum_0_split_0
I0313 11:35:50.197034 22390 net.cpp:382] SCNN_D_17 -> SCNN_D_17/message
I0313 11:35:50.199299 22390 net.cpp:124] Setting up SCNN_D_17
I0313 11:35:50.199324 22390 net.cpp:131] Top shape: 1 64 1 80 (5120)
I0313 11:35:50.199332 22390 net.cpp:139] Memory required for data: 319344640
I0313 11:35:50.199344 22390 net.cpp:467] Sharing parameters 'SCNN_D_w' owned by layer 'SCNN_D_1', param index 0
I0313 11:35:50.199352 22390 layer_factory.hpp:77] Creating layer SCNN_D_17/relu
I0313 11:35:50.199363 22390 net.cpp:86] Creating Layer SCNN_D_17/relu
I0313 11:35:50.199374 22390 net.cpp:408] SCNN_D_17/relu <- SCNN_D_17/message
I0313 11:35:50.199389 22390 net.cpp:369] SCNN_D_17/relu -> SCNN_D_17/message (in-place)
I0313 11:35:50.199640 22390 net.cpp:124] Setting up SCNN_D_17/relu
I0313 11:35:50.199652 22390 net.cpp:131] Top shape: 1 64 1 80 (5120)
I0313 11:35:50.199657 22390 net.cpp:139] Memory required for data: 319365120
I0313 11:35:50.199661 22390 layer_factory.hpp:77] Creating layer SCNN_D_17/sum
I0313 11:35:50.199669 22390 net.cpp:86] Creating Layer SCNN_D_17/sum
I0313 11:35:50.199676 22390 net.cpp:408] SCNN_D_17/sum <- SCNN_D_17/message
I0313 11:35:50.199688 22390 net.cpp:408] SCNN_D_17/sum <- slice1_18
I0313 11:35:50.199697 22390 net.cpp:382] SCNN_D_17/sum -> SCNN_D_18
I0313 11:35:50.199744 22390 net.cpp:124] Setting up SCNN_D_17/sum
I0313 11:35:50.199755 22390 net.cpp:131] Top shape: 1 64 1 80 (5120)
I0313 11:35:50.199760 22390 net.cpp:139] Memory required for data: 319385600
I0313 11:35:50.199764 22390 layer_factory.hpp:77] Creating layer SCNN_D_18_SCNN_D_17/sum_0_split
I0313 11:35:50.199770 22390 net.cpp:86] Creating Layer SCNN_D_18_SCNN_D_17/sum_0_split
I0313 11:35:50.199777 22390 net.cpp:408] SCNN_D_18_SCNN_D_17/sum_0_split <- SCNN_D_18
I0313 11:35:50.199787 22390 net.cpp:382] SCNN_D_18_SCNN_D_17/sum_0_split -> SCNN_D_18_SCNN_D_17/sum_0_split_0
I0313 11:35:50.199800 22390 net.cpp:382] SCNN_D_18_SCNN_D_17/sum_0_split -> SCNN_D_18_SCNN_D_17/sum_0_split_1
I0313 11:35:50.199856 22390 net.cpp:124] Setting up SCNN_D_18_SCNN_D_17/sum_0_split
I0313 11:35:50.199867 22390 net.cpp:131] Top shape: 1 64 1 80 (5120)
I0313 11:35:50.199874 22390 net.cpp:131] Top shape: 1 64 1 80 (5120)
I0313 11:35:50.199878 22390 net.cpp:139] Memory required for data: 319426560
I0313 11:35:50.199882 22390 layer_factory.hpp:77] Creating layer SCNN_D_18
I0313 11:35:50.199894 22390 net.cpp:86] Creating Layer SCNN_D_18
I0313 11:35:50.199903 22390 net.cpp:408] SCNN_D_18 <- SCNN_D_18_SCNN_D_17/sum_0_split_0
I0313 11:35:50.199913 22390 net.cpp:382] SCNN_D_18 -> SCNN_D_18/message
I0313 11:35:50.201551 22390 net.cpp:124] Setting up SCNN_D_18
I0313 11:35:50.201571 22390 net.cpp:131] Top shape: 1 64 1 80 (5120)
I0313 11:35:50.201577 22390 net.cpp:139] Memory required for data: 319447040
I0313 11:35:50.201586 22390 net.cpp:467] Sharing parameters 'SCNN_D_w' owned by layer 'SCNN_D_1', param index 0
I0313 11:35:50.201592 22390 layer_factory.hpp:77] Creating layer SCNN_D_18/relu
I0313 11:35:50.201601 22390 net.cpp:86] Creating Layer SCNN_D_18/relu
I0313 11:35:50.201611 22390 net.cpp:408] SCNN_D_18/relu <- SCNN_D_18/message
I0313 11:35:50.201622 22390 net.cpp:369] SCNN_D_18/relu -> SCNN_D_18/message (in-place)
I0313 11:35:50.201809 22390 net.cpp:124] Setting up SCNN_D_18/relu
I0313 11:35:50.201822 22390 net.cpp:131] Top shape: 1 64 1 80 (5120)
I0313 11:35:50.201826 22390 net.cpp:139] Memory required for data: 319467520
I0313 11:35:50.201830 22390 layer_factory.hpp:77] Creating layer SCNN_D_18/sum
I0313 11:35:50.201838 22390 net.cpp:86] Creating Layer SCNN_D_18/sum
I0313 11:35:50.201845 22390 net.cpp:408] SCNN_D_18/sum <- SCNN_D_18/message
I0313 11:35:50.201855 22390 net.cpp:408] SCNN_D_18/sum <- slice1_19
I0313 11:35:50.201864 22390 net.cpp:382] SCNN_D_18/sum -> SCNN_D_19
I0313 11:35:50.201908 22390 net.cpp:124] Setting up SCNN_D_18/sum
I0313 11:35:50.201920 22390 net.cpp:131] Top shape: 1 64 1 80 (5120)
I0313 11:35:50.201925 22390 net.cpp:139] Memory required for data: 319488000
I0313 11:35:50.201927 22390 layer_factory.hpp:77] Creating layer SCNN_D_19_SCNN_D_18/sum_0_split
I0313 11:35:50.201937 22390 net.cpp:86] Creating Layer SCNN_D_19_SCNN_D_18/sum_0_split
I0313 11:35:50.201944 22390 net.cpp:408] SCNN_D_19_SCNN_D_18/sum_0_split <- SCNN_D_19
I0313 11:35:50.201953 22390 net.cpp:382] SCNN_D_19_SCNN_D_18/sum_0_split -> SCNN_D_19_SCNN_D_18/sum_0_split_0
I0313 11:35:50.201963 22390 net.cpp:382] SCNN_D_19_SCNN_D_18/sum_0_split -> SCNN_D_19_SCNN_D_18/sum_0_split_1
I0313 11:35:50.202018 22390 net.cpp:124] Setting up SCNN_D_19_SCNN_D_18/sum_0_split
I0313 11:35:50.202029 22390 net.cpp:131] Top shape: 1 64 1 80 (5120)
I0313 11:35:50.202036 22390 net.cpp:131] Top shape: 1 64 1 80 (5120)
I0313 11:35:50.202041 22390 net.cpp:139] Memory required for data: 319528960
I0313 11:35:50.202045 22390 layer_factory.hpp:77] Creating layer SCNN_D_19
I0313 11:35:50.202056 22390 net.cpp:86] Creating Layer SCNN_D_19
I0313 11:35:50.202064 22390 net.cpp:408] SCNN_D_19 <- SCNN_D_19_SCNN_D_18/sum_0_split_0
I0313 11:35:50.202073 22390 net.cpp:382] SCNN_D_19 -> SCNN_D_19/message
I0313 11:35:50.205055 22390 net.cpp:124] Setting up SCNN_D_19
I0313 11:35:50.205086 22390 net.cpp:131] Top shape: 1 64 1 80 (5120)
I0313 11:35:50.205093 22390 net.cpp:139] Memory required for data: 319549440
I0313 11:35:50.205103 22390 net.cpp:467] Sharing parameters 'SCNN_D_w' owned by layer 'SCNN_D_1', param index 0
I0313 11:35:50.205109 22390 layer_factory.hpp:77] Creating layer SCNN_D_19/relu
I0313 11:35:50.205121 22390 net.cpp:86] Creating Layer SCNN_D_19/relu
I0313 11:35:50.205132 22390 net.cpp:408] SCNN_D_19/relu <- SCNN_D_19/message
I0313 11:35:50.205145 22390 net.cpp:369] SCNN_D_19/relu -> SCNN_D_19/message (in-place)
I0313 11:35:50.205612 22390 net.cpp:124] Setting up SCNN_D_19/relu
I0313 11:35:50.205627 22390 net.cpp:131] Top shape: 1 64 1 80 (5120)
I0313 11:35:50.205632 22390 net.cpp:139] Memory required for data: 319569920
I0313 11:35:50.205639 22390 layer_factory.hpp:77] Creating layer SCNN_D_19/sum
I0313 11:35:50.205648 22390 net.cpp:86] Creating Layer SCNN_D_19/sum
I0313 11:35:50.205657 22390 net.cpp:408] SCNN_D_19/sum <- SCNN_D_19/message
I0313 11:35:50.205668 22390 net.cpp:408] SCNN_D_19/sum <- slice1_20
I0313 11:35:50.205678 22390 net.cpp:382] SCNN_D_19/sum -> SCNN_D_20
I0313 11:35:50.205727 22390 net.cpp:124] Setting up SCNN_D_19/sum
I0313 11:35:50.205739 22390 net.cpp:131] Top shape: 1 64 1 80 (5120)
I0313 11:35:50.205744 22390 net.cpp:139] Memory required for data: 319590400
I0313 11:35:50.205749 22390 layer_factory.hpp:77] Creating layer SCNN_D_20_SCNN_D_19/sum_0_split
I0313 11:35:50.205759 22390 net.cpp:86] Creating Layer SCNN_D_20_SCNN_D_19/sum_0_split
I0313 11:35:50.205770 22390 net.cpp:408] SCNN_D_20_SCNN_D_19/sum_0_split <- SCNN_D_20
I0313 11:35:50.205778 22390 net.cpp:382] SCNN_D_20_SCNN_D_19/sum_0_split -> SCNN_D_20_SCNN_D_19/sum_0_split_0
I0313 11:35:50.205790 22390 net.cpp:382] SCNN_D_20_SCNN_D_19/sum_0_split -> SCNN_D_20_SCNN_D_19/sum_0_split_1
I0313 11:35:50.205849 22390 net.cpp:124] Setting up SCNN_D_20_SCNN_D_19/sum_0_split
I0313 11:35:50.205859 22390 net.cpp:131] Top shape: 1 64 1 80 (5120)
I0313 11:35:50.205865 22390 net.cpp:131] Top shape: 1 64 1 80 (5120)
I0313 11:35:50.205870 22390 net.cpp:139] Memory required for data: 319631360
I0313 11:35:50.205873 22390 layer_factory.hpp:77] Creating layer SCNN_D_20
I0313 11:35:50.205888 22390 net.cpp:86] Creating Layer SCNN_D_20
I0313 11:35:50.205894 22390 net.cpp:408] SCNN_D_20 <- SCNN_D_20_SCNN_D_19/sum_0_split_0
I0313 11:35:50.205905 22390 net.cpp:382] SCNN_D_20 -> SCNN_D_20/message
I0313 11:35:50.207242 22390 net.cpp:124] Setting up SCNN_D_20
I0313 11:35:50.207259 22390 net.cpp:131] Top shape: 1 64 1 80 (5120)
I0313 11:35:50.207265 22390 net.cpp:139] Memory required for data: 319651840
I0313 11:35:50.207273 22390 net.cpp:467] Sharing parameters 'SCNN_D_w' owned by layer 'SCNN_D_1', param index 0
I0313 11:35:50.207279 22390 layer_factory.hpp:77] Creating layer SCNN_D_20/relu
I0313 11:35:50.207293 22390 net.cpp:86] Creating Layer SCNN_D_20/relu
I0313 11:35:50.207300 22390 net.cpp:408] SCNN_D_20/relu <- SCNN_D_20/message
I0313 11:35:50.207310 22390 net.cpp:369] SCNN_D_20/relu -> SCNN_D_20/message (in-place)
I0313 11:35:50.207800 22390 net.cpp:124] Setting up SCNN_D_20/relu
I0313 11:35:50.207814 22390 net.cpp:131] Top shape: 1 64 1 80 (5120)
I0313 11:35:50.207819 22390 net.cpp:139] Memory required for data: 319672320
I0313 11:35:50.207823 22390 layer_factory.hpp:77] Creating layer SCNN_D_20/sum
I0313 11:35:50.207831 22390 net.cpp:86] Creating Layer SCNN_D_20/sum
I0313 11:35:50.207840 22390 net.cpp:408] SCNN_D_20/sum <- SCNN_D_20/message
I0313 11:35:50.207851 22390 net.cpp:408] SCNN_D_20/sum <- slice1_21
I0313 11:35:50.207860 22390 net.cpp:382] SCNN_D_20/sum -> SCNN_D_21
I0313 11:35:50.207906 22390 net.cpp:124] Setting up SCNN_D_20/sum
I0313 11:35:50.207917 22390 net.cpp:131] Top shape: 1 64 1 80 (5120)
I0313 11:35:50.207922 22390 net.cpp:139] Memory required for data: 319692800
I0313 11:35:50.207926 22390 layer_factory.hpp:77] Creating layer SCNN_D_21_SCNN_D_20/sum_0_split
I0313 11:35:50.207934 22390 net.cpp:86] Creating Layer SCNN_D_21_SCNN_D_20/sum_0_split
I0313 11:35:50.207939 22390 net.cpp:408] SCNN_D_21_SCNN_D_20/sum_0_split <- SCNN_D_21
I0313 11:35:50.207950 22390 net.cpp:382] SCNN_D_21_SCNN_D_20/sum_0_split -> SCNN_D_21_SCNN_D_20/sum_0_split_0
I0313 11:35:50.207962 22390 net.cpp:382] SCNN_D_21_SCNN_D_20/sum_0_split -> SCNN_D_21_SCNN_D_20/sum_0_split_1
I0313 11:35:50.208016 22390 net.cpp:124] Setting up SCNN_D_21_SCNN_D_20/sum_0_split
I0313 11:35:50.208027 22390 net.cpp:131] Top shape: 1 64 1 80 (5120)
I0313 11:35:50.208034 22390 net.cpp:131] Top shape: 1 64 1 80 (5120)
I0313 11:35:50.208039 22390 net.cpp:139] Memory required for data: 319733760
I0313 11:35:50.208043 22390 layer_factory.hpp:77] Creating layer SCNN_D_21
I0313 11:35:50.208055 22390 net.cpp:86] Creating Layer SCNN_D_21
I0313 11:35:50.208062 22390 net.cpp:408] SCNN_D_21 <- SCNN_D_21_SCNN_D_20/sum_0_split_0
I0313 11:35:50.208073 22390 net.cpp:382] SCNN_D_21 -> SCNN_D_21/message
I0313 11:35:50.209748 22390 net.cpp:124] Setting up SCNN_D_21
I0313 11:35:50.209769 22390 net.cpp:131] Top shape: 1 64 1 80 (5120)
I0313 11:35:50.209775 22390 net.cpp:139] Memory required for data: 319754240
I0313 11:35:50.209784 22390 net.cpp:467] Sharing parameters 'SCNN_D_w' owned by layer 'SCNN_D_1', param index 0
I0313 11:35:50.209789 22390 layer_factory.hpp:77] Creating layer SCNN_D_21/relu
I0313 11:35:50.209797 22390 net.cpp:86] Creating Layer SCNN_D_21/relu
I0313 11:35:50.209805 22390 net.cpp:408] SCNN_D_21/relu <- SCNN_D_21/message
I0313 11:35:50.209817 22390 net.cpp:369] SCNN_D_21/relu -> SCNN_D_21/message (in-place)
I0313 11:35:50.210008 22390 net.cpp:124] Setting up SCNN_D_21/relu
I0313 11:35:50.210021 22390 net.cpp:131] Top shape: 1 64 1 80 (5120)
I0313 11:35:50.210026 22390 net.cpp:139] Memory required for data: 319774720
I0313 11:35:50.210029 22390 layer_factory.hpp:77] Creating layer SCNN_D_21/sum
I0313 11:35:50.210037 22390 net.cpp:86] Creating Layer SCNN_D_21/sum
I0313 11:35:50.210045 22390 net.cpp:408] SCNN_D_21/sum <- SCNN_D_21/message
I0313 11:35:50.210055 22390 net.cpp:408] SCNN_D_21/sum <- slice1_22
I0313 11:35:50.210064 22390 net.cpp:382] SCNN_D_21/sum -> SCNN_D_22
I0313 11:35:50.210108 22390 net.cpp:124] Setting up SCNN_D_21/sum
I0313 11:35:50.210119 22390 net.cpp:131] Top shape: 1 64 1 80 (5120)
I0313 11:35:50.210124 22390 net.cpp:139] Memory required for data: 319795200
I0313 11:35:50.210127 22390 layer_factory.hpp:77] Creating layer SCNN_D_22_SCNN_D_21/sum_0_split
I0313 11:35:50.210139 22390 net.cpp:86] Creating Layer SCNN_D_22_SCNN_D_21/sum_0_split
I0313 11:35:50.210146 22390 net.cpp:408] SCNN_D_22_SCNN_D_21/sum_0_split <- SCNN_D_22
I0313 11:35:50.210155 22390 net.cpp:382] SCNN_D_22_SCNN_D_21/sum_0_split -> SCNN_D_22_SCNN_D_21/sum_0_split_0
I0313 11:35:50.210166 22390 net.cpp:382] SCNN_D_22_SCNN_D_21/sum_0_split -> SCNN_D_22_SCNN_D_21/sum_0_split_1
I0313 11:35:50.210222 22390 net.cpp:124] Setting up SCNN_D_22_SCNN_D_21/sum_0_split
I0313 11:35:50.210232 22390 net.cpp:131] Top shape: 1 64 1 80 (5120)
I0313 11:35:50.210238 22390 net.cpp:131] Top shape: 1 64 1 80 (5120)
I0313 11:35:50.210243 22390 net.cpp:139] Memory required for data: 319836160
I0313 11:35:50.210247 22390 layer_factory.hpp:77] Creating layer SCNN_D_22
I0313 11:35:50.210258 22390 net.cpp:86] Creating Layer SCNN_D_22
I0313 11:35:50.210266 22390 net.cpp:408] SCNN_D_22 <- SCNN_D_22_SCNN_D_21/sum_0_split_0
I0313 11:35:50.210278 22390 net.cpp:382] SCNN_D_22 -> SCNN_D_22/message
I0313 11:35:50.213269 22390 net.cpp:124] Setting up SCNN_D_22
I0313 11:35:50.213302 22390 net.cpp:131] Top shape: 1 64 1 80 (5120)
I0313 11:35:50.213310 22390 net.cpp:139] Memory required for data: 319856640
I0313 11:35:50.213321 22390 net.cpp:467] Sharing parameters 'SCNN_D_w' owned by layer 'SCNN_D_1', param index 0
I0313 11:35:50.213327 22390 layer_factory.hpp:77] Creating layer SCNN_D_22/relu
I0313 11:35:50.213338 22390 net.cpp:86] Creating Layer SCNN_D_22/relu
I0313 11:35:50.213349 22390 net.cpp:408] SCNN_D_22/relu <- SCNN_D_22/message
I0313 11:35:50.213361 22390 net.cpp:369] SCNN_D_22/relu -> SCNN_D_22/message (in-place)
I0313 11:35:50.213543 22390 net.cpp:124] Setting up SCNN_D_22/relu
I0313 11:35:50.213554 22390 net.cpp:131] Top shape: 1 64 1 80 (5120)
I0313 11:35:50.213558 22390 net.cpp:139] Memory required for data: 319877120
I0313 11:35:50.213563 22390 layer_factory.hpp:77] Creating layer SCNN_D_22/sum
I0313 11:35:50.213570 22390 net.cpp:86] Creating Layer SCNN_D_22/sum
I0313 11:35:50.213578 22390 net.cpp:408] SCNN_D_22/sum <- SCNN_D_22/message
I0313 11:35:50.213588 22390 net.cpp:408] SCNN_D_22/sum <- slice1_23
I0313 11:35:50.213596 22390 net.cpp:382] SCNN_D_22/sum -> SCNN_D_23
I0313 11:35:50.213645 22390 net.cpp:124] Setting up SCNN_D_22/sum
I0313 11:35:50.213656 22390 net.cpp:131] Top shape: 1 64 1 80 (5120)
I0313 11:35:50.213661 22390 net.cpp:139] Memory required for data: 319897600
I0313 11:35:50.213665 22390 layer_factory.hpp:77] Creating layer SCNN_D_23_SCNN_D_22/sum_0_split
I0313 11:35:50.213671 22390 net.cpp:86] Creating Layer SCNN_D_23_SCNN_D_22/sum_0_split
I0313 11:35:50.213680 22390 net.cpp:408] SCNN_D_23_SCNN_D_22/sum_0_split <- SCNN_D_23
I0313 11:35:50.213687 22390 net.cpp:382] SCNN_D_23_SCNN_D_22/sum_0_split -> SCNN_D_23_SCNN_D_22/sum_0_split_0
I0313 11:35:50.213698 22390 net.cpp:382] SCNN_D_23_SCNN_D_22/sum_0_split -> SCNN_D_23_SCNN_D_22/sum_0_split_1
I0313 11:35:50.213752 22390 net.cpp:124] Setting up SCNN_D_23_SCNN_D_22/sum_0_split
I0313 11:35:50.213760 22390 net.cpp:131] Top shape: 1 64 1 80 (5120)
I0313 11:35:50.213766 22390 net.cpp:131] Top shape: 1 64 1 80 (5120)
I0313 11:35:50.213771 22390 net.cpp:139] Memory required for data: 319938560
I0313 11:35:50.213775 22390 layer_factory.hpp:77] Creating layer SCNN_D_23
I0313 11:35:50.213786 22390 net.cpp:86] Creating Layer SCNN_D_23
I0313 11:35:50.213794 22390 net.cpp:408] SCNN_D_23 <- SCNN_D_23_SCNN_D_22/sum_0_split_0
I0313 11:35:50.213804 22390 net.cpp:382] SCNN_D_23 -> SCNN_D_23/message
I0313 11:35:50.215399 22390 net.cpp:124] Setting up SCNN_D_23
I0313 11:35:50.215420 22390 net.cpp:131] Top shape: 1 64 1 80 (5120)
I0313 11:35:50.215425 22390 net.cpp:139] Memory required for data: 319959040
I0313 11:35:50.215432 22390 net.cpp:467] Sharing parameters 'SCNN_D_w' owned by layer 'SCNN_D_1', param index 0
I0313 11:35:50.215438 22390 layer_factory.hpp:77] Creating layer SCNN_D_23/relu
I0313 11:35:50.215447 22390 net.cpp:86] Creating Layer SCNN_D_23/relu
I0313 11:35:50.215456 22390 net.cpp:408] SCNN_D_23/relu <- SCNN_D_23/message
I0313 11:35:50.215466 22390 net.cpp:369] SCNN_D_23/relu -> SCNN_D_23/message (in-place)
I0313 11:35:50.215658 22390 net.cpp:124] Setting up SCNN_D_23/relu
I0313 11:35:50.215670 22390 net.cpp:131] Top shape: 1 64 1 80 (5120)
I0313 11:35:50.215675 22390 net.cpp:139] Memory required for data: 319979520
I0313 11:35:50.215679 22390 layer_factory.hpp:77] Creating layer SCNN_D_23/sum
I0313 11:35:50.215687 22390 net.cpp:86] Creating Layer SCNN_D_23/sum
I0313 11:35:50.215694 22390 net.cpp:408] SCNN_D_23/sum <- SCNN_D_23/message
I0313 11:35:50.215704 22390 net.cpp:408] SCNN_D_23/sum <- slice1_24
I0313 11:35:50.215713 22390 net.cpp:382] SCNN_D_23/sum -> SCNN_D_24
I0313 11:35:50.215754 22390 net.cpp:124] Setting up SCNN_D_23/sum
I0313 11:35:50.215764 22390 net.cpp:131] Top shape: 1 64 1 80 (5120)
I0313 11:35:50.215770 22390 net.cpp:139] Memory required for data: 320000000
I0313 11:35:50.215773 22390 layer_factory.hpp:77] Creating layer SCNN_D_24_SCNN_D_23/sum_0_split
I0313 11:35:50.215780 22390 net.cpp:86] Creating Layer SCNN_D_24_SCNN_D_23/sum_0_split
I0313 11:35:50.215786 22390 net.cpp:408] SCNN_D_24_SCNN_D_23/sum_0_split <- SCNN_D_24
I0313 11:35:50.215795 22390 net.cpp:382] SCNN_D_24_SCNN_D_23/sum_0_split -> SCNN_D_24_SCNN_D_23/sum_0_split_0
I0313 11:35:50.215806 22390 net.cpp:382] SCNN_D_24_SCNN_D_23/sum_0_split -> SCNN_D_24_SCNN_D_23/sum_0_split_1
I0313 11:35:50.215860 22390 net.cpp:124] Setting up SCNN_D_24_SCNN_D_23/sum_0_split
I0313 11:35:50.215869 22390 net.cpp:131] Top shape: 1 64 1 80 (5120)
I0313 11:35:50.215876 22390 net.cpp:131] Top shape: 1 64 1 80 (5120)
I0313 11:35:50.215881 22390 net.cpp:139] Memory required for data: 320040960
I0313 11:35:50.215884 22390 layer_factory.hpp:77] Creating layer SCNN_D_24
I0313 11:35:50.215893 22390 net.cpp:86] Creating Layer SCNN_D_24
I0313 11:35:50.215898 22390 net.cpp:408] SCNN_D_24 <- SCNN_D_24_SCNN_D_23/sum_0_split_0
I0313 11:35:50.215907 22390 net.cpp:382] SCNN_D_24 -> SCNN_D_24/message
I0313 11:35:50.217489 22390 net.cpp:124] Setting up SCNN_D_24
I0313 11:35:50.217509 22390 net.cpp:131] Top shape: 1 64 1 80 (5120)
I0313 11:35:50.217514 22390 net.cpp:139] Memory required for data: 320061440
I0313 11:35:50.217521 22390 net.cpp:467] Sharing parameters 'SCNN_D_w' owned by layer 'SCNN_D_1', param index 0
I0313 11:35:50.217527 22390 layer_factory.hpp:77] Creating layer SCNN_D_24/relu
I0313 11:35:50.217535 22390 net.cpp:86] Creating Layer SCNN_D_24/relu
I0313 11:35:50.217542 22390 net.cpp:408] SCNN_D_24/relu <- SCNN_D_24/message
I0313 11:35:50.217552 22390 net.cpp:369] SCNN_D_24/relu -> SCNN_D_24/message (in-place)
I0313 11:35:50.218001 22390 net.cpp:124] Setting up SCNN_D_24/relu
I0313 11:35:50.218015 22390 net.cpp:131] Top shape: 1 64 1 80 (5120)
I0313 11:35:50.218021 22390 net.cpp:139] Memory required for data: 320081920
I0313 11:35:50.218026 22390 layer_factory.hpp:77] Creating layer SCNN_D_24/sum
I0313 11:35:50.218035 22390 net.cpp:86] Creating Layer SCNN_D_24/sum
I0313 11:35:50.218045 22390 net.cpp:408] SCNN_D_24/sum <- SCNN_D_24/message
I0313 11:35:50.218056 22390 net.cpp:408] SCNN_D_24/sum <- slice1_25
I0313 11:35:50.218065 22390 net.cpp:382] SCNN_D_24/sum -> SCNN_D_25
I0313 11:35:50.218108 22390 net.cpp:124] Setting up SCNN_D_24/sum
I0313 11:35:50.218119 22390 net.cpp:131] Top shape: 1 64 1 80 (5120)
I0313 11:35:50.218124 22390 net.cpp:139] Memory required for data: 320102400
I0313 11:35:50.218127 22390 layer_factory.hpp:77] Creating layer SCNN_D_25_SCNN_D_24/sum_0_split
I0313 11:35:50.218134 22390 net.cpp:86] Creating Layer SCNN_D_25_SCNN_D_24/sum_0_split
I0313 11:35:50.218142 22390 net.cpp:408] SCNN_D_25_SCNN_D_24/sum_0_split <- SCNN_D_25
I0313 11:35:50.218150 22390 net.cpp:382] SCNN_D_25_SCNN_D_24/sum_0_split -> SCNN_D_25_SCNN_D_24/sum_0_split_0
I0313 11:35:50.218161 22390 net.cpp:382] SCNN_D_25_SCNN_D_24/sum_0_split -> SCNN_D_25_SCNN_D_24/sum_0_split_1
I0313 11:35:50.218214 22390 net.cpp:124] Setting up SCNN_D_25_SCNN_D_24/sum_0_split
I0313 11:35:50.218222 22390 net.cpp:131] Top shape: 1 64 1 80 (5120)
I0313 11:35:50.218230 22390 net.cpp:131] Top shape: 1 64 1 80 (5120)
I0313 11:35:50.218233 22390 net.cpp:139] Memory required for data: 320143360
I0313 11:35:50.218237 22390 layer_factory.hpp:77] Creating layer SCNN_D_25
I0313 11:35:50.218247 22390 net.cpp:86] Creating Layer SCNN_D_25
I0313 11:35:50.218255 22390 net.cpp:408] SCNN_D_25 <- SCNN_D_25_SCNN_D_24/sum_0_split_0
I0313 11:35:50.218264 22390 net.cpp:382] SCNN_D_25 -> SCNN_D_25/message
I0313 11:35:50.221163 22390 net.cpp:124] Setting up SCNN_D_25
I0313 11:35:50.221194 22390 net.cpp:131] Top shape: 1 64 1 80 (5120)
I0313 11:35:50.221199 22390 net.cpp:139] Memory required for data: 320163840
I0313 11:35:50.221210 22390 net.cpp:467] Sharing parameters 'SCNN_D_w' owned by layer 'SCNN_D_1', param index 0
I0313 11:35:50.221215 22390 layer_factory.hpp:77] Creating layer SCNN_D_25/relu
I0313 11:35:50.221225 22390 net.cpp:86] Creating Layer SCNN_D_25/relu
I0313 11:35:50.221235 22390 net.cpp:408] SCNN_D_25/relu <- SCNN_D_25/message
I0313 11:35:50.221248 22390 net.cpp:369] SCNN_D_25/relu -> SCNN_D_25/message (in-place)
I0313 11:35:50.221434 22390 net.cpp:124] Setting up SCNN_D_25/relu
I0313 11:35:50.221446 22390 net.cpp:131] Top shape: 1 64 1 80 (5120)
I0313 11:35:50.221452 22390 net.cpp:139] Memory required for data: 320184320
I0313 11:35:50.221457 22390 layer_factory.hpp:77] Creating layer SCNN_D_25/sum
I0313 11:35:50.221463 22390 net.cpp:86] Creating Layer SCNN_D_25/sum
…
I0313 11:35:50.436883 22390 net.cpp:131] Top shape: 1 64 1 80 (5120)
I0313 11:35:50.436889 22390 net.cpp:139] Memory required for data: 327843840
I0313 11:35:50.436898 22390 net.cpp:467] Sharing parameters 'SCNN_U_w' owned by layer 'SCNN_U_60', param index 0
I0313 11:35:50.436904 22390 layer_factory.hpp:77] Creating layer SCNN_U_20/relu
I0313 11:35:50.436913 22390 net.cpp:86] Creating Layer SCNN_U_20/relu
I0313 11:35:50.436923 22390 net.cpp:408] SCNN_U_20/relu <- SCNN_U_20/message
I0313 11:35:50.436934 22390 net.cpp:369] SCNN_U_20/relu -> SCNN_U_20/message (in-place)
I0313 11:35:50.437156 22390 net.cpp:124] Setting up SCNN_U_20/relu
I0313 11:35:50.437167 22390 net.cpp:131] Top shape: 1 64 1 80 (5120)
I0313 11:35:50.437173 22390 net.cpp:139] Memory required for data: 327864320
I0313 11:35:50.437177 22390 layer_factory.hpp:77] Creating layer SCNN_U_20/sum
I0313 11:35:50.437186 22390 net.cpp:86] Creating Layer SCNN_U_20/sum
I0313 11:35:50.437194 22390 net.cpp:408] SCNN_U_20/sum <- SCNN_U_20/message
I0313 11:35:50.437206 22390 net.cpp:408] SCNN_U_20/sum <- SCNN_D_19_SCNN_D_18/sum_0_split_1
I0313 11:35:50.437214 22390 net.cpp:382] SCNN_U_20/sum -> SCNN_U_19
I0313 11:35:50.437268 22390 net.cpp:124] Setting up SCNN_U_20/sum
I0313 11:35:50.437279 22390 net.cpp:131] Top shape: 1 64 1 80 (5120)
I0313 11:35:50.437285 22390 net.cpp:139] Memory required for data: 327884800
I0313 11:35:50.437288 22390 layer_factory.hpp:77] Creating layer SCNN_U_19_SCNN_U_20/sum_0_split
I0313 11:35:50.437299 22390 net.cpp:86] Creating Layer SCNN_U_19_SCNN_U_20/sum_0_split
I0313 11:35:50.437304 22390 net.cpp:408] SCNN_U_19_SCNN_U_20/sum_0_split <- SCNN_U_19
I0313 11:35:50.437314 22390 net.cpp:382] SCNN_U_19_SCNN_U_20/sum_0_split -> SCNN_U_19_SCNN_U_20/sum_0_split_0
I0313 11:35:50.437325 22390 net.cpp:382] SCNN_U_19_SCNN_U_20/sum_0_split -> SCNN_U_19_SCNN_U_20/sum_0_split_1
I0313 11:35:50.437394 22390 net.cpp:124] Setting up SCNN_U_19_SCNN_U_20/sum_0_split
I0313 11:35:50.437404 22390 net.cpp:131] Top shape: 1 64 1 80 (5120)
I0313 11:35:50.437412 22390 net.cpp:131] Top shape: 1 64 1 80 (5120)
I0313 11:35:50.437417 22390 net.cpp:139] Memory required for data: 327925760
I0313 11:35:50.437419 22390 layer_factory.hpp:77] Creating layer SCNN_U_19
I0313 11:35:50.437430 22390 net.cpp:86] Creating Layer SCNN_U_19
I0313 11:35:50.437438 22390 net.cpp:408] SCNN_U_19 <- SCNN_U_19_SCNN_U_20/sum_0_split_0
I0313 11:35:50.437450 22390 net.cpp:382] SCNN_U_19 -> SCNN_U_19/message
I0313 11:35:50.440953 22390 net.cpp:124] Setting up SCNN_U_19
I0313 11:35:50.440989 22390 net.cpp:131] Top shape: 1 64 1 80 (5120)
I0313 11:35:50.440995 22390 net.cpp:139] Memory required for data: 327946240
I0313 11:35:50.441005 22390 net.cpp:467] Sharing parameters 'SCNN_U_w' owned by layer 'SCNN_U_60', param index 0
I0313 11:35:50.441011 22390 layer_factory.hpp:77] Creating layer SCNN_U_19/relu
I0313 11:35:50.441020 22390 net.cpp:86] Creating Layer SCNN_U_19/relu
I0313 11:35:50.441031 22390 net.cpp:408] SCNN_U_19/relu <- SCNN_U_19/message
I0313 11:35:50.441045 22390 net.cpp:369] SCNN_U_19/relu -> SCNN_U_19/message (in-place)
I0313 11:35:50.441273 22390 net.cpp:124] Setting up SCNN_U_19/relu
I0313 11:35:50.441287 22390 net.cpp:131] Top shape: 1 64 1 80 (5120)
I0313 11:35:50.441289 22390 net.cpp:139] Memory required for data: 327966720
I0313 11:35:50.441293 22390 layer_factory.hpp:77] Creating layer SCNN_U_19/sum
I0313 11:35:50.441299 22390 net.cpp:86] Creating Layer SCNN_U_19/sum
I0313 11:35:50.441306 22390 net.cpp:408] SCNN_U_19/sum <- SCNN_U_19/message
I0313 11:35:50.441315 22390 net.cpp:408] SCNN_U_19/sum <- SCNN_D_18_SCNN_D_17/sum_0_split_1
I0313 11:35:50.441323 22390 net.cpp:382] SCNN_U_19/sum -> SCNN_U_18
I0313 11:35:50.441382 22390 net.cpp:124] Setting up SCNN_U_19/sum
I0313 11:35:50.441392 22390 net.cpp:131] Top shape: 1 64 1 80 (5120)
I0313 11:35:50.441395 22390 net.cpp:139] Memory required for data: 327987200
I0313 11:35:50.441398 22390 layer_factory.hpp:77] Creating layer SCNN_U_18_SCNN_U_19/sum_0_split
I0313 11:35:50.441406 22390 net.cpp:86] Creating Layer SCNN_U_18_SCNN_U_19/sum_0_split
I0313 11:35:50.441411 22390 net.cpp:408] SCNN_U_18_SCNN_U_19/sum_0_split <- SCNN_U_18
I0313 11:35:50.441417 22390 net.cpp:382] SCNN_U_18_SCNN_U_19/sum_0_split -> SCNN_U_18_SCNN_U_19/sum_0_split_0
I0313 11:35:50.441427 22390 net.cpp:382] SCNN_U_18_SCNN_U_19/sum_0_split -> SCNN_U_18_SCNN_U_19/sum_0_split_1
I0313 11:35:50.441498 22390 net.cpp:124] Setting up SCNN_U_18_SCNN_U_19/sum_0_split
I0313 11:35:50.441506 22390 net.cpp:131] Top shape: 1 64 1 80 (5120)
I0313 11:35:50.441510 22390 net.cpp:131] Top shape: 1 64 1 80 (5120)
I0313 11:35:50.441514 22390 net.cpp:139] Memory required for data: 328028160
I0313 11:35:50.441516 22390 layer_factory.hpp:77] Creating layer SCNN_U_18
I0313 11:35:50.441529 22390 net.cpp:86] Creating Layer SCNN_U_18
I0313 11:35:50.441536 22390 net.cpp:408] SCNN_U_18 <- SCNN_U_18_SCNN_U_19/sum_0_split_0
I0313 11:35:50.441543 22390 net.cpp:382] SCNN_U_18 -> SCNN_U_18/message
I0313 11:35:50.443426 22390 net.cpp:124] Setting up SCNN_U_18
I0313 11:35:50.443449 22390 net.cpp:131] Top shape: 1 64 1 80 (5120)
I0313 11:35:50.443454 22390 net.cpp:139] Memory required for data: 328048640
I0313 11:35:50.443459 22390 net.cpp:467] Sharing parameters 'SCNN_U_w' owned by layer 'SCNN_U_60', param index 0
I0313 11:35:50.443464 22390 layer_factory.hpp:77] Creating layer SCNN_U_18/relu
I0313 11:35:50.443522 22390 net.cpp:86] Creating Layer SCNN_U_18/relu
I0313 11:35:50.443532 22390 net.cpp:408] SCNN_U_18/relu <- SCNN_U_18/message
I0313 11:35:50.443543 22390 net.cpp:369] SCNN_U_18/relu -> SCNN_U_18/message (in-place)
I0313 11:35:50.444077 22390 net.cpp:124] Setting up SCNN_U_18/relu
I0313 11:35:50.444090 22390 net.cpp:131] Top shape: 1 64 1 80 (5120)
I0313 11:35:50.444093 22390 net.cpp:139] Memory required for data: 328069120
I0313 11:35:50.444103 22390 layer_factory.hpp:77] Creating layer SCNN_U_18/sum
I0313 11:35:50.444109 22390 net.cpp:86] Creating Layer SCNN_U_18/sum
I0313 11:35:50.444118 22390 net.cpp:408] SCNN_U_18/sum <- SCNN_U_18/message
I0313 11:35:50.444125 22390 net.cpp:408] SCNN_U_18/sum <- SCNN_D_17_SCNN_D_16/sum_0_split_1
I0313 11:35:50.444133 22390 net.cpp:382] SCNN_U_18/sum -> SCNN_U_17
I0313 11:35:50.444191 22390 net.cpp:124] Setting up SCNN_U_18/sum
I0313 11:35:50.444202 22390 net.cpp:131] Top shape: 1 64 1 80 (5120)
I0313 11:35:50.444206 22390 net.cpp:139] Memory required for data: 328089600
I0313 11:35:50.444209 22390 layer_factory.hpp:77] Creating layer SCNN_U_17_SCNN_U_18/sum_0_split
I0313 11:35:50.444216 22390 net.cpp:86] Creating Layer SCNN_U_17_SCNN_U_18/sum_0_split
I0313 11:35:50.444221 22390 net.cpp:408] SCNN_U_17_SCNN_U_18/sum_0_split <- SCNN_U_17
I0313 11:35:50.444229 22390 net.cpp:382] SCNN_U_17_SCNN_U_18/sum_0_split -> SCNN_U_17_SCNN_U_18/sum_0_split_0
I0313 11:35:50.444238 22390 net.cpp:382] SCNN_U_17_SCNN_U_18/sum_0_split -> SCNN_U_17_SCNN_U_18/sum_0_split_1
I0313 11:35:50.444308 22390 net.cpp:124] Setting up SCNN_U_17_SCNN_U_18/sum_0_split
I0313 11:35:50.444319 22390 net.cpp:131] Top shape: 1 64 1 80 (5120)
I0313 11:35:50.444324 22390 net.cpp:131] Top shape: 1 64 1 80 (5120)
I0313 11:35:50.444326 22390 net.cpp:139] Memory required for data: 328130560
I0313 11:35:50.444329 22390 layer_factory.hpp:77] Creating layer SCNN_U_17
I0313 11:35:50.444339 22390 net.cpp:86] Creating Layer SCNN_U_17
I0313 11:35:50.444344 22390 net.cpp:408] SCNN_U_17 <- SCNN_U_17_SCNN_U_18/sum_0_split_0
I0313 11:35:50.444363 22390 net.cpp:382] SCNN_U_17 -> SCNN_U_17/message
I0313 11:35:50.446239 22390 net.cpp:124] Setting up SCNN_U_17
I0313 11:35:50.446260 22390 net.cpp:131] Top shape: 1 64 1 80 (5120)
I0313 11:35:50.446265 22390 net.cpp:139] Memory required for data: 328151040
I0313 11:35:50.446272 22390 net.cpp:467] Sharing parameters 'SCNN_U_w' owned by layer 'SCNN_U_60', param index 0
I0313 11:35:50.446280 22390 layer_factory.hpp:77] Creating layer SCNN_U_17/relu
I0313 11:35:50.446287 22390 net.cpp:86] Creating Layer SCNN_U_17/relu
I0313 11:35:50.446295 22390 net.cpp:408] SCNN_U_17/relu <- SCNN_U_17/message
I0313 11:35:50.446303 22390 net.cpp:369] SCNN_U_17/relu -> SCNN_U_17/message (in-place)
I0313 11:35:50.446532 22390 net.cpp:124] Setting up SCNN_U_17/relu
I0313 11:35:50.446543 22390 net.cpp:131] Top shape: 1 64 1 80 (5120)
I0313 11:35:50.446549 22390 net.cpp:139] Memory required for data: 328171520
I0313 11:35:50.446552 22390 layer_factory.hpp:77] Creating layer SCNN_U_17/sum
I0313 11:35:50.446559 22390 net.cpp:86] Creating Layer SCNN_U_17/sum
I0313 11:35:50.446568 22390 net.cpp:408] SCNN_U_17/sum <- SCNN_U_17/message
I0313 11:35:50.446578 22390 net.cpp:408] SCNN_U_17/sum <- SCNN_D_16_SCNN_D_15/sum_0_split_1
I0313 11:35:50.446588 22390 net.cpp:382] SCNN_U_17/sum -> SCNN_U_16
I0313 11:35:50.446640 22390 net.cpp:124] Setting up SCNN_U_17/sum
I0313 11:35:50.446650 22390 net.cpp:131] Top shape: 1 64 1 80 (5120)
I0313 11:35:50.446655 22390 net.cpp:139] Memory required for data: 328192000
I0313 11:35:50.446657 22390 layer_factory.hpp:77] Creating layer SCNN_U_16_SCNN_U_17/sum_0_split
I0313 11:35:50.446667 22390 net.cpp:86] Creating Layer SCNN_U_16_SCNN_U_17/sum_0_split
I0313 11:35:50.446676 22390 net.cpp:408] SCNN_U_16_SCNN_U_17/sum_0_split <- SCNN_U_16
I0313 11:35:50.446684 22390 net.cpp:382] SCNN_U_16_SCNN_U_17/sum_0_split -> SCNN_U_16_SCNN_U_17/sum_0_split_0
I0313 11:35:50.446696 22390 net.cpp:382] SCNN_U_16_SCNN_U_17/sum_0_split -> SCNN_U_16_SCNN_U_17/sum_0_split_1
I0313 11:35:50.446768 22390 net.cpp:124] Setting up SCNN_U_16_SCNN_U_17/sum_0_split
I0313 11:35:50.446779 22390 net.cpp:131] Top shape: 1 64 1 80 (5120)
I0313 11:35:50.446785 22390 net.cpp:131] Top shape: 1 64 1 80 (5120)
I0313 11:35:50.446790 22390 net.cpp:139] Memory required for data: 328232960
I0313 11:35:50.446794 22390 layer_factory.hpp:77] Creating layer SCNN_U_16
I0313 11:35:50.446805 22390 net.cpp:86] Creating Layer SCNN_U_16
I0313 11:35:50.446813 22390 net.cpp:408] SCNN_U_16 <- SCNN_U_16_SCNN_U_17/sum_0_split_0
I0313 11:35:50.446825 22390 net.cpp:382] SCNN_U_16 -> SCNN_U_16/message
I0313 11:35:50.450353 22390 net.cpp:124] Setting up SCNN_U_16
I0313 11:35:50.450388 22390 net.cpp:131] Top shape: 1 64 1 80 (5120)
I0313 11:35:50.450394 22390 net.cpp:139] Memory required for data: 328253440
I0313 11:35:50.450404 22390 net.cpp:467] Sharing parameters 'SCNN_U_w' owned by layer 'SCNN_U_60', param index 0
I0313 11:35:50.450410 22390 layer_factory.hpp:77] Creating layer SCNN_U_16/relu
I0313 11:35:50.450422 22390 net.cpp:86] Creating Layer SCNN_U_16/relu
I0313 11:35:50.450433 22390 net.cpp:408] SCNN_U_16/relu <- SCNN_U_16/message
I0313 11:35:50.450445 22390 net.cpp:369] SCNN_U_16/relu -> SCNN_U_16/message (in-place)
I0313 11:35:50.450664 22390 net.cpp:124] Setting up SCNN_U_16/relu
I0313 11:35:50.450676 22390 net.cpp:131] Top shape: 1 64 1 80 (5120)
I0313 11:35:50.450680 22390 net.cpp:139] Memory required for data: 328273920
I0313 11:35:50.450683 22390 layer_factory.hpp:77] Creating layer SCNN_U_16/sum
I0313 11:35:50.450688 22390 net.cpp:86] Creating Layer SCNN_U_16/sum
I0313 11:35:50.450695 22390 net.cpp:408] SCNN_U_16/sum <- SCNN_U_16/message
I0313 11:35:50.450704 22390 net.cpp:408] SCNN_U_16/sum <- SCNN_D_15_SCNN_D_14/sum_0_split_1
I0313 11:35:50.450713 22390 net.cpp:382] SCNN_U_16/sum -> SCNN_U_15
I0313 11:35:50.450816 22390 net.cpp:124] Setting up SCNN_U_16/sum
I0313 11:35:50.450832 22390 net.cpp:131] Top shape: 1 64 1 80 (5120)
I0313 11:35:50.450839 22390 net.cpp:139] Memory required for data: 328294400
I0313 11:35:50.450841 22390 layer_factory.hpp:77] Creating layer SCNN_U_15_SCNN_U_16/sum_0_split
I0313 11:35:50.450848 22390 net.cpp:86] Creating Layer SCNN_U_15_SCNN_U_16/sum_0_split
I0313 11:35:50.450856 22390 net.cpp:408] SCNN_U_15_SCNN_U_16/sum_0_split <- SCNN_U_15
I0313 11:35:50.450865 22390 net.cpp:382] SCNN_U_15_SCNN_U_16/sum_0_split -> SCNN_U_15_SCNN_U_16/sum_0_split_0
I0313 11:35:50.450876 22390 net.cpp:382] SCNN_U_15_SCNN_U_16/sum_0_split -> SCNN_U_15_SCNN_U_16/sum_0_split_1
I0313 11:35:50.450944 22390 net.cpp:124] Setting up SCNN_U_15_SCNN_U_16/sum_0_split
I0313 11:35:50.450955 22390 net.cpp:131] Top shape: 1 64 1 80 (5120)
I0313 11:35:50.450961 22390 net.cpp:131] Top shape: 1 64 1 80 (5120)
I0313 11:35:50.450966 22390 net.cpp:139] Memory required for data: 328335360
I0313 11:35:50.450970 22390 layer_factory.hpp:77] Creating layer SCNN_U_15
I0313 11:35:50.450983 22390 net.cpp:86] Creating Layer SCNN_U_15
I0313 11:35:50.450990 22390 net.cpp:408] SCNN_U_15 <- SCNN_U_15_SCNN_U_16/sum_0_split_0
I0313 11:35:50.450999 22390 net.cpp:382] SCNN_U_15 -> SCNN_U_15/message
I0313 11:35:50.452847 22390 net.cpp:124] Setting up SCNN_U_15
I0313 11:35:50.452867 22390 net.cpp:131] Top shape: 1 64 1 80 (5120)
I0313 11:35:50.452872 22390 net.cpp:139] Memory required for data: 328355840
I0313 11:35:50.452879 22390 net.cpp:467] Sharing parameters 'SCNN_U_w' owned by layer 'SCNN_U_60', param index 0
I0313 11:35:50.452883 22390 layer_factory.hpp:77] Creating layer SCNN_U_15/relu
I0313 11:35:50.452889 22390 net.cpp:86] Creating Layer SCNN_U_15/relu
I0313 11:35:50.452898 22390 net.cpp:408] SCNN_U_15/relu <- SCNN_U_15/message
I0313 11:35:50.452908 22390 net.cpp:369] SCNN_U_15/relu -> SCNN_U_15/message (in-place)
I0313 11:35:50.453120 22390 net.cpp:124] Setting up SCNN_U_15/relu
I0313 11:35:50.453131 22390 net.cpp:131] Top shape: 1 64 1 80 (5120)
I0313 11:35:50.453136 22390 net.cpp:139] Memory required for data: 328376320
I0313 11:35:50.453140 22390 layer_factory.hpp:77] Creating layer SCNN_U_15/sum
I0313 11:35:50.453145 22390 net.cpp:86] Creating Layer SCNN_U_15/sum
I0313 11:35:50.453153 22390 net.cpp:408] SCNN_U_15/sum <- SCNN_U_15/message
I0313 11:35:50.453163 22390 net.cpp:408] SCNN_U_15/sum <- SCNN_D_14_SCNN_D_13/sum_0_split_1
I0313 11:35:50.453171 22390 net.cpp:382] SCNN_U_15/sum -> SCNN_U_14
I0313 11:35:50.453223 22390 net.cpp:124] Setting up SCNN_U_15/sum
I0313 11:35:50.453234 22390 net.cpp:131] Top shape: 1 64 1 80 (5120)
I0313 11:35:50.453238 22390 net.cpp:139] Memory required for data: 328396800
I0313 11:35:50.453243 22390 layer_factory.hpp:77] Creating layer SCNN_U_14_SCNN_U_15/sum_0_split
I0313 11:35:50.453248 22390 net.cpp:86] Creating Layer SCNN_U_14_SCNN_U_15/sum_0_split
I0313 11:35:50.453256 22390 net.cpp:408] SCNN_U_14_SCNN_U_15/sum_0_split <- SCNN_U_14
I0313 11:35:50.453265 22390 net.cpp:382] SCNN_U_14_SCNN_U_15/sum_0_split -> SCNN_U_14_SCNN_U_15/sum_0_split_0
I0313 11:35:50.453276 22390 net.cpp:382] SCNN_U_14_SCNN_U_15/sum_0_split -> SCNN_U_14_SCNN_U_15/sum_0_split_1
I0313 11:35:50.453346 22390 net.cpp:124] Setting up SCNN_U_14_SCNN_U_15/sum_0_split
I0313 11:35:50.453356 22390 net.cpp:131] Top shape: 1 64 1 80 (5120)
I0313 11:35:50.453361 22390 net.cpp:131] Top shape: 1 64 1 80 (5120)
I0313 11:35:50.453366 22390 net.cpp:139] Memory required for data: 328437760
I0313 11:35:50.453369 22390 layer_factory.hpp:77] Creating layer SCNN_U_14
I0313 11:35:50.453380 22390 net.cpp:86] Creating Layer SCNN_U_14
I0313 11:35:50.453388 22390 net.cpp:408] SCNN_U_14 <- SCNN_U_14_SCNN_U_15/sum_0_split_0
I0313 11:35:50.453397 22390 net.cpp:382] SCNN_U_14 -> SCNN_U_14/message
I0313 11:35:50.455536 22390 net.cpp:124] Setting up SCNN_U_14
I0313 11:35:50.455559 22390 net.cpp:131] Top shape: 1 64 1 80 (5120)
I0313 11:35:50.455564 22390 net.cpp:139] Memory required for data: 328458240
I0313 11:35:50.455579 22390 net.cpp:467] Sharing parameters 'SCNN_U_w' owned by layer 'SCNN_U_60', param index 0
I0313 11:35:50.455585 22390 layer_factory.hpp:77] Creating layer SCNN_U_14/relu
I0313 11:35:50.455592 22390 net.cpp:86] Creating Layer SCNN_U_14/relu
I0313 11:35:50.455601 22390 net.cpp:408] SCNN_U_14/relu <- SCNN_U_14/message
I0313 11:35:50.455611 22390 net.cpp:369] SCNN_U_14/relu -> SCNN_U_14/message (in-place)
I0313 11:35:50.456112 22390 net.cpp:124] Setting up SCNN_U_14/relu
I0313 11:35:50.456126 22390 net.cpp:131] Top shape: 1 64 1 80 (5120)
I0313 11:35:50.456131 22390 net.cpp:139] Memory required for data: 328478720
I0313 11:35:50.456136 22390 layer_factory.hpp:77] Creating layer SCNN_U_14/sum
I0313 11:35:50.456145 22390 net.cpp:86] Creating Layer SCNN_U_14/sum
I0313 11:35:50.456153 22390 net.cpp:408] SCNN_U_14/sum <- SCNN_U_14/message
I0313 11:35:50.456166 22390 net.cpp:408] SCNN_U_14/sum <- SCNN_D_13_SCNN_D_12/sum_0_split_1
I0313 11:35:50.456174 22390 net.cpp:382] SCNN_U_14/sum -> SCNN_U_13
I0313 11:35:50.456230 22390 net.cpp:124] Setting up SCNN_U_14/sum
I0313 11:35:50.456243 22390 net.cpp:131] Top shape: 1 64 1 80 (5120)
I0313 11:35:50.456248 22390 net.cpp:139] Memory required for data: 328499200
I0313 11:35:50.456250 22390 layer_factory.hpp:77] Creating layer SCNN_U_13_SCNN_U_14/sum_0_split
I0313 11:35:50.456257 22390 net.cpp:86] Creating Layer SCNN_U_13_SCNN_U_14/sum_0_split
I0313 11:35:50.456265 22390 net.cpp:408] SCNN_U_13_SCNN_U_14/sum_0_split <- SCNN_U_13
I0313 11:35:50.456274 22390 net.cpp:382] SCNN_U_13_SCNN_U_14/sum_0_split -> SCNN_U_13_SCNN_U_14/sum_0_split_0
I0313 11:35:50.456282 22390 net.cpp:382] SCNN_U_13_SCNN_U_14/sum_0_split -> SCNN_U_13_SCNN_U_14/sum_0_split_1
I0313 11:35:50.456351 22390 net.cpp:124] Setting up SCNN_U_13_SCNN_U_14/sum_0_split
I0313 11:35:50.456359 22390 net.cpp:131] Top shape: 1 64 1 80 (5120)
I0313 11:35:50.456365 22390 net.cpp:131] Top shape: 1 64 1 80 (5120)
I0313 11:35:50.456370 22390 net.cpp:139] Memory required for data: 328540160
I0313 11:35:50.456373 22390 layer_factory.hpp:77] Creating layer SCNN_U_13
I0313 11:35:50.456384 22390 net.cpp:86] Creating Layer SCNN_U_13
I0313 11:35:50.456393 22390 net.cpp:408] SCNN_U_13 <- SCNN_U_13_SCNN_U_14/sum_0_split_0
I0313 11:35:50.456401 22390 net.cpp:382] SCNN_U_13 -> SCNN_U_13/message
I0313 11:35:50.458238 22390 net.cpp:124] Setting up SCNN_U_13
I0313 11:35:50.458259 22390 net.cpp:131] Top shape: 1 64 1 80 (5120)
I0313 11:35:50.458266 22390 net.cpp:139] Memory required for data: 328560640
I0313 11:35:50.458274 22390 net.cpp:467] Sharing parameters 'SCNN_U_w' owned by layer 'SCNN_U_60', param index 0
I0313 11:35:50.458281 22390 layer_factory.hpp:77] Creating layer SCNN_U_13/relu
I0313 11:35:50.458287 22390 net.cpp:86] Creating Layer SCNN_U_13/relu
I0313 11:35:50.458297 22390 net.cpp:408] SCNN_U_13/relu <- SCNN_U_13/message
I0313 11:35:50.458307 22390 net.cpp:369] SCNN_U_13/relu -> SCNN_U_13/message (in-place)
I0313 11:35:50.460247 22390 net.cpp:124] Setting up SCNN_U_13/relu
I0313 11:35:50.460270 22390 net.cpp:131] Top shape: 1 64 1 80 (5120)
I0313 11:35:50.460274 22390 net.cpp:139] Memory required for data: 328581120
I0313 11:35:50.460278 22390 layer_factory.hpp:77] Creating layer SCNN_U_13/sum
I0313 11:35:50.460286 22390 net.cpp:86] Creating Layer SCNN_U_13/sum
I0313 11:35:50.460297 22390 net.cpp:408] SCNN_U_13/sum <- SCNN_U_13/message
I0313 11:35:50.460310 22390 net.cpp:408] SCNN_U_13/sum <- SCNN_D_12_SCNN_D_11/sum_0_split_1
I0313 11:35:50.460319 22390 net.cpp:382] SCNN_U_13/sum -> SCNN_U_12
I0313 11:35:50.460386 22390 net.cpp:124] Setting up SCNN_U_13/sum
I0313 11:35:50.460402 22390 net.cpp:131] Top shape: 1 64 1 80 (5120)
I0313 11:35:50.460404 22390 net.cpp:139] Memory required for data: 328601600
I0313 11:35:50.460407 22390 layer_factory.hpp:77] Creating layer SCNN_U_12_SCNN_U_13/sum_0_split
I0313 11:35:50.460414 22390 net.cpp:86] Creating Layer SCNN_U_12_SCNN_U_13/sum_0_split
I0313 11:35:50.460419 22390 net.cpp:408] SCNN_U_12_SCNN_U_13/sum_0_split <- SCNN_U_12
I0313 11:35:50.460427 22390 net.cpp:382] SCNN_U_12_SCNN_U_13/sum_0_split -> SCNN_U_12_SCNN_U_13/sum_0_split_0
I0313 11:35:50.460435 22390 net.cpp:382] SCNN_U_12_SCNN_U_13/sum_0_split -> SCNN_U_12_SCNN_U_13/sum_0_split_1
I0313 11:35:50.460525 22390 net.cpp:124] Setting up SCNN_U_12_SCNN_U_13/sum_0_split
I0313 11:35:50.460536 22390 net.cpp:131] Top shape: 1 64 1 80 (5120)
I0313 11:35:50.460541 22390 net.cpp:131] Top shape: 1 64 1 80 (5120)
I0313 11:35:50.460543 22390 net.cpp:139] Memory required for data: 328642560
I0313 11:35:50.460547 22390 layer_factory.hpp:77] Creating layer SCNN_U_12
I0313 11:35:50.460556 22390 net.cpp:86] Creating Layer SCNN_U_12
I0313 11:35:50.460563 22390 net.cpp:408] SCNN_U_12 <- SCNN_U_12_SCNN_U_13/sum_0_split_0
I0313 11:35:50.460575 22390 net.cpp:382] SCNN_U_12 -> SCNN_U_12/message
I0313 11:35:50.462491 22390 net.cpp:124] Setting up SCNN_U_12
I0313 11:35:50.462512 22390 net.cpp:131] Top shape: 1 64 1 80 (5120)
I0313 11:35:50.462517 22390 net.cpp:139] Memory required for data: 328663040
I0313 11:35:50.462523 22390 net.cpp:467] Sharing parameters 'SCNN_U_w' owned by layer 'SCNN_U_60', param index 0
I0313 11:35:50.462527 22390 layer_factory.hpp:77] Creating layer SCNN_U_12/relu
I0313 11:35:50.462534 22390 net.cpp:86] Creating Layer SCNN_U_12/relu
I0313 11:35:50.462553 22390 net.cpp:408] SCNN_U_12/relu <- SCNN_U_12/message
I0313 11:35:50.462564 22390 net.cpp:369] SCNN_U_12/relu -> SCNN_U_12/message (in-place)
I0313 11:35:50.462790 22390 net.cpp:124] Setting up SCNN_U_12/relu
I0313 11:35:50.462801 22390 net.cpp:131] Top shape: 1 64 1 80 (5120)
I0313 11:35:50.462806 22390 net.cpp:139] Memory required for data: 328683520
I0313 11:35:50.462810 22390 layer_factory.hpp:77] Creating layer SCNN_U_12/sum
I0313 11:35:50.462818 22390 net.cpp:86] Creating Layer SCNN_U_12/sum
I0313 11:35:50.462826 22390 net.cpp:408] SCNN_U_12/sum <- SCNN_U_12/message
I0313 11:35:50.462834 22390 net.cpp:408] SCNN_U_12/sum <- SCNN_D_11_SCNN_D_10/sum_0_split_1
I0313 11:35:50.462839 22390 net.cpp:382] SCNN_U_12/sum -> SCNN_U_11
I0313 11:35:50.462894 22390 net.cpp:124] Setting up SCNN_U_12/sum
I0313 11:35:50.462904 22390 net.cpp:131] Top shape: 1 64 1 80 (5120)
I0313 11:35:50.462908 22390 net.cpp:139] Memory required for data: 328704000
I0313 11:35:50.462910 22390 layer_factory.hpp:77] Creating layer SCNN_U_11_SCNN_U_12/sum_0_split
I0313 11:35:50.462918 22390 net.cpp:86] Creating Layer SCNN_U_11_SCNN_U_12/sum_0_split
I0313 11:35:50.462924 22390 net.cpp:408] SCNN_U_11_SCNN_U_12/sum_0_split <- SCNN_U_11
I0313 11:35:50.462932 22390 net.cpp:382] SCNN_U_11_SCNN_U_12/sum_0_split -> SCNN_U_11_SCNN_U_12/sum_0_split_0
I0313 11:35:50.462942 22390 net.cpp:382] SCNN_U_11_SCNN_U_12/sum_0_split -> SCNN_U_11_SCNN_U_12/sum_0_split_1
I0313 11:35:50.463021 22390 net.cpp:124] Setting up SCNN_U_11_SCNN_U_12/sum_0_split
I0313 11:35:50.463030 22390 net.cpp:131] Top shape: 1 64 1 80 (5120)
I0313 11:35:50.463037 22390 net.cpp:131] Top shape: 1 64 1 80 (5120)
I0313 11:35:50.463039 22390 net.cpp:139] Memory required for data: 328744960
I0313 11:35:50.463042 22390 layer_factory.hpp:77] Creating layer SCNN_U_11
I0313 11:35:50.463053 22390 net.cpp:86] Creating Layer SCNN_U_11
I0313 11:35:50.463062 22390 net.cpp:408] SCNN_U_11 <- SCNN_U_11_SCNN_U_12/sum_0_split_0
I0313 11:35:50.463070 22390 net.cpp:382] SCNN_U_11 -> SCNN_U_11/message
I0313 11:35:50.464962 22390 net.cpp:124] Setting up SCNN_U_11
I0313 11:35:50.464982 22390 net.cpp:131] Top shape: 1 64 1 80 (5120)
I0313 11:35:50.464988 22390 net.cpp:139] Memory required for data: 328765440
I0313 11:35:50.464995 22390 net.cpp:467] Sharing parameters 'SCNN_U_w' owned by layer 'SCNN_U_60', param index 0
I0313 11:35:50.465003 22390 layer_factory.hpp:77] Creating layer SCNN_U_11/relu
I0313 11:35:50.465016 22390 net.cpp:86] Creating Layer SCNN_U_11/relu
I0313 11:35:50.465026 22390 net.cpp:408] SCNN_U_11/relu <- SCNN_U_11/message
I0313 11:35:50.465039 22390 net.cpp:369] SCNN_U_11/relu -> SCNN_U_11/message (in-place)
I0313 11:35:50.465265 22390 net.cpp:124] Setting up SCNN_U_11/relu
I0313 11:35:50.465276 22390 net.cpp:131] Top shape: 1 64 1 80 (5120)
I0313 11:35:50.465281 22390 net.cpp:139] Memory required for data: 328785920
I0313 11:35:50.465284 22390 layer_factory.hpp:77] Creating layer SCNN_U_11/sum
I0313 11:35:50.465291 22390 net.cpp:86] Creating Layer SCNN_U_11/sum
I0313 11:35:50.465301 22390 net.cpp:408] SCNN_U_11/sum <- SCNN_U_11/message
I0313 11:35:50.465312 22390 net.cpp:408] SCNN_U_11/sum <- SCNN_D_10_SCNN_D_9/sum_0_split_1
I0313 11:35:50.465320 22390 net.cpp:382] SCNN_U_11/sum -> SCNN_U_10
I0313 11:35:50.465374 22390 net.cpp:124] Setting up SCNN_U_11/sum
I0313 11:35:50.465385 22390 net.cpp:131] Top shape: 1 64 1 80 (5120)
I0313 11:35:50.465390 22390 net.cpp:139] Memory required for data: 328806400
I0313 11:35:50.465394 22390 layer_factory.hpp:77] Creating layer SCNN_U_10_SCNN_U_11/sum_0_split
I0313 11:35:50.465404 22390 net.cpp:86] Creating Layer SCNN_U_10_SCNN_U_11/sum_0_split
I0313 11:35:50.465412 22390 net.cpp:408] SCNN_U_10_SCNN_U_11/sum_0_split <- SCNN_U_10
I0313 11:35:50.465421 22390 net.cpp:382] SCNN_U_10_SCNN_U_11/sum_0_split -> SCNN_U_10_SCNN_U_11/sum_0_split_0
I0313 11:35:50.465435 22390 net.cpp:382] SCNN_U_10_SCNN_U_11/sum_0_split -> SCNN_U_10_SCNN_U_11/sum_0_split_1
I0313 11:35:50.465507 22390 net.cpp:124] Setting up SCNN_U_10_SCNN_U_11/sum_0_split
I0313 11:35:50.465517 22390 net.cpp:131] Top shape: 1 64 1 80 (5120)
I0313 11:35:50.465524 22390 net.cpp:131] Top shape: 1 64 1 80 (5120)
I0313 11:35:50.465529 22390 net.cpp:139] Memory required for data: 328847360
I0313 11:35:50.465533 22390 layer_factory.hpp:77] Creating layer SCNN_U_10
I0313 11:35:50.465543 22390 net.cpp:86] Creating Layer SCNN_U_10
I0313 11:35:50.465550 22390 net.cpp:408] SCNN_U_10 <- SCNN_U_10_SCNN_U_11/sum_0_split_0
I0313 11:35:50.465559 22390 net.cpp:382] SCNN_U_10 -> SCNN_U_10/message
I0313 11:35:50.467439 22390 net.cpp:124] Setting up SCNN_U_10
I0313 11:35:50.467461 22390 net.cpp:131] Top shape: 1 64 1 80 (5120)
I0313 11:35:50.467468 22390 net.cpp:139] Memory required for data: 328867840
I0313 11:35:50.467475 22390 net.cpp:467] Sharing parameters 'SCNN_U_w' owned by layer 'SCNN_U_60', param index 0
I0313 11:35:50.467481 22390 layer_factory.hpp:77] Creating layer SCNN_U_10/relu
I0313 11:35:50.467489 22390 net.cpp:86] Creating Layer SCNN_U_10/relu
I0313 11:35:50.467497 22390 net.cpp:408] SCNN_U_10/relu <- SCNN_U_10/message
I0313 11:35:50.467509 22390 net.cpp:369] SCNN_U_10/relu -> SCNN_U_10/message (in-place)
I0313 11:35:50.467741 22390 net.cpp:124] Setting up SCNN_U_10/relu
I0313 11:35:50.467752 22390 net.cpp:131] Top shape: 1 64 1 80 (5120)
I0313 11:35:50.467759 22390 net.cpp:139] Memory required for data: 328888320
I0313 11:35:50.467763 22390 layer_factory.hpp:77] Creating layer SCNN_U_10/sum
I0313 11:35:50.467772 22390 net.cpp:86] Creating Layer SCNN_U_10/sum
I0313 11:35:50.467782 22390 net.cpp:408] SCNN_U_10/sum <- SCNN_U_10/message
I0313 11:35:50.467792 22390 net.cpp:408] SCNN_U_10/sum <- SCNN_D_9_SCNN_D_8/sum_0_split_1
I0313 11:35:50.467800 22390 net.cpp:382] SCNN_U_10/sum -> SCNN_U_9
I0313 11:35:50.467855 22390 net.cpp:124] Setting up SCNN_U_10/sum
I0313 11:35:50.467867 22390 net.cpp:131] Top shape: 1 64 1 80 (5120)
I0313 11:35:50.467872 22390 net.cpp:139] Memory required for data: 328908800
I0313 11:35:50.467875 22390 layer_factory.hpp:77] Creating layer SCNN_U_9_SCNN_U_10/sum_0_split
I0313 11:35:50.467885 22390 net.cpp:86] Creating Layer SCNN_U_9_SCNN_U_10/sum_0_split
I0313 11:35:50.467891 22390 net.cpp:408] SCNN_U_9_SCNN_U_10/sum_0_split <- SCNN_U_9
I0313 11:35:50.467901 22390 net.cpp:382] SCNN_U_9_SCNN_U_10/sum_0_split -> SCNN_U_9_SCNN_U_10/sum_0_split_0
I0313 11:35:50.467913 22390 net.cpp:382] SCNN_U_9_SCNN_U_10/sum_0_split -> SCNN_U_9_SCNN_U_10/sum_0_split_1
I0313 11:35:50.467994 22390 net.cpp:124] Setting up SCNN_U_9_SCNN_U_10/sum_0_split
I0313 11:35:50.468006 22390 net.cpp:131] Top shape: 1 64 1 80 (5120)
I0313 11:35:50.468013 22390 net.cpp:131] Top shape: 1 64 1 80 (5120)
I0313 11:35:50.468017 22390 net.cpp:139] Memory required for data: 328949760
I0313 11:35:50.468020 22390 layer_factory.hpp:77] Creating layer SCNN_U_9
I0313 11:35:50.468032 22390 net.cpp:86] Creating Layer SCNN_U_9
I0313 11:35:50.468040 22390 net.cpp:408] SCNN_U_9 <- SCNN_U_9_SCNN_U_10/sum_0_split_0
I0313 11:35:50.468050 22390 net.cpp:382] SCNN_U_9 -> SCNN_U_9/message
I0313 11:35:50.472726 22390 net.cpp:124] Setting up SCNN_U_9
I0313 11:35:50.472769 22390 net.cpp:131] Top shape: 1 64 1 80 (5120)
I0313 11:35:50.472781 22390 net.cpp:139] Memory required for data: 328970240
I0313 11:35:50.472792 22390 net.cpp:467] Sharing parameters 'SCNN_U_w' owned by layer 'SCNN_U_60', param index 0
I0313 11:35:50.472798 22390 layer_factory.hpp:77] Creating layer SCNN_U_9/relu
I0313 11:35:50.472811 22390 net.cpp:86] Creating Layer SCNN_U_9/relu
I0313 11:35:50.472823 22390 net.cpp:408] SCNN_U_9/relu <- SCNN_U_9/message
I0313 11:35:50.472837 22390 net.cpp:369] SCNN_U_9/relu -> SCNN_U_9/message (in-place)
I0313 11:35:50.473371 22390 net.cpp:124] Setting up SCNN_U_9/relu
I0313 11:35:50.473385 22390 net.cpp:131] Top shape: 1 64 1 80 (5120)
I0313 11:35:50.473389 22390 net.cpp:139] Memory required for data: 328990720
I0313 11:35:50.473392 22390 layer_factory.hpp:77] Creating layer SCNN_U_9/sum
I0313 11:35:50.473400 22390 net.cpp:86] Creating Layer SCNN_U_9/sum
I0313 11:35:50.473408 22390 net.cpp:408] SCNN_U_9/sum <- SCNN_U_9/message
I0313 11:35:50.473418 22390 net.cpp:408] SCNN_U_9/sum <- SCNN_D_8_SCNN_D_7/sum_0_split_1
I0313 11:35:50.473425 22390 net.cpp:382] SCNN_U_9/sum -> SCNN_U_8
I0313 11:35:50.473495 22390 net.cpp:124] Setting up SCNN_U_9/sum
I0313 11:35:50.473505 22390 net.cpp:131] Top shape: 1 64 1 80 (5120)
I0313 11:35:50.473510 22390 net.cpp:139] Memory required for data: 329011200
I0313 11:35:50.473511 22390 layer_factory.hpp:77] Creating layer SCNN_U_8_SCNN_U_9/sum_0_split
I0313 11:35:50.473520 22390 net.cpp:86] Creating Layer SCNN_U_8_SCNN_U_9/sum_0_split
I0313 11:35:50.473526 22390 net.cpp:408] SCNN_U_8_SCNN_U_9/sum_0_split <- SCNN_U_8
I0313 11:35:50.473533 22390 net.cpp:382] SCNN_U_8_SCNN_U_9/sum_0_split -> SCNN_U_8_SCNN_U_9/sum_0_split_0
I0313 11:35:50.473541 22390 net.cpp:382] SCNN_U_8_SCNN_U_9/sum_0_split -> SCNN_U_8_SCNN_U_9/sum_0_split_1
I0313 11:35:50.473614 22390 net.cpp:124] Setting up SCNN_U_8_SCNN_U_9/sum_0_split
I0313 11:35:50.473623 22390 net.cpp:131] Top shape: 1 64 1 80 (5120)
I0313 11:35:50.473628 22390 net.cpp:131] Top shape: 1 64 1 80 (5120)
I0313 11:35:50.473630 22390 net.cpp:139] Memory required for data: 329052160
I0313 11:35:50.473634 22390 layer_factory.hpp:77] Creating layer SCNN_U_8
I0313 11:35:50.473645 22390 net.cpp:86] Creating Layer SCNN_U_8
I0313 11:35:50.473651 22390 net.cpp:408] SCNN_U_8 <- SCNN_U_8_SCNN_U_9/sum_0_split_0
I0313 11:35:50.473664 22390 net.cpp:382] SCNN_U_8 -> SCNN_U_8/message
I0313 11:35:50.475558 22390 net.cpp:124] Setting up SCNN_U_8
I0313 11:35:50.475589 22390 net.cpp:131] Top shape: 1 64 1 80 (5120)
I0313 11:35:50.475594 22390 net.cpp:139] Memory required for data: 329072640
I0313 11:35:50.475600 22390 net.cpp:467] Sharing parameters 'SCNN_U_w' owned by layer 'SCNN_U_60', param index 0
I0313 11:35:50.475605 22390 layer_factory.hpp:77] Creating layer SCNN_U_8/relu
I0313 11:35:50.475611 22390 net.cpp:86] Creating Layer SCNN_U_8/relu
I0313 11:35:50.475617 22390 net.cpp:408] SCNN_U_8/relu <- SCNN_U_8/message
I0313 11:35:50.475632 22390 net.cpp:369] SCNN_U_8/relu -> SCNN_U_8/message (in-place)
I0313 11:35:50.475862 22390 net.cpp:124] Setting up SCNN_U_8/relu
I0313 11:35:50.475872 22390 net.cpp:131] Top shape: 1 64 1 80 (5120)
I0313 11:35:50.475875 22390 net.cpp:139] Memory required for data: 329093120
I0313 11:35:50.475878 22390 layer_factory.hpp:77] Creating layer SCNN_U_8/sum
I0313 11:35:50.475885 22390 net.cpp:86] Creating Layer SCNN_U_8/sum
I0313 11:35:50.475891 22390 net.cpp:408] SCNN_U_8/sum <- SCNN_U_8/message
I0313 11:35:50.475903 22390 net.cpp:408] SCNN_U_8/sum <- SCNN_D_7_SCNN_D_6/sum_0_split_1
I0313 11:35:50.475908 22390 net.cpp:382] SCNN_U_8/sum -> SCNN_U_7
I0313 11:35:50.475962 22390 net.cpp:124] Setting up SCNN_U_8/sum
I0313 11:35:50.475973 22390 net.cpp:131] Top shape: 1 64 1 80 (5120)
I0313 11:35:50.475978 22390 net.cpp:139] Memory required for data: 329113600
I0313 11:35:50.475982 22390 layer_factory.hpp:77] Creating layer SCNN_U_7_SCNN_U_8/sum_0_split
I0313 11:35:50.475991 22390 net.cpp:86] Creating Layer SCNN_U_7_SCNN_U_8/sum_0_split
I0313 11:35:50.475999 22390 net.cpp:408] SCNN_U_7_SCNN_U_8/sum_0_split <- SCNN_U_7
I0313 11:35:50.476007 22390 net.cpp:382] SCNN_U_7_SCNN_U_8/sum_0_split -> SCNN_U_7_SCNN_U_8/sum_0_split_0
I0313 11:35:50.476020 22390 net.cpp:382] SCNN_U_7_SCNN_U_8/sum_0_split -> SCNN_U_7_SCNN_U_8/sum_0_split_1
I0313 11:35:50.476096 22390 net.cpp:124] Setting up SCNN_U_7_SCNN_U_8/sum_0_split
I0313 11:35:50.476106 22390 net.cpp:131] Top shape: 1 64 1 80 (5120)
I0313 11:35:50.476112 22390 net.cpp:131] Top shape: 1 64 1 80 (5120)
I0313 11:35:50.476117 22390 net.cpp:139] Memory required for data: 329154560
I0313 11:35:50.476121 22390 layer_factory.hpp:77] Creating layer SCNN_U_7
I0313 11:35:50.476133 22390 net.cpp:86] Creating Layer SCNN_U_7
I0313 11:35:50.476141 22390 net.cpp:408] SCNN_U_7 <- SCNN_U_7_SCNN_U_8/sum_0_split_0
I0313 11:35:50.476151 22390 net.cpp:382] SCNN_U_7 -> SCNN_U_7/message
I0313 11:35:50.478034 22390 net.cpp:124] Setting up SCNN_U_7
I0313 11:35:50.478055 22390 net.cpp:131] Top shape: 1 64 1 80 (5120)
I0313 11:35:50.478060 22390 net.cpp:139] Memory required for data: 329175040
I0313 11:35:50.478068 22390 net.cpp:467] Sharing parameters 'SCNN_U_w' owned by layer 'SCNN_U_60', param index 0
I0313 11:35:50.478075 22390 layer_factory.hpp:77] Creating layer SCNN_U_7/relu
I0313 11:35:50.478081 22390 net.cpp:86] Creating Layer SCNN_U_7/relu
I0313 11:35:50.478090 22390 net.cpp:408] SCNN_U_7/relu <- SCNN_U_7/message
I0313 11:35:50.478097 22390 net.cpp:369] SCNN_U_7/relu -> SCNN_U_7/message (in-place)
I0313 11:35:50.478314 22390 net.cpp:124] Setting up SCNN_U_7/relu
I0313 11:35:50.478327 22390 net.cpp:131] Top shape: 1 64 1 80 (5120)
I0313 11:35:50.478332 22390 net.cpp:139] Memory required for data: 329195520
I0313 11:35:50.478335 22390 layer_factory.hpp:77] Creating layer SCNN_U_7/sum
I0313 11:35:50.478343 22390 net.cpp:86] Creating Layer SCNN_U_7/sum
I0313 11:35:50.478351 22390 net.cpp:408] SCNN_U_7/sum <- SCNN_U_7/message
I0313 11:35:50.478363 22390 net.cpp:408] SCNN_U_7/sum <- SCNN_D_6_SCNN_D_5/sum_0_split_1
I0313 11:35:50.478369 22390 net.cpp:382] SCNN_U_7/sum -> SCNN_U_6
I0313 11:35:50.478422 22390 net.cpp:124] Setting up SCNN_U_7/sum
I0313 11:35:50.478433 22390 net.cpp:131] Top shape: 1 64 1 80 (5120)
I0313 11:35:50.478438 22390 net.cpp:139] Memory required for data: 329216000
I0313 11:35:50.478441 22390 layer_factory.hpp:77] Creating layer SCNN_U_6_SCNN_U_7/sum_0_split
I0313 11:35:50.478448 22390 net.cpp:86] Creating Layer SCNN_U_6_SCNN_U_7/sum_0_split
I0313 11:35:50.478456 22390 net.cpp:408] SCNN_U_6_SCNN_U_7/sum_0_split <- SCNN_U_6
I0313 11:35:50.478464 22390 net.cpp:382] SCNN_U_6_SCNN_U_7/sum_0_split -> SCNN_U_6_SCNN_U_7/sum_0_split_0
I0313 11:35:50.478477 22390 net.cpp:382] SCNN_U_6_SCNN_U_7/sum_0_split -> SCNN_U_6_SCNN_U_7/sum_0_split_1
I0313 11:35:50.478546 22390 net.cpp:124] Setting up SCNN_U_6_SCNN_U_7/sum_0_split
I0313 11:35:50.478556 22390 net.cpp:131] Top shape: 1 64 1 80 (5120)
I0313 11:35:50.478564 22390 net.cpp:131] Top shape: 1 64 1 80 (5120)
I0313 11:35:50.478567 22390 net.cpp:139] Memory required for data: 329256960
I0313 11:35:50.478571 22390 layer_factory.hpp:77] Creating layer SCNN_U_6
I0313 11:35:50.478581 22390 net.cpp:86] Creating Layer SCNN_U_6
I0313 11:35:50.478590 22390 net.cpp:408] SCNN_U_6 <- SCNN_U_6_SCNN_U_7/sum_0_split_0
I0313 11:35:50.478600 22390 net.cpp:382] SCNN_U_6 -> SCNN_U_6/message
I0313 11:35:50.482184 22390 net.cpp:124] Setting up SCNN_U_6
I0313 11:35:50.482220 22390 net.cpp:131] Top shape: 1 64 1 80 (5120)
I0313 11:35:50.482226 22390 net.cpp:139] Memory required for data: 329277440
I0313 11:35:50.482236 22390 net.cpp:467] Sharing parameters 'SCNN_U_w' owned by layer 'SCNN_U_60', param index 0
I0313 11:35:50.482242 22390 layer_factory.hpp:77] Creating layer SCNN_U_6/relu
I0313 11:35:50.482254 22390 net.cpp:86] Creating Layer SCNN_U_6/relu
I0313 11:35:50.482266 22390 net.cpp:408] SCNN_U_6/relu <- SCNN_U_6/message
I0313 11:35:50.482280 22390 net.cpp:369] SCNN_U_6/relu -> SCNN_U_6/message (in-place)
I0313 11:35:50.482502 22390 net.cpp:124] Setting up SCNN_U_6/relu
I0313 11:35:50.482514 22390 net.cpp:131] Top shape: 1 64 1 80 (5120)
I0313 11:35:50.482519 22390 net.cpp:139] Memory required for data: 329297920
I0313 11:35:50.482522 22390 layer_factory.hpp:77] Creating layer SCNN_U_6/sum
I0313 11:35:50.482530 22390 net.cpp:86] Creating Layer SCNN_U_6/sum
I0313 11:35:50.482538 22390 net.cpp:408] SCNN_U_6/sum <- SCNN_U_6/message
I0313 11:35:50.482550 22390 net.cpp:408] SCNN_U_6/sum <- SCNN_D_5_SCNN_D_4/sum_0_split_1
I0313 11:35:50.482558 22390 net.cpp:382] SCNN_U_6/sum -> SCNN_U_5
I0313 11:35:50.482620 22390 net.cpp:124] Setting up SCNN_U_6/sum
I0313 11:35:50.482630 22390 net.cpp:131] Top shape: 1 64 1 80 (5120)
I0313 11:35:50.482635 22390 net.cpp:139] Memory required for data: 329318400
I0313 11:35:50.482637 22390 layer_factory.hpp:77] Creating layer SCNN_U_5_SCNN_U_6/sum_0_split
I0313 11:35:50.482645 22390 net.cpp:86] Creating Layer SCNN_U_5_SCNN_U_6/sum_0_split
I0313 11:35:50.482651 22390 net.cpp:408] SCNN_U_5_SCNN_U_6/sum_0_split <- SCNN_U_5
I0313 11:35:50.482659 22390 net.cpp:382] SCNN_U_5_SCNN_U_6/sum_0_split -> SCNN_U_5_SCNN_U_6/sum_0_split_0
I0313 11:35:50.482671 22390 net.cpp:382] SCNN_U_5_SCNN_U_6/sum_0_split -> SCNN_U_5_SCNN_U_6/sum_0_split_1
I0313 11:35:50.482744 22390 net.cpp:124] Setting up SCNN_U_5_SCNN_U_6/sum_0_split
I0313 11:35:50.482753 22390 net.cpp:131] Top shape: 1 64 1 80 (5120)
I0313 11:35:50.482760 22390 net.cpp:131] Top shape: 1 64 1 80 (5120)
I0313 11:35:50.482764 22390 net.cpp:139] Memory required for data: 329359360
I0313 11:35:50.482766 22390 layer_factory.hpp:77] Creating layer SCNN_U_5
I0313 11:35:50.482775 22390 net.cpp:86] Creating Layer SCNN_U_5
I0313 11:35:50.482782 22390 net.cpp:408] SCNN_U_5 <- SCNN_U_5_SCNN_U_6/sum_0_split_0
I0313 11:35:50.482792 22390 net.cpp:382] SCNN_U_5 -> SCNN_U_5/message
I0313 11:35:50.484668 22390 net.cpp:124] Setting up SCNN_U_5
I0313 11:35:50.484689 22390 net.cpp:131] Top shape: 1 64 1 80 (5120)
I0313 11:35:50.484695 22390 net.cpp:139] Memory required for data: 329379840
I0313 11:35:50.484702 22390 net.cpp:467] Sharing parameters 'SCNN_U_w' owned by layer 'SCNN_U_60', param index 0
I0313 11:35:50.484709 22390 layer_factory.hpp:77] Creating layer SCNN_U_5/relu
I0313 11:35:50.484715 22390 net.cpp:86] Creating Layer SCNN_U_5/relu
I0313 11:35:50.484724 22390 net.cpp:408] SCNN_U_5/relu <- SCNN_U_5/message
I0313 11:35:50.484733 22390 net.cpp:369] SCNN_U_5/relu -> SCNN_U_5/message (in-place)
I0313 11:35:50.485250 22390 net.cpp:124] Setting up SCNN_U_5/relu
I0313 11:35:50.485265 22390 net.cpp:131] Top shape: 1 64 1 80 (5120)
I0313 11:35:50.485270 22390 net.cpp:139] Memory required for data: 329400320
I0313 11:35:50.485275 22390 layer_factory.hpp:77] Creating layer SCNN_U_5/sum
I0313 11:35:50.485282 22390 net.cpp:86] Creating Layer SCNN_U_5/sum
I0313 11:35:50.485291 22390 net.cpp:408] SCNN_U_5/sum <- SCNN_U_5/message
I0313 11:35:50.485303 22390 net.cpp:408] SCNN_U_5/sum <- SCNN_D_4_SCNN_D_3/sum_0_split_1
I0313 11:35:50.485312 22390 net.cpp:382] SCNN_U_5/sum -> SCNN_U_4
I0313 11:35:50.485368 22390 net.cpp:124] Setting up SCNN_U_5/sum
I0313 11:35:50.485380 22390 net.cpp:131] Top shape: 1 64 1 80 (5120)
I0313 11:35:50.485385 22390 net.cpp:139] Memory required for data: 329420800
I0313 11:35:50.485388 22390 layer_factory.hpp:77] Creating layer SCNN_U_4_SCNN_U_5/sum_0_split
I0313 11:35:50.485395 22390 net.cpp:86] Creating Layer SCNN_U_4_SCNN_U_5/sum_0_split
I0313 11:35:50.485404 22390 net.cpp:408] SCNN_U_4_SCNN_U_5/sum_0_split <- SCNN_U_4
I0313 11:35:50.485414 22390 net.cpp:382] SCNN_U_4_SCNN_U_5/sum_0_split -> SCNN_U_4_SCNN_U_5/sum_0_split_0
I0313 11:35:50.485424 22390 net.cpp:382] SCNN_U_4_SCNN_U_5/sum_0_split -> SCNN_U_4_SCNN_U_5/sum_0_split_1
I0313 11:35:50.485496 22390 net.cpp:124] Setting up SCNN_U_4_SCNN_U_5/sum_0_split
I0313 11:35:50.485505 22390 net.cpp:131] Top shape: 1 64 1 80 (5120)
I0313 11:35:50.485512 22390 net.cpp:131] Top shape: 1 64 1 80 (5120)
I0313 11:35:50.485517 22390 net.cpp:139] Memory required for data: 329461760
I0313 11:35:50.485520 22390 layer_factory.hpp:77] Creating layer SCNN_U_4
I0313 11:35:50.485532 22390 net.cpp:86] Creating Layer SCNN_U_4
I0313 11:35:50.485538 22390 net.cpp:408] SCNN_U_4 <- SCNN_U_4_SCNN_U_5/sum_0_split_0
I0313 11:35:50.485548 22390 net.cpp:382] SCNN_U_4 -> SCNN_U_4/message
I0313 11:35:50.487077 22390 net.cpp:124] Setting up SCNN_U_4
I0313 11:35:50.487097 22390 net.cpp:131] Top shape: 1 64 1 80 (5120)
I0313 11:35:50.487102 22390 net.cpp:139] Memory required for data: 329482240
I0313 11:35:50.487109 22390 net.cpp:467] Sharing parameters 'SCNN_U_w' owned by layer 'SCNN_U_60', param index 0
I0313 11:35:50.487115 22390 layer_factory.hpp:77] Creating layer SCNN_U_4/relu
I0313 11:35:50.487125 22390 net.cpp:86] Creating Layer SCNN_U_4/relu
I0313 11:35:50.487134 22390 net.cpp:408] SCNN_U_4/relu <- SCNN_U_4/message
I0313 11:35:50.487143 22390 net.cpp:369] SCNN_U_4/relu -> SCNN_U_4/message (in-place)
I0313 11:35:50.487676 22390 net.cpp:124] Setting up SCNN_U_4/relu
I0313 11:35:50.487691 22390 net.cpp:131] Top shape: 1 64 1 80 (5120)
I0313 11:35:50.487696 22390 net.cpp:139] Memory required for data: 329502720
I0313 11:35:50.487700 22390 layer_factory.hpp:77] Creating layer SCNN_U_4/sum
I0313 11:35:50.487709 22390 net.cpp:86] Creating Layer SCNN_U_4/sum
I0313 11:35:50.487717 22390 net.cpp:408] SCNN_U_4/sum <- SCNN_U_4/message
I0313 11:35:50.487730 22390 net.cpp:408] SCNN_U_4/sum <- SCNN_D_3_SCNN_D_2/sum_0_split_1
I0313 11:35:50.487737 22390 net.cpp:382] SCNN_U_4/sum -> SCNN_U_3
I0313 11:35:50.487792 22390 net.cpp:124] Setting up SCNN_U_4/sum
I0313 11:35:50.487804 22390 net.cpp:131] Top shape: 1 64 1 80 (5120)
I0313 11:35:50.487809 22390 net.cpp:139] Memory required for data: 329523200
I0313 11:35:50.487812 22390 layer_factory.hpp:77] Creating layer SCNN_U_3_SCNN_U_4/sum_0_split
I0313 11:35:50.487819 22390 net.cpp:86] Creating Layer SCNN_U_3_SCNN_U_4/sum_0_split
I0313 11:35:50.487826 22390 net.cpp:408] SCNN_U_3_SCNN_U_4/sum_0_split <- SCNN_U_3
I0313 11:35:50.487835 22390 net.cpp:382] SCNN_U_3_SCNN_U_4/sum_0_split -> SCNN_U_3_SCNN_U_4/sum_0_split_0
I0313 11:35:50.487846 22390 net.cpp:382] SCNN_U_3_SCNN_U_4/sum_0_split -> SCNN_U_3_SCNN_U_4/sum_0_split_1
I0313 11:35:50.487920 22390 net.cpp:124] Setting up SCNN_U_3_SCNN_U_4/sum_0_split
I0313 11:35:50.487928 22390 net.cpp:131] Top shape: 1 64 1 80 (5120)
I0313 11:35:50.487936 22390 net.cpp:131] Top shape: 1 64 1 80 (5120)
I0313 11:35:50.487941 22390 net.cpp:139] Memory required for data: 329564160
I0313 11:35:50.487943 22390 layer_factory.hpp:77] Creating layer SCNN_U_3
I0313 11:35:50.487953 22390 net.cpp:86] Creating Layer SCNN_U_3
I0313 11:35:50.487960 22390 net.cpp:408] SCNN_U_3 <- SCNN_U_3_SCNN_U_4/sum_0_split_0
I0313 11:35:50.487970 22390 net.cpp:382] SCNN_U_3 -> SCNN_U_3/message
I0313 11:35:50.491539 22390 net.cpp:124] Setting up SCNN_U_3
I0313 11:35:50.491583 22390 net.cpp:131] Top shape: 1 64 1 80 (5120)
I0313 11:35:50.491590 22390 net.cpp:139] Memory required for data: 329584640
I0313 11:35:50.491627 22390 net.cpp:467] Sharing parameters 'SCNN_U_w' owned by layer 'SCNN_U_60', param index 0
I0313 11:35:50.491634 22390 layer_factory.hpp:77] Creating layer SCNN_U_3/relu
I0313 11:35:50.491647 22390 net.cpp:86] Creating Layer SCNN_U_3/relu
I0313 11:35:50.491657 22390 net.cpp:408] SCNN_U_3/relu <- SCNN_U_3/message
I0313 11:35:50.491670 22390 net.cpp:369] SCNN_U_3/relu -> SCNN_U_3/message (in-place)
I0313 11:35:50.491905 22390 net.cpp:124] Setting up SCNN_U_3/relu
I0313 11:35:50.491917 22390 net.cpp:131] Top shape: 1 64 1 80 (5120)
I0313 11:35:50.491924 22390 net.cpp:139] Memory required for data: 329605120
I0313 11:35:50.491930 22390 layer_factory.hpp:77] Creating layer SCNN_U_3/sum
I0313 11:35:50.491937 22390 net.cpp:86] Creating Layer SCNN_U_3/sum
I0313 11:35:50.491946 22390 net.cpp:408] SCNN_U_3/sum <- SCNN_U_3/message
I0313 11:35:50.491957 22390 net.cpp:408] SCNN_U_3/sum <- SCNN_D_2_SCNN_D_1/sum_0_split_1
I0313 11:35:50.491966 22390 net.cpp:382] SCNN_U_3/sum -> SCNN_U_2
I0313 11:35:50.492025 22390 net.cpp:124] Setting up SCNN_U_3/sum
I0313 11:35:50.492038 22390 net.cpp:131] Top shape: 1 64 1 80 (5120)
I0313 11:35:50.492043 22390 net.cpp:139] Memory required for data: 329625600
I0313 11:35:50.492045 22390 layer_factory.hpp:77] Creating layer SCNN_U_2_SCNN_U_3/sum_0_split
I0313 11:35:50.492053 22390 net.cpp:86] Creating Layer SCNN_U_2_SCNN_U_3/sum_0_split
I0313 11:35:50.492060 22390 net.cpp:408] SCNN_U_2_SCNN_U_3/sum_0_split <- SCNN_U_2
I0313 11:35:50.492069 22390 net.cpp:382] SCNN_U_2_SCNN_U_3/sum_0_split -> SCNN_U_2_SCNN_U_3/sum_0_split_0
I0313 11:35:50.492080 22390 net.cpp:382] SCNN_U_2_SCNN_U_3/sum_0_split -> SCNN_U_2_SCNN_U_3/sum_0_split_1
I0313 11:35:50.492151 22390 net.cpp:124] Setting up SCNN_U_2_SCNN_U_3/sum_0_split
I0313 11:35:50.492159 22390 net.cpp:131] Top shape: 1 64 1 80 (5120)
I0313 11:35:50.492166 22390 net.cpp:131] Top shape: 1 64 1 80 (5120)
I0313 11:35:50.492172 22390 net.cpp:139] Memory required for data: 329666560
I0313 11:35:50.492174 22390 layer_factory.hpp:77] Creating layer SCNN_U_2
I0313 11:35:50.492187 22390 net.cpp:86] Creating Layer SCNN_U_2
I0313 11:35:50.492194 22390 net.cpp:408] SCNN_U_2 <- SCNN_U_2_SCNN_U_3/sum_0_split_0
I0313 11:35:50.492204 22390 net.cpp:382] SCNN_U_2 -> SCNN_U_2/message
I0313 11:35:50.494127 22390 net.cpp:124] Setting up SCNN_U_2
I0313 11:35:50.494149 22390 net.cpp:131] Top shape: 1 64 1 80 (5120)
I0313 11:35:50.494155 22390 net.cpp:139] Memory required for data: 329687040
I0313 11:35:50.494163 22390 net.cpp:467] Sharing parameters 'SCNN_U_w' owned by layer 'SCNN_U_60', param index 0
I0313 11:35:50.494168 22390 layer_factory.hpp:77] Creating layer SCNN_U_2/relu
I0313 11:35:50.494174 22390 net.cpp:86] Creating Layer SCNN_U_2/relu
I0313 11:35:50.494181 22390 net.cpp:408] SCNN_U_2/relu <- SCNN_U_2/message
I0313 11:35:50.494190 22390 net.cpp:369] SCNN_U_2/relu -> SCNN_U_2/message (in-place)
I0313 11:35:50.494410 22390 net.cpp:124] Setting up SCNN_U_2/relu
I0313 11:35:50.494422 22390 net.cpp:131] Top shape: 1 64 1 80 (5120)
I0313 11:35:50.494427 22390 net.cpp:139] Memory required for data: 329707520
I0313 11:35:50.494431 22390 layer_factory.hpp:77] Creating layer SCNN_U_2/sum
I0313 11:35:50.494438 22390 net.cpp:86] Creating Layer SCNN_U_2/sum
I0313 11:35:50.494446 22390 net.cpp:408] SCNN_U_2/sum <- SCNN_U_2/message
I0313 11:35:50.494457 22390 net.cpp:408] SCNN_U_2/sum <- slice1_1_Slice1_0_split_1
I0313 11:35:50.494464 22390 net.cpp:382] SCNN_U_2/sum -> SCNN_U_1
I0313 11:35:50.494520 22390 net.cpp:124] Setting up SCNN_U_2/sum
I0313 11:35:50.494531 22390 net.cpp:131] Top shape: 1 64 1 80 (5120)
I0313 11:35:50.494536 22390 net.cpp:139] Memory required for data: 329728000
I0313 11:35:50.494539 22390 layer_factory.hpp:77] Creating layer Concat1
I0313 11:35:50.494551 22390 net.cpp:86] Creating Layer Concat1
I0313 11:35:50.494560 22390 net.cpp:408] Concat1 <- SCNN_U_1
I0313 11:35:50.494568 22390 net.cpp:408] Concat1 <- SCNN_U_2_SCNN_U_3/sum_0_split_1
I0313 11:35:50.494577 22390 net.cpp:408] Concat1 <- SCNN_U_3_SCNN_U_4/sum_0_split_1
…
I0313 11:35:50.494905 22390 net.cpp:408] Concat1 <- SCNN_U_55_SCNN_U_56/sum_0_split_1
I0313 11:35:50.494911 22390 net.cpp:408] Concat1 <- SCNN_U_56_SCNN_U_57/sum_0_split_1
I0313 11:35:50.494917 22390 net.cpp:408] Concat1 <- SCNN_U_57_SCNN_U_58/sum_0_split_1
I0313 11:35:50.494923 22390 net.cpp:408] Concat1 <- SCNN_U_58_SCNN_U_59/sum_0_split_1
I0313 11:35:50.494930 22390 net.cpp:408] Concat1 <- SCNN_U_59_SCNN_U_60/sum_0_split_1
I0313 11:35:50.494936 22390 net.cpp:408] Concat1 <- SCNN_D_60_SCNN_D_59/sum_0_split_1
I0313 11:35:50.494949 22390 net.cpp:382] Concat1 -> SCNN_U
I0313 11:35:50.495007 22390 net.cpp:124] Setting up Concat1
I0313 11:35:50.495018 22390 net.cpp:131] Top shape: 1 64 60 80 (307200)
I0313 11:35:50.495023 22390 net.cpp:139] Memory required for data: 330956800
I0313 11:35:50.495026 22390 layer_factory.hpp:77] Creating layer conv6
I0313 11:35:50.495036 22390 net.cpp:86] Creating Layer conv6
I0313 11:35:50.495043 22390 net.cpp:408] conv6 <- SCNN_U
I0313 11:35:50.495054 22390 net.cpp:382] conv6 -> conv6
I0313 11:35:50.496665 22390 net.cpp:124] Setting up conv6
I0313 11:35:50.496685 22390 net.cpp:131] Top shape: 1 64 60 80 (307200)
I0313 11:35:50.496690 22390 net.cpp:139] Memory required for data: 332185600
I0313 11:35:50.496700 22390 layer_factory.hpp:77] Creating layer deconv_out
I0313 11:35:50.496712 22390 net.cpp:86] Creating Layer deconv_out
I0313 11:35:50.496722 22390 net.cpp:408] deconv_out <- conv6
I0313 11:35:50.496734 22390 net.cpp:382] deconv_out -> deconv_out
I0313 11:35:50.502977 22390 net.cpp:124] Setting up deconv_out
I0313 11:35:50.503018 22390 net.cpp:131] Top shape: 1 32 480 640 (9830400)
I0313 11:35:50.503023 22390 net.cpp:139] Memory required for data: 371507200
I0313 11:35:50.503036 22390 layer_factory.hpp:77] Creating layer conv_out
I0313 11:35:50.503053 22390 net.cpp:86] Creating Layer conv_out
I0313 11:35:50.503069 22390 net.cpp:408] conv_out <- deconv_out
I0313 11:35:50.503087 22390 net.cpp:382] conv_out -> conv_out
I0313 11:35:50.507683 22390 net.cpp:124] Setting up conv_out
I0313 11:35:50.507722 22390 net.cpp:131] Top shape: 1 13 480 640 (3993600)
I0313 11:35:50.507727 22390 net.cpp:139] Memory required for data: 387481600
I0313 11:35:50.507737 22390 layer_factory.hpp:77] Creating layer softmax
I0313 11:35:50.507760 22390 net.cpp:86] Creating Layer softmax
I0313 11:35:50.507778 22390 net.cpp:408] softmax <- conv_out
I0313 11:35:50.507793 22390 net.cpp:382] softmax -> softmax
I0313 11:35:50.508255 22390 net.cpp:124] Setting up softmax
I0313 11:35:50.508271 22390 net.cpp:131] Top shape: 1 13 480 640 (3993600)
I0313 11:35:50.508275 22390 net.cpp:139] Memory required for data: 403456000
I0313 11:35:50.508280 22390 net.cpp:202] softmax does not need backward computation.
I0313 11:35:50.508285 22390 net.cpp:202] conv_out does not need backward computation.
I0313 11:35:50.508288 22390 net.cpp:202] deconv_out does not need backward computation.
I0313 11:35:50.508292 22390 net.cpp:202] conv6 does not need backward computation.
…
