…
I0313 11:45:35.260188 24715 common.cpp:197] Concurrent copy and execution: Yes
I0313 11:45:35.260191 24715 common.cpp:199] Number of multiprocessors:     10
I0313 11:45:35.260195 24715 common.cpp:200] Kernel execution timeout:      Yes
I0313 11:45:35.278986 24715 net.cpp:53] Initializing net from parameters: 
name: "darknet-16c-16x-3d multitask TEST 960x384, offset L3:440, L4: 312, RM DET"
state {
  phase: TEST
  level: 0
}
layer {
  name: "input"
  type: "Input"
  top: "data"
  input_param {
    shape {
      dim: 1
      dim: 3
      dim: 480
      dim: 640
    }
  }
}
layer {
  name: "scale_data_lane"
  type: "Power"
  bottom: "data"
  top: "scale_data_lane"
  propagate_down: false
  power_param {
    power: 1
    scale: 0.00392157
    shift: 0
  }
}
layer {
  name: "conv1"
  type: "Convolution"
  bottom: "scale_data_lane"
  top: "conv1"
  param {
    lr_mult: 1
    decay_mult: 1
  }
  convolution_param {
    num_output: 16
    bias_term: false
    pad: 1
    kernel_size: 3
    stride: 1
    weight_filler {
      type: "gaussian"
      std: 0.01
    }
    dilation: 1
  }
}
layer {
  name: "conv1_bn"
  type: "BatchNorm"
  bottom: "conv1"
  top: "conv1"
  batch_norm_param {
    use_global_stats: true
    eps: 1e-06
  }
}
layer {
  name: "conv1_scale"
  type: "Scale"
  bottom: "conv1"
  top: "conv1"
  param {
    lr_mult: 1
    decay_mult: 1
  }
  param {
    lr_mult: 1
    decay_mult: 1
  }
  scale_param {
    filler {
      type: "constant"
      value: 1
    }
    bias_term: true
  }
}
layer {
  name: "conv1_relu"
  type: "ReLU"
  bottom: "conv1"
  top: "conv1"
  relu_param {
    negative_slope: 0
  }
}
layer {
  name: "pool1"
  type: "Pooling"
  bottom: "conv1"
  top: "pool1"
  pooling_param {
    pool: MAX
    kernel_size: 2
    stride: 2
    pad: 0
  }
}
layer {
  name: "conv2"
  type: "Convolution"
  bottom: "pool1"
  top: "conv2"
  param {
    lr_mult: 1
    decay_mult: 1
  }
  convolution_param {
    num_output: 32
    bias_term: false
    pad: 1
    kernel_size: 3
    stride: 1
    weight_filler {
      type: "gaussian"
      std: 0.01
    }
    dilation: 1
  }
}
layer {
  name: "conv2_bn"
  type: "BatchNorm"
  bottom: "conv2"
  top: "conv2"
  batch_norm_param {
    use_global_stats: true
    eps: 1e-06
  }
}
layer {
  name: "conv2_scale"
  type: "Scale"
  bottom: "conv2"
  top: "conv2"
  param {
    lr_mult: 1
    decay_mult: 1
  }
  param {
    lr_mult: 1
    decay_mult: 1
  }
  scale_param {
    filler {
      type: "constant"
      value: 1
    }
    bias_term: true
  }
}
layer {
  name: "conv2_relu"
  type: "ReLU"
  bottom: "conv2"
  top: "conv2"
  relu_param {
    negative_slope: 0
  }
}
layer {
  name: "pool2"
  type: "Pooling"
  bottom: "conv2"
  top: "pool2"
  pooling_param {
    pool: MAX
    kernel_size: 2
    stride: 2
    pad: 0
  }
}
layer {
  name: "conv3_1"
  type: "Convolution"
  bottom: "pool2"
  top: "conv3_1"
  param {
    lr_mult: 1
    decay_mult: 1
  }
  convolution_param {
    num_output: 64
    bias_term: false
    pad: 1
    kernel_size: 3
    stride: 1
    weight_filler {
      type: "gaussian"
      std: 0.01
    }
    dilation: 1
  }
}
layer {
  name: "conv3_1_bn"
  type: "BatchNorm"
  bottom: "conv3_1"
  top: "conv3_1"
  batch_norm_param {
    use_global_stats: true
    eps: 1e-06
  }
}
layer {
  name: "conv3_1_scale"
  type: "Scale"
  bottom: "conv3_1"
  top: "conv3_1"
  param {
    lr_mult: 1
    decay_mult: 1
  }
  param {
    lr_mult: 1
    decay_mult: 1
  }
  scale_param {
    filler {
      type: "constant"
      value: 1
    }
    bias_term: true
  }
}
layer {
  name: "conv3_1_relu"
  type: "ReLU"
  bottom: "conv3_1"
  top: "conv3_1"
  relu_param {
    negative_slope: 0
  }
}
layer {
  name: "conv3_2"
  type: "Convolution"
  bottom: "conv3_1"
  top: "conv3_2"
  param {
    lr_mult: 1
    decay_mult: 1
  }
  convolution_param {
    num_output: 32
    bias_term: false
    pad: 0
    kernel_size: 1
    stride: 1
    weight_filler {
      type: "gaussian"
      std: 0.01
    }
    dilation: 1
  }
}
layer {
  name: "conv3_2_bn"
  type: "BatchNorm"
  bottom: "conv3_2"
  top: "conv3_2"
  batch_norm_param {
    use_global_stats: true
    eps: 1e-06
  }
}
layer {
  name: "conv3_2_scale"
  type: "Scale"
  bottom: "conv3_2"
  top: "conv3_2"
  param {
    lr_mult: 1
    decay_mult: 1
  }
  param {
    lr_mult: 1
    decay_mult: 1
  }
  scale_param {
    filler {
      type: "constant"
      value: 1
    }
    bias_term: true
  }
}
layer {
  name: "conv3_2_relu"
  type: "ReLU"
  bottom: "conv3_2"
  top: "conv3_2"
  relu_param {
    negative_slope: 0
  }
}
layer {
  name: "conv3_3"
  type: "Convolution"
  bottom: "conv3_2"
  top: "conv3_3"
  param {
    lr_mult: 1
    decay_mult: 1
  }
  convolution_param {
    num_output: 64
    bias_term: false
    pad: 1
    kernel_size: 3
    stride: 1
    weight_filler {
      type: "gaussian"
      std: 0.01
    }
    dilation: 1
  }
}
layer {
  name: "conv3_3_bn"
  type: "BatchNorm"
  bottom: "conv3_3"
  top: "conv3_3"
  batch_norm_param {
    use_global_stats: true
    eps: 1e-06
  }
}
layer {
  name: "conv3_3_scale"
  type: "Scale"
  bottom: "conv3_3"
  top: "conv3_3"
  param {
    lr_mult: 1
    decay_mult: 1
  }
  param {
    lr_mult: 1
    decay_mult: 1
  }
  scale_param {
    filler {
      type: "constant"
      value: 1
    }
    bias_term: true
  }
}
layer {
  name: "conv3_3_relu"
  type: "ReLU"
  bottom: "conv3_3"
  top: "conv3_3"
  relu_param {
    negative_slope: 0
  }
}
layer {
  name: "pool3"
  type: "Pooling"
  bottom: "conv3_3"
  top: "pool3"
  pooling_param {
    pool: MAX
    kernel_size: 2
    stride: 2
    pad: 0
  }
}
layer {
  name: "conv4_1"
  type: "Convolution"
  bottom: "pool3"
  top: "conv4_1"
  param {
    lr_mult: 1
    decay_mult: 1
  }
  convolution_param {
    num_output: 128
    bias_term: false
    pad: 1
    kernel_size: 3
    stride: 1
    weight_filler {
      type: "gaussian"
      std: 0.01
    }
    dilation: 1
  }
}
layer {
  name: "conv4_1_bn"
  type: "BatchNorm"
  bottom: "conv4_1"
  top: "conv4_1"
  batch_norm_param {
    use_global_stats: true
    eps: 1e-06
  }
}
layer {
  name: "conv4_1_scale"
  type: "Scale"
  bottom: "conv4_1"
  top: "conv4_1"
  param {
    lr_mult: 1
    decay_mult: 1
  }
  param {
    lr_mult: 1
    decay_mult: 1
  }
  scale_param {
    filler {
      type: "constant"
      value: 1
    }
    bias_term: true
  }
}
layer {
  name: "conv4_1_relu"
  type: "ReLU"
  bottom: "conv4_1"
  top: "conv4_1"
  relu_param {
    negative_slope: 0
  }
}
layer {
  name: "conv4_2"
  type: "Convolution"
  bottom: "conv4_1"
  top: "conv4_2"
  param {
    lr_mult: 1
    decay_mult: 1
  }
  convolution_param {
    num_output: 64
    bias_term: false
    pad: 0
    kernel_size: 1
    stride: 1
    weight_filler {
      type: "gaussian"
      std: 0.01
    }
    dilation: 1
  }
}
layer {
  name: "conv4_2_bn"
  type: "BatchNorm"
  bottom: "conv4_2"
  top: "conv4_2"
  batch_norm_param {
    use_global_stats: true
    eps: 1e-06
  }
}
layer {
  name: "conv4_2_scale"
  type: "Scale"
  bottom: "conv4_2"
  top: "conv4_2"
  param {
    lr_mult: 1
    decay_mult: 1
  }
  param {
    lr_mult: 1
    decay_mult: 1
  }
  scale_param {
    filler {
      type: "constant"
      value: 1
    }
    bias_term: true
  }
}
layer {
  name: "conv4_2_relu"
  type: "ReLU"
  bottom: "conv4_2"
  top: "conv4_2"
  relu_param {
    negative_slope: 0
  }
}
layer {
  name: "conv4_3"
  type: "Convolution"
  bottom: "conv4_2"
  top: "conv4_3"
  param {
    lr_mult: 1
    decay_mult: 1
  }
  convolution_param {
    num_output: 128
    bias_term: false
    pad: 1
    kernel_size: 3
    stride: 1
    weight_filler {
      type: "gaussian"
      std: 0.01
    }
    dilation: 1
  }
}
layer {
  name: "conv4_3_bn"
  type: "BatchNorm"
  bottom: "conv4_3"
  top: "conv4_3"
  batch_norm_param {
    use_global_stats: true
    eps: 1e-06
  }
}
layer {
  name: "conv4_3_scale"
  type: "Scale"
  bottom: "conv4_3"
  top: "conv4_3"
  param {
    lr_mult: 1
    decay_mult: 1
  }
  param {
    lr_mult: 1
    decay_mult: 1
  }
  scale_param {
    filler {
      type: "constant"
      value: 1
    }
    bias_term: true
  }
}
layer {
  name: "conv4_3_relu"
  type: "ReLU"
  bottom: "conv4_3"
  top: "conv4_3"
  relu_param {
    negative_slope: 0
  }
}
layer {
  name: "pool4"
  type: "Pooling"
  bottom: "conv4_3"
  top: "pool4"
  pooling_param {
    pool: MAX
    kernel_size: 2
    stride: 2
    pad: 0
  }
}
layer {
  name: "conv5_1"
  type: "Convolution"
  bottom: "pool4"
  top: "conv5_1"
  param {
    lr_mult: 1
    decay_mult: 1
  }
  convolution_param {
    num_output: 256
    bias_term: false
    pad: 1
    kernel_size: 3
    stride: 1
    weight_filler {
      type: "gaussian"
      std: 0.01
    }
    dilation: 1
  }
}
layer {
  name: "conv5_1_bn"
  type: "BatchNorm"
  bottom: "conv5_1"
  top: "conv5_1"
  batch_norm_param {
    use_global_stats: true
    eps: 1e-06
  }
}
layer {
  name: "conv5_1_scale"
  type: "Scale"
  bottom: "conv5_1"
  top: "conv5_1"
  param {
    lr_mult: 1
    decay_mult: 1
  }
  param {
    lr_mult: 1
    decay_mult: 1
  }
  scale_param {
    filler {
      type: "constant"
      value: 1
    }
    bias_term: true
  }
}
layer {
  name: "conv5_1_relu"
  type: "ReLU"
  bottom: "conv5_1"
  top: "conv5_1"
  relu_param {
    negative_slope: 0
  }
}
layer {
  name: "conv5_2"
  type: "Convolution"
  bottom: "conv5_1"
  top: "conv5_2"
  param {
    lr_mult: 1
    decay_mult: 1
  }
  convolution_param {
    num_output: 128
    bias_term: false
    pad: 0
    kernel_size: 1
    stride: 1
    weight_filler {
      type: "gaussian"
      std: 0.01
    }
    dilation: 1
  }
}
layer {
  name: "conv5_2_bn"
  type: "BatchNorm"
  bottom: "conv5_2"
  top: "conv5_2"
  batch_norm_param {
    use_global_stats: true
    eps: 1e-06
  }
}
layer {
  name: "conv5_2_scale"
  type: "Scale"
  bottom: "conv5_2"
  top: "conv5_2"
  param {
    lr_mult: 1
    decay_mult: 1
  }
  param {
    lr_mult: 1
    decay_mult: 1
  }
  scale_param {
    filler {
      type: "constant"
      value: 1
    }
    bias_term: true
  }
}
layer {
  name: "conv5_2_relu"
  type: "ReLU"
  bottom: "conv5_2"
  top: "conv5_2"
  relu_param {
    negative_slope: 0
  }
}
layer {
  name: "conv5_3"
  type: "Convolution"
  bottom: "conv5_2"
  top: "conv5_3"
  param {
    lr_mult: 1
    decay_mult: 1
  }
  convolution_param {
    num_output: 256
    bias_term: false
    pad: 1
    kernel_size: 3
    stride: 1
    weight_filler {
      type: "gaussian"
      std: 0.01
    }
    dilation: 1
  }
}
layer {
  name: "conv5_3_bn"
  type: "BatchNorm"
  bottom: "conv5_3"
  top: "conv5_3"
  batch_norm_param {
    use_global_stats: true
    eps: 1e-06
  }
}
layer {
  name: "conv5_3_scale"
  type: "Scale"
  bottom: "conv5_3"
  top: "conv5_3"
  param {
    lr_mult: 1
    decay_mult: 1
  }
  param {
    lr_mult: 1
    decay_mult: 1
  }
  scale_param {
    filler {
      type: "constant"
      value: 1
    }
    bias_term: true
  }
}
layer {
  name: "conv5_3_relu"
  type: "ReLU"
  bottom: "conv5_3"
  top: "conv5_3"
  relu_param {
    negative_slope: 0
  }
}
layer {
  name: "conv5_4"
  type: "Convolution"
  bottom: "conv5_3"
  top: "conv5_4"
  param {
    lr_mult: 1
    decay_mult: 1
  }
  convolution_param {
    num_output: 128
    bias_term: false
    pad: 0
    kernel_size: 1
    stride: 1
    weight_filler {
      type: "gaussian"
      std: 0.01
    }
    dilation: 1
  }
}
layer {
  name: "conv5_4_bn"
  type: "BatchNorm"
  bottom: "conv5_4"
  top: "conv5_4"
  batch_norm_param {
    use_global_stats: true
    eps: 1e-06
  }
}
layer {
  name: "conv5_4_scale"
  type: "Scale"
  bottom: "conv5_4"
  top: "conv5_4"
  param {
    lr_mult: 1
    decay_mult: 1
  }
  param {
    lr_mult: 1
    decay_mult: 1
  }
  scale_param {
    filler {
      type: "constant"
      value: 1
    }
    bias_term: true
  }
}
layer {
  name: "conv5_4_relu"
  type: "ReLU"
  bottom: "conv5_4"
  top: "conv5_4"
  relu_param {
    negative_slope: 0
  }
}
layer {
  name: "conv5_5"
  type: "Convolution"
  bottom: "conv5_4"
  top: "conv5_5"
  param {
    lr_mult: 1
    decay_mult: 1
  }
  convolution_param {
    num_output: 256
    bias_term: false
    pad: 1
    kernel_size: 3
    stride: 1
    weight_filler {
      type: "gaussian"
      std: 0.01
    }
    dilation: 1
  }
}
layer {
  name: "conv5_5_bn"
  type: "BatchNorm"
  bottom: "conv5_5"
  top: "conv5_5"
  batch_norm_param {
    use_global_stats: true
    eps: 1e-06
  }
}
layer {
  name: "conv5_5_scale"
  type: "Scale"
  bottom: "conv5_5"
  top: "conv5_5"
  param {
    lr_mult: 1
    decay_mult: 1
  }
  param {
    lr_mult: 1
    decay_mult: 1
  }
  scale_param {
    filler {
      type: "constant"
      value: 1
    }
    bias_term: true
  }
}
layer {
  name: "conv5_5_relu"
  type: "ReLU"
  bottom: "conv5_5"
  top: "conv5_5"
  relu_param {
    negative_slope: 0
  }
}
layer {
  name: "pool5"
  type: "Pooling"
  bottom: "conv5_5"
  top: "pool5"
  pooling_param {
    pool: MAX
    kernel_size: 3
    stride: 1
    pad: 1
  }
}
layer {
  name: "conv6_1"
  type: "Convolution"
  bottom: "pool5"
  top: "conv6_1"
  param {
    lr_mult: 1
    decay_mult: 1
  }
  convolution_param {
    num_output: 512
    bias_term: false
    pad: 2
    kernel_size: 3
    stride: 1
    weight_filler {
      type: "gaussian"
      std: 0.01
    }
    dilation: 2
  }
}
layer {
  name: "conv6_1_bn"
  type: "BatchNorm"
  bottom: "conv6_1"
  top: "conv6_1"
  batch_norm_param {
    use_global_stats: true
    eps: 1e-06
  }
}
layer {
  name: "conv6_1_scale"
  type: "Scale"
  bottom: "conv6_1"
  top: "conv6_1"
  param {
    lr_mult: 1
    decay_mult: 1
  }
  param {
    lr_mult: 1
    decay_mult: 1
  }
  scale_param {
    filler {
      type: "constant"
      value: 1
    }
    bias_term: true
  }
}
layer {
  name: "conv6_1_relu"
  type: "ReLU"
  bottom: "conv6_1"
  top: "conv6_1"
  relu_param {
    negative_slope: 0
  }
}
layer {
  name: "conv6_2"
  type: "Convolution"
  bottom: "conv6_1"
  top: "conv6_2"
  param {
    lr_mult: 1
    decay_mult: 1
  }
  convolution_param {
    num_output: 256
    bias_term: false
    pad: 0
    kernel_size: 1
    stride: 1
    weight_filler {
      type: "gaussian"
      std: 0.01
    }
    dilation: 1
  }
}
layer {
  name: "conv6_2_bn"
  type: "BatchNorm"
  bottom: "conv6_2"
  top: "conv6_2"
  batch_norm_param {
    use_global_stats: true
    eps: 1e-06
  }
}
layer {
  name: "conv6_2_scale"
  type: "Scale"
  bottom: "conv6_2"
  top: "conv6_2"
  param {
    lr_mult: 1
    decay_mult: 1
  }
  param {
    lr_mult: 1
    decay_mult: 1
  }
  scale_param {
    filler {
      type: "constant"
      value: 1
    }
    bias_term: true
  }
}
layer {
  name: "conv6_2_relu"
  type: "ReLU"
  bottom: "conv6_2"
  top: "conv6_2"
  relu_param {
    negative_slope: 0
  }
}
layer {
  name: "conv6_3"
  type: "Convolution"
  bottom: "conv6_2"
  top: "conv6_3"
  param {
    lr_mult: 1
    decay_mult: 1
  }
  convolution_param {
    num_output: 512
    bias_term: false
    pad: 1
    kernel_size: 3
    stride: 1
    weight_filler {
      type: "gaussian"
      std: 0.01
    }
    dilation: 1
  }
}
layer {
  name: "conv6_3_bn"
  type: "BatchNorm"
  bottom: "conv6_3"
  top: "conv6_3"
  batch_norm_param {
    use_global_stats: true
    eps: 1e-06
  }
}
layer {
  name: "conv6_3_scale"
  type: "Scale"
  bottom: "conv6_3"
  top: "conv6_3"
  param {
    lr_mult: 1
    decay_mult: 1
  }
  param {
    lr_mult: 1
    decay_mult: 1
  }
  scale_param {
    filler {
      type: "constant"
      value: 1
    }
    bias_term: true
  }
}
layer {
  name: "conv6_3_relu"
  type: "ReLU"
  bottom: "conv6_3"
  top: "conv6_3"
  relu_param {
    negative_slope: 0
  }
}
layer {
  name: "conv6_4"
  type: "Convolution"
  bottom: "conv6_3"
  top: "conv6_4"
  param {
    lr_mult: 1
    decay_mult: 1
  }
  convolution_param {
    num_output: 256
    bias_term: false
    pad: 0
    kernel_size: 1
    stride: 1
    weight_filler {
      type: "gaussian"
      std: 0.01
    }
    dilation: 1
  }
}
layer {
  name: "conv6_4_bn"
  type: "BatchNorm"
  bottom: "conv6_4"
  top: "conv6_4"
  batch_norm_param {
    use_global_stats: true
    eps: 1e-06
  }
}
layer {
  name: "conv6_4_scale"
  type: "Scale"
  bottom: "conv6_4"
  top: "conv6_4"
  param {
    lr_mult: 1
    decay_mult: 1
  }
  param {
    lr_mult: 1
    decay_mult: 1
  }
  scale_param {
    filler {
      type: "constant"
      value: 1
    }
    bias_term: true
  }
}
layer {
  name: "conv6_4_relu"
  type: "ReLU"
  bottom: "conv6_4"
  top: "conv6_4"
  relu_param {
    negative_slope: 0
  }
}
layer {
  name: "conv6_5"
  type: "Convolution"
  bottom: "conv6_4"
  top: "conv6_5"
  param {
    lr_mult: 1
    decay_mult: 1
  }
  convolution_param {
    num_output: 512
    bias_term: false
    pad: 1
    kernel_size: 3
    stride: 1
    weight_filler {
      type: "gaussian"
      std: 0.01
    }
    dilation: 1
  }
}
layer {
  name: "conv6_5_bn"
  type: "BatchNorm"
  bottom: "conv6_5"
  top: "conv6_5"
  batch_norm_param {
    use_global_stats: true
    eps: 1e-06
  }
}
layer {
  name: "conv6_5_scale"
  type: "Scale"
  bottom: "conv6_5"
  top: "conv6_5"
  param {
    lr_mult: 1
    decay_mult: 1
  }
  param {
    lr_mult: 1
    decay_mult: 1
  }
  scale_param {
    filler {
      type: "constant"
      value: 1
    }
    bias_term: true
  }
}
layer {
  name: "conv6_5_relu"
  type: "ReLU"
  bottom: "conv6_5"
  top: "conv6_5"
  relu_param {
    negative_slope: 0
  }
}
layer {
  name: "conv7_1"
  type: "Convolution"
  bottom: "conv6_5"
  top: "conv7_1"
  param {
    lr_mult: 1
    decay_mult: 1
  }
  convolution_param {
    num_output: 512
    bias_term: false
    pad: 1
    kernel_size: 3
    stride: 1
    weight_filler {
      type: "gaussian"
      std: 0.01
    }
    dilation: 1
  }
}
layer {
  name: "conv7_1_bn"
  type: "BatchNorm"
  bottom: "conv7_1"
  top: "conv7_1"
  batch_norm_param {
    use_global_stats: true
    eps: 1e-06
  }
}
layer {
  name: "conv7_1_scale"
  type: "Scale"
  bottom: "conv7_1"
  top: "conv7_1"
  param {
    lr_mult: 1
    decay_mult: 1
  }
  param {
    lr_mult: 1
    decay_mult: 1
  }
  scale_param {
    filler {
      type: "constant"
      value: 1
    }
    bias_term: true
  }
}
layer {
  name: "conv7_1_relu"
  type: "ReLU"
  bottom: "conv7_1"
  top: "conv7_1"
  relu_param {
    negative_slope: 0
  }
}
layer {
  name: "conv7_2"
  type: "Convolution"
  bottom: "conv7_1"
  top: "conv7_2"
  param {
    lr_mult: 1
    decay_mult: 1
  }
  convolution_param {
    num_output: 512
    bias_term: false
    pad: 1
    kernel_size: 3
    stride: 1
    weight_filler {
      type: "gaussian"
      std: 0.01
    }
    dilation: 1
  }
}
layer {
  name: "conv7_2_bn"
  type: "BatchNorm"
  bottom: "conv7_2"
  top: "conv7_2"
  batch_norm_param {
    use_global_stats: true
    eps: 1e-06
  }
}
layer {
  name: "conv7_2_scale"
  type: "Scale"
  bottom: "conv7_2"
  top: "conv7_2"
  param {
    lr_mult: 1
    decay_mult: 1
  }
  param {
    lr_mult: 1
    decay_mult: 1
  }
  scale_param {
    filler {
      type: "constant"
      value: 1
    }
    bias_term: true
  }
}
layer {
  name: "conv7_2_relu"
  type: "ReLU"
  bottom: "conv7_2"
  top: "conv7_2"
  relu_param {
    negative_slope: 0
  }
}
layer {
  name: "concat8"
  type: "Concat"
  bottom: "conv5_5"
  bottom: "conv7_2"
  top: "concat8"
  concat_param {
    axis: 1
  }
}
layer {
  name: "reduce1_lane"
  type: "Convolution"
  bottom: "concat8"
  top: "reduce1_lane"
  param {
    lr_mult: 1
    decay_mult: 1
  }
  convolution_param {
    num_output: 128
    bias_term: false
    pad: 1
    kernel_size: 3
    stride: 1
    weight_filler {
      type: "gaussian"
      std: 0.01
    }
  }
}
layer {
  name: "reduce1_lane_bn"
  type: "BatchNorm"
  bottom: "reduce1_lane"
  top: "reduce1_lane"
  batch_norm_param {
    use_global_stats: true
    eps: 1e-06
  }
}
layer {
  name: "reduce1_lane_scale"
  type: "Scale"
  bottom: "reduce1_lane"
  top: "reduce1_lane"
  scale_param {
    filler {
      type: "constant"
      value: 1
    }
    bias_term: true
  }
}
layer {
  name: "reduce1_lane_relu"
  type: "ReLU"
  bottom: "reduce1_lane"
  top: "reduce1_lane"
  relu_param {
    negative_slope: 0
  }
}
layer {
  name: "deconv1_lane"
  type: "Deconvolution"
  bottom: "reduce1_lane"
  top: "deconv1_lane"
  param {
    lr_mult: 1
    decay_mult: 1
  }
  convolution_param {
    num_output: 64
    pad: 0
    kernel_size: 2
    stride: 2
    weight_filler {
      type: "xavier"
    }
    bias_filler {
      type: "constant"
      value: 0
    }
  }
}
layer {
  name: "deconv1_lane_bn"
  type: "BatchNorm"
  bottom: "deconv1_lane"
  top: "deconv1_lane"
  batch_norm_param {
    use_global_stats: true
    eps: 1e-06
  }
}
layer {
  name: "deconv1_lane_scale"
  type: "Scale"
  bottom: "deconv1_lane"
  top: "deconv1_lane"
  scale_param {
    filler {
      type: "constant"
      value: 1
    }
    bias_term: true
  }
}
layer {
  name: "deconv1_lane_relu"
  type: "ReLU"
  bottom: "deconv1_lane"
  top: "deconv1_lane"
  relu_param {
    negative_slope: 0
  }
}
layer {
  name: "reorg4"
  type: "Convolution"
  bottom: "conv4_3"
  top: "reorg4"
  param {
    lr_mult: 1
    decay_mult: 1
  }
  convolution_param {
    num_output: 64
    bias_term: false
    pad: 1
    kernel_size: 3
    stride: 1
    weight_filler {
      type: "gaussian"
      std: 0.01
    }
  }
}
layer {
  name: "reorg4_relu"
  type: "ReLU"
  bottom: "reorg4"
  top: "reorg4"
  relu_param {
    negative_slope: 0
  }
}
layer {
  name: "concat4"
  type: "Concat"
  bottom: "reorg4"
  bottom: "deconv1_lane"
  top: "concat4"
  concat_param {
    axis: 1
  }
}
layer {
  name: "reduce2_lane"
  type: "Convolution"
  bottom: "concat4"
  top: "reduce2_lane"
  param {
    lr_mult: 1
    decay_mult: 1
  }
  convolution_param {
    num_output: 64
    bias_term: false
    pad: 1
    kernel_size: 3
    stride: 1
    weight_filler {
      type: "gaussian"
      std: 0.01
    }
  }
}
layer {
  name: "reduce2_lane_bn"
  type: "BatchNorm"
  bottom: "reduce2_lane"
  top: "reduce2_lane"
  batch_norm_param {
    use_global_stats: true
    eps: 1e-06
  }
}
layer {
  name: "reduce2_lane_scale"
  type: "Scale"
  bottom: "reduce2_lane"
  top: "reduce2_lane"
  scale_param {
    filler {
      type: "constant"
      value: 1
    }
    bias_term: true
  }
}
layer {
  name: "reduce2_lane_relu"
  type: "ReLU"
  bottom: "reduce2_lane"
  top: "reduce2_lane"
  relu_param {
    negative_slope: 0
  }
}
layer {
  name: "Slice1"
  type: "Slice"
  bottom: "reduce2_lane"
  top: "slice1_1"
  top: "slice1_2"
  top: "slice1_3"
  top: "slice1_4"
  top: "slice1_5"
  top: "slice1_6"
  top: "slice1_7"
  top: "slice1_8"
  top: "slice1_9"
  top: "slice1_10"
  top: "slice1_11"
  top: "slice1_12"
  top: "slice1_13"
  top: "slice1_14"
  top: "slice1_15"
  top: "slice1_16"
  top: "slice1_17"
  top: "slice1_18"
  top: "slice1_19"
  top: "slice1_20"
  top: "slice1_21"
…
    slice_point: 33
    slice_point: 34
    slice_point: 35
    slice_point: 36
    slice_point: 37
    slice_point: 38
    slice_point: 39
    slice_point: 40
    slice_point: 41
    slice_point: 42
    slice_point: 43
    slice_point: 44
    slice_point: 45
    slice_point: 46
    slice_point: 47
    slice_point: 48
    slice_point: 49
    slice_point: 50
    slice_point: 51
    slice_point: 52
    slice_point: 53
    slice_point: 54
    slice_point: 55
    slice_point: 56
    slice_point: 57
    slice_point: 58
    slice_point: 59
    axis: 2
  }
}
layer {
  name: "SCNN_D_1"
  type: "Convolution"
  bottom: "slice1_1"
  top: "SCNN_D_1/message"
  param {
    name: "SCNN_D_w"
    lr_mult: 1
    decay_mult: 1
  }
  convolution_param {
    num_output: 64
    bias_term: false
    stride: 1
    weight_filler {
      type: "gaussian"
      std: 0.03536
    }
    pad_h: 0
    pad_w: 2
    kernel_h: 1
    kernel_w: 5
  }
}
layer {
  name: "SCNN_D_1/relu"
  type: "ReLU"
  bottom: "SCNN_D_1/message"
  top: "SCNN_D_1/message"
}
layer {
  name: "SCNN_D_1/sum"
  type: "Eltwise"
  bottom: "SCNN_D_1/message"
  bottom: "slice1_2"
  top: "SCNN_D_2"
  eltwise_param {
    operation: SUM
  }
}
layer {
  name: "SCNN_D_2"
  type: "Convolution"
  bottom: "SCNN_D_2"
  top: "SCNN_D_2/message"
  param {
    name: "SCNN_D_w"
    lr_mult: 1
    decay_mult: 1
  }
  convolution_param {
    num_output: 64
    bias_term: false
    stride: 1
    weight_filler {
      type: "gaussian"
      std: 0.03536
    }
    pad_h: 0
    pad_w: 2
    kernel_h: 1
    kernel_w: 5
  }
}
layer {
  name: "SCNN_D_2/relu"
  type: "ReLU"
  bottom: "SCNN_D_2/message"
  top: "SCNN_D_2/message"
}
layer {
  name: "SCNN_D_2/sum"
  type: "Eltwise"
  bottom: "SCNN_D_2/message"
  bottom: "slice1_3"
  top: "SCNN_D_3"
  eltwise_param {
    operation: SUM
  }
}
layer {
  name: "SCNN_D_3"
  type: "Convolution"
  bottom: "SCNN_D_3"
  top: "SCNN_D_3/message"
  param {
    name: "SCNN_D_w"
    lr_mult: 1
    decay_mult: 1
  }
  convolution_param {
    num_output: 64
    bias_term: false
    stride: 1
    weight_filler {
      type: "gaussian"
      std: 0.03536
    }
    pad_h: 0
    pad_w: 2
    kernel_h: 1
    kernel_w: 5
  }
}
layer {
  name: "SCNN_D_3/relu"
  type: "ReLU"
  bottom: "SCNN_D_3/message"
  top: "SCNN_D_3/message"
}
layer {
  name: "SCNN_D_3/sum"
  type: "Eltwise"
  bottom: "SCNN_D_3/message"
  bottom: "slice1_4"
  top: "SCNN_D_4"
  eltwise_param {
    operation: SUM
  }
}
layer {
  name: "SCNN_D_4"
  type: "Convolution"
  bottom: "SCNN_D_4"
  top: "SCNN_D_4/message"
  param {
    name: "SCNN_D_w"
    lr_mult: 1
    decay_mult: 1
  }
  convolution_param {
    num_output: 64
    bias_term: false
    stride: 1
    weight_filler {
      type: "gaussian"
      std: 0.03536
    }
    pad_h: 0
    pad_w: 2
    kernel_h: 1
    kernel_w: 5
  }
}
layer {
  name: "SCNN_D_4/relu"
  type: "ReLU"
  bottom: "SCNN_D_4/message"
  top: "SCNN_D_4/message"
}
layer {
  name: "SCNN_D_4/sum"
  type: "Eltwise"
  bottom: "SCNN_D_4/message"
  bottom: "slice1_5"
  top: "SCNN_D_5"
  eltwise_param {
    operation: SUM
  }
}
layer {
  name: "SCNN_D_5"
  type: "Convolution"
  bottom: "SCNN_D_5"
  top: "SCNN_D_5/message"
  param {
    name: "SCNN_D_w"
    lr_mult: 1
    decay_mult: 1
  }
  convolution_param {
    num_output: 64
    bias_term: false
    stride: 1
    weight_filler {
      type: "gaussian"
      std: 0.03536
    }
    pad_h: 0
    pad_w: 2
    kernel_h: 1
    kernel_w: 5
  }
}
layer {
  name: "SCNN_D_5/relu"
  type: "ReLU"
  bottom: "SCNN_D_5/message"
  top: "SCNN_D_5/message"
}
layer {
  name: "SCNN_D_5/sum"
  type: "Eltwise"
  bottom: "SCNN_D_5/message"
  bottom: "slice1_6"
  top: "SCNN_D_6"
  eltwise_param {
    operation: SUM
  }
}
layer {
  name: "SCNN_D_6"
  type: "Convolution"
  bottom: "SCNN_D_6"
  top: "SCNN_D_6/message"
  param {
    name: "SCNN_D_w"
    lr_mult: 1
    decay_mult: 1
  }
  convolution_param {
    num_output: 64
    bias_term: false
    stride: 1
    weight_filler {
      type: "gaussian"
      std: 0.03536
    }
    pad_h: 0
    pad_w: 2
    kernel_h: 1
    kernel_w: 5
  }
}
layer {
  name: "SCNN_D_6/relu"
  type: "ReLU"
  bottom: "SCNN_D_6/message"
  top: "SCNN_D_6/message"
}
layer {
  name: "SCNN_D_6/sum"
  type: "Eltwise"
  bottom: "SCNN_D_6/message"
  bottom: "slice1_7"
  top: "SCNN_D_7"
  eltwise_param {
    operation: SUM
  }
}
layer {
  name: "SCNN_D_7"
  type: "Convolution"
  bottom: "SCNN_D_7"
  top: "SCNN_D_7/message"
  param {
    name: "SCNN_D_w"
    lr_mult: 1
    decay_mult: 1
  }
  convolution_param {
    num_output: 64
    bias_term: false
    stride: 1
    weight_filler {
      type: "gaussian"
      std: 0.03536
    }
    pad_h: 0
    pad_w: 2
    kernel_h: 1
    kernel_w: 5
  }
}
layer {
  name: "SCNN_D_7/relu"
  type: "ReLU"
  bottom: "SCNN_D_7/message"
  top: "SCNN_D_7/message"
}
layer {
  name: "SCNN_D_7/sum"
  type: "Eltwise"
  bottom: "SCNN_D_7/message"
  bottom: "slice1_8"
  top: "SCNN_D_8"
  eltwise_param {
    operation: SUM
  }
}
layer {
  name: "SCNN_D_8"
  type: "Convolution"
  bottom: "SCNN_D_8"
  top: "SCNN_D_8/message"
  param {
    name: "SCNN_D_w"
    lr_mult: 1
    decay_mult: 1
  }
  convolution_param {
    num_output: 64
    bias_term: false
    stride: 1
    weight_filler {
      type: "gaussian"
      std: 0.03536
    }
    pad_h: 0
    pad_w: 2
    kernel_h: 1
    kernel_w: 5
  }
}
layer {
  name: "SCNN_D_8/relu"
  type: "ReLU"
  bottom: "SCNN_D_8/message"
  top: "SCNN_D_8/message"
}
layer {
  name: "SCNN_D_8/sum"
  type: "Eltwise"
  bottom: "SCNN_D_8/message"
  bottom: "slice1_9"
  top: "SCNN_D_9"
  eltwise_param {
    operation: SUM
  }
}
layer {
  name: "SCNN_D_9"
  type: "Convolution"
  bottom: "SCNN_D_9"
  top: "SCNN_D_9/message"
  param {
    name: "SCNN_D_w"
    lr_mult: 1
    decay_mult: 1
  }
  convolution_param {
    num_output: 64
    bias_term: false
    stride: 1
    weight_filler {
      type: "gaussian"
      std: 0.03536
    }
    pad_h: 
I0313 11:45:35.280849 24715 layer_factory.hpp:77] Creating layer input
I0313 11:45:35.280897 24715 net.cpp:86] Creating Layer input
I0313 11:45:35.280925 24715 net.cpp:382] input -> data
I0313 11:45:35.281121 24715 net.cpp:124] Setting up input
I0313 11:45:35.281162 24715 net.cpp:131] Top shape: 1 3 480 640 (921600)
I0313 11:45:35.281167 24715 net.cpp:139] Memory required for data: 3686400
I0313 11:45:35.281188 24715 layer_factory.hpp:77] Creating layer scale_data_lane
I0313 11:45:35.281208 24715 net.cpp:86] Creating Layer scale_data_lane
I0313 11:45:35.281229 24715 net.cpp:408] scale_data_lane <- data
I0313 11:45:35.281255 24715 net.cpp:382] scale_data_lane -> scale_data_lane
I0313 11:45:35.281316 24715 net.cpp:124] Setting up scale_data_lane
I0313 11:45:35.281327 24715 net.cpp:131] Top shape: 1 3 480 640 (921600)
I0313 11:45:35.281332 24715 net.cpp:139] Memory required for data: 7372800
I0313 11:45:35.281337 24715 layer_factory.hpp:77] Creating layer conv1
I0313 11:45:35.281394 24715 net.cpp:86] Creating Layer conv1
I0313 11:45:35.281401 24715 net.cpp:408] conv1 <- scale_data_lane
I0313 11:45:35.281412 24715 net.cpp:382] conv1 -> conv1
I0313 11:45:35.283656 24715 net.cpp:124] Setting up conv1
I0313 11:45:35.283674 24715 net.cpp:131] Top shape: 1 16 480 640 (4915200)
I0313 11:45:35.283681 24715 net.cpp:139] Memory required for data: 27033600
I0313 11:45:35.283730 24715 layer_factory.hpp:77] Creating layer conv1_bn
I0313 11:45:35.283751 24715 net.cpp:86] Creating Layer conv1_bn
I0313 11:45:35.283759 24715 net.cpp:408] conv1_bn <- conv1
I0313 11:45:35.283771 24715 net.cpp:369] conv1_bn -> conv1 (in-place)
I0313 11:45:35.284581 24715 net.cpp:124] Setting up conv1_bn
I0313 11:45:35.284592 24715 net.cpp:131] Top shape: 1 16 480 640 (4915200)
I0313 11:45:35.284596 24715 net.cpp:139] Memory required for data: 46694400
I0313 11:45:35.284618 24715 layer_factory.hpp:77] Creating layer conv1_scale
I0313 11:45:35.284641 24715 net.cpp:86] Creating Layer conv1_scale
I0313 11:45:35.284648 24715 net.cpp:408] conv1_scale <- conv1
I0313 11:45:35.284663 24715 net.cpp:369] conv1_scale -> conv1 (in-place)
I0313 11:45:35.284734 24715 layer_factory.hpp:77] Creating layer conv1_scale
I0313 11:45:35.286124 24715 net.cpp:124] Setting up conv1_scale
I0313 11:45:35.286136 24715 net.cpp:131] Top shape: 1 16 480 640 (4915200)
I0313 11:45:35.286140 24715 net.cpp:139] Memory required for data: 66355200
I0313 11:45:35.286152 24715 layer_factory.hpp:77] Creating layer conv1_relu
I0313 11:45:35.286182 24715 net.cpp:86] Creating Layer conv1_relu
I0313 11:45:35.286191 24715 net.cpp:408] conv1_relu <- conv1
I0313 11:45:35.286202 24715 net.cpp:369] conv1_relu -> conv1 (in-place)
I0313 11:45:35.286402 24715 net.cpp:124] Setting up conv1_relu
I0313 11:45:35.286412 24715 net.cpp:131] Top shape: 1 16 480 640 (4915200)
I0313 11:45:35.286417 24715 net.cpp:139] Memory required for data: 86016000
I0313 11:45:35.286423 24715 layer_factory.hpp:77] Creating layer pool1
I0313 11:45:35.286448 24715 net.cpp:86] Creating Layer pool1
I0313 11:45:35.286456 24715 net.cpp:408] pool1 <- conv1
I0313 11:45:35.286468 24715 net.cpp:382] pool1 -> pool1
I0313 11:45:35.286548 24715 net.cpp:124] Setting up pool1
I0313 11:45:35.286567 24715 net.cpp:131] Top shape: 1 16 240 320 (1228800)
I0313 11:45:35.286572 24715 net.cpp:139] Memory required for data: 90931200
I0313 11:45:35.286576 24715 layer_factory.hpp:77] Creating layer conv2
I0313 11:45:35.286588 24715 net.cpp:86] Creating Layer conv2
I0313 11:45:35.286594 24715 net.cpp:408] conv2 <- pool1
I0313 11:45:35.286607 24715 net.cpp:382] conv2 -> conv2
I0313 11:45:35.288022 24715 net.cpp:124] Setting up conv2
I0313 11:45:35.288041 24715 net.cpp:131] Top shape: 1 32 240 320 (2457600)
I0313 11:45:35.288048 24715 net.cpp:139] Memory required for data: 100761600
I0313 11:45:35.288055 24715 layer_factory.hpp:77] Creating layer conv2_bn
I0313 11:45:35.288065 24715 net.cpp:86] Creating Layer conv2_bn
I0313 11:45:35.288074 24715 net.cpp:408] conv2_bn <- conv2
I0313 11:45:35.288084 24715 net.cpp:369] conv2_bn -> conv2 (in-place)
I0313 11:45:35.288261 24715 net.cpp:124] Setting up conv2_bn
I0313 11:45:35.288269 24715 net.cpp:131] Top shape: 1 32 240 320 (2457600)
I0313 11:45:35.288275 24715 net.cpp:139] Memory required for data: 110592000
I0313 11:45:35.288290 24715 layer_factory.hpp:77] Creating layer conv2_scale
I0313 11:45:35.288297 24715 net.cpp:86] Creating Layer conv2_scale
I0313 11:45:35.288305 24715 net.cpp:408] conv2_scale <- conv2
I0313 11:45:35.288314 24715 net.cpp:369] conv2_scale -> conv2 (in-place)
I0313 11:45:35.288352 24715 layer_factory.hpp:77] Creating layer conv2_scale
I0313 11:45:35.288487 24715 net.cpp:124] Setting up conv2_scale
I0313 11:45:35.288496 24715 net.cpp:131] Top shape: 1 32 240 320 (2457600)
I0313 11:45:35.288499 24715 net.cpp:139] Memory required for data: 120422400
I0313 11:45:35.288507 24715 layer_factory.hpp:77] Creating layer conv2_relu
I0313 11:45:35.288516 24715 net.cpp:86] Creating Layer conv2_relu
I0313 11:45:35.288523 24715 net.cpp:408] conv2_relu <- conv2
I0313 11:45:35.288532 24715 net.cpp:369] conv2_relu -> conv2 (in-place)
I0313 11:45:35.288859 24715 net.cpp:124] Setting up conv2_relu
I0313 11:45:35.288872 24715 net.cpp:131] Top shape: 1 32 240 320 (2457600)
I0313 11:45:35.288877 24715 net.cpp:139] Memory required for data: 130252800
I0313 11:45:35.288882 24715 layer_factory.hpp:77] Creating layer pool2
I0313 11:45:35.288889 24715 net.cpp:86] Creating Layer pool2
I0313 11:45:35.288897 24715 net.cpp:408] pool2 <- conv2
I0313 11:45:35.288906 24715 net.cpp:382] pool2 -> pool2
I0313 11:45:35.288947 24715 net.cpp:124] Setting up pool2
I0313 11:45:35.288957 24715 net.cpp:131] Top shape: 1 32 120 160 (614400)
I0313 11:45:35.288962 24715 net.cpp:139] Memory required for data: 132710400
I0313 11:45:35.288967 24715 layer_factory.hpp:77] Creating layer conv3_1
I0313 11:45:35.288980 24715 net.cpp:86] Creating Layer conv3_1
I0313 11:45:35.288985 24715 net.cpp:408] conv3_1 <- pool2
I0313 11:45:35.288995 24715 net.cpp:382] conv3_1 -> conv3_1
I0313 11:45:35.291527 24715 net.cpp:124] Setting up conv3_1
I0313 11:45:35.291544 24715 net.cpp:131] Top shape: 1 64 120 160 (1228800)
I0313 11:45:35.291551 24715 net.cpp:139] Memory required for data: 137625600
I0313 11:45:35.291559 24715 layer_factory.hpp:77] Creating layer conv3_1_bn
I0313 11:45:35.291569 24715 net.cpp:86] Creating Layer conv3_1_bn
I0313 11:45:35.291581 24715 net.cpp:408] conv3_1_bn <- conv3_1
I0313 11:45:35.291592 24715 net.cpp:369] conv3_1_bn -> conv3_1 (in-place)
I0313 11:45:35.291754 24715 net.cpp:124] Setting up conv3_1_bn
I0313 11:45:35.291762 24715 net.cpp:131] Top shape: 1 64 120 160 (1228800)
I0313 11:45:35.291772 24715 net.cpp:139] Memory required for data: 142540800
I0313 11:45:35.291784 24715 layer_factory.hpp:77] Creating layer conv3_1_scale
I0313 11:45:35.291791 24715 net.cpp:86] Creating Layer conv3_1_scale
I0313 11:45:35.291798 24715 net.cpp:408] conv3_1_scale <- conv3_1
I0313 11:45:35.291807 24715 net.cpp:369] conv3_1_scale -> conv3_1 (in-place)
I0313 11:45:35.291847 24715 layer_factory.hpp:77] Creating layer conv3_1_scale
I0313 11:45:35.291949 24715 net.cpp:124] Setting up conv3_1_scale
I0313 11:45:35.291956 24715 net.cpp:131] Top shape: 1 64 120 160 (1228800)
I0313 11:45:35.291962 24715 net.cpp:139] Memory required for data: 147456000
I0313 11:45:35.291975 24715 layer_factory.hpp:77] Creating layer conv3_1_relu
I0313 11:45:35.291982 24715 net.cpp:86] Creating Layer conv3_1_relu
I0313 11:45:35.291990 24715 net.cpp:408] conv3_1_relu <- conv3_1
I0313 11:45:35.291999 24715 net.cpp:369] conv3_1_relu -> conv3_1 (in-place)
I0313 11:45:35.292320 24715 net.cpp:124] Setting up conv3_1_relu
I0313 11:45:35.292331 24715 net.cpp:131] Top shape: 1 64 120 160 (1228800)
I0313 11:45:35.292337 24715 net.cpp:139] Memory required for data: 152371200
I0313 11:45:35.292343 24715 layer_factory.hpp:77] Creating layer conv3_2
I0313 11:45:35.292358 24715 net.cpp:86] Creating Layer conv3_2
I0313 11:45:35.292366 24715 net.cpp:408] conv3_2 <- conv3_1
I0313 11:45:35.292377 24715 net.cpp:382] conv3_2 -> conv3_2
I0313 11:45:35.293727 24715 net.cpp:124] Setting up conv3_2
I0313 11:45:35.293745 24715 net.cpp:131] Top shape: 1 32 120 160 (614400)
I0313 11:45:35.293751 24715 net.cpp:139] Memory required for data: 154828800
I0313 11:45:35.293759 24715 layer_factory.hpp:77] Creating layer conv3_2_bn
I0313 11:45:35.293769 24715 net.cpp:86] Creating Layer conv3_2_bn
I0313 11:45:35.293777 24715 net.cpp:408] conv3_2_bn <- conv3_2
I0313 11:45:35.293787 24715 net.cpp:369] conv3_2_bn -> conv3_2 (in-place)
I0313 11:45:35.293952 24715 net.cpp:124] Setting up conv3_2_bn
I0313 11:45:35.293961 24715 net.cpp:131] Top shape: 1 32 120 160 (614400)
I0313 11:45:35.293970 24715 net.cpp:139] Memory required for data: 157286400
I0313 11:45:35.293982 24715 layer_factory.hpp:77] Creating layer conv3_2_scale
I0313 11:45:35.293989 24715 net.cpp:86] Creating Layer conv3_2_scale
I0313 11:45:35.293996 24715 net.cpp:408] conv3_2_scale <- conv3_2
I0313 11:45:35.294005 24715 net.cpp:369] conv3_2_scale -> conv3_2 (in-place)
I0313 11:45:35.294044 24715 layer_factory.hpp:77] Creating layer conv3_2_scale
I0313 11:45:35.294150 24715 net.cpp:124] Setting up conv3_2_scale
I0313 11:45:35.294158 24715 net.cpp:131] Top shape: 1 32 120 160 (614400)
I0313 11:45:35.294167 24715 net.cpp:139] Memory required for data: 159744000
I0313 11:45:35.294175 24715 layer_factory.hpp:77] Creating layer conv3_2_relu
I0313 11:45:35.294184 24715 net.cpp:86] Creating Layer conv3_2_relu
I0313 11:45:35.294190 24715 net.cpp:408] conv3_2_relu <- conv3_2
I0313 11:45:35.294198 24715 net.cpp:369] conv3_2_relu -> conv3_2 (in-place)
I0313 11:45:35.294322 24715 net.cpp:124] Setting up conv3_2_relu
I0313 11:45:35.294332 24715 net.cpp:131] Top shape: 1 32 120 160 (614400)
I0313 11:45:35.294337 24715 net.cpp:139] Memory required for data: 162201600
I0313 11:45:35.294342 24715 layer_factory.hpp:77] Creating layer conv3_3
I0313 11:45:35.294353 24715 net.cpp:86] Creating Layer conv3_3
I0313 11:45:35.294359 24715 net.cpp:408] conv3_3 <- conv3_2
I0313 11:45:35.294371 24715 net.cpp:382] conv3_3 -> conv3_3
I0313 11:45:35.295428 24715 net.cpp:124] Setting up conv3_3
I0313 11:45:35.295444 24715 net.cpp:131] Top shape: 1 64 120 160 (1228800)
I0313 11:45:35.295451 24715 net.cpp:139] Memory required for data: 167116800
I0313 11:45:35.295459 24715 layer_factory.hpp:77] Creating layer conv3_3_bn
I0313 11:45:35.295469 24715 net.cpp:86] Creating Layer conv3_3_bn
I0313 11:45:35.295476 24715 net.cpp:408] conv3_3_bn <- conv3_3
I0313 11:45:35.295487 24715 net.cpp:369] conv3_3_bn -> conv3_3 (in-place)
I0313 11:45:35.295660 24715 net.cpp:124] Setting up conv3_3_bn
I0313 11:45:35.295668 24715 net.cpp:131] Top shape: 1 64 120 160 (1228800)
I0313 11:45:35.295672 24715 net.cpp:139] Memory required for data: 172032000
I0313 11:45:35.295686 24715 layer_factory.hpp:77] Creating layer conv3_3_scale
I0313 11:45:35.295693 24715 net.cpp:86] Creating Layer conv3_3_scale
I0313 11:45:35.295701 24715 net.cpp:408] conv3_3_scale <- conv3_3
I0313 11:45:35.295709 24715 net.cpp:369] conv3_3_scale -> conv3_3 (in-place)
I0313 11:45:35.295747 24715 layer_factory.hpp:77] Creating layer conv3_3_scale
I0313 11:45:35.295850 24715 net.cpp:124] Setting up conv3_3_scale
I0313 11:45:35.295858 24715 net.cpp:131] Top shape: 1 64 120 160 (1228800)
I0313 11:45:35.295863 24715 net.cpp:139] Memory required for data: 176947200
I0313 11:45:35.295871 24715 layer_factory.hpp:77] Creating layer conv3_3_relu
I0313 11:45:35.295881 24715 net.cpp:86] Creating Layer conv3_3_relu
I0313 11:45:35.295886 24715 net.cpp:408] conv3_3_relu <- conv3_3
I0313 11:45:35.295897 24715 net.cpp:369] conv3_3_relu -> conv3_3 (in-place)
I0313 11:45:35.296020 24715 net.cpp:124] Setting up conv3_3_relu
I0313 11:45:35.296031 24715 net.cpp:131] Top shape: 1 64 120 160 (1228800)
I0313 11:45:35.296037 24715 net.cpp:139] Memory required for data: 181862400
I0313 11:45:35.296042 24715 layer_factory.hpp:77] Creating layer pool3
I0313 11:45:35.296052 24715 net.cpp:86] Creating Layer pool3
I0313 11:45:35.296058 24715 net.cpp:408] pool3 <- conv3_3
I0313 11:45:35.296068 24715 net.cpp:382] pool3 -> pool3
I0313 11:45:35.296108 24715 net.cpp:124] Setting up pool3
I0313 11:45:35.296118 24715 net.cpp:131] Top shape: 1 64 60 80 (307200)
I0313 11:45:35.296124 24715 net.cpp:139] Memory required for data: 183091200
I0313 11:45:35.296130 24715 layer_factory.hpp:77] Creating layer conv4_1
I0313 11:45:35.296141 24715 net.cpp:86] Creating Layer conv4_1
I0313 11:45:35.296147 24715 net.cpp:408] conv4_1 <- pool3
I0313 11:45:35.296159 24715 net.cpp:382] conv4_1 -> conv4_1
I0313 11:45:35.299322 24715 net.cpp:124] Setting up conv4_1
I0313 11:45:35.299338 24715 net.cpp:131] Top shape: 1 128 60 80 (614400)
I0313 11:45:35.299345 24715 net.cpp:139] Memory required for data: 185548800
I0313 11:45:35.299355 24715 layer_factory.hpp:77] Creating layer conv4_1_bn
I0313 11:45:35.299363 24715 net.cpp:86] Creating Layer conv4_1_bn
I0313 11:45:35.299371 24715 net.cpp:408] conv4_1_bn <- conv4_1
I0313 11:45:35.299382 24715 net.cpp:369] conv4_1_bn -> conv4_1 (in-place)
I0313 11:45:35.299540 24715 net.cpp:124] Setting up conv4_1_bn
I0313 11:45:35.299548 24715 net.cpp:131] Top shape: 1 128 60 80 (614400)
I0313 11:45:35.299552 24715 net.cpp:139] Memory required for data: 188006400
I0313 11:45:35.299569 24715 layer_factory.hpp:77] Creating layer conv4_1_scale
I0313 11:45:35.299582 24715 net.cpp:86] Creating Layer conv4_1_scale
I0313 11:45:35.299589 24715 net.cpp:408] conv4_1_scale <- conv4_1
I0313 11:45:35.299598 24715 net.cpp:369] conv4_1_scale -> conv4_1 (in-place)
I0313 11:45:35.299643 24715 layer_factory.hpp:77] Creating layer conv4_1_scale
I0313 11:45:35.299743 24715 net.cpp:124] Setting up conv4_1_scale
I0313 11:45:35.299751 24715 net.cpp:131] Top shape: 1 128 60 80 (614400)
I0313 11:45:35.299762 24715 net.cpp:139] Memory required for data: 190464000
I0313 11:45:35.299770 24715 layer_factory.hpp:77] Creating layer conv4_1_relu
I0313 11:45:35.299778 24715 net.cpp:86] Creating Layer conv4_1_relu
I0313 11:45:35.299785 24715 net.cpp:408] conv4_1_relu <- conv4_1
I0313 11:45:35.299794 24715 net.cpp:369] conv4_1_relu -> conv4_1 (in-place)
I0313 11:45:35.299926 24715 net.cpp:124] Setting up conv4_1_relu
I0313 11:45:35.299937 24715 net.cpp:131] Top shape: 1 128 60 80 (614400)
I0313 11:45:35.299945 24715 net.cpp:139] Memory required for data: 192921600
I0313 11:45:35.299952 24715 layer_factory.hpp:77] Creating layer conv4_2
I0313 11:45:35.299963 24715 net.cpp:86] Creating Layer conv4_2
I0313 11:45:35.299970 24715 net.cpp:408] conv4_2 <- conv4_1
I0313 11:45:35.299981 24715 net.cpp:382] conv4_2 -> conv4_2
I0313 11:45:35.300853 24715 net.cpp:124] Setting up conv4_2
I0313 11:45:35.300869 24715 net.cpp:131] Top shape: 1 64 60 80 (307200)
I0313 11:45:35.300875 24715 net.cpp:139] Memory required for data: 194150400
I0313 11:45:35.300884 24715 layer_factory.hpp:77] Creating layer conv4_2_bn
I0313 11:45:35.300892 24715 net.cpp:86] Creating Layer conv4_2_bn
I0313 11:45:35.300900 24715 net.cpp:408] conv4_2_bn <- conv4_2
I0313 11:45:35.300911 24715 net.cpp:369] conv4_2_bn -> conv4_2 (in-place)
I0313 11:45:35.301070 24715 net.cpp:124] Setting up conv4_2_bn
I0313 11:45:35.301079 24715 net.cpp:131] Top shape: 1 64 60 80 (307200)
I0313 11:45:35.301082 24715 net.cpp:139] Memory required for data: 195379200
I0313 11:45:35.301095 24715 layer_factory.hpp:77] Creating layer conv4_2_scale
I0313 11:45:35.301102 24715 net.cpp:86] Creating Layer conv4_2_scale
I0313 11:45:35.301110 24715 net.cpp:408] conv4_2_scale <- conv4_2
I0313 11:45:35.301118 24715 net.cpp:369] conv4_2_scale -> conv4_2 (in-place)
I0313 11:45:35.301156 24715 layer_factory.hpp:77] Creating layer conv4_2_scale
I0313 11:45:35.301259 24715 net.cpp:124] Setting up conv4_2_scale
I0313 11:45:35.301266 24715 net.cpp:131] Top shape: 1 64 60 80 (307200)
I0313 11:45:35.301276 24715 net.cpp:139] Memory required for data: 196608000
I0313 11:45:35.301285 24715 layer_factory.hpp:77] Creating layer conv4_2_relu
I0313 11:45:35.301296 24715 net.cpp:86] Creating Layer conv4_2_relu
I0313 11:45:35.301303 24715 net.cpp:408] conv4_2_relu <- conv4_2
I0313 11:45:35.301314 24715 net.cpp:369] conv4_2_relu -> conv4_2 (in-place)
I0313 11:45:35.301636 24715 net.cpp:124] Setting up conv4_2_relu
I0313 11:45:35.301648 24715 net.cpp:131] Top shape: 1 64 60 80 (307200)
I0313 11:45:35.301652 24715 net.cpp:139] Memory required for data: 197836800
I0313 11:45:35.301658 24715 layer_factory.hpp:77] Creating layer conv4_3
I0313 11:45:35.301671 24715 net.cpp:86] Creating Layer conv4_3
I0313 11:45:35.301677 24715 net.cpp:408] conv4_3 <- conv4_2
I0313 11:45:35.301689 24715 net.cpp:382] conv4_3 -> conv4_3
I0313 11:45:35.303952 24715 net.cpp:124] Setting up conv4_3
I0313 11:45:35.303966 24715 net.cpp:131] Top shape: 1 128 60 80 (614400)
I0313 11:45:35.303972 24715 net.cpp:139] Memory required for data: 200294400
I0313 11:45:35.303982 24715 layer_factory.hpp:77] Creating layer conv4_3_bn
I0313 11:45:35.303988 24715 net.cpp:86] Creating Layer conv4_3_bn
I0313 11:45:35.303997 24715 net.cpp:408] conv4_3_bn <- conv4_3
I0313 11:45:35.304006 24715 net.cpp:369] conv4_3_bn -> conv4_3 (in-place)
I0313 11:45:35.304165 24715 net.cpp:124] Setting up conv4_3_bn
I0313 11:45:35.304173 24715 net.cpp:131] Top shape: 1 128 60 80 (614400)
I0313 11:45:35.304183 24715 net.cpp:139] Memory required for data: 202752000
I0313 11:45:35.304194 24715 layer_factory.hpp:77] Creating layer conv4_3_scale
I0313 11:45:35.304203 24715 net.cpp:86] Creating Layer conv4_3_scale
I0313 11:45:35.304210 24715 net.cpp:408] conv4_3_scale <- conv4_3
I0313 11:45:35.304219 24715 net.cpp:369] conv4_3_scale -> conv4_3 (in-place)
I0313 11:45:35.304260 24715 layer_factory.hpp:77] Creating layer conv4_3_scale
I0313 11:45:35.304354 24715 net.cpp:124] Setting up conv4_3_scale
I0313 11:45:35.304363 24715 net.cpp:131] Top shape: 1 128 60 80 (614400)
I0313 11:45:35.304371 24715 net.cpp:139] Memory required for data: 205209600
I0313 11:45:35.304380 24715 layer_factory.hpp:77] Creating layer conv4_3_relu
I0313 11:45:35.304388 24715 net.cpp:86] Creating Layer conv4_3_relu
I0313 11:45:35.304394 24715 net.cpp:408] conv4_3_relu <- conv4_3
I0313 11:45:35.304404 24715 net.cpp:369] conv4_3_relu -> conv4_3 (in-place)
I0313 11:45:35.304527 24715 net.cpp:124] Setting up conv4_3_relu
I0313 11:45:35.304536 24715 net.cpp:131] Top shape: 1 128 60 80 (614400)
I0313 11:45:35.304540 24715 net.cpp:139] Memory required for data: 207667200
I0313 11:45:35.304545 24715 layer_factory.hpp:77] Creating layer conv4_3_conv4_3_relu_0_split
I0313 11:45:35.304553 24715 net.cpp:86] Creating Layer conv4_3_conv4_3_relu_0_split
I0313 11:45:35.304559 24715 net.cpp:408] conv4_3_conv4_3_relu_0_split <- conv4_3
I0313 11:45:35.304569 24715 net.cpp:382] conv4_3_conv4_3_relu_0_split -> conv4_3_conv4_3_relu_0_split_0
I0313 11:45:35.304580 24715 net.cpp:382] conv4_3_conv4_3_relu_0_split -> conv4_3_conv4_3_relu_0_split_1
I0313 11:45:35.304641 24715 net.cpp:124] Setting up conv4_3_conv4_3_relu_0_split
I0313 11:45:35.304666 24715 net.cpp:131] Top shape: 1 128 60 80 (614400)
I0313 11:45:35.304673 24715 net.cpp:131] Top shape: 1 128 60 80 (614400)
I0313 11:45:35.304678 24715 net.cpp:139] Memory required for data: 212582400
I0313 11:45:35.304684 24715 layer_factory.hpp:77] Creating layer pool4
I0313 11:45:35.304692 24715 net.cpp:86] Creating Layer pool4
I0313 11:45:35.304698 24715 net.cpp:408] pool4 <- conv4_3_conv4_3_relu_0_split_0
I0313 11:45:35.304724 24715 net.cpp:382] pool4 -> pool4
I0313 11:45:35.304761 24715 net.cpp:124] Setting up pool4
I0313 11:45:35.304769 24715 net.cpp:131] Top shape: 1 128 30 40 (153600)
I0313 11:45:35.304775 24715 net.cpp:139] Memory required for data: 213196800
I0313 11:45:35.304780 24715 layer_factory.hpp:77] Creating layer conv5_1
I0313 11:45:35.304790 24715 net.cpp:86] Creating Layer conv5_1
I0313 11:45:35.304796 24715 net.cpp:408] conv5_1 <- pool4
I0313 11:45:35.304806 24715 net.cpp:382] conv5_1 -> conv5_1
I0313 11:45:35.312409 24715 net.cpp:124] Setting up conv5_1
I0313 11:45:35.312429 24715 net.cpp:131] Top shape: 1 256 30 40 (307200)
I0313 11:45:35.312436 24715 net.cpp:139] Memory required for data: 214425600
I0313 11:45:35.312443 24715 layer_factory.hpp:77] Creating layer conv5_1_bn
I0313 11:45:35.312453 24715 net.cpp:86] Creating Layer conv5_1_bn
I0313 11:45:35.312461 24715 net.cpp:408] conv5_1_bn <- conv5_1
I0313 11:45:35.312472 24715 net.cpp:369] conv5_1_bn -> conv5_1 (in-place)
I0313 11:45:35.312642 24715 net.cpp:124] Setting up conv5_1_bn
I0313 11:45:35.312650 24715 net.cpp:131] Top shape: 1 256 30 40 (307200)
I0313 11:45:35.312660 24715 net.cpp:139] Memory required for data: 215654400
I0313 11:45:35.312674 24715 layer_factory.hpp:77] Creating layer conv5_1_scale
I0313 11:45:35.312682 24715 net.cpp:86] Creating Layer conv5_1_scale
I0313 11:45:35.312690 24715 net.cpp:408] conv5_1_scale <- conv5_1
I0313 11:45:35.312698 24715 net.cpp:369] conv5_1_scale -> conv5_1 (in-place)
I0313 11:45:35.312733 24715 layer_factory.hpp:77] Creating layer conv5_1_scale
I0313 11:45:35.312829 24715 net.cpp:124] Setting up conv5_1_scale
I0313 11:45:35.312836 24715 net.cpp:131] Top shape: 1 256 30 40 (307200)
I0313 11:45:35.312840 24715 net.cpp:139] Memory required for data: 216883200
I0313 11:45:35.312849 24715 layer_factory.hpp:77] Creating layer conv5_1_relu
I0313 11:45:35.312855 24715 net.cpp:86] Creating Layer conv5_1_relu
I0313 11:45:35.312862 24715 net.cpp:408] conv5_1_relu <- conv5_1
I0313 11:45:35.312870 24715 net.cpp:369] conv5_1_relu -> conv5_1 (in-place)
I0313 11:45:35.312992 24715 net.cpp:124] Setting up conv5_1_relu
I0313 11:45:35.313001 24715 net.cpp:131] Top shape: 1 256 30 40 (307200)
I0313 11:45:35.313005 24715 net.cpp:139] Memory required for data: 218112000
I0313 11:45:35.313010 24715 layer_factory.hpp:77] Creating layer conv5_2
I0313 11:45:35.313020 24715 net.cpp:86] Creating Layer conv5_2
I0313 11:45:35.313026 24715 net.cpp:408] conv5_2 <- conv5_1
I0313 11:45:35.313037 24715 net.cpp:382] conv5_2 -> conv5_2
I0313 11:45:35.314332 24715 net.cpp:124] Setting up conv5_2
I0313 11:45:35.314348 24715 net.cpp:131] Top shape: 1 128 30 40 (153600)
I0313 11:45:35.314354 24715 net.cpp:139] Memory required for data: 218726400
I0313 11:45:35.314363 24715 layer_factory.hpp:77] Creating layer conv5_2_bn
I0313 11:45:35.314373 24715 net.cpp:86] Creating Layer conv5_2_bn
I0313 11:45:35.314380 24715 net.cpp:408] conv5_2_bn <- conv5_2
I0313 11:45:35.314389 24715 net.cpp:369] conv5_2_bn -> conv5_2 (in-place)
I0313 11:45:35.314548 24715 net.cpp:124] Setting up conv5_2_bn
I0313 11:45:35.314556 24715 net.cpp:131] Top shape: 1 128 30 40 (153600)
I0313 11:45:35.314561 24715 net.cpp:139] Memory required for data: 219340800
I0313 11:45:35.314572 24715 layer_factory.hpp:77] Creating layer conv5_2_scale
I0313 11:45:35.314580 24715 net.cpp:86] Creating Layer conv5_2_scale
I0313 11:45:35.314587 24715 net.cpp:408] conv5_2_scale <- conv5_2
I0313 11:45:35.314596 24715 net.cpp:369] conv5_2_scale -> conv5_2 (in-place)
I0313 11:45:35.314646 24715 layer_factory.hpp:77] Creating layer conv5_2_scale
I0313 11:45:35.314745 24715 net.cpp:124] Setting up conv5_2_scale
I0313 11:45:35.314754 24715 net.cpp:131] Top shape: 1 128 30 40 (153600)
I0313 11:45:35.314764 24715 net.cpp:139] Memory required for data: 219955200
I0313 11:45:35.314772 24715 layer_factory.hpp:77] Creating layer conv5_2_relu
I0313 11:45:35.314779 24715 net.cpp:86] Creating Layer conv5_2_relu
I0313 11:45:35.314786 24715 net.cpp:408] conv5_2_relu <- conv5_2
I0313 11:45:35.314796 24715 net.cpp:369] conv5_2_relu -> conv5_2 (in-place)
I0313 11:45:35.314930 24715 net.cpp:124] Setting up conv5_2_relu
I0313 11:45:35.314942 24715 net.cpp:131] Top shape: 1 128 30 40 (153600)
I0313 11:45:35.314947 24715 net.cpp:139] Memory required for data: 220569600
I0313 11:45:35.314952 24715 layer_factory.hpp:77] Creating layer conv5_3
I0313 11:45:35.314965 24715 net.cpp:86] Creating Layer conv5_3
I0313 11:45:35.314971 24715 net.cpp:408] conv5_3 <- conv5_2
I0313 11:45:35.314983 24715 net.cpp:382] conv5_3 -> conv5_3
I0313 11:45:35.322127 24715 net.cpp:124] Setting up conv5_3
I0313 11:45:35.322170 24715 net.cpp:131] Top shape: 1 256 30 40 (307200)
I0313 11:45:35.322176 24715 net.cpp:139] Memory required for data: 221798400
I0313 11:45:35.322196 24715 layer_factory.hpp:77] Creating layer conv5_3_bn
I0313 11:45:35.322209 24715 net.cpp:86] Creating Layer conv5_3_bn
I0313 11:45:35.322224 24715 net.cpp:408] conv5_3_bn <- conv5_3
I0313 11:45:35.322237 24715 net.cpp:369] conv5_3_bn -> conv5_3 (in-place)
I0313 11:45:35.322412 24715 net.cpp:124] Setting up conv5_3_bn
I0313 11:45:35.322420 24715 net.cpp:131] Top shape: 1 256 30 40 (307200)
I0313 11:45:35.322424 24715 net.cpp:139] Memory required for data: 223027200
I0313 11:45:35.322438 24715 layer_factory.hpp:77] Creating layer conv5_3_scale
I0313 11:45:35.322448 24715 net.cpp:86] Creating Layer conv5_3_scale
I0313 11:45:35.322454 24715 net.cpp:408] conv5_3_scale <- conv5_3
I0313 11:45:35.322463 24715 net.cpp:369] conv5_3_scale -> conv5_3 (in-place)
I0313 11:45:35.322504 24715 layer_factory.hpp:77] Creating layer conv5_3_scale
I0313 11:45:35.322603 24715 net.cpp:124] Setting up conv5_3_scale
I0313 11:45:35.322613 24715 net.cpp:131] Top shape: 1 256 30 40 (307200)
I0313 11:45:35.322621 24715 net.cpp:139] Memory required for data: 224256000
I0313 11:45:35.322643 24715 layer_factory.hpp:77] Creating layer conv5_3_relu
I0313 11:45:35.322654 24715 net.cpp:86] Creating Layer conv5_3_relu
I0313 11:45:35.322661 24715 net.cpp:408] conv5_3_relu <- conv5_3
I0313 11:45:35.322669 24715 net.cpp:369] conv5_3_relu -> conv5_3 (in-place)
I0313 11:45:35.322806 24715 net.cpp:124] Setting up conv5_3_relu
I0313 11:45:35.322815 24715 net.cpp:131] Top shape: 1 256 30 40 (307200)
I0313 11:45:35.322819 24715 net.cpp:139] Memory required for data: 225484800
I0313 11:45:35.322825 24715 layer_factory.hpp:77] Creating layer conv5_4
I0313 11:45:35.322841 24715 net.cpp:86] Creating Layer conv5_4
I0313 11:45:35.322849 24715 net.cpp:408] conv5_4 <- conv5_3
I0313 11:45:35.322857 24715 net.cpp:382] conv5_4 -> conv5_4
I0313 11:45:35.324198 24715 net.cpp:124] Setting up conv5_4
I0313 11:45:35.324213 24715 net.cpp:131] Top shape: 1 128 30 40 (153600)
I0313 11:45:35.324218 24715 net.cpp:139] Memory required for data: 226099200
I0313 11:45:35.324226 24715 layer_factory.hpp:77] Creating layer conv5_4_bn
I0313 11:45:35.324235 24715 net.cpp:86] Creating Layer conv5_4_bn
I0313 11:45:35.324244 24715 net.cpp:408] conv5_4_bn <- conv5_4
I0313 11:45:35.324252 24715 net.cpp:369] conv5_4_bn -> conv5_4 (in-place)
I0313 11:45:35.324405 24715 net.cpp:124] Setting up conv5_4_bn
I0313 11:45:35.324414 24715 net.cpp:131] Top shape: 1 128 30 40 (153600)
I0313 11:45:35.324419 24715 net.cpp:139] Memory required for data: 226713600
I0313 11:45:35.324431 24715 layer_factory.hpp:77] Creating layer conv5_4_scale
I0313 11:45:35.324440 24715 net.cpp:86] Creating Layer conv5_4_scale
I0313 11:45:35.324446 24715 net.cpp:408] conv5_4_scale <- conv5_4
I0313 11:45:35.324455 24715 net.cpp:369] conv5_4_scale -> conv5_4 (in-place)
I0313 11:45:35.324491 24715 layer_factory.hpp:77] Creating layer conv5_4_scale
I0313 11:45:35.324584 24715 net.cpp:124] Setting up conv5_4_scale
I0313 11:45:35.324591 24715 net.cpp:131] Top shape: 1 128 30 40 (153600)
I0313 11:45:35.324601 24715 net.cpp:139] Memory required for data: 227328000
I0313 11:45:35.324610 24715 layer_factory.hpp:77] Creating layer conv5_4_relu
I0313 11:45:35.324617 24715 net.cpp:86] Creating Layer conv5_4_relu
I0313 11:45:35.324625 24715 net.cpp:408] conv5_4_relu <- conv5_4
I0313 11:45:35.324633 24715 net.cpp:369] conv5_4_relu -> conv5_4 (in-place)
I0313 11:45:35.325886 24715 net.cpp:124] Setting up conv5_4_relu
I0313 11:45:35.325898 24715 net.cpp:131] Top shape: 1 128 30 40 (153600)
I0313 11:45:35.325901 24715 net.cpp:139] Memory required for data: 227942400
I0313 11:45:35.325912 24715 layer_factory.hpp:77] Creating layer conv5_5
I0313 11:45:35.325924 24715 net.cpp:86] Creating Layer conv5_5
I0313 11:45:35.325932 24715 net.cpp:408] conv5_5 <- conv5_4
I0313 11:45:35.325944 24715 net.cpp:382] conv5_5 -> conv5_5
I0313 11:45:35.333084 24715 net.cpp:124] Setting up conv5_5
I0313 11:45:35.333114 24715 net.cpp:131] Top shape: 1 256 30 40 (307200)
I0313 11:45:35.333122 24715 net.cpp:139] Memory required for data: 229171200
I0313 11:45:35.333133 24715 layer_factory.hpp:77] Creating layer conv5_5_bn
I0313 11:45:35.333143 24715 net.cpp:86] Creating Layer conv5_5_bn
I0313 11:45:35.333155 24715 net.cpp:408] conv5_5_bn <- conv5_5
I0313 11:45:35.333168 24715 net.cpp:369] conv5_5_bn -> conv5_5 (in-place)
I0313 11:45:35.333343 24715 net.cpp:124] Setting up conv5_5_bn
I0313 11:45:35.333350 24715 net.cpp:131] Top shape: 1 256 30 40 (307200)
I0313 11:45:35.333355 24715 net.cpp:139] Memory required for data: 230400000
I0313 11:45:35.333369 24715 layer_factory.hpp:77] Creating layer conv5_5_scale
I0313 11:45:35.333379 24715 net.cpp:86] Creating Layer conv5_5_scale
I0313 11:45:35.333385 24715 net.cpp:408] conv5_5_scale <- conv5_5
I0313 11:45:35.333395 24715 net.cpp:369] conv5_5_scale -> conv5_5 (in-place)
I0313 11:45:35.333436 24715 layer_factory.hpp:77] Creating layer conv5_5_scale
I0313 11:45:35.333533 24715 net.cpp:124] Setting up conv5_5_scale
I0313 11:45:35.333540 24715 net.cpp:131] Top shape: 1 256 30 40 (307200)
I0313 11:45:35.333545 24715 net.cpp:139] Memory required for data: 231628800
I0313 11:45:35.333554 24715 layer_factory.hpp:77] Creating layer conv5_5_relu
I0313 11:45:35.333560 24715 net.cpp:86] Creating Layer conv5_5_relu
I0313 11:45:35.333568 24715 net.cpp:408] conv5_5_relu <- conv5_5
I0313 11:45:35.333577 24715 net.cpp:369] conv5_5_relu -> conv5_5 (in-place)
I0313 11:45:35.333711 24715 net.cpp:124] Setting up conv5_5_relu
I0313 11:45:35.333720 24715 net.cpp:131] Top shape: 1 256 30 40 (307200)
I0313 11:45:35.333724 24715 net.cpp:139] Memory required for data: 232857600
I0313 11:45:35.333729 24715 layer_factory.hpp:77] Creating layer conv5_5_conv5_5_relu_0_split
I0313 11:45:35.333737 24715 net.cpp:86] Creating Layer conv5_5_conv5_5_relu_0_split
I0313 11:45:35.333745 24715 net.cpp:408] conv5_5_conv5_5_relu_0_split <- conv5_5
I0313 11:45:35.333751 24715 net.cpp:382] conv5_5_conv5_5_relu_0_split -> conv5_5_conv5_5_relu_0_split_0
I0313 11:45:35.333766 24715 net.cpp:382] conv5_5_conv5_5_relu_0_split -> conv5_5_conv5_5_relu_0_split_1
I0313 11:45:35.333807 24715 net.cpp:124] Setting up conv5_5_conv5_5_relu_0_split
I0313 11:45:35.333817 24715 net.cpp:131] Top shape: 1 256 30 40 (307200)
I0313 11:45:35.333825 24715 net.cpp:131] Top shape: 1 256 30 40 (307200)
I0313 11:45:35.333830 24715 net.cpp:139] Memory required for data: 235315200
I0313 11:45:35.333835 24715 layer_factory.hpp:77] Creating layer pool5
I0313 11:45:35.333843 24715 net.cpp:86] Creating Layer pool5
I0313 11:45:35.333850 24715 net.cpp:408] pool5 <- conv5_5_conv5_5_relu_0_split_0
I0313 11:45:35.333860 24715 net.cpp:382] pool5 -> pool5
I0313 11:45:35.333899 24715 net.cpp:124] Setting up pool5
I0313 11:45:35.333909 24715 net.cpp:131] Top shape: 1 256 30 40 (307200)
I0313 11:45:35.333914 24715 net.cpp:139] Memory required for data: 236544000
I0313 11:45:35.333919 24715 layer_factory.hpp:77] Creating layer conv6_1
I0313 11:45:35.333930 24715 net.cpp:86] Creating Layer conv6_1
I0313 11:45:35.333937 24715 net.cpp:408] conv6_1 <- pool5
I0313 11:45:35.333947 24715 net.cpp:382] conv6_1 -> conv6_1
I0313 11:45:35.357002 24715 net.cpp:124] Setting up conv6_1
I0313 11:45:35.357041 24715 net.cpp:131] Top shape: 1 512 30 40 (614400)
I0313 11:45:35.357054 24715 net.cpp:139] Memory required for data: 239001600
I0313 11:45:35.357066 24715 layer_factory.hpp:77] Creating layer conv6_1_bn
I0313 11:45:35.357077 24715 net.cpp:86] Creating Layer conv6_1_bn
I0313 11:45:35.357091 24715 net.cpp:408] conv6_1_bn <- conv6_1
I0313 11:45:35.357102 24715 net.cpp:369] conv6_1_bn -> conv6_1 (in-place)
I0313 11:45:35.357292 24715 net.cpp:124] Setting up conv6_1_bn
I0313 11:45:35.357301 24715 net.cpp:131] Top shape: 1 512 30 40 (614400)
I0313 11:45:35.357306 24715 net.cpp:139] Memory required for data: 241459200
I0313 11:45:35.357318 24715 layer_factory.hpp:77] Creating layer conv6_1_scale
I0313 11:45:35.357328 24715 net.cpp:86] Creating Layer conv6_1_scale
I0313 11:45:35.357336 24715 net.cpp:408] conv6_1_scale <- conv6_1
I0313 11:45:35.357344 24715 net.cpp:369] conv6_1_scale -> conv6_1 (in-place)
I0313 11:45:35.357381 24715 layer_factory.hpp:77] Creating layer conv6_1_scale
I0313 11:45:35.357483 24715 net.cpp:124] Setting up conv6_1_scale
I0313 11:45:35.357491 24715 net.cpp:131] Top shape: 1 512 30 40 (614400)
I0313 11:45:35.357496 24715 net.cpp:139] Memory required for data: 243916800
I0313 11:45:35.357503 24715 layer_factory.hpp:77] Creating layer conv6_1_relu
I0313 11:45:35.357517 24715 net.cpp:86] Creating Layer conv6_1_relu
I0313 11:45:35.357524 24715 net.cpp:408] conv6_1_relu <- conv6_1
I0313 11:45:35.357533 24715 net.cpp:369] conv6_1_relu -> conv6_1 (in-place)
I0313 11:45:35.357733 24715 net.cpp:124] Setting up conv6_1_relu
I0313 11:45:35.357743 24715 net.cpp:131] Top shape: 1 512 30 40 (614400)
I0313 11:45:35.357746 24715 net.cpp:139] Memory required for data: 246374400
I0313 11:45:35.357754 24715 layer_factory.hpp:77] Creating layer conv6_2
I0313 11:45:35.357766 24715 net.cpp:86] Creating Layer conv6_2
I0313 11:45:35.357774 24715 net.cpp:408] conv6_2 <- conv6_1
I0313 11:45:35.357784 24715 net.cpp:382] conv6_2 -> conv6_2
I0313 11:45:35.361088 24715 net.cpp:124] Setting up conv6_2
I0313 11:45:35.361104 24715 net.cpp:131] Top shape: 1 256 30 40 (307200)
I0313 11:45:35.361110 24715 net.cpp:139] Memory required for data: 247603200
I0313 11:45:35.361119 24715 layer_factory.hpp:77] Creating layer conv6_2_bn
I0313 11:45:35.361129 24715 net.cpp:86] Creating Layer conv6_2_bn
I0313 11:45:35.361136 24715 net.cpp:408] conv6_2_bn <- conv6_2
I0313 11:45:35.361146 24715 net.cpp:369] conv6_2_bn -> conv6_2 (in-place)
I0313 11:45:35.361312 24715 net.cpp:124] Setting up conv6_2_bn
I0313 11:45:35.361320 24715 net.cpp:131] Top shape: 1 256 30 40 (307200)
I0313 11:45:35.361330 24715 net.cpp:139] Memory required for data: 248832000
I0313 11:45:35.361341 24715 layer_factory.hpp:77] Creating layer conv6_2_scale
I0313 11:45:35.361349 24715 net.cpp:86] Creating Layer conv6_2_scale
I0313 11:45:35.361356 24715 net.cpp:408] conv6_2_scale <- conv6_2
I0313 11:45:35.361366 24715 net.cpp:369] conv6_2_scale -> conv6_2 (in-place)
I0313 11:45:35.361407 24715 layer_factory.hpp:77] Creating layer conv6_2_scale
I0313 11:45:35.361505 24715 net.cpp:124] Setting up conv6_2_scale
I0313 11:45:35.361512 24715 net.cpp:131] Top shape: 1 256 30 40 (307200)
I0313 11:45:35.361521 24715 net.cpp:139] Memory required for data: 250060800
I0313 11:45:35.361531 24715 layer_factory.hpp:77] Creating layer conv6_2_relu
I0313 11:45:35.361538 24715 net.cpp:86] Creating Layer conv6_2_relu
I0313 11:45:35.361546 24715 net.cpp:408] conv6_2_relu <- conv6_2
I0313 11:45:35.361554 24715 net.cpp:369] conv6_2_relu -> conv6_2 (in-place)
I0313 11:45:35.361688 24715 net.cpp:124] Setting up conv6_2_relu
I0313 11:45:35.361698 24715 net.cpp:131] Top shape: 1 256 30 40 (307200)
I0313 11:45:35.361702 24715 net.cpp:139] Memory required for data: 251289600
I0313 11:45:35.361707 24715 layer_factory.hpp:77] Creating layer conv6_3
I0313 11:45:35.361718 24715 net.cpp:86] Creating Layer conv6_3
I0313 11:45:35.361726 24715 net.cpp:408] conv6_3 <- conv6_2
I0313 11:45:35.361735 24715 net.cpp:382] conv6_3 -> conv6_3
I0313 11:45:35.385756 24715 net.cpp:124] Setting up conv6_3
I0313 11:45:35.385797 24715 net.cpp:131] Top shape: 1 512 30 40 (614400)
I0313 11:45:35.385803 24715 net.cpp:139] Memory required for data: 253747200
I0313 11:45:35.385815 24715 layer_factory.hpp:77] Creating layer conv6_3_bn
I0313 11:45:35.385826 24715 net.cpp:86] Creating Layer conv6_3_bn
I0313 11:45:35.385840 24715 net.cpp:408] conv6_3_bn <- conv6_3
I0313 11:45:35.385854 24715 net.cpp:369] conv6_3_bn -> conv6_3 (in-place)
I0313 11:45:35.386036 24715 net.cpp:124] Setting up conv6_3_bn
I0313 11:45:35.386045 24715 net.cpp:131] Top shape: 1 512 30 40 (614400)
I0313 11:45:35.386050 24715 net.cpp:139] Memory required for data: 256204800
I0313 11:45:35.386063 24715 layer_factory.hpp:77] Creating layer conv6_3_scale
I0313 11:45:35.386072 24715 net.cpp:86] Creating Layer conv6_3_scale
I0313 11:45:35.386080 24715 net.cpp:408] conv6_3_scale <- conv6_3
I0313 11:45:35.386088 24715 net.cpp:369] conv6_3_scale -> conv6_3 (in-place)
I0313 11:45:35.386129 24715 layer_factory.hpp:77] Creating layer conv6_3_scale
I0313 11:45:35.386240 24715 net.cpp:124] Setting up conv6_3_scale
I0313 11:45:35.386248 24715 net.cpp:131] Top shape: 1 512 30 40 (614400)
I0313 11:45:35.386255 24715 net.cpp:139] Memory required for data: 258662400
I0313 11:45:35.386262 24715 layer_factory.hpp:77] Creating layer conv6_3_relu
I0313 11:45:35.386270 24715 net.cpp:86] Creating Layer conv6_3_relu
I0313 11:45:35.386278 24715 net.cpp:408] conv6_3_relu <- conv6_3
I0313 11:45:35.386286 24715 net.cpp:369] conv6_3_relu -> conv6_3 (in-place)
I0313 11:45:35.387647 24715 net.cpp:124] Setting up conv6_3_relu
I0313 11:45:35.387661 24715 net.cpp:131] Top shape: 1 512 30 40 (614400)
I0313 11:45:35.387672 24715 net.cpp:139] Memory required for data: 261120000
I0313 11:45:35.387678 24715 layer_factory.hpp:77] Creating layer conv6_4
I0313 11:45:35.387694 24715 net.cpp:86] Creating Layer conv6_4
I0313 11:45:35.387703 24715 net.cpp:408] conv6_4 <- conv6_3
I0313 11:45:35.387717 24715 net.cpp:382] conv6_4 -> conv6_4
I0313 11:45:35.390969 24715 net.cpp:124] Setting up conv6_4
I0313 11:45:35.390986 24715 net.cpp:131] Top shape: 1 256 30 40 (307200)
I0313 11:45:35.390993 24715 net.cpp:139] Memory required for data: 262348800
I0313 11:45:35.391001 24715 layer_factory.hpp:77] Creating layer conv6_4_bn
I0313 11:45:35.391011 24715 net.cpp:86] Creating Layer conv6_4_bn
I0313 11:45:35.391019 24715 net.cpp:408] conv6_4_bn <- conv6_4
I0313 11:45:35.391029 24715 net.cpp:369] conv6_4_bn -> conv6_4 (in-place)
I0313 11:45:35.391211 24715 net.cpp:124] Setting up conv6_4_bn
I0313 11:45:35.391218 24715 net.cpp:131] Top shape: 1 256 30 40 (307200)
I0313 11:45:35.391225 24715 net.cpp:139] Memory required for data: 263577600
I0313 11:45:35.391238 24715 layer_factory.hpp:77] Creating layer conv6_4_scale
I0313 11:45:35.391247 24715 net.cpp:86] Creating Layer conv6_4_scale
I0313 11:45:35.391254 24715 net.cpp:408] conv6_4_scale <- conv6_4
I0313 11:45:35.391264 24715 net.cpp:369] conv6_4_scale -> conv6_4 (in-place)
I0313 11:45:35.391306 24715 layer_factory.hpp:77] Creating layer conv6_4_scale
I0313 11:45:35.391414 24715 net.cpp:124] Setting up conv6_4_scale
I0313 11:45:35.391423 24715 net.cpp:131] Top shape: 1 256 30 40 (307200)
I0313 11:45:35.391428 24715 net.cpp:139] Memory required for data: 264806400
I0313 11:45:35.391438 24715 layer_factory.hpp:77] Creating layer conv6_4_relu
I0313 11:45:35.391445 24715 net.cpp:86] Creating Layer conv6_4_relu
I0313 11:45:35.391453 24715 net.cpp:408] conv6_4_relu <- conv6_4
I0313 11:45:35.391461 24715 net.cpp:369] conv6_4_relu -> conv6_4 (in-place)
I0313 11:45:35.391609 24715 net.cpp:124] Setting up conv6_4_relu
I0313 11:45:35.391621 24715 net.cpp:131] Top shape: 1 256 30 40 (307200)
I0313 11:45:35.391628 24715 net.cpp:139] Memory required for data: 266035200
I0313 11:45:35.391633 24715 layer_factory.hpp:77] Creating layer conv6_5
I0313 11:45:35.391644 24715 net.cpp:86] Creating Layer conv6_5
I0313 11:45:35.391650 24715 net.cpp:408] conv6_5 <- conv6_4
I0313 11:45:35.391662 24715 net.cpp:382] conv6_5 -> conv6_5
I0313 11:45:35.415678 24715 net.cpp:124] Setting up conv6_5
I0313 11:45:35.415716 24715 net.cpp:131] Top shape: 1 512 30 40 (614400)
I0313 11:45:35.415724 24715 net.cpp:139] Memory required for data: 268492800
I0313 11:45:35.415735 24715 layer_factory.hpp:77] Creating layer conv6_5_bn
I0313 11:45:35.415748 24715 net.cpp:86] Creating Layer conv6_5_bn
I0313 11:45:35.415761 24715 net.cpp:408] conv6_5_bn <- conv6_5
I0313 11:45:35.415774 24715 net.cpp:369] conv6_5_bn -> conv6_5 (in-place)
I0313 11:45:35.415966 24715 net.cpp:124] Setting up conv6_5_bn
I0313 11:45:35.415977 24715 net.cpp:131] Top shape: 1 512 30 40 (614400)
I0313 11:45:35.415983 24715 net.cpp:139] Memory required for data: 270950400
I0313 11:45:35.415997 24715 layer_factory.hpp:77] Creating layer conv6_5_scale
I0313 11:45:35.416007 24715 net.cpp:86] Creating Layer conv6_5_scale
I0313 11:45:35.416013 24715 net.cpp:408] conv6_5_scale <- conv6_5
I0313 11:45:35.416023 24715 net.cpp:369] conv6_5_scale -> conv6_5 (in-place)
I0313 11:45:35.416062 24715 layer_factory.hpp:77] Creating layer conv6_5_scale
I0313 11:45:35.416177 24715 net.cpp:124] Setting up conv6_5_scale
I0313 11:45:35.416185 24715 net.cpp:131] Top shape: 1 512 30 40 (614400)
I0313 11:45:35.416193 24715 net.cpp:139] Memory required for data: 273408000
I0313 11:45:35.416201 24715 layer_factory.hpp:77] Creating layer conv6_5_relu
I0313 11:45:35.416209 24715 net.cpp:86] Creating Layer conv6_5_relu
I0313 11:45:35.416215 24715 net.cpp:408] conv6_5_relu <- conv6_5
I0313 11:45:35.416225 24715 net.cpp:369] conv6_5_relu -> conv6_5 (in-place)
I0313 11:45:35.416568 24715 net.cpp:124] Setting up conv6_5_relu
I0313 11:45:35.416580 24715 net.cpp:131] Top shape: 1 512 30 40 (614400)
I0313 11:45:35.416591 24715 net.cpp:139] Memory required for data: 275865600
I0313 11:45:35.416597 24715 layer_factory.hpp:77] Creating layer conv7_1
I0313 11:45:35.416610 24715 net.cpp:86] Creating Layer conv7_1
I0313 11:45:35.416617 24715 net.cpp:408] conv7_1 <- conv6_5
I0313 11:45:35.416630 24715 net.cpp:382] conv7_1 -> conv7_1
I0313 11:45:35.463325 24715 net.cpp:124] Setting up conv7_1
I0313 11:45:35.463361 24715 net.cpp:131] Top shape: 1 512 30 40 (614400)
I0313 11:45:35.463368 24715 net.cpp:139] Memory required for data: 278323200
I0313 11:45:35.463380 24715 layer_factory.hpp:77] Creating layer conv7_1_bn
I0313 11:45:35.463393 24715 net.cpp:86] Creating Layer conv7_1_bn
I0313 11:45:35.463407 24715 net.cpp:408] conv7_1_bn <- conv7_1
I0313 11:45:35.463420 24715 net.cpp:369] conv7_1_bn -> conv7_1 (in-place)
I0313 11:45:35.463613 24715 net.cpp:124] Setting up conv7_1_bn
I0313 11:45:35.463621 24715 net.cpp:131] Top shape: 1 512 30 40 (614400)
I0313 11:45:35.463624 24715 net.cpp:139] Memory required for data: 280780800
I0313 11:45:35.463635 24715 layer_factory.hpp:77] Creating layer conv7_1_scale
I0313 11:45:35.463642 24715 net.cpp:86] Creating Layer conv7_1_scale
I0313 11:45:35.463649 24715 net.cpp:408] conv7_1_scale <- conv7_1
I0313 11:45:35.463657 24715 net.cpp:369] conv7_1_scale -> conv7_1 (in-place)
I0313 11:45:35.463697 24715 layer_factory.hpp:77] Creating layer conv7_1_scale
I0313 11:45:35.463810 24715 net.cpp:124] Setting up conv7_1_scale
I0313 11:45:35.463819 24715 net.cpp:131] Top shape: 1 512 30 40 (614400)
I0313 11:45:35.463822 24715 net.cpp:139] Memory required for data: 283238400
I0313 11:45:35.463831 24715 layer_factory.hpp:77] Creating layer conv7_1_relu
I0313 11:45:35.463840 24715 net.cpp:86] Creating Layer conv7_1_relu
I0313 11:45:35.463846 24715 net.cpp:408] conv7_1_relu <- conv7_1
I0313 11:45:35.463855 24715 net.cpp:369] conv7_1_relu -> conv7_1 (in-place)
I0313 11:45:35.463996 24715 net.cpp:124] Setting up conv7_1_relu
I0313 11:45:35.464006 24715 net.cpp:131] Top shape: 1 512 30 40 (614400)
I0313 11:45:35.464010 24715 net.cpp:139] Memory required for data: 285696000
I0313 11:45:35.464015 24715 layer_factory.hpp:77] Creating layer conv7_2
I0313 11:45:35.464030 24715 net.cpp:86] Creating Layer conv7_2
I0313 11:45:35.464036 24715 net.cpp:408] conv7_2 <- conv7_1
I0313 11:45:35.464047 24715 net.cpp:382] conv7_2 -> conv7_2
I0313 11:45:35.511443 24715 net.cpp:124] Setting up conv7_2
I0313 11:45:35.511482 24715 net.cpp:131] Top shape: 1 512 30 40 (614400)
I0313 11:45:35.511488 24715 net.cpp:139] Memory required for data: 288153600
I0313 11:45:35.511500 24715 layer_factory.hpp:77] Creating layer conv7_2_bn
I0313 11:45:35.511514 24715 net.cpp:86] Creating Layer conv7_2_bn
I0313 11:45:35.511528 24715 net.cpp:408] conv7_2_bn <- conv7_2
I0313 11:45:35.511543 24715 net.cpp:369] conv7_2_bn -> conv7_2 (in-place)
I0313 11:45:35.511747 24715 net.cpp:124] Setting up conv7_2_bn
I0313 11:45:35.511756 24715 net.cpp:131] Top shape: 1 512 30 40 (614400)
I0313 11:45:35.511760 24715 net.cpp:139] Memory required for data: 290611200
I0313 11:45:35.511772 24715 layer_factory.hpp:77] Creating layer conv7_2_scale
I0313 11:45:35.511781 24715 net.cpp:86] Creating Layer conv7_2_scale
I0313 11:45:35.511790 24715 net.cpp:408] conv7_2_scale <- conv7_2
I0313 11:45:35.511798 24715 net.cpp:369] conv7_2_scale -> conv7_2 (in-place)
I0313 11:45:35.511839 24715 layer_factory.hpp:77] Creating layer conv7_2_scale
I0313 11:45:35.511955 24715 net.cpp:124] Setting up conv7_2_scale
I0313 11:45:35.511963 24715 net.cpp:131] Top shape: 1 512 30 40 (614400)
I0313 11:45:35.511970 24715 net.cpp:139] Memory required for data: 293068800
I0313 11:45:35.511978 24715 layer_factory.hpp:77] Creating layer conv7_2_relu
I0313 11:45:35.511988 24715 net.cpp:86] Creating Layer conv7_2_relu
I0313 11:45:35.511996 24715 net.cpp:408] conv7_2_relu <- conv7_2
I0313 11:45:35.512006 24715 net.cpp:369] conv7_2_relu -> conv7_2 (in-place)
I0313 11:45:35.512367 24715 net.cpp:124] Setting up conv7_2_relu
I0313 11:45:35.512379 24715 net.cpp:131] Top shape: 1 512 30 40 (614400)
I0313 11:45:35.512390 24715 net.cpp:139] Memory required for data: 295526400
I0313 11:45:35.512395 24715 layer_factory.hpp:77] Creating layer concat8
I0313 11:45:35.512435 24715 net.cpp:86] Creating Layer concat8
I0313 11:45:35.512445 24715 net.cpp:408] concat8 <- conv5_5_conv5_5_relu_0_split_1
I0313 11:45:35.512455 24715 net.cpp:408] concat8 <- conv7_2
I0313 11:45:35.512464 24715 net.cpp:382] concat8 -> concat8
I0313 11:45:35.512526 24715 net.cpp:124] Setting up concat8
I0313 11:45:35.512538 24715 net.cpp:131] Top shape: 1 768 30 40 (921600)
I0313 11:45:35.512543 24715 net.cpp:139] Memory required for data: 299212800
I0313 11:45:35.512549 24715 layer_factory.hpp:77] Creating layer reduce1_lane
I0313 11:45:35.512562 24715 net.cpp:86] Creating Layer reduce1_lane
I0313 11:45:35.512569 24715 net.cpp:408] reduce1_lane <- concat8
I0313 11:45:35.512583 24715 net.cpp:382] reduce1_lane -> reduce1_lane
I0313 11:45:35.530637 24715 net.cpp:124] Setting up reduce1_lane
I0313 11:45:35.530676 24715 net.cpp:131] Top shape: 1 128 30 40 (153600)
I0313 11:45:35.530683 24715 net.cpp:139] Memory required for data: 299827200
I0313 11:45:35.530692 24715 layer_factory.hpp:77] Creating layer reduce1_lane_bn
I0313 11:45:35.530704 24715 net.cpp:86] Creating Layer reduce1_lane_bn
I0313 11:45:35.530719 24715 net.cpp:408] reduce1_lane_bn <- reduce1_lane
I0313 11:45:35.530730 24715 net.cpp:369] reduce1_lane_bn -> reduce1_lane (in-place)
I0313 11:45:35.530926 24715 net.cpp:124] Setting up reduce1_lane_bn
I0313 11:45:35.530934 24715 net.cpp:131] Top shape: 1 128 30 40 (153600)
I0313 11:45:35.530938 24715 net.cpp:139] Memory required for data: 300441600
I0313 11:45:35.530951 24715 layer_factory.hpp:77] Creating layer reduce1_lane_scale
I0313 11:45:35.530959 24715 net.cpp:86] Creating Layer reduce1_lane_scale
I0313 11:45:35.530966 24715 net.cpp:408] reduce1_lane_scale <- reduce1_lane
I0313 11:45:35.530977 24715 net.cpp:369] reduce1_lane_scale -> reduce1_lane (in-place)
I0313 11:45:35.531019 24715 layer_factory.hpp:77] Creating layer reduce1_lane_scale
I0313 11:45:35.531131 24715 net.cpp:124] Setting up reduce1_lane_scale
I0313 11:45:35.531139 24715 net.cpp:131] Top shape: 1 128 30 40 (153600)
I0313 11:45:35.531147 24715 net.cpp:139] Memory required for data: 301056000
I0313 11:45:35.531155 24715 layer_factory.hpp:77] Creating layer reduce1_lane_relu
I0313 11:45:35.531163 24715 net.cpp:86] Creating Layer reduce1_lane_relu
I0313 11:45:35.531169 24715 net.cpp:408] reduce1_lane_relu <- reduce1_lane
I0313 11:45:35.531180 24715 net.cpp:369] reduce1_lane_relu -> reduce1_lane (in-place)
I0313 11:45:35.531545 24715 net.cpp:124] Setting up reduce1_lane_relu
I0313 11:45:35.531558 24715 net.cpp:131] Top shape: 1 128 30 40 (153600)
I0313 11:45:35.531569 24715 net.cpp:139] Memory required for data: 301670400
I0313 11:45:35.531584 24715 layer_factory.hpp:77] Creating layer deconv1_lane
I0313 11:45:35.531597 24715 net.cpp:86] Creating Layer deconv1_lane
I0313 11:45:35.531605 24715 net.cpp:408] deconv1_lane <- reduce1_lane
I0313 11:45:35.531617 24715 net.cpp:382] deconv1_lane -> deconv1_lane
I0313 11:45:35.532745 24715 net.cpp:124] Setting up deconv1_lane
I0313 11:45:35.532763 24715 net.cpp:131] Top shape: 1 64 60 80 (307200)
I0313 11:45:35.532769 24715 net.cpp:139] Memory required for data: 302899200
I0313 11:45:35.532780 24715 layer_factory.hpp:77] Creating layer deconv1_lane_bn
I0313 11:45:35.532789 24715 net.cpp:86] Creating Layer deconv1_lane_bn
I0313 11:45:35.532797 24715 net.cpp:408] deconv1_lane_bn <- deconv1_lane
I0313 11:45:35.532807 24715 net.cpp:369] deconv1_lane_bn -> deconv1_lane (in-place)
I0313 11:45:35.533001 24715 net.cpp:124] Setting up deconv1_lane_bn
I0313 11:45:35.533010 24715 net.cpp:131] Top shape: 1 64 60 80 (307200)
I0313 11:45:35.533015 24715 net.cpp:139] Memory required for data: 304128000
I0313 11:45:35.533046 24715 layer_factory.hpp:77] Creating layer deconv1_lane_scale
I0313 11:45:35.533056 24715 net.cpp:86] Creating Layer deconv1_lane_scale
I0313 11:45:35.533064 24715 net.cpp:408] deconv1_lane_scale <- deconv1_lane
I0313 11:45:35.533073 24715 net.cpp:369] deconv1_lane_scale -> deconv1_lane (in-place)
I0313 11:45:35.533118 24715 layer_factory.hpp:77] Creating layer deconv1_lane_scale
I0313 11:45:35.533241 24715 net.cpp:124] Setting up deconv1_lane_scale
I0313 11:45:35.533249 24715 net.cpp:131] Top shape: 1 64 60 80 (307200)
I0313 11:45:35.533254 24715 net.cpp:139] Memory required for data: 305356800
I0313 11:45:35.533263 24715 layer_factory.hpp:77] Creating layer deconv1_lane_relu
I0313 11:45:35.533270 24715 net.cpp:86] Creating Layer deconv1_lane_relu
I0313 11:45:35.533278 24715 net.cpp:408] deconv1_lane_relu <- deconv1_lane
I0313 11:45:35.533288 24715 net.cpp:369] deconv1_lane_relu -> deconv1_lane (in-place)
I0313 11:45:35.533429 24715 net.cpp:124] Setting up deconv1_lane_relu
I0313 11:45:35.533440 24715 net.cpp:131] Top shape: 1 64 60 80 (307200)
I0313 11:45:35.533452 24715 net.cpp:139] Memory required for data: 306585600
I0313 11:45:35.533457 24715 layer_factory.hpp:77] Creating layer reorg4
I0313 11:45:35.533468 24715 net.cpp:86] Creating Layer reorg4
I0313 11:45:35.533475 24715 net.cpp:408] reorg4 <- conv4_3_conv4_3_relu_0_split_1
I0313 11:45:35.533485 24715 net.cpp:382] reorg4 -> reorg4
I0313 11:45:35.536903 24715 net.cpp:124] Setting up reorg4
I0313 11:45:35.536924 24715 net.cpp:131] Top shape: 1 64 60 80 (307200)
I0313 11:45:35.536931 24715 net.cpp:139] Memory required for data: 307814400
I0313 11:45:35.536940 24715 layer_factory.hpp:77] Creating layer reorg4_relu
I0313 11:45:35.536952 24715 net.cpp:86] Creating Layer reorg4_relu
I0313 11:45:35.536962 24715 net.cpp:408] reorg4_relu <- reorg4
I0313 11:45:35.536972 24715 net.cpp:369] reorg4_relu -> reorg4 (in-place)
I0313 11:45:35.537127 24715 net.cpp:124] Setting up reorg4_relu
I0313 11:45:35.537139 24715 net.cpp:131] Top shape: 1 64 60 80 (307200)
I0313 11:45:35.537145 24715 net.cpp:139] Memory required for data: 309043200
I0313 11:45:35.537150 24715 layer_factory.hpp:77] Creating layer concat4
I0313 11:45:35.537158 24715 net.cpp:86] Creating Layer concat4
I0313 11:45:35.537166 24715 net.cpp:408] concat4 <- reorg4
I0313 11:45:35.537176 24715 net.cpp:408] concat4 <- deconv1_lane
I0313 11:45:35.537185 24715 net.cpp:382] concat4 -> concat4
I0313 11:45:35.537220 24715 net.cpp:124] Setting up concat4
I0313 11:45:35.537232 24715 net.cpp:131] Top shape: 1 128 60 80 (614400)
I0313 11:45:35.537237 24715 net.cpp:139] Memory required for data: 311500800
I0313 11:45:35.537242 24715 layer_factory.hpp:77] Creating layer reduce2_lane
I0313 11:45:35.537253 24715 net.cpp:86] Creating Layer reduce2_lane
I0313 11:45:35.537261 24715 net.cpp:408] reduce2_lane <- concat4
I0313 11:45:35.537271 24715 net.cpp:382] reduce2_lane -> reduce2_lane
I0313 11:45:35.539677 24715 net.cpp:124] Setting up reduce2_lane
I0313 11:45:35.539691 24715 net.cpp:131] Top shape: 1 64 60 80 (307200)
I0313 11:45:35.539702 24715 net.cpp:139] Memory required for data: 312729600
I0313 11:45:35.539711 24715 layer_factory.hpp:77] Creating layer reduce2_lane_bn
I0313 11:45:35.539722 24715 net.cpp:86] Creating Layer reduce2_lane_bn
I0313 11:45:35.539731 24715 net.cpp:408] reduce2_lane_bn <- reduce2_lane
I0313 11:45:35.539741 24715 net.cpp:369] reduce2_lane_bn -> reduce2_lane (in-place)
I0313 11:45:35.539947 24715 net.cpp:124] Setting up reduce2_lane_bn
I0313 11:45:35.539955 24715 net.cpp:131] Top shape: 1 64 60 80 (307200)
I0313 11:45:35.539960 24715 net.cpp:139] Memory required for data: 313958400
I0313 11:45:35.539973 24715 layer_factory.hpp:77] Creating layer reduce2_lane_scale
I0313 11:45:35.539980 24715 net.cpp:86] Creating Layer reduce2_lane_scale
I0313 11:45:35.539988 24715 net.cpp:408] reduce2_lane_scale <- reduce2_lane
I0313 11:45:35.539997 24715 net.cpp:369] reduce2_lane_scale -> reduce2_lane (in-place)
I0313 11:45:35.540043 24715 layer_factory.hpp:77] Creating layer reduce2_lane_scale
I0313 11:45:35.540166 24715 net.cpp:124] Setting up reduce2_lane_scale
I0313 11:45:35.540175 24715 net.cpp:131] Top shape: 1 64 60 80 (307200)
I0313 11:45:35.540180 24715 net.cpp:139] Memory required for data: 315187200
I0313 11:45:35.540189 24715 layer_factory.hpp:77] Creating layer reduce2_lane_relu
I0313 11:45:35.540196 24715 net.cpp:86] Creating Layer reduce2_lane_relu
I0313 11:45:35.540204 24715 net.cpp:408] reduce2_lane_relu <- reduce2_lane
I0313 11:45:35.540215 24715 net.cpp:369] reduce2_lane_relu -> reduce2_lane (in-place)
I0313 11:45:35.540364 24715 net.cpp:124] Setting up reduce2_lane_relu
I0313 11:45:35.540375 24715 net.cpp:131] Top shape: 1 64 60 80 (307200)
I0313 11:45:35.540385 24715 net.cpp:139] Memory required for data: 316416000
I0313 11:45:35.540390 24715 layer_factory.hpp:77] Creating layer Slice1
I0313 11:45:35.540441 24715 net.cpp:86] Creating Layer Slice1
I0313 11:45:35.540448 24715 net.cpp:408] Slice1 <- reduce2_lane
I0313 11:45:35.540464 24715 net.cpp:382] Slice1 -> slice1_1
I0313 11:45:35.540505 24715 net.cpp:382] Slice1 -> slice1_2
…
I0313 11:45:35.541164 24715 net.cpp:382] Slice1 -> slice1_52
I0313 11:45:35.541177 24715 net.cpp:382] Slice1 -> slice1_53
I0313 11:45:35.541188 24715 net.cpp:382] Slice1 -> slice1_54
I0313 11:45:35.541203 24715 net.cpp:382] Slice1 -> slice1_55
I0313 11:45:35.541214 24715 net.cpp:382] Slice1 -> slice1_56
I0313 11:45:35.541226 24715 net.cpp:382] Slice1 -> slice1_57
I0313 11:45:35.541239 24715 net.cpp:382] Slice1 -> slice1_58
I0313 11:45:35.541250 24715 net.cpp:382] Slice1 -> slice1_59
I0313 11:45:35.541262 24715 net.cpp:382] Slice1 -> slice1_60
I0313 11:45:35.541916 24715 net.cpp:124] Setting up Slice1
I0313 11:45:35.541929 24715 net.cpp:131] Top shape: 1 64 1 80 (5120)
I0313 11:45:35.541936 24715 net.cpp:131] Top shape: 1 64 1 80 (5120)
I0313 11:45:35.541944 24715 net.cpp:131] Top shape: 1 64 1 80 (5120)
I0313 11:45:35.541950 24715 net.cpp:131] Top shape: 1 64 1 80 (5120)
I0313 11:45:35.541957 24715 net.cpp:131] Top shape: 1 64 1 80 (5120)
I0313 11:45:35.541965 24715 net.cpp:131] Top shape: 1 64 1 80 (5120)
I0313 11:45:35.541971 24715 net.cpp:131] Top shape: 1 64 1 80 (5120)
I0313 11:45:35.541978 24715 net.cpp:131] Top shape: 1 64 1 80 (5120)
I0313 11:45:35.541985 24715 net.cpp:131] Top shape: 1 64 1 80 (5120)
I0313 11:45:35.541992 24715 net.cpp:131] Top shape: 1 64 1 80 (5120)
I0313 11:45:35.541997 24715 net.cpp:131] Top shape: 1 64 1 80 (5120)
I0313 11:45:35.542003 24715 net.cpp:131] Top shape: 1 64 1 80 (5120)
I0313 11:45:35.542011 24715 net.cpp:131] Top shape: 1 64 1 80 (5120)
I0313 11:45:35.542017 24715 net.cpp:131] Top shape: 1 64 1 80 (5120)
I0313 11:45:35.542024 24715 net.cpp:131] Top shape: 1 64 1 80 (5120)
I0313 11:45:35.542030 24715 net.cpp:131] Top shape: 1 64 1 80 (5120)
I0313 11:45:35.542037 24715 net.cpp:131] Top shape: 1 64 1 80 (5120)
I0313 11:45:35.542044 24715 net.cpp:131] Top shape: 1 64 1 80 (5120)
I0313 11:45:35.542052 24715 net.cpp:131] Top shape: 1 64 1 80 (5120)
I0313 11:45:35.542058 24715 net.cpp:131] Top shape: 1 64 1 80 (5120)
I0313 11:45:35.542065 24715 net.cpp:131] Top shape: 1 64 1 80 (5120)
I0313 11:45:35.542071 24715 net.cpp:131] Top shape: 1 64 1 80 (5120)
I0313 11:45:35.542078 24715 net.cpp:131] Top shape: 1 64 1 80 (5120)
I0313 11:45:35.542085 24715 net.cpp:131] Top shape: 1 64 1 80 (5120)
I0313 11:45:35.542093 24715 net.cpp:131] Top shape: 1 64 1 80 (5120)
I0313 11:45:35.542099 24715 net.cpp:131] Top shape: 1 64 1 80 (5120)
I0313 11:45:35.542106 24715 net.cpp:131] Top shape: 1 64 1 80 (5120)
I0313 11:45:35.542117 24715 net.cpp:131] Top shape: 1 64 1 80 (5120)
I0313 11:45:35.542124 24715 net.cpp:131] Top shape: 1 64 1 80 (5120)
I0313 11:45:35.542130 24715 net.cpp:131] Top shape: 1 64 1 80 (5120)
I0313 11:45:35.542137 24715 net.cpp:131] Top shape: 1 64 1 80 (5120)
I0313 11:45:35.542145 24715 net.cpp:131] Top shape: 1 64 1 80 (5120)
I0313 11:45:35.542151 24715 net.cpp:131] Top shape: 1 64 1 80 (5120)
I0313 11:45:35.542158 24715 net.cpp:131] Top shape: 1 64 1 80 (5120)
I0313 11:45:35.542165 24715 net.cpp:131] Top shape: 1 64 1 80 (5120)
I0313 11:45:35.542171 24715 net.cpp:131] Top shape: 1 64 1 80 (5120)
I0313 11:45:35.542178 24715 net.cpp:131] Top shape: 1 64 1 80 (5120)
I0313 11:45:35.542186 24715 net.cpp:131] Top shape: 1 64 1 80 (5120)
I0313 11:45:35.542192 24715 net.cpp:131] Top shape: 1 64 1 80 (5120)
I0313 11:45:35.542199 24715 net.cpp:131] Top shape: 1 64 1 80 (5120)
I0313 11:45:35.542207 24715 net.cpp:131] Top shape: 1 64 1 80 (5120)
I0313 11:45:35.542212 24715 net.cpp:131] Top shape: 1 64 1 80 (5120)
I0313 11:45:35.542219 24715 net.cpp:131] Top shape: 1 64 1 80 (5120)
I0313 11:45:35.542227 24715 net.cpp:131] Top shape: 1 64 1 80 (5120)
I0313 11:45:35.542233 24715 net.cpp:131] Top shape: 1 64 1 80 (5120)
I0313 11:45:35.542240 24715 net.cpp:131] Top shape: 1 64 1 80 (5120)
I0313 11:45:35.542248 24715 net.cpp:131] Top shape: 1 64 1 80 (5120)
I0313 11:45:35.542254 24715 net.cpp:131] Top shape: 1 64 1 80 (5120)
I0313 11:45:35.542260 24715 net.cpp:131] Top shape: 1 64 1 80 (5120)
I0313 11:45:35.542268 24715 net.cpp:131] Top shape: 1 64 1 80 (5120)
I0313 11:45:35.542274 24715 net.cpp:131] Top shape: 1 64 1 80 (5120)
I0313 11:45:35.542281 24715 net.cpp:131] Top shape: 1 64 1 80 (5120)
I0313 11:45:35.542289 24715 net.cpp:131] Top shape: 1 64 1 80 (5120)
I0313 11:45:35.542294 24715 net.cpp:131] Top shape: 1 64 1 80 (5120)
I0313 11:45:35.542301 24715 net.cpp:131] Top shape: 1 64 1 80 (5120)
I0313 11:45:35.542309 24715 net.cpp:131] Top shape: 1 64 1 80 (5120)
I0313 11:45:35.542315 24715 net.cpp:131] Top shape: 1 64 1 80 (5120)
I0313 11:45:35.542322 24715 net.cpp:131] Top shape: 1 64 1 80 (5120)
I0313 11:45:35.542328 24715 net.cpp:131] Top shape: 1 64 1 80 (5120)
I0313 11:45:35.542335 24715 net.cpp:131] Top shape: 1 64 1 80 (5120)
I0313 11:45:35.542340 24715 net.cpp:139] Memory required for data: 317644800
I0313 11:45:35.542346 24715 layer_factory.hpp:77] Creating layer slice1_1_Slice1_0_split
I0313 11:45:35.542354 24715 net.cpp:86] Creating Layer slice1_1_Slice1_0_split
I0313 11:45:35.542362 24715 net.cpp:408] slice1_1_Slice1_0_split <- slice1_1
I0313 11:45:35.542373 24715 net.cpp:382] slice1_1_Slice1_0_split -> slice1_1_Slice1_0_split_0
I0313 11:45:35.542385 24715 net.cpp:382] slice1_1_Slice1_0_split -> slice1_1_Slice1_0_split_1
I0313 11:45:35.542426 24715 net.cpp:124] Setting up slice1_1_Slice1_0_split
I0313 11:45:35.542436 24715 net.cpp:131] Top shape: 1 64 1 80 (5120)
I0313 11:45:35.542443 24715 net.cpp:131] Top shape: 1 64 1 80 (5120)
I0313 11:45:35.542446 24715 net.cpp:139] Memory required for data: 317685760
I0313 11:45:35.542451 24715 layer_factory.hpp:77] Creating layer SCNN_D_1
I0313 11:45:35.542464 24715 net.cpp:86] Creating Layer SCNN_D_1
I0313 11:45:35.542472 24715 net.cpp:408] SCNN_D_1 <- slice1_1_Slice1_0_split_0
I0313 11:45:35.542484 24715 net.cpp:382] SCNN_D_1 -> SCNN_D_1/message
I0313 11:45:35.543733 24715 net.cpp:124] Setting up SCNN_D_1
I0313 11:45:35.543750 24715 net.cpp:131] Top shape: 1 64 1 80 (5120)
I0313 11:45:35.543756 24715 net.cpp:139] Memory required for data: 317706240
I0313 11:45:35.543766 24715 layer_factory.hpp:77] Creating layer SCNN_D_1/relu
I0313 11:45:35.543776 24715 net.cpp:86] Creating Layer SCNN_D_1/relu
I0313 11:45:35.543784 24715 net.cpp:408] SCNN_D_1/relu <- SCNN_D_1/message
I0313 11:45:35.543793 24715 net.cpp:369] SCNN_D_1/relu -> SCNN_D_1/message (in-place)
I0313 11:45:35.544152 24715 net.cpp:124] Setting up SCNN_D_1/relu
I0313 11:45:35.544165 24715 net.cpp:131] Top shape: 1 64 1 80 (5120)
I0313 11:45:35.544170 24715 net.cpp:139] Memory required for data: 317726720
I0313 11:45:35.544175 24715 layer_factory.hpp:77] Creating layer SCNN_D_1/sum
I0313 11:45:35.544205 24715 net.cpp:86] Creating Layer SCNN_D_1/sum
I0313 11:45:35.544215 24715 net.cpp:408] SCNN_D_1/sum <- SCNN_D_1/message
I0313 11:45:35.544226 24715 net.cpp:408] SCNN_D_1/sum <- slice1_2
I0313 11:45:35.544235 24715 net.cpp:382] SCNN_D_1/sum -> SCNN_D_2
I0313 11:45:35.544319 24715 net.cpp:124] Setting up SCNN_D_1/sum
I0313 11:45:35.544330 24715 net.cpp:131] Top shape: 1 64 1 80 (5120)
I0313 11:45:35.544335 24715 net.cpp:139] Memory required for data: 317747200
I0313 11:45:35.544342 24715 layer_factory.hpp:77] Creating layer SCNN_D_2_SCNN_D_1/sum_0_split
I0313 11:45:35.544350 24715 net.cpp:86] Creating Layer SCNN_D_2_SCNN_D_1/sum_0_split
I0313 11:45:35.544359 24715 net.cpp:408] SCNN_D_2_SCNN_D_1/sum_0_split <- SCNN_D_2
I0313 11:45:35.544370 24715 net.cpp:382] SCNN_D_2_SCNN_D_1/sum_0_split -> SCNN_D_2_SCNN_D_1/sum_0_split_0
I0313 11:45:35.544381 24715 net.cpp:382] SCNN_D_2_SCNN_D_1/sum_0_split -> SCNN_D_2_SCNN_D_1/sum_0_split_1
I0313 11:45:35.544425 24715 net.cpp:124] Setting up SCNN_D_2_SCNN_D_1/sum_0_split
I0313 11:45:35.544436 24715 net.cpp:131] Top shape: 1 64 1 80 (5120)
I0313 11:45:35.544445 24715 net.cpp:131] Top shape: 1 64 1 80 (5120)
I0313 11:45:35.544450 24715 net.cpp:139] Memory required for data: 317788160
I0313 11:45:35.544456 24715 layer_factory.hpp:77] Creating layer SCNN_D_2
I0313 11:45:35.544467 24715 net.cpp:86] Creating Layer SCNN_D_2
I0313 11:45:35.544474 24715 net.cpp:408] SCNN_D_2 <- SCNN_D_2_SCNN_D_1/sum_0_split_0
I0313 11:45:35.544486 24715 net.cpp:382] SCNN_D_2 -> SCNN_D_2/message
I0313 11:45:35.545681 24715 net.cpp:124] Setting up SCNN_D_2
I0313 11:45:35.545697 24715 net.cpp:131] Top shape: 1 64 1 80 (5120)
I0313 11:45:35.545704 24715 net.cpp:139] Memory required for data: 317808640
I0313 11:45:35.545712 24715 net.cpp:467] Sharing parameters 'SCNN_D_w' owned by layer 'SCNN_D_1', param index 0
I0313 11:45:35.545718 24715 layer_factory.hpp:77] Creating layer SCNN_D_2/relu
I0313 11:45:35.545729 24715 net.cpp:86] Creating Layer SCNN_D_2/relu
I0313 11:45:35.545737 24715 net.cpp:408] SCNN_D_2/relu <- SCNN_D_2/message
I0313 11:45:35.545747 24715 net.cpp:369] SCNN_D_2/relu -> SCNN_D_2/message (in-place)
I0313 11:45:35.546910 24715 net.cpp:124] Setting up SCNN_D_2/relu
I0313 11:45:35.546921 24715 net.cpp:131] Top shape: 1 64 1 80 (5120)
I0313 11:45:35.546926 24715 net.cpp:139] Memory required for data: 317829120
I0313 11:45:35.546937 24715 layer_factory.hpp:77] Creating layer SCNN_D_2/sum
I0313 11:45:35.546947 24715 net.cpp:86] Creating Layer SCNN_D_2/sum
I0313 11:45:35.546955 24715 net.cpp:408] SCNN_D_2/sum <- SCNN_D_2/message
I0313 11:45:35.546967 24715 net.cpp:408] SCNN_D_2/sum <- slice1_3
I0313 11:45:35.546977 24715 net.cpp:382] SCNN_D_2/sum -> SCNN_D_3
I0313 11:45:35.547013 24715 net.cpp:124] Setting up SCNN_D_2/sum
I0313 11:45:35.547024 24715 net.cpp:131] Top shape: 1 64 1 80 (5120)
I0313 11:45:35.547029 24715 net.cpp:139] Memory required for data: 317849600
I0313 11:45:35.547031 24715 layer_factory.hpp:77] Creating layer SCNN_D_3_SCNN_D_2/sum_0_split
I0313 11:45:35.547039 24715 net.cpp:86] Creating Layer SCNN_D_3_SCNN_D_2/sum_0_split
I0313 11:45:35.547049 24715 net.cpp:408] SCNN_D_3_SCNN_D_2/sum_0_split <- SCNN_D_3
I0313 11:45:35.547058 24715 net.cpp:382] SCNN_D_3_SCNN_D_2/sum_0_split -> SCNN_D_3_SCNN_D_2/sum_0_split_0
I0313 11:45:35.547070 24715 net.cpp:382] SCNN_D_3_SCNN_D_2/sum_0_split -> SCNN_D_3_SCNN_D_2/sum_0_split_1
I0313 11:45:35.547116 24715 net.cpp:124] Setting up SCNN_D_3_SCNN_D_2/sum_0_split
I0313 11:45:35.547127 24715 net.cpp:131] Top shape: 1 64 1 80 (5120)
I0313 11:45:35.547134 24715 net.cpp:131] Top shape: 1 64 1 80 (5120)
I0313 11:45:35.547140 24715 net.cpp:139] Memory required for data: 317890560
I0313 11:45:35.547145 24715 layer_factory.hpp:77] Creating layer SCNN_D_3
I0313 11:45:35.547158 24715 net.cpp:86] Creating Layer SCNN_D_3
I0313 11:45:35.547164 24715 net.cpp:408] SCNN_D_3 <- SCNN_D_3_SCNN_D_2/sum_0_split_0
I0313 11:45:35.547175 24715 net.cpp:382] SCNN_D_3 -> SCNN_D_3/message
I0313 11:45:35.548384 24715 net.cpp:124] Setting up SCNN_D_3
I0313 11:45:35.548400 24715 net.cpp:131] Top shape: 1 64 1 80 (5120)
I0313 11:45:35.548408 24715 net.cpp:139] Memory required for data: 317911040
I0313 11:45:35.548414 24715 net.cpp:467] Sharing parameters 'SCNN_D_w' owned by layer 'SCNN_D_1', param index 0
I0313 11:45:35.548421 24715 layer_factory.hpp:77] Creating layer SCNN_D_3/relu
I0313 11:45:35.548431 24715 net.cpp:86] Creating Layer SCNN_D_3/relu
I0313 11:45:35.548439 24715 net.cpp:408] SCNN_D_3/relu <- SCNN_D_3/message
I0313 11:45:35.548449 24715 net.cpp:369] SCNN_D_3/relu -> SCNN_D_3/message (in-place)
I0313 11:45:35.548591 24715 net.cpp:124] Setting up SCNN_D_3/relu
I0313 11:45:35.548600 24715 net.cpp:131] Top shape: 1 64 1 80 (5120)
I0313 11:45:35.548604 24715 net.cpp:139] Memory required for data: 317931520
I0313 11:45:35.548609 24715 layer_factory.hpp:77] Creating layer SCNN_D_3/sum
I0313 11:45:35.548619 24715 net.cpp:86] Creating Layer SCNN_D_3/sum
I0313 11:45:35.548626 24715 net.cpp:408] SCNN_D_3/sum <- SCNN_D_3/message
I0313 11:45:35.548637 24715 net.cpp:408] SCNN_D_3/sum <- slice1_4
I0313 11:45:35.548645 24715 net.cpp:382] SCNN_D_3/sum -> SCNN_D_4
I0313 11:45:35.548679 24715 net.cpp:124] Setting up SCNN_D_3/sum
I0313 11:45:35.548689 24715 net.cpp:131] Top shape: 1 64 1 80 (5120)
I0313 11:45:35.548696 24715 net.cpp:139] Memory required for data: 317952000
I0313 11:45:35.548701 24715 layer_factory.hpp:77] Creating layer SCNN_D_4_SCNN_D_3/sum_0_split
I0313 11:45:35.548710 24715 net.cpp:86] Creating Layer SCNN_D_4_SCNN_D_3/sum_0_split
I0313 11:45:35.548717 24715 net.cpp:408] SCNN_D_4_SCNN_D_3/sum_0_split <- SCNN_D_4
I0313 11:45:35.548728 24715 net.cpp:382] SCNN_D_4_SCNN_D_3/sum_0_split -> SCNN_D_4_SCNN_D_3/sum_0_split_0
I0313 11:45:35.548739 24715 net.cpp:382] SCNN_D_4_SCNN_D_3/sum_0_split -> SCNN_D_4_SCNN_D_3/sum_0_split_1
I0313 11:45:35.548782 24715 net.cpp:124] Setting up SCNN_D_4_SCNN_D_3/sum_0_split
I0313 11:45:35.548794 24715 net.cpp:131] Top shape: 1 64 1 80 (5120)
I0313 11:45:35.548802 24715 net.cpp:131] Top shape: 1 64 1 80 (5120)
I0313 11:45:35.548807 24715 net.cpp:139] Memory required for data: 317992960
I0313 11:45:35.548811 24715 layer_factory.hpp:77] Creating layer SCNN_D_4
I0313 11:45:35.548822 24715 net.cpp:86] Creating Layer SCNN_D_4
I0313 11:45:35.548830 24715 net.cpp:408] SCNN_D_4 <- SCNN_D_4_SCNN_D_3/sum_0_split_0
I0313 11:45:35.548840 24715 net.cpp:382] SCNN_D_4 -> SCNN_D_4/message
I0313 11:45:35.550014 24715 net.cpp:124] Setting up SCNN_D_4
I0313 11:45:35.550029 24715 net.cpp:131] Top shape: 1 64 1 80 (5120)
I0313 11:45:35.550040 24715 net.cpp:139] Memory required for data: 318013440
I0313 11:45:35.550048 24715 net.cpp:467] Sharing parameters 'SCNN_D_w' owned by layer 'SCNN_D_1', param index 0
I0313 11:45:35.550055 24715 layer_factory.hpp:77] Creating layer SCNN_D_4/relu
I0313 11:45:35.550063 24715 net.cpp:86] Creating Layer SCNN_D_4/relu
I0313 11:45:35.550071 24715 net.cpp:408] SCNN_D_4/relu <- SCNN_D_4/message
I0313 11:45:35.550081 24715 net.cpp:369] SCNN_D_4/relu -> SCNN_D_4/message (in-place)
I0313 11:45:35.550215 24715 net.cpp:124] Setting up SCNN_D_4/relu
I0313 11:45:35.550225 24715 net.cpp:131] Top shape: 1 64 1 80 (5120)
I0313 11:45:35.550228 24715 net.cpp:139] Memory required for data: 318033920
I0313 11:45:35.550233 24715 layer_factory.hpp:77] Creating layer SCNN_D_4/sum
I0313 11:45:35.550240 24715 net.cpp:86] Creating Layer SCNN_D_4/sum
I0313 11:45:35.550248 24715 net.cpp:408] SCNN_D_4/sum <- SCNN_D_4/message
I0313 11:45:35.550258 24715 net.cpp:408] SCNN_D_4/sum <- slice1_5
I0313 11:45:35.550266 24715 net.cpp:382] SCNN_D_4/sum -> SCNN_D_5
I0313 11:45:35.550299 24715 net.cpp:124] Setting up SCNN_D_4/sum
I0313 11:45:35.550309 24715 net.cpp:131] Top shape: 1 64 1 80 (5120)
I0313 11:45:35.550314 24715 net.cpp:139] Memory required for data: 318054400
I0313 11:45:35.550320 24715 layer_factory.hpp:77] Creating layer SCNN_D_5_SCNN_D_4/sum_0_split
I0313 11:45:35.550328 24715 net.cpp:86] Creating Layer SCNN_D_5_SCNN_D_4/sum_0_split
I0313 11:45:35.550335 24715 net.cpp:408] SCNN_D_5_SCNN_D_4/sum_0_split <- SCNN_D_5
I0313 11:45:35.550344 24715 net.cpp:382] SCNN_D_5_SCNN_D_4/sum_0_split -> SCNN_D_5_SCNN_D_4/sum_0_split_0
I0313 11:45:35.550355 24715 net.cpp:382] SCNN_D_5_SCNN_D_4/sum_0_split -> SCNN_D_5_SCNN_D_4/sum_0_split_1
I0313 11:45:35.550396 24715 net.cpp:124] Setting up SCNN_D_5_SCNN_D_4/sum_0_split
I0313 11:45:35.550406 24715 net.cpp:131] Top shape: 1 64 1 80 (5120)
I0313 11:45:35.550413 24715 net.cpp:131] Top shape: 1 64 1 80 (5120)
I0313 11:45:35.550420 24715 net.cpp:139] Memory required for data: 318095360
I0313 11:45:35.550426 24715 layer_factory.hpp:77] Creating layer SCNN_D_5
I0313 11:45:35.550436 24715 net.cpp:86] Creating Layer SCNN_D_5
I0313 11:45:35.550442 24715 net.cpp:408] SCNN_D_5 <- SCNN_D_5_SCNN_D_4/sum_0_split_0
I0313 11:45:35.550452 24715 net.cpp:382] SCNN_D_5 -> SCNN_D_5/message
I0313 11:45:35.551612 24715 net.cpp:124] Setting up SCNN_D_5
I0313 11:45:35.551626 24715 net.cpp:131] Top shape: 1 64 1 80 (5120)
I0313 11:45:35.551637 24715 net.cpp:139] Memory required for data: 318115840
I0313 11:45:35.551645 24715 net.cpp:467] Sharing parameters 'SCNN_D_w' owned by layer 'SCNN_D_1', param index 0
I0313 11:45:35.551651 24715 layer_factory.hpp:77] Creating layer SCNN_D_5/relu
I0313 11:45:35.551661 24715 net.cpp:86] Creating Layer SCNN_D_5/relu
I0313 11:45:35.551667 24715 net.cpp:408] SCNN_D_5/relu <- SCNN_D_5/message
I0313 11:45:35.551677 24715 net.cpp:369] SCNN_D_5/relu -> SCNN_D_5/message (in-place)
I0313 11:45:35.551810 24715 net.cpp:124] Setting up SCNN_D_5/relu
I0313 11:45:35.551820 24715 net.cpp:131] Top shape: 1 64 1 80 (5120)
I0313 11:45:35.551823 24715 net.cpp:139] Memory required for data: 318136320
I0313 11:45:35.551828 24715 layer_factory.hpp:77] Creating layer SCNN_D_5/sum
I0313 11:45:35.551836 24715 net.cpp:86] Creating Layer SCNN_D_5/sum
I0313 11:45:35.551844 24715 net.cpp:408] SCNN_D_5/sum <- SCNN_D_5/message
I0313 11:45:35.551854 24715 net.cpp:408] SCNN_D_5/sum <- slice1_6
I0313 11:45:35.551862 24715 net.cpp:382] SCNN_D_5/sum -> SCNN_D_6
I0313 11:45:35.551895 24715 net.cpp:124] Setting up SCNN_D_5/sum
I0313 11:45:35.551904 24715 net.cpp:131] Top shape: 1 64 1 80 (5120)
I0313 11:45:35.551910 24715 net.cpp:139] Memory required for data: 318156800
I0313 11:45:35.551915 24715 layer_factory.hpp:77] Creating layer SCNN_D_6_SCNN_D_5/sum_0_split
I0313 11:45:35.551923 24715 net.cpp:86] Creating Layer SCNN_D_6_SCNN_D_5/sum_0_split
I0313 11:45:35.551929 24715 net.cpp:408] SCNN_D_6_SCNN_D_5/sum_0_split <- SCNN_D_6
I0313 11:45:35.551939 24715 net.cpp:382] SCNN_D_6_SCNN_D_5/sum_0_split -> SCNN_D_6_SCNN_D_5/sum_0_split_0
I0313 11:45:35.551950 24715 net.cpp:382] SCNN_D_6_SCNN_D_5/sum_0_split -> SCNN_D_6_SCNN_D_5/sum_0_split_1
I0313 11:45:35.551992 24715 net.cpp:124] Setting up SCNN_D_6_SCNN_D_5/sum_0_split
I0313 11:45:35.552001 24715 net.cpp:131] Top shape: 1 64 1 80 (5120)
I0313 11:45:35.552009 24715 net.cpp:131] Top shape: 1 64 1 80 (5120)
I0313 11:45:35.552013 24715 net.cpp:139] Memory required for data: 318197760
I0313 11:45:35.552017 24715 layer_factory.hpp:77] Creating layer SCNN_D_6
I0313 11:45:35.552028 24715 net.cpp:86] Creating Layer SCNN_D_6
I0313 11:45:35.552037 24715 net.cpp:408] SCNN_D_6 <- SCNN_D_6_SCNN_D_5/sum_0_split_0
I0313 11:45:35.552047 24715 net.cpp:382] SCNN_D_6 -> SCNN_D_6/message
I0313 11:45:35.554165 24715 net.cpp:124] Setting up SCNN_D_6
I0313 11:45:35.554181 24715 net.cpp:131] Top shape: 1 64 1 80 (5120)
I0313 11:45:35.554193 24715 net.cpp:139] Memory required for data: 318218240
I0313 11:45:35.554203 24715 net.cpp:467] Sharing parameters 'SCNN_D_w' owned by layer 'SCNN_D_1', param index 0
I0313 11:45:35.554208 24715 layer_factory.hpp:77] Creating layer SCNN_D_6/relu
I0313 11:45:35.554225 24715 net.cpp:86] Creating Layer SCNN_D_6/relu
I0313 11:45:35.554234 24715 net.cpp:408] SCNN_D_6/relu <- SCNN_D_6/message
I0313 11:45:35.554245 24715 net.cpp:369] SCNN_D_6/relu -> SCNN_D_6/message (in-place)
I0313 11:45:35.554605 24715 net.cpp:124] Setting up SCNN_D_6/relu
I0313 11:45:35.554615 24715 net.cpp:131] Top shape: 1 64 1 80 (5120)
I0313 11:45:35.554620 24715 net.cpp:139] Memory required for data: 318238720
I0313 11:45:35.554630 24715 layer_factory.hpp:77] Creating layer SCNN_D_6/sum
I0313 11:45:35.554637 24715 net.cpp:86] Creating Layer SCNN_D_6/sum
I0313 11:45:35.554646 24715 net.cpp:408] SCNN_D_6/sum <- SCNN_D_6/message
I0313 11:45:35.554656 24715 net.cpp:408] SCNN_D_6/sum <- slice1_7
I0313 11:45:35.554663 24715 net.cpp:382] SCNN_D_6/sum -> SCNN_D_7
I0313 11:45:35.554698 24715 net.cpp:124] Setting up SCNN_D_6/sum
I0313 11:45:35.554709 24715 net.cpp:131] Top shape: 1 64 1 80 (5120)
I0313 11:45:35.554714 24715 net.cpp:139] Memory required for data: 318259200
I0313 11:45:35.554720 24715 layer_factory.hpp:77] Creating layer SCNN_D_7_SCNN_D_6/sum_0_split
I0313 11:45:35.554728 24715 net.cpp:86] Creating Layer SCNN_D_7_SCNN_D_6/sum_0_split
I0313 11:45:35.554735 24715 net.cpp:408] SCNN_D_7_SCNN_D_6/sum_0_split <- SCNN_D_7
I0313 11:45:35.554744 24715 net.cpp:382] SCNN_D_7_SCNN_D_6/sum_0_split -> SCNN_D_7_SCNN_D_6/sum_0_split_0
I0313 11:45:35.554755 24715 net.cpp:382] SCNN_D_7_SCNN_D_6/sum_0_split -> SCNN_D_7_SCNN_D_6/sum_0_split_1
I0313 11:45:35.554797 24715 net.cpp:124] Setting up SCNN_D_7_SCNN_D_6/sum_0_split
I0313 11:45:35.554807 24715 net.cpp:131] Top shape: 1 64 1 80 (5120)
I0313 11:45:35.554814 24715 net.cpp:131] Top shape: 1 64 1 80 (5120)
I0313 11:45:35.554821 24715 net.cpp:139] Memory required for data: 318300160
I0313 11:45:35.554826 24715 layer_factory.hpp:77] Creating layer SCNN_D_7
I0313 11:45:35.554836 24715 net.cpp:86] Creating Layer SCNN_D_7
I0313 11:45:35.554842 24715 net.cpp:408] SCNN_D_7 <- SCNN_D_7_SCNN_D_6/sum_0_split_0
I0313 11:45:35.554853 24715 net.cpp:382] SCNN_D_7 -> SCNN_D_7/message
I0313 11:45:35.556048 24715 net.cpp:124] Setting up SCNN_D_7
I0313 11:45:35.556063 24715 net.cpp:131] Top shape: 1 64 1 80 (5120)
I0313 11:45:35.556074 24715 net.cpp:139] Memory required for data: 318320640
I0313 11:45:35.556082 24715 net.cpp:467] Sharing parameters 'SCNN_D_w' owned by layer 'SCNN_D_1', param index 0
I0313 11:45:35.556088 24715 layer_factory.hpp:77] Creating layer SCNN_D_7/relu
I0313 11:45:35.556097 24715 net.cpp:86] Creating Layer SCNN_D_7/relu
I0313 11:45:35.556104 24715 net.cpp:408] SCNN_D_7/relu <- SCNN_D_7/message
I0313 11:45:35.556114 24715 net.cpp:369] SCNN_D_7/relu -> SCNN_D_7/message (in-place)
I0313 11:45:35.556247 24715 net.cpp:124] Setting up SCNN_D_7/relu
I0313 11:45:35.556257 24715 net.cpp:131] Top shape: 1 64 1 80 (5120)
I0313 11:45:35.556262 24715 net.cpp:139] Memory required for data: 318341120
I0313 11:45:35.556267 24715 layer_factory.hpp:77] Creating layer SCNN_D_7/sum
I0313 11:45:35.556274 24715 net.cpp:86] Creating Layer SCNN_D_7/sum
I0313 11:45:35.556282 24715 net.cpp:408] SCNN_D_7/sum <- SCNN_D_7/message
I0313 11:45:35.556293 24715 net.cpp:408] SCNN_D_7/sum <- slice1_8
I0313 11:45:35.556299 24715 net.cpp:382] SCNN_D_7/sum -> SCNN_D_8
I0313 11:45:35.556337 24715 net.cpp:124] Setting up SCNN_D_7/sum
I0313 11:45:35.556347 24715 net.cpp:131] Top shape: 1 64 1 80 (5120)
I0313 11:45:35.556354 24715 net.cpp:139] Memory required for data: 318361600
I0313 11:45:35.556357 24715 layer_factory.hpp:77] Creating layer SCNN_D_8_SCNN_D_7/sum_0_split
I0313 11:45:35.556365 24715 net.cpp:86] Creating Layer SCNN_D_8_SCNN_D_7/sum_0_split
I0313 11:45:35.556372 24715 net.cpp:408] SCNN_D_8_SCNN_D_7/sum_0_split <- SCNN_D_8
I0313 11:45:35.556383 24715 net.cpp:382] SCNN_D_8_SCNN_D_7/sum_0_split -> SCNN_D_8_SCNN_D_7/sum_0_split_0
I0313 11:45:35.556394 24715 net.cpp:382] SCNN_D_8_SCNN_D_7/sum_0_split -> SCNN_D_8_SCNN_D_7/sum_0_split_1
I0313 11:45:35.556435 24715 net.cpp:124] Setting up SCNN_D_8_SCNN_D_7/sum_0_split
I0313 11:45:35.556445 24715 net.cpp:131] Top shape: 1 64 1 80 (5120)
I0313 11:45:35.556452 24715 net.cpp:131] Top shape: 1 64 1 80 (5120)
I0313 11:45:35.556458 24715 net.cpp:139] Memory required for data: 318402560
I0313 11:45:35.556464 24715 layer_factory.hpp:77] Creating layer SCNN_D_8
I0313 11:45:35.556474 24715 net.cpp:86] Creating Layer SCNN_D_8
I0313 11:45:35.556481 24715 net.cpp:408] SCNN_D_8 <- SCNN_D_8_SCNN_D_7/sum_0_split_0
I0313 11:45:35.556493 24715 net.cpp:382] SCNN_D_8 -> SCNN_D_8/message
I0313 11:45:35.557653 24715 net.cpp:124] Setting up SCNN_D_8
I0313 11:45:35.557668 24715 net.cpp:131] Top shape: 1 64 1 80 (5120)
I0313 11:45:35.557674 24715 net.cpp:139] Memory required for data: 318423040
I0313 11:45:35.557682 24715 net.cpp:467] Sharing parameters 'SCNN_D_w' owned by layer 'SCNN_D_1', param index 0
I0313 11:45:35.557687 24715 layer_factory.hpp:77] Creating layer SCNN_D_8/relu
I0313 11:45:35.557695 24715 net.cpp:86] Creating Layer SCNN_D_8/relu
I0313 11:45:35.557703 24715 net.cpp:408] SCNN_D_8/relu <- SCNN_D_8/message
I0313 11:45:35.557713 24715 net.cpp:369] SCNN_D_8/relu -> SCNN_D_8/message (in-place)
I0313 11:45:35.557848 24715 net.cpp:124] Setting up SCNN_D_8/relu
I0313 11:45:35.557858 24715 net.cpp:131] Top shape: 1 64 1 80 (5120)
I0313 11:45:35.557862 24715 net.cpp:139] Memory required for data: 318443520
I0313 11:45:35.557868 24715 layer_factory.hpp:77] Creating layer SCNN_D_8/sum
I0313 11:45:35.557874 24715 net.cpp:86] Creating Layer SCNN_D_8/sum
I0313 11:45:35.557883 24715 net.cpp:408] SCNN_D_8/sum <- SCNN_D_8/message
I0313 11:45:35.557893 24715 net.cpp:408] SCNN_D_8/sum <- slice1_9
I0313 11:45:35.557899 24715 net.cpp:382] SCNN_D_8/sum -> SCNN_D_9
I0313 11:45:35.557941 24715 net.cpp:124] Setting up SCNN_D_8/sum
I0313 11:45:35.557955 24715 net.cpp:131] Top shape: 1 64 1 80 (5120)
I0313 11:45:35.557960 24715 net.cpp:139] Memory required for data: 318464000
I0313 11:45:35.557965 24715 layer_factory.hpp:77] Creating layer SCNN_D_9_SCNN_D_8/sum_0_split
I0313 11:45:35.557971 24715 net.cpp:86] Creating Layer SCNN_D_9_SCNN_D_8/sum_0_split
I0313 11:45:35.557978 24715 net.cpp:408] SCNN_D_9_SCNN_D_8/sum_0_split <- SCNN_D_9
I0313 11:45:35.557987 24715 net.cpp:382] SCNN_D_9_SCNN_D_8/sum_0_split -> SCNN_D_9_SCNN_D_8/sum_0_split_0
I0313 11:45:35.557998 24715 net.cpp:382] SCNN_D_9_SCNN_D_8/sum_0_split -> SCNN_D_9_SCNN_D_8/sum_0_split_1
I0313 11:45:35.558039 24715 net.cpp:124] Setting up SCNN_D_9_SCNN_D_8/sum_0_split
I0313 11:45:35.558048 24715 net.cpp:131] Top shape: 1 64 1 80 (5120)
I0313 11:45:35.558056 24715 net.cpp:131] Top shape: 1 64 1 80 (5120)
I0313 11:45:35.558061 24715 net.cpp:139] Memory required for data: 318504960
I0313 11:45:35.558066 24715 layer_factory.hpp:77] Creating layer SCNN_D_9
I0313 11:45:35.558075 24715 net.cpp:86] Creating Layer SCNN_D_9
I0313 11:45:35.558082 24715 net.cpp:408] SCNN_D_9 <- SCNN_D_9_SCNN_D_8/sum_0_split_0
I0313 11:45:35.558094 24715 net.cpp:382] SCNN_D_9 -> SCNN_D_9/message
I0313 11:45:35.560396 24715 net.cpp:124] Setting up SCNN_D_9
I0313 11:45:35.560420 24715 net.cpp:131] Top shape: 1 64 1 80 (5120)
I0313 11:45:35.560425 24715 net.cpp:139] Memory required for data: 318525440
I0313 11:45:35.560436 24715 net.cpp:467] Sharing parameters 'SCNN_D_w' owned by layer 'SCNN_D_1', param index 0
I0313 11:45:35.560441 24715 layer_factory.hpp:77] Creating layer SCNN_D_9/relu
I0313 11:45:35.560451 24715 net.cpp:86] Creating Layer SCNN_D_9/relu
I0313 11:45:35.560461 24715 net.cpp:408] SCNN_D_9/relu <- SCNN_D_9/message
I0313 11:45:35.560472 24715 net.cpp:369] SCNN_D_9/relu -> SCNN_D_9/message (in-place)
I0313 11:45:35.560639 24715 net.cpp:124] Setting up SCNN_D_9/relu
I0313 11:45:35.560650 24715 net.cpp:131] Top shape: 1 64 1 80 (5120)
I0313 11:45:35.560655 24715 net.cpp:139] Memory required for data: 318545920
I0313 11:45:35.560662 24715 layer_factory.hpp:77] Creating layer SCNN_D_9/sum
I0313 11:45:35.560669 24715 net.cpp:86] Creating Layer SCNN_D_9/sum
I0313 11:45:35.560678 24715 net.cpp:408] SCNN_D_9/sum <- SCNN_D_9/message
I0313 11:45:35.560689 24715 net.cpp:408] SCNN_D_9/sum <- slice1_10
I0313 11:45:35.560698 24715 net.cpp:382] SCNN_D_9/sum -> SCNN_D_10
I0313 11:45:35.560739 24715 net.cpp:124] Setting up SCNN_D_9/sum
I0313 11:45:35.560748 24715 net.cpp:131] Top shape: 1 64 1 80 (5120)
I0313 11:45:35.560755 24715 net.cpp:139] Memory required for data: 318566400
I0313 11:45:35.560760 24715 layer_factory.hpp:77] Creating layer SCNN_D_10_SCNN_D_9/sum_0_split
I0313 11:45:35.560770 24715 net.cpp:86] Creating Layer SCNN_D_10_SCNN_D_9/sum_0_split
I0313 11:45:35.560777 24715 net.cpp:408] SCNN_D_10_SCNN_D_9/sum_0_split <- SCNN_D_10
I0313 11:45:35.560787 24715 net.cpp:382] SCNN_D_10_SCNN_D_9/sum_0_split -> SCNN_D_10_SCNN_D_9/sum_0_split_0
I0313 11:45:35.560798 24715 net.cpp:382] SCNN_D_10_SCNN_D_9/sum_0_split -> SCNN_D_10_SCNN_D_9/sum_0_split_1
I0313 11:45:35.560843 24715 net.cpp:124] Setting up SCNN_D_10_SCNN_D_9/sum_0_split
I0313 11:45:35.560853 24715 net.cpp:131] Top shape: 1 64 1 80 (5120)
I0313 11:45:35.560860 24715 net.cpp:131] Top shape: 1 64 1 80 (5120)
I0313 11:45:35.560865 24715 net.cpp:139] Memory required for data: 318607360
I0313 11:45:35.560870 24715 layer_factory.hpp:77] Creating layer SCNN_D_10
I0313 11:45:35.560883 24715 net.cpp:86] Creating Layer SCNN_D_10
I0313 11:45:35.560890 24715 net.cpp:408] SCNN_D_10 <- SCNN_D_10_SCNN_D_9/sum_0_split_0
I0313 11:45:35.560902 24715 net.cpp:382] SCNN_D_10 -> SCNN_D_10/message
I0313 11:45:35.562410 24715 net.cpp:124] Setting up SCNN_D_10
I0313 11:45:35.562427 24715 net.cpp:131] Top shape: 1 64 1 80 (5120)
I0313 11:45:35.562435 24715 net.cpp:139] Memory required for data: 318627840
I0313 11:45:35.562443 24715 net.cpp:467] Sharing parameters 'SCNN_D_w' owned by layer 'SCNN_D_1', param index 0
I0313 11:45:35.562449 24715 layer_factory.hpp:77] Creating layer SCNN_D_10/relu
I0313 11:45:35.562458 24715 net.cpp:86] Creating Layer SCNN_D_10/relu
I0313 11:45:35.562466 24715 net.cpp:408] SCNN_D_10/relu <- SCNN_D_10/message
I0313 11:45:35.562479 24715 net.cpp:369] SCNN_D_10/relu -> SCNN_D_10/message (in-place)
I0313 11:45:35.562837 24715 net.cpp:124] Setting up SCNN_D_10/relu
I0313 11:45:35.562850 24715 net.cpp:131] Top shape: 1 64 1 80 (5120)
I0313 11:45:35.562855 24715 net.cpp:139] Memory required for data: 318648320
I0313 11:45:35.562860 24715 layer_factory.hpp:77] Creating layer SCNN_D_10/sum
I0313 11:45:35.562868 24715 net.cpp:86] Creating Layer SCNN_D_10/sum
I0313 11:45:35.562877 24715 net.cpp:408] SCNN_D_10/sum <- SCNN_D_10/message
I0313 11:45:35.562887 24715 net.cpp:408] SCNN_D_10/sum <- slice1_11
I0313 11:45:35.562896 24715 net.cpp:382] SCNN_D_10/sum -> SCNN_D_11
I0313 11:45:35.562934 24715 net.cpp:124] Setting up SCNN_D_10/sum
I0313 11:45:35.562945 24715 net.cpp:131] Top shape: 1 64 1 80 (5120)
I0313 11:45:35.562952 24715 net.cpp:139] Memory required for data: 318668800
I0313 11:45:35.562958 24715 layer_factory.hpp:77] Creating layer SCNN_D_11_SCNN_D_10/sum_0_split
I0313 11:45:35.562968 24715 net.cpp:86] Creating Layer SCNN_D_11_SCNN_D_10/sum_0_split
I0313 11:45:35.562978 24715 net.cpp:408] SCNN_D_11_SCNN_D_10/sum_0_split <- SCNN_D_11
I0313 11:45:35.562988 24715 net.cpp:382] SCNN_D_11_SCNN_D_10/sum_0_split -> SCNN_D_11_SCNN_D_10/sum_0_split_0
I0313 11:45:35.562999 24715 net.cpp:382] SCNN_D_11_SCNN_D_10/sum_0_split -> SCNN_D_11_SCNN_D_10/sum_0_split_1
I0313 11:45:35.563043 24715 net.cpp:124] Setting up SCNN_D_11_SCNN_D_10/sum_0_split
I0313 11:45:35.563055 24715 net.cpp:131] Top shape: 1 64 1 80 (5120)
I0313 11:45:35.563062 24715 net.cpp:131] Top shape: 1 64 1 80 (5120)
I0313 11:45:35.563066 24715 net.cpp:139] Memory required for data: 318709760
I0313 11:45:35.563071 24715 layer_factory.hpp:77] Creating layer SCNN_D_11
I0313 11:45:35.563083 24715 net.cpp:86] Creating Layer SCNN_D_11
I0313 11:45:35.563091 24715 net.cpp:408] SCNN_D_11 <- SCNN_D_11_SCNN_D_10/sum_0_split_0
I0313 11:45:35.563102 24715 net.cpp:382] SCNN_D_11 -> SCNN_D_11/message
I0313 11:45:35.564956 24715 net.cpp:124] Setting up SCNN_D_11
I0313 11:45:35.564973 24715 net.cpp:131] Top shape: 1 64 1 80 (5120)
I0313 11:45:35.564981 24715 net.cpp:139] Memory required for data: 318730240
I0313 11:45:35.564990 24715 net.cpp:467] Sharing parameters 'SCNN_D_w' owned by layer 'SCNN_D_1', param index 0
I0313 11:45:35.564996 24715 layer_factory.hpp:77] Creating layer SCNN_D_11/relu
I0313 11:45:35.565006 24715 net.cpp:86] Creating Layer SCNN_D_11/relu
I0313 11:45:35.565013 24715 net.cpp:408] SCNN_D_11/relu <- SCNN_D_11/message
I0313 11:45:35.565023 24715 net.cpp:369] SCNN_D_11/relu -> SCNN_D_11/message (in-place)
I0313 11:45:35.565168 24715 net.cpp:124] Setting up SCNN_D_11/relu
I0313 11:45:35.565181 24715 net.cpp:131] Top shape: 1 64 1 80 (5120)
I0313 11:45:35.565186 24715 net.cpp:139] Memory required for data: 318750720
I0313 11:45:35.565192 24715 layer_factory.hpp:77] Creating layer SCNN_D_11/sum
I0313 11:45:35.565201 24715 net.cpp:86] Creating Layer SCNN_D_11/sum
I0313 11:45:35.565208 24715 net.cpp:408] SCNN_D_11/sum <- SCNN_D_11/message
I0313 11:45:35.565219 24715 net.cpp:408] SCNN_D_11/sum <- slice1_12
I0313 11:45:35.565227 24715 net.cpp:382] SCNN_D_11/sum -> SCNN_D_12
I0313 11:45:35.565265 24715 net.cpp:124] Setting up SCNN_D_11/sum
I0313 11:45:35.565275 24715 net.cpp:131] Top shape: 1 64 1 80 (5120)
I0313 11:45:35.565281 24715 net.cpp:139] Memory required for data: 318771200
I0313 11:45:35.565286 24715 layer_factory.hpp:77] Creating layer SCNN_D_12_SCNN_D_11/sum_0_split
I0313 11:45:35.565296 24715 net.cpp:86] Creating Layer SCNN_D_12_SCNN_D_11/sum_0_split
I0313 11:45:35.565305 24715 net.cpp:408] SCNN_D_12_SCNN_D_11/sum_0_split <- SCNN_D_12
I0313 11:45:35.565315 24715 net.cpp:382] SCNN_D_12_SCNN_D_11/sum_0_split -> SCNN_D_12_SCNN_D_11/sum_0_split_0
I0313 11:45:35.565327 24715 net.cpp:382] SCNN_D_12_SCNN_D_11/sum_0_split -> SCNN_D_12_SCNN_D_11/sum_0_split_1
I0313 11:45:35.565372 24715 net.cpp:124] Setting up SCNN_D_12_SCNN_D_11/sum_0_split
I0313 11:45:35.565382 24715 net.cpp:131] Top shape: 1 64 1 80 (5120)
I0313 11:45:35.565390 24715 net.cpp:131] Top shape: 1 64 1 80 (5120)
I0313 11:45:35.565397 24715 net.cpp:139] Memory required for data: 318812160
I0313 11:45:35.565402 24715 layer_factory.hpp:77] Creating layer SCNN_D_12
I0313 11:45:35.565412 24715 net.cpp:86] Creating Layer SCNN_D_12
I0313 11:45:35.565419 24715 net.cpp:408] SCNN_D_12 <- SCNN_D_12_SCNN_D_11/sum_0_split_0
I0313 11:45:35.565430 24715 net.cpp:382] SCNN_D_12 -> SCNN_D_12/message
I0313 11:45:35.567705 24715 net.cpp:124] Setting up SCNN_D_12
I0313 11:45:35.567724 24715 net.cpp:131] Top shape: 1 64 1 80 (5120)
I0313 11:45:35.567731 24715 net.cpp:139] Memory required for data: 318832640
I0313 11:45:35.567740 24715 net.cpp:467] Sharing parameters 'SCNN_D_w' owned by layer 'SCNN_D_1', param index 0
I0313 11:45:35.567746 24715 layer_factory.hpp:77] Creating layer SCNN_D_12/relu
I0313 11:45:35.567757 24715 net.cpp:86] Creating Layer SCNN_D_12/relu
I0313 11:45:35.567765 24715 net.cpp:408] SCNN_D_12/relu <- SCNN_D_12/message
I0313 11:45:35.567775 24715 net.cpp:369] SCNN_D_12/relu -> SCNN_D_12/message (in-place)
I0313 11:45:35.567922 24715 net.cpp:124] Setting up SCNN_D_12/relu
I0313 11:45:35.567932 24715 net.cpp:131] Top shape: 1 64 1 80 (5120)
I0313 11:45:35.567936 24715 net.cpp:139] Memory required for data: 318853120
I0313 11:45:35.567941 24715 layer_factory.hpp:77] Creating layer SCNN_D_12/sum
I0313 11:45:35.567951 24715 net.cpp:86] Creating Layer SCNN_D_12/sum
I0313 11:45:35.567960 24715 net.cpp:408] SCNN_D_12/sum <- SCNN_D_12/message
I0313 11:45:35.567970 24715 net.cpp:408] SCNN_D_12/sum <- slice1_13
I0313 11:45:35.567979 24715 net.cpp:382] SCNN_D_12/sum -> SCNN_D_13
I0313 11:45:35.568017 24715 net.cpp:124] Setting up SCNN_D_12/sum
I0313 11:45:35.568027 24715 net.cpp:131] Top shape: 1 64 1 80 (5120)
I0313 11:45:35.568033 24715 net.cpp:139] Memory required for data: 318873600
I0313 11:45:35.568038 24715 layer_factory.hpp:77] Creating layer SCNN_D_13_SCNN_D_12/sum_0_split
I0313 11:45:35.568049 24715 net.cpp:86] Creating Layer SCNN_D_13_SCNN_D_12/sum_0_split
I0313 11:45:35.568058 24715 net.cpp:408] SCNN_D_13_SCNN_D_12/sum_0_split <- SCNN_D_13
I0313 11:45:35.568068 24715 net.cpp:382] SCNN_D_13_SCNN_D_12/sum_0_split -> SCNN_D_13_SCNN_D_12/sum_0_split_0
I0313 11:45:35.568080 24715 net.cpp:382] SCNN_D_13_SCNN_D_12/sum_0_split -> SCNN_D_13_SCNN_D_12/sum_0_split_1
I0313 11:45:35.568125 24715 net.cpp:124] Setting up SCNN_D_13_SCNN_D_12/sum_0_split
I0313 11:45:35.568136 24715 net.cpp:131] Top shape: 1 64 1 80 (5120)
I0313 11:45:35.568146 24715 net.cpp:131] Top shape: 1 64 1 80 (5120)
I0313 11:45:35.568151 24715 net.cpp:139] Memory required for data: 318914560
I0313 11:45:35.568156 24715 layer_factory.hpp:77] Creating layer SCNN_D_13
I0313 11:45:35.568167 24715 net.cpp:86] Creating Layer SCNN_D_13
I0313 11:45:35.568176 24715 net.cpp:408] SCNN_D_13 <- SCNN_D_13_SCNN_D_12/sum_0_split_0
I0313 11:45:35.568186 24715 net.cpp:382] SCNN_D_13 -> SCNN_D_13/message
I0313 11:45:35.569413 24715 net.cpp:124] Setting up SCNN_D_13
I0313 11:45:35.569429 24715 net.cpp:131] Top shape: 1 64 1 80 (5120)
I0313 11:45:35.569437 24715 net.cpp:139] Memory required for data: 318935040
I0313 11:45:35.569444 24715 net.cpp:467] Sharing parameters 'SCNN_D_w' owned by layer 'SCNN_D_1', param index 0
I0313 11:45:35.569450 24715 layer_factory.hpp:77] Creating layer SCNN_D_13/relu
I0313 11:45:35.569459 24715 net.cpp:86] Creating Layer SCNN_D_13/relu
I0313 11:45:35.569468 24715 net.cpp:408] SCNN_D_13/relu <- SCNN_D_13/message
I0313 11:45:35.569478 24715 net.cpp:369] SCNN_D_13/relu -> SCNN_D_13/message (in-place)
I0313 11:45:35.569622 24715 net.cpp:124] Setting up SCNN_D_13/relu
I0313 11:45:35.569633 24715 net.cpp:131] Top shape: 1 64 1 80 (5120)
I0313 11:45:35.569636 24715 net.cpp:139] Memory required for data: 318955520
I0313 11:45:35.569641 24715 layer_factory.hpp:77] Creating layer SCNN_D_13/sum
I0313 11:45:35.569649 24715 net.cpp:86] Creating Layer SCNN_D_13/sum
I0313 11:45:35.569658 24715 net.cpp:408] SCNN_D_13/sum <- SCNN_D_13/message
I0313 11:45:35.569669 24715 net.cpp:408] SCNN_D_13/sum <- slice1_14
I0313 11:45:35.569677 24715 net.cpp:382] SCNN_D_13/sum -> SCNN_D_14
I0313 11:45:35.569712 24715 net.cpp:124] Setting up SCNN_D_13/sum
I0313 11:45:35.569723 24715 net.cpp:131] Top shape: 1 64 1 80 (5120)
I0313 11:45:35.569730 24715 net.cpp:139] Memory required for data: 318976000
I0313 11:45:35.569734 24715 layer_factory.hpp:77] Creating layer SCNN_D_14_SCNN_D_13/sum_0_split
I0313 11:45:35.569744 24715 net.cpp:86] Creating Layer SCNN_D_14_SCNN_D_13/sum_0_split
I0313 11:45:35.569752 24715 net.cpp:408] SCNN_D_14_SCNN_D_13/sum_0_split <- SCNN_D_14
I0313 11:45:35.569762 24715 net.cpp:382] SCNN_D_14_SCNN_D_13/sum_0_split -> SCNN_D_14_SCNN_D_13/sum_0_split_0
I0313 11:45:35.569775 24715 net.cpp:382] SCNN_D_14_SCNN_D_13/sum_0_split -> SCNN_D_14_SCNN_D_13/sum_0_split_1
I0313 11:45:35.569820 24715 net.cpp:124] Setting up SCNN_D_14_SCNN_D_13/sum_0_split
I0313 11:45:35.569831 24715 net.cpp:131] Top shape: 1 64 1 80 (5120)
I0313 11:45:35.569839 24715 net.cpp:131] Top shape: 1 64 1 80 (5120)
I0313 11:45:35.569844 24715 net.cpp:139] Memory required for data: 319016960
I0313 11:45:35.569849 24715 layer_factory.hpp:77] Creating layer SCNN_D_14
I0313 11:45:35.569861 24715 net.cpp:86] Creating Layer SCNN_D_14
I0313 11:45:35.569869 24715 net.cpp:408] SCNN_D_14 <- SCNN_D_14_SCNN_D_13/sum_0_split_0
I0313 11:45:35.569881 24715 net.cpp:382] SCNN_D_14 -> SCNN_D_14/message
I0313 11:45:35.571095 24715 net.cpp:124] Setting up SCNN_D_14
I0313 11:45:35.571111 24715 net.cpp:131] Top shape: 1 64 1 80 (5120)
I0313 11:45:35.571118 24715 net.cpp:139] Memory required for data: 319037440
I0313 11:45:35.571125 24715 net.cpp:467] Sharing parameters 'SCNN_D_w' owned by layer 'SCNN_D_1', param index 0
I0313 11:45:35.571130 24715 layer_factory.hpp:77] Creating layer SCNN_D_14/relu
I0313 11:45:35.571136 24715 net.cpp:86] Creating Layer SCNN_D_14/relu
I0313 11:45:35.571146 24715 net.cpp:408] SCNN_D_14/relu <- SCNN_D_14/message
I0313 11:45:35.571156 24715 net.cpp:369] SCNN_D_14/relu -> SCNN_D_14/message (in-place)
I0313 11:45:35.571301 24715 net.cpp:124] Setting up SCNN_D_14/relu
I0313 11:45:35.571312 24715 net.cpp:131] Top shape: 1 64 1 80 (5120)
I0313 11:45:35.571317 24715 net.cpp:139] Memory required for data: 319057920
I0313 11:45:35.571322 24715 layer_factory.hpp:77] Creating layer SCNN_D_14/sum
I0313 11:45:35.571331 24715 net.cpp:86] Creating Layer SCNN_D_14/sum
I0313 11:45:35.571338 24715 net.cpp:408] SCNN_D_14/sum <- SCNN_D_14/message
I0313 11:45:35.571348 24715 net.cpp:408] SCNN_D_14/sum <- slice1_15
I0313 11:45:35.571357 24715 net.cpp:382] SCNN_D_14/sum -> SCNN_D_15
I0313 11:45:35.571393 24715 net.cpp:124] Setting up SCNN_D_14/sum
I0313 11:45:35.571403 24715 net.cpp:131] Top shape: 1 64 1 80 (5120)
I0313 11:45:35.571408 24715 net.cpp:139] Memory required for data: 319078400
I0313 11:45:35.571414 24715 layer_factory.hpp:77] Creating layer SCNN_D_15_SCNN_D_14/sum_0_split
I0313 11:45:35.571426 24715 net.cpp:86] Creating Layer SCNN_D_15_SCNN_D_14/sum_0_split
I0313 11:45:35.571435 24715 net.cpp:408] SCNN_D_15_SCNN_D_14/sum_0_split <- SCNN_D_15
I0313 11:45:35.571444 24715 net.cpp:382] SCNN_D_15_SCNN_D_14/sum_0_split -> SCNN_D_15_SCNN_D_14/sum_0_split_0
I0313 11:45:35.571456 24715 net.cpp:382] SCNN_D_15_SCNN_D_14/sum_0_split -> SCNN_D_15_SCNN_D_14/sum_0_split_1
I0313 11:45:35.571502 24715 net.cpp:124] Setting up SCNN_D_15_SCNN_D_14/sum_0_split
I0313 11:45:35.571513 24715 net.cpp:131] Top shape: 1 64 1 80 (5120)
I0313 11:45:35.571521 24715 net.cpp:131] Top shape: 1 64 1 80 (5120)
I0313 11:45:35.571527 24715 net.cpp:139] Memory required for data: 319119360
I0313 11:45:35.571532 24715 layer_factory.hpp:77] Creating layer SCNN_D_15
I0313 11:45:35.571543 24715 net.cpp:86] Creating Layer SCNN_D_15
I0313 11:45:35.571550 24715 net.cpp:408] SCNN_D_15 <- SCNN_D_15_SCNN_D_14/sum_0_split_0
I0313 11:45:35.571561 24715 net.cpp:382] SCNN_D_15 -> SCNN_D_15/message
I0313 11:45:35.572777 24715 net.cpp:124] Setting up SCNN_D_15
I0313 11:45:35.572793 24715 net.cpp:131] Top shape: 1 64 1 80 (5120)
I0313 11:45:35.572799 24715 net.cpp:139] Memory required for data: 319139840
I0313 11:45:35.572806 24715 net.cpp:467] Sharing parameters 'SCNN_D_w' owned by layer 'SCNN_D_1', param index 0
I0313 11:45:35.572813 24715 layer_factory.hpp:77] Creating layer SCNN_D_15/relu
I0313 11:45:35.572821 24715 net.cpp:86] Creating Layer SCNN_D_15/relu
I0313 11:45:35.572830 24715 net.cpp:408] SCNN_D_15/relu <- SCNN_D_15/message
I0313 11:45:35.572841 24715 net.cpp:369] SCNN_D_15/relu -> SCNN_D_15/message (in-place)
I0313 11:45:35.574209 24715 net.cpp:124] Setting up SCNN_D_15/relu
I0313 11:45:35.574223 24715 net.cpp:131] Top shape: 1 64 1 80 (5120)
I0313 11:45:35.574228 24715 net.cpp:139] Memory required for data: 319160320
I0313 11:45:35.574234 24715 layer_factory.hpp:77] Creating layer SCNN_D_15/sum
I0313 11:45:35.574244 24715 net.cpp:86] Creating Layer SCNN_D_15/sum
I0313 11:45:35.574252 24715 net.cpp:408] SCNN_D_15/sum <- SCNN_D_15/message
I0313 11:45:35.574265 24715 net.cpp:408] SCNN_D_15/sum <- slice1_16
I0313 11:45:35.574272 24715 net.cpp:382] SCNN_D_15/sum -> SCNN_D_16
I0313 11:45:35.574311 24715 net.cpp:124] Setting up SCNN_D_15/sum
I0313 11:45:35.574321 24715 net.cpp:131] Top shape: 1 64 1 80 (5120)
I0313 11:45:35.574327 24715 net.cpp:139] Memory required for data: 319180800
I0313 11:45:35.574333 24715 layer_factory.hpp:77] Creating layer SCNN_D_16_SCNN_D_15/sum_0_split
I0313 11:45:35.574343 24715 net.cpp:86] Creating Layer SCNN_D_16_SCNN_D_15/sum_0_split
I0313 11:45:35.574352 24715 net.cpp:408] SCNN_D_16_SCNN_D_15/sum_0_split <- SCNN_D_16
I0313 11:45:35.574363 24715 net.cpp:382] SCNN_D_16_SCNN_D_15/sum_0_split -> SCNN_D_16_SCNN_D_15/sum_0_split_0
I0313 11:45:35.574375 24715 net.cpp:382] SCNN_D_16_SCNN_D_15/sum_0_split -> SCNN_D_16_SCNN_D_15/sum_0_split_1
I0313 11:45:35.574422 24715 net.cpp:124] Setting up SCNN_D_16_SCNN_D_15/sum_0_split
I0313 11:45:35.574434 24715 net.cpp:131] Top shape: 1 64 1 80 (5120)
I0313 11:45:35.574442 24715 net.cpp:131] Top shape: 1 64 1 80 (5120)
I0313 11:45:35.574447 24715 net.cpp:139] Memory required for data: 319221760
I0313 11:45:35.574452 24715 layer_factory.hpp:77] Creating layer SCNN_D_16
I0313 11:45:35.574465 24715 net.cpp:86] Creating Layer SCNN_D_16
I0313 11:45:35.574472 24715 net.cpp:408] SCNN_D_16 <- SCNN_D_16_SCNN_D_15/sum_0_split_0
I0313 11:45:35.574483 24715 net.cpp:382] SCNN_D_16 -> SCNN_D_16/message
I0313 11:45:35.575724 24715 net.cpp:124] Setting up SCNN_D_16
I0313 11:45:35.575740 24715 net.cpp:131] Top shape: 1 64 1 80 (5120)
I0313 11:45:35.575747 24715 net.cpp:139] Memory required for data: 319242240
I0313 11:45:35.575754 24715 net.cpp:467] Sharing parameters 'SCNN_D_w' owned by layer 'SCNN_D_1', param index 0
I0313 11:45:35.575760 24715 layer_factory.hpp:77] Creating layer SCNN_D_16/relu
I0313 11:45:35.575769 24715 net.cpp:86] Creating Layer SCNN_D_16/relu
I0313 11:45:35.575778 24715 net.cpp:408] SCNN_D_16/relu <- SCNN_D_16/message
I0313 11:45:35.575788 24715 net.cpp:369] SCNN_D_16/relu -> SCNN_D_16/message (in-place)
I0313 11:45:35.575932 24715 net.cpp:124] Setting up SCNN_D_16/relu
I0313 11:45:35.575942 24715 net.cpp:131] Top shape: 1 64 1 80 (5120)
I0313 11:45:35.575947 24715 net.cpp:139] Memory required for data: 319262720
I0313 11:45:35.575953 24715 layer_factory.hpp:77] Creating layer SCNN_D_16/sum
I0313 11:45:35.575959 24715 net.cpp:86] Creating Layer SCNN_D_16/sum
I0313 11:45:35.575968 24715 net.cpp:408] SCNN_D_16/sum <- SCNN_D_16/message
I0313 11:45:35.575978 24715 net.cpp:408] SCNN_D_16/sum <- slice1_17
I0313 11:45:35.575987 24715 net.cpp:382] SCNN_D_16/sum -> SCNN_D_17
I0313 11:45:35.576022 24715 net.cpp:124] Setting up SCNN_D_16/sum
I0313 11:45:35.576031 24715 net.cpp:131] Top shape: 1 64 1 80 (5120)
I0313 11:45:35.576037 24715 net.cpp:139] Memory required for data: 319283200
I0313 11:45:35.576042 24715 layer_factory.hpp:77] Creating layer SCNN_D_17_SCNN_D_16/sum_0_split
I0313 11:45:35.576053 24715 net.cpp:86] Creating Layer SCNN_D_17_SCNN_D_16/sum_0_split
I0313 11:45:35.576063 24715 net.cpp:408] SCNN_D_17_SCNN_D_16/sum_0_split <- SCNN_D_17
I0313 11:45:35.576073 24715 net.cpp:382] SCNN_D_17_SCNN_D_16/sum_0_split -> SCNN_D_17_SCNN_D_16/sum_0_split_0
I0313 11:45:35.576084 24715 net.cpp:382] SCNN_D_17_SCNN_D_16/sum_0_split -> SCNN_D_17_SCNN_D_16/sum_0_split_1
I0313 11:45:35.576128 24715 net.cpp:124] Setting up SCNN_D_17_SCNN_D_16/sum_0_split
I0313 11:45:35.576139 24715 net.cpp:131] Top shape: 1 64 1 80 (5120)
I0313 11:45:35.576148 24715 net.cpp:131] Top shape: 1 64 1 80 (5120)
I0313 11:45:35.576153 24715 net.cpp:139] Memory required for data: 319324160
I0313 11:45:35.576159 24715 layer_factory.hpp:77] Creating layer SCNN_D_17
I0313 11:45:35.576170 24715 net.cpp:86] Creating Layer SCNN_D_17
I0313 11:45:35.576177 24715 net.cpp:408] SCNN_D_17 <- SCNN_D_17_SCNN_D_16/sum_0_split_0
I0313 11:45:35.576189 24715 net.cpp:382] SCNN_D_17 -> SCNN_D_17/message
I0313 11:45:35.577416 24715 net.cpp:124] Setting up SCNN_D_17
I0313 11:45:35.577432 24715 net.cpp:131] Top shape: 1 64 1 80 (5120)
I0313 11:45:35.577440 24715 net.cpp:139] Memory required for data: 319344640
I0313 11:45:35.577447 24715 net.cpp:467] Sharing parameters 'SCNN_D_w' owned by layer 'SCNN_D_1', param index 0
I0313 11:45:35.577453 24715 layer_factory.hpp:77] Creating layer SCNN_D_17/relu
I0313 11:45:35.577462 24715 net.cpp:86] Creating Layer SCNN_D_17/relu
I0313 11:45:35.577471 24715 net.cpp:408] SCNN_D_17/relu <- SCNN_D_17/message
I0313 11:45:35.577481 24715 net.cpp:369] SCNN_D_17/relu -> SCNN_D_17/message (in-place)
I0313 11:45:35.577628 24715 net.cpp:124] Setting up SCNN_D_17/relu
I0313 11:45:35.577638 24715 net.cpp:131] Top shape: 1 64 1 80 (5120)
I0313 11:45:35.577642 24715 net.cpp:139] Memory required for data: 319365120
I0313 11:45:35.577646 24715 layer_factory.hpp:77] Creating layer SCNN_D_17/sum
I0313 11:45:35.577653 24715 net.cpp:86] Creating Layer SCNN_D_17/sum
I0313 11:45:35.577662 24715 net.cpp:408] SCNN_D_17/sum <- SCNN_D_17/message
I0313 11:45:35.577672 24715 net.cpp:408] SCNN_D_17/sum <- slice1_18
I0313 11:45:35.577682 24715 net.cpp:382] SCNN_D_17/sum -> SCNN_D_18
I0313 11:45:35.577719 24715 net.cpp:124] Setting up SCNN_D_17/sum
I0313 11:45:35.577729 24715 net.cpp:131] Top shape: 1 64 1 80 (5120)
I0313 11:45:35.577735 24715 net.cpp:139] Memory required for data: 319385600
I0313 11:45:35.577741 24715 layer_factory.hpp:77] Creating layer SCNN_D_18_SCNN_D_17/sum_0_split
I0313 11:45:35.577751 24715 net.cpp:86] Creating Layer SCNN_D_18_SCNN_D_17/sum_0_split
I0313 11:45:35.577759 24715 net.cpp:408] SCNN_D_18_SCNN_D_17/sum_0_split <- SCNN_D_18
I0313 11:45:35.577771 24715 net.cpp:382] SCNN_D_18_SCNN_D_17/sum_0_split -> SCNN_D_18_SCNN_D_17/sum_0_split_0
I0313 11:45:35.577782 24715 net.cpp:382] SCNN_D_18_SCNN_D_17/sum_0_split -> SCNN_D_18_SCNN_D_17/sum_0_split_1
I0313 11:45:35.577827 24715 net.cpp:124] Setting up SCNN_D_18_SCNN_D_17/sum_0_split
I0313 11:45:35.577838 24715 net.cpp:131] Top shape: 1 64 1 80 (5120)
I0313 11:45:35.577848 24715 net.cpp:131] Top shape: 1 64 1 80 (5120)
I0313 11:45:35.577853 24715 net.cpp:139] Memory required for data: 319426560
I0313 11:45:35.577858 24715 layer_factory.hpp:77] Creating layer SCNN_D_18
I0313 11:45:35.577870 24715 net.cpp:86] Creating Layer SCNN_D_18
I0313 11:45:35.577877 24715 net.cpp:408] SCNN_D_18 <- SCNN_D_18_SCNN_D_17/sum_0_split_0
I0313 11:45:35.577888 24715 net.cpp:382] SCNN_D_18 -> SCNN_D_18/message
I0313 11:45:35.579100 24715 net.cpp:124] Setting up SCNN_D_18
I0313 11:45:35.579115 24715 net.cpp:131] Top shape: 1 64 1 80 (5120)
I0313 11:45:35.579123 24715 net.cpp:139] Memory required for data: 319447040
I0313 11:45:35.579130 24715 net.cpp:467] Sharing parameters 'SCNN_D_w' owned by layer 'SCNN_D_1', param index 0
I0313 11:45:35.579135 24715 layer_factory.hpp:77] Creating layer SCNN_D_18/relu
I0313 11:45:35.579144 24715 net.cpp:86] Creating Layer SCNN_D_18/relu
I0313 11:45:35.579151 24715 net.cpp:408] SCNN_D_18/relu <- SCNN_D_18/message
I0313 11:45:35.579164 24715 net.cpp:369] SCNN_D_18/relu -> SCNN_D_18/message (in-place)
I0313 11:45:35.579310 24715 net.cpp:124] Setting up SCNN_D_18/relu
I0313 11:45:35.579320 24715 net.cpp:131] Top shape: 1 64 1 80 (5120)
I0313 11:45:35.579324 24715 net.cpp:139] Memory required for data: 319467520
I0313 11:45:35.579329 24715 layer_factory.hpp:77] Creating layer SCNN_D_18/sum
I0313 11:45:35.579336 24715 net.cpp:86] Creating Layer SCNN_D_18/sum
I0313 11:45:35.579344 24715 net.cpp:408] SCNN_D_18/sum <- SCNN_D_18/message
I0313 11:45:35.579355 24715 net.cpp:408] SCNN_D_18/sum <- slice1_19
I0313 11:45:35.579363 24715 net.cpp:382] SCNN_D_18/sum -> SCNN_D_19
I0313 11:45:35.579398 24715 net.cpp:124] Setting up SCNN_D_18/sum
I0313 11:45:35.579411 24715 net.cpp:131] Top shape: 1 64 1 80 (5120)
I0313 11:45:35.579416 24715 net.cpp:139] Memory required for data: 319488000
I0313 11:45:35.579421 24715 layer_factory.hpp:77] Creating layer SCNN_D_19_SCNN_D_18/sum_0_split
I0313 11:45:35.579430 24715 net.cpp:86] Creating Layer SCNN_D_19_SCNN_D_18/sum_0_split
I0313 11:45:35.579438 24715 net.cpp:408] SCNN_D_19_SCNN_D_18/sum_0_split <- SCNN_D_19
I0313 11:45:35.579448 24715 net.cpp:382] SCNN_D_19_SCNN_D_18/sum_0_split -> SCNN_D_19_SCNN_D_18/sum_0_split_0
I0313 11:45:35.579460 24715 net.cpp:382] SCNN_D_19_SCNN_D_18/sum_0_split -> SCNN_D_19_SCNN_D_18/sum_0_split_1
I0313 11:45:35.579505 24715 net.cpp:124] Setting up SCNN_D_19_SCNN_D_18/sum_0_split
I0313 11:45:35.579516 24715 net.cpp:131] Top shape: 1 64 1 80 (5120)
I0313 11:45:35.579524 24715 net.cpp:131] Top shape: 1 64 1 80 (5120)
I0313 11:45:35.579530 24715 net.cpp:139] Memory required for data: 319528960
I0313 11:45:35.579535 24715 layer_factory.hpp:77] Creating layer SCNN_D_19
I0313 11:45:35.579546 24715 net.cpp:86] Creating Layer SCNN_D_19
I0313 11:45:35.579553 24715 net.cpp:408] SCNN_D_19 <- SCNN_D_19_SCNN_D_18/sum_0_split_0
I0313 11:45:35.579566 24715 net.cpp:382] SCNN_D_19 -> SCNN_D_19/message
I0313 11:45:35.581821 24715 net.cpp:124] Setting up SCNN_D_19
I0313 11:45:35.581840 24715 net.cpp:131] Top shape: 1 64 1 80 (5120)
I0313 11:45:35.581845 24715 net.cpp:139] Memory required for data: 319549440
I0313 11:45:35.581853 24715 net.cpp:467] Sharing parameters 'SCNN_D_w' owned by layer 'SCNN_D_1', param index 0
I0313 11:45:35.581861 24715 layer_factory.hpp:77] Creating layer SCNN_D_19/relu
I0313 11:45:35.581868 24715 net.cpp:86] Creating Layer SCNN_D_19/relu
I0313 11:45:35.581877 24715 net.cpp:408] SCNN_D_19/relu <- SCNN_D_19/message
I0313 11:45:35.581889 24715 net.cpp:369] SCNN_D_19/relu -> SCNN_D_19/message (in-place)
I0313 11:45:35.582250 24715 net.cpp:124] Setting up SCNN_D_19/relu
I0313 11:45:35.582262 24715 net.cpp:131] Top shape: 1 64 1 80 (5120)
I0313 11:45:35.582265 24715 net.cpp:139] Memory required for data: 319569920
I0313 11:45:35.582273 24715 layer_factory.hpp:77] Creating layer SCNN_D_19/sum
I0313 11:45:35.582281 24715 net.cpp:86] Creating Layer SCNN_D_19/sum
I0313 11:45:35.582290 24715 net.cpp:408] SCNN_D_19/sum <- SCNN_D_19/message
I0313 11:45:35.582301 24715 net.cpp:408] SCNN_D_19/sum <- slice1_20
I0313 11:45:35.582311 24715 net.cpp:382] SCNN_D_19/sum -> SCNN_D_20
I0313 11:45:35.582350 24715 net.cpp:124] Setting up SCNN_D_19/sum
I0313 11:45:35.582360 24715 net.cpp:131] Top shape: 1 64 1 80 (5120)
I0313 11:45:35.582365 24715 net.cpp:139] Memory required for data: 319590400
I0313 11:45:35.582370 24715 layer_factory.hpp:77] Creating layer SCNN_D_20_SCNN_D_19/sum_0_split
I0313 11:45:35.582379 24715 net.cpp:86] Creating Layer SCNN_D_20_SCNN_D_19/sum_0_split
I0313 11:45:35.582389 24715 net.cpp:408] SCNN_D_20_SCNN_D_19/sum_0_split <- SCNN_D_20
I0313 11:45:35.582399 24715 net.cpp:382] SCNN_D_20_SCNN_D_19/sum_0_split -> SCNN_D_20_SCNN_D_19/sum_0_split_0
I0313 11:45:35.582412 24715 net.cpp:382] SCNN_D_20_SCNN_D_19/sum_0_split -> SCNN_D_20_SCNN_D_19/sum_0_split_1
I0313 11:45:35.582458 24715 net.cpp:124] Setting up SCNN_D_20_SCNN_D_19/sum_0_split
I0313 11:45:35.582468 24715 net.cpp:131] Top shape: 1 64 1 80 (5120)
I0313 11:45:35.582478 24715 net.cpp:131] Top shape: 1 64 1 80 (5120)
I0313 11:45:35.582482 24715 net.cpp:139] Memory required for data: 319631360
I0313 11:45:35.582486 24715 layer_factory.hpp:77] Creating layer SCNN_D_20
I0313 11:45:35.582496 24715 net.cpp:86] Creating Layer SCNN_D_20
I0313 11:45:35.582504 24715 net.cpp:408] SCNN_D_20 <- SCNN_D_20_SCNN_D_19/sum_0_split_0
I0313 11:45:35.582516 24715 net.cpp:382] SCNN_D_20 -> SCNN_D_20/message
I0313 11:45:35.583515 24715 net.cpp:124] Setting up SCNN_D_20
I0313 11:45:35.583530 24715 net.cpp:131] Top shape: 1 64 1 80 (5120)
I0313 11:45:35.583536 24715 net.cpp:139] Memory required for data: 319651840
I0313 11:45:35.583544 24715 net.cpp:467] Sharing parameters 'SCNN_D_w' owned by layer 'SCNN_D_1', param index 0
I0313 11:45:35.583550 24715 layer_factory.hpp:77] Creating layer SCNN_D_20/relu
I0313 11:45:35.583559 24715 net.cpp:86] Creating Layer SCNN_D_20/relu
I0313 11:45:35.583566 24715 net.cpp:408] SCNN_D_20/relu <- SCNN_D_20/message
I0313 11:45:35.583580 24715 net.cpp:369] SCNN_D_20/relu -> SCNN_D_20/message (in-place)
I0313 11:45:35.583940 24715 net.cpp:124] Setting up SCNN_D_20/relu
I0313 11:45:35.583950 24715 net.cpp:131] Top shape: 1 64 1 80 (5120)
I0313 11:45:35.583954 24715 net.cpp:139] Memory required for data: 319672320
I0313 11:45:35.583961 24715 layer_factory.hpp:77] Creating layer SCNN_D_20/sum
I0313 11:45:35.583971 24715 net.cpp:86] Creating Layer SCNN_D_20/sum
I0313 11:45:35.583979 24715 net.cpp:408] SCNN_D_20/sum <- SCNN_D_20/message
I0313 11:45:35.583989 24715 net.cpp:408] SCNN_D_20/sum <- slice1_21
I0313 11:45:35.583997 24715 net.cpp:382] SCNN_D_20/sum -> SCNN_D_21
I0313 11:45:35.584034 24715 net.cpp:124] Setting up SCNN_D_20/sum
I0313 11:45:35.584044 24715 net.cpp:131] Top shape: 1 64 1 80 (5120)
I0313 11:45:35.584050 24715 net.cpp:139] Memory required for data: 319692800
I0313 11:45:35.584055 24715 layer_factory.hpp:77] Creating layer SCNN_D_21_SCNN_D_20/sum_0_split
I0313 11:45:35.584064 24715 net.cpp:86] Creating Layer SCNN_D_21_SCNN_D_20/sum_0_split
I0313 11:45:35.584071 24715 net.cpp:408] SCNN_D_21_SCNN_D_20/sum_0_split <- SCNN_D_21
I0313 11:45:35.584084 24715 net.cpp:382] SCNN_D_21_SCNN_D_20/sum_0_split -> SCNN_D_21_SCNN_D_20/sum_0_split_0
I0313 11:45:35.584095 24715 net.cpp:382] SCNN_D_21_SCNN_D_20/sum_0_split -> SCNN_D_21_SCNN_D_20/sum_0_split_1
I0313 11:45:35.584141 24715 net.cpp:124] Setting up SCNN_D_21_SCNN_D_20/sum_0_split
I0313 11:45:35.584152 24715 net.cpp:131] Top shape: 1 64 1 80 (5120)
I0313 11:45:35.584161 24715 net.cpp:131] Top shape: 1 64 1 80 (5120)
I0313 11:45:35.584167 24715 net.cpp:139] Memory required for data: 319733760
I0313 11:45:35.584172 24715 layer_factory.hpp:77] Creating layer SCNN_D_21
I0313 11:45:35.584183 24715 net.cpp:86] Creating Layer SCNN_D_21
I0313 11:45:35.584192 24715 net.cpp:408] SCNN_D_21 <- SCNN_D_21_SCNN_D_20/sum_0_split_0
I0313 11:45:35.584203 24715 net.cpp:382] SCNN_D_21 -> SCNN_D_21/message
I0313 11:45:35.585453 24715 net.cpp:124] Setting up SCNN_D_21
I0313 11:45:35.585467 24715 net.cpp:131] Top shape: 1 64 1 80 (5120)
I0313 11:45:35.585474 24715 net.cpp:139] Memory required for data: 319754240
I0313 11:45:35.585482 24715 net.cpp:467] Sharing parameters 'SCNN_D_w' owned by layer 'SCNN_D_1', param index 0
I0313 11:45:35.585489 24715 layer_factory.hpp:77] Creating layer SCNN_D_21/relu
I0313 11:45:35.585496 24715 net.cpp:86] Creating Layer SCNN_D_21/relu
I0313 11:45:35.585506 24715 net.cpp:408] SCNN_D_21/relu <- SCNN_D_21/message
I0313 11:45:35.585516 24715 net.cpp:369] SCNN_D_21/relu -> SCNN_D_21/message (in-place)
I0313 11:45:35.585664 24715 net.cpp:124] Setting up SCNN_D_21/relu
I0313 11:45:35.585674 24715 net.cpp:131] Top shape: 1 64 1 80 (5120)
I0313 11:45:35.585677 24715 net.cpp:139] Memory required for data: 319774720
I0313 11:45:35.585682 24715 layer_factory.hpp:77] Creating layer SCNN_D_21/sum
I0313 11:45:35.585691 24715 net.cpp:86] Creating Layer SCNN_D_21/sum
I0313 11:45:35.585700 24715 net.cpp:408] SCNN_D_21/sum <- SCNN_D_21/message
I0313 11:45:35.585710 24715 net.cpp:408] SCNN_D_21/sum <- slice1_22
I0313 11:45:35.585717 24715 net.cpp:382] SCNN_D_21/sum -> SCNN_D_22
I0313 11:45:35.585753 24715 net.cpp:124] Setting up SCNN_D_21/sum
I0313 11:45:35.585763 24715 net.cpp:131] Top shape: 1 64 1 80 (5120)
I0313 11:45:35.585769 24715 net.cpp:139] Memory required for data: 319795200
I0313 11:45:35.585775 24715 layer_factory.hpp:77] Creating layer SCNN_D_22_SCNN_D_21/sum_0_split
I0313 11:45:35.585785 24715 net.cpp:86] Creating Layer SCNN_D_22_SCNN_D_21/sum_0_split
I0313 11:45:35.585794 24715 net.cpp:408] SCNN_D_22_SCNN_D_21/sum_0_split <- SCNN_D_22
I0313 11:45:35.585805 24715 net.cpp:382] SCNN_D_22_SCNN_D_21/sum_0_split -> SCNN_D_22_SCNN_D_21/sum_0_split_0
I0313 11:45:35.585817 24715 net.cpp:382] SCNN_D_22_SCNN_D_21/sum_0_split -> SCNN_D_22_SCNN_D_21/sum_0_split_1
I0313 11:45:35.585861 24715 net.cpp:124] Setting up SCNN_D_22_SCNN_D_21/sum_0_split
I0313 11:45:35.585872 24715 net.cpp:131] Top shape: 1 64 1 80 (5120)
I0313 11:45:35.585880 24715 net.cpp:131] Top shape: 1 64 1 80 (5120)
I0313 11:45:35.585886 24715 net.cpp:139] Memory required for data: 319836160
I0313 11:45:35.585892 24715 layer_factory.hpp:77] Creating layer SCNN_D_22
I0313 11:45:35.585904 24715 net.cpp:86] Creating Layer SCNN_D_22
I0313 11:45:35.585912 24715 net.cpp:408] SCNN_D_22 <- SCNN_D_22_SCNN_D_21/sum_0_split_0
I0313 11:45:35.585923 24715 net.cpp:382] SCNN_D_22 -> SCNN_D_22/message
I0313 11:45:35.588186 24715 net.cpp:124] Setting up SCNN_D_22
I0313 11:45:35.588202 24715 net.cpp:131] Top shape: 1 64 1 80 (5120)
I0313 11:45:35.588214 24715 net.cpp:139] Memory required for data: 319856640
I0313 11:45:35.588224 24715 net.cpp:467] Sharing parameters 'SCNN_D_w' owned by layer 'SCNN_D_1', param index 0
I0313 11:45:35.588230 24715 layer_factory.hpp:77] Creating layer SCNN_D_22/relu
I0313 11:45:35.588239 24715 net.cpp:86] Creating Layer SCNN_D_22/relu
I0313 11:45:35.588248 24715 net.cpp:408] SCNN_D_22/relu <- SCNN_D_22/message
I0313 11:45:35.588258 24715 net.cpp:369] SCNN_D_22/relu -> SCNN_D_22/message (in-place)
I0313 11:45:35.588402 24715 net.cpp:124] Setting up SCNN_D_22/relu
I0313 11:45:35.588412 24715 net.cpp:131] Top shape: 1 64 1 80 (5120)
I0313 11:45:35.588415 24715 net.cpp:139] Memory required for data: 319877120
I0313 11:45:35.588420 24715 layer_factory.hpp:77] Creating layer SCNN_D_22/sum
I0313 11:45:35.588428 24715 net.cpp:86] Creating Layer SCNN_D_22/sum
I0313 11:45:35.588435 24715 net.cpp:408] SCNN_D_22/sum <- SCNN_D_22/message
I0313 11:45:35.588446 24715 net.cpp:408] SCNN_D_22/sum <- slice1_23
I0313 11:45:35.588454 24715 net.cpp:382] SCNN_D_22/sum -> SCNN_D_23
I0313 11:45:35.588491 24715 net.cpp:124] Setting up SCNN_D_22/sum
I0313 11:45:35.588501 24715 net.cpp:131] Top shape: 1 64 1 80 (5120)
I0313 11:45:35.588507 24715 net.cpp:139] Memory required for data: 319897600
I0313 11:45:35.588512 24715 layer_factory.hpp:77] Creating layer SCNN_D_23_SCNN_D_22/sum_0_split
I0313 11:45:35.588521 24715 net.cpp:86] Creating Layer SCNN_D_23_SCNN_D_22/sum_0_split
I0313 11:45:35.588528 24715 net.cpp:408] SCNN_D_23_SCNN_D_22/sum_0_split <- SCNN_D_23
I0313 11:45:35.588538 24715 net.cpp:382] SCNN_D_23_SCNN_D_22/sum_0_split -> SCNN_D_23_SCNN_D_22/sum_0_split_0
I0313 11:45:35.588549 24715 net.cpp:382] SCNN_D_23_SCNN_D_22/sum_0_split -> SCNN_D_23_SCNN_D_22/sum_0_split_1
I0313 11:45:35.588593 24715 net.cpp:124] Setting up SCNN_D_23_SCNN_D_22/sum_0_split
I0313 11:45:35.588603 24715 net.cpp:131] Top shape: 1 64 1 80 (5120)
I0313 11:45:35.588610 24715 net.cpp:131] Top shape: 1 64 1 80 (5120)
I0313 11:45:35.588615 24715 net.cpp:139] Memory required for data: 319938560
I0313 11:45:35.588621 24715 layer_factory.hpp:77] Creating layer SCNN_D_23
I0313 11:45:35.588631 24715 net.cpp:86] Creating Layer SCNN_D_23
I0313 11:45:35.588639 24715 net.cpp:408] SCNN_D_23 <- SCNN_D_23_SCNN_D_22/sum_0_split_0
I0313 11:45:35.588650 24715 net.cpp:382] SCNN_D_23 -> SCNN_D_23/message
I0313 11:45:35.589849 24715 net.cpp:124] Setting up SCNN_D_23
I0313 11:45:35.589864 24715 net.cpp:131] Top shape: 1 64 1 80 (5120)
I0313 11:45:35.589869 24715 net.cpp:139] Memory required for data: 319959040
I0313 11:45:35.589877 24715 net.cpp:467] Sharing parameters 'SCNN_D_w' owned by layer 'SCNN_D_1', param index 0
I0313 11:45:35.589884 24715 layer_factory.hpp:77] Creating layer SCNN_D_23/relu
I0313 11:45:35.589891 24715 net.cpp:86] Creating Layer SCNN_D_23/relu
I0313 11:45:35.589900 24715 net.cpp:408] SCNN_D_23/relu <- SCNN_D_23/message
I0313 11:45:35.589908 24715 net.cpp:369] SCNN_D_23/relu -> SCNN_D_23/message (in-place)
I0313 11:45:35.590044 24715 net.cpp:124] Setting up SCNN_D_23/relu
I0313 11:45:35.590054 24715 net.cpp:131] Top shape: 1 64 1 80 (5120)
I0313 11:45:35.590057 24715 net.cpp:139] Memory required for data: 319979520
I0313 11:45:35.590062 24715 layer_factory.hpp:77] Creating layer SCNN_D_23/sum
I0313 11:45:35.590070 24715 net.cpp:86] Creating Layer SCNN_D_23/sum
I0313 11:45:35.590078 24715 net.cpp:408] SCNN_D_23/sum <- SCNN_D_23/message
I0313 11:45:35.590088 24715 net.cpp:408] SCNN_D_23/sum <- slice1_24
I0313 11:45:35.590095 24715 net.cpp:382] SCNN_D_23/sum -> SCNN_D_24
I0313 11:45:35.590129 24715 net.cpp:124] Setting up SCNN_D_23/sum
I0313 11:45:35.590139 24715 net.cpp:131] Top shape: 1 64 1 80 (5120)
I0313 11:45:35.590144 24715 net.cpp:139] Memory required for data: 320000000
I0313 11:45:35.590149 24715 layer_factory.hpp:77] Creating layer SCNN_D_24_SCNN_D_23/sum_0_split
I0313 11:45:35.590158 24715 net.cpp:86] Creating Layer SCNN_D_24_SCNN_D_23/sum_0_split
I0313 11:45:35.590167 24715 net.cpp:408] SCNN_D_24_SCNN_D_23/sum_0_split <- SCNN_D_24
I0313 11:45:35.590175 24715 net.cpp:382] SCNN_D_24_SCNN_D_23/sum_0_split -> SCNN_D_24_SCNN_D_23/sum_0_split_0
I0313 11:45:35.590188 24715 net.cpp:382] SCNN_D_24_SCNN_D_23/sum_0_split -> SCNN_D_24_SCNN_D_23/sum_0_split_1
I0313 11:45:35.590229 24715 net.cpp:124] Setting up SCNN_D_24_SCNN_D_23/sum_0_split
I0313 11:45:35.590240 24715 net.cpp:131] Top shape: 1 64 1 80 (5120)
I0313 11:45:35.590246 24715 net.cpp:131] Top shape: 1 64 1 80 (5120)
I0313 11:45:35.590251 24715 net.cpp:139] Memory required for data: 320040960
I0313 11:45:35.590255 24715 layer_factory.hpp:77] Creating layer SCNN_D_24
I0313 11:45:35.590263 24715 net.cpp:86] Creating Layer SCNN_D_24
I0313 11:45:35.590271 24715 net.cpp:408] SCNN_D_24 <- SCNN_D_24_SCNN_D_23/sum_0_split_0
I0313 11:45:35.590281 24715 net.cpp:382] SCNN_D_24 -> SCNN_D_24/message
I0313 11:45:35.591507 24715 net.cpp:124] Setting up SCNN_D_24
I0313 11:45:35.591524 24715 net.cpp:131] Top shape: 1 64 1 80 (5120)
I0313 11:45:35.591533 24715 net.cpp:139] Memory required for data: 320061440
I0313 11:45:35.591542 24715 net.cpp:467] Sharing parameters 'SCNN_D_w' owned by layer 'SCNN_D_1', param index 0
I0313 11:45:35.591547 24715 layer_factory.hpp:77] Creating layer SCNN_D_24/relu
I0313 11:45:35.591555 24715 net.cpp:86] Creating Layer SCNN_D_24/relu
I0313 11:45:35.591563 24715 net.cpp:408] SCNN_D_24/relu <- SCNN_D_24/message
I0313 11:45:35.591579 24715 net.cpp:369] SCNN_D_24/relu -> SCNN_D_24/message (in-place)
I0313 11:45:35.591938 24715 net.cpp:124] Setting up SCNN_D_24/relu
I0313 11:45:35.591948 24715 net.cpp:131] Top shape: 1 64 1 80 (5120)
I0313 11:45:35.591953 24715 net.cpp:139] Memory required for data: 320081920
I0313 11:45:35.591959 24715 layer_factory.hpp:77] Creating layer SCNN_D_24/sum
I0313 11:45:35.591967 24715 net.cpp:86] Creating Layer SCNN_D_24/sum
I0313 11:45:35.591976 24715 net.cpp:408] SCNN_D_24/sum <- SCNN_D_24/message
I0313 11:45:35.591987 24715 net.cpp:408] SCNN_D_24/sum <- slice1_25
I0313 11:45:35.591995 24715 net.cpp:382] SCNN_D_24/sum -> SCNN_D_25
I0313 11:45:35.592032 24715 net.cpp:124] Setting up SCNN_D_24/sum
I0313 11:45:35.592043 24715 net.cpp:131] Top shape: 1 64 1 80 (5120)
I0313 11:45:35.592049 24715 net.cpp:139] Memory required for data: 320102400
I0313 11:45:35.592054 24715 layer_factory.hpp:77] Creating layer SCNN_D_25_SCNN_D_24/sum_0_split
I0313 11:45:35.592062 24715 net.cpp:86] Creating Layer SCNN_D_25_SCNN_D_24/sum_0_split
I0313 11:45:35.592070 24715 net.cpp:408] SCNN_D_25_SCNN_D_24/sum_0_split <- SCNN_D_25
I0313 11:45:35.592079 24715 net.cpp:382] SCNN_D_25_SCNN_D_24/sum_0_split -> SCNN_D_25_SCNN_D_24/sum_0_split_0
I0313 11:45:35.592092 24715 net.cpp:382] SCNN_D_25_SCNN_D_24/sum_0_split -> SCNN_D_25_SCNN_D_24/sum_0_split_1
I0313 11:45:35.592135 24715 net.cpp:124] Setting up SCNN_D_25_SCNN_D_24/sum_0_split
I0313 11:45:35.592145 24715 net.cpp:131] Top shape: 1 64 1 80 (5120)
I0313 11:45:35.592154 24715 net.cpp:131] Top shape: 1 64 1 80 (5120)
I0313 11:45:35.592159 24715 net.cpp:139] Memory required for data: 320143360
I0313 11:45:35.592164 24715 layer_factory.hpp:77] Creating layer SCNN_D_25
I0313 11:45:35.592176 24715 net.cpp:86] Creating Layer SCNN_D_25
I0313 11:45:35.592183 24715 net.cpp:408] SCNN_D_25 <- SCNN_D_25_SCNN_D_24/sum_0_split_0
I0313 11:45:35.592195 24715 net.cpp:382] SCNN_D_25 -> SCNN_D_25/message
I0313 11:45:35.594483 24715 net.cpp:124] Setting up SCNN_D_25
I0313 11:45:35.594504 24715 net.cpp:131] Top shape: 1 64 1 80 (5120)
I0313 11:45:35.594517 24715 net.cpp:139] Memory required for data: 320163840
I0313 11:45:35.594527 24715 net.cpp:467] Sharing parameters 'SCNN_D_w' owned by layer 'SCNN_D_1', param index 0
I0313 11:45:35.594533 24715 layer_factory.hpp:77] Creating layer SCNN_D_25/relu
I0313 11:45:35.594543 24715 net.cpp:86] Creating Layer SCNN_D_25/relu
I0313 11:45:35.594552 24715 net.cpp:408] SCNN_D_25/relu <- SCNN_D_25/message
I0313 11:45:35.594563 24715 net.cpp:369] SCNN_D_25/relu -> SCNN_D_25/message (in-place)
I0313 11:45:35.594709 24715 net.cpp:124] Setting up SCNN_D_25/relu
I0313 11:45:35.594719 24715 net.cpp:131] Top shape: 1 64 1 80 (5120)
I0313 11:45:35.594723 24715 net.cpp:139] Memory required for data: 320184320
I0313 11:45:35.594728 24715 layer_factory.hpp:77] Creating layer SCNN_D_25/sum
I0313 11:45:35.594736 24715 net.cpp:86] Creating Layer SCNN_D_25/sum
…
I0313 11:45:35.763510 24715 net.cpp:131] Top shape: 1 64 1 80 (5120)
I0313 11:45:35.763515 24715 net.cpp:139] Memory required for data: 327843840
I0313 11:45:35.763520 24715 net.cpp:467] Sharing parameters 'SCNN_U_w' owned by layer 'SCNN_U_60', param index 0
I0313 11:45:35.763525 24715 layer_factory.hpp:77] Creating layer SCNN_U_20/relu
I0313 11:45:35.763530 24715 net.cpp:86] Creating Layer SCNN_U_20/relu
I0313 11:45:35.763536 24715 net.cpp:408] SCNN_U_20/relu <- SCNN_U_20/message
I0313 11:45:35.763545 24715 net.cpp:369] SCNN_U_20/relu -> SCNN_U_20/message (in-place)
I0313 11:45:35.763718 24715 net.cpp:124] Setting up SCNN_U_20/relu
I0313 11:45:35.763727 24715 net.cpp:131] Top shape: 1 64 1 80 (5120)
I0313 11:45:35.763732 24715 net.cpp:139] Memory required for data: 327864320
I0313 11:45:35.763736 24715 layer_factory.hpp:77] Creating layer SCNN_U_20/sum
I0313 11:45:35.763741 24715 net.cpp:86] Creating Layer SCNN_U_20/sum
I0313 11:45:35.763748 24715 net.cpp:408] SCNN_U_20/sum <- SCNN_U_20/message
I0313 11:45:35.763756 24715 net.cpp:408] SCNN_U_20/sum <- SCNN_D_19_SCNN_D_18/sum_0_split_1
I0313 11:45:35.763763 24715 net.cpp:382] SCNN_U_20/sum -> SCNN_U_19
I0313 11:45:35.763800 24715 net.cpp:124] Setting up SCNN_U_20/sum
I0313 11:45:35.763810 24715 net.cpp:131] Top shape: 1 64 1 80 (5120)
I0313 11:45:35.763814 24715 net.cpp:139] Memory required for data: 327884800
I0313 11:45:35.763816 24715 layer_factory.hpp:77] Creating layer SCNN_U_19_SCNN_U_20/sum_0_split
I0313 11:45:35.763824 24715 net.cpp:86] Creating Layer SCNN_U_19_SCNN_U_20/sum_0_split
I0313 11:45:35.763829 24715 net.cpp:408] SCNN_U_19_SCNN_U_20/sum_0_split <- SCNN_U_19
I0313 11:45:35.763836 24715 net.cpp:382] SCNN_U_19_SCNN_U_20/sum_0_split -> SCNN_U_19_SCNN_U_20/sum_0_split_0
I0313 11:45:35.763845 24715 net.cpp:382] SCNN_U_19_SCNN_U_20/sum_0_split -> SCNN_U_19_SCNN_U_20/sum_0_split_1
I0313 11:45:35.763905 24715 net.cpp:124] Setting up SCNN_U_19_SCNN_U_20/sum_0_split
I0313 11:45:35.763913 24715 net.cpp:131] Top shape: 1 64 1 80 (5120)
I0313 11:45:35.763917 24715 net.cpp:131] Top shape: 1 64 1 80 (5120)
I0313 11:45:35.763921 24715 net.cpp:139] Memory required for data: 327925760
I0313 11:45:35.763924 24715 layer_factory.hpp:77] Creating layer SCNN_U_19
I0313 11:45:35.763932 24715 net.cpp:86] Creating Layer SCNN_U_19
I0313 11:45:35.763938 24715 net.cpp:408] SCNN_U_19 <- SCNN_U_19_SCNN_U_20/sum_0_split_0
I0313 11:45:35.763947 24715 net.cpp:382] SCNN_U_19 -> SCNN_U_19/message
I0313 11:45:35.766638 24715 net.cpp:124] Setting up SCNN_U_19
I0313 11:45:35.766659 24715 net.cpp:131] Top shape: 1 64 1 80 (5120)
I0313 11:45:35.766664 24715 net.cpp:139] Memory required for data: 327946240
I0313 11:45:35.766671 24715 net.cpp:467] Sharing parameters 'SCNN_U_w' owned by layer 'SCNN_U_60', param index 0
I0313 11:45:35.766675 24715 layer_factory.hpp:77] Creating layer SCNN_U_19/relu
I0313 11:45:35.766682 24715 net.cpp:86] Creating Layer SCNN_U_19/relu
I0313 11:45:35.766690 24715 net.cpp:408] SCNN_U_19/relu <- SCNN_U_19/message
I0313 11:45:35.766700 24715 net.cpp:369] SCNN_U_19/relu -> SCNN_U_19/message (in-place)
I0313 11:45:35.766870 24715 net.cpp:124] Setting up SCNN_U_19/relu
I0313 11:45:35.766880 24715 net.cpp:131] Top shape: 1 64 1 80 (5120)
I0313 11:45:35.766883 24715 net.cpp:139] Memory required for data: 327966720
I0313 11:45:35.766886 24715 layer_factory.hpp:77] Creating layer SCNN_U_19/sum
I0313 11:45:35.766892 24715 net.cpp:86] Creating Layer SCNN_U_19/sum
I0313 11:45:35.766898 24715 net.cpp:408] SCNN_U_19/sum <- SCNN_U_19/message
I0313 11:45:35.766906 24715 net.cpp:408] SCNN_U_19/sum <- SCNN_D_18_SCNN_D_17/sum_0_split_1
I0313 11:45:35.766913 24715 net.cpp:382] SCNN_U_19/sum -> SCNN_U_18
I0313 11:45:35.766955 24715 net.cpp:124] Setting up SCNN_U_19/sum
I0313 11:45:35.766964 24715 net.cpp:131] Top shape: 1 64 1 80 (5120)
I0313 11:45:35.766968 24715 net.cpp:139] Memory required for data: 327987200
I0313 11:45:35.766970 24715 layer_factory.hpp:77] Creating layer SCNN_U_18_SCNN_U_19/sum_0_split
I0313 11:45:35.766978 24715 net.cpp:86] Creating Layer SCNN_U_18_SCNN_U_19/sum_0_split
I0313 11:45:35.766985 24715 net.cpp:408] SCNN_U_18_SCNN_U_19/sum_0_split <- SCNN_U_18
I0313 11:45:35.766993 24715 net.cpp:382] SCNN_U_18_SCNN_U_19/sum_0_split -> SCNN_U_18_SCNN_U_19/sum_0_split_0
I0313 11:45:35.767001 24715 net.cpp:382] SCNN_U_18_SCNN_U_19/sum_0_split -> SCNN_U_18_SCNN_U_19/sum_0_split_1
I0313 11:45:35.767055 24715 net.cpp:124] Setting up SCNN_U_18_SCNN_U_19/sum_0_split
I0313 11:45:35.767063 24715 net.cpp:131] Top shape: 1 64 1 80 (5120)
I0313 11:45:35.767068 24715 net.cpp:131] Top shape: 1 64 1 80 (5120)
I0313 11:45:35.767071 24715 net.cpp:139] Memory required for data: 328028160
I0313 11:45:35.767072 24715 layer_factory.hpp:77] Creating layer SCNN_U_18
I0313 11:45:35.767081 24715 net.cpp:86] Creating Layer SCNN_U_18
I0313 11:45:35.767088 24715 net.cpp:408] SCNN_U_18 <- SCNN_U_18_SCNN_U_19/sum_0_split_0
I0313 11:45:35.767096 24715 net.cpp:382] SCNN_U_18 -> SCNN_U_18/message
I0313 11:45:35.768508 24715 net.cpp:124] Setting up SCNN_U_18
I0313 11:45:35.768522 24715 net.cpp:131] Top shape: 1 64 1 80 (5120)
I0313 11:45:35.768527 24715 net.cpp:139] Memory required for data: 328048640
I0313 11:45:35.768533 24715 net.cpp:467] Sharing parameters 'SCNN_U_w' owned by layer 'SCNN_U_60', param index 0
I0313 11:45:35.768537 24715 layer_factory.hpp:77] Creating layer SCNN_U_18/relu
I0313 11:45:35.768580 24715 net.cpp:86] Creating Layer SCNN_U_18/relu
I0313 11:45:35.768587 24715 net.cpp:408] SCNN_U_18/relu <- SCNN_U_18/message
I0313 11:45:35.768595 24715 net.cpp:369] SCNN_U_18/relu -> SCNN_U_18/message (in-place)
I0313 11:45:35.768999 24715 net.cpp:124] Setting up SCNN_U_18/relu
I0313 11:45:35.769011 24715 net.cpp:131] Top shape: 1 64 1 80 (5120)
I0313 11:45:35.769014 24715 net.cpp:139] Memory required for data: 328069120
I0313 11:45:35.769019 24715 layer_factory.hpp:77] Creating layer SCNN_U_18/sum
I0313 11:45:35.769026 24715 net.cpp:86] Creating Layer SCNN_U_18/sum
I0313 11:45:35.769033 24715 net.cpp:408] SCNN_U_18/sum <- SCNN_U_18/message
I0313 11:45:35.769042 24715 net.cpp:408] SCNN_U_18/sum <- SCNN_D_17_SCNN_D_16/sum_0_split_1
I0313 11:45:35.769047 24715 net.cpp:382] SCNN_U_18/sum -> SCNN_U_17
I0313 11:45:35.769088 24715 net.cpp:124] Setting up SCNN_U_18/sum
I0313 11:45:35.769096 24715 net.cpp:131] Top shape: 1 64 1 80 (5120)
I0313 11:45:35.769100 24715 net.cpp:139] Memory required for data: 328089600
I0313 11:45:35.769104 24715 layer_factory.hpp:77] Creating layer SCNN_U_17_SCNN_U_18/sum_0_split
I0313 11:45:35.769111 24715 net.cpp:86] Creating Layer SCNN_U_17_SCNN_U_18/sum_0_split
I0313 11:45:35.769117 24715 net.cpp:408] SCNN_U_17_SCNN_U_18/sum_0_split <- SCNN_U_17
I0313 11:45:35.769125 24715 net.cpp:382] SCNN_U_17_SCNN_U_18/sum_0_split -> SCNN_U_17_SCNN_U_18/sum_0_split_0
I0313 11:45:35.769134 24715 net.cpp:382] SCNN_U_17_SCNN_U_18/sum_0_split -> SCNN_U_17_SCNN_U_18/sum_0_split_1
I0313 11:45:35.769188 24715 net.cpp:124] Setting up SCNN_U_17_SCNN_U_18/sum_0_split
I0313 11:45:35.769196 24715 net.cpp:131] Top shape: 1 64 1 80 (5120)
I0313 11:45:35.769201 24715 net.cpp:131] Top shape: 1 64 1 80 (5120)
I0313 11:45:35.769206 24715 net.cpp:139] Memory required for data: 328130560
I0313 11:45:35.769207 24715 layer_factory.hpp:77] Creating layer SCNN_U_17
I0313 11:45:35.769215 24715 net.cpp:86] Creating Layer SCNN_U_17
I0313 11:45:35.769222 24715 net.cpp:408] SCNN_U_17 <- SCNN_U_17_SCNN_U_18/sum_0_split_0
I0313 11:45:35.769229 24715 net.cpp:382] SCNN_U_17 -> SCNN_U_17/message
I0313 11:45:35.770622 24715 net.cpp:124] Setting up SCNN_U_17
I0313 11:45:35.770634 24715 net.cpp:131] Top shape: 1 64 1 80 (5120)
I0313 11:45:35.770639 24715 net.cpp:139] Memory required for data: 328151040
I0313 11:45:35.770644 24715 net.cpp:467] Sharing parameters 'SCNN_U_w' owned by layer 'SCNN_U_60', param index 0
I0313 11:45:35.770648 24715 layer_factory.hpp:77] Creating layer SCNN_U_17/relu
I0313 11:45:35.770655 24715 net.cpp:86] Creating Layer SCNN_U_17/relu
I0313 11:45:35.770663 24715 net.cpp:408] SCNN_U_17/relu <- SCNN_U_17/message
I0313 11:45:35.770669 24715 net.cpp:369] SCNN_U_17/relu -> SCNN_U_17/message (in-place)
I0313 11:45:35.770840 24715 net.cpp:124] Setting up SCNN_U_17/relu
I0313 11:45:35.770849 24715 net.cpp:131] Top shape: 1 64 1 80 (5120)
I0313 11:45:35.770853 24715 net.cpp:139] Memory required for data: 328171520
I0313 11:45:35.770856 24715 layer_factory.hpp:77] Creating layer SCNN_U_17/sum
I0313 11:45:35.770861 24715 net.cpp:86] Creating Layer SCNN_U_17/sum
I0313 11:45:35.770869 24715 net.cpp:408] SCNN_U_17/sum <- SCNN_U_17/message
I0313 11:45:35.770876 24715 net.cpp:408] SCNN_U_17/sum <- SCNN_D_16_SCNN_D_15/sum_0_split_1
I0313 11:45:35.770884 24715 net.cpp:382] SCNN_U_17/sum -> SCNN_U_16
I0313 11:45:35.770921 24715 net.cpp:124] Setting up SCNN_U_17/sum
I0313 11:45:35.770929 24715 net.cpp:131] Top shape: 1 64 1 80 (5120)
I0313 11:45:35.770933 24715 net.cpp:139] Memory required for data: 328192000
I0313 11:45:35.770936 24715 layer_factory.hpp:77] Creating layer SCNN_U_16_SCNN_U_17/sum_0_split
I0313 11:45:35.770943 24715 net.cpp:86] Creating Layer SCNN_U_16_SCNN_U_17/sum_0_split
I0313 11:45:35.770951 24715 net.cpp:408] SCNN_U_16_SCNN_U_17/sum_0_split <- SCNN_U_16
I0313 11:45:35.770957 24715 net.cpp:382] SCNN_U_16_SCNN_U_17/sum_0_split -> SCNN_U_16_SCNN_U_17/sum_0_split_0
I0313 11:45:35.770965 24715 net.cpp:382] SCNN_U_16_SCNN_U_17/sum_0_split -> SCNN_U_16_SCNN_U_17/sum_0_split_1
I0313 11:45:35.771020 24715 net.cpp:124] Setting up SCNN_U_16_SCNN_U_17/sum_0_split
I0313 11:45:35.771028 24715 net.cpp:131] Top shape: 1 64 1 80 (5120)
I0313 11:45:35.771034 24715 net.cpp:131] Top shape: 1 64 1 80 (5120)
I0313 11:45:35.771037 24715 net.cpp:139] Memory required for data: 328232960
I0313 11:45:35.771039 24715 layer_factory.hpp:77] Creating layer SCNN_U_16
I0313 11:45:35.771049 24715 net.cpp:86] Creating Layer SCNN_U_16
I0313 11:45:35.771054 24715 net.cpp:408] SCNN_U_16 <- SCNN_U_16_SCNN_U_17/sum_0_split_0
I0313 11:45:35.771062 24715 net.cpp:382] SCNN_U_16 -> SCNN_U_16/message
I0313 11:45:35.773756 24715 net.cpp:124] Setting up SCNN_U_16
I0313 11:45:35.773777 24715 net.cpp:131] Top shape: 1 64 1 80 (5120)
I0313 11:45:35.773782 24715 net.cpp:139] Memory required for data: 328253440
I0313 11:45:35.773788 24715 net.cpp:467] Sharing parameters 'SCNN_U_w' owned by layer 'SCNN_U_60', param index 0
I0313 11:45:35.773792 24715 layer_factory.hpp:77] Creating layer SCNN_U_16/relu
I0313 11:45:35.773802 24715 net.cpp:86] Creating Layer SCNN_U_16/relu
I0313 11:45:35.773810 24715 net.cpp:408] SCNN_U_16/relu <- SCNN_U_16/message
I0313 11:45:35.773819 24715 net.cpp:369] SCNN_U_16/relu -> SCNN_U_16/message (in-place)
I0313 11:45:35.773985 24715 net.cpp:124] Setting up SCNN_U_16/relu
I0313 11:45:35.773993 24715 net.cpp:131] Top shape: 1 64 1 80 (5120)
I0313 11:45:35.773998 24715 net.cpp:139] Memory required for data: 328273920
I0313 11:45:35.774000 24715 layer_factory.hpp:77] Creating layer SCNN_U_16/sum
I0313 11:45:35.774006 24715 net.cpp:86] Creating Layer SCNN_U_16/sum
I0313 11:45:35.774013 24715 net.cpp:408] SCNN_U_16/sum <- SCNN_U_16/message
I0313 11:45:35.774021 24715 net.cpp:408] SCNN_U_16/sum <- SCNN_D_15_SCNN_D_14/sum_0_split_1
I0313 11:45:35.774027 24715 net.cpp:382] SCNN_U_16/sum -> SCNN_U_15
I0313 11:45:35.774101 24715 net.cpp:124] Setting up SCNN_U_16/sum
I0313 11:45:35.774114 24715 net.cpp:131] Top shape: 1 64 1 80 (5120)
I0313 11:45:35.774118 24715 net.cpp:139] Memory required for data: 328294400
I0313 11:45:35.774121 24715 layer_factory.hpp:77] Creating layer SCNN_U_15_SCNN_U_16/sum_0_split
I0313 11:45:35.774127 24715 net.cpp:86] Creating Layer SCNN_U_15_SCNN_U_16/sum_0_split
I0313 11:45:35.774132 24715 net.cpp:408] SCNN_U_15_SCNN_U_16/sum_0_split <- SCNN_U_15
I0313 11:45:35.774139 24715 net.cpp:382] SCNN_U_15_SCNN_U_16/sum_0_split -> SCNN_U_15_SCNN_U_16/sum_0_split_0
I0313 11:45:35.774148 24715 net.cpp:382] SCNN_U_15_SCNN_U_16/sum_0_split -> SCNN_U_15_SCNN_U_16/sum_0_split_1
I0313 11:45:35.774201 24715 net.cpp:124] Setting up SCNN_U_15_SCNN_U_16/sum_0_split
I0313 11:45:35.774209 24715 net.cpp:131] Top shape: 1 64 1 80 (5120)
I0313 11:45:35.774214 24715 net.cpp:131] Top shape: 1 64 1 80 (5120)
I0313 11:45:35.774217 24715 net.cpp:139] Memory required for data: 328335360
I0313 11:45:35.774220 24715 layer_factory.hpp:77] Creating layer SCNN_U_15
I0313 11:45:35.774230 24715 net.cpp:86] Creating Layer SCNN_U_15
I0313 11:45:35.774235 24715 net.cpp:408] SCNN_U_15 <- SCNN_U_15_SCNN_U_16/sum_0_split_0
I0313 11:45:35.774242 24715 net.cpp:382] SCNN_U_15 -> SCNN_U_15/message
I0313 11:45:35.776345 24715 net.cpp:124] Setting up SCNN_U_15
I0313 11:45:35.776360 24715 net.cpp:131] Top shape: 1 64 1 80 (5120)
I0313 11:45:35.776363 24715 net.cpp:139] Memory required for data: 328355840
I0313 11:45:35.776368 24715 net.cpp:467] Sharing parameters 'SCNN_U_w' owned by layer 'SCNN_U_60', param index 0
I0313 11:45:35.776371 24715 layer_factory.hpp:77] Creating layer SCNN_U_15/relu
I0313 11:45:35.776376 24715 net.cpp:86] Creating Layer SCNN_U_15/relu
I0313 11:45:35.776381 24715 net.cpp:408] SCNN_U_15/relu <- SCNN_U_15/message
I0313 11:45:35.776388 24715 net.cpp:369] SCNN_U_15/relu -> SCNN_U_15/message (in-place)
I0313 11:45:35.777348 24715 net.cpp:124] Setting up SCNN_U_15/relu
I0313 11:45:35.777357 24715 net.cpp:131] Top shape: 1 64 1 80 (5120)
I0313 11:45:35.777360 24715 net.cpp:139] Memory required for data: 328376320
I0313 11:45:35.777362 24715 layer_factory.hpp:77] Creating layer SCNN_U_15/sum
I0313 11:45:35.777367 24715 net.cpp:86] Creating Layer SCNN_U_15/sum
I0313 11:45:35.777372 24715 net.cpp:408] SCNN_U_15/sum <- SCNN_U_15/message
I0313 11:45:35.777379 24715 net.cpp:408] SCNN_U_15/sum <- SCNN_D_14_SCNN_D_13/sum_0_split_1
I0313 11:45:35.777384 24715 net.cpp:382] SCNN_U_15/sum -> SCNN_U_14
I0313 11:45:35.777436 24715 net.cpp:124] Setting up SCNN_U_15/sum
I0313 11:45:35.777446 24715 net.cpp:131] Top shape: 1 64 1 80 (5120)
I0313 11:45:35.777447 24715 net.cpp:139] Memory required for data: 328396800
I0313 11:45:35.777449 24715 layer_factory.hpp:77] Creating layer SCNN_U_14_SCNN_U_15/sum_0_split
I0313 11:45:35.777453 24715 net.cpp:86] Creating Layer SCNN_U_14_SCNN_U_15/sum_0_split
I0313 11:45:35.777458 24715 net.cpp:408] SCNN_U_14_SCNN_U_15/sum_0_split <- SCNN_U_14
I0313 11:45:35.777463 24715 net.cpp:382] SCNN_U_14_SCNN_U_15/sum_0_split -> SCNN_U_14_SCNN_U_15/sum_0_split_0
I0313 11:45:35.777469 24715 net.cpp:382] SCNN_U_14_SCNN_U_15/sum_0_split -> SCNN_U_14_SCNN_U_15/sum_0_split_1
I0313 11:45:35.777539 24715 net.cpp:124] Setting up SCNN_U_14_SCNN_U_15/sum_0_split
I0313 11:45:35.777549 24715 net.cpp:131] Top shape: 1 64 1 80 (5120)
I0313 11:45:35.777551 24715 net.cpp:131] Top shape: 1 64 1 80 (5120)
I0313 11:45:35.777554 24715 net.cpp:139] Memory required for data: 328437760
I0313 11:45:35.777556 24715 layer_factory.hpp:77] Creating layer SCNN_U_14
I0313 11:45:35.777565 24715 net.cpp:86] Creating Layer SCNN_U_14
I0313 11:45:35.777570 24715 net.cpp:408] SCNN_U_14 <- SCNN_U_14_SCNN_U_15/sum_0_split_0
I0313 11:45:35.777575 24715 net.cpp:382] SCNN_U_14 -> SCNN_U_14/message
I0313 11:45:35.779361 24715 net.cpp:124] Setting up SCNN_U_14
I0313 11:45:35.779387 24715 net.cpp:131] Top shape: 1 64 1 80 (5120)
I0313 11:45:35.779392 24715 net.cpp:139] Memory required for data: 328458240
I0313 11:45:35.779398 24715 net.cpp:467] Sharing parameters 'SCNN_U_w' owned by layer 'SCNN_U_60', param index 0
I0313 11:45:35.779402 24715 layer_factory.hpp:77] Creating layer SCNN_U_14/relu
I0313 11:45:35.779409 24715 net.cpp:86] Creating Layer SCNN_U_14/relu
I0313 11:45:35.779417 24715 net.cpp:408] SCNN_U_14/relu <- SCNN_U_14/message
I0313 11:45:35.779433 24715 net.cpp:369] SCNN_U_14/relu -> SCNN_U_14/message (in-place)
I0313 11:45:35.779903 24715 net.cpp:124] Setting up SCNN_U_14/relu
I0313 11:45:35.779914 24715 net.cpp:131] Top shape: 1 64 1 80 (5120)
I0313 11:45:35.779917 24715 net.cpp:139] Memory required for data: 328478720
I0313 11:45:35.779920 24715 layer_factory.hpp:77] Creating layer SCNN_U_14/sum
I0313 11:45:35.779925 24715 net.cpp:86] Creating Layer SCNN_U_14/sum
I0313 11:45:35.779932 24715 net.cpp:408] SCNN_U_14/sum <- SCNN_U_14/message
I0313 11:45:35.779939 24715 net.cpp:408] SCNN_U_14/sum <- SCNN_D_13_SCNN_D_12/sum_0_split_1
I0313 11:45:35.779943 24715 net.cpp:382] SCNN_U_14/sum -> SCNN_U_13
I0313 11:45:35.779990 24715 net.cpp:124] Setting up SCNN_U_14/sum
I0313 11:45:35.779999 24715 net.cpp:131] Top shape: 1 64 1 80 (5120)
I0313 11:45:35.780002 24715 net.cpp:139] Memory required for data: 328499200
I0313 11:45:35.780004 24715 layer_factory.hpp:77] Creating layer SCNN_U_13_SCNN_U_14/sum_0_split
I0313 11:45:35.780009 24715 net.cpp:86] Creating Layer SCNN_U_13_SCNN_U_14/sum_0_split
I0313 11:45:35.780014 24715 net.cpp:408] SCNN_U_13_SCNN_U_14/sum_0_split <- SCNN_U_13
I0313 11:45:35.780019 24715 net.cpp:382] SCNN_U_13_SCNN_U_14/sum_0_split -> SCNN_U_13_SCNN_U_14/sum_0_split_0
I0313 11:45:35.780025 24715 net.cpp:382] SCNN_U_13_SCNN_U_14/sum_0_split -> SCNN_U_13_SCNN_U_14/sum_0_split_1
I0313 11:45:35.780077 24715 net.cpp:124] Setting up SCNN_U_13_SCNN_U_14/sum_0_split
I0313 11:45:35.780084 24715 net.cpp:131] Top shape: 1 64 1 80 (5120)
I0313 11:45:35.780088 24715 net.cpp:131] Top shape: 1 64 1 80 (5120)
I0313 11:45:35.780091 24715 net.cpp:139] Memory required for data: 328540160
I0313 11:45:35.780092 24715 layer_factory.hpp:77] Creating layer SCNN_U_13
I0313 11:45:35.780099 24715 net.cpp:86] Creating Layer SCNN_U_13
I0313 11:45:35.780104 24715 net.cpp:408] SCNN_U_13 <- SCNN_U_13_SCNN_U_14/sum_0_split_0
I0313 11:45:35.780110 24715 net.cpp:382] SCNN_U_13 -> SCNN_U_13/message
I0313 11:45:35.781540 24715 net.cpp:124] Setting up SCNN_U_13
I0313 11:45:35.781554 24715 net.cpp:131] Top shape: 1 64 1 80 (5120)
I0313 11:45:35.781558 24715 net.cpp:139] Memory required for data: 328560640
I0313 11:45:35.781563 24715 net.cpp:467] Sharing parameters 'SCNN_U_w' owned by layer 'SCNN_U_60', param index 0
I0313 11:45:35.781566 24715 layer_factory.hpp:77] Creating layer SCNN_U_13/relu
I0313 11:45:35.781572 24715 net.cpp:86] Creating Layer SCNN_U_13/relu
I0313 11:45:35.781577 24715 net.cpp:408] SCNN_U_13/relu <- SCNN_U_13/message
I0313 11:45:35.781584 24715 net.cpp:369] SCNN_U_13/relu -> SCNN_U_13/message (in-place)
I0313 11:45:35.783072 24715 net.cpp:124] Setting up SCNN_U_13/relu
I0313 11:45:35.783087 24715 net.cpp:131] Top shape: 1 64 1 80 (5120)
I0313 11:45:35.783089 24715 net.cpp:139] Memory required for data: 328581120
I0313 11:45:35.783092 24715 layer_factory.hpp:77] Creating layer SCNN_U_13/sum
I0313 11:45:35.783098 24715 net.cpp:86] Creating Layer SCNN_U_13/sum
I0313 11:45:35.783105 24715 net.cpp:408] SCNN_U_13/sum <- SCNN_U_13/message
I0313 11:45:35.783114 24715 net.cpp:408] SCNN_U_13/sum <- SCNN_D_12_SCNN_D_11/sum_0_split_1
I0313 11:45:35.783118 24715 net.cpp:382] SCNN_U_13/sum -> SCNN_U_12
I0313 11:45:35.783166 24715 net.cpp:124] Setting up SCNN_U_13/sum
I0313 11:45:35.783175 24715 net.cpp:131] Top shape: 1 64 1 80 (5120)
I0313 11:45:35.783179 24715 net.cpp:139] Memory required for data: 328601600
I0313 11:45:35.783180 24715 layer_factory.hpp:77] Creating layer SCNN_U_12_SCNN_U_13/sum_0_split
I0313 11:45:35.783185 24715 net.cpp:86] Creating Layer SCNN_U_12_SCNN_U_13/sum_0_split
I0313 11:45:35.783188 24715 net.cpp:408] SCNN_U_12_SCNN_U_13/sum_0_split <- SCNN_U_12
I0313 11:45:35.783196 24715 net.cpp:382] SCNN_U_12_SCNN_U_13/sum_0_split -> SCNN_U_12_SCNN_U_13/sum_0_split_0
I0313 11:45:35.783203 24715 net.cpp:382] SCNN_U_12_SCNN_U_13/sum_0_split -> SCNN_U_12_SCNN_U_13/sum_0_split_1
I0313 11:45:35.783258 24715 net.cpp:124] Setting up SCNN_U_12_SCNN_U_13/sum_0_split
I0313 11:45:35.783265 24715 net.cpp:131] Top shape: 1 64 1 80 (5120)
I0313 11:45:35.783269 24715 net.cpp:131] Top shape: 1 64 1 80 (5120)
I0313 11:45:35.783272 24715 net.cpp:139] Memory required for data: 328642560
I0313 11:45:35.783274 24715 layer_factory.hpp:77] Creating layer SCNN_U_12
I0313 11:45:35.783282 24715 net.cpp:86] Creating Layer SCNN_U_12
I0313 11:45:35.783287 24715 net.cpp:408] SCNN_U_12 <- SCNN_U_12_SCNN_U_13/sum_0_split_0
I0313 11:45:35.783293 24715 net.cpp:382] SCNN_U_12 -> SCNN_U_12/message
I0313 11:45:35.784732 24715 net.cpp:124] Setting up SCNN_U_12
I0313 11:45:35.784745 24715 net.cpp:131] Top shape: 1 64 1 80 (5120)
I0313 11:45:35.784749 24715 net.cpp:139] Memory required for data: 328663040
I0313 11:45:35.784754 24715 net.cpp:467] Sharing parameters 'SCNN_U_w' owned by layer 'SCNN_U_60', param index 0
I0313 11:45:35.784756 24715 layer_factory.hpp:77] Creating layer SCNN_U_12/relu
I0313 11:45:35.784761 24715 net.cpp:86] Creating Layer SCNN_U_12/relu
I0313 11:45:35.784766 24715 net.cpp:408] SCNN_U_12/relu <- SCNN_U_12/message
I0313 11:45:35.784775 24715 net.cpp:369] SCNN_U_12/relu -> SCNN_U_12/message (in-place)
I0313 11:45:35.784945 24715 net.cpp:124] Setting up SCNN_U_12/relu
I0313 11:45:35.784955 24715 net.cpp:131] Top shape: 1 64 1 80 (5120)
I0313 11:45:35.784956 24715 net.cpp:139] Memory required for data: 328683520
I0313 11:45:35.784958 24715 layer_factory.hpp:77] Creating layer SCNN_U_12/sum
I0313 11:45:35.784962 24715 net.cpp:86] Creating Layer SCNN_U_12/sum
I0313 11:45:35.784967 24715 net.cpp:408] SCNN_U_12/sum <- SCNN_U_12/message
I0313 11:45:35.784973 24715 net.cpp:408] SCNN_U_12/sum <- SCNN_D_11_SCNN_D_10/sum_0_split_1
I0313 11:45:35.784979 24715 net.cpp:382] SCNN_U_12/sum -> SCNN_U_11
I0313 11:45:35.785018 24715 net.cpp:124] Setting up SCNN_U_12/sum
I0313 11:45:35.785028 24715 net.cpp:131] Top shape: 1 64 1 80 (5120)
I0313 11:45:35.785030 24715 net.cpp:139] Memory required for data: 328704000
I0313 11:45:35.785033 24715 layer_factory.hpp:77] Creating layer SCNN_U_11_SCNN_U_12/sum_0_split
I0313 11:45:35.785037 24715 net.cpp:86] Creating Layer SCNN_U_11_SCNN_U_12/sum_0_split
I0313 11:45:35.785043 24715 net.cpp:408] SCNN_U_11_SCNN_U_12/sum_0_split <- SCNN_U_11
I0313 11:45:35.785048 24715 net.cpp:382] SCNN_U_11_SCNN_U_12/sum_0_split -> SCNN_U_11_SCNN_U_12/sum_0_split_0
I0313 11:45:35.785053 24715 net.cpp:382] SCNN_U_11_SCNN_U_12/sum_0_split -> SCNN_U_11_SCNN_U_12/sum_0_split_1
I0313 11:45:35.785107 24715 net.cpp:124] Setting up SCNN_U_11_SCNN_U_12/sum_0_split
I0313 11:45:35.785115 24715 net.cpp:131] Top shape: 1 64 1 80 (5120)
I0313 11:45:35.785118 24715 net.cpp:131] Top shape: 1 64 1 80 (5120)
I0313 11:45:35.785120 24715 net.cpp:139] Memory required for data: 328744960
I0313 11:45:35.785122 24715 layer_factory.hpp:77] Creating layer SCNN_U_11
I0313 11:45:35.785130 24715 net.cpp:86] Creating Layer SCNN_U_11
I0313 11:45:35.785133 24715 net.cpp:408] SCNN_U_11 <- SCNN_U_11_SCNN_U_12/sum_0_split_0
I0313 11:45:35.785141 24715 net.cpp:382] SCNN_U_11 -> SCNN_U_11/message
I0313 11:45:35.786559 24715 net.cpp:124] Setting up SCNN_U_11
I0313 11:45:35.786572 24715 net.cpp:131] Top shape: 1 64 1 80 (5120)
I0313 11:45:35.786576 24715 net.cpp:139] Memory required for data: 328765440
I0313 11:45:35.786581 24715 net.cpp:467] Sharing parameters 'SCNN_U_w' owned by layer 'SCNN_U_60', param index 0
I0313 11:45:35.786583 24715 layer_factory.hpp:77] Creating layer SCNN_U_11/relu
I0313 11:45:35.786588 24715 net.cpp:86] Creating Layer SCNN_U_11/relu
I0313 11:45:35.786593 24715 net.cpp:408] SCNN_U_11/relu <- SCNN_U_11/message
I0313 11:45:35.786599 24715 net.cpp:369] SCNN_U_11/relu -> SCNN_U_11/message (in-place)
I0313 11:45:35.786772 24715 net.cpp:124] Setting up SCNN_U_11/relu
I0313 11:45:35.786779 24715 net.cpp:131] Top shape: 1 64 1 80 (5120)
I0313 11:45:35.786782 24715 net.cpp:139] Memory required for data: 328785920
I0313 11:45:35.786784 24715 layer_factory.hpp:77] Creating layer SCNN_U_11/sum
I0313 11:45:35.786789 24715 net.cpp:86] Creating Layer SCNN_U_11/sum
I0313 11:45:35.786794 24715 net.cpp:408] SCNN_U_11/sum <- SCNN_U_11/message
I0313 11:45:35.786800 24715 net.cpp:408] SCNN_U_11/sum <- SCNN_D_10_SCNN_D_9/sum_0_split_1
I0313 11:45:35.786806 24715 net.cpp:382] SCNN_U_11/sum -> SCNN_U_10
I0313 11:45:35.786844 24715 net.cpp:124] Setting up SCNN_U_11/sum
I0313 11:45:35.786852 24715 net.cpp:131] Top shape: 1 64 1 80 (5120)
I0313 11:45:35.786855 24715 net.cpp:139] Memory required for data: 328806400
I0313 11:45:35.786857 24715 layer_factory.hpp:77] Creating layer SCNN_U_10_SCNN_U_11/sum_0_split
I0313 11:45:35.786861 24715 net.cpp:86] Creating Layer SCNN_U_10_SCNN_U_11/sum_0_split
I0313 11:45:35.786865 24715 net.cpp:408] SCNN_U_10_SCNN_U_11/sum_0_split <- SCNN_U_10
I0313 11:45:35.786871 24715 net.cpp:382] SCNN_U_10_SCNN_U_11/sum_0_split -> SCNN_U_10_SCNN_U_11/sum_0_split_0
I0313 11:45:35.786878 24715 net.cpp:382] SCNN_U_10_SCNN_U_11/sum_0_split -> SCNN_U_10_SCNN_U_11/sum_0_split_1
I0313 11:45:35.786932 24715 net.cpp:124] Setting up SCNN_U_10_SCNN_U_11/sum_0_split
I0313 11:45:35.786940 24715 net.cpp:131] Top shape: 1 64 1 80 (5120)
I0313 11:45:35.786944 24715 net.cpp:131] Top shape: 1 64 1 80 (5120)
I0313 11:45:35.786947 24715 net.cpp:139] Memory required for data: 328847360
I0313 11:45:35.786948 24715 layer_factory.hpp:77] Creating layer SCNN_U_10
I0313 11:45:35.786954 24715 net.cpp:86] Creating Layer SCNN_U_10
I0313 11:45:35.786959 24715 net.cpp:408] SCNN_U_10 <- SCNN_U_10_SCNN_U_11/sum_0_split_0
I0313 11:45:35.786967 24715 net.cpp:382] SCNN_U_10 -> SCNN_U_10/message
I0313 11:45:35.788374 24715 net.cpp:124] Setting up SCNN_U_10
I0313 11:45:35.788388 24715 net.cpp:131] Top shape: 1 64 1 80 (5120)
I0313 11:45:35.788390 24715 net.cpp:139] Memory required for data: 328867840
I0313 11:45:35.788395 24715 net.cpp:467] Sharing parameters 'SCNN_U_w' owned by layer 'SCNN_U_60', param index 0
I0313 11:45:35.788398 24715 layer_factory.hpp:77] Creating layer SCNN_U_10/relu
I0313 11:45:35.788403 24715 net.cpp:86] Creating Layer SCNN_U_10/relu
I0313 11:45:35.788408 24715 net.cpp:408] SCNN_U_10/relu <- SCNN_U_10/message
I0313 11:45:35.788414 24715 net.cpp:369] SCNN_U_10/relu -> SCNN_U_10/message (in-place)
I0313 11:45:35.788584 24715 net.cpp:124] Setting up SCNN_U_10/relu
I0313 11:45:35.788595 24715 net.cpp:131] Top shape: 1 64 1 80 (5120)
I0313 11:45:35.788597 24715 net.cpp:139] Memory required for data: 328888320
I0313 11:45:35.788600 24715 layer_factory.hpp:77] Creating layer SCNN_U_10/sum
I0313 11:45:35.788604 24715 net.cpp:86] Creating Layer SCNN_U_10/sum
I0313 11:45:35.788609 24715 net.cpp:408] SCNN_U_10/sum <- SCNN_U_10/message
I0313 11:45:35.788616 24715 net.cpp:408] SCNN_U_10/sum <- SCNN_D_9_SCNN_D_8/sum_0_split_1
I0313 11:45:35.788622 24715 net.cpp:382] SCNN_U_10/sum -> SCNN_U_9
I0313 11:45:35.788661 24715 net.cpp:124] Setting up SCNN_U_10/sum
I0313 11:45:35.788667 24715 net.cpp:131] Top shape: 1 64 1 80 (5120)
I0313 11:45:35.788671 24715 net.cpp:139] Memory required for data: 328908800
I0313 11:45:35.788672 24715 layer_factory.hpp:77] Creating layer SCNN_U_9_SCNN_U_10/sum_0_split
I0313 11:45:35.788677 24715 net.cpp:86] Creating Layer SCNN_U_9_SCNN_U_10/sum_0_split
I0313 11:45:35.788681 24715 net.cpp:408] SCNN_U_9_SCNN_U_10/sum_0_split <- SCNN_U_9
I0313 11:45:35.788686 24715 net.cpp:382] SCNN_U_9_SCNN_U_10/sum_0_split -> SCNN_U_9_SCNN_U_10/sum_0_split_0
I0313 11:45:35.788693 24715 net.cpp:382] SCNN_U_9_SCNN_U_10/sum_0_split -> SCNN_U_9_SCNN_U_10/sum_0_split_1
I0313 11:45:35.788746 24715 net.cpp:124] Setting up SCNN_U_9_SCNN_U_10/sum_0_split
I0313 11:45:35.788753 24715 net.cpp:131] Top shape: 1 64 1 80 (5120)
I0313 11:45:35.788756 24715 net.cpp:131] Top shape: 1 64 1 80 (5120)
I0313 11:45:35.788759 24715 net.cpp:139] Memory required for data: 328949760
I0313 11:45:35.788761 24715 layer_factory.hpp:77] Creating layer SCNN_U_9
I0313 11:45:35.788769 24715 net.cpp:86] Creating Layer SCNN_U_9
I0313 11:45:35.788772 24715 net.cpp:408] SCNN_U_9 <- SCNN_U_9_SCNN_U_10/sum_0_split_0
I0313 11:45:35.788779 24715 net.cpp:382] SCNN_U_9 -> SCNN_U_9/message
I0313 11:45:35.792176 24715 net.cpp:124] Setting up SCNN_U_9
I0313 11:45:35.792204 24715 net.cpp:131] Top shape: 1 64 1 80 (5120)
I0313 11:45:35.792208 24715 net.cpp:139] Memory required for data: 328970240
I0313 11:45:35.792215 24715 net.cpp:467] Sharing parameters 'SCNN_U_w' owned by layer 'SCNN_U_60', param index 0
I0313 11:45:35.792219 24715 layer_factory.hpp:77] Creating layer SCNN_U_9/relu
I0313 11:45:35.792227 24715 net.cpp:86] Creating Layer SCNN_U_9/relu
I0313 11:45:35.792233 24715 net.cpp:408] SCNN_U_9/relu <- SCNN_U_9/message
I0313 11:45:35.792244 24715 net.cpp:369] SCNN_U_9/relu -> SCNN_U_9/message (in-place)
I0313 11:45:35.792645 24715 net.cpp:124] Setting up SCNN_U_9/relu
I0313 11:45:35.792656 24715 net.cpp:131] Top shape: 1 64 1 80 (5120)
I0313 11:45:35.792659 24715 net.cpp:139] Memory required for data: 328990720
I0313 11:45:35.792661 24715 layer_factory.hpp:77] Creating layer SCNN_U_9/sum
I0313 11:45:35.792667 24715 net.cpp:86] Creating Layer SCNN_U_9/sum
I0313 11:45:35.792673 24715 net.cpp:408] SCNN_U_9/sum <- SCNN_U_9/message
I0313 11:45:35.792680 24715 net.cpp:408] SCNN_U_9/sum <- SCNN_D_8_SCNN_D_7/sum_0_split_1
I0313 11:45:35.792685 24715 net.cpp:382] SCNN_U_9/sum -> SCNN_U_8
I0313 11:45:35.792732 24715 net.cpp:124] Setting up SCNN_U_9/sum
I0313 11:45:35.792742 24715 net.cpp:131] Top shape: 1 64 1 80 (5120)
I0313 11:45:35.792744 24715 net.cpp:139] Memory required for data: 329011200
I0313 11:45:35.792747 24715 layer_factory.hpp:77] Creating layer SCNN_U_8_SCNN_U_9/sum_0_split
I0313 11:45:35.792750 24715 net.cpp:86] Creating Layer SCNN_U_8_SCNN_U_9/sum_0_split
I0313 11:45:35.792754 24715 net.cpp:408] SCNN_U_8_SCNN_U_9/sum_0_split <- SCNN_U_8
I0313 11:45:35.792760 24715 net.cpp:382] SCNN_U_8_SCNN_U_9/sum_0_split -> SCNN_U_8_SCNN_U_9/sum_0_split_0
I0313 11:45:35.792768 24715 net.cpp:382] SCNN_U_8_SCNN_U_9/sum_0_split -> SCNN_U_8_SCNN_U_9/sum_0_split_1
I0313 11:45:35.792824 24715 net.cpp:124] Setting up SCNN_U_8_SCNN_U_9/sum_0_split
I0313 11:45:35.792830 24715 net.cpp:131] Top shape: 1 64 1 80 (5120)
I0313 11:45:35.792834 24715 net.cpp:131] Top shape: 1 64 1 80 (5120)
I0313 11:45:35.792836 24715 net.cpp:139] Memory required for data: 329052160
I0313 11:45:35.792838 24715 layer_factory.hpp:77] Creating layer SCNN_U_8
I0313 11:45:35.792846 24715 net.cpp:86] Creating Layer SCNN_U_8
I0313 11:45:35.792851 24715 net.cpp:408] SCNN_U_8 <- SCNN_U_8_SCNN_U_9/sum_0_split_0
I0313 11:45:35.792858 24715 net.cpp:382] SCNN_U_8 -> SCNN_U_8/message
I0313 11:45:35.794270 24715 net.cpp:124] Setting up SCNN_U_8
I0313 11:45:35.794283 24715 net.cpp:131] Top shape: 1 64 1 80 (5120)
I0313 11:45:35.794286 24715 net.cpp:139] Memory required for data: 329072640
I0313 11:45:35.794291 24715 net.cpp:467] Sharing parameters 'SCNN_U_w' owned by layer 'SCNN_U_60', param index 0
I0313 11:45:35.794294 24715 layer_factory.hpp:77] Creating layer SCNN_U_8/relu
I0313 11:45:35.794299 24715 net.cpp:86] Creating Layer SCNN_U_8/relu
I0313 11:45:35.794304 24715 net.cpp:408] SCNN_U_8/relu <- SCNN_U_8/message
I0313 11:45:35.794311 24715 net.cpp:369] SCNN_U_8/relu -> SCNN_U_8/message (in-place)
I0313 11:45:35.794481 24715 net.cpp:124] Setting up SCNN_U_8/relu
I0313 11:45:35.794488 24715 net.cpp:131] Top shape: 1 64 1 80 (5120)
I0313 11:45:35.794492 24715 net.cpp:139] Memory required for data: 329093120
I0313 11:45:35.794493 24715 layer_factory.hpp:77] Creating layer SCNN_U_8/sum
I0313 11:45:35.794499 24715 net.cpp:86] Creating Layer SCNN_U_8/sum
I0313 11:45:35.794504 24715 net.cpp:408] SCNN_U_8/sum <- SCNN_U_8/message
I0313 11:45:35.794512 24715 net.cpp:408] SCNN_U_8/sum <- SCNN_D_7_SCNN_D_6/sum_0_split_1
I0313 11:45:35.794517 24715 net.cpp:382] SCNN_U_8/sum -> SCNN_U_7
I0313 11:45:35.794555 24715 net.cpp:124] Setting up SCNN_U_8/sum
I0313 11:45:35.794564 24715 net.cpp:131] Top shape: 1 64 1 80 (5120)
I0313 11:45:35.794565 24715 net.cpp:139] Memory required for data: 329113600
I0313 11:45:35.794569 24715 layer_factory.hpp:77] Creating layer SCNN_U_7_SCNN_U_8/sum_0_split
I0313 11:45:35.794571 24715 net.cpp:86] Creating Layer SCNN_U_7_SCNN_U_8/sum_0_split
I0313 11:45:35.794575 24715 net.cpp:408] SCNN_U_7_SCNN_U_8/sum_0_split <- SCNN_U_7
I0313 11:45:35.794581 24715 net.cpp:382] SCNN_U_7_SCNN_U_8/sum_0_split -> SCNN_U_7_SCNN_U_8/sum_0_split_0
I0313 11:45:35.794589 24715 net.cpp:382] SCNN_U_7_SCNN_U_8/sum_0_split -> SCNN_U_7_SCNN_U_8/sum_0_split_1
I0313 11:45:35.794646 24715 net.cpp:124] Setting up SCNN_U_7_SCNN_U_8/sum_0_split
I0313 11:45:35.794652 24715 net.cpp:131] Top shape: 1 64 1 80 (5120)
I0313 11:45:35.794656 24715 net.cpp:131] Top shape: 1 64 1 80 (5120)
I0313 11:45:35.794658 24715 net.cpp:139] Memory required for data: 329154560
I0313 11:45:35.794661 24715 layer_factory.hpp:77] Creating layer SCNN_U_7
I0313 11:45:35.794667 24715 net.cpp:86] Creating Layer SCNN_U_7
I0313 11:45:35.794672 24715 net.cpp:408] SCNN_U_7 <- SCNN_U_7_SCNN_U_8/sum_0_split_0
I0313 11:45:35.794678 24715 net.cpp:382] SCNN_U_7 -> SCNN_U_7/message
I0313 11:45:35.796082 24715 net.cpp:124] Setting up SCNN_U_7
I0313 11:45:35.796095 24715 net.cpp:131] Top shape: 1 64 1 80 (5120)
I0313 11:45:35.796098 24715 net.cpp:139] Memory required for data: 329175040
I0313 11:45:35.796103 24715 net.cpp:467] Sharing parameters 'SCNN_U_w' owned by layer 'SCNN_U_60', param index 0
I0313 11:45:35.796105 24715 layer_factory.hpp:77] Creating layer SCNN_U_7/relu
I0313 11:45:35.796110 24715 net.cpp:86] Creating Layer SCNN_U_7/relu
I0313 11:45:35.796114 24715 net.cpp:408] SCNN_U_7/relu <- SCNN_U_7/message
I0313 11:45:35.796120 24715 net.cpp:369] SCNN_U_7/relu -> SCNN_U_7/message (in-place)
I0313 11:45:35.796283 24715 net.cpp:124] Setting up SCNN_U_7/relu
I0313 11:45:35.796291 24715 net.cpp:131] Top shape: 1 64 1 80 (5120)
I0313 11:45:35.796294 24715 net.cpp:139] Memory required for data: 329195520
I0313 11:45:35.796296 24715 layer_factory.hpp:77] Creating layer SCNN_U_7/sum
I0313 11:45:35.796300 24715 net.cpp:86] Creating Layer SCNN_U_7/sum
I0313 11:45:35.796304 24715 net.cpp:408] SCNN_U_7/sum <- SCNN_U_7/message
I0313 11:45:35.796311 24715 net.cpp:408] SCNN_U_7/sum <- SCNN_D_6_SCNN_D_5/sum_0_split_1
I0313 11:45:35.796315 24715 net.cpp:382] SCNN_U_7/sum -> SCNN_U_6
I0313 11:45:35.796353 24715 net.cpp:124] Setting up SCNN_U_7/sum
I0313 11:45:35.796361 24715 net.cpp:131] Top shape: 1 64 1 80 (5120)
I0313 11:45:35.796365 24715 net.cpp:139] Memory required for data: 329216000
I0313 11:45:35.796367 24715 layer_factory.hpp:77] Creating layer SCNN_U_6_SCNN_U_7/sum_0_split
I0313 11:45:35.796371 24715 net.cpp:86] Creating Layer SCNN_U_6_SCNN_U_7/sum_0_split
I0313 11:45:35.796375 24715 net.cpp:408] SCNN_U_6_SCNN_U_7/sum_0_split <- SCNN_U_6
I0313 11:45:35.796381 24715 net.cpp:382] SCNN_U_6_SCNN_U_7/sum_0_split -> SCNN_U_6_SCNN_U_7/sum_0_split_0
I0313 11:45:35.796391 24715 net.cpp:382] SCNN_U_6_SCNN_U_7/sum_0_split -> SCNN_U_6_SCNN_U_7/sum_0_split_1
I0313 11:45:35.796442 24715 net.cpp:124] Setting up SCNN_U_6_SCNN_U_7/sum_0_split
I0313 11:45:35.796449 24715 net.cpp:131] Top shape: 1 64 1 80 (5120)
I0313 11:45:35.796452 24715 net.cpp:131] Top shape: 1 64 1 80 (5120)
I0313 11:45:35.796455 24715 net.cpp:139] Memory required for data: 329256960
I0313 11:45:35.796458 24715 layer_factory.hpp:77] Creating layer SCNN_U_6
I0313 11:45:35.796463 24715 net.cpp:86] Creating Layer SCNN_U_6
I0313 11:45:35.796468 24715 net.cpp:408] SCNN_U_6 <- SCNN_U_6_SCNN_U_7/sum_0_split_0
I0313 11:45:35.796473 24715 net.cpp:382] SCNN_U_6 -> SCNN_U_6/message
I0313 11:45:35.799114 24715 net.cpp:124] Setting up SCNN_U_6
I0313 11:45:35.799135 24715 net.cpp:131] Top shape: 1 64 1 80 (5120)
I0313 11:45:35.799139 24715 net.cpp:139] Memory required for data: 329277440
I0313 11:45:35.799144 24715 net.cpp:467] Sharing parameters 'SCNN_U_w' owned by layer 'SCNN_U_60', param index 0
I0313 11:45:35.799147 24715 layer_factory.hpp:77] Creating layer SCNN_U_6/relu
I0313 11:45:35.799154 24715 net.cpp:86] Creating Layer SCNN_U_6/relu
I0313 11:45:35.799160 24715 net.cpp:408] SCNN_U_6/relu <- SCNN_U_6/message
I0313 11:45:35.799167 24715 net.cpp:369] SCNN_U_6/relu -> SCNN_U_6/message (in-place)
I0313 11:45:35.799331 24715 net.cpp:124] Setting up SCNN_U_6/relu
I0313 11:45:35.799340 24715 net.cpp:131] Top shape: 1 64 1 80 (5120)
I0313 11:45:35.799343 24715 net.cpp:139] Memory required for data: 329297920
I0313 11:45:35.799345 24715 layer_factory.hpp:77] Creating layer SCNN_U_6/sum
I0313 11:45:35.799350 24715 net.cpp:86] Creating Layer SCNN_U_6/sum
I0313 11:45:35.799353 24715 net.cpp:408] SCNN_U_6/sum <- SCNN_U_6/message
I0313 11:45:35.799360 24715 net.cpp:408] SCNN_U_6/sum <- SCNN_D_5_SCNN_D_4/sum_0_split_1
I0313 11:45:35.799365 24715 net.cpp:382] SCNN_U_6/sum -> SCNN_U_5
I0313 11:45:35.799407 24715 net.cpp:124] Setting up SCNN_U_6/sum
I0313 11:45:35.799415 24715 net.cpp:131] Top shape: 1 64 1 80 (5120)
I0313 11:45:35.799417 24715 net.cpp:139] Memory required for data: 329318400
I0313 11:45:35.799419 24715 layer_factory.hpp:77] Creating layer SCNN_U_5_SCNN_U_6/sum_0_split
I0313 11:45:35.799423 24715 net.cpp:86] Creating Layer SCNN_U_5_SCNN_U_6/sum_0_split
I0313 11:45:35.799427 24715 net.cpp:408] SCNN_U_5_SCNN_U_6/sum_0_split <- SCNN_U_5
I0313 11:45:35.799432 24715 net.cpp:382] SCNN_U_5_SCNN_U_6/sum_0_split -> SCNN_U_5_SCNN_U_6/sum_0_split_0
I0313 11:45:35.799439 24715 net.cpp:382] SCNN_U_5_SCNN_U_6/sum_0_split -> SCNN_U_5_SCNN_U_6/sum_0_split_1
I0313 11:45:35.799494 24715 net.cpp:124] Setting up SCNN_U_5_SCNN_U_6/sum_0_split
I0313 11:45:35.799499 24715 net.cpp:131] Top shape: 1 64 1 80 (5120)
I0313 11:45:35.799504 24715 net.cpp:131] Top shape: 1 64 1 80 (5120)
I0313 11:45:35.799505 24715 net.cpp:139] Memory required for data: 329359360
I0313 11:45:35.799507 24715 layer_factory.hpp:77] Creating layer SCNN_U_5
I0313 11:45:35.799515 24715 net.cpp:86] Creating Layer SCNN_U_5
I0313 11:45:35.799518 24715 net.cpp:408] SCNN_U_5 <- SCNN_U_5_SCNN_U_6/sum_0_split_0
I0313 11:45:35.799525 24715 net.cpp:382] SCNN_U_5 -> SCNN_U_5/message
I0313 11:45:35.800921 24715 net.cpp:124] Setting up SCNN_U_5
I0313 11:45:35.800935 24715 net.cpp:131] Top shape: 1 64 1 80 (5120)
I0313 11:45:35.800938 24715 net.cpp:139] Memory required for data: 329379840
I0313 11:45:35.800942 24715 net.cpp:467] Sharing parameters 'SCNN_U_w' owned by layer 'SCNN_U_60', param index 0
I0313 11:45:35.800945 24715 layer_factory.hpp:77] Creating layer SCNN_U_5/relu
I0313 11:45:35.800951 24715 net.cpp:86] Creating Layer SCNN_U_5/relu
I0313 11:45:35.800954 24715 net.cpp:408] SCNN_U_5/relu <- SCNN_U_5/message
I0313 11:45:35.800961 24715 net.cpp:369] SCNN_U_5/relu -> SCNN_U_5/message (in-place)
I0313 11:45:35.801352 24715 net.cpp:124] Setting up SCNN_U_5/relu
I0313 11:45:35.801363 24715 net.cpp:131] Top shape: 1 64 1 80 (5120)
I0313 11:45:35.801365 24715 net.cpp:139] Memory required for data: 329400320
I0313 11:45:35.801368 24715 layer_factory.hpp:77] Creating layer SCNN_U_5/sum
I0313 11:45:35.801373 24715 net.cpp:86] Creating Layer SCNN_U_5/sum
I0313 11:45:35.801378 24715 net.cpp:408] SCNN_U_5/sum <- SCNN_U_5/message
I0313 11:45:35.801384 24715 net.cpp:408] SCNN_U_5/sum <- SCNN_D_4_SCNN_D_3/sum_0_split_1
I0313 11:45:35.801389 24715 net.cpp:382] SCNN_U_5/sum -> SCNN_U_4
I0313 11:45:35.801429 24715 net.cpp:124] Setting up SCNN_U_5/sum
I0313 11:45:35.801436 24715 net.cpp:131] Top shape: 1 64 1 80 (5120)
I0313 11:45:35.801440 24715 net.cpp:139] Memory required for data: 329420800
I0313 11:45:35.801441 24715 layer_factory.hpp:77] Creating layer SCNN_U_4_SCNN_U_5/sum_0_split
I0313 11:45:35.801445 24715 net.cpp:86] Creating Layer SCNN_U_4_SCNN_U_5/sum_0_split
I0313 11:45:35.801450 24715 net.cpp:408] SCNN_U_4_SCNN_U_5/sum_0_split <- SCNN_U_4
I0313 11:45:35.801455 24715 net.cpp:382] SCNN_U_4_SCNN_U_5/sum_0_split -> SCNN_U_4_SCNN_U_5/sum_0_split_0
I0313 11:45:35.801460 24715 net.cpp:382] SCNN_U_4_SCNN_U_5/sum_0_split -> SCNN_U_4_SCNN_U_5/sum_0_split_1
I0313 11:45:35.801512 24715 net.cpp:124] Setting up SCNN_U_4_SCNN_U_5/sum_0_split
I0313 11:45:35.801519 24715 net.cpp:131] Top shape: 1 64 1 80 (5120)
I0313 11:45:35.801522 24715 net.cpp:131] Top shape: 1 64 1 80 (5120)
I0313 11:45:35.801524 24715 net.cpp:139] Memory required for data: 329461760
I0313 11:45:35.801527 24715 layer_factory.hpp:77] Creating layer SCNN_U_4
I0313 11:45:35.801532 24715 net.cpp:86] Creating Layer SCNN_U_4
I0313 11:45:35.801537 24715 net.cpp:408] SCNN_U_4 <- SCNN_U_4_SCNN_U_5/sum_0_split_0
I0313 11:45:35.801543 24715 net.cpp:382] SCNN_U_4 -> SCNN_U_4/message
I0313 11:45:35.802690 24715 net.cpp:124] Setting up SCNN_U_4
I0313 11:45:35.802701 24715 net.cpp:131] Top shape: 1 64 1 80 (5120)
I0313 11:45:35.802704 24715 net.cpp:139] Memory required for data: 329482240
I0313 11:45:35.802708 24715 net.cpp:467] Sharing parameters 'SCNN_U_w' owned by layer 'SCNN_U_60', param index 0
I0313 11:45:35.802711 24715 layer_factory.hpp:77] Creating layer SCNN_U_4/relu
I0313 11:45:35.802716 24715 net.cpp:86] Creating Layer SCNN_U_4/relu
I0313 11:45:35.802721 24715 net.cpp:408] SCNN_U_4/relu <- SCNN_U_4/message
I0313 11:45:35.802726 24715 net.cpp:369] SCNN_U_4/relu -> SCNN_U_4/message (in-place)
I0313 11:45:35.803108 24715 net.cpp:124] Setting up SCNN_U_4/relu
I0313 11:45:35.803118 24715 net.cpp:131] Top shape: 1 64 1 80 (5120)
I0313 11:45:35.803122 24715 net.cpp:139] Memory required for data: 329502720
I0313 11:45:35.803123 24715 layer_factory.hpp:77] Creating layer SCNN_U_4/sum
I0313 11:45:35.803128 24715 net.cpp:86] Creating Layer SCNN_U_4/sum
I0313 11:45:35.803133 24715 net.cpp:408] SCNN_U_4/sum <- SCNN_U_4/message
I0313 11:45:35.803140 24715 net.cpp:408] SCNN_U_4/sum <- SCNN_D_3_SCNN_D_2/sum_0_split_1
I0313 11:45:35.803145 24715 net.cpp:382] SCNN_U_4/sum -> SCNN_U_3
I0313 11:45:35.803184 24715 net.cpp:124] Setting up SCNN_U_4/sum
I0313 11:45:35.803192 24715 net.cpp:131] Top shape: 1 64 1 80 (5120)
I0313 11:45:35.803194 24715 net.cpp:139] Memory required for data: 329523200
I0313 11:45:35.803196 24715 layer_factory.hpp:77] Creating layer SCNN_U_3_SCNN_U_4/sum_0_split
I0313 11:45:35.803200 24715 net.cpp:86] Creating Layer SCNN_U_3_SCNN_U_4/sum_0_split
I0313 11:45:35.803205 24715 net.cpp:408] SCNN_U_3_SCNN_U_4/sum_0_split <- SCNN_U_3
I0313 11:45:35.803210 24715 net.cpp:382] SCNN_U_3_SCNN_U_4/sum_0_split -> SCNN_U_3_SCNN_U_4/sum_0_split_0
I0313 11:45:35.803216 24715 net.cpp:382] SCNN_U_3_SCNN_U_4/sum_0_split -> SCNN_U_3_SCNN_U_4/sum_0_split_1
I0313 11:45:35.803269 24715 net.cpp:124] Setting up SCNN_U_3_SCNN_U_4/sum_0_split
I0313 11:45:35.803277 24715 net.cpp:131] Top shape: 1 64 1 80 (5120)
I0313 11:45:35.803279 24715 net.cpp:131] Top shape: 1 64 1 80 (5120)
I0313 11:45:35.803282 24715 net.cpp:139] Memory required for data: 329564160
I0313 11:45:35.803283 24715 layer_factory.hpp:77] Creating layer SCNN_U_3
I0313 11:45:35.803289 24715 net.cpp:86] Creating Layer SCNN_U_3
I0313 11:45:35.803293 24715 net.cpp:408] SCNN_U_3 <- SCNN_U_3_SCNN_U_4/sum_0_split_0
I0313 11:45:35.803299 24715 net.cpp:382] SCNN_U_3 -> SCNN_U_3/message
I0313 11:45:35.806975 24715 net.cpp:124] Setting up SCNN_U_3
I0313 11:45:35.807004 24715 net.cpp:131] Top shape: 1 64 1 80 (5120)
I0313 11:45:35.807008 24715 net.cpp:139] Memory required for data: 329584640
I0313 11:45:35.807034 24715 net.cpp:467] Sharing parameters 'SCNN_U_w' owned by layer 'SCNN_U_60', param index 0
I0313 11:45:35.807042 24715 layer_factory.hpp:77] Creating layer SCNN_U_3/relu
I0313 11:45:35.807051 24715 net.cpp:86] Creating Layer SCNN_U_3/relu
I0313 11:45:35.807060 24715 net.cpp:408] SCNN_U_3/relu <- SCNN_U_3/message
I0313 11:45:35.807070 24715 net.cpp:369] SCNN_U_3/relu -> SCNN_U_3/message (in-place)
I0313 11:45:35.807739 24715 net.cpp:124] Setting up SCNN_U_3/relu
I0313 11:45:35.807749 24715 net.cpp:131] Top shape: 1 64 1 80 (5120)
I0313 11:45:35.807750 24715 net.cpp:139] Memory required for data: 329605120
I0313 11:45:35.807754 24715 layer_factory.hpp:77] Creating layer SCNN_U_3/sum
I0313 11:45:35.807759 24715 net.cpp:86] Creating Layer SCNN_U_3/sum
I0313 11:45:35.807763 24715 net.cpp:408] SCNN_U_3/sum <- SCNN_U_3/message
I0313 11:45:35.807770 24715 net.cpp:408] SCNN_U_3/sum <- SCNN_D_2_SCNN_D_1/sum_0_split_1
I0313 11:45:35.807775 24715 net.cpp:382] SCNN_U_3/sum -> SCNN_U_2
I0313 11:45:35.807821 24715 net.cpp:124] Setting up SCNN_U_3/sum
I0313 11:45:35.807829 24715 net.cpp:131] Top shape: 1 64 1 80 (5120)
I0313 11:45:35.807832 24715 net.cpp:139] Memory required for data: 329625600
I0313 11:45:35.807834 24715 layer_factory.hpp:77] Creating layer SCNN_U_2_SCNN_U_3/sum_0_split
I0313 11:45:35.807838 24715 net.cpp:86] Creating Layer SCNN_U_2_SCNN_U_3/sum_0_split
I0313 11:45:35.807842 24715 net.cpp:408] SCNN_U_2_SCNN_U_3/sum_0_split <- SCNN_U_2
I0313 11:45:35.807848 24715 net.cpp:382] SCNN_U_2_SCNN_U_3/sum_0_split -> SCNN_U_2_SCNN_U_3/sum_0_split_0
I0313 11:45:35.807854 24715 net.cpp:382] SCNN_U_2_SCNN_U_3/sum_0_split -> SCNN_U_2_SCNN_U_3/sum_0_split_1
I0313 11:45:35.807907 24715 net.cpp:124] Setting up SCNN_U_2_SCNN_U_3/sum_0_split
I0313 11:45:35.807915 24715 net.cpp:131] Top shape: 1 64 1 80 (5120)
I0313 11:45:35.807919 24715 net.cpp:131] Top shape: 1 64 1 80 (5120)
I0313 11:45:35.807920 24715 net.cpp:139] Memory required for data: 329666560
I0313 11:45:35.807922 24715 layer_factory.hpp:77] Creating layer SCNN_U_2
I0313 11:45:35.807930 24715 net.cpp:86] Creating Layer SCNN_U_2
I0313 11:45:35.807934 24715 net.cpp:408] SCNN_U_2 <- SCNN_U_2_SCNN_U_3/sum_0_split_0
I0313 11:45:35.807940 24715 net.cpp:382] SCNN_U_2 -> SCNN_U_2/message
I0313 11:45:35.809432 24715 net.cpp:124] Setting up SCNN_U_2
I0313 11:45:35.809448 24715 net.cpp:131] Top shape: 1 64 1 80 (5120)
I0313 11:45:35.809451 24715 net.cpp:139] Memory required for data: 329687040
I0313 11:45:35.809456 24715 net.cpp:467] Sharing parameters 'SCNN_U_w' owned by layer 'SCNN_U_60', param index 0
I0313 11:45:35.809459 24715 layer_factory.hpp:77] Creating layer SCNN_U_2/relu
I0313 11:45:35.809465 24715 net.cpp:86] Creating Layer SCNN_U_2/relu
I0313 11:45:35.809471 24715 net.cpp:408] SCNN_U_2/relu <- SCNN_U_2/message
I0313 11:45:35.809478 24715 net.cpp:369] SCNN_U_2/relu -> SCNN_U_2/message (in-place)
I0313 11:45:35.809648 24715 net.cpp:124] Setting up SCNN_U_2/relu
I0313 11:45:35.809657 24715 net.cpp:131] Top shape: 1 64 1 80 (5120)
I0313 11:45:35.809660 24715 net.cpp:139] Memory required for data: 329707520
I0313 11:45:35.809662 24715 layer_factory.hpp:77] Creating layer SCNN_U_2/sum
I0313 11:45:35.809666 24715 net.cpp:86] Creating Layer SCNN_U_2/sum
I0313 11:45:35.809671 24715 net.cpp:408] SCNN_U_2/sum <- SCNN_U_2/message
I0313 11:45:35.809679 24715 net.cpp:408] SCNN_U_2/sum <- slice1_1_Slice1_0_split_1
I0313 11:45:35.809684 24715 net.cpp:382] SCNN_U_2/sum -> SCNN_U_1
I0313 11:45:35.809726 24715 net.cpp:124] Setting up SCNN_U_2/sum
I0313 11:45:35.809733 24715 net.cpp:131] Top shape: 1 64 1 80 (5120)
I0313 11:45:35.809736 24715 net.cpp:139] Memory required for data: 329728000
I0313 11:45:35.809738 24715 layer_factory.hpp:77] Creating layer Concat1
I0313 11:45:35.809746 24715 net.cpp:86] Creating Layer Concat1
I0313 11:45:35.809751 24715 net.cpp:408] Concat1 <- SCNN_U_1
I0313 11:45:35.809756 24715 net.cpp:408] Concat1 <- SCNN_U_2_SCNN_U_3/sum_0_split_1
I0313 11:45:35.809762 24715 net.cpp:408] Concat1 <- SCNN_U_3_SCNN_U_4/sum_0_split_1
…
I0313 11:45:35.810021 24715 net.cpp:408] Concat1 <- SCNN_U_55_SCNN_U_56/sum_0_split_1
I0313 11:45:35.810029 24715 net.cpp:408] Concat1 <- SCNN_U_56_SCNN_U_57/sum_0_split_1
I0313 11:45:35.810036 24715 net.cpp:408] Concat1 <- SCNN_U_57_SCNN_U_58/sum_0_split_1
I0313 11:45:35.810041 24715 net.cpp:408] Concat1 <- SCNN_U_58_SCNN_U_59/sum_0_split_1
I0313 11:45:35.810045 24715 net.cpp:408] Concat1 <- SCNN_U_59_SCNN_U_60/sum_0_split_1
I0313 11:45:35.810051 24715 net.cpp:408] Concat1 <- SCNN_D_60_SCNN_D_59/sum_0_split_1
I0313 11:45:35.810060 24715 net.cpp:382] Concat1 -> SCNN_U
I0313 11:45:35.810108 24715 net.cpp:124] Setting up Concat1
I0313 11:45:35.810117 24715 net.cpp:131] Top shape: 1 64 60 80 (307200)
I0313 11:45:35.810122 24715 net.cpp:139] Memory required for data: 330956800
I0313 11:45:35.810124 24715 layer_factory.hpp:77] Creating layer conv6
I0313 11:45:35.810133 24715 net.cpp:86] Creating Layer conv6
I0313 11:45:35.810139 24715 net.cpp:408] conv6 <- SCNN_U
I0313 11:45:35.810148 24715 net.cpp:382] conv6 -> conv6
I0313 11:45:35.811434 24715 net.cpp:124] Setting up conv6
I0313 11:45:35.811452 24715 net.cpp:131] Top shape: 1 64 60 80 (307200)
I0313 11:45:35.811457 24715 net.cpp:139] Memory required for data: 332185600
I0313 11:45:35.811467 24715 layer_factory.hpp:77] Creating layer deconv_out
I0313 11:45:35.811478 24715 net.cpp:86] Creating Layer deconv_out
I0313 11:45:35.811486 24715 net.cpp:408] deconv_out <- conv6
I0313 11:45:35.811496 24715 net.cpp:382] deconv_out -> deconv_out
I0313 11:45:35.816176 24715 net.cpp:124] Setting up deconv_out
I0313 11:45:35.816206 24715 net.cpp:131] Top shape: 1 32 480 640 (9830400)
I0313 11:45:35.816210 24715 net.cpp:139] Memory required for data: 371507200
I0313 11:45:35.816217 24715 layer_factory.hpp:77] Creating layer conv_out
I0313 11:45:35.816229 24715 net.cpp:86] Creating Layer conv_out
I0313 11:45:35.816241 24715 net.cpp:408] conv_out <- deconv_out
I0313 11:45:35.816252 24715 net.cpp:382] conv_out -> conv_out
I0313 11:45:35.819624 24715 net.cpp:124] Setting up conv_out
I0313 11:45:35.819648 24715 net.cpp:131] Top shape: 1 13 480 640 (3993600)
I0313 11:45:35.819651 24715 net.cpp:139] Memory required for data: 387481600
I0313 11:45:35.819658 24715 layer_factory.hpp:77] Creating layer softmax
I0313 11:45:35.819665 24715 net.cpp:86] Creating Layer softmax
I0313 11:45:35.819674 24715 net.cpp:408] softmax <- conv_out
I0313 11:45:35.819684 24715 net.cpp:382] softmax -> softmax
I0313 11:45:35.820014 24715 net.cpp:124] Setting up softmax
I0313 11:45:35.820025 24715 net.cpp:131] Top shape: 1 13 480 640 (3993600)
I0313 11:45:35.820029 24715 net.cpp:139] Memory required for data: 403456000
I0313 11:45:35.820031 24715 net.cpp:202] softmax does not need backward computation.
I0313 11:45:35.820035 24715 net.cpp:202] conv_out does not need backward computation.
I0313 11:45:35.820039 24715 net.cpp:202] deconv_out does not need backward computation.
I0313 11:45:35.820041 24715 net.cpp:202] conv6 does not need backward computation.
…
