…
I0313 11:41:13.223480 24450 common.cpp:197] Concurrent copy and execution: Yes
I0313 11:41:13.223484 24450 common.cpp:199] Number of multiprocessors:     10
I0313 11:41:13.223489 24450 common.cpp:200] Kernel execution timeout:      Yes
I0313 11:41:13.250000 24450 net.cpp:53] Initializing net from parameters: 
name: "darknet-16c-16x-3d multitask TEST 960x384, offset L3:440, L4: 312, RM DET"
state {
  phase: TEST
  level: 0
}
layer {
  name: "input"
  type: "Input"
  top: "data"
  input_param {
    shape {
      dim: 1
      dim: 3
      dim: 480
      dim: 640
    }
  }
}
layer {
  name: "scale_data_lane"
  type: "Power"
  bottom: "data"
  top: "scale_data_lane"
  propagate_down: false
  power_param {
    power: 1
    scale: 0.00392157
    shift: 0
  }
}
layer {
  name: "conv1"
  type: "Convolution"
  bottom: "scale_data_lane"
  top: "conv1"
  param {
    lr_mult: 1
    decay_mult: 1
  }
  convolution_param {
    num_output: 16
    bias_term: false
    pad: 1
    kernel_size: 3
    stride: 1
    weight_filler {
      type: "gaussian"
      std: 0.01
    }
    dilation: 1
  }
}
layer {
  name: "conv1_bn"
  type: "BatchNorm"
  bottom: "conv1"
  top: "conv1"
  batch_norm_param {
    use_global_stats: true
    eps: 1e-06
  }
}
layer {
  name: "conv1_scale"
  type: "Scale"
  bottom: "conv1"
  top: "conv1"
  param {
    lr_mult: 1
    decay_mult: 1
  }
  param {
    lr_mult: 1
    decay_mult: 1
  }
  scale_param {
    filler {
      type: "constant"
      value: 1
    }
    bias_term: true
  }
}
layer {
  name: "conv1_relu"
  type: "ReLU"
  bottom: "conv1"
  top: "conv1"
  relu_param {
    negative_slope: 0
  }
}
layer {
  name: "pool1"
  type: "Pooling"
  bottom: "conv1"
  top: "pool1"
  pooling_param {
    pool: MAX
    kernel_size: 2
    stride: 2
    pad: 0
  }
}
layer {
  name: "conv2"
  type: "Convolution"
  bottom: "pool1"
  top: "conv2"
  param {
    lr_mult: 1
    decay_mult: 1
  }
  convolution_param {
    num_output: 32
    bias_term: false
    pad: 1
    kernel_size: 3
    stride: 1
    weight_filler {
      type: "gaussian"
      std: 0.01
    }
    dilation: 1
  }
}
layer {
  name: "conv2_bn"
  type: "BatchNorm"
  bottom: "conv2"
  top: "conv2"
  batch_norm_param {
    use_global_stats: true
    eps: 1e-06
  }
}
layer {
  name: "conv2_scale"
  type: "Scale"
  bottom: "conv2"
  top: "conv2"
  param {
    lr_mult: 1
    decay_mult: 1
  }
  param {
    lr_mult: 1
    decay_mult: 1
  }
  scale_param {
    filler {
      type: "constant"
      value: 1
    }
    bias_term: true
  }
}
layer {
  name: "conv2_relu"
  type: "ReLU"
  bottom: "conv2"
  top: "conv2"
  relu_param {
    negative_slope: 0
  }
}
layer {
  name: "pool2"
  type: "Pooling"
  bottom: "conv2"
  top: "pool2"
  pooling_param {
    pool: MAX
    kernel_size: 2
    stride: 2
    pad: 0
  }
}
layer {
  name: "conv3_1"
  type: "Convolution"
  bottom: "pool2"
  top: "conv3_1"
  param {
    lr_mult: 1
    decay_mult: 1
  }
  convolution_param {
    num_output: 64
    bias_term: false
    pad: 1
    kernel_size: 3
    stride: 1
    weight_filler {
      type: "gaussian"
      std: 0.01
    }
    dilation: 1
  }
}
layer {
  name: "conv3_1_bn"
  type: "BatchNorm"
  bottom: "conv3_1"
  top: "conv3_1"
  batch_norm_param {
    use_global_stats: true
    eps: 1e-06
  }
}
layer {
  name: "conv3_1_scale"
  type: "Scale"
  bottom: "conv3_1"
  top: "conv3_1"
  param {
    lr_mult: 1
    decay_mult: 1
  }
  param {
    lr_mult: 1
    decay_mult: 1
  }
  scale_param {
    filler {
      type: "constant"
      value: 1
    }
    bias_term: true
  }
}
layer {
  name: "conv3_1_relu"
  type: "ReLU"
  bottom: "conv3_1"
  top: "conv3_1"
  relu_param {
    negative_slope: 0
  }
}
layer {
  name: "conv3_2"
  type: "Convolution"
  bottom: "conv3_1"
  top: "conv3_2"
  param {
    lr_mult: 1
    decay_mult: 1
  }
  convolution_param {
    num_output: 32
    bias_term: false
    pad: 0
    kernel_size: 1
    stride: 1
    weight_filler {
      type: "gaussian"
      std: 0.01
    }
    dilation: 1
  }
}
layer {
  name: "conv3_2_bn"
  type: "BatchNorm"
  bottom: "conv3_2"
  top: "conv3_2"
  batch_norm_param {
    use_global_stats: true
    eps: 1e-06
  }
}
layer {
  name: "conv3_2_scale"
  type: "Scale"
  bottom: "conv3_2"
  top: "conv3_2"
  param {
    lr_mult: 1
    decay_mult: 1
  }
  param {
    lr_mult: 1
    decay_mult: 1
  }
  scale_param {
    filler {
      type: "constant"
      value: 1
    }
    bias_term: true
  }
}
layer {
  name: "conv3_2_relu"
  type: "ReLU"
  bottom: "conv3_2"
  top: "conv3_2"
  relu_param {
    negative_slope: 0
  }
}
layer {
  name: "conv3_3"
  type: "Convolution"
  bottom: "conv3_2"
  top: "conv3_3"
  param {
    lr_mult: 1
    decay_mult: 1
  }
  convolution_param {
    num_output: 64
    bias_term: false
    pad: 1
    kernel_size: 3
    stride: 1
    weight_filler {
      type: "gaussian"
      std: 0.01
    }
    dilation: 1
  }
}
layer {
  name: "conv3_3_bn"
  type: "BatchNorm"
  bottom: "conv3_3"
  top: "conv3_3"
  batch_norm_param {
    use_global_stats: true
    eps: 1e-06
  }
}
layer {
  name: "conv3_3_scale"
  type: "Scale"
  bottom: "conv3_3"
  top: "conv3_3"
  param {
    lr_mult: 1
    decay_mult: 1
  }
  param {
    lr_mult: 1
    decay_mult: 1
  }
  scale_param {
    filler {
      type: "constant"
      value: 1
    }
    bias_term: true
  }
}
layer {
  name: "conv3_3_relu"
  type: "ReLU"
  bottom: "conv3_3"
  top: "conv3_3"
  relu_param {
    negative_slope: 0
  }
}
layer {
  name: "pool3"
  type: "Pooling"
  bottom: "conv3_3"
  top: "pool3"
  pooling_param {
    pool: MAX
    kernel_size: 2
    stride: 2
    pad: 0
  }
}
layer {
  name: "conv4_1"
  type: "Convolution"
  bottom: "pool3"
  top: "conv4_1"
  param {
    lr_mult: 1
    decay_mult: 1
  }
  convolution_param {
    num_output: 128
    bias_term: false
    pad: 1
    kernel_size: 3
    stride: 1
    weight_filler {
      type: "gaussian"
      std: 0.01
    }
    dilation: 1
  }
}
layer {
  name: "conv4_1_bn"
  type: "BatchNorm"
  bottom: "conv4_1"
  top: "conv4_1"
  batch_norm_param {
    use_global_stats: true
    eps: 1e-06
  }
}
layer {
  name: "conv4_1_scale"
  type: "Scale"
  bottom: "conv4_1"
  top: "conv4_1"
  param {
    lr_mult: 1
    decay_mult: 1
  }
  param {
    lr_mult: 1
    decay_mult: 1
  }
  scale_param {
    filler {
      type: "constant"
      value: 1
    }
    bias_term: true
  }
}
layer {
  name: "conv4_1_relu"
  type: "ReLU"
  bottom: "conv4_1"
  top: "conv4_1"
  relu_param {
    negative_slope: 0
  }
}
layer {
  name: "conv4_2"
  type: "Convolution"
  bottom: "conv4_1"
  top: "conv4_2"
  param {
    lr_mult: 1
    decay_mult: 1
  }
  convolution_param {
    num_output: 64
    bias_term: false
    pad: 0
    kernel_size: 1
    stride: 1
    weight_filler {
      type: "gaussian"
      std: 0.01
    }
    dilation: 1
  }
}
layer {
  name: "conv4_2_bn"
  type: "BatchNorm"
  bottom: "conv4_2"
  top: "conv4_2"
  batch_norm_param {
    use_global_stats: true
    eps: 1e-06
  }
}
layer {
  name: "conv4_2_scale"
  type: "Scale"
  bottom: "conv4_2"
  top: "conv4_2"
  param {
    lr_mult: 1
    decay_mult: 1
  }
  param {
    lr_mult: 1
    decay_mult: 1
  }
  scale_param {
    filler {
      type: "constant"
      value: 1
    }
    bias_term: true
  }
}
layer {
  name: "conv4_2_relu"
  type: "ReLU"
  bottom: "conv4_2"
  top: "conv4_2"
  relu_param {
    negative_slope: 0
  }
}
layer {
  name: "conv4_3"
  type: "Convolution"
  bottom: "conv4_2"
  top: "conv4_3"
  param {
    lr_mult: 1
    decay_mult: 1
  }
  convolution_param {
    num_output: 128
    bias_term: false
    pad: 1
    kernel_size: 3
    stride: 1
    weight_filler {
      type: "gaussian"
      std: 0.01
    }
    dilation: 1
  }
}
layer {
  name: "conv4_3_bn"
  type: "BatchNorm"
  bottom: "conv4_3"
  top: "conv4_3"
  batch_norm_param {
    use_global_stats: true
    eps: 1e-06
  }
}
layer {
  name: "conv4_3_scale"
  type: "Scale"
  bottom: "conv4_3"
  top: "conv4_3"
  param {
    lr_mult: 1
    decay_mult: 1
  }
  param {
    lr_mult: 1
    decay_mult: 1
  }
  scale_param {
    filler {
      type: "constant"
      value: 1
    }
    bias_term: true
  }
}
layer {
  name: "conv4_3_relu"
  type: "ReLU"
  bottom: "conv4_3"
  top: "conv4_3"
  relu_param {
    negative_slope: 0
  }
}
layer {
  name: "pool4"
  type: "Pooling"
  bottom: "conv4_3"
  top: "pool4"
  pooling_param {
    pool: MAX
    kernel_size: 2
    stride: 2
    pad: 0
  }
}
layer {
  name: "conv5_1"
  type: "Convolution"
  bottom: "pool4"
  top: "conv5_1"
  param {
    lr_mult: 1
    decay_mult: 1
  }
  convolution_param {
    num_output: 256
    bias_term: false
    pad: 1
    kernel_size: 3
    stride: 1
    weight_filler {
      type: "gaussian"
      std: 0.01
    }
    dilation: 1
  }
}
layer {
  name: "conv5_1_bn"
  type: "BatchNorm"
  bottom: "conv5_1"
  top: "conv5_1"
  batch_norm_param {
    use_global_stats: true
    eps: 1e-06
  }
}
layer {
  name: "conv5_1_scale"
  type: "Scale"
  bottom: "conv5_1"
  top: "conv5_1"
  param {
    lr_mult: 1
    decay_mult: 1
  }
  param {
    lr_mult: 1
    decay_mult: 1
  }
  scale_param {
    filler {
      type: "constant"
      value: 1
    }
    bias_term: true
  }
}
layer {
  name: "conv5_1_relu"
  type: "ReLU"
  bottom: "conv5_1"
  top: "conv5_1"
  relu_param {
    negative_slope: 0
  }
}
layer {
  name: "conv5_2"
  type: "Convolution"
  bottom: "conv5_1"
  top: "conv5_2"
  param {
    lr_mult: 1
    decay_mult: 1
  }
  convolution_param {
    num_output: 128
    bias_term: false
    pad: 0
    kernel_size: 1
    stride: 1
    weight_filler {
      type: "gaussian"
      std: 0.01
    }
    dilation: 1
  }
}
layer {
  name: "conv5_2_bn"
  type: "BatchNorm"
  bottom: "conv5_2"
  top: "conv5_2"
  batch_norm_param {
    use_global_stats: true
    eps: 1e-06
  }
}
layer {
  name: "conv5_2_scale"
  type: "Scale"
  bottom: "conv5_2"
  top: "conv5_2"
  param {
    lr_mult: 1
    decay_mult: 1
  }
  param {
    lr_mult: 1
    decay_mult: 1
  }
  scale_param {
    filler {
      type: "constant"
      value: 1
    }
    bias_term: true
  }
}
layer {
  name: "conv5_2_relu"
  type: "ReLU"
  bottom: "conv5_2"
  top: "conv5_2"
  relu_param {
    negative_slope: 0
  }
}
layer {
  name: "conv5_3"
  type: "Convolution"
  bottom: "conv5_2"
  top: "conv5_3"
  param {
    lr_mult: 1
    decay_mult: 1
  }
  convolution_param {
    num_output: 256
    bias_term: false
    pad: 1
    kernel_size: 3
    stride: 1
    weight_filler {
      type: "gaussian"
      std: 0.01
    }
    dilation: 1
  }
}
layer {
  name: "conv5_3_bn"
  type: "BatchNorm"
  bottom: "conv5_3"
  top: "conv5_3"
  batch_norm_param {
    use_global_stats: true
    eps: 1e-06
  }
}
layer {
  name: "conv5_3_scale"
  type: "Scale"
  bottom: "conv5_3"
  top: "conv5_3"
  param {
    lr_mult: 1
    decay_mult: 1
  }
  param {
    lr_mult: 1
    decay_mult: 1
  }
  scale_param {
    filler {
      type: "constant"
      value: 1
    }
    bias_term: true
  }
}
layer {
  name: "conv5_3_relu"
  type: "ReLU"
  bottom: "conv5_3"
  top: "conv5_3"
  relu_param {
    negative_slope: 0
  }
}
layer {
  name: "conv5_4"
  type: "Convolution"
  bottom: "conv5_3"
  top: "conv5_4"
  param {
    lr_mult: 1
    decay_mult: 1
  }
  convolution_param {
    num_output: 128
    bias_term: false
    pad: 0
    kernel_size: 1
    stride: 1
    weight_filler {
      type: "gaussian"
      std: 0.01
    }
    dilation: 1
  }
}
layer {
  name: "conv5_4_bn"
  type: "BatchNorm"
  bottom: "conv5_4"
  top: "conv5_4"
  batch_norm_param {
    use_global_stats: true
    eps: 1e-06
  }
}
layer {
  name: "conv5_4_scale"
  type: "Scale"
  bottom: "conv5_4"
  top: "conv5_4"
  param {
    lr_mult: 1
    decay_mult: 1
  }
  param {
    lr_mult: 1
    decay_mult: 1
  }
  scale_param {
    filler {
      type: "constant"
      value: 1
    }
    bias_term: true
  }
}
layer {
  name: "conv5_4_relu"
  type: "ReLU"
  bottom: "conv5_4"
  top: "conv5_4"
  relu_param {
    negative_slope: 0
  }
}
layer {
  name: "conv5_5"
  type: "Convolution"
  bottom: "conv5_4"
  top: "conv5_5"
  param {
    lr_mult: 1
    decay_mult: 1
  }
  convolution_param {
    num_output: 256
    bias_term: false
    pad: 1
    kernel_size: 3
    stride: 1
    weight_filler {
      type: "gaussian"
      std: 0.01
    }
    dilation: 1
  }
}
layer {
  name: "conv5_5_bn"
  type: "BatchNorm"
  bottom: "conv5_5"
  top: "conv5_5"
  batch_norm_param {
    use_global_stats: true
    eps: 1e-06
  }
}
layer {
  name: "conv5_5_scale"
  type: "Scale"
  bottom: "conv5_5"
  top: "conv5_5"
  param {
    lr_mult: 1
    decay_mult: 1
  }
  param {
    lr_mult: 1
    decay_mult: 1
  }
  scale_param {
    filler {
      type: "constant"
      value: 1
    }
    bias_term: true
  }
}
layer {
  name: "conv5_5_relu"
  type: "ReLU"
  bottom: "conv5_5"
  top: "conv5_5"
  relu_param {
    negative_slope: 0
  }
}
layer {
  name: "pool5"
  type: "Pooling"
  bottom: "conv5_5"
  top: "pool5"
  pooling_param {
    pool: MAX
    kernel_size: 3
    stride: 1
    pad: 1
  }
}
layer {
  name: "conv6_1"
  type: "Convolution"
  bottom: "pool5"
  top: "conv6_1"
  param {
    lr_mult: 1
    decay_mult: 1
  }
  convolution_param {
    num_output: 512
    bias_term: false
    pad: 2
    kernel_size: 3
    stride: 1
    weight_filler {
      type: "gaussian"
      std: 0.01
    }
    dilation: 2
  }
}
layer {
  name: "conv6_1_bn"
  type: "BatchNorm"
  bottom: "conv6_1"
  top: "conv6_1"
  batch_norm_param {
    use_global_stats: true
    eps: 1e-06
  }
}
layer {
  name: "conv6_1_scale"
  type: "Scale"
  bottom: "conv6_1"
  top: "conv6_1"
  param {
    lr_mult: 1
    decay_mult: 1
  }
  param {
    lr_mult: 1
    decay_mult: 1
  }
  scale_param {
    filler {
      type: "constant"
      value: 1
    }
    bias_term: true
  }
}
layer {
  name: "conv6_1_relu"
  type: "ReLU"
  bottom: "conv6_1"
  top: "conv6_1"
  relu_param {
    negative_slope: 0
  }
}
layer {
  name: "conv6_2"
  type: "Convolution"
  bottom: "conv6_1"
  top: "conv6_2"
  param {
    lr_mult: 1
    decay_mult: 1
  }
  convolution_param {
    num_output: 256
    bias_term: false
    pad: 0
    kernel_size: 1
    stride: 1
    weight_filler {
      type: "gaussian"
      std: 0.01
    }
    dilation: 1
  }
}
layer {
  name: "conv6_2_bn"
  type: "BatchNorm"
  bottom: "conv6_2"
  top: "conv6_2"
  batch_norm_param {
    use_global_stats: true
    eps: 1e-06
  }
}
layer {
  name: "conv6_2_scale"
  type: "Scale"
  bottom: "conv6_2"
  top: "conv6_2"
  param {
    lr_mult: 1
    decay_mult: 1
  }
  param {
    lr_mult: 1
    decay_mult: 1
  }
  scale_param {
    filler {
      type: "constant"
      value: 1
    }
    bias_term: true
  }
}
layer {
  name: "conv6_2_relu"
  type: "ReLU"
  bottom: "conv6_2"
  top: "conv6_2"
  relu_param {
    negative_slope: 0
  }
}
layer {
  name: "conv6_3"
  type: "Convolution"
  bottom: "conv6_2"
  top: "conv6_3"
  param {
    lr_mult: 1
    decay_mult: 1
  }
  convolution_param {
    num_output: 512
    bias_term: false
    pad: 1
    kernel_size: 3
    stride: 1
    weight_filler {
      type: "gaussian"
      std: 0.01
    }
    dilation: 1
  }
}
layer {
  name: "conv6_3_bn"
  type: "BatchNorm"
  bottom: "conv6_3"
  top: "conv6_3"
  batch_norm_param {
    use_global_stats: true
    eps: 1e-06
  }
}
layer {
  name: "conv6_3_scale"
  type: "Scale"
  bottom: "conv6_3"
  top: "conv6_3"
  param {
    lr_mult: 1
    decay_mult: 1
  }
  param {
    lr_mult: 1
    decay_mult: 1
  }
  scale_param {
    filler {
      type: "constant"
      value: 1
    }
    bias_term: true
  }
}
layer {
  name: "conv6_3_relu"
  type: "ReLU"
  bottom: "conv6_3"
  top: "conv6_3"
  relu_param {
    negative_slope: 0
  }
}
layer {
  name: "conv6_4"
  type: "Convolution"
  bottom: "conv6_3"
  top: "conv6_4"
  param {
    lr_mult: 1
    decay_mult: 1
  }
  convolution_param {
    num_output: 256
    bias_term: false
    pad: 0
    kernel_size: 1
    stride: 1
    weight_filler {
      type: "gaussian"
      std: 0.01
    }
    dilation: 1
  }
}
layer {
  name: "conv6_4_bn"
  type: "BatchNorm"
  bottom: "conv6_4"
  top: "conv6_4"
  batch_norm_param {
    use_global_stats: true
    eps: 1e-06
  }
}
layer {
  name: "conv6_4_scale"
  type: "Scale"
  bottom: "conv6_4"
  top: "conv6_4"
  param {
    lr_mult: 1
    decay_mult: 1
  }
  param {
    lr_mult: 1
    decay_mult: 1
  }
  scale_param {
    filler {
      type: "constant"
      value: 1
    }
    bias_term: true
  }
}
layer {
  name: "conv6_4_relu"
  type: "ReLU"
  bottom: "conv6_4"
  top: "conv6_4"
  relu_param {
    negative_slope: 0
  }
}
layer {
  name: "conv6_5"
  type: "Convolution"
  bottom: "conv6_4"
  top: "conv6_5"
  param {
    lr_mult: 1
    decay_mult: 1
  }
  convolution_param {
    num_output: 512
    bias_term: false
    pad: 1
    kernel_size: 3
    stride: 1
    weight_filler {
      type: "gaussian"
      std: 0.01
    }
    dilation: 1
  }
}
layer {
  name: "conv6_5_bn"
  type: "BatchNorm"
  bottom: "conv6_5"
  top: "conv6_5"
  batch_norm_param {
    use_global_stats: true
    eps: 1e-06
  }
}
layer {
  name: "conv6_5_scale"
  type: "Scale"
  bottom: "conv6_5"
  top: "conv6_5"
  param {
    lr_mult: 1
    decay_mult: 1
  }
  param {
    lr_mult: 1
    decay_mult: 1
  }
  scale_param {
    filler {
      type: "constant"
      value: 1
    }
    bias_term: true
  }
}
layer {
  name: "conv6_5_relu"
  type: "ReLU"
  bottom: "conv6_5"
  top: "conv6_5"
  relu_param {
    negative_slope: 0
  }
}
layer {
  name: "conv7_1"
  type: "Convolution"
  bottom: "conv6_5"
  top: "conv7_1"
  param {
    lr_mult: 1
    decay_mult: 1
  }
  convolution_param {
    num_output: 512
    bias_term: false
    pad: 1
    kernel_size: 3
    stride: 1
    weight_filler {
      type: "gaussian"
      std: 0.01
    }
    dilation: 1
  }
}
layer {
  name: "conv7_1_bn"
  type: "BatchNorm"
  bottom: "conv7_1"
  top: "conv7_1"
  batch_norm_param {
    use_global_stats: true
    eps: 1e-06
  }
}
layer {
  name: "conv7_1_scale"
  type: "Scale"
  bottom: "conv7_1"
  top: "conv7_1"
  param {
    lr_mult: 1
    decay_mult: 1
  }
  param {
    lr_mult: 1
    decay_mult: 1
  }
  scale_param {
    filler {
      type: "constant"
      value: 1
    }
    bias_term: true
  }
}
layer {
  name: "conv7_1_relu"
  type: "ReLU"
  bottom: "conv7_1"
  top: "conv7_1"
  relu_param {
    negative_slope: 0
  }
}
layer {
  name: "conv7_2"
  type: "Convolution"
  bottom: "conv7_1"
  top: "conv7_2"
  param {
    lr_mult: 1
    decay_mult: 1
  }
  convolution_param {
    num_output: 512
    bias_term: false
    pad: 1
    kernel_size: 3
    stride: 1
    weight_filler {
      type: "gaussian"
      std: 0.01
    }
    dilation: 1
  }
}
layer {
  name: "conv7_2_bn"
  type: "BatchNorm"
  bottom: "conv7_2"
  top: "conv7_2"
  batch_norm_param {
    use_global_stats: true
    eps: 1e-06
  }
}
layer {
  name: "conv7_2_scale"
  type: "Scale"
  bottom: "conv7_2"
  top: "conv7_2"
  param {
    lr_mult: 1
    decay_mult: 1
  }
  param {
    lr_mult: 1
    decay_mult: 1
  }
  scale_param {
    filler {
      type: "constant"
      value: 1
    }
    bias_term: true
  }
}
layer {
  name: "conv7_2_relu"
  type: "ReLU"
  bottom: "conv7_2"
  top: "conv7_2"
  relu_param {
    negative_slope: 0
  }
}
layer {
  name: "concat8"
  type: "Concat"
  bottom: "conv5_5"
  bottom: "conv7_2"
  top: "concat8"
  concat_param {
    axis: 1
  }
}
layer {
  name: "reduce1_lane"
  type: "Convolution"
  bottom: "concat8"
  top: "reduce1_lane"
  param {
    lr_mult: 1
    decay_mult: 1
  }
  convolution_param {
    num_output: 128
    bias_term: false
    pad: 1
    kernel_size: 3
    stride: 1
    weight_filler {
      type: "gaussian"
      std: 0.01
    }
  }
}
layer {
  name: "reduce1_lane_bn"
  type: "BatchNorm"
  bottom: "reduce1_lane"
  top: "reduce1_lane"
  batch_norm_param {
    use_global_stats: true
    eps: 1e-06
  }
}
layer {
  name: "reduce1_lane_scale"
  type: "Scale"
  bottom: "reduce1_lane"
  top: "reduce1_lane"
  scale_param {
    filler {
      type: "constant"
      value: 1
    }
    bias_term: true
  }
}
layer {
  name: "reduce1_lane_relu"
  type: "ReLU"
  bottom: "reduce1_lane"
  top: "reduce1_lane"
  relu_param {
    negative_slope: 0
  }
}
layer {
  name: "deconv1_lane"
  type: "Deconvolution"
  bottom: "reduce1_lane"
  top: "deconv1_lane"
  param {
    lr_mult: 1
    decay_mult: 1
  }
  convolution_param {
    num_output: 64
    pad: 0
    kernel_size: 2
    stride: 2
    weight_filler {
      type: "xavier"
    }
    bias_filler {
      type: "constant"
      value: 0
    }
  }
}
layer {
  name: "deconv1_lane_bn"
  type: "BatchNorm"
  bottom: "deconv1_lane"
  top: "deconv1_lane"
  batch_norm_param {
    use_global_stats: true
    eps: 1e-06
  }
}
layer {
  name: "deconv1_lane_scale"
  type: "Scale"
  bottom: "deconv1_lane"
  top: "deconv1_lane"
  scale_param {
    filler {
      type: "constant"
      value: 1
    }
    bias_term: true
  }
}
layer {
  name: "deconv1_lane_relu"
  type: "ReLU"
  bottom: "deconv1_lane"
  top: "deconv1_lane"
  relu_param {
    negative_slope: 0
  }
}
layer {
  name: "reorg4"
  type: "Convolution"
  bottom: "conv4_3"
  top: "reorg4"
  param {
    lr_mult: 1
    decay_mult: 1
  }
  convolution_param {
    num_output: 64
    bias_term: false
    pad: 1
    kernel_size: 3
    stride: 1
    weight_filler {
      type: "gaussian"
      std: 0.01
    }
  }
}
layer {
  name: "reorg4_relu"
  type: "ReLU"
  bottom: "reorg4"
  top: "reorg4"
  relu_param {
    negative_slope: 0
  }
}
layer {
  name: "concat4"
  type: "Concat"
  bottom: "reorg4"
  bottom: "deconv1_lane"
  top: "concat4"
  concat_param {
    axis: 1
  }
}
layer {
  name: "reduce2_lane"
  type: "Convolution"
  bottom: "concat4"
  top: "reduce2_lane"
  param {
    lr_mult: 1
    decay_mult: 1
  }
  convolution_param {
    num_output: 64
    bias_term: false
    pad: 1
    kernel_size: 3
    stride: 1
    weight_filler {
      type: "gaussian"
      std: 0.01
    }
  }
}
layer {
  name: "reduce2_lane_bn"
  type: "BatchNorm"
  bottom: "reduce2_lane"
  top: "reduce2_lane"
  batch_norm_param {
    use_global_stats: true
    eps: 1e-06
  }
}
layer {
  name: "reduce2_lane_scale"
  type: "Scale"
  bottom: "reduce2_lane"
  top: "reduce2_lane"
  scale_param {
    filler {
      type: "constant"
      value: 1
    }
    bias_term: true
  }
}
layer {
  name: "reduce2_lane_relu"
  type: "ReLU"
  bottom: "reduce2_lane"
  top: "reduce2_lane"
  relu_param {
    negative_slope: 0
  }
}
layer {
  name: "Slice1"
  type: "Slice"
  bottom: "reduce2_lane"
  top: "slice1_1"
  top: "slice1_2"
  top: "slice1_3"
  top: "slice1_4"
  top: "slice1_5"
  top: "slice1_6"
  top: "slice1_7"
  top: "slice1_8"
  top: "slice1_9"
  top: "slice1_10"
  top: "slice1_11"
  top: "slice1_12"
  top: "slice1_13"
  top: "slice1_14"
  top: "slice1_15"
  top: "slice1_16"
  top: "slice1_17"
  top: "slice1_18"
  top: "slice1_19"
  top: "slice1_20"
  top: "slice1_21"
…
    slice_point: 33
    slice_point: 34
    slice_point: 35
    slice_point: 36
    slice_point: 37
    slice_point: 38
    slice_point: 39
    slice_point: 40
    slice_point: 41
    slice_point: 42
    slice_point: 43
    slice_point: 44
    slice_point: 45
    slice_point: 46
    slice_point: 47
    slice_point: 48
    slice_point: 49
    slice_point: 50
    slice_point: 51
    slice_point: 52
    slice_point: 53
    slice_point: 54
    slice_point: 55
    slice_point: 56
    slice_point: 57
    slice_point: 58
    slice_point: 59
    axis: 2
  }
}
layer {
  name: "SCNN_D_1"
  type: "Convolution"
  bottom: "slice1_1"
  top: "SCNN_D_1/message"
  param {
    name: "SCNN_D_w"
    lr_mult: 1
    decay_mult: 1
  }
  convolution_param {
    num_output: 64
    bias_term: false
    stride: 1
    weight_filler {
      type: "gaussian"
      std: 0.03536
    }
    pad_h: 0
    pad_w: 2
    kernel_h: 1
    kernel_w: 5
  }
}
layer {
  name: "SCNN_D_1/relu"
  type: "ReLU"
  bottom: "SCNN_D_1/message"
  top: "SCNN_D_1/message"
}
layer {
  name: "SCNN_D_1/sum"
  type: "Eltwise"
  bottom: "SCNN_D_1/message"
  bottom: "slice1_2"
  top: "SCNN_D_2"
  eltwise_param {
    operation: SUM
  }
}
layer {
  name: "SCNN_D_2"
  type: "Convolution"
  bottom: "SCNN_D_2"
  top: "SCNN_D_2/message"
  param {
    name: "SCNN_D_w"
    lr_mult: 1
    decay_mult: 1
  }
  convolution_param {
    num_output: 64
    bias_term: false
    stride: 1
    weight_filler {
      type: "gaussian"
      std: 0.03536
    }
    pad_h: 0
    pad_w: 2
    kernel_h: 1
    kernel_w: 5
  }
}
layer {
  name: "SCNN_D_2/relu"
  type: "ReLU"
  bottom: "SCNN_D_2/message"
  top: "SCNN_D_2/message"
}
layer {
  name: "SCNN_D_2/sum"
  type: "Eltwise"
  bottom: "SCNN_D_2/message"
  bottom: "slice1_3"
  top: "SCNN_D_3"
  eltwise_param {
    operation: SUM
  }
}
layer {
  name: "SCNN_D_3"
  type: "Convolution"
  bottom: "SCNN_D_3"
  top: "SCNN_D_3/message"
  param {
    name: "SCNN_D_w"
    lr_mult: 1
    decay_mult: 1
  }
  convolution_param {
    num_output: 64
    bias_term: false
    stride: 1
    weight_filler {
      type: "gaussian"
      std: 0.03536
    }
    pad_h: 0
    pad_w: 2
    kernel_h: 1
    kernel_w: 5
  }
}
layer {
  name: "SCNN_D_3/relu"
  type: "ReLU"
  bottom: "SCNN_D_3/message"
  top: "SCNN_D_3/message"
}
layer {
  name: "SCNN_D_3/sum"
  type: "Eltwise"
  bottom: "SCNN_D_3/message"
  bottom: "slice1_4"
  top: "SCNN_D_4"
  eltwise_param {
    operation: SUM
  }
}
layer {
  name: "SCNN_D_4"
  type: "Convolution"
  bottom: "SCNN_D_4"
  top: "SCNN_D_4/message"
  param {
    name: "SCNN_D_w"
    lr_mult: 1
    decay_mult: 1
  }
  convolution_param {
    num_output: 64
    bias_term: false
    stride: 1
    weight_filler {
      type: "gaussian"
      std: 0.03536
    }
    pad_h: 0
    pad_w: 2
    kernel_h: 1
    kernel_w: 5
  }
}
layer {
  name: "SCNN_D_4/relu"
  type: "ReLU"
  bottom: "SCNN_D_4/message"
  top: "SCNN_D_4/message"
}
layer {
  name: "SCNN_D_4/sum"
  type: "Eltwise"
  bottom: "SCNN_D_4/message"
  bottom: "slice1_5"
  top: "SCNN_D_5"
  eltwise_param {
    operation: SUM
  }
}
layer {
  name: "SCNN_D_5"
  type: "Convolution"
  bottom: "SCNN_D_5"
  top: "SCNN_D_5/message"
  param {
    name: "SCNN_D_w"
    lr_mult: 1
    decay_mult: 1
  }
  convolution_param {
    num_output: 64
    bias_term: false
    stride: 1
    weight_filler {
      type: "gaussian"
      std: 0.03536
    }
    pad_h: 0
    pad_w: 2
    kernel_h: 1
    kernel_w: 5
  }
}
layer {
  name: "SCNN_D_5/relu"
  type: "ReLU"
  bottom: "SCNN_D_5/message"
  top: "SCNN_D_5/message"
}
layer {
  name: "SCNN_D_5/sum"
  type: "Eltwise"
  bottom: "SCNN_D_5/message"
  bottom: "slice1_6"
  top: "SCNN_D_6"
  eltwise_param {
    operation: SUM
  }
}
layer {
  name: "SCNN_D_6"
  type: "Convolution"
  bottom: "SCNN_D_6"
  top: "SCNN_D_6/message"
  param {
    name: "SCNN_D_w"
    lr_mult: 1
    decay_mult: 1
  }
  convolution_param {
    num_output: 64
    bias_term: false
    stride: 1
    weight_filler {
      type: "gaussian"
      std: 0.03536
    }
    pad_h: 0
    pad_w: 2
    kernel_h: 1
    kernel_w: 5
  }
}
layer {
  name: "SCNN_D_6/relu"
  type: "ReLU"
  bottom: "SCNN_D_6/message"
  top: "SCNN_D_6/message"
}
layer {
  name: "SCNN_D_6/sum"
  type: "Eltwise"
  bottom: "SCNN_D_6/message"
  bottom: "slice1_7"
  top: "SCNN_D_7"
  eltwise_param {
    operation: SUM
  }
}
layer {
  name: "SCNN_D_7"
  type: "Convolution"
  bottom: "SCNN_D_7"
  top: "SCNN_D_7/message"
  param {
    name: "SCNN_D_w"
    lr_mult: 1
    decay_mult: 1
  }
  convolution_param {
    num_output: 64
    bias_term: false
    stride: 1
    weight_filler {
      type: "gaussian"
      std: 0.03536
    }
    pad_h: 0
    pad_w: 2
    kernel_h: 1
    kernel_w: 5
  }
}
layer {
  name: "SCNN_D_7/relu"
  type: "ReLU"
  bottom: "SCNN_D_7/message"
  top: "SCNN_D_7/message"
}
layer {
  name: "SCNN_D_7/sum"
  type: "Eltwise"
  bottom: "SCNN_D_7/message"
  bottom: "slice1_8"
  top: "SCNN_D_8"
  eltwise_param {
    operation: SUM
  }
}
layer {
  name: "SCNN_D_8"
  type: "Convolution"
  bottom: "SCNN_D_8"
  top: "SCNN_D_8/message"
  param {
    name: "SCNN_D_w"
    lr_mult: 1
    decay_mult: 1
  }
  convolution_param {
    num_output: 64
    bias_term: false
    stride: 1
    weight_filler {
      type: "gaussian"
      std: 0.03536
    }
    pad_h: 0
    pad_w: 2
    kernel_h: 1
    kernel_w: 5
  }
}
layer {
  name: "SCNN_D_8/relu"
  type: "ReLU"
  bottom: "SCNN_D_8/message"
  top: "SCNN_D_8/message"
}
layer {
  name: "SCNN_D_8/sum"
  type: "Eltwise"
  bottom: "SCNN_D_8/message"
  bottom: "slice1_9"
  top: "SCNN_D_9"
  eltwise_param {
    operation: SUM
  }
}
layer {
  name: "SCNN_D_9"
  type: "Convolution"
  bottom: "SCNN_D_9"
  top: "SCNN_D_9/message"
  param {
    name: "SCNN_D_w"
    lr_mult: 1
    decay_mult: 1
  }
  convolution_param {
    num_output: 64
    bias_term: false
    stride: 1
    weight_filler {
      type: "gaussian"
      std: 0.03536
    }
    pad_h: 
I0313 11:41:13.252908 24450 layer_factory.hpp:77] Creating layer input
I0313 11:41:13.252995 24450 net.cpp:86] Creating Layer input
I0313 11:41:13.253036 24450 net.cpp:382] input -> data
I0313 11:41:13.253334 24450 net.cpp:124] Setting up input
I0313 11:41:13.253391 24450 net.cpp:131] Top shape: 1 3 480 640 (921600)
I0313 11:41:13.253399 24450 net.cpp:139] Memory required for data: 3686400
I0313 11:41:13.253429 24450 layer_factory.hpp:77] Creating layer scale_data_lane
I0313 11:41:13.253459 24450 net.cpp:86] Creating Layer scale_data_lane
I0313 11:41:13.253490 24450 net.cpp:408] scale_data_lane <- data
I0313 11:41:13.253528 24450 net.cpp:382] scale_data_lane -> scale_data_lane
I0313 11:41:13.253618 24450 net.cpp:124] Setting up scale_data_lane
I0313 11:41:13.253635 24450 net.cpp:131] Top shape: 1 3 480 640 (921600)
I0313 11:41:13.253643 24450 net.cpp:139] Memory required for data: 7372800
I0313 11:41:13.253649 24450 layer_factory.hpp:77] Creating layer conv1
I0313 11:41:13.253736 24450 net.cpp:86] Creating Layer conv1
I0313 11:41:13.253748 24450 net.cpp:408] conv1 <- scale_data_lane
I0313 11:41:13.253763 24450 net.cpp:382] conv1 -> conv1
I0313 11:41:13.256841 24450 net.cpp:124] Setting up conv1
I0313 11:41:13.256881 24450 net.cpp:131] Top shape: 1 16 480 640 (4915200)
I0313 11:41:13.256891 24450 net.cpp:139] Memory required for data: 27033600
I0313 11:41:13.256968 24450 layer_factory.hpp:77] Creating layer conv1_bn
I0313 11:41:13.257004 24450 net.cpp:86] Creating Layer conv1_bn
I0313 11:41:13.257019 24450 net.cpp:408] conv1_bn <- conv1
I0313 11:41:13.257033 24450 net.cpp:369] conv1_bn -> conv1 (in-place)
I0313 11:41:13.258157 24450 net.cpp:124] Setting up conv1_bn
I0313 11:41:13.258174 24450 net.cpp:131] Top shape: 1 16 480 640 (4915200)
I0313 11:41:13.258180 24450 net.cpp:139] Memory required for data: 46694400
I0313 11:41:13.258203 24450 layer_factory.hpp:77] Creating layer conv1_scale
I0313 11:41:13.258237 24450 net.cpp:86] Creating Layer conv1_scale
I0313 11:41:13.258250 24450 net.cpp:408] conv1_scale <- conv1
I0313 11:41:13.258267 24450 net.cpp:369] conv1_scale -> conv1 (in-place)
I0313 11:41:13.258376 24450 layer_factory.hpp:77] Creating layer conv1_scale
I0313 11:41:13.260315 24450 net.cpp:124] Setting up conv1_scale
I0313 11:41:13.260339 24450 net.cpp:131] Top shape: 1 16 480 640 (4915200)
I0313 11:41:13.260345 24450 net.cpp:139] Memory required for data: 66355200
I0313 11:41:13.260372 24450 layer_factory.hpp:77] Creating layer conv1_relu
I0313 11:41:13.260422 24450 net.cpp:86] Creating Layer conv1_relu
I0313 11:41:13.260438 24450 net.cpp:408] conv1_relu <- conv1
I0313 11:41:13.260454 24450 net.cpp:369] conv1_relu -> conv1 (in-place)
I0313 11:41:13.260772 24450 net.cpp:124] Setting up conv1_relu
I0313 11:41:13.260787 24450 net.cpp:131] Top shape: 1 16 480 640 (4915200)
I0313 11:41:13.260792 24450 net.cpp:139] Memory required for data: 86016000
I0313 11:41:13.260800 24450 layer_factory.hpp:77] Creating layer pool1
I0313 11:41:13.260838 24450 net.cpp:86] Creating Layer pool1
I0313 11:41:13.260848 24450 net.cpp:408] pool1 <- conv1
I0313 11:41:13.260864 24450 net.cpp:382] pool1 -> pool1
I0313 11:41:13.260984 24450 net.cpp:124] Setting up pool1
I0313 11:41:13.261014 24450 net.cpp:131] Top shape: 1 16 240 320 (1228800)
I0313 11:41:13.261021 24450 net.cpp:139] Memory required for data: 90931200
I0313 11:41:13.261029 24450 layer_factory.hpp:77] Creating layer conv2
I0313 11:41:13.261046 24450 net.cpp:86] Creating Layer conv2
I0313 11:41:13.261055 24450 net.cpp:408] conv2 <- pool1
I0313 11:41:13.261070 24450 net.cpp:382] conv2 -> conv2
I0313 11:41:13.263002 24450 net.cpp:124] Setting up conv2
I0313 11:41:13.263037 24450 net.cpp:131] Top shape: 1 32 240 320 (2457600)
I0313 11:41:13.263046 24450 net.cpp:139] Memory required for data: 100761600
I0313 11:41:13.263058 24450 layer_factory.hpp:77] Creating layer conv2_bn
I0313 11:41:13.263074 24450 net.cpp:86] Creating Layer conv2_bn
I0313 11:41:13.263085 24450 net.cpp:408] conv2_bn <- conv2
I0313 11:41:13.263101 24450 net.cpp:369] conv2_bn -> conv2 (in-place)
I0313 11:41:13.263346 24450 net.cpp:124] Setting up conv2_bn
I0313 11:41:13.263360 24450 net.cpp:131] Top shape: 1 32 240 320 (2457600)
I0313 11:41:13.263367 24450 net.cpp:139] Memory required for data: 110592000
I0313 11:41:13.263387 24450 layer_factory.hpp:77] Creating layer conv2_scale
I0313 11:41:13.263399 24450 net.cpp:86] Creating Layer conv2_scale
I0313 11:41:13.263408 24450 net.cpp:408] conv2_scale <- conv2
I0313 11:41:13.263420 24450 net.cpp:369] conv2_scale -> conv2 (in-place)
I0313 11:41:13.263473 24450 layer_factory.hpp:77] Creating layer conv2_scale
I0313 11:41:13.263684 24450 net.cpp:124] Setting up conv2_scale
I0313 11:41:13.263696 24450 net.cpp:131] Top shape: 1 32 240 320 (2457600)
I0313 11:41:13.263705 24450 net.cpp:139] Memory required for data: 120422400
I0313 11:41:13.263717 24450 layer_factory.hpp:77] Creating layer conv2_relu
I0313 11:41:13.263729 24450 net.cpp:86] Creating Layer conv2_relu
I0313 11:41:13.263738 24450 net.cpp:408] conv2_relu <- conv2
I0313 11:41:13.263751 24450 net.cpp:369] conv2_relu -> conv2 (in-place)
I0313 11:41:13.264200 24450 net.cpp:124] Setting up conv2_relu
I0313 11:41:13.264219 24450 net.cpp:131] Top shape: 1 32 240 320 (2457600)
I0313 11:41:13.264227 24450 net.cpp:139] Memory required for data: 130252800
I0313 11:41:13.264235 24450 layer_factory.hpp:77] Creating layer pool2
I0313 11:41:13.264248 24450 net.cpp:86] Creating Layer pool2
I0313 11:41:13.264257 24450 net.cpp:408] pool2 <- conv2
I0313 11:41:13.264271 24450 net.cpp:382] pool2 -> pool2
I0313 11:41:13.264331 24450 net.cpp:124] Setting up pool2
I0313 11:41:13.264348 24450 net.cpp:131] Top shape: 1 32 120 160 (614400)
I0313 11:41:13.264354 24450 net.cpp:139] Memory required for data: 132710400
I0313 11:41:13.264362 24450 layer_factory.hpp:77] Creating layer conv3_1
I0313 11:41:13.264379 24450 net.cpp:86] Creating Layer conv3_1
I0313 11:41:13.264389 24450 net.cpp:408] conv3_1 <- pool2
I0313 11:41:13.264405 24450 net.cpp:382] conv3_1 -> conv3_1
I0313 11:41:13.267932 24450 net.cpp:124] Setting up conv3_1
I0313 11:41:13.267972 24450 net.cpp:131] Top shape: 1 64 120 160 (1228800)
I0313 11:41:13.267982 24450 net.cpp:139] Memory required for data: 137625600
I0313 11:41:13.267997 24450 layer_factory.hpp:77] Creating layer conv3_1_bn
I0313 11:41:13.268013 24450 net.cpp:86] Creating Layer conv3_1_bn
I0313 11:41:13.268028 24450 net.cpp:408] conv3_1_bn <- conv3_1
I0313 11:41:13.268046 24450 net.cpp:369] conv3_1_bn -> conv3_1 (in-place)
I0313 11:41:13.268266 24450 net.cpp:124] Setting up conv3_1_bn
I0313 11:41:13.268277 24450 net.cpp:131] Top shape: 1 64 120 160 (1228800)
I0313 11:41:13.268282 24450 net.cpp:139] Memory required for data: 142540800
I0313 11:41:13.268298 24450 layer_factory.hpp:77] Creating layer conv3_1_scale
I0313 11:41:13.268312 24450 net.cpp:86] Creating Layer conv3_1_scale
I0313 11:41:13.268321 24450 net.cpp:408] conv3_1_scale <- conv3_1
I0313 11:41:13.268334 24450 net.cpp:369] conv3_1_scale -> conv3_1 (in-place)
I0313 11:41:13.268385 24450 layer_factory.hpp:77] Creating layer conv3_1_scale
I0313 11:41:13.268532 24450 net.cpp:124] Setting up conv3_1_scale
I0313 11:41:13.268544 24450 net.cpp:131] Top shape: 1 64 120 160 (1228800)
I0313 11:41:13.268551 24450 net.cpp:139] Memory required for data: 147456000
I0313 11:41:13.268569 24450 layer_factory.hpp:77] Creating layer conv3_1_relu
I0313 11:41:13.268581 24450 net.cpp:86] Creating Layer conv3_1_relu
I0313 11:41:13.268589 24450 net.cpp:408] conv3_1_relu <- conv3_1
I0313 11:41:13.268601 24450 net.cpp:369] conv3_1_relu -> conv3_1 (in-place)
I0313 11:41:13.269037 24450 net.cpp:124] Setting up conv3_1_relu
I0313 11:41:13.269052 24450 net.cpp:131] Top shape: 1 64 120 160 (1228800)
I0313 11:41:13.269058 24450 net.cpp:139] Memory required for data: 152371200
I0313 11:41:13.269065 24450 layer_factory.hpp:77] Creating layer conv3_2
I0313 11:41:13.269088 24450 net.cpp:86] Creating Layer conv3_2
I0313 11:41:13.269098 24450 net.cpp:408] conv3_2 <- conv3_1
I0313 11:41:13.269114 24450 net.cpp:382] conv3_2 -> conv3_2
I0313 11:41:13.270946 24450 net.cpp:124] Setting up conv3_2
I0313 11:41:13.270978 24450 net.cpp:131] Top shape: 1 32 120 160 (614400)
I0313 11:41:13.270987 24450 net.cpp:139] Memory required for data: 154828800
I0313 11:41:13.270998 24450 layer_factory.hpp:77] Creating layer conv3_2_bn
I0313 11:41:13.271010 24450 net.cpp:86] Creating Layer conv3_2_bn
I0313 11:41:13.271023 24450 net.cpp:408] conv3_2_bn <- conv3_2
I0313 11:41:13.271037 24450 net.cpp:369] conv3_2_bn -> conv3_2 (in-place)
I0313 11:41:13.271265 24450 net.cpp:124] Setting up conv3_2_bn
I0313 11:41:13.271277 24450 net.cpp:131] Top shape: 1 32 120 160 (614400)
I0313 11:41:13.271284 24450 net.cpp:139] Memory required for data: 157286400
I0313 11:41:13.271301 24450 layer_factory.hpp:77] Creating layer conv3_2_scale
I0313 11:41:13.271311 24450 net.cpp:86] Creating Layer conv3_2_scale
I0313 11:41:13.271320 24450 net.cpp:408] conv3_2_scale <- conv3_2
I0313 11:41:13.271332 24450 net.cpp:369] conv3_2_scale -> conv3_2 (in-place)
I0313 11:41:13.271385 24450 layer_factory.hpp:77] Creating layer conv3_2_scale
I0313 11:41:13.271530 24450 net.cpp:124] Setting up conv3_2_scale
I0313 11:41:13.271543 24450 net.cpp:131] Top shape: 1 32 120 160 (614400)
I0313 11:41:13.271550 24450 net.cpp:139] Memory required for data: 159744000
I0313 11:41:13.271562 24450 layer_factory.hpp:77] Creating layer conv3_2_relu
I0313 11:41:13.271580 24450 net.cpp:86] Creating Layer conv3_2_relu
I0313 11:41:13.271592 24450 net.cpp:408] conv3_2_relu <- conv3_2
I0313 11:41:13.271603 24450 net.cpp:369] conv3_2_relu -> conv3_2 (in-place)
I0313 11:41:13.271781 24450 net.cpp:124] Setting up conv3_2_relu
I0313 11:41:13.271795 24450 net.cpp:131] Top shape: 1 32 120 160 (614400)
I0313 11:41:13.271800 24450 net.cpp:139] Memory required for data: 162201600
I0313 11:41:13.271807 24450 layer_factory.hpp:77] Creating layer conv3_3
I0313 11:41:13.271824 24450 net.cpp:86] Creating Layer conv3_3
I0313 11:41:13.271833 24450 net.cpp:408] conv3_3 <- conv3_2
I0313 11:41:13.271849 24450 net.cpp:382] conv3_3 -> conv3_3
I0313 11:41:13.273308 24450 net.cpp:124] Setting up conv3_3
I0313 11:41:13.273337 24450 net.cpp:131] Top shape: 1 64 120 160 (1228800)
I0313 11:41:13.273346 24450 net.cpp:139] Memory required for data: 167116800
I0313 11:41:13.273355 24450 layer_factory.hpp:77] Creating layer conv3_3_bn
I0313 11:41:13.273367 24450 net.cpp:86] Creating Layer conv3_3_bn
I0313 11:41:13.273380 24450 net.cpp:408] conv3_3_bn <- conv3_3
I0313 11:41:13.273393 24450 net.cpp:369] conv3_3_bn -> conv3_3 (in-place)
I0313 11:41:13.273614 24450 net.cpp:124] Setting up conv3_3_bn
I0313 11:41:13.273627 24450 net.cpp:131] Top shape: 1 64 120 160 (1228800)
I0313 11:41:13.273640 24450 net.cpp:139] Memory required for data: 172032000
I0313 11:41:13.273656 24450 layer_factory.hpp:77] Creating layer conv3_3_scale
I0313 11:41:13.273669 24450 net.cpp:86] Creating Layer conv3_3_scale
I0313 11:41:13.273679 24450 net.cpp:408] conv3_3_scale <- conv3_3
I0313 11:41:13.273691 24450 net.cpp:369] conv3_3_scale -> conv3_3 (in-place)
I0313 11:41:13.273741 24450 layer_factory.hpp:77] Creating layer conv3_3_scale
I0313 11:41:13.273882 24450 net.cpp:124] Setting up conv3_3_scale
I0313 11:41:13.273895 24450 net.cpp:131] Top shape: 1 64 120 160 (1228800)
I0313 11:41:13.273901 24450 net.cpp:139] Memory required for data: 176947200
I0313 11:41:13.273912 24450 layer_factory.hpp:77] Creating layer conv3_3_relu
I0313 11:41:13.273924 24450 net.cpp:86] Creating Layer conv3_3_relu
I0313 11:41:13.273933 24450 net.cpp:408] conv3_3_relu <- conv3_3
I0313 11:41:13.273946 24450 net.cpp:369] conv3_3_relu -> conv3_3 (in-place)
I0313 11:41:13.274117 24450 net.cpp:124] Setting up conv3_3_relu
I0313 11:41:13.274132 24450 net.cpp:131] Top shape: 1 64 120 160 (1228800)
I0313 11:41:13.274147 24450 net.cpp:139] Memory required for data: 181862400
I0313 11:41:13.274154 24450 layer_factory.hpp:77] Creating layer pool3
I0313 11:41:13.274168 24450 net.cpp:86] Creating Layer pool3
I0313 11:41:13.274178 24450 net.cpp:408] pool3 <- conv3_3
I0313 11:41:13.274189 24450 net.cpp:382] pool3 -> pool3
I0313 11:41:13.274246 24450 net.cpp:124] Setting up pool3
I0313 11:41:13.274261 24450 net.cpp:131] Top shape: 1 64 60 80 (307200)
I0313 11:41:13.274269 24450 net.cpp:139] Memory required for data: 183091200
I0313 11:41:13.274276 24450 layer_factory.hpp:77] Creating layer conv4_1
I0313 11:41:13.274292 24450 net.cpp:86] Creating Layer conv4_1
I0313 11:41:13.274302 24450 net.cpp:408] conv4_1 <- pool3
I0313 11:41:13.274317 24450 net.cpp:382] conv4_1 -> conv4_1
I0313 11:41:13.278699 24450 net.cpp:124] Setting up conv4_1
I0313 11:41:13.278740 24450 net.cpp:131] Top shape: 1 128 60 80 (614400)
I0313 11:41:13.278750 24450 net.cpp:139] Memory required for data: 185548800
I0313 11:41:13.278765 24450 layer_factory.hpp:77] Creating layer conv4_1_bn
I0313 11:41:13.278781 24450 net.cpp:86] Creating Layer conv4_1_bn
I0313 11:41:13.278796 24450 net.cpp:408] conv4_1_bn <- conv4_1
I0313 11:41:13.278815 24450 net.cpp:369] conv4_1_bn -> conv4_1 (in-place)
I0313 11:41:13.279028 24450 net.cpp:124] Setting up conv4_1_bn
I0313 11:41:13.279039 24450 net.cpp:131] Top shape: 1 128 60 80 (614400)
I0313 11:41:13.279045 24450 net.cpp:139] Memory required for data: 188006400
I0313 11:41:13.279070 24450 layer_factory.hpp:77] Creating layer conv4_1_scale
I0313 11:41:13.279083 24450 net.cpp:86] Creating Layer conv4_1_scale
I0313 11:41:13.279093 24450 net.cpp:408] conv4_1_scale <- conv4_1
I0313 11:41:13.279106 24450 net.cpp:369] conv4_1_scale -> conv4_1 (in-place)
I0313 11:41:13.279170 24450 layer_factory.hpp:77] Creating layer conv4_1_scale
I0313 11:41:13.279309 24450 net.cpp:124] Setting up conv4_1_scale
I0313 11:41:13.279320 24450 net.cpp:131] Top shape: 1 128 60 80 (614400)
I0313 11:41:13.279327 24450 net.cpp:139] Memory required for data: 190464000
I0313 11:41:13.279338 24450 layer_factory.hpp:77] Creating layer conv4_1_relu
I0313 11:41:13.279350 24450 net.cpp:86] Creating Layer conv4_1_relu
I0313 11:41:13.279358 24450 net.cpp:408] conv4_1_relu <- conv4_1
I0313 11:41:13.279371 24450 net.cpp:369] conv4_1_relu -> conv4_1 (in-place)
I0313 11:41:13.279561 24450 net.cpp:124] Setting up conv4_1_relu
I0313 11:41:13.279584 24450 net.cpp:131] Top shape: 1 128 60 80 (614400)
I0313 11:41:13.279592 24450 net.cpp:139] Memory required for data: 192921600
I0313 11:41:13.279600 24450 layer_factory.hpp:77] Creating layer conv4_2
I0313 11:41:13.279618 24450 net.cpp:86] Creating Layer conv4_2
I0313 11:41:13.279628 24450 net.cpp:408] conv4_2 <- conv4_1
I0313 11:41:13.279644 24450 net.cpp:382] conv4_2 -> conv4_2
I0313 11:41:13.280850 24450 net.cpp:124] Setting up conv4_2
I0313 11:41:13.280874 24450 net.cpp:131] Top shape: 1 64 60 80 (307200)
I0313 11:41:13.280884 24450 net.cpp:139] Memory required for data: 194150400
I0313 11:41:13.280894 24450 layer_factory.hpp:77] Creating layer conv4_2_bn
I0313 11:41:13.280907 24450 net.cpp:86] Creating Layer conv4_2_bn
I0313 11:41:13.280918 24450 net.cpp:408] conv4_2_bn <- conv4_2
I0313 11:41:13.280933 24450 net.cpp:369] conv4_2_bn -> conv4_2 (in-place)
I0313 11:41:13.281145 24450 net.cpp:124] Setting up conv4_2_bn
I0313 11:41:13.281157 24450 net.cpp:131] Top shape: 1 64 60 80 (307200)
I0313 11:41:13.281162 24450 net.cpp:139] Memory required for data: 195379200
I0313 11:41:13.281178 24450 layer_factory.hpp:77] Creating layer conv4_2_scale
I0313 11:41:13.281188 24450 net.cpp:86] Creating Layer conv4_2_scale
I0313 11:41:13.281198 24450 net.cpp:408] conv4_2_scale <- conv4_2
I0313 11:41:13.281210 24450 net.cpp:369] conv4_2_scale -> conv4_2 (in-place)
I0313 11:41:13.281261 24450 layer_factory.hpp:77] Creating layer conv4_2_scale
I0313 11:41:13.281401 24450 net.cpp:124] Setting up conv4_2_scale
I0313 11:41:13.281412 24450 net.cpp:131] Top shape: 1 64 60 80 (307200)
I0313 11:41:13.281427 24450 net.cpp:139] Memory required for data: 196608000
I0313 11:41:13.281440 24450 layer_factory.hpp:77] Creating layer conv4_2_relu
I0313 11:41:13.281455 24450 net.cpp:86] Creating Layer conv4_2_relu
I0313 11:41:13.281464 24450 net.cpp:408] conv4_2_relu <- conv4_2
I0313 11:41:13.281479 24450 net.cpp:369] conv4_2_relu -> conv4_2 (in-place)
I0313 11:41:13.281919 24450 net.cpp:124] Setting up conv4_2_relu
I0313 11:41:13.281936 24450 net.cpp:131] Top shape: 1 64 60 80 (307200)
I0313 11:41:13.281944 24450 net.cpp:139] Memory required for data: 197836800
I0313 11:41:13.281950 24450 layer_factory.hpp:77] Creating layer conv4_3
I0313 11:41:13.281967 24450 net.cpp:86] Creating Layer conv4_3
I0313 11:41:13.281977 24450 net.cpp:408] conv4_3 <- conv4_2
I0313 11:41:13.281994 24450 net.cpp:382] conv4_3 -> conv4_3
I0313 11:41:13.285104 24450 net.cpp:124] Setting up conv4_3
I0313 11:41:13.285135 24450 net.cpp:131] Top shape: 1 128 60 80 (614400)
I0313 11:41:13.285143 24450 net.cpp:139] Memory required for data: 200294400
I0313 11:41:13.285154 24450 layer_factory.hpp:77] Creating layer conv4_3_bn
I0313 11:41:13.285166 24450 net.cpp:86] Creating Layer conv4_3_bn
I0313 11:41:13.285181 24450 net.cpp:408] conv4_3_bn <- conv4_3
I0313 11:41:13.285194 24450 net.cpp:369] conv4_3_bn -> conv4_3 (in-place)
I0313 11:41:13.285406 24450 net.cpp:124] Setting up conv4_3_bn
I0313 11:41:13.285416 24450 net.cpp:131] Top shape: 1 128 60 80 (614400)
I0313 11:41:13.285424 24450 net.cpp:139] Memory required for data: 202752000
I0313 11:41:13.285441 24450 layer_factory.hpp:77] Creating layer conv4_3_scale
I0313 11:41:13.285452 24450 net.cpp:86] Creating Layer conv4_3_scale
I0313 11:41:13.285461 24450 net.cpp:408] conv4_3_scale <- conv4_3
I0313 11:41:13.285473 24450 net.cpp:369] conv4_3_scale -> conv4_3 (in-place)
I0313 11:41:13.285531 24450 layer_factory.hpp:77] Creating layer conv4_3_scale
I0313 11:41:13.285657 24450 net.cpp:124] Setting up conv4_3_scale
I0313 11:41:13.285668 24450 net.cpp:131] Top shape: 1 128 60 80 (614400)
I0313 11:41:13.285676 24450 net.cpp:139] Memory required for data: 205209600
I0313 11:41:13.285687 24450 layer_factory.hpp:77] Creating layer conv4_3_relu
I0313 11:41:13.285697 24450 net.cpp:86] Creating Layer conv4_3_relu
I0313 11:41:13.285706 24450 net.cpp:408] conv4_3_relu <- conv4_3
I0313 11:41:13.285718 24450 net.cpp:369] conv4_3_relu -> conv4_3 (in-place)
I0313 11:41:13.285894 24450 net.cpp:124] Setting up conv4_3_relu
I0313 11:41:13.285907 24450 net.cpp:131] Top shape: 1 128 60 80 (614400)
I0313 11:41:13.285912 24450 net.cpp:139] Memory required for data: 207667200
I0313 11:41:13.285920 24450 layer_factory.hpp:77] Creating layer conv4_3_conv4_3_relu_0_split
I0313 11:41:13.285930 24450 net.cpp:86] Creating Layer conv4_3_conv4_3_relu_0_split
I0313 11:41:13.285939 24450 net.cpp:408] conv4_3_conv4_3_relu_0_split <- conv4_3
I0313 11:41:13.285951 24450 net.cpp:382] conv4_3_conv4_3_relu_0_split -> conv4_3_conv4_3_relu_0_split_0
I0313 11:41:13.285969 24450 net.cpp:382] conv4_3_conv4_3_relu_0_split -> conv4_3_conv4_3_relu_0_split_1
I0313 11:41:13.286052 24450 net.cpp:124] Setting up conv4_3_conv4_3_relu_0_split
I0313 11:41:13.286068 24450 net.cpp:131] Top shape: 1 128 60 80 (614400)
I0313 11:41:13.286077 24450 net.cpp:131] Top shape: 1 128 60 80 (614400)
I0313 11:41:13.286084 24450 net.cpp:139] Memory required for data: 212582400
I0313 11:41:13.286092 24450 layer_factory.hpp:77] Creating layer pool4
I0313 11:41:13.286103 24450 net.cpp:86] Creating Layer pool4
I0313 11:41:13.286110 24450 net.cpp:408] pool4 <- conv4_3_conv4_3_relu_0_split_0
I0313 11:41:13.286150 24450 net.cpp:382] pool4 -> pool4
I0313 11:41:13.286201 24450 net.cpp:124] Setting up pool4
I0313 11:41:13.286214 24450 net.cpp:131] Top shape: 1 128 30 40 (153600)
I0313 11:41:13.286221 24450 net.cpp:139] Memory required for data: 213196800
I0313 11:41:13.286229 24450 layer_factory.hpp:77] Creating layer conv5_1
I0313 11:41:13.286244 24450 net.cpp:86] Creating Layer conv5_1
I0313 11:41:13.286253 24450 net.cpp:408] conv5_1 <- pool4
I0313 11:41:13.286267 24450 net.cpp:382] conv5_1 -> conv5_1
I0313 11:41:13.297000 24450 net.cpp:124] Setting up conv5_1
I0313 11:41:13.297049 24450 net.cpp:131] Top shape: 1 256 30 40 (307200)
I0313 11:41:13.297058 24450 net.cpp:139] Memory required for data: 214425600
I0313 11:41:13.297071 24450 layer_factory.hpp:77] Creating layer conv5_1_bn
I0313 11:41:13.297088 24450 net.cpp:86] Creating Layer conv5_1_bn
I0313 11:41:13.297106 24450 net.cpp:408] conv5_1_bn <- conv5_1
I0313 11:41:13.297123 24450 net.cpp:369] conv5_1_bn -> conv5_1 (in-place)
I0313 11:41:13.297348 24450 net.cpp:124] Setting up conv5_1_bn
I0313 11:41:13.297358 24450 net.cpp:131] Top shape: 1 256 30 40 (307200)
I0313 11:41:13.297364 24450 net.cpp:139] Memory required for data: 215654400
I0313 11:41:13.297380 24450 layer_factory.hpp:77] Creating layer conv5_1_scale
I0313 11:41:13.297392 24450 net.cpp:86] Creating Layer conv5_1_scale
I0313 11:41:13.297402 24450 net.cpp:408] conv5_1_scale <- conv5_1
I0313 11:41:13.297415 24450 net.cpp:369] conv5_1_scale -> conv5_1 (in-place)
I0313 11:41:13.297466 24450 layer_factory.hpp:77] Creating layer conv5_1_scale
I0313 11:41:13.297601 24450 net.cpp:124] Setting up conv5_1_scale
I0313 11:41:13.297612 24450 net.cpp:131] Top shape: 1 256 30 40 (307200)
I0313 11:41:13.297619 24450 net.cpp:139] Memory required for data: 216883200
I0313 11:41:13.297631 24450 layer_factory.hpp:77] Creating layer conv5_1_relu
I0313 11:41:13.297639 24450 net.cpp:86] Creating Layer conv5_1_relu
I0313 11:41:13.297649 24450 net.cpp:408] conv5_1_relu <- conv5_1
I0313 11:41:13.297660 24450 net.cpp:369] conv5_1_relu -> conv5_1 (in-place)
I0313 11:41:13.297847 24450 net.cpp:124] Setting up conv5_1_relu
I0313 11:41:13.297859 24450 net.cpp:131] Top shape: 1 256 30 40 (307200)
I0313 11:41:13.297865 24450 net.cpp:139] Memory required for data: 218112000
I0313 11:41:13.297873 24450 layer_factory.hpp:77] Creating layer conv5_2
I0313 11:41:13.297888 24450 net.cpp:86] Creating Layer conv5_2
I0313 11:41:13.297896 24450 net.cpp:408] conv5_2 <- conv5_1
I0313 11:41:13.297910 24450 net.cpp:382] conv5_2 -> conv5_2
I0313 11:41:13.299758 24450 net.cpp:124] Setting up conv5_2
I0313 11:41:13.299783 24450 net.cpp:131] Top shape: 1 128 30 40 (153600)
I0313 11:41:13.299793 24450 net.cpp:139] Memory required for data: 218726400
I0313 11:41:13.299803 24450 layer_factory.hpp:77] Creating layer conv5_2_bn
I0313 11:41:13.299815 24450 net.cpp:86] Creating Layer conv5_2_bn
I0313 11:41:13.299826 24450 net.cpp:408] conv5_2_bn <- conv5_2
I0313 11:41:13.299844 24450 net.cpp:369] conv5_2_bn -> conv5_2 (in-place)
I0313 11:41:13.300060 24450 net.cpp:124] Setting up conv5_2_bn
I0313 11:41:13.300071 24450 net.cpp:131] Top shape: 1 128 30 40 (153600)
I0313 11:41:13.300078 24450 net.cpp:139] Memory required for data: 219340800
I0313 11:41:13.300094 24450 layer_factory.hpp:77] Creating layer conv5_2_scale
I0313 11:41:13.300107 24450 net.cpp:86] Creating Layer conv5_2_scale
I0313 11:41:13.300117 24450 net.cpp:408] conv5_2_scale <- conv5_2
I0313 11:41:13.300128 24450 net.cpp:369] conv5_2_scale -> conv5_2 (in-place)
I0313 11:41:13.300180 24450 layer_factory.hpp:77] Creating layer conv5_2_scale
I0313 11:41:13.300313 24450 net.cpp:124] Setting up conv5_2_scale
I0313 11:41:13.300326 24450 net.cpp:131] Top shape: 1 128 30 40 (153600)
I0313 11:41:13.300334 24450 net.cpp:139] Memory required for data: 219955200
I0313 11:41:13.300345 24450 layer_factory.hpp:77] Creating layer conv5_2_relu
I0313 11:41:13.300354 24450 net.cpp:86] Creating Layer conv5_2_relu
I0313 11:41:13.300364 24450 net.cpp:408] conv5_2_relu <- conv5_2
I0313 11:41:13.300377 24450 net.cpp:369] conv5_2_relu -> conv5_2 (in-place)
I0313 11:41:13.300557 24450 net.cpp:124] Setting up conv5_2_relu
I0313 11:41:13.300573 24450 net.cpp:131] Top shape: 1 128 30 40 (153600)
I0313 11:41:13.300580 24450 net.cpp:139] Memory required for data: 220569600
I0313 11:41:13.300587 24450 layer_factory.hpp:77] Creating layer conv5_3
I0313 11:41:13.300603 24450 net.cpp:86] Creating Layer conv5_3
I0313 11:41:13.300613 24450 net.cpp:408] conv5_3 <- conv5_2
I0313 11:41:13.300626 24450 net.cpp:382] conv5_3 -> conv5_3
I0313 11:41:13.310149 24450 net.cpp:124] Setting up conv5_3
I0313 11:41:13.310197 24450 net.cpp:131] Top shape: 1 256 30 40 (307200)
I0313 11:41:13.310207 24450 net.cpp:139] Memory required for data: 221798400
I0313 11:41:13.310220 24450 layer_factory.hpp:77] Creating layer conv5_3_bn
I0313 11:41:13.310237 24450 net.cpp:86] Creating Layer conv5_3_bn
I0313 11:41:13.310254 24450 net.cpp:408] conv5_3_bn <- conv5_3
I0313 11:41:13.310271 24450 net.cpp:369] conv5_3_bn -> conv5_3 (in-place)
I0313 11:41:13.310503 24450 net.cpp:124] Setting up conv5_3_bn
I0313 11:41:13.310513 24450 net.cpp:131] Top shape: 1 256 30 40 (307200)
I0313 11:41:13.310518 24450 net.cpp:139] Memory required for data: 223027200
I0313 11:41:13.310534 24450 layer_factory.hpp:77] Creating layer conv5_3_scale
I0313 11:41:13.310545 24450 net.cpp:86] Creating Layer conv5_3_scale
I0313 11:41:13.310555 24450 net.cpp:408] conv5_3_scale <- conv5_3
I0313 11:41:13.310567 24450 net.cpp:369] conv5_3_scale -> conv5_3 (in-place)
I0313 11:41:13.310622 24450 layer_factory.hpp:77] Creating layer conv5_3_scale
I0313 11:41:13.310758 24450 net.cpp:124] Setting up conv5_3_scale
I0313 11:41:13.310770 24450 net.cpp:131] Top shape: 1 256 30 40 (307200)
I0313 11:41:13.310778 24450 net.cpp:139] Memory required for data: 224256000
I0313 11:41:13.310808 24450 layer_factory.hpp:77] Creating layer conv5_3_relu
I0313 11:41:13.310822 24450 net.cpp:86] Creating Layer conv5_3_relu
I0313 11:41:13.310832 24450 net.cpp:408] conv5_3_relu <- conv5_3
I0313 11:41:13.310842 24450 net.cpp:369] conv5_3_relu -> conv5_3 (in-place)
I0313 11:41:13.311034 24450 net.cpp:124] Setting up conv5_3_relu
I0313 11:41:13.311048 24450 net.cpp:131] Top shape: 1 256 30 40 (307200)
I0313 11:41:13.311053 24450 net.cpp:139] Memory required for data: 225484800
I0313 11:41:13.311060 24450 layer_factory.hpp:77] Creating layer conv5_4
I0313 11:41:13.311079 24450 net.cpp:86] Creating Layer conv5_4
I0313 11:41:13.311089 24450 net.cpp:408] conv5_4 <- conv5_3
I0313 11:41:13.311102 24450 net.cpp:382] conv5_4 -> conv5_4
I0313 11:41:13.312932 24450 net.cpp:124] Setting up conv5_4
I0313 11:41:13.312957 24450 net.cpp:131] Top shape: 1 128 30 40 (153600)
I0313 11:41:13.312965 24450 net.cpp:139] Memory required for data: 226099200
I0313 11:41:13.312978 24450 layer_factory.hpp:77] Creating layer conv5_4_bn
I0313 11:41:13.312988 24450 net.cpp:86] Creating Layer conv5_4_bn
I0313 11:41:13.313000 24450 net.cpp:408] conv5_4_bn <- conv5_4
I0313 11:41:13.313014 24450 net.cpp:369] conv5_4_bn -> conv5_4 (in-place)
I0313 11:41:13.313225 24450 net.cpp:124] Setting up conv5_4_bn
I0313 11:41:13.313236 24450 net.cpp:131] Top shape: 1 128 30 40 (153600)
I0313 11:41:13.313241 24450 net.cpp:139] Memory required for data: 226713600
I0313 11:41:13.313257 24450 layer_factory.hpp:77] Creating layer conv5_4_scale
I0313 11:41:13.313268 24450 net.cpp:86] Creating Layer conv5_4_scale
I0313 11:41:13.313278 24450 net.cpp:408] conv5_4_scale <- conv5_4
I0313 11:41:13.313290 24450 net.cpp:369] conv5_4_scale -> conv5_4 (in-place)
I0313 11:41:13.313340 24450 layer_factory.hpp:77] Creating layer conv5_4_scale
I0313 11:41:13.313467 24450 net.cpp:124] Setting up conv5_4_scale
I0313 11:41:13.313477 24450 net.cpp:131] Top shape: 1 128 30 40 (153600)
I0313 11:41:13.313483 24450 net.cpp:139] Memory required for data: 227328000
I0313 11:41:13.313494 24450 layer_factory.hpp:77] Creating layer conv5_4_relu
I0313 11:41:13.313504 24450 net.cpp:86] Creating Layer conv5_4_relu
I0313 11:41:13.313514 24450 net.cpp:408] conv5_4_relu <- conv5_4
I0313 11:41:13.313525 24450 net.cpp:369] conv5_4_relu -> conv5_4 (in-place)
I0313 11:41:13.315176 24450 net.cpp:124] Setting up conv5_4_relu
I0313 11:41:13.315194 24450 net.cpp:131] Top shape: 1 128 30 40 (153600)
I0313 11:41:13.315201 24450 net.cpp:139] Memory required for data: 227942400
I0313 11:41:13.315207 24450 layer_factory.hpp:77] Creating layer conv5_5
I0313 11:41:13.315227 24450 net.cpp:86] Creating Layer conv5_5
I0313 11:41:13.315240 24450 net.cpp:408] conv5_5 <- conv5_4
I0313 11:41:13.315258 24450 net.cpp:382] conv5_5 -> conv5_5
I0313 11:41:13.324692 24450 net.cpp:124] Setting up conv5_5
I0313 11:41:13.324738 24450 net.cpp:131] Top shape: 1 256 30 40 (307200)
I0313 11:41:13.324745 24450 net.cpp:139] Memory required for data: 229171200
I0313 11:41:13.324761 24450 layer_factory.hpp:77] Creating layer conv5_5_bn
I0313 11:41:13.324776 24450 net.cpp:86] Creating Layer conv5_5_bn
I0313 11:41:13.324795 24450 net.cpp:408] conv5_5_bn <- conv5_5
I0313 11:41:13.324810 24450 net.cpp:369] conv5_5_bn -> conv5_5 (in-place)
I0313 11:41:13.325038 24450 net.cpp:124] Setting up conv5_5_bn
I0313 11:41:13.325050 24450 net.cpp:131] Top shape: 1 256 30 40 (307200)
I0313 11:41:13.325055 24450 net.cpp:139] Memory required for data: 230400000
I0313 11:41:13.325074 24450 layer_factory.hpp:77] Creating layer conv5_5_scale
I0313 11:41:13.325086 24450 net.cpp:86] Creating Layer conv5_5_scale
I0313 11:41:13.325095 24450 net.cpp:408] conv5_5_scale <- conv5_5
I0313 11:41:13.325109 24450 net.cpp:369] conv5_5_scale -> conv5_5 (in-place)
I0313 11:41:13.325161 24450 layer_factory.hpp:77] Creating layer conv5_5_scale
I0313 11:41:13.325290 24450 net.cpp:124] Setting up conv5_5_scale
I0313 11:41:13.325302 24450 net.cpp:131] Top shape: 1 256 30 40 (307200)
I0313 11:41:13.325316 24450 net.cpp:139] Memory required for data: 231628800
I0313 11:41:13.325328 24450 layer_factory.hpp:77] Creating layer conv5_5_relu
I0313 11:41:13.325337 24450 net.cpp:86] Creating Layer conv5_5_relu
I0313 11:41:13.325347 24450 net.cpp:408] conv5_5_relu <- conv5_5
I0313 11:41:13.325359 24450 net.cpp:369] conv5_5_relu -> conv5_5 (in-place)
I0313 11:41:13.325541 24450 net.cpp:124] Setting up conv5_5_relu
I0313 11:41:13.325556 24450 net.cpp:131] Top shape: 1 256 30 40 (307200)
I0313 11:41:13.325561 24450 net.cpp:139] Memory required for data: 232857600
I0313 11:41:13.325567 24450 layer_factory.hpp:77] Creating layer conv5_5_conv5_5_relu_0_split
I0313 11:41:13.325577 24450 net.cpp:86] Creating Layer conv5_5_conv5_5_relu_0_split
I0313 11:41:13.325585 24450 net.cpp:408] conv5_5_conv5_5_relu_0_split <- conv5_5
I0313 11:41:13.325595 24450 net.cpp:382] conv5_5_conv5_5_relu_0_split -> conv5_5_conv5_5_relu_0_split_0
I0313 11:41:13.325618 24450 net.cpp:382] conv5_5_conv5_5_relu_0_split -> conv5_5_conv5_5_relu_0_split_1
I0313 11:41:13.325673 24450 net.cpp:124] Setting up conv5_5_conv5_5_relu_0_split
I0313 11:41:13.325688 24450 net.cpp:131] Top shape: 1 256 30 40 (307200)
I0313 11:41:13.325698 24450 net.cpp:131] Top shape: 1 256 30 40 (307200)
I0313 11:41:13.325706 24450 net.cpp:139] Memory required for data: 235315200
I0313 11:41:13.325712 24450 layer_factory.hpp:77] Creating layer pool5
I0313 11:41:13.325723 24450 net.cpp:86] Creating Layer pool5
I0313 11:41:13.325731 24450 net.cpp:408] pool5 <- conv5_5_conv5_5_relu_0_split_0
I0313 11:41:13.325744 24450 net.cpp:382] pool5 -> pool5
I0313 11:41:13.325796 24450 net.cpp:124] Setting up pool5
I0313 11:41:13.325809 24450 net.cpp:131] Top shape: 1 256 30 40 (307200)
I0313 11:41:13.325816 24450 net.cpp:139] Memory required for data: 236544000
I0313 11:41:13.325822 24450 layer_factory.hpp:77] Creating layer conv6_1
I0313 11:41:13.325839 24450 net.cpp:86] Creating Layer conv6_1
I0313 11:41:13.325847 24450 net.cpp:408] conv6_1 <- pool5
I0313 11:41:13.325861 24450 net.cpp:382] conv6_1 -> conv6_1
I0313 11:41:13.356396 24450 net.cpp:124] Setting up conv6_1
I0313 11:41:13.356441 24450 net.cpp:131] Top shape: 1 512 30 40 (614400)
I0313 11:41:13.356458 24450 net.cpp:139] Memory required for data: 239001600
I0313 11:41:13.356473 24450 layer_factory.hpp:77] Creating layer conv6_1_bn
I0313 11:41:13.356488 24450 net.cpp:86] Creating Layer conv6_1_bn
I0313 11:41:13.356503 24450 net.cpp:408] conv6_1_bn <- conv6_1
I0313 11:41:13.356518 24450 net.cpp:369] conv6_1_bn -> conv6_1 (in-place)
I0313 11:41:13.356757 24450 net.cpp:124] Setting up conv6_1_bn
I0313 11:41:13.356768 24450 net.cpp:131] Top shape: 1 512 30 40 (614400)
I0313 11:41:13.356773 24450 net.cpp:139] Memory required for data: 241459200
I0313 11:41:13.356791 24450 layer_factory.hpp:77] Creating layer conv6_1_scale
I0313 11:41:13.356802 24450 net.cpp:86] Creating Layer conv6_1_scale
I0313 11:41:13.356812 24450 net.cpp:408] conv6_1_scale <- conv6_1
I0313 11:41:13.356823 24450 net.cpp:369] conv6_1_scale -> conv6_1 (in-place)
I0313 11:41:13.356873 24450 layer_factory.hpp:77] Creating layer conv6_1_scale
I0313 11:41:13.357004 24450 net.cpp:124] Setting up conv6_1_scale
I0313 11:41:13.357015 24450 net.cpp:131] Top shape: 1 512 30 40 (614400)
I0313 11:41:13.357023 24450 net.cpp:139] Memory required for data: 243916800
I0313 11:41:13.357034 24450 layer_factory.hpp:77] Creating layer conv6_1_relu
I0313 11:41:13.357051 24450 net.cpp:86] Creating Layer conv6_1_relu
I0313 11:41:13.357060 24450 net.cpp:408] conv6_1_relu <- conv6_1
I0313 11:41:13.357072 24450 net.cpp:369] conv6_1_relu -> conv6_1 (in-place)
I0313 11:41:13.357303 24450 net.cpp:124] Setting up conv6_1_relu
I0313 11:41:13.357316 24450 net.cpp:131] Top shape: 1 512 30 40 (614400)
I0313 11:41:13.357321 24450 net.cpp:139] Memory required for data: 246374400
I0313 11:41:13.357331 24450 layer_factory.hpp:77] Creating layer conv6_2
I0313 11:41:13.357347 24450 net.cpp:86] Creating Layer conv6_2
I0313 11:41:13.357357 24450 net.cpp:408] conv6_2 <- conv6_1
I0313 11:41:13.357370 24450 net.cpp:382] conv6_2 -> conv6_2
I0313 11:41:13.361593 24450 net.cpp:124] Setting up conv6_2
I0313 11:41:13.361629 24450 net.cpp:131] Top shape: 1 256 30 40 (307200)
I0313 11:41:13.361637 24450 net.cpp:139] Memory required for data: 247603200
I0313 11:41:13.361650 24450 layer_factory.hpp:77] Creating layer conv6_2_bn
I0313 11:41:13.361663 24450 net.cpp:86] Creating Layer conv6_2_bn
I0313 11:41:13.361677 24450 net.cpp:408] conv6_2_bn <- conv6_2
I0313 11:41:13.361691 24450 net.cpp:369] conv6_2_bn -> conv6_2 (in-place)
I0313 11:41:13.361905 24450 net.cpp:124] Setting up conv6_2_bn
I0313 11:41:13.361917 24450 net.cpp:131] Top shape: 1 256 30 40 (307200)
I0313 11:41:13.361922 24450 net.cpp:139] Memory required for data: 248832000
I0313 11:41:13.361935 24450 layer_factory.hpp:77] Creating layer conv6_2_scale
I0313 11:41:13.361945 24450 net.cpp:86] Creating Layer conv6_2_scale
I0313 11:41:13.361953 24450 net.cpp:408] conv6_2_scale <- conv6_2
I0313 11:41:13.361965 24450 net.cpp:369] conv6_2_scale -> conv6_2 (in-place)
I0313 11:41:13.362017 24450 layer_factory.hpp:77] Creating layer conv6_2_scale
I0313 11:41:13.362144 24450 net.cpp:124] Setting up conv6_2_scale
I0313 11:41:13.362155 24450 net.cpp:131] Top shape: 1 256 30 40 (307200)
I0313 11:41:13.362162 24450 net.cpp:139] Memory required for data: 250060800
I0313 11:41:13.362174 24450 layer_factory.hpp:77] Creating layer conv6_2_relu
I0313 11:41:13.362184 24450 net.cpp:86] Creating Layer conv6_2_relu
I0313 11:41:13.362192 24450 net.cpp:408] conv6_2_relu <- conv6_2
I0313 11:41:13.362203 24450 net.cpp:369] conv6_2_relu -> conv6_2 (in-place)
I0313 11:41:13.362382 24450 net.cpp:124] Setting up conv6_2_relu
I0313 11:41:13.362396 24450 net.cpp:131] Top shape: 1 256 30 40 (307200)
I0313 11:41:13.362401 24450 net.cpp:139] Memory required for data: 251289600
I0313 11:41:13.362407 24450 layer_factory.hpp:77] Creating layer conv6_3
I0313 11:41:13.362422 24450 net.cpp:86] Creating Layer conv6_3
I0313 11:41:13.362432 24450 net.cpp:408] conv6_3 <- conv6_2
I0313 11:41:13.362445 24450 net.cpp:382] conv6_3 -> conv6_3
I0313 11:41:13.393378 24450 net.cpp:124] Setting up conv6_3
I0313 11:41:13.393430 24450 net.cpp:131] Top shape: 1 512 30 40 (614400)
I0313 11:41:13.393440 24450 net.cpp:139] Memory required for data: 253747200
I0313 11:41:13.393453 24450 layer_factory.hpp:77] Creating layer conv6_3_bn
I0313 11:41:13.393467 24450 net.cpp:86] Creating Layer conv6_3_bn
I0313 11:41:13.393486 24450 net.cpp:408] conv6_3_bn <- conv6_3
I0313 11:41:13.393502 24450 net.cpp:369] conv6_3_bn -> conv6_3 (in-place)
I0313 11:41:13.393736 24450 net.cpp:124] Setting up conv6_3_bn
I0313 11:41:13.393746 24450 net.cpp:131] Top shape: 1 512 30 40 (614400)
I0313 11:41:13.393751 24450 net.cpp:139] Memory required for data: 256204800
I0313 11:41:13.393769 24450 layer_factory.hpp:77] Creating layer conv6_3_scale
I0313 11:41:13.393780 24450 net.cpp:86] Creating Layer conv6_3_scale
I0313 11:41:13.393790 24450 net.cpp:408] conv6_3_scale <- conv6_3
I0313 11:41:13.393801 24450 net.cpp:369] conv6_3_scale -> conv6_3 (in-place)
I0313 11:41:13.393853 24450 layer_factory.hpp:77] Creating layer conv6_3_scale
I0313 11:41:13.393995 24450 net.cpp:124] Setting up conv6_3_scale
I0313 11:41:13.394006 24450 net.cpp:131] Top shape: 1 512 30 40 (614400)
I0313 11:41:13.394013 24450 net.cpp:139] Memory required for data: 258662400
I0313 11:41:13.394024 24450 layer_factory.hpp:77] Creating layer conv6_3_relu
I0313 11:41:13.394037 24450 net.cpp:86] Creating Layer conv6_3_relu
I0313 11:41:13.394045 24450 net.cpp:408] conv6_3_relu <- conv6_3
I0313 11:41:13.394057 24450 net.cpp:369] conv6_3_relu -> conv6_3 (in-place)
I0313 11:41:13.395735 24450 net.cpp:124] Setting up conv6_3_relu
I0313 11:41:13.395756 24450 net.cpp:131] Top shape: 1 512 30 40 (614400)
I0313 11:41:13.395762 24450 net.cpp:139] Memory required for data: 261120000
I0313 11:41:13.395771 24450 layer_factory.hpp:77] Creating layer conv6_4
I0313 11:41:13.395790 24450 net.cpp:86] Creating Layer conv6_4
I0313 11:41:13.395803 24450 net.cpp:408] conv6_4 <- conv6_3
I0313 11:41:13.395823 24450 net.cpp:382] conv6_4 -> conv6_4
I0313 11:41:13.400154 24450 net.cpp:124] Setting up conv6_4
I0313 11:41:13.400193 24450 net.cpp:131] Top shape: 1 256 30 40 (307200)
I0313 11:41:13.400203 24450 net.cpp:139] Memory required for data: 262348800
I0313 11:41:13.400215 24450 layer_factory.hpp:77] Creating layer conv6_4_bn
I0313 11:41:13.400228 24450 net.cpp:86] Creating Layer conv6_4_bn
I0313 11:41:13.400243 24450 net.cpp:408] conv6_4_bn <- conv6_4
I0313 11:41:13.400259 24450 net.cpp:369] conv6_4_bn -> conv6_4 (in-place)
I0313 11:41:13.400494 24450 net.cpp:124] Setting up conv6_4_bn
I0313 11:41:13.400506 24450 net.cpp:131] Top shape: 1 256 30 40 (307200)
I0313 11:41:13.400511 24450 net.cpp:139] Memory required for data: 263577600
I0313 11:41:13.400524 24450 layer_factory.hpp:77] Creating layer conv6_4_scale
I0313 11:41:13.400534 24450 net.cpp:86] Creating Layer conv6_4_scale
I0313 11:41:13.400542 24450 net.cpp:408] conv6_4_scale <- conv6_4
I0313 11:41:13.400557 24450 net.cpp:369] conv6_4_scale -> conv6_4 (in-place)
I0313 11:41:13.400611 24450 layer_factory.hpp:77] Creating layer conv6_4_scale
I0313 11:41:13.400749 24450 net.cpp:124] Setting up conv6_4_scale
I0313 11:41:13.400761 24450 net.cpp:131] Top shape: 1 256 30 40 (307200)
I0313 11:41:13.400768 24450 net.cpp:139] Memory required for data: 264806400
I0313 11:41:13.400779 24450 layer_factory.hpp:77] Creating layer conv6_4_relu
I0313 11:41:13.400789 24450 net.cpp:86] Creating Layer conv6_4_relu
I0313 11:41:13.400799 24450 net.cpp:408] conv6_4_relu <- conv6_4
I0313 11:41:13.400812 24450 net.cpp:369] conv6_4_relu -> conv6_4 (in-place)
I0313 11:41:13.401002 24450 net.cpp:124] Setting up conv6_4_relu
I0313 11:41:13.401017 24450 net.cpp:131] Top shape: 1 256 30 40 (307200)
I0313 11:41:13.401031 24450 net.cpp:139] Memory required for data: 266035200
I0313 11:41:13.401038 24450 layer_factory.hpp:77] Creating layer conv6_5
I0313 11:41:13.401057 24450 net.cpp:86] Creating Layer conv6_5
I0313 11:41:13.401067 24450 net.cpp:408] conv6_5 <- conv6_4
I0313 11:41:13.401080 24450 net.cpp:382] conv6_5 -> conv6_5
I0313 11:41:13.432037 24450 net.cpp:124] Setting up conv6_5
I0313 11:41:13.432081 24450 net.cpp:131] Top shape: 1 512 30 40 (614400)
I0313 11:41:13.432091 24450 net.cpp:139] Memory required for data: 268492800
I0313 11:41:13.432108 24450 layer_factory.hpp:77] Creating layer conv6_5_bn
I0313 11:41:13.432123 24450 net.cpp:86] Creating Layer conv6_5_bn
I0313 11:41:13.432140 24450 net.cpp:408] conv6_5_bn <- conv6_5
I0313 11:41:13.432157 24450 net.cpp:369] conv6_5_bn -> conv6_5 (in-place)
I0313 11:41:13.432402 24450 net.cpp:124] Setting up conv6_5_bn
I0313 11:41:13.432413 24450 net.cpp:131] Top shape: 1 512 30 40 (614400)
I0313 11:41:13.432418 24450 net.cpp:139] Memory required for data: 270950400
I0313 11:41:13.432433 24450 layer_factory.hpp:77] Creating layer conv6_5_scale
I0313 11:41:13.432446 24450 net.cpp:86] Creating Layer conv6_5_scale
I0313 11:41:13.432456 24450 net.cpp:408] conv6_5_scale <- conv6_5
I0313 11:41:13.432466 24450 net.cpp:369] conv6_5_scale -> conv6_5 (in-place)
I0313 11:41:13.432518 24450 layer_factory.hpp:77] Creating layer conv6_5_scale
I0313 11:41:13.432663 24450 net.cpp:124] Setting up conv6_5_scale
I0313 11:41:13.432677 24450 net.cpp:131] Top shape: 1 512 30 40 (614400)
I0313 11:41:13.432683 24450 net.cpp:139] Memory required for data: 273408000
I0313 11:41:13.432694 24450 layer_factory.hpp:77] Creating layer conv6_5_relu
I0313 11:41:13.432703 24450 net.cpp:86] Creating Layer conv6_5_relu
I0313 11:41:13.432713 24450 net.cpp:408] conv6_5_relu <- conv6_5
I0313 11:41:13.432725 24450 net.cpp:369] conv6_5_relu -> conv6_5 (in-place)
I0313 11:41:13.433158 24450 net.cpp:124] Setting up conv6_5_relu
I0313 11:41:13.433173 24450 net.cpp:131] Top shape: 1 512 30 40 (614400)
I0313 11:41:13.433178 24450 net.cpp:139] Memory required for data: 275865600
I0313 11:41:13.433187 24450 layer_factory.hpp:77] Creating layer conv7_1
I0313 11:41:13.433203 24450 net.cpp:86] Creating Layer conv7_1
I0313 11:41:13.433213 24450 net.cpp:408] conv7_1 <- conv6_5
I0313 11:41:13.433229 24450 net.cpp:382] conv7_1 -> conv7_1
I0313 11:41:13.492900 24450 net.cpp:124] Setting up conv7_1
I0313 11:41:13.492949 24450 net.cpp:131] Top shape: 1 512 30 40 (614400)
I0313 11:41:13.492957 24450 net.cpp:139] Memory required for data: 278323200
I0313 11:41:13.492972 24450 layer_factory.hpp:77] Creating layer conv7_1_bn
I0313 11:41:13.492987 24450 net.cpp:86] Creating Layer conv7_1_bn
I0313 11:41:13.493005 24450 net.cpp:408] conv7_1_bn <- conv7_1
I0313 11:41:13.493023 24450 net.cpp:369] conv7_1_bn -> conv7_1 (in-place)
I0313 11:41:13.493268 24450 net.cpp:124] Setting up conv7_1_bn
I0313 11:41:13.493278 24450 net.cpp:131] Top shape: 1 512 30 40 (614400)
I0313 11:41:13.493283 24450 net.cpp:139] Memory required for data: 280780800
I0313 11:41:13.493296 24450 layer_factory.hpp:77] Creating layer conv7_1_scale
I0313 11:41:13.493306 24450 net.cpp:86] Creating Layer conv7_1_scale
I0313 11:41:13.493314 24450 net.cpp:408] conv7_1_scale <- conv7_1
I0313 11:41:13.493330 24450 net.cpp:369] conv7_1_scale -> conv7_1 (in-place)
I0313 11:41:13.493383 24450 layer_factory.hpp:77] Creating layer conv7_1_scale
I0313 11:41:13.493531 24450 net.cpp:124] Setting up conv7_1_scale
I0313 11:41:13.493542 24450 net.cpp:131] Top shape: 1 512 30 40 (614400)
I0313 11:41:13.493551 24450 net.cpp:139] Memory required for data: 283238400
I0313 11:41:13.493561 24450 layer_factory.hpp:77] Creating layer conv7_1_relu
I0313 11:41:13.493571 24450 net.cpp:86] Creating Layer conv7_1_relu
I0313 11:41:13.493579 24450 net.cpp:408] conv7_1_relu <- conv7_1
I0313 11:41:13.493593 24450 net.cpp:369] conv7_1_relu -> conv7_1 (in-place)
I0313 11:41:13.493779 24450 net.cpp:124] Setting up conv7_1_relu
I0313 11:41:13.493794 24450 net.cpp:131] Top shape: 1 512 30 40 (614400)
I0313 11:41:13.493803 24450 net.cpp:139] Memory required for data: 285696000
I0313 11:41:13.493809 24450 layer_factory.hpp:77] Creating layer conv7_2
I0313 11:41:13.493826 24450 net.cpp:86] Creating Layer conv7_2
I0313 11:41:13.493835 24450 net.cpp:408] conv7_2 <- conv7_1
I0313 11:41:13.493849 24450 net.cpp:382] conv7_2 -> conv7_2
I0313 11:41:13.554736 24450 net.cpp:124] Setting up conv7_2
I0313 11:41:13.554782 24450 net.cpp:131] Top shape: 1 512 30 40 (614400)
I0313 11:41:13.554800 24450 net.cpp:139] Memory required for data: 288153600
I0313 11:41:13.554816 24450 layer_factory.hpp:77] Creating layer conv7_2_bn
I0313 11:41:13.554831 24450 net.cpp:86] Creating Layer conv7_2_bn
I0313 11:41:13.554849 24450 net.cpp:408] conv7_2_bn <- conv7_2
I0313 11:41:13.554868 24450 net.cpp:369] conv7_2_bn -> conv7_2 (in-place)
I0313 11:41:13.555114 24450 net.cpp:124] Setting up conv7_2_bn
I0313 11:41:13.555124 24450 net.cpp:131] Top shape: 1 512 30 40 (614400)
I0313 11:41:13.555130 24450 net.cpp:139] Memory required for data: 290611200
I0313 11:41:13.555145 24450 layer_factory.hpp:77] Creating layer conv7_2_scale
I0313 11:41:13.555157 24450 net.cpp:86] Creating Layer conv7_2_scale
I0313 11:41:13.555167 24450 net.cpp:408] conv7_2_scale <- conv7_2
I0313 11:41:13.555179 24450 net.cpp:369] conv7_2_scale -> conv7_2 (in-place)
I0313 11:41:13.555233 24450 layer_factory.hpp:77] Creating layer conv7_2_scale
I0313 11:41:13.555380 24450 net.cpp:124] Setting up conv7_2_scale
I0313 11:41:13.555393 24450 net.cpp:131] Top shape: 1 512 30 40 (614400)
I0313 11:41:13.555400 24450 net.cpp:139] Memory required for data: 293068800
I0313 11:41:13.555411 24450 layer_factory.hpp:77] Creating layer conv7_2_relu
I0313 11:41:13.555421 24450 net.cpp:86] Creating Layer conv7_2_relu
I0313 11:41:13.555431 24450 net.cpp:408] conv7_2_relu <- conv7_2
I0313 11:41:13.555444 24450 net.cpp:369] conv7_2_relu -> conv7_2 (in-place)
I0313 11:41:13.555927 24450 net.cpp:124] Setting up conv7_2_relu
I0313 11:41:13.555943 24450 net.cpp:131] Top shape: 1 512 30 40 (614400)
I0313 11:41:13.555949 24450 net.cpp:139] Memory required for data: 295526400
I0313 11:41:13.555956 24450 layer_factory.hpp:77] Creating layer concat8
I0313 11:41:13.556004 24450 net.cpp:86] Creating Layer concat8
I0313 11:41:13.556016 24450 net.cpp:408] concat8 <- conv5_5_conv5_5_relu_0_split_1
I0313 11:41:13.556030 24450 net.cpp:408] concat8 <- conv7_2
I0313 11:41:13.556041 24450 net.cpp:382] concat8 -> concat8
I0313 11:41:13.556123 24450 net.cpp:124] Setting up concat8
I0313 11:41:13.556138 24450 net.cpp:131] Top shape: 1 768 30 40 (921600)
I0313 11:41:13.556145 24450 net.cpp:139] Memory required for data: 299212800
I0313 11:41:13.556154 24450 layer_factory.hpp:77] Creating layer reduce1_lane
I0313 11:41:13.556170 24450 net.cpp:86] Creating Layer reduce1_lane
I0313 11:41:13.556180 24450 net.cpp:408] reduce1_lane <- concat8
I0313 11:41:13.556193 24450 net.cpp:382] reduce1_lane -> reduce1_lane
I0313 11:41:13.579452 24450 net.cpp:124] Setting up reduce1_lane
I0313 11:41:13.579504 24450 net.cpp:131] Top shape: 1 128 30 40 (153600)
I0313 11:41:13.579514 24450 net.cpp:139] Memory required for data: 299827200
I0313 11:41:13.579529 24450 layer_factory.hpp:77] Creating layer reduce1_lane_bn
I0313 11:41:13.579545 24450 net.cpp:86] Creating Layer reduce1_lane_bn
I0313 11:41:13.579560 24450 net.cpp:408] reduce1_lane_bn <- reduce1_lane
I0313 11:41:13.579582 24450 net.cpp:369] reduce1_lane_bn -> reduce1_lane (in-place)
I0313 11:41:13.579835 24450 net.cpp:124] Setting up reduce1_lane_bn
I0313 11:41:13.579846 24450 net.cpp:131] Top shape: 1 128 30 40 (153600)
I0313 11:41:13.579854 24450 net.cpp:139] Memory required for data: 300441600
I0313 11:41:13.579871 24450 layer_factory.hpp:77] Creating layer reduce1_lane_scale
I0313 11:41:13.579881 24450 net.cpp:86] Creating Layer reduce1_lane_scale
I0313 11:41:13.579892 24450 net.cpp:408] reduce1_lane_scale <- reduce1_lane
I0313 11:41:13.579903 24450 net.cpp:369] reduce1_lane_scale -> reduce1_lane (in-place)
I0313 11:41:13.579962 24450 layer_factory.hpp:77] Creating layer reduce1_lane_scale
I0313 11:41:13.580106 24450 net.cpp:124] Setting up reduce1_lane_scale
I0313 11:41:13.580116 24450 net.cpp:131] Top shape: 1 128 30 40 (153600)
I0313 11:41:13.580124 24450 net.cpp:139] Memory required for data: 301056000
I0313 11:41:13.580135 24450 layer_factory.hpp:77] Creating layer reduce1_lane_relu
I0313 11:41:13.580147 24450 net.cpp:86] Creating Layer reduce1_lane_relu
I0313 11:41:13.580155 24450 net.cpp:408] reduce1_lane_relu <- reduce1_lane
I0313 11:41:13.580168 24450 net.cpp:369] reduce1_lane_relu -> reduce1_lane (in-place)
I0313 11:41:13.580622 24450 net.cpp:124] Setting up reduce1_lane_relu
I0313 11:41:13.580637 24450 net.cpp:131] Top shape: 1 128 30 40 (153600)
I0313 11:41:13.580642 24450 net.cpp:139] Memory required for data: 301670400
I0313 11:41:13.580651 24450 layer_factory.hpp:77] Creating layer deconv1_lane
I0313 11:41:13.580672 24450 net.cpp:86] Creating Layer deconv1_lane
I0313 11:41:13.580682 24450 net.cpp:408] deconv1_lane <- reduce1_lane
I0313 11:41:13.580696 24450 net.cpp:382] deconv1_lane -> deconv1_lane
I0313 11:41:13.582115 24450 net.cpp:124] Setting up deconv1_lane
I0313 11:41:13.582141 24450 net.cpp:131] Top shape: 1 64 60 80 (307200)
I0313 11:41:13.582149 24450 net.cpp:139] Memory required for data: 302899200
I0313 11:41:13.582165 24450 layer_factory.hpp:77] Creating layer deconv1_lane_bn
I0313 11:41:13.582177 24450 net.cpp:86] Creating Layer deconv1_lane_bn
I0313 11:41:13.582188 24450 net.cpp:408] deconv1_lane_bn <- deconv1_lane
I0313 11:41:13.582201 24450 net.cpp:369] deconv1_lane_bn -> deconv1_lane (in-place)
I0313 11:41:13.582445 24450 net.cpp:124] Setting up deconv1_lane_bn
I0313 11:41:13.582455 24450 net.cpp:131] Top shape: 1 64 60 80 (307200)
I0313 11:41:13.582461 24450 net.cpp:139] Memory required for data: 304128000
I0313 11:41:13.582497 24450 layer_factory.hpp:77] Creating layer deconv1_lane_scale
I0313 11:41:13.582509 24450 net.cpp:86] Creating Layer deconv1_lane_scale
I0313 11:41:13.582520 24450 net.cpp:408] deconv1_lane_scale <- deconv1_lane
I0313 11:41:13.582531 24450 net.cpp:369] deconv1_lane_scale -> deconv1_lane (in-place)
I0313 11:41:13.582588 24450 layer_factory.hpp:77] Creating layer deconv1_lane_scale
I0313 11:41:13.582741 24450 net.cpp:124] Setting up deconv1_lane_scale
I0313 11:41:13.582751 24450 net.cpp:131] Top shape: 1 64 60 80 (307200)
I0313 11:41:13.582756 24450 net.cpp:139] Memory required for data: 305356800
I0313 11:41:13.582769 24450 layer_factory.hpp:77] Creating layer deconv1_lane_relu
I0313 11:41:13.582778 24450 net.cpp:86] Creating Layer deconv1_lane_relu
I0313 11:41:13.582787 24450 net.cpp:408] deconv1_lane_relu <- deconv1_lane
I0313 11:41:13.582801 24450 net.cpp:369] deconv1_lane_relu -> deconv1_lane (in-place)
I0313 11:41:13.582984 24450 net.cpp:124] Setting up deconv1_lane_relu
I0313 11:41:13.582998 24450 net.cpp:131] Top shape: 1 64 60 80 (307200)
I0313 11:41:13.583012 24450 net.cpp:139] Memory required for data: 306585600
I0313 11:41:13.583020 24450 layer_factory.hpp:77] Creating layer reorg4
I0313 11:41:13.583034 24450 net.cpp:86] Creating Layer reorg4
I0313 11:41:13.583042 24450 net.cpp:408] reorg4 <- conv4_3_conv4_3_relu_0_split_1
I0313 11:41:13.583060 24450 net.cpp:382] reorg4 -> reorg4
I0313 11:41:13.587482 24450 net.cpp:124] Setting up reorg4
I0313 11:41:13.587527 24450 net.cpp:131] Top shape: 1 64 60 80 (307200)
I0313 11:41:13.587536 24450 net.cpp:139] Memory required for data: 307814400
I0313 11:41:13.587550 24450 layer_factory.hpp:77] Creating layer reorg4_relu
I0313 11:41:13.587566 24450 net.cpp:86] Creating Layer reorg4_relu
I0313 11:41:13.587594 24450 net.cpp:408] reorg4_relu <- reorg4
I0313 11:41:13.587610 24450 net.cpp:369] reorg4_relu -> reorg4 (in-place)
I0313 11:41:13.587817 24450 net.cpp:124] Setting up reorg4_relu
I0313 11:41:13.587832 24450 net.cpp:131] Top shape: 1 64 60 80 (307200)
I0313 11:41:13.587839 24450 net.cpp:139] Memory required for data: 309043200
I0313 11:41:13.587846 24450 layer_factory.hpp:77] Creating layer concat4
I0313 11:41:13.587855 24450 net.cpp:86] Creating Layer concat4
I0313 11:41:13.587865 24450 net.cpp:408] concat4 <- reorg4
I0313 11:41:13.587878 24450 net.cpp:408] concat4 <- deconv1_lane
I0313 11:41:13.587890 24450 net.cpp:382] concat4 -> concat4
I0313 11:41:13.587936 24450 net.cpp:124] Setting up concat4
I0313 11:41:13.587952 24450 net.cpp:131] Top shape: 1 128 60 80 (614400)
I0313 11:41:13.587958 24450 net.cpp:139] Memory required for data: 311500800
I0313 11:41:13.587965 24450 layer_factory.hpp:77] Creating layer reduce2_lane
I0313 11:41:13.587982 24450 net.cpp:86] Creating Layer reduce2_lane
I0313 11:41:13.587990 24450 net.cpp:408] reduce2_lane <- concat4
I0313 11:41:13.588004 24450 net.cpp:382] reduce2_lane -> reduce2_lane
I0313 11:41:13.591118 24450 net.cpp:124] Setting up reduce2_lane
I0313 11:41:13.591150 24450 net.cpp:131] Top shape: 1 64 60 80 (307200)
I0313 11:41:13.591157 24450 net.cpp:139] Memory required for data: 312729600
I0313 11:41:13.591171 24450 layer_factory.hpp:77] Creating layer reduce2_lane_bn
I0313 11:41:13.591182 24450 net.cpp:86] Creating Layer reduce2_lane_bn
I0313 11:41:13.591194 24450 net.cpp:408] reduce2_lane_bn <- reduce2_lane
I0313 11:41:13.591210 24450 net.cpp:369] reduce2_lane_bn -> reduce2_lane (in-place)
I0313 11:41:13.591465 24450 net.cpp:124] Setting up reduce2_lane_bn
I0313 11:41:13.591476 24450 net.cpp:131] Top shape: 1 64 60 80 (307200)
I0313 11:41:13.591482 24450 net.cpp:139] Memory required for data: 313958400
I0313 11:41:13.591498 24450 layer_factory.hpp:77] Creating layer reduce2_lane_scale
I0313 11:41:13.591511 24450 net.cpp:86] Creating Layer reduce2_lane_scale
I0313 11:41:13.591521 24450 net.cpp:408] reduce2_lane_scale <- reduce2_lane
I0313 11:41:13.591532 24450 net.cpp:369] reduce2_lane_scale -> reduce2_lane (in-place)
I0313 11:41:13.591599 24450 layer_factory.hpp:77] Creating layer reduce2_lane_scale
I0313 11:41:13.591758 24450 net.cpp:124] Setting up reduce2_lane_scale
I0313 11:41:13.591770 24450 net.cpp:131] Top shape: 1 64 60 80 (307200)
I0313 11:41:13.591778 24450 net.cpp:139] Memory required for data: 315187200
I0313 11:41:13.591789 24450 layer_factory.hpp:77] Creating layer reduce2_lane_relu
I0313 11:41:13.591799 24450 net.cpp:86] Creating Layer reduce2_lane_relu
I0313 11:41:13.591809 24450 net.cpp:408] reduce2_lane_relu <- reduce2_lane
I0313 11:41:13.591821 24450 net.cpp:369] reduce2_lane_relu -> reduce2_lane (in-place)
I0313 11:41:13.592015 24450 net.cpp:124] Setting up reduce2_lane_relu
I0313 11:41:13.592030 24450 net.cpp:131] Top shape: 1 64 60 80 (307200)
I0313 11:41:13.592043 24450 net.cpp:139] Memory required for data: 316416000
I0313 11:41:13.592052 24450 layer_factory.hpp:77] Creating layer Slice1
I0313 11:41:13.592113 24450 net.cpp:86] Creating Layer Slice1
I0313 11:41:13.592123 24450 net.cpp:408] Slice1 <- reduce2_lane
I0313 11:41:13.592141 24450 net.cpp:382] Slice1 -> slice1_1
I0313 11:41:13.592195 24450 net.cpp:382] Slice1 -> slice1_2
…
I0313 11:41:13.593030 24450 net.cpp:382] Slice1 -> slice1_52
I0313 11:41:13.593045 24450 net.cpp:382] Slice1 -> slice1_53
I0313 11:41:13.593061 24450 net.cpp:382] Slice1 -> slice1_54
I0313 11:41:13.593076 24450 net.cpp:382] Slice1 -> slice1_55
I0313 11:41:13.593091 24450 net.cpp:382] Slice1 -> slice1_56
I0313 11:41:13.593106 24450 net.cpp:382] Slice1 -> slice1_57
I0313 11:41:13.593123 24450 net.cpp:382] Slice1 -> slice1_58
I0313 11:41:13.593139 24450 net.cpp:382] Slice1 -> slice1_59
I0313 11:41:13.593155 24450 net.cpp:382] Slice1 -> slice1_60
I0313 11:41:13.593999 24450 net.cpp:124] Setting up Slice1
I0313 11:41:13.594020 24450 net.cpp:131] Top shape: 1 64 1 80 (5120)
I0313 11:41:13.594029 24450 net.cpp:131] Top shape: 1 64 1 80 (5120)
I0313 11:41:13.594038 24450 net.cpp:131] Top shape: 1 64 1 80 (5120)
I0313 11:41:13.594048 24450 net.cpp:131] Top shape: 1 64 1 80 (5120)
I0313 11:41:13.594056 24450 net.cpp:131] Top shape: 1 64 1 80 (5120)
I0313 11:41:13.594065 24450 net.cpp:131] Top shape: 1 64 1 80 (5120)
I0313 11:41:13.594074 24450 net.cpp:131] Top shape: 1 64 1 80 (5120)
I0313 11:41:13.594084 24450 net.cpp:131] Top shape: 1 64 1 80 (5120)
I0313 11:41:13.594091 24450 net.cpp:131] Top shape: 1 64 1 80 (5120)
I0313 11:41:13.594100 24450 net.cpp:131] Top shape: 1 64 1 80 (5120)
I0313 11:41:13.594107 24450 net.cpp:131] Top shape: 1 64 1 80 (5120)
I0313 11:41:13.594115 24450 net.cpp:131] Top shape: 1 64 1 80 (5120)
I0313 11:41:13.594120 24450 net.cpp:131] Top shape: 1 64 1 80 (5120)
I0313 11:41:13.594130 24450 net.cpp:131] Top shape: 1 64 1 80 (5120)
I0313 11:41:13.594138 24450 net.cpp:131] Top shape: 1 64 1 80 (5120)
I0313 11:41:13.594147 24450 net.cpp:131] Top shape: 1 64 1 80 (5120)
I0313 11:41:13.594156 24450 net.cpp:131] Top shape: 1 64 1 80 (5120)
I0313 11:41:13.594164 24450 net.cpp:131] Top shape: 1 64 1 80 (5120)
I0313 11:41:13.594173 24450 net.cpp:131] Top shape: 1 64 1 80 (5120)
I0313 11:41:13.594182 24450 net.cpp:131] Top shape: 1 64 1 80 (5120)
I0313 11:41:13.594190 24450 net.cpp:131] Top shape: 1 64 1 80 (5120)
I0313 11:41:13.594199 24450 net.cpp:131] Top shape: 1 64 1 80 (5120)
I0313 11:41:13.594208 24450 net.cpp:131] Top shape: 1 64 1 80 (5120)
I0313 11:41:13.594216 24450 net.cpp:131] Top shape: 1 64 1 80 (5120)
I0313 11:41:13.594224 24450 net.cpp:131] Top shape: 1 64 1 80 (5120)
I0313 11:41:13.594233 24450 net.cpp:131] Top shape: 1 64 1 80 (5120)
I0313 11:41:13.594242 24450 net.cpp:131] Top shape: 1 64 1 80 (5120)
I0313 11:41:13.594256 24450 net.cpp:131] Top shape: 1 64 1 80 (5120)
I0313 11:41:13.594264 24450 net.cpp:131] Top shape: 1 64 1 80 (5120)
I0313 11:41:13.594274 24450 net.cpp:131] Top shape: 1 64 1 80 (5120)
I0313 11:41:13.594282 24450 net.cpp:131] Top shape: 1 64 1 80 (5120)
I0313 11:41:13.594290 24450 net.cpp:131] Top shape: 1 64 1 80 (5120)
I0313 11:41:13.594300 24450 net.cpp:131] Top shape: 1 64 1 80 (5120)
I0313 11:41:13.594308 24450 net.cpp:131] Top shape: 1 64 1 80 (5120)
I0313 11:41:13.594316 24450 net.cpp:131] Top shape: 1 64 1 80 (5120)
I0313 11:41:13.594326 24450 net.cpp:131] Top shape: 1 64 1 80 (5120)
I0313 11:41:13.594334 24450 net.cpp:131] Top shape: 1 64 1 80 (5120)
I0313 11:41:13.594342 24450 net.cpp:131] Top shape: 1 64 1 80 (5120)
I0313 11:41:13.594352 24450 net.cpp:131] Top shape: 1 64 1 80 (5120)
I0313 11:41:13.594360 24450 net.cpp:131] Top shape: 1 64 1 80 (5120)
I0313 11:41:13.594369 24450 net.cpp:131] Top shape: 1 64 1 80 (5120)
I0313 11:41:13.594377 24450 net.cpp:131] Top shape: 1 64 1 80 (5120)
I0313 11:41:13.594386 24450 net.cpp:131] Top shape: 1 64 1 80 (5120)
I0313 11:41:13.594395 24450 net.cpp:131] Top shape: 1 64 1 80 (5120)
I0313 11:41:13.594404 24450 net.cpp:131] Top shape: 1 64 1 80 (5120)
I0313 11:41:13.594413 24450 net.cpp:131] Top shape: 1 64 1 80 (5120)
I0313 11:41:13.594421 24450 net.cpp:131] Top shape: 1 64 1 80 (5120)
I0313 11:41:13.594430 24450 net.cpp:131] Top shape: 1 64 1 80 (5120)
I0313 11:41:13.594439 24450 net.cpp:131] Top shape: 1 64 1 80 (5120)
I0313 11:41:13.594447 24450 net.cpp:131] Top shape: 1 64 1 80 (5120)
I0313 11:41:13.594456 24450 net.cpp:131] Top shape: 1 64 1 80 (5120)
I0313 11:41:13.594465 24450 net.cpp:131] Top shape: 1 64 1 80 (5120)
I0313 11:41:13.594473 24450 net.cpp:131] Top shape: 1 64 1 80 (5120)
I0313 11:41:13.594482 24450 net.cpp:131] Top shape: 1 64 1 80 (5120)
I0313 11:41:13.594491 24450 net.cpp:131] Top shape: 1 64 1 80 (5120)
I0313 11:41:13.594501 24450 net.cpp:131] Top shape: 1 64 1 80 (5120)
I0313 11:41:13.594508 24450 net.cpp:131] Top shape: 1 64 1 80 (5120)
I0313 11:41:13.594517 24450 net.cpp:131] Top shape: 1 64 1 80 (5120)
I0313 11:41:13.594527 24450 net.cpp:131] Top shape: 1 64 1 80 (5120)
I0313 11:41:13.594535 24450 net.cpp:131] Top shape: 1 64 1 80 (5120)
I0313 11:41:13.594542 24450 net.cpp:139] Memory required for data: 317644800
I0313 11:41:13.594549 24450 layer_factory.hpp:77] Creating layer slice1_1_Slice1_0_split
I0313 11:41:13.594559 24450 net.cpp:86] Creating Layer slice1_1_Slice1_0_split
I0313 11:41:13.594569 24450 net.cpp:408] slice1_1_Slice1_0_split <- slice1_1
I0313 11:41:13.594585 24450 net.cpp:382] slice1_1_Slice1_0_split -> slice1_1_Slice1_0_split_0
I0313 11:41:13.594600 24450 net.cpp:382] slice1_1_Slice1_0_split -> slice1_1_Slice1_0_split_1
I0313 11:41:13.594656 24450 net.cpp:124] Setting up slice1_1_Slice1_0_split
I0313 11:41:13.594667 24450 net.cpp:131] Top shape: 1 64 1 80 (5120)
I0313 11:41:13.594678 24450 net.cpp:131] Top shape: 1 64 1 80 (5120)
I0313 11:41:13.594683 24450 net.cpp:139] Memory required for data: 317685760
I0313 11:41:13.594691 24450 layer_factory.hpp:77] Creating layer SCNN_D_1
I0313 11:41:13.594707 24450 net.cpp:86] Creating Layer SCNN_D_1
I0313 11:41:13.594715 24450 net.cpp:408] SCNN_D_1 <- slice1_1_Slice1_0_split_0
I0313 11:41:13.594732 24450 net.cpp:382] SCNN_D_1 -> SCNN_D_1/message
I0313 11:41:13.596446 24450 net.cpp:124] Setting up SCNN_D_1
I0313 11:41:13.596470 24450 net.cpp:131] Top shape: 1 64 1 80 (5120)
I0313 11:41:13.596480 24450 net.cpp:139] Memory required for data: 317706240
I0313 11:41:13.596495 24450 layer_factory.hpp:77] Creating layer SCNN_D_1/relu
I0313 11:41:13.596508 24450 net.cpp:86] Creating Layer SCNN_D_1/relu
I0313 11:41:13.596518 24450 net.cpp:408] SCNN_D_1/relu <- SCNN_D_1/message
I0313 11:41:13.596534 24450 net.cpp:369] SCNN_D_1/relu -> SCNN_D_1/message (in-place)
I0313 11:41:13.596997 24450 net.cpp:124] Setting up SCNN_D_1/relu
I0313 11:41:13.597013 24450 net.cpp:131] Top shape: 1 64 1 80 (5120)
I0313 11:41:13.597019 24450 net.cpp:139] Memory required for data: 317726720
I0313 11:41:13.597026 24450 layer_factory.hpp:77] Creating layer SCNN_D_1/sum
I0313 11:41:13.597074 24450 net.cpp:86] Creating Layer SCNN_D_1/sum
I0313 11:41:13.597086 24450 net.cpp:408] SCNN_D_1/sum <- SCNN_D_1/message
I0313 11:41:13.597101 24450 net.cpp:408] SCNN_D_1/sum <- slice1_2
I0313 11:41:13.597115 24450 net.cpp:382] SCNN_D_1/sum -> SCNN_D_2
I0313 11:41:13.597229 24450 net.cpp:124] Setting up SCNN_D_1/sum
I0313 11:41:13.597245 24450 net.cpp:131] Top shape: 1 64 1 80 (5120)
I0313 11:41:13.597252 24450 net.cpp:139] Memory required for data: 317747200
I0313 11:41:13.597259 24450 layer_factory.hpp:77] Creating layer SCNN_D_2_SCNN_D_1/sum_0_split
I0313 11:41:13.597272 24450 net.cpp:86] Creating Layer SCNN_D_2_SCNN_D_1/sum_0_split
I0313 11:41:13.597281 24450 net.cpp:408] SCNN_D_2_SCNN_D_1/sum_0_split <- SCNN_D_2
I0313 11:41:13.597295 24450 net.cpp:382] SCNN_D_2_SCNN_D_1/sum_0_split -> SCNN_D_2_SCNN_D_1/sum_0_split_0
I0313 11:41:13.597309 24450 net.cpp:382] SCNN_D_2_SCNN_D_1/sum_0_split -> SCNN_D_2_SCNN_D_1/sum_0_split_1
I0313 11:41:13.597368 24450 net.cpp:124] Setting up SCNN_D_2_SCNN_D_1/sum_0_split
I0313 11:41:13.597385 24450 net.cpp:131] Top shape: 1 64 1 80 (5120)
I0313 11:41:13.597395 24450 net.cpp:131] Top shape: 1 64 1 80 (5120)
I0313 11:41:13.597402 24450 net.cpp:139] Memory required for data: 317788160
I0313 11:41:13.597410 24450 layer_factory.hpp:77] Creating layer SCNN_D_2
I0313 11:41:13.597426 24450 net.cpp:86] Creating Layer SCNN_D_2
I0313 11:41:13.597436 24450 net.cpp:408] SCNN_D_2 <- SCNN_D_2_SCNN_D_1/sum_0_split_0
I0313 11:41:13.597451 24450 net.cpp:382] SCNN_D_2 -> SCNN_D_2/message
I0313 11:41:13.599047 24450 net.cpp:124] Setting up SCNN_D_2
I0313 11:41:13.599073 24450 net.cpp:131] Top shape: 1 64 1 80 (5120)
I0313 11:41:13.599082 24450 net.cpp:139] Memory required for data: 317808640
I0313 11:41:13.599093 24450 net.cpp:467] Sharing parameters 'SCNN_D_w' owned by layer 'SCNN_D_1', param index 0
I0313 11:41:13.599100 24450 layer_factory.hpp:77] Creating layer SCNN_D_2/relu
I0313 11:41:13.599112 24450 net.cpp:86] Creating Layer SCNN_D_2/relu
I0313 11:41:13.599122 24450 net.cpp:408] SCNN_D_2/relu <- SCNN_D_2/message
I0313 11:41:13.599134 24450 net.cpp:369] SCNN_D_2/relu -> SCNN_D_2/message (in-place)
I0313 11:41:13.600620 24450 net.cpp:124] Setting up SCNN_D_2/relu
I0313 11:41:13.600638 24450 net.cpp:131] Top shape: 1 64 1 80 (5120)
I0313 11:41:13.600644 24450 net.cpp:139] Memory required for data: 317829120
I0313 11:41:13.600651 24450 layer_factory.hpp:77] Creating layer SCNN_D_2/sum
I0313 11:41:13.600663 24450 net.cpp:86] Creating Layer SCNN_D_2/sum
I0313 11:41:13.600677 24450 net.cpp:408] SCNN_D_2/sum <- SCNN_D_2/message
I0313 11:41:13.600692 24450 net.cpp:408] SCNN_D_2/sum <- slice1_3
I0313 11:41:13.600705 24450 net.cpp:382] SCNN_D_2/sum -> SCNN_D_3
I0313 11:41:13.600761 24450 net.cpp:124] Setting up SCNN_D_2/sum
I0313 11:41:13.600777 24450 net.cpp:131] Top shape: 1 64 1 80 (5120)
I0313 11:41:13.600782 24450 net.cpp:139] Memory required for data: 317849600
I0313 11:41:13.600786 24450 layer_factory.hpp:77] Creating layer SCNN_D_3_SCNN_D_2/sum_0_split
I0313 11:41:13.600797 24450 net.cpp:86] Creating Layer SCNN_D_3_SCNN_D_2/sum_0_split
I0313 11:41:13.600805 24450 net.cpp:408] SCNN_D_3_SCNN_D_2/sum_0_split <- SCNN_D_3
I0313 11:41:13.600821 24450 net.cpp:382] SCNN_D_3_SCNN_D_2/sum_0_split -> SCNN_D_3_SCNN_D_2/sum_0_split_0
I0313 11:41:13.600836 24450 net.cpp:382] SCNN_D_3_SCNN_D_2/sum_0_split -> SCNN_D_3_SCNN_D_2/sum_0_split_1
I0313 11:41:13.600899 24450 net.cpp:124] Setting up SCNN_D_3_SCNN_D_2/sum_0_split
I0313 11:41:13.600914 24450 net.cpp:131] Top shape: 1 64 1 80 (5120)
I0313 11:41:13.600924 24450 net.cpp:131] Top shape: 1 64 1 80 (5120)
I0313 11:41:13.600930 24450 net.cpp:139] Memory required for data: 317890560
I0313 11:41:13.600937 24450 layer_factory.hpp:77] Creating layer SCNN_D_3
I0313 11:41:13.600955 24450 net.cpp:86] Creating Layer SCNN_D_3
I0313 11:41:13.600963 24450 net.cpp:408] SCNN_D_3 <- SCNN_D_3_SCNN_D_2/sum_0_split_0
I0313 11:41:13.600977 24450 net.cpp:382] SCNN_D_3 -> SCNN_D_3/message
I0313 11:41:13.602560 24450 net.cpp:124] Setting up SCNN_D_3
I0313 11:41:13.602582 24450 net.cpp:131] Top shape: 1 64 1 80 (5120)
I0313 11:41:13.602591 24450 net.cpp:139] Memory required for data: 317911040
I0313 11:41:13.602602 24450 net.cpp:467] Sharing parameters 'SCNN_D_w' owned by layer 'SCNN_D_1', param index 0
I0313 11:41:13.602609 24450 layer_factory.hpp:77] Creating layer SCNN_D_3/relu
I0313 11:41:13.602623 24450 net.cpp:86] Creating Layer SCNN_D_3/relu
I0313 11:41:13.602633 24450 net.cpp:408] SCNN_D_3/relu <- SCNN_D_3/message
I0313 11:41:13.602646 24450 net.cpp:369] SCNN_D_3/relu -> SCNN_D_3/message (in-place)
I0313 11:41:13.602830 24450 net.cpp:124] Setting up SCNN_D_3/relu
I0313 11:41:13.602845 24450 net.cpp:131] Top shape: 1 64 1 80 (5120)
I0313 11:41:13.602854 24450 net.cpp:139] Memory required for data: 317931520
I0313 11:41:13.602862 24450 layer_factory.hpp:77] Creating layer SCNN_D_3/sum
I0313 11:41:13.602872 24450 net.cpp:86] Creating Layer SCNN_D_3/sum
I0313 11:41:13.602882 24450 net.cpp:408] SCNN_D_3/sum <- SCNN_D_3/message
I0313 11:41:13.602896 24450 net.cpp:408] SCNN_D_3/sum <- slice1_4
I0313 11:41:13.602906 24450 net.cpp:382] SCNN_D_3/sum -> SCNN_D_4
I0313 11:41:13.602954 24450 net.cpp:124] Setting up SCNN_D_3/sum
I0313 11:41:13.602967 24450 net.cpp:131] Top shape: 1 64 1 80 (5120)
I0313 11:41:13.602975 24450 net.cpp:139] Memory required for data: 317952000
I0313 11:41:13.602982 24450 layer_factory.hpp:77] Creating layer SCNN_D_4_SCNN_D_3/sum_0_split
I0313 11:41:13.602993 24450 net.cpp:86] Creating Layer SCNN_D_4_SCNN_D_3/sum_0_split
I0313 11:41:13.603003 24450 net.cpp:408] SCNN_D_4_SCNN_D_3/sum_0_split <- SCNN_D_4
I0313 11:41:13.603018 24450 net.cpp:382] SCNN_D_4_SCNN_D_3/sum_0_split -> SCNN_D_4_SCNN_D_3/sum_0_split_0
I0313 11:41:13.603032 24450 net.cpp:382] SCNN_D_4_SCNN_D_3/sum_0_split -> SCNN_D_4_SCNN_D_3/sum_0_split_1
I0313 11:41:13.603106 24450 net.cpp:124] Setting up SCNN_D_4_SCNN_D_3/sum_0_split
I0313 11:41:13.603121 24450 net.cpp:131] Top shape: 1 64 1 80 (5120)
I0313 11:41:13.603132 24450 net.cpp:131] Top shape: 1 64 1 80 (5120)
I0313 11:41:13.603138 24450 net.cpp:139] Memory required for data: 317992960
I0313 11:41:13.603145 24450 layer_factory.hpp:77] Creating layer SCNN_D_4
I0313 11:41:13.603163 24450 net.cpp:86] Creating Layer SCNN_D_4
I0313 11:41:13.603173 24450 net.cpp:408] SCNN_D_4 <- SCNN_D_4_SCNN_D_3/sum_0_split_0
I0313 11:41:13.603186 24450 net.cpp:382] SCNN_D_4 -> SCNN_D_4/message
I0313 11:41:13.604773 24450 net.cpp:124] Setting up SCNN_D_4
I0313 11:41:13.604794 24450 net.cpp:131] Top shape: 1 64 1 80 (5120)
I0313 11:41:13.604809 24450 net.cpp:139] Memory required for data: 318013440
I0313 11:41:13.604821 24450 net.cpp:467] Sharing parameters 'SCNN_D_w' owned by layer 'SCNN_D_1', param index 0
I0313 11:41:13.604828 24450 layer_factory.hpp:77] Creating layer SCNN_D_4/relu
I0313 11:41:13.604840 24450 net.cpp:86] Creating Layer SCNN_D_4/relu
I0313 11:41:13.604849 24450 net.cpp:408] SCNN_D_4/relu <- SCNN_D_4/message
I0313 11:41:13.604861 24450 net.cpp:369] SCNN_D_4/relu -> SCNN_D_4/message (in-place)
I0313 11:41:13.605032 24450 net.cpp:124] Setting up SCNN_D_4/relu
I0313 11:41:13.605046 24450 net.cpp:131] Top shape: 1 64 1 80 (5120)
I0313 11:41:13.605051 24450 net.cpp:139] Memory required for data: 318033920
I0313 11:41:13.605057 24450 layer_factory.hpp:77] Creating layer SCNN_D_4/sum
I0313 11:41:13.605067 24450 net.cpp:86] Creating Layer SCNN_D_4/sum
I0313 11:41:13.605078 24450 net.cpp:408] SCNN_D_4/sum <- SCNN_D_4/message
I0313 11:41:13.605093 24450 net.cpp:408] SCNN_D_4/sum <- slice1_5
I0313 11:41:13.605101 24450 net.cpp:382] SCNN_D_4/sum -> SCNN_D_5
I0313 11:41:13.605147 24450 net.cpp:124] Setting up SCNN_D_4/sum
I0313 11:41:13.605160 24450 net.cpp:131] Top shape: 1 64 1 80 (5120)
I0313 11:41:13.605167 24450 net.cpp:139] Memory required for data: 318054400
I0313 11:41:13.605175 24450 layer_factory.hpp:77] Creating layer SCNN_D_5_SCNN_D_4/sum_0_split
I0313 11:41:13.605185 24450 net.cpp:86] Creating Layer SCNN_D_5_SCNN_D_4/sum_0_split
I0313 11:41:13.605193 24450 net.cpp:408] SCNN_D_5_SCNN_D_4/sum_0_split <- SCNN_D_5
I0313 11:41:13.605206 24450 net.cpp:382] SCNN_D_5_SCNN_D_4/sum_0_split -> SCNN_D_5_SCNN_D_4/sum_0_split_0
I0313 11:41:13.605221 24450 net.cpp:382] SCNN_D_5_SCNN_D_4/sum_0_split -> SCNN_D_5_SCNN_D_4/sum_0_split_1
I0313 11:41:13.605273 24450 net.cpp:124] Setting up SCNN_D_5_SCNN_D_4/sum_0_split
I0313 11:41:13.605285 24450 net.cpp:131] Top shape: 1 64 1 80 (5120)
I0313 11:41:13.605295 24450 net.cpp:131] Top shape: 1 64 1 80 (5120)
I0313 11:41:13.605302 24450 net.cpp:139] Memory required for data: 318095360
I0313 11:41:13.605309 24450 layer_factory.hpp:77] Creating layer SCNN_D_5
I0313 11:41:13.605324 24450 net.cpp:86] Creating Layer SCNN_D_5
I0313 11:41:13.605332 24450 net.cpp:408] SCNN_D_5 <- SCNN_D_5_SCNN_D_4/sum_0_split_0
I0313 11:41:13.605345 24450 net.cpp:382] SCNN_D_5 -> SCNN_D_5/message
I0313 11:41:13.606904 24450 net.cpp:124] Setting up SCNN_D_5
I0313 11:41:13.606925 24450 net.cpp:131] Top shape: 1 64 1 80 (5120)
I0313 11:41:13.606940 24450 net.cpp:139] Memory required for data: 318115840
I0313 11:41:13.606951 24450 net.cpp:467] Sharing parameters 'SCNN_D_w' owned by layer 'SCNN_D_1', param index 0
I0313 11:41:13.606959 24450 layer_factory.hpp:77] Creating layer SCNN_D_5/relu
I0313 11:41:13.606972 24450 net.cpp:86] Creating Layer SCNN_D_5/relu
I0313 11:41:13.606982 24450 net.cpp:408] SCNN_D_5/relu <- SCNN_D_5/message
I0313 11:41:13.606997 24450 net.cpp:369] SCNN_D_5/relu -> SCNN_D_5/message (in-place)
I0313 11:41:13.607183 24450 net.cpp:124] Setting up SCNN_D_5/relu
I0313 11:41:13.607197 24450 net.cpp:131] Top shape: 1 64 1 80 (5120)
I0313 11:41:13.607201 24450 net.cpp:139] Memory required for data: 318136320
I0313 11:41:13.607208 24450 layer_factory.hpp:77] Creating layer SCNN_D_5/sum
I0313 11:41:13.607218 24450 net.cpp:86] Creating Layer SCNN_D_5/sum
I0313 11:41:13.607228 24450 net.cpp:408] SCNN_D_5/sum <- SCNN_D_5/message
I0313 11:41:13.607241 24450 net.cpp:408] SCNN_D_5/sum <- slice1_6
I0313 11:41:13.607251 24450 net.cpp:382] SCNN_D_5/sum -> SCNN_D_6
I0313 11:41:13.607296 24450 net.cpp:124] Setting up SCNN_D_5/sum
I0313 11:41:13.607308 24450 net.cpp:131] Top shape: 1 64 1 80 (5120)
I0313 11:41:13.607316 24450 net.cpp:139] Memory required for data: 318156800
I0313 11:41:13.607323 24450 layer_factory.hpp:77] Creating layer SCNN_D_6_SCNN_D_5/sum_0_split
I0313 11:41:13.607333 24450 net.cpp:86] Creating Layer SCNN_D_6_SCNN_D_5/sum_0_split
I0313 11:41:13.607342 24450 net.cpp:408] SCNN_D_6_SCNN_D_5/sum_0_split <- SCNN_D_6
I0313 11:41:13.607355 24450 net.cpp:382] SCNN_D_6_SCNN_D_5/sum_0_split -> SCNN_D_6_SCNN_D_5/sum_0_split_0
I0313 11:41:13.607369 24450 net.cpp:382] SCNN_D_6_SCNN_D_5/sum_0_split -> SCNN_D_6_SCNN_D_5/sum_0_split_1
I0313 11:41:13.607421 24450 net.cpp:124] Setting up SCNN_D_6_SCNN_D_5/sum_0_split
I0313 11:41:13.607434 24450 net.cpp:131] Top shape: 1 64 1 80 (5120)
I0313 11:41:13.607445 24450 net.cpp:131] Top shape: 1 64 1 80 (5120)
I0313 11:41:13.607450 24450 net.cpp:139] Memory required for data: 318197760
I0313 11:41:13.607455 24450 layer_factory.hpp:77] Creating layer SCNN_D_6
I0313 11:41:13.607466 24450 net.cpp:86] Creating Layer SCNN_D_6
I0313 11:41:13.607477 24450 net.cpp:408] SCNN_D_6 <- SCNN_D_6_SCNN_D_5/sum_0_split_0
I0313 11:41:13.607491 24450 net.cpp:382] SCNN_D_6 -> SCNN_D_6/message
I0313 11:41:13.610311 24450 net.cpp:124] Setting up SCNN_D_6
I0313 11:41:13.610342 24450 net.cpp:131] Top shape: 1 64 1 80 (5120)
I0313 11:41:13.610349 24450 net.cpp:139] Memory required for data: 318218240
I0313 11:41:13.610363 24450 net.cpp:467] Sharing parameters 'SCNN_D_w' owned by layer 'SCNN_D_1', param index 0
I0313 11:41:13.610371 24450 layer_factory.hpp:77] Creating layer SCNN_D_6/relu
I0313 11:41:13.610400 24450 net.cpp:86] Creating Layer SCNN_D_6/relu
I0313 11:41:13.610414 24450 net.cpp:408] SCNN_D_6/relu <- SCNN_D_6/message
I0313 11:41:13.610430 24450 net.cpp:369] SCNN_D_6/relu -> SCNN_D_6/message (in-place)
I0313 11:41:13.610889 24450 net.cpp:124] Setting up SCNN_D_6/relu
I0313 11:41:13.610905 24450 net.cpp:131] Top shape: 1 64 1 80 (5120)
I0313 11:41:13.610910 24450 net.cpp:139] Memory required for data: 318238720
I0313 11:41:13.610924 24450 layer_factory.hpp:77] Creating layer SCNN_D_6/sum
I0313 11:41:13.610934 24450 net.cpp:86] Creating Layer SCNN_D_6/sum
I0313 11:41:13.610946 24450 net.cpp:408] SCNN_D_6/sum <- SCNN_D_6/message
I0313 11:41:13.610960 24450 net.cpp:408] SCNN_D_6/sum <- slice1_7
I0313 11:41:13.610971 24450 net.cpp:382] SCNN_D_6/sum -> SCNN_D_7
I0313 11:41:13.611027 24450 net.cpp:124] Setting up SCNN_D_6/sum
I0313 11:41:13.611042 24450 net.cpp:131] Top shape: 1 64 1 80 (5120)
I0313 11:41:13.611048 24450 net.cpp:139] Memory required for data: 318259200
I0313 11:41:13.611055 24450 layer_factory.hpp:77] Creating layer SCNN_D_7_SCNN_D_6/sum_0_split
I0313 11:41:13.611066 24450 net.cpp:86] Creating Layer SCNN_D_7_SCNN_D_6/sum_0_split
I0313 11:41:13.611076 24450 net.cpp:408] SCNN_D_7_SCNN_D_6/sum_0_split <- SCNN_D_7
I0313 11:41:13.611088 24450 net.cpp:382] SCNN_D_7_SCNN_D_6/sum_0_split -> SCNN_D_7_SCNN_D_6/sum_0_split_0
I0313 11:41:13.611104 24450 net.cpp:382] SCNN_D_7_SCNN_D_6/sum_0_split -> SCNN_D_7_SCNN_D_6/sum_0_split_1
I0313 11:41:13.611160 24450 net.cpp:124] Setting up SCNN_D_7_SCNN_D_6/sum_0_split
I0313 11:41:13.611172 24450 net.cpp:131] Top shape: 1 64 1 80 (5120)
I0313 11:41:13.611183 24450 net.cpp:131] Top shape: 1 64 1 80 (5120)
I0313 11:41:13.611191 24450 net.cpp:139] Memory required for data: 318300160
I0313 11:41:13.611198 24450 layer_factory.hpp:77] Creating layer SCNN_D_7
I0313 11:41:13.611213 24450 net.cpp:86] Creating Layer SCNN_D_7
I0313 11:41:13.611223 24450 net.cpp:408] SCNN_D_7 <- SCNN_D_7_SCNN_D_6/sum_0_split_0
I0313 11:41:13.611238 24450 net.cpp:382] SCNN_D_7 -> SCNN_D_7/message
I0313 11:41:13.612812 24450 net.cpp:124] Setting up SCNN_D_7
I0313 11:41:13.612833 24450 net.cpp:131] Top shape: 1 64 1 80 (5120)
I0313 11:41:13.612849 24450 net.cpp:139] Memory required for data: 318320640
I0313 11:41:13.612861 24450 net.cpp:467] Sharing parameters 'SCNN_D_w' owned by layer 'SCNN_D_1', param index 0
I0313 11:41:13.612869 24450 layer_factory.hpp:77] Creating layer SCNN_D_7/relu
I0313 11:41:13.612881 24450 net.cpp:86] Creating Layer SCNN_D_7/relu
I0313 11:41:13.612891 24450 net.cpp:408] SCNN_D_7/relu <- SCNN_D_7/message
I0313 11:41:13.612905 24450 net.cpp:369] SCNN_D_7/relu -> SCNN_D_7/message (in-place)
I0313 11:41:13.613086 24450 net.cpp:124] Setting up SCNN_D_7/relu
I0313 11:41:13.613099 24450 net.cpp:131] Top shape: 1 64 1 80 (5120)
I0313 11:41:13.613104 24450 net.cpp:139] Memory required for data: 318341120
I0313 11:41:13.613111 24450 layer_factory.hpp:77] Creating layer SCNN_D_7/sum
I0313 11:41:13.613122 24450 net.cpp:86] Creating Layer SCNN_D_7/sum
I0313 11:41:13.613133 24450 net.cpp:408] SCNN_D_7/sum <- SCNN_D_7/message
I0313 11:41:13.613147 24450 net.cpp:408] SCNN_D_7/sum <- slice1_8
I0313 11:41:13.613157 24450 net.cpp:382] SCNN_D_7/sum -> SCNN_D_8
I0313 11:41:13.613210 24450 net.cpp:124] Setting up SCNN_D_7/sum
I0313 11:41:13.613224 24450 net.cpp:131] Top shape: 1 64 1 80 (5120)
I0313 11:41:13.613232 24450 net.cpp:139] Memory required for data: 318361600
I0313 11:41:13.613240 24450 layer_factory.hpp:77] Creating layer SCNN_D_8_SCNN_D_7/sum_0_split
I0313 11:41:13.613248 24450 net.cpp:86] Creating Layer SCNN_D_8_SCNN_D_7/sum_0_split
I0313 11:41:13.613260 24450 net.cpp:408] SCNN_D_8_SCNN_D_7/sum_0_split <- SCNN_D_8
I0313 11:41:13.613272 24450 net.cpp:382] SCNN_D_8_SCNN_D_7/sum_0_split -> SCNN_D_8_SCNN_D_7/sum_0_split_0
I0313 11:41:13.613287 24450 net.cpp:382] SCNN_D_8_SCNN_D_7/sum_0_split -> SCNN_D_8_SCNN_D_7/sum_0_split_1
I0313 11:41:13.613345 24450 net.cpp:124] Setting up SCNN_D_8_SCNN_D_7/sum_0_split
I0313 11:41:13.613358 24450 net.cpp:131] Top shape: 1 64 1 80 (5120)
I0313 11:41:13.613369 24450 net.cpp:131] Top shape: 1 64 1 80 (5120)
I0313 11:41:13.613376 24450 net.cpp:139] Memory required for data: 318402560
I0313 11:41:13.613382 24450 layer_factory.hpp:77] Creating layer SCNN_D_8
I0313 11:41:13.613395 24450 net.cpp:86] Creating Layer SCNN_D_8
I0313 11:41:13.613405 24450 net.cpp:408] SCNN_D_8 <- SCNN_D_8_SCNN_D_7/sum_0_split_0
I0313 11:41:13.613420 24450 net.cpp:382] SCNN_D_8 -> SCNN_D_8/message
I0313 11:41:13.614992 24450 net.cpp:124] Setting up SCNN_D_8
I0313 11:41:13.615015 24450 net.cpp:131] Top shape: 1 64 1 80 (5120)
I0313 11:41:13.615029 24450 net.cpp:139] Memory required for data: 318423040
I0313 11:41:13.615041 24450 net.cpp:467] Sharing parameters 'SCNN_D_w' owned by layer 'SCNN_D_1', param index 0
I0313 11:41:13.615048 24450 layer_factory.hpp:77] Creating layer SCNN_D_8/relu
I0313 11:41:13.615061 24450 net.cpp:86] Creating Layer SCNN_D_8/relu
I0313 11:41:13.615072 24450 net.cpp:408] SCNN_D_8/relu <- SCNN_D_8/message
I0313 11:41:13.615085 24450 net.cpp:369] SCNN_D_8/relu -> SCNN_D_8/message (in-place)
I0313 11:41:13.615267 24450 net.cpp:124] Setting up SCNN_D_8/relu
I0313 11:41:13.615279 24450 net.cpp:131] Top shape: 1 64 1 80 (5120)
I0313 11:41:13.615284 24450 net.cpp:139] Memory required for data: 318443520
I0313 11:41:13.615291 24450 layer_factory.hpp:77] Creating layer SCNN_D_8/sum
I0313 11:41:13.615303 24450 net.cpp:86] Creating Layer SCNN_D_8/sum
I0313 11:41:13.615312 24450 net.cpp:408] SCNN_D_8/sum <- SCNN_D_8/message
I0313 11:41:13.615326 24450 net.cpp:408] SCNN_D_8/sum <- slice1_9
I0313 11:41:13.615336 24450 net.cpp:382] SCNN_D_8/sum -> SCNN_D_9
I0313 11:41:13.615396 24450 net.cpp:124] Setting up SCNN_D_8/sum
I0313 11:41:13.615415 24450 net.cpp:131] Top shape: 1 64 1 80 (5120)
I0313 11:41:13.615422 24450 net.cpp:139] Memory required for data: 318464000
I0313 11:41:13.615428 24450 layer_factory.hpp:77] Creating layer SCNN_D_9_SCNN_D_8/sum_0_split
I0313 11:41:13.615438 24450 net.cpp:86] Creating Layer SCNN_D_9_SCNN_D_8/sum_0_split
I0313 11:41:13.615448 24450 net.cpp:408] SCNN_D_9_SCNN_D_8/sum_0_split <- SCNN_D_9
I0313 11:41:13.615461 24450 net.cpp:382] SCNN_D_9_SCNN_D_8/sum_0_split -> SCNN_D_9_SCNN_D_8/sum_0_split_0
I0313 11:41:13.615476 24450 net.cpp:382] SCNN_D_9_SCNN_D_8/sum_0_split -> SCNN_D_9_SCNN_D_8/sum_0_split_1
I0313 11:41:13.615533 24450 net.cpp:124] Setting up SCNN_D_9_SCNN_D_8/sum_0_split
I0313 11:41:13.615546 24450 net.cpp:131] Top shape: 1 64 1 80 (5120)
I0313 11:41:13.615557 24450 net.cpp:131] Top shape: 1 64 1 80 (5120)
I0313 11:41:13.615564 24450 net.cpp:139] Memory required for data: 318504960
I0313 11:41:13.615579 24450 layer_factory.hpp:77] Creating layer SCNN_D_9
I0313 11:41:13.615594 24450 net.cpp:86] Creating Layer SCNN_D_9
I0313 11:41:13.615603 24450 net.cpp:408] SCNN_D_9 <- SCNN_D_9_SCNN_D_8/sum_0_split_0
I0313 11:41:13.615618 24450 net.cpp:382] SCNN_D_9 -> SCNN_D_9/message
I0313 11:41:13.618692 24450 net.cpp:124] Setting up SCNN_D_9
I0313 11:41:13.618726 24450 net.cpp:131] Top shape: 1 64 1 80 (5120)
I0313 11:41:13.618734 24450 net.cpp:139] Memory required for data: 318525440
I0313 11:41:13.618747 24450 net.cpp:467] Sharing parameters 'SCNN_D_w' owned by layer 'SCNN_D_1', param index 0
I0313 11:41:13.618755 24450 layer_factory.hpp:77] Creating layer SCNN_D_9/relu
I0313 11:41:13.618767 24450 net.cpp:86] Creating Layer SCNN_D_9/relu
I0313 11:41:13.618780 24450 net.cpp:408] SCNN_D_9/relu <- SCNN_D_9/message
I0313 11:41:13.618799 24450 net.cpp:369] SCNN_D_9/relu -> SCNN_D_9/message (in-place)
I0313 11:41:13.618999 24450 net.cpp:124] Setting up SCNN_D_9/relu
I0313 11:41:13.619014 24450 net.cpp:131] Top shape: 1 64 1 80 (5120)
I0313 11:41:13.619020 24450 net.cpp:139] Memory required for data: 318545920
I0313 11:41:13.619027 24450 layer_factory.hpp:77] Creating layer SCNN_D_9/sum
I0313 11:41:13.619038 24450 net.cpp:86] Creating Layer SCNN_D_9/sum
I0313 11:41:13.619050 24450 net.cpp:408] SCNN_D_9/sum <- SCNN_D_9/message
I0313 11:41:13.619065 24450 net.cpp:408] SCNN_D_9/sum <- slice1_10
I0313 11:41:13.619076 24450 net.cpp:382] SCNN_D_9/sum -> SCNN_D_10
I0313 11:41:13.619132 24450 net.cpp:124] Setting up SCNN_D_9/sum
I0313 11:41:13.619146 24450 net.cpp:131] Top shape: 1 64 1 80 (5120)
I0313 11:41:13.619153 24450 net.cpp:139] Memory required for data: 318566400
I0313 11:41:13.619160 24450 layer_factory.hpp:77] Creating layer SCNN_D_10_SCNN_D_9/sum_0_split
I0313 11:41:13.619174 24450 net.cpp:86] Creating Layer SCNN_D_10_SCNN_D_9/sum_0_split
I0313 11:41:13.619184 24450 net.cpp:408] SCNN_D_10_SCNN_D_9/sum_0_split <- SCNN_D_10
I0313 11:41:13.619197 24450 net.cpp:382] SCNN_D_10_SCNN_D_9/sum_0_split -> SCNN_D_10_SCNN_D_9/sum_0_split_0
I0313 11:41:13.619212 24450 net.cpp:382] SCNN_D_10_SCNN_D_9/sum_0_split -> SCNN_D_10_SCNN_D_9/sum_0_split_1
I0313 11:41:13.619274 24450 net.cpp:124] Setting up SCNN_D_10_SCNN_D_9/sum_0_split
I0313 11:41:13.619287 24450 net.cpp:131] Top shape: 1 64 1 80 (5120)
I0313 11:41:13.619297 24450 net.cpp:131] Top shape: 1 64 1 80 (5120)
I0313 11:41:13.619304 24450 net.cpp:139] Memory required for data: 318607360
I0313 11:41:13.619312 24450 layer_factory.hpp:77] Creating layer SCNN_D_10
I0313 11:41:13.619328 24450 net.cpp:86] Creating Layer SCNN_D_10
I0313 11:41:13.619338 24450 net.cpp:408] SCNN_D_10 <- SCNN_D_10_SCNN_D_9/sum_0_split_0
I0313 11:41:13.619352 24450 net.cpp:382] SCNN_D_10 -> SCNN_D_10/message
I0313 11:41:13.621275 24450 net.cpp:124] Setting up SCNN_D_10
I0313 11:41:13.621301 24450 net.cpp:131] Top shape: 1 64 1 80 (5120)
I0313 11:41:13.621312 24450 net.cpp:139] Memory required for data: 318627840
I0313 11:41:13.621323 24450 net.cpp:467] Sharing parameters 'SCNN_D_w' owned by layer 'SCNN_D_1', param index 0
I0313 11:41:13.621331 24450 layer_factory.hpp:77] Creating layer SCNN_D_10/relu
I0313 11:41:13.621345 24450 net.cpp:86] Creating Layer SCNN_D_10/relu
I0313 11:41:13.621356 24450 net.cpp:408] SCNN_D_10/relu <- SCNN_D_10/message
I0313 11:41:13.621369 24450 net.cpp:369] SCNN_D_10/relu -> SCNN_D_10/message (in-place)
I0313 11:41:13.621829 24450 net.cpp:124] Setting up SCNN_D_10/relu
I0313 11:41:13.621845 24450 net.cpp:131] Top shape: 1 64 1 80 (5120)
I0313 11:41:13.621850 24450 net.cpp:139] Memory required for data: 318648320
I0313 11:41:13.621858 24450 layer_factory.hpp:77] Creating layer SCNN_D_10/sum
I0313 11:41:13.621870 24450 net.cpp:86] Creating Layer SCNN_D_10/sum
I0313 11:41:13.621882 24450 net.cpp:408] SCNN_D_10/sum <- SCNN_D_10/message
I0313 11:41:13.621897 24450 net.cpp:408] SCNN_D_10/sum <- slice1_11
I0313 11:41:13.621907 24450 net.cpp:382] SCNN_D_10/sum -> SCNN_D_11
I0313 11:41:13.621958 24450 net.cpp:124] Setting up SCNN_D_10/sum
I0313 11:41:13.621973 24450 net.cpp:131] Top shape: 1 64 1 80 (5120)
I0313 11:41:13.621979 24450 net.cpp:139] Memory required for data: 318668800
I0313 11:41:13.621987 24450 layer_factory.hpp:77] Creating layer SCNN_D_11_SCNN_D_10/sum_0_split
I0313 11:41:13.622000 24450 net.cpp:86] Creating Layer SCNN_D_11_SCNN_D_10/sum_0_split
I0313 11:41:13.622011 24450 net.cpp:408] SCNN_D_11_SCNN_D_10/sum_0_split <- SCNN_D_11
I0313 11:41:13.622026 24450 net.cpp:382] SCNN_D_11_SCNN_D_10/sum_0_split -> SCNN_D_11_SCNN_D_10/sum_0_split_0
I0313 11:41:13.622041 24450 net.cpp:382] SCNN_D_11_SCNN_D_10/sum_0_split -> SCNN_D_11_SCNN_D_10/sum_0_split_1
I0313 11:41:13.622099 24450 net.cpp:124] Setting up SCNN_D_11_SCNN_D_10/sum_0_split
I0313 11:41:13.622113 24450 net.cpp:131] Top shape: 1 64 1 80 (5120)
I0313 11:41:13.622123 24450 net.cpp:131] Top shape: 1 64 1 80 (5120)
I0313 11:41:13.622128 24450 net.cpp:139] Memory required for data: 318709760
I0313 11:41:13.622133 24450 layer_factory.hpp:77] Creating layer SCNN_D_11
I0313 11:41:13.622146 24450 net.cpp:86] Creating Layer SCNN_D_11
I0313 11:41:13.622155 24450 net.cpp:408] SCNN_D_11 <- SCNN_D_11_SCNN_D_10/sum_0_split_0
I0313 11:41:13.622172 24450 net.cpp:382] SCNN_D_11 -> SCNN_D_11/message
I0313 11:41:13.624651 24450 net.cpp:124] Setting up SCNN_D_11
I0313 11:41:13.624683 24450 net.cpp:131] Top shape: 1 64 1 80 (5120)
I0313 11:41:13.624692 24450 net.cpp:139] Memory required for data: 318730240
I0313 11:41:13.624706 24450 net.cpp:467] Sharing parameters 'SCNN_D_w' owned by layer 'SCNN_D_1', param index 0
I0313 11:41:13.624713 24450 layer_factory.hpp:77] Creating layer SCNN_D_11/relu
I0313 11:41:13.624727 24450 net.cpp:86] Creating Layer SCNN_D_11/relu
I0313 11:41:13.624738 24450 net.cpp:408] SCNN_D_11/relu <- SCNN_D_11/message
I0313 11:41:13.624754 24450 net.cpp:369] SCNN_D_11/relu -> SCNN_D_11/message (in-place)
I0313 11:41:13.624956 24450 net.cpp:124] Setting up SCNN_D_11/relu
I0313 11:41:13.624970 24450 net.cpp:131] Top shape: 1 64 1 80 (5120)
I0313 11:41:13.624975 24450 net.cpp:139] Memory required for data: 318750720
I0313 11:41:13.624982 24450 layer_factory.hpp:77] Creating layer SCNN_D_11/sum
I0313 11:41:13.624994 24450 net.cpp:86] Creating Layer SCNN_D_11/sum
I0313 11:41:13.625005 24450 net.cpp:408] SCNN_D_11/sum <- SCNN_D_11/message
I0313 11:41:13.625020 24450 net.cpp:408] SCNN_D_11/sum <- slice1_12
I0313 11:41:13.625032 24450 net.cpp:382] SCNN_D_11/sum -> SCNN_D_12
I0313 11:41:13.625087 24450 net.cpp:124] Setting up SCNN_D_11/sum
I0313 11:41:13.625102 24450 net.cpp:131] Top shape: 1 64 1 80 (5120)
I0313 11:41:13.625108 24450 net.cpp:139] Memory required for data: 318771200
I0313 11:41:13.625114 24450 layer_factory.hpp:77] Creating layer SCNN_D_12_SCNN_D_11/sum_0_split
I0313 11:41:13.625128 24450 net.cpp:86] Creating Layer SCNN_D_12_SCNN_D_11/sum_0_split
I0313 11:41:13.625139 24450 net.cpp:408] SCNN_D_12_SCNN_D_11/sum_0_split <- SCNN_D_12
I0313 11:41:13.625152 24450 net.cpp:382] SCNN_D_12_SCNN_D_11/sum_0_split -> SCNN_D_12_SCNN_D_11/sum_0_split_0
I0313 11:41:13.625169 24450 net.cpp:382] SCNN_D_12_SCNN_D_11/sum_0_split -> SCNN_D_12_SCNN_D_11/sum_0_split_1
I0313 11:41:13.625228 24450 net.cpp:124] Setting up SCNN_D_12_SCNN_D_11/sum_0_split
I0313 11:41:13.625242 24450 net.cpp:131] Top shape: 1 64 1 80 (5120)
I0313 11:41:13.625255 24450 net.cpp:131] Top shape: 1 64 1 80 (5120)
I0313 11:41:13.625262 24450 net.cpp:139] Memory required for data: 318812160
I0313 11:41:13.625270 24450 layer_factory.hpp:77] Creating layer SCNN_D_12
I0313 11:41:13.625285 24450 net.cpp:86] Creating Layer SCNN_D_12
I0313 11:41:13.625295 24450 net.cpp:408] SCNN_D_12 <- SCNN_D_12_SCNN_D_11/sum_0_split_0
I0313 11:41:13.625311 24450 net.cpp:382] SCNN_D_12 -> SCNN_D_12/message
I0313 11:41:13.628341 24450 net.cpp:124] Setting up SCNN_D_12
I0313 11:41:13.628376 24450 net.cpp:131] Top shape: 1 64 1 80 (5120)
I0313 11:41:13.628387 24450 net.cpp:139] Memory required for data: 318832640
I0313 11:41:13.628401 24450 net.cpp:467] Sharing parameters 'SCNN_D_w' owned by layer 'SCNN_D_1', param index 0
I0313 11:41:13.628408 24450 layer_factory.hpp:77] Creating layer SCNN_D_12/relu
I0313 11:41:13.628424 24450 net.cpp:86] Creating Layer SCNN_D_12/relu
I0313 11:41:13.628437 24450 net.cpp:408] SCNN_D_12/relu <- SCNN_D_12/message
I0313 11:41:13.628454 24450 net.cpp:369] SCNN_D_12/relu -> SCNN_D_12/message (in-place)
I0313 11:41:13.628659 24450 net.cpp:124] Setting up SCNN_D_12/relu
I0313 11:41:13.628674 24450 net.cpp:131] Top shape: 1 64 1 80 (5120)
I0313 11:41:13.628679 24450 net.cpp:139] Memory required for data: 318853120
I0313 11:41:13.628685 24450 layer_factory.hpp:77] Creating layer SCNN_D_12/sum
I0313 11:41:13.628697 24450 net.cpp:86] Creating Layer SCNN_D_12/sum
I0313 11:41:13.628708 24450 net.cpp:408] SCNN_D_12/sum <- SCNN_D_12/message
I0313 11:41:13.628723 24450 net.cpp:408] SCNN_D_12/sum <- slice1_13
I0313 11:41:13.628734 24450 net.cpp:382] SCNN_D_12/sum -> SCNN_D_13
I0313 11:41:13.628793 24450 net.cpp:124] Setting up SCNN_D_12/sum
I0313 11:41:13.628808 24450 net.cpp:131] Top shape: 1 64 1 80 (5120)
I0313 11:41:13.628815 24450 net.cpp:139] Memory required for data: 318873600
I0313 11:41:13.628823 24450 layer_factory.hpp:77] Creating layer SCNN_D_13_SCNN_D_12/sum_0_split
I0313 11:41:13.628834 24450 net.cpp:86] Creating Layer SCNN_D_13_SCNN_D_12/sum_0_split
I0313 11:41:13.628844 24450 net.cpp:408] SCNN_D_13_SCNN_D_12/sum_0_split <- SCNN_D_13
I0313 11:41:13.628860 24450 net.cpp:382] SCNN_D_13_SCNN_D_12/sum_0_split -> SCNN_D_13_SCNN_D_12/sum_0_split_0
I0313 11:41:13.628875 24450 net.cpp:382] SCNN_D_13_SCNN_D_12/sum_0_split -> SCNN_D_13_SCNN_D_12/sum_0_split_1
I0313 11:41:13.628937 24450 net.cpp:124] Setting up SCNN_D_13_SCNN_D_12/sum_0_split
I0313 11:41:13.628952 24450 net.cpp:131] Top shape: 1 64 1 80 (5120)
I0313 11:41:13.628962 24450 net.cpp:131] Top shape: 1 64 1 80 (5120)
I0313 11:41:13.628969 24450 net.cpp:139] Memory required for data: 318914560
I0313 11:41:13.628978 24450 layer_factory.hpp:77] Creating layer SCNN_D_13
I0313 11:41:13.628996 24450 net.cpp:86] Creating Layer SCNN_D_13
I0313 11:41:13.629006 24450 net.cpp:408] SCNN_D_13 <- SCNN_D_13_SCNN_D_12/sum_0_split_0
I0313 11:41:13.629021 24450 net.cpp:382] SCNN_D_13 -> SCNN_D_13/message
I0313 11:41:13.630676 24450 net.cpp:124] Setting up SCNN_D_13
I0313 11:41:13.630700 24450 net.cpp:131] Top shape: 1 64 1 80 (5120)
I0313 11:41:13.630709 24450 net.cpp:139] Memory required for data: 318935040
I0313 11:41:13.630720 24450 net.cpp:467] Sharing parameters 'SCNN_D_w' owned by layer 'SCNN_D_1', param index 0
I0313 11:41:13.630728 24450 layer_factory.hpp:77] Creating layer SCNN_D_13/relu
I0313 11:41:13.630743 24450 net.cpp:86] Creating Layer SCNN_D_13/relu
I0313 11:41:13.630753 24450 net.cpp:408] SCNN_D_13/relu <- SCNN_D_13/message
I0313 11:41:13.630769 24450 net.cpp:369] SCNN_D_13/relu -> SCNN_D_13/message (in-place)
I0313 11:41:13.630962 24450 net.cpp:124] Setting up SCNN_D_13/relu
I0313 11:41:13.630975 24450 net.cpp:131] Top shape: 1 64 1 80 (5120)
I0313 11:41:13.630980 24450 net.cpp:139] Memory required for data: 318955520
I0313 11:41:13.630987 24450 layer_factory.hpp:77] Creating layer SCNN_D_13/sum
I0313 11:41:13.630997 24450 net.cpp:86] Creating Layer SCNN_D_13/sum
I0313 11:41:13.631008 24450 net.cpp:408] SCNN_D_13/sum <- SCNN_D_13/message
I0313 11:41:13.631022 24450 net.cpp:408] SCNN_D_13/sum <- slice1_14
I0313 11:41:13.631034 24450 net.cpp:382] SCNN_D_13/sum -> SCNN_D_14
I0313 11:41:13.631084 24450 net.cpp:124] Setting up SCNN_D_13/sum
I0313 11:41:13.631100 24450 net.cpp:131] Top shape: 1 64 1 80 (5120)
I0313 11:41:13.631106 24450 net.cpp:139] Memory required for data: 318976000
I0313 11:41:13.631114 24450 layer_factory.hpp:77] Creating layer SCNN_D_14_SCNN_D_13/sum_0_split
I0313 11:41:13.631126 24450 net.cpp:86] Creating Layer SCNN_D_14_SCNN_D_13/sum_0_split
I0313 11:41:13.631137 24450 net.cpp:408] SCNN_D_14_SCNN_D_13/sum_0_split <- SCNN_D_14
I0313 11:41:13.631150 24450 net.cpp:382] SCNN_D_14_SCNN_D_13/sum_0_split -> SCNN_D_14_SCNN_D_13/sum_0_split_0
I0313 11:41:13.631165 24450 net.cpp:382] SCNN_D_14_SCNN_D_13/sum_0_split -> SCNN_D_14_SCNN_D_13/sum_0_split_1
I0313 11:41:13.631227 24450 net.cpp:124] Setting up SCNN_D_14_SCNN_D_13/sum_0_split
I0313 11:41:13.631242 24450 net.cpp:131] Top shape: 1 64 1 80 (5120)
I0313 11:41:13.631253 24450 net.cpp:131] Top shape: 1 64 1 80 (5120)
I0313 11:41:13.631259 24450 net.cpp:139] Memory required for data: 319016960
I0313 11:41:13.631266 24450 layer_factory.hpp:77] Creating layer SCNN_D_14
I0313 11:41:13.631283 24450 net.cpp:86] Creating Layer SCNN_D_14
I0313 11:41:13.631292 24450 net.cpp:408] SCNN_D_14 <- SCNN_D_14_SCNN_D_13/sum_0_split_0
I0313 11:41:13.631309 24450 net.cpp:382] SCNN_D_14 -> SCNN_D_14/message
I0313 11:41:13.632949 24450 net.cpp:124] Setting up SCNN_D_14
I0313 11:41:13.632972 24450 net.cpp:131] Top shape: 1 64 1 80 (5120)
I0313 11:41:13.632983 24450 net.cpp:139] Memory required for data: 319037440
I0313 11:41:13.632992 24450 net.cpp:467] Sharing parameters 'SCNN_D_w' owned by layer 'SCNN_D_1', param index 0
I0313 11:41:13.632997 24450 layer_factory.hpp:77] Creating layer SCNN_D_14/relu
I0313 11:41:13.633006 24450 net.cpp:86] Creating Layer SCNN_D_14/relu
I0313 11:41:13.633019 24450 net.cpp:408] SCNN_D_14/relu <- SCNN_D_14/message
I0313 11:41:13.633033 24450 net.cpp:369] SCNN_D_14/relu -> SCNN_D_14/message (in-place)
I0313 11:41:13.633229 24450 net.cpp:124] Setting up SCNN_D_14/relu
I0313 11:41:13.633241 24450 net.cpp:131] Top shape: 1 64 1 80 (5120)
I0313 11:41:13.633246 24450 net.cpp:139] Memory required for data: 319057920
I0313 11:41:13.633253 24450 layer_factory.hpp:77] Creating layer SCNN_D_14/sum
I0313 11:41:13.633265 24450 net.cpp:86] Creating Layer SCNN_D_14/sum
I0313 11:41:13.633276 24450 net.cpp:408] SCNN_D_14/sum <- SCNN_D_14/message
I0313 11:41:13.633291 24450 net.cpp:408] SCNN_D_14/sum <- slice1_15
I0313 11:41:13.633301 24450 net.cpp:382] SCNN_D_14/sum -> SCNN_D_15
I0313 11:41:13.633352 24450 net.cpp:124] Setting up SCNN_D_14/sum
I0313 11:41:13.633365 24450 net.cpp:131] Top shape: 1 64 1 80 (5120)
I0313 11:41:13.633373 24450 net.cpp:139] Memory required for data: 319078400
I0313 11:41:13.633379 24450 layer_factory.hpp:77] Creating layer SCNN_D_15_SCNN_D_14/sum_0_split
I0313 11:41:13.633390 24450 net.cpp:86] Creating Layer SCNN_D_15_SCNN_D_14/sum_0_split
I0313 11:41:13.633400 24450 net.cpp:408] SCNN_D_15_SCNN_D_14/sum_0_split <- SCNN_D_15
I0313 11:41:13.633416 24450 net.cpp:382] SCNN_D_15_SCNN_D_14/sum_0_split -> SCNN_D_15_SCNN_D_14/sum_0_split_0
I0313 11:41:13.633431 24450 net.cpp:382] SCNN_D_15_SCNN_D_14/sum_0_split -> SCNN_D_15_SCNN_D_14/sum_0_split_1
I0313 11:41:13.633491 24450 net.cpp:124] Setting up SCNN_D_15_SCNN_D_14/sum_0_split
I0313 11:41:13.633505 24450 net.cpp:131] Top shape: 1 64 1 80 (5120)
I0313 11:41:13.633515 24450 net.cpp:131] Top shape: 1 64 1 80 (5120)
I0313 11:41:13.633522 24450 net.cpp:139] Memory required for data: 319119360
I0313 11:41:13.633529 24450 layer_factory.hpp:77] Creating layer SCNN_D_15
I0313 11:41:13.633544 24450 net.cpp:86] Creating Layer SCNN_D_15
I0313 11:41:13.633554 24450 net.cpp:408] SCNN_D_15 <- SCNN_D_15_SCNN_D_14/sum_0_split_0
I0313 11:41:13.633569 24450 net.cpp:382] SCNN_D_15 -> SCNN_D_15/message
I0313 11:41:13.635192 24450 net.cpp:124] Setting up SCNN_D_15
I0313 11:41:13.635217 24450 net.cpp:131] Top shape: 1 64 1 80 (5120)
I0313 11:41:13.635226 24450 net.cpp:139] Memory required for data: 319139840
I0313 11:41:13.635237 24450 net.cpp:467] Sharing parameters 'SCNN_D_w' owned by layer 'SCNN_D_1', param index 0
I0313 11:41:13.635246 24450 layer_factory.hpp:77] Creating layer SCNN_D_15/relu
I0313 11:41:13.635257 24450 net.cpp:86] Creating Layer SCNN_D_15/relu
I0313 11:41:13.635267 24450 net.cpp:408] SCNN_D_15/relu <- SCNN_D_15/message
I0313 11:41:13.635282 24450 net.cpp:369] SCNN_D_15/relu -> SCNN_D_15/message (in-place)
I0313 11:41:13.637082 24450 net.cpp:124] Setting up SCNN_D_15/relu
I0313 11:41:13.637104 24450 net.cpp:131] Top shape: 1 64 1 80 (5120)
I0313 11:41:13.637110 24450 net.cpp:139] Memory required for data: 319160320
I0313 11:41:13.637120 24450 layer_factory.hpp:77] Creating layer SCNN_D_15/sum
I0313 11:41:13.637132 24450 net.cpp:86] Creating Layer SCNN_D_15/sum
I0313 11:41:13.637147 24450 net.cpp:408] SCNN_D_15/sum <- SCNN_D_15/message
I0313 11:41:13.637166 24450 net.cpp:408] SCNN_D_15/sum <- slice1_16
I0313 11:41:13.637179 24450 net.cpp:382] SCNN_D_15/sum -> SCNN_D_16
I0313 11:41:13.637239 24450 net.cpp:124] Setting up SCNN_D_15/sum
I0313 11:41:13.637256 24450 net.cpp:131] Top shape: 1 64 1 80 (5120)
I0313 11:41:13.637264 24450 net.cpp:139] Memory required for data: 319180800
I0313 11:41:13.637270 24450 layer_factory.hpp:77] Creating layer SCNN_D_16_SCNN_D_15/sum_0_split
I0313 11:41:13.637284 24450 net.cpp:86] Creating Layer SCNN_D_16_SCNN_D_15/sum_0_split
I0313 11:41:13.637293 24450 net.cpp:408] SCNN_D_16_SCNN_D_15/sum_0_split <- SCNN_D_16
I0313 11:41:13.637310 24450 net.cpp:382] SCNN_D_16_SCNN_D_15/sum_0_split -> SCNN_D_16_SCNN_D_15/sum_0_split_0
I0313 11:41:13.637326 24450 net.cpp:382] SCNN_D_16_SCNN_D_15/sum_0_split -> SCNN_D_16_SCNN_D_15/sum_0_split_1
I0313 11:41:13.637389 24450 net.cpp:124] Setting up SCNN_D_16_SCNN_D_15/sum_0_split
I0313 11:41:13.637405 24450 net.cpp:131] Top shape: 1 64 1 80 (5120)
I0313 11:41:13.637418 24450 net.cpp:131] Top shape: 1 64 1 80 (5120)
I0313 11:41:13.637424 24450 net.cpp:139] Memory required for data: 319221760
I0313 11:41:13.637432 24450 layer_factory.hpp:77] Creating layer SCNN_D_16
I0313 11:41:13.637447 24450 net.cpp:86] Creating Layer SCNN_D_16
I0313 11:41:13.637457 24450 net.cpp:408] SCNN_D_16 <- SCNN_D_16_SCNN_D_15/sum_0_split_0
I0313 11:41:13.637475 24450 net.cpp:382] SCNN_D_16 -> SCNN_D_16/message
I0313 11:41:13.639130 24450 net.cpp:124] Setting up SCNN_D_16
I0313 11:41:13.639155 24450 net.cpp:131] Top shape: 1 64 1 80 (5120)
I0313 11:41:13.639165 24450 net.cpp:139] Memory required for data: 319242240
I0313 11:41:13.639176 24450 net.cpp:467] Sharing parameters 'SCNN_D_w' owned by layer 'SCNN_D_1', param index 0
I0313 11:41:13.639183 24450 layer_factory.hpp:77] Creating layer SCNN_D_16/relu
I0313 11:41:13.639197 24450 net.cpp:86] Creating Layer SCNN_D_16/relu
I0313 11:41:13.639209 24450 net.cpp:408] SCNN_D_16/relu <- SCNN_D_16/message
I0313 11:41:13.639222 24450 net.cpp:369] SCNN_D_16/relu -> SCNN_D_16/message (in-place)
I0313 11:41:13.639418 24450 net.cpp:124] Setting up SCNN_D_16/relu
I0313 11:41:13.639432 24450 net.cpp:131] Top shape: 1 64 1 80 (5120)
I0313 11:41:13.639447 24450 net.cpp:139] Memory required for data: 319262720
I0313 11:41:13.639454 24450 layer_factory.hpp:77] Creating layer SCNN_D_16/sum
I0313 11:41:13.639466 24450 net.cpp:86] Creating Layer SCNN_D_16/sum
I0313 11:41:13.639477 24450 net.cpp:408] SCNN_D_16/sum <- SCNN_D_16/message
I0313 11:41:13.639490 24450 net.cpp:408] SCNN_D_16/sum <- slice1_17
I0313 11:41:13.639503 24450 net.cpp:382] SCNN_D_16/sum -> SCNN_D_17
I0313 11:41:13.639552 24450 net.cpp:124] Setting up SCNN_D_16/sum
I0313 11:41:13.639566 24450 net.cpp:131] Top shape: 1 64 1 80 (5120)
I0313 11:41:13.639581 24450 net.cpp:139] Memory required for data: 319283200
I0313 11:41:13.639590 24450 layer_factory.hpp:77] Creating layer SCNN_D_17_SCNN_D_16/sum_0_split
I0313 11:41:13.639605 24450 net.cpp:86] Creating Layer SCNN_D_17_SCNN_D_16/sum_0_split
I0313 11:41:13.639617 24450 net.cpp:408] SCNN_D_17_SCNN_D_16/sum_0_split <- SCNN_D_17
I0313 11:41:13.639631 24450 net.cpp:382] SCNN_D_17_SCNN_D_16/sum_0_split -> SCNN_D_17_SCNN_D_16/sum_0_split_0
I0313 11:41:13.639647 24450 net.cpp:382] SCNN_D_17_SCNN_D_16/sum_0_split -> SCNN_D_17_SCNN_D_16/sum_0_split_1
I0313 11:41:13.639709 24450 net.cpp:124] Setting up SCNN_D_17_SCNN_D_16/sum_0_split
I0313 11:41:13.639724 24450 net.cpp:131] Top shape: 1 64 1 80 (5120)
I0313 11:41:13.639735 24450 net.cpp:131] Top shape: 1 64 1 80 (5120)
I0313 11:41:13.639742 24450 net.cpp:139] Memory required for data: 319324160
I0313 11:41:13.639750 24450 layer_factory.hpp:77] Creating layer SCNN_D_17
I0313 11:41:13.639765 24450 net.cpp:86] Creating Layer SCNN_D_17
I0313 11:41:13.639775 24450 net.cpp:408] SCNN_D_17 <- SCNN_D_17_SCNN_D_16/sum_0_split_0
I0313 11:41:13.639789 24450 net.cpp:382] SCNN_D_17 -> SCNN_D_17/message
I0313 11:41:13.641434 24450 net.cpp:124] Setting up SCNN_D_17
I0313 11:41:13.641458 24450 net.cpp:131] Top shape: 1 64 1 80 (5120)
I0313 11:41:13.641469 24450 net.cpp:139] Memory required for data: 319344640
I0313 11:41:13.641479 24450 net.cpp:467] Sharing parameters 'SCNN_D_w' owned by layer 'SCNN_D_1', param index 0
I0313 11:41:13.641486 24450 layer_factory.hpp:77] Creating layer SCNN_D_17/relu
I0313 11:41:13.641499 24450 net.cpp:86] Creating Layer SCNN_D_17/relu
I0313 11:41:13.641510 24450 net.cpp:408] SCNN_D_17/relu <- SCNN_D_17/message
I0313 11:41:13.641525 24450 net.cpp:369] SCNN_D_17/relu -> SCNN_D_17/message (in-place)
I0313 11:41:13.641721 24450 net.cpp:124] Setting up SCNN_D_17/relu
I0313 11:41:13.641734 24450 net.cpp:131] Top shape: 1 64 1 80 (5120)
I0313 11:41:13.641739 24450 net.cpp:139] Memory required for data: 319365120
I0313 11:41:13.641744 24450 layer_factory.hpp:77] Creating layer SCNN_D_17/sum
I0313 11:41:13.641753 24450 net.cpp:86] Creating Layer SCNN_D_17/sum
I0313 11:41:13.641763 24450 net.cpp:408] SCNN_D_17/sum <- SCNN_D_17/message
I0313 11:41:13.641777 24450 net.cpp:408] SCNN_D_17/sum <- slice1_18
I0313 11:41:13.641789 24450 net.cpp:382] SCNN_D_17/sum -> SCNN_D_18
I0313 11:41:13.641842 24450 net.cpp:124] Setting up SCNN_D_17/sum
I0313 11:41:13.641856 24450 net.cpp:131] Top shape: 1 64 1 80 (5120)
I0313 11:41:13.641863 24450 net.cpp:139] Memory required for data: 319385600
I0313 11:41:13.641871 24450 layer_factory.hpp:77] Creating layer SCNN_D_18_SCNN_D_17/sum_0_split
I0313 11:41:13.641880 24450 net.cpp:86] Creating Layer SCNN_D_18_SCNN_D_17/sum_0_split
I0313 11:41:13.641891 24450 net.cpp:408] SCNN_D_18_SCNN_D_17/sum_0_split <- SCNN_D_18
I0313 11:41:13.641906 24450 net.cpp:382] SCNN_D_18_SCNN_D_17/sum_0_split -> SCNN_D_18_SCNN_D_17/sum_0_split_0
I0313 11:41:13.641921 24450 net.cpp:382] SCNN_D_18_SCNN_D_17/sum_0_split -> SCNN_D_18_SCNN_D_17/sum_0_split_1
I0313 11:41:13.641980 24450 net.cpp:124] Setting up SCNN_D_18_SCNN_D_17/sum_0_split
I0313 11:41:13.641994 24450 net.cpp:131] Top shape: 1 64 1 80 (5120)
I0313 11:41:13.642005 24450 net.cpp:131] Top shape: 1 64 1 80 (5120)
I0313 11:41:13.642012 24450 net.cpp:139] Memory required for data: 319426560
I0313 11:41:13.642019 24450 layer_factory.hpp:77] Creating layer SCNN_D_18
I0313 11:41:13.642035 24450 net.cpp:86] Creating Layer SCNN_D_18
I0313 11:41:13.642045 24450 net.cpp:408] SCNN_D_18 <- SCNN_D_18_SCNN_D_17/sum_0_split_0
I0313 11:41:13.642061 24450 net.cpp:382] SCNN_D_18 -> SCNN_D_18/message
I0313 11:41:13.643718 24450 net.cpp:124] Setting up SCNN_D_18
I0313 11:41:13.643741 24450 net.cpp:131] Top shape: 1 64 1 80 (5120)
I0313 11:41:13.643750 24450 net.cpp:139] Memory required for data: 319447040
I0313 11:41:13.643762 24450 net.cpp:467] Sharing parameters 'SCNN_D_w' owned by layer 'SCNN_D_1', param index 0
I0313 11:41:13.643769 24450 layer_factory.hpp:77] Creating layer SCNN_D_18/relu
I0313 11:41:13.643781 24450 net.cpp:86] Creating Layer SCNN_D_18/relu
I0313 11:41:13.643792 24450 net.cpp:408] SCNN_D_18/relu <- SCNN_D_18/message
I0313 11:41:13.643808 24450 net.cpp:369] SCNN_D_18/relu -> SCNN_D_18/message (in-place)
I0313 11:41:13.644006 24450 net.cpp:124] Setting up SCNN_D_18/relu
I0313 11:41:13.644021 24450 net.cpp:131] Top shape: 1 64 1 80 (5120)
I0313 11:41:13.644035 24450 net.cpp:139] Memory required for data: 319467520
I0313 11:41:13.644043 24450 layer_factory.hpp:77] Creating layer SCNN_D_18/sum
I0313 11:41:13.644053 24450 net.cpp:86] Creating Layer SCNN_D_18/sum
I0313 11:41:13.644064 24450 net.cpp:408] SCNN_D_18/sum <- SCNN_D_18/message
I0313 11:41:13.644078 24450 net.cpp:408] SCNN_D_18/sum <- slice1_19
I0313 11:41:13.644089 24450 net.cpp:382] SCNN_D_18/sum -> SCNN_D_19
I0313 11:41:13.644140 24450 net.cpp:124] Setting up SCNN_D_18/sum
I0313 11:41:13.644153 24450 net.cpp:131] Top shape: 1 64 1 80 (5120)
I0313 11:41:13.644161 24450 net.cpp:139] Memory required for data: 319488000
I0313 11:41:13.644168 24450 layer_factory.hpp:77] Creating layer SCNN_D_19_SCNN_D_18/sum_0_split
I0313 11:41:13.644181 24450 net.cpp:86] Creating Layer SCNN_D_19_SCNN_D_18/sum_0_split
I0313 11:41:13.644191 24450 net.cpp:408] SCNN_D_19_SCNN_D_18/sum_0_split <- SCNN_D_19
I0313 11:41:13.644204 24450 net.cpp:382] SCNN_D_19_SCNN_D_18/sum_0_split -> SCNN_D_19_SCNN_D_18/sum_0_split_0
I0313 11:41:13.644219 24450 net.cpp:382] SCNN_D_19_SCNN_D_18/sum_0_split -> SCNN_D_19_SCNN_D_18/sum_0_split_1
I0313 11:41:13.644279 24450 net.cpp:124] Setting up SCNN_D_19_SCNN_D_18/sum_0_split
I0313 11:41:13.644294 24450 net.cpp:131] Top shape: 1 64 1 80 (5120)
I0313 11:41:13.644305 24450 net.cpp:131] Top shape: 1 64 1 80 (5120)
I0313 11:41:13.644312 24450 net.cpp:139] Memory required for data: 319528960
I0313 11:41:13.644320 24450 layer_factory.hpp:77] Creating layer SCNN_D_19
I0313 11:41:13.644335 24450 net.cpp:86] Creating Layer SCNN_D_19
I0313 11:41:13.644345 24450 net.cpp:408] SCNN_D_19 <- SCNN_D_19_SCNN_D_18/sum_0_split_0
I0313 11:41:13.644361 24450 net.cpp:382] SCNN_D_19 -> SCNN_D_19/message
I0313 11:41:13.647373 24450 net.cpp:124] Setting up SCNN_D_19
I0313 11:41:13.647411 24450 net.cpp:131] Top shape: 1 64 1 80 (5120)
I0313 11:41:13.647420 24450 net.cpp:139] Memory required for data: 319549440
I0313 11:41:13.647434 24450 net.cpp:467] Sharing parameters 'SCNN_D_w' owned by layer 'SCNN_D_1', param index 0
I0313 11:41:13.647442 24450 layer_factory.hpp:77] Creating layer SCNN_D_19/relu
I0313 11:41:13.647455 24450 net.cpp:86] Creating Layer SCNN_D_19/relu
I0313 11:41:13.647469 24450 net.cpp:408] SCNN_D_19/relu <- SCNN_D_19/message
I0313 11:41:13.647486 24450 net.cpp:369] SCNN_D_19/relu -> SCNN_D_19/message (in-place)
I0313 11:41:13.647977 24450 net.cpp:124] Setting up SCNN_D_19/relu
I0313 11:41:13.647994 24450 net.cpp:131] Top shape: 1 64 1 80 (5120)
I0313 11:41:13.647999 24450 net.cpp:139] Memory required for data: 319569920
I0313 11:41:13.648005 24450 layer_factory.hpp:77] Creating layer SCNN_D_19/sum
I0313 11:41:13.648017 24450 net.cpp:86] Creating Layer SCNN_D_19/sum
I0313 11:41:13.648030 24450 net.cpp:408] SCNN_D_19/sum <- SCNN_D_19/message
I0313 11:41:13.648046 24450 net.cpp:408] SCNN_D_19/sum <- slice1_20
I0313 11:41:13.648058 24450 net.cpp:382] SCNN_D_19/sum -> SCNN_D_20
I0313 11:41:13.648116 24450 net.cpp:124] Setting up SCNN_D_19/sum
I0313 11:41:13.648130 24450 net.cpp:131] Top shape: 1 64 1 80 (5120)
I0313 11:41:13.648138 24450 net.cpp:139] Memory required for data: 319590400
I0313 11:41:13.648145 24450 layer_factory.hpp:77] Creating layer SCNN_D_20_SCNN_D_19/sum_0_split
I0313 11:41:13.648159 24450 net.cpp:86] Creating Layer SCNN_D_20_SCNN_D_19/sum_0_split
I0313 11:41:13.648169 24450 net.cpp:408] SCNN_D_20_SCNN_D_19/sum_0_split <- SCNN_D_20
I0313 11:41:13.648182 24450 net.cpp:382] SCNN_D_20_SCNN_D_19/sum_0_split -> SCNN_D_20_SCNN_D_19/sum_0_split_0
I0313 11:41:13.648197 24450 net.cpp:382] SCNN_D_20_SCNN_D_19/sum_0_split -> SCNN_D_20_SCNN_D_19/sum_0_split_1
I0313 11:41:13.648258 24450 net.cpp:124] Setting up SCNN_D_20_SCNN_D_19/sum_0_split
I0313 11:41:13.648274 24450 net.cpp:131] Top shape: 1 64 1 80 (5120)
I0313 11:41:13.648285 24450 net.cpp:131] Top shape: 1 64 1 80 (5120)
I0313 11:41:13.648293 24450 net.cpp:139] Memory required for data: 319631360
I0313 11:41:13.648300 24450 layer_factory.hpp:77] Creating layer SCNN_D_20
I0313 11:41:13.648319 24450 net.cpp:86] Creating Layer SCNN_D_20
I0313 11:41:13.648329 24450 net.cpp:408] SCNN_D_20 <- SCNN_D_20_SCNN_D_19/sum_0_split_0
I0313 11:41:13.648344 24450 net.cpp:382] SCNN_D_20 -> SCNN_D_20/message
I0313 11:41:13.649698 24450 net.cpp:124] Setting up SCNN_D_20
I0313 11:41:13.649718 24450 net.cpp:131] Top shape: 1 64 1 80 (5120)
I0313 11:41:13.649734 24450 net.cpp:139] Memory required for data: 319651840
I0313 11:41:13.649745 24450 net.cpp:467] Sharing parameters 'SCNN_D_w' owned by layer 'SCNN_D_1', param index 0
I0313 11:41:13.649754 24450 layer_factory.hpp:77] Creating layer SCNN_D_20/relu
I0313 11:41:13.649766 24450 net.cpp:86] Creating Layer SCNN_D_20/relu
I0313 11:41:13.649776 24450 net.cpp:408] SCNN_D_20/relu <- SCNN_D_20/message
I0313 11:41:13.649791 24450 net.cpp:369] SCNN_D_20/relu -> SCNN_D_20/message (in-place)
I0313 11:41:13.650279 24450 net.cpp:124] Setting up SCNN_D_20/relu
I0313 11:41:13.650295 24450 net.cpp:131] Top shape: 1 64 1 80 (5120)
I0313 11:41:13.650300 24450 net.cpp:139] Memory required for data: 319672320
I0313 11:41:13.650308 24450 layer_factory.hpp:77] Creating layer SCNN_D_20/sum
I0313 11:41:13.650321 24450 net.cpp:86] Creating Layer SCNN_D_20/sum
I0313 11:41:13.650332 24450 net.cpp:408] SCNN_D_20/sum <- SCNN_D_20/message
I0313 11:41:13.650347 24450 net.cpp:408] SCNN_D_20/sum <- slice1_21
I0313 11:41:13.650357 24450 net.cpp:382] SCNN_D_20/sum -> SCNN_D_21
I0313 11:41:13.650409 24450 net.cpp:124] Setting up SCNN_D_20/sum
I0313 11:41:13.650424 24450 net.cpp:131] Top shape: 1 64 1 80 (5120)
I0313 11:41:13.650431 24450 net.cpp:139] Memory required for data: 319692800
I0313 11:41:13.650439 24450 layer_factory.hpp:77] Creating layer SCNN_D_21_SCNN_D_20/sum_0_split
I0313 11:41:13.650451 24450 net.cpp:86] Creating Layer SCNN_D_21_SCNN_D_20/sum_0_split
I0313 11:41:13.650460 24450 net.cpp:408] SCNN_D_21_SCNN_D_20/sum_0_split <- SCNN_D_21
I0313 11:41:13.650475 24450 net.cpp:382] SCNN_D_21_SCNN_D_20/sum_0_split -> SCNN_D_21_SCNN_D_20/sum_0_split_0
I0313 11:41:13.650492 24450 net.cpp:382] SCNN_D_21_SCNN_D_20/sum_0_split -> SCNN_D_21_SCNN_D_20/sum_0_split_1
I0313 11:41:13.650555 24450 net.cpp:124] Setting up SCNN_D_21_SCNN_D_20/sum_0_split
I0313 11:41:13.650570 24450 net.cpp:131] Top shape: 1 64 1 80 (5120)
I0313 11:41:13.650583 24450 net.cpp:131] Top shape: 1 64 1 80 (5120)
I0313 11:41:13.650590 24450 net.cpp:139] Memory required for data: 319733760
I0313 11:41:13.650596 24450 layer_factory.hpp:77] Creating layer SCNN_D_21
I0313 11:41:13.650611 24450 net.cpp:86] Creating Layer SCNN_D_21
I0313 11:41:13.650622 24450 net.cpp:408] SCNN_D_21 <- SCNN_D_21_SCNN_D_20/sum_0_split_0
I0313 11:41:13.650636 24450 net.cpp:382] SCNN_D_21 -> SCNN_D_21/message
I0313 11:41:13.652303 24450 net.cpp:124] Setting up SCNN_D_21
I0313 11:41:13.652328 24450 net.cpp:131] Top shape: 1 64 1 80 (5120)
I0313 11:41:13.652338 24450 net.cpp:139] Memory required for data: 319754240
I0313 11:41:13.652348 24450 net.cpp:467] Sharing parameters 'SCNN_D_w' owned by layer 'SCNN_D_1', param index 0
I0313 11:41:13.652356 24450 layer_factory.hpp:77] Creating layer SCNN_D_21/relu
I0313 11:41:13.652367 24450 net.cpp:86] Creating Layer SCNN_D_21/relu
I0313 11:41:13.652379 24450 net.cpp:408] SCNN_D_21/relu <- SCNN_D_21/message
I0313 11:41:13.652395 24450 net.cpp:369] SCNN_D_21/relu -> SCNN_D_21/message (in-place)
I0313 11:41:13.652592 24450 net.cpp:124] Setting up SCNN_D_21/relu
I0313 11:41:13.652606 24450 net.cpp:131] Top shape: 1 64 1 80 (5120)
I0313 11:41:13.652611 24450 net.cpp:139] Memory required for data: 319774720
I0313 11:41:13.652618 24450 layer_factory.hpp:77] Creating layer SCNN_D_21/sum
I0313 11:41:13.652628 24450 net.cpp:86] Creating Layer SCNN_D_21/sum
I0313 11:41:13.652639 24450 net.cpp:408] SCNN_D_21/sum <- SCNN_D_21/message
I0313 11:41:13.652653 24450 net.cpp:408] SCNN_D_21/sum <- slice1_22
I0313 11:41:13.652667 24450 net.cpp:382] SCNN_D_21/sum -> SCNN_D_22
I0313 11:41:13.652715 24450 net.cpp:124] Setting up SCNN_D_21/sum
I0313 11:41:13.652731 24450 net.cpp:131] Top shape: 1 64 1 80 (5120)
I0313 11:41:13.652739 24450 net.cpp:139] Memory required for data: 319795200
I0313 11:41:13.652745 24450 layer_factory.hpp:77] Creating layer SCNN_D_22_SCNN_D_21/sum_0_split
I0313 11:41:13.652760 24450 net.cpp:86] Creating Layer SCNN_D_22_SCNN_D_21/sum_0_split
I0313 11:41:13.652770 24450 net.cpp:408] SCNN_D_22_SCNN_D_21/sum_0_split <- SCNN_D_22
I0313 11:41:13.652784 24450 net.cpp:382] SCNN_D_22_SCNN_D_21/sum_0_split -> SCNN_D_22_SCNN_D_21/sum_0_split_0
I0313 11:41:13.652799 24450 net.cpp:382] SCNN_D_22_SCNN_D_21/sum_0_split -> SCNN_D_22_SCNN_D_21/sum_0_split_1
I0313 11:41:13.652861 24450 net.cpp:124] Setting up SCNN_D_22_SCNN_D_21/sum_0_split
I0313 11:41:13.652875 24450 net.cpp:131] Top shape: 1 64 1 80 (5120)
I0313 11:41:13.652886 24450 net.cpp:131] Top shape: 1 64 1 80 (5120)
I0313 11:41:13.652894 24450 net.cpp:139] Memory required for data: 319836160
I0313 11:41:13.652901 24450 layer_factory.hpp:77] Creating layer SCNN_D_22
I0313 11:41:13.652916 24450 net.cpp:86] Creating Layer SCNN_D_22
I0313 11:41:13.652927 24450 net.cpp:408] SCNN_D_22 <- SCNN_D_22_SCNN_D_21/sum_0_split_0
I0313 11:41:13.652943 24450 net.cpp:382] SCNN_D_22 -> SCNN_D_22/message
I0313 11:41:13.655962 24450 net.cpp:124] Setting up SCNN_D_22
I0313 11:41:13.655993 24450 net.cpp:131] Top shape: 1 64 1 80 (5120)
I0313 11:41:13.656009 24450 net.cpp:139] Memory required for data: 319856640
I0313 11:41:13.656023 24450 net.cpp:467] Sharing parameters 'SCNN_D_w' owned by layer 'SCNN_D_1', param index 0
I0313 11:41:13.656031 24450 layer_factory.hpp:77] Creating layer SCNN_D_22/relu
I0313 11:41:13.656045 24450 net.cpp:86] Creating Layer SCNN_D_22/relu
I0313 11:41:13.656059 24450 net.cpp:408] SCNN_D_22/relu <- SCNN_D_22/message
I0313 11:41:13.656075 24450 net.cpp:369] SCNN_D_22/relu -> SCNN_D_22/message (in-place)
I0313 11:41:13.656273 24450 net.cpp:124] Setting up SCNN_D_22/relu
I0313 11:41:13.656287 24450 net.cpp:131] Top shape: 1 64 1 80 (5120)
I0313 11:41:13.656293 24450 net.cpp:139] Memory required for data: 319877120
I0313 11:41:13.656299 24450 layer_factory.hpp:77] Creating layer SCNN_D_22/sum
I0313 11:41:13.656311 24450 net.cpp:86] Creating Layer SCNN_D_22/sum
I0313 11:41:13.656322 24450 net.cpp:408] SCNN_D_22/sum <- SCNN_D_22/message
I0313 11:41:13.656337 24450 net.cpp:408] SCNN_D_22/sum <- slice1_23
I0313 11:41:13.656347 24450 net.cpp:382] SCNN_D_22/sum -> SCNN_D_23
I0313 11:41:13.656402 24450 net.cpp:124] Setting up SCNN_D_22/sum
I0313 11:41:13.656416 24450 net.cpp:131] Top shape: 1 64 1 80 (5120)
I0313 11:41:13.656424 24450 net.cpp:139] Memory required for data: 319897600
I0313 11:41:13.656431 24450 layer_factory.hpp:77] Creating layer SCNN_D_23_SCNN_D_22/sum_0_split
I0313 11:41:13.656443 24450 net.cpp:86] Creating Layer SCNN_D_23_SCNN_D_22/sum_0_split
I0313 11:41:13.656452 24450 net.cpp:408] SCNN_D_23_SCNN_D_22/sum_0_split <- SCNN_D_23
I0313 11:41:13.656466 24450 net.cpp:382] SCNN_D_23_SCNN_D_22/sum_0_split -> SCNN_D_23_SCNN_D_22/sum_0_split_0
I0313 11:41:13.656481 24450 net.cpp:382] SCNN_D_23_SCNN_D_22/sum_0_split -> SCNN_D_23_SCNN_D_22/sum_0_split_1
I0313 11:41:13.656541 24450 net.cpp:124] Setting up SCNN_D_23_SCNN_D_22/sum_0_split
I0313 11:41:13.656554 24450 net.cpp:131] Top shape: 1 64 1 80 (5120)
I0313 11:41:13.656565 24450 net.cpp:131] Top shape: 1 64 1 80 (5120)
I0313 11:41:13.656571 24450 net.cpp:139] Memory required for data: 319938560
I0313 11:41:13.656579 24450 layer_factory.hpp:77] Creating layer SCNN_D_23
I0313 11:41:13.656594 24450 net.cpp:86] Creating Layer SCNN_D_23
I0313 11:41:13.656603 24450 net.cpp:408] SCNN_D_23 <- SCNN_D_23_SCNN_D_22/sum_0_split_0
I0313 11:41:13.656617 24450 net.cpp:382] SCNN_D_23 -> SCNN_D_23/message
I0313 11:41:13.658234 24450 net.cpp:124] Setting up SCNN_D_23
I0313 11:41:13.658257 24450 net.cpp:131] Top shape: 1 64 1 80 (5120)
I0313 11:41:13.658267 24450 net.cpp:139] Memory required for data: 319959040
I0313 11:41:13.658279 24450 net.cpp:467] Sharing parameters 'SCNN_D_w' owned by layer 'SCNN_D_1', param index 0
I0313 11:41:13.658288 24450 layer_factory.hpp:77] Creating layer SCNN_D_23/relu
I0313 11:41:13.658298 24450 net.cpp:86] Creating Layer SCNN_D_23/relu
I0313 11:41:13.658308 24450 net.cpp:408] SCNN_D_23/relu <- SCNN_D_23/message
I0313 11:41:13.658324 24450 net.cpp:369] SCNN_D_23/relu -> SCNN_D_23/message (in-place)
I0313 11:41:13.658509 24450 net.cpp:124] Setting up SCNN_D_23/relu
I0313 11:41:13.658521 24450 net.cpp:131] Top shape: 1 64 1 80 (5120)
I0313 11:41:13.658526 24450 net.cpp:139] Memory required for data: 319979520
I0313 11:41:13.658533 24450 layer_factory.hpp:77] Creating layer SCNN_D_23/sum
I0313 11:41:13.658543 24450 net.cpp:86] Creating Layer SCNN_D_23/sum
I0313 11:41:13.658555 24450 net.cpp:408] SCNN_D_23/sum <- SCNN_D_23/message
I0313 11:41:13.658568 24450 net.cpp:408] SCNN_D_23/sum <- slice1_24
I0313 11:41:13.658578 24450 net.cpp:382] SCNN_D_23/sum -> SCNN_D_24
I0313 11:41:13.658627 24450 net.cpp:124] Setting up SCNN_D_23/sum
I0313 11:41:13.658640 24450 net.cpp:131] Top shape: 1 64 1 80 (5120)
I0313 11:41:13.658648 24450 net.cpp:139] Memory required for data: 320000000
I0313 11:41:13.658655 24450 layer_factory.hpp:77] Creating layer SCNN_D_24_SCNN_D_23/sum_0_split
I0313 11:41:13.658665 24450 net.cpp:86] Creating Layer SCNN_D_24_SCNN_D_23/sum_0_split
I0313 11:41:13.658675 24450 net.cpp:408] SCNN_D_24_SCNN_D_23/sum_0_split <- SCNN_D_24
I0313 11:41:13.658689 24450 net.cpp:382] SCNN_D_24_SCNN_D_23/sum_0_split -> SCNN_D_24_SCNN_D_23/sum_0_split_0
I0313 11:41:13.658704 24450 net.cpp:382] SCNN_D_24_SCNN_D_23/sum_0_split -> SCNN_D_24_SCNN_D_23/sum_0_split_1
I0313 11:41:13.658761 24450 net.cpp:124] Setting up SCNN_D_24_SCNN_D_23/sum_0_split
I0313 11:41:13.658773 24450 net.cpp:131] Top shape: 1 64 1 80 (5120)
I0313 11:41:13.658784 24450 net.cpp:131] Top shape: 1 64 1 80 (5120)
I0313 11:41:13.658792 24450 net.cpp:139] Memory required for data: 320040960
I0313 11:41:13.658797 24450 layer_factory.hpp:77] Creating layer SCNN_D_24
I0313 11:41:13.658808 24450 net.cpp:86] Creating Layer SCNN_D_24
I0313 11:41:13.658818 24450 net.cpp:408] SCNN_D_24 <- SCNN_D_24_SCNN_D_23/sum_0_split_0
I0313 11:41:13.658834 24450 net.cpp:382] SCNN_D_24 -> SCNN_D_24/message
I0313 11:41:13.660459 24450 net.cpp:124] Setting up SCNN_D_24
I0313 11:41:13.660482 24450 net.cpp:131] Top shape: 1 64 1 80 (5120)
I0313 11:41:13.660497 24450 net.cpp:139] Memory required for data: 320061440
I0313 11:41:13.660509 24450 net.cpp:467] Sharing parameters 'SCNN_D_w' owned by layer 'SCNN_D_1', param index 0
I0313 11:41:13.660516 24450 layer_factory.hpp:77] Creating layer SCNN_D_24/relu
I0313 11:41:13.660527 24450 net.cpp:86] Creating Layer SCNN_D_24/relu
I0313 11:41:13.660537 24450 net.cpp:408] SCNN_D_24/relu <- SCNN_D_24/message
I0313 11:41:13.660552 24450 net.cpp:369] SCNN_D_24/relu -> SCNN_D_24/message (in-place)
I0313 11:41:13.661018 24450 net.cpp:124] Setting up SCNN_D_24/relu
I0313 11:41:13.661034 24450 net.cpp:131] Top shape: 1 64 1 80 (5120)
I0313 11:41:13.661041 24450 net.cpp:139] Memory required for data: 320081920
I0313 11:41:13.661048 24450 layer_factory.hpp:77] Creating layer SCNN_D_24/sum
I0313 11:41:13.661059 24450 net.cpp:86] Creating Layer SCNN_D_24/sum
I0313 11:41:13.661072 24450 net.cpp:408] SCNN_D_24/sum <- SCNN_D_24/message
I0313 11:41:13.661085 24450 net.cpp:408] SCNN_D_24/sum <- slice1_25
I0313 11:41:13.661096 24450 net.cpp:382] SCNN_D_24/sum -> SCNN_D_25
I0313 11:41:13.661147 24450 net.cpp:124] Setting up SCNN_D_24/sum
I0313 11:41:13.661162 24450 net.cpp:131] Top shape: 1 64 1 80 (5120)
I0313 11:41:13.661170 24450 net.cpp:139] Memory required for data: 320102400
I0313 11:41:13.661176 24450 layer_factory.hpp:77] Creating layer SCNN_D_25_SCNN_D_24/sum_0_split
I0313 11:41:13.661187 24450 net.cpp:86] Creating Layer SCNN_D_25_SCNN_D_24/sum_0_split
I0313 11:41:13.661197 24450 net.cpp:408] SCNN_D_25_SCNN_D_24/sum_0_split <- SCNN_D_25
I0313 11:41:13.661209 24450 net.cpp:382] SCNN_D_25_SCNN_D_24/sum_0_split -> SCNN_D_25_SCNN_D_24/sum_0_split_0
I0313 11:41:13.661226 24450 net.cpp:382] SCNN_D_25_SCNN_D_24/sum_0_split -> SCNN_D_25_SCNN_D_24/sum_0_split_1
I0313 11:41:13.661285 24450 net.cpp:124] Setting up SCNN_D_25_SCNN_D_24/sum_0_split
I0313 11:41:13.661298 24450 net.cpp:131] Top shape: 1 64 1 80 (5120)
I0313 11:41:13.661309 24450 net.cpp:131] Top shape: 1 64 1 80 (5120)
I0313 11:41:13.661315 24450 net.cpp:139] Memory required for data: 320143360
I0313 11:41:13.661324 24450 layer_factory.hpp:77] Creating layer SCNN_D_25
I0313 11:41:13.661337 24450 net.cpp:86] Creating Layer SCNN_D_25
I0313 11:41:13.661347 24450 net.cpp:408] SCNN_D_25 <- SCNN_D_25_SCNN_D_24/sum_0_split_0
I0313 11:41:13.661361 24450 net.cpp:382] SCNN_D_25 -> SCNN_D_25/message
I0313 11:41:13.664338 24450 net.cpp:124] Setting up SCNN_D_25
I0313 11:41:13.664371 24450 net.cpp:131] Top shape: 1 64 1 80 (5120)
I0313 11:41:13.664386 24450 net.cpp:139] Memory required for data: 320163840
I0313 11:41:13.664402 24450 net.cpp:467] Sharing parameters 'SCNN_D_w' owned by layer 'SCNN_D_1', param index 0
I0313 11:41:13.664408 24450 layer_factory.hpp:77] Creating layer SCNN_D_25/relu
I0313 11:41:13.664422 24450 net.cpp:86] Creating Layer SCNN_D_25/relu
I0313 11:41:13.664435 24450 net.cpp:408] SCNN_D_25/relu <- SCNN_D_25/message
I0313 11:41:13.664451 24450 net.cpp:369] SCNN_D_25/relu -> SCNN_D_25/message (in-place)
I0313 11:41:13.664649 24450 net.cpp:124] Setting up SCNN_D_25/relu
I0313 11:41:13.664664 24450 net.cpp:131] Top shape: 1 64 1 80 (5120)
I0313 11:41:13.664669 24450 net.cpp:139] Memory required for data: 320184320
I0313 11:41:13.664676 24450 layer_factory.hpp:77] Creating layer SCNN_D_25/sum
I0313 11:41:13.664686 24450 net.cpp:86] Creating Layer SCNN_D_25/sum
…
I0313 11:41:13.882946 24450 net.cpp:131] Top shape: 1 64 1 80 (5120)
I0313 11:41:13.882953 24450 net.cpp:139] Memory required for data: 327843840
I0313 11:41:13.882961 24450 net.cpp:467] Sharing parameters 'SCNN_U_w' owned by layer 'SCNN_U_60', param index 0
I0313 11:41:13.882967 24450 layer_factory.hpp:77] Creating layer SCNN_U_20/relu
I0313 11:41:13.882978 24450 net.cpp:86] Creating Layer SCNN_U_20/relu
I0313 11:41:13.882987 24450 net.cpp:408] SCNN_U_20/relu <- SCNN_U_20/message
I0313 11:41:13.882997 24450 net.cpp:369] SCNN_U_20/relu -> SCNN_U_20/message (in-place)
I0313 11:41:13.883177 24450 net.cpp:124] Setting up SCNN_U_20/relu
I0313 11:41:13.883189 24450 net.cpp:131] Top shape: 1 64 1 80 (5120)
I0313 11:41:13.883196 24450 net.cpp:139] Memory required for data: 327864320
I0313 11:41:13.883203 24450 layer_factory.hpp:77] Creating layer SCNN_U_20/sum
I0313 11:41:13.883210 24450 net.cpp:86] Creating Layer SCNN_U_20/sum
I0313 11:41:13.883219 24450 net.cpp:408] SCNN_U_20/sum <- SCNN_U_20/message
I0313 11:41:13.883231 24450 net.cpp:408] SCNN_U_20/sum <- SCNN_D_19_SCNN_D_18/sum_0_split_1
I0313 11:41:13.883240 24450 net.cpp:382] SCNN_U_20/sum -> SCNN_U_19
I0313 11:41:13.883285 24450 net.cpp:124] Setting up SCNN_U_20/sum
I0313 11:41:13.883296 24450 net.cpp:131] Top shape: 1 64 1 80 (5120)
I0313 11:41:13.883301 24450 net.cpp:139] Memory required for data: 327884800
I0313 11:41:13.883306 24450 layer_factory.hpp:77] Creating layer SCNN_U_19_SCNN_U_20/sum_0_split
I0313 11:41:13.883316 24450 net.cpp:86] Creating Layer SCNN_U_19_SCNN_U_20/sum_0_split
I0313 11:41:13.883323 24450 net.cpp:408] SCNN_U_19_SCNN_U_20/sum_0_split <- SCNN_U_19
I0313 11:41:13.883333 24450 net.cpp:382] SCNN_U_19_SCNN_U_20/sum_0_split -> SCNN_U_19_SCNN_U_20/sum_0_split_0
I0313 11:41:13.883345 24450 net.cpp:382] SCNN_U_19_SCNN_U_20/sum_0_split -> SCNN_U_19_SCNN_U_20/sum_0_split_1
I0313 11:41:13.883404 24450 net.cpp:124] Setting up SCNN_U_19_SCNN_U_20/sum_0_split
I0313 11:41:13.883416 24450 net.cpp:131] Top shape: 1 64 1 80 (5120)
I0313 11:41:13.883425 24450 net.cpp:131] Top shape: 1 64 1 80 (5120)
I0313 11:41:13.883430 24450 net.cpp:139] Memory required for data: 327925760
I0313 11:41:13.883436 24450 layer_factory.hpp:77] Creating layer SCNN_U_19
I0313 11:41:13.883450 24450 net.cpp:86] Creating Layer SCNN_U_19
I0313 11:41:13.883457 24450 net.cpp:408] SCNN_U_19 <- SCNN_U_19_SCNN_U_20/sum_0_split_0
I0313 11:41:13.883469 24450 net.cpp:382] SCNN_U_19 -> SCNN_U_19/message
I0313 11:41:13.886276 24450 net.cpp:124] Setting up SCNN_U_19
I0313 11:41:13.886308 24450 net.cpp:131] Top shape: 1 64 1 80 (5120)
I0313 11:41:13.886315 24450 net.cpp:139] Memory required for data: 327946240
I0313 11:41:13.886327 24450 net.cpp:467] Sharing parameters 'SCNN_U_w' owned by layer 'SCNN_U_60', param index 0
I0313 11:41:13.886333 24450 layer_factory.hpp:77] Creating layer SCNN_U_19/relu
I0313 11:41:13.886344 24450 net.cpp:86] Creating Layer SCNN_U_19/relu
I0313 11:41:13.886355 24450 net.cpp:408] SCNN_U_19/relu <- SCNN_U_19/message
I0313 11:41:13.886368 24450 net.cpp:369] SCNN_U_19/relu -> SCNN_U_19/message (in-place)
I0313 11:41:13.886550 24450 net.cpp:124] Setting up SCNN_U_19/relu
I0313 11:41:13.886562 24450 net.cpp:131] Top shape: 1 64 1 80 (5120)
I0313 11:41:13.886572 24450 net.cpp:139] Memory required for data: 327966720
I0313 11:41:13.886579 24450 layer_factory.hpp:77] Creating layer SCNN_U_19/sum
I0313 11:41:13.886586 24450 net.cpp:86] Creating Layer SCNN_U_19/sum
I0313 11:41:13.886595 24450 net.cpp:408] SCNN_U_19/sum <- SCNN_U_19/message
I0313 11:41:13.886606 24450 net.cpp:408] SCNN_U_19/sum <- SCNN_D_18_SCNN_D_17/sum_0_split_1
I0313 11:41:13.886616 24450 net.cpp:382] SCNN_U_19/sum -> SCNN_U_18
I0313 11:41:13.886669 24450 net.cpp:124] Setting up SCNN_U_19/sum
I0313 11:41:13.886680 24450 net.cpp:131] Top shape: 1 64 1 80 (5120)
I0313 11:41:13.886687 24450 net.cpp:139] Memory required for data: 327987200
I0313 11:41:13.886690 24450 layer_factory.hpp:77] Creating layer SCNN_U_18_SCNN_U_19/sum_0_split
I0313 11:41:13.886701 24450 net.cpp:86] Creating Layer SCNN_U_18_SCNN_U_19/sum_0_split
I0313 11:41:13.886709 24450 net.cpp:408] SCNN_U_18_SCNN_U_19/sum_0_split <- SCNN_U_18
I0313 11:41:13.886721 24450 net.cpp:382] SCNN_U_18_SCNN_U_19/sum_0_split -> SCNN_U_18_SCNN_U_19/sum_0_split_0
I0313 11:41:13.886732 24450 net.cpp:382] SCNN_U_18_SCNN_U_19/sum_0_split -> SCNN_U_18_SCNN_U_19/sum_0_split_1
I0313 11:41:13.886795 24450 net.cpp:124] Setting up SCNN_U_18_SCNN_U_19/sum_0_split
I0313 11:41:13.886806 24450 net.cpp:131] Top shape: 1 64 1 80 (5120)
I0313 11:41:13.886813 24450 net.cpp:131] Top shape: 1 64 1 80 (5120)
I0313 11:41:13.886817 24450 net.cpp:139] Memory required for data: 328028160
I0313 11:41:13.886821 24450 layer_factory.hpp:77] Creating layer SCNN_U_18
I0313 11:41:13.886832 24450 net.cpp:86] Creating Layer SCNN_U_18
I0313 11:41:13.886842 24450 net.cpp:408] SCNN_U_18 <- SCNN_U_18_SCNN_U_19/sum_0_split_0
I0313 11:41:13.886852 24450 net.cpp:382] SCNN_U_18 -> SCNN_U_18/message
I0313 11:41:13.888336 24450 net.cpp:124] Setting up SCNN_U_18
I0313 11:41:13.888352 24450 net.cpp:131] Top shape: 1 64 1 80 (5120)
I0313 11:41:13.888365 24450 net.cpp:139] Memory required for data: 328048640
I0313 11:41:13.888372 24450 net.cpp:467] Sharing parameters 'SCNN_U_w' owned by layer 'SCNN_U_60', param index 0
I0313 11:41:13.888378 24450 layer_factory.hpp:77] Creating layer SCNN_U_18/relu
I0313 11:41:13.888425 24450 net.cpp:86] Creating Layer SCNN_U_18/relu
I0313 11:41:13.888435 24450 net.cpp:408] SCNN_U_18/relu <- SCNN_U_18/message
I0313 11:41:13.888447 24450 net.cpp:369] SCNN_U_18/relu -> SCNN_U_18/message (in-place)
I0313 11:41:13.888870 24450 net.cpp:124] Setting up SCNN_U_18/relu
I0313 11:41:13.888882 24450 net.cpp:131] Top shape: 1 64 1 80 (5120)
I0313 11:41:13.888886 24450 net.cpp:139] Memory required for data: 328069120
I0313 11:41:13.888896 24450 layer_factory.hpp:77] Creating layer SCNN_U_18/sum
I0313 11:41:13.888905 24450 net.cpp:86] Creating Layer SCNN_U_18/sum
I0313 11:41:13.888916 24450 net.cpp:408] SCNN_U_18/sum <- SCNN_U_18/message
I0313 11:41:13.888927 24450 net.cpp:408] SCNN_U_18/sum <- SCNN_D_17_SCNN_D_16/sum_0_split_1
I0313 11:41:13.888934 24450 net.cpp:382] SCNN_U_18/sum -> SCNN_U_17
I0313 11:41:13.888983 24450 net.cpp:124] Setting up SCNN_U_18/sum
I0313 11:41:13.888993 24450 net.cpp:131] Top shape: 1 64 1 80 (5120)
I0313 11:41:13.888998 24450 net.cpp:139] Memory required for data: 328089600
I0313 11:41:13.889003 24450 layer_factory.hpp:77] Creating layer SCNN_U_17_SCNN_U_18/sum_0_split
I0313 11:41:13.889015 24450 net.cpp:86] Creating Layer SCNN_U_17_SCNN_U_18/sum_0_split
I0313 11:41:13.889024 24450 net.cpp:408] SCNN_U_17_SCNN_U_18/sum_0_split <- SCNN_U_17
I0313 11:41:13.889034 24450 net.cpp:382] SCNN_U_17_SCNN_U_18/sum_0_split -> SCNN_U_17_SCNN_U_18/sum_0_split_0
I0313 11:41:13.889046 24450 net.cpp:382] SCNN_U_17_SCNN_U_18/sum_0_split -> SCNN_U_17_SCNN_U_18/sum_0_split_1
I0313 11:41:13.889106 24450 net.cpp:124] Setting up SCNN_U_17_SCNN_U_18/sum_0_split
I0313 11:41:13.889117 24450 net.cpp:131] Top shape: 1 64 1 80 (5120)
I0313 11:41:13.889127 24450 net.cpp:131] Top shape: 1 64 1 80 (5120)
I0313 11:41:13.889132 24450 net.cpp:139] Memory required for data: 328130560
I0313 11:41:13.889138 24450 layer_factory.hpp:77] Creating layer SCNN_U_17
I0313 11:41:13.889149 24450 net.cpp:86] Creating Layer SCNN_U_17
I0313 11:41:13.889158 24450 net.cpp:408] SCNN_U_17 <- SCNN_U_17_SCNN_U_18/sum_0_split_0
I0313 11:41:13.889170 24450 net.cpp:382] SCNN_U_17 -> SCNN_U_17/message
I0313 11:41:13.890640 24450 net.cpp:124] Setting up SCNN_U_17
I0313 11:41:13.890661 24450 net.cpp:131] Top shape: 1 64 1 80 (5120)
I0313 11:41:13.890668 24450 net.cpp:139] Memory required for data: 328151040
I0313 11:41:13.890677 24450 net.cpp:467] Sharing parameters 'SCNN_U_w' owned by layer 'SCNN_U_60', param index 0
I0313 11:41:13.890683 24450 layer_factory.hpp:77] Creating layer SCNN_U_17/relu
I0313 11:41:13.890693 24450 net.cpp:86] Creating Layer SCNN_U_17/relu
I0313 11:41:13.890703 24450 net.cpp:408] SCNN_U_17/relu <- SCNN_U_17/message
I0313 11:41:13.890714 24450 net.cpp:369] SCNN_U_17/relu -> SCNN_U_17/message (in-place)
I0313 11:41:13.890899 24450 net.cpp:124] Setting up SCNN_U_17/relu
I0313 11:41:13.890910 24450 net.cpp:131] Top shape: 1 64 1 80 (5120)
I0313 11:41:13.890923 24450 net.cpp:139] Memory required for data: 328171520
I0313 11:41:13.890928 24450 layer_factory.hpp:77] Creating layer SCNN_U_17/sum
I0313 11:41:13.890936 24450 net.cpp:86] Creating Layer SCNN_U_17/sum
I0313 11:41:13.890945 24450 net.cpp:408] SCNN_U_17/sum <- SCNN_U_17/message
I0313 11:41:13.890957 24450 net.cpp:408] SCNN_U_17/sum <- SCNN_D_16_SCNN_D_15/sum_0_split_1
I0313 11:41:13.890967 24450 net.cpp:382] SCNN_U_17/sum -> SCNN_U_16
I0313 11:41:13.891021 24450 net.cpp:124] Setting up SCNN_U_17/sum
I0313 11:41:13.891032 24450 net.cpp:131] Top shape: 1 64 1 80 (5120)
I0313 11:41:13.891037 24450 net.cpp:139] Memory required for data: 328192000
I0313 11:41:13.891043 24450 layer_factory.hpp:77] Creating layer SCNN_U_16_SCNN_U_17/sum_0_split
I0313 11:41:13.891052 24450 net.cpp:86] Creating Layer SCNN_U_16_SCNN_U_17/sum_0_split
I0313 11:41:13.891062 24450 net.cpp:408] SCNN_U_16_SCNN_U_17/sum_0_split <- SCNN_U_16
I0313 11:41:13.891073 24450 net.cpp:382] SCNN_U_16_SCNN_U_17/sum_0_split -> SCNN_U_16_SCNN_U_17/sum_0_split_0
I0313 11:41:13.891085 24450 net.cpp:382] SCNN_U_16_SCNN_U_17/sum_0_split -> SCNN_U_16_SCNN_U_17/sum_0_split_1
I0313 11:41:13.891146 24450 net.cpp:124] Setting up SCNN_U_16_SCNN_U_17/sum_0_split
I0313 11:41:13.891163 24450 net.cpp:131] Top shape: 1 64 1 80 (5120)
I0313 11:41:13.891171 24450 net.cpp:131] Top shape: 1 64 1 80 (5120)
I0313 11:41:13.891176 24450 net.cpp:139] Memory required for data: 328232960
I0313 11:41:13.891182 24450 layer_factory.hpp:77] Creating layer SCNN_U_16
I0313 11:41:13.891194 24450 net.cpp:86] Creating Layer SCNN_U_16
I0313 11:41:13.891202 24450 net.cpp:408] SCNN_U_16 <- SCNN_U_16_SCNN_U_17/sum_0_split_0
I0313 11:41:13.891213 24450 net.cpp:382] SCNN_U_16 -> SCNN_U_16/message
I0313 11:41:13.894172 24450 net.cpp:124] Setting up SCNN_U_16
I0313 11:41:13.894214 24450 net.cpp:131] Top shape: 1 64 1 80 (5120)
I0313 11:41:13.894220 24450 net.cpp:139] Memory required for data: 328253440
I0313 11:41:13.894234 24450 net.cpp:467] Sharing parameters 'SCNN_U_w' owned by layer 'SCNN_U_60', param index 0
I0313 11:41:13.894242 24450 layer_factory.hpp:77] Creating layer SCNN_U_16/relu
I0313 11:41:13.894253 24450 net.cpp:86] Creating Layer SCNN_U_16/relu
I0313 11:41:13.894268 24450 net.cpp:408] SCNN_U_16/relu <- SCNN_U_16/message
I0313 11:41:13.894284 24450 net.cpp:369] SCNN_U_16/relu -> SCNN_U_16/message (in-place)
I0313 11:41:13.894479 24450 net.cpp:124] Setting up SCNN_U_16/relu
I0313 11:41:13.894490 24450 net.cpp:131] Top shape: 1 64 1 80 (5120)
I0313 11:41:13.894495 24450 net.cpp:139] Memory required for data: 328273920
I0313 11:41:13.894500 24450 layer_factory.hpp:77] Creating layer SCNN_U_16/sum
I0313 11:41:13.894510 24450 net.cpp:86] Creating Layer SCNN_U_16/sum
I0313 11:41:13.894518 24450 net.cpp:408] SCNN_U_16/sum <- SCNN_U_16/message
I0313 11:41:13.894531 24450 net.cpp:408] SCNN_U_16/sum <- SCNN_D_15_SCNN_D_14/sum_0_split_1
I0313 11:41:13.894539 24450 net.cpp:382] SCNN_U_16/sum -> SCNN_U_15
I0313 11:41:13.894636 24450 net.cpp:124] Setting up SCNN_U_16/sum
I0313 11:41:13.894654 24450 net.cpp:131] Top shape: 1 64 1 80 (5120)
I0313 11:41:13.894657 24450 net.cpp:139] Memory required for data: 328294400
I0313 11:41:13.894661 24450 layer_factory.hpp:77] Creating layer SCNN_U_15_SCNN_U_16/sum_0_split
I0313 11:41:13.894670 24450 net.cpp:86] Creating Layer SCNN_U_15_SCNN_U_16/sum_0_split
I0313 11:41:13.894678 24450 net.cpp:408] SCNN_U_15_SCNN_U_16/sum_0_split <- SCNN_U_15
I0313 11:41:13.894688 24450 net.cpp:382] SCNN_U_15_SCNN_U_16/sum_0_split -> SCNN_U_15_SCNN_U_16/sum_0_split_0
I0313 11:41:13.894701 24450 net.cpp:382] SCNN_U_15_SCNN_U_16/sum_0_split -> SCNN_U_15_SCNN_U_16/sum_0_split_1
I0313 11:41:13.894763 24450 net.cpp:124] Setting up SCNN_U_15_SCNN_U_16/sum_0_split
I0313 11:41:13.894774 24450 net.cpp:131] Top shape: 1 64 1 80 (5120)
I0313 11:41:13.894781 24450 net.cpp:131] Top shape: 1 64 1 80 (5120)
I0313 11:41:13.894788 24450 net.cpp:139] Memory required for data: 328335360
I0313 11:41:13.894793 24450 layer_factory.hpp:77] Creating layer SCNN_U_15
I0313 11:41:13.894806 24450 net.cpp:86] Creating Layer SCNN_U_15
I0313 11:41:13.894814 24450 net.cpp:408] SCNN_U_15 <- SCNN_U_15_SCNN_U_16/sum_0_split_0
I0313 11:41:13.894825 24450 net.cpp:382] SCNN_U_15 -> SCNN_U_15/message
I0313 11:41:13.896464 24450 net.cpp:124] Setting up SCNN_U_15
I0313 11:41:13.896488 24450 net.cpp:131] Top shape: 1 64 1 80 (5120)
I0313 11:41:13.896502 24450 net.cpp:139] Memory required for data: 328355840
I0313 11:41:13.896512 24450 net.cpp:467] Sharing parameters 'SCNN_U_w' owned by layer 'SCNN_U_60', param index 0
I0313 11:41:13.896517 24450 layer_factory.hpp:77] Creating layer SCNN_U_15/relu
I0313 11:41:13.896525 24450 net.cpp:86] Creating Layer SCNN_U_15/relu
I0313 11:41:13.896536 24450 net.cpp:408] SCNN_U_15/relu <- SCNN_U_15/message
I0313 11:41:13.896549 24450 net.cpp:369] SCNN_U_15/relu -> SCNN_U_15/message (in-place)
I0313 11:41:13.896745 24450 net.cpp:124] Setting up SCNN_U_15/relu
I0313 11:41:13.896757 24450 net.cpp:131] Top shape: 1 64 1 80 (5120)
I0313 11:41:13.896761 24450 net.cpp:139] Memory required for data: 328376320
I0313 11:41:13.896767 24450 layer_factory.hpp:77] Creating layer SCNN_U_15/sum
I0313 11:41:13.896776 24450 net.cpp:86] Creating Layer SCNN_U_15/sum
I0313 11:41:13.896785 24450 net.cpp:408] SCNN_U_15/sum <- SCNN_U_15/message
I0313 11:41:13.896798 24450 net.cpp:408] SCNN_U_15/sum <- SCNN_D_14_SCNN_D_13/sum_0_split_1
I0313 11:41:13.896806 24450 net.cpp:382] SCNN_U_15/sum -> SCNN_U_14
I0313 11:41:13.896862 24450 net.cpp:124] Setting up SCNN_U_15/sum
I0313 11:41:13.896873 24450 net.cpp:131] Top shape: 1 64 1 80 (5120)
I0313 11:41:13.896879 24450 net.cpp:139] Memory required for data: 328396800
I0313 11:41:13.896885 24450 layer_factory.hpp:77] Creating layer SCNN_U_14_SCNN_U_15/sum_0_split
I0313 11:41:13.896893 24450 net.cpp:86] Creating Layer SCNN_U_14_SCNN_U_15/sum_0_split
I0313 11:41:13.896903 24450 net.cpp:408] SCNN_U_14_SCNN_U_15/sum_0_split <- SCNN_U_14
I0313 11:41:13.896914 24450 net.cpp:382] SCNN_U_14_SCNN_U_15/sum_0_split -> SCNN_U_14_SCNN_U_15/sum_0_split_0
I0313 11:41:13.896925 24450 net.cpp:382] SCNN_U_14_SCNN_U_15/sum_0_split -> SCNN_U_14_SCNN_U_15/sum_0_split_1
I0313 11:41:13.896991 24450 net.cpp:124] Setting up SCNN_U_14_SCNN_U_15/sum_0_split
I0313 11:41:13.897001 24450 net.cpp:131] Top shape: 1 64 1 80 (5120)
I0313 11:41:13.897009 24450 net.cpp:131] Top shape: 1 64 1 80 (5120)
I0313 11:41:13.897029 24450 net.cpp:139] Memory required for data: 328437760
I0313 11:41:13.897034 24450 layer_factory.hpp:77] Creating layer SCNN_U_14
I0313 11:41:13.897047 24450 net.cpp:86] Creating Layer SCNN_U_14
I0313 11:41:13.897056 24450 net.cpp:408] SCNN_U_14 <- SCNN_U_14_SCNN_U_15/sum_0_split_0
I0313 11:41:13.897068 24450 net.cpp:382] SCNN_U_14 -> SCNN_U_14/message
I0313 11:41:13.898988 24450 net.cpp:124] Setting up SCNN_U_14
I0313 11:41:13.899019 24450 net.cpp:131] Top shape: 1 64 1 80 (5120)
I0313 11:41:13.899025 24450 net.cpp:139] Memory required for data: 328458240
I0313 11:41:13.899036 24450 net.cpp:467] Sharing parameters 'SCNN_U_w' owned by layer 'SCNN_U_60', param index 0
I0313 11:41:13.899044 24450 layer_factory.hpp:77] Creating layer SCNN_U_14/relu
I0313 11:41:13.899055 24450 net.cpp:86] Creating Layer SCNN_U_14/relu
I0313 11:41:13.899066 24450 net.cpp:408] SCNN_U_14/relu <- SCNN_U_14/message
I0313 11:41:13.899080 24450 net.cpp:369] SCNN_U_14/relu -> SCNN_U_14/message (in-place)
I0313 11:41:13.899551 24450 net.cpp:124] Setting up SCNN_U_14/relu
I0313 11:41:13.899566 24450 net.cpp:131] Top shape: 1 64 1 80 (5120)
I0313 11:41:13.899570 24450 net.cpp:139] Memory required for data: 328478720
I0313 11:41:13.899587 24450 layer_factory.hpp:77] Creating layer SCNN_U_14/sum
I0313 11:41:13.899597 24450 net.cpp:86] Creating Layer SCNN_U_14/sum
I0313 11:41:13.899608 24450 net.cpp:408] SCNN_U_14/sum <- SCNN_U_14/message
I0313 11:41:13.899621 24450 net.cpp:408] SCNN_U_14/sum <- SCNN_D_13_SCNN_D_12/sum_0_split_1
I0313 11:41:13.899631 24450 net.cpp:382] SCNN_U_14/sum -> SCNN_U_13
I0313 11:41:13.899690 24450 net.cpp:124] Setting up SCNN_U_14/sum
I0313 11:41:13.899703 24450 net.cpp:131] Top shape: 1 64 1 80 (5120)
I0313 11:41:13.899709 24450 net.cpp:139] Memory required for data: 328499200
I0313 11:41:13.899715 24450 layer_factory.hpp:77] Creating layer SCNN_U_13_SCNN_U_14/sum_0_split
I0313 11:41:13.899725 24450 net.cpp:86] Creating Layer SCNN_U_13_SCNN_U_14/sum_0_split
I0313 11:41:13.899734 24450 net.cpp:408] SCNN_U_13_SCNN_U_14/sum_0_split <- SCNN_U_13
I0313 11:41:13.899744 24450 net.cpp:382] SCNN_U_13_SCNN_U_14/sum_0_split -> SCNN_U_13_SCNN_U_14/sum_0_split_0
I0313 11:41:13.899756 24450 net.cpp:382] SCNN_U_13_SCNN_U_14/sum_0_split -> SCNN_U_13_SCNN_U_14/sum_0_split_1
I0313 11:41:13.899827 24450 net.cpp:124] Setting up SCNN_U_13_SCNN_U_14/sum_0_split
I0313 11:41:13.899837 24450 net.cpp:131] Top shape: 1 64 1 80 (5120)
I0313 11:41:13.899847 24450 net.cpp:131] Top shape: 1 64 1 80 (5120)
I0313 11:41:13.899852 24450 net.cpp:139] Memory required for data: 328540160
I0313 11:41:13.899858 24450 layer_factory.hpp:77] Creating layer SCNN_U_13
I0313 11:41:13.899873 24450 net.cpp:86] Creating Layer SCNN_U_13
I0313 11:41:13.899881 24450 net.cpp:408] SCNN_U_13 <- SCNN_U_13_SCNN_U_14/sum_0_split_0
I0313 11:41:13.899893 24450 net.cpp:382] SCNN_U_13 -> SCNN_U_13/message
I0313 11:41:13.901608 24450 net.cpp:124] Setting up SCNN_U_13
I0313 11:41:13.901636 24450 net.cpp:131] Top shape: 1 64 1 80 (5120)
I0313 11:41:13.901651 24450 net.cpp:139] Memory required for data: 328560640
I0313 11:41:13.901662 24450 net.cpp:467] Sharing parameters 'SCNN_U_w' owned by layer 'SCNN_U_60', param index 0
I0313 11:41:13.901669 24450 layer_factory.hpp:77] Creating layer SCNN_U_13/relu
I0313 11:41:13.901680 24450 net.cpp:86] Creating Layer SCNN_U_13/relu
I0313 11:41:13.901691 24450 net.cpp:408] SCNN_U_13/relu <- SCNN_U_13/message
I0313 11:41:13.901706 24450 net.cpp:369] SCNN_U_13/relu -> SCNN_U_13/message (in-place)
I0313 11:41:13.903604 24450 net.cpp:124] Setting up SCNN_U_13/relu
I0313 11:41:13.903631 24450 net.cpp:131] Top shape: 1 64 1 80 (5120)
I0313 11:41:13.903637 24450 net.cpp:139] Memory required for data: 328581120
I0313 11:41:13.903643 24450 layer_factory.hpp:77] Creating layer SCNN_U_13/sum
I0313 11:41:13.903656 24450 net.cpp:86] Creating Layer SCNN_U_13/sum
I0313 11:41:13.903676 24450 net.cpp:408] SCNN_U_13/sum <- SCNN_U_13/message
I0313 11:41:13.903693 24450 net.cpp:408] SCNN_U_13/sum <- SCNN_D_12_SCNN_D_11/sum_0_split_1
I0313 11:41:13.903703 24450 net.cpp:382] SCNN_U_13/sum -> SCNN_U_12
I0313 11:41:13.903779 24450 net.cpp:124] Setting up SCNN_U_13/sum
I0313 11:41:13.903797 24450 net.cpp:131] Top shape: 1 64 1 80 (5120)
I0313 11:41:13.903803 24450 net.cpp:139] Memory required for data: 328601600
I0313 11:41:13.903807 24450 layer_factory.hpp:77] Creating layer SCNN_U_12_SCNN_U_13/sum_0_split
I0313 11:41:13.903818 24450 net.cpp:86] Creating Layer SCNN_U_12_SCNN_U_13/sum_0_split
I0313 11:41:13.903829 24450 net.cpp:408] SCNN_U_12_SCNN_U_13/sum_0_split <- SCNN_U_12
I0313 11:41:13.903842 24450 net.cpp:382] SCNN_U_12_SCNN_U_13/sum_0_split -> SCNN_U_12_SCNN_U_13/sum_0_split_0
I0313 11:41:13.903856 24450 net.cpp:382] SCNN_U_12_SCNN_U_13/sum_0_split -> SCNN_U_12_SCNN_U_13/sum_0_split_1
I0313 11:41:13.903936 24450 net.cpp:124] Setting up SCNN_U_12_SCNN_U_13/sum_0_split
I0313 11:41:13.903950 24450 net.cpp:131] Top shape: 1 64 1 80 (5120)
I0313 11:41:13.903960 24450 net.cpp:131] Top shape: 1 64 1 80 (5120)
I0313 11:41:13.903966 24450 net.cpp:139] Memory required for data: 328642560
I0313 11:41:13.903973 24450 layer_factory.hpp:77] Creating layer SCNN_U_12
I0313 11:41:13.903990 24450 net.cpp:86] Creating Layer SCNN_U_12
I0313 11:41:13.904000 24450 net.cpp:408] SCNN_U_12 <- SCNN_U_12_SCNN_U_13/sum_0_split_0
I0313 11:41:13.904012 24450 net.cpp:382] SCNN_U_12 -> SCNN_U_12/message
I0313 11:41:13.905864 24450 net.cpp:124] Setting up SCNN_U_12
I0313 11:41:13.905892 24450 net.cpp:131] Top shape: 1 64 1 80 (5120)
I0313 11:41:13.905901 24450 net.cpp:139] Memory required for data: 328663040
I0313 11:41:13.905912 24450 net.cpp:467] Sharing parameters 'SCNN_U_w' owned by layer 'SCNN_U_60', param index 0
I0313 11:41:13.905920 24450 layer_factory.hpp:77] Creating layer SCNN_U_12/relu
I0313 11:41:13.905931 24450 net.cpp:86] Creating Layer SCNN_U_12/relu
I0313 11:41:13.905943 24450 net.cpp:408] SCNN_U_12/relu <- SCNN_U_12/message
I0313 11:41:13.905957 24450 net.cpp:369] SCNN_U_12/relu -> SCNN_U_12/message (in-place)
I0313 11:41:13.906180 24450 net.cpp:124] Setting up SCNN_U_12/relu
I0313 11:41:13.906193 24450 net.cpp:131] Top shape: 1 64 1 80 (5120)
I0313 11:41:13.906198 24450 net.cpp:139] Memory required for data: 328683520
I0313 11:41:13.906201 24450 layer_factory.hpp:77] Creating layer SCNN_U_12/sum
I0313 11:41:13.906211 24450 net.cpp:86] Creating Layer SCNN_U_12/sum
I0313 11:41:13.906222 24450 net.cpp:408] SCNN_U_12/sum <- SCNN_U_12/message
I0313 11:41:13.906236 24450 net.cpp:408] SCNN_U_12/sum <- SCNN_D_11_SCNN_D_10/sum_0_split_1
I0313 11:41:13.906245 24450 net.cpp:382] SCNN_U_12/sum -> SCNN_U_11
I0313 11:41:13.906304 24450 net.cpp:124] Setting up SCNN_U_12/sum
I0313 11:41:13.906317 24450 net.cpp:131] Top shape: 1 64 1 80 (5120)
I0313 11:41:13.906324 24450 net.cpp:139] Memory required for data: 328704000
I0313 11:41:13.906332 24450 layer_factory.hpp:77] Creating layer SCNN_U_11_SCNN_U_12/sum_0_split
I0313 11:41:13.906343 24450 net.cpp:86] Creating Layer SCNN_U_11_SCNN_U_12/sum_0_split
I0313 11:41:13.906353 24450 net.cpp:408] SCNN_U_11_SCNN_U_12/sum_0_split <- SCNN_U_11
I0313 11:41:13.906366 24450 net.cpp:382] SCNN_U_11_SCNN_U_12/sum_0_split -> SCNN_U_11_SCNN_U_12/sum_0_split_0
I0313 11:41:13.906381 24450 net.cpp:382] SCNN_U_11_SCNN_U_12/sum_0_split -> SCNN_U_11_SCNN_U_12/sum_0_split_1
I0313 11:41:13.906456 24450 net.cpp:124] Setting up SCNN_U_11_SCNN_U_12/sum_0_split
I0313 11:41:13.906469 24450 net.cpp:131] Top shape: 1 64 1 80 (5120)
I0313 11:41:13.906481 24450 net.cpp:131] Top shape: 1 64 1 80 (5120)
I0313 11:41:13.906487 24450 net.cpp:139] Memory required for data: 328744960
I0313 11:41:13.906496 24450 layer_factory.hpp:77] Creating layer SCNN_U_11
I0313 11:41:13.906509 24450 net.cpp:86] Creating Layer SCNN_U_11
I0313 11:41:13.906518 24450 net.cpp:408] SCNN_U_11 <- SCNN_U_11_SCNN_U_12/sum_0_split_0
I0313 11:41:13.906533 24450 net.cpp:382] SCNN_U_11 -> SCNN_U_11/message
I0313 11:41:13.908371 24450 net.cpp:124] Setting up SCNN_U_11
I0313 11:41:13.908398 24450 net.cpp:131] Top shape: 1 64 1 80 (5120)
I0313 11:41:13.908408 24450 net.cpp:139] Memory required for data: 328765440
I0313 11:41:13.908419 24450 net.cpp:467] Sharing parameters 'SCNN_U_w' owned by layer 'SCNN_U_60', param index 0
I0313 11:41:13.908427 24450 layer_factory.hpp:77] Creating layer SCNN_U_11/relu
I0313 11:41:13.908438 24450 net.cpp:86] Creating Layer SCNN_U_11/relu
I0313 11:41:13.908450 24450 net.cpp:408] SCNN_U_11/relu <- SCNN_U_11/message
I0313 11:41:13.908463 24450 net.cpp:369] SCNN_U_11/relu -> SCNN_U_11/message (in-place)
I0313 11:41:13.908701 24450 net.cpp:124] Setting up SCNN_U_11/relu
I0313 11:41:13.908715 24450 net.cpp:131] Top shape: 1 64 1 80 (5120)
I0313 11:41:13.908720 24450 net.cpp:139] Memory required for data: 328785920
I0313 11:41:13.908725 24450 layer_factory.hpp:77] Creating layer SCNN_U_11/sum
I0313 11:41:13.908736 24450 net.cpp:86] Creating Layer SCNN_U_11/sum
I0313 11:41:13.908747 24450 net.cpp:408] SCNN_U_11/sum <- SCNN_U_11/message
I0313 11:41:13.908761 24450 net.cpp:408] SCNN_U_11/sum <- SCNN_D_10_SCNN_D_9/sum_0_split_1
I0313 11:41:13.908771 24450 net.cpp:382] SCNN_U_11/sum -> SCNN_U_10
I0313 11:41:13.908833 24450 net.cpp:124] Setting up SCNN_U_11/sum
I0313 11:41:13.908846 24450 net.cpp:131] Top shape: 1 64 1 80 (5120)
I0313 11:41:13.908852 24450 net.cpp:139] Memory required for data: 328806400
I0313 11:41:13.908859 24450 layer_factory.hpp:77] Creating layer SCNN_U_10_SCNN_U_11/sum_0_split
I0313 11:41:13.908869 24450 net.cpp:86] Creating Layer SCNN_U_10_SCNN_U_11/sum_0_split
I0313 11:41:13.908879 24450 net.cpp:408] SCNN_U_10_SCNN_U_11/sum_0_split <- SCNN_U_10
I0313 11:41:13.908892 24450 net.cpp:382] SCNN_U_10_SCNN_U_11/sum_0_split -> SCNN_U_10_SCNN_U_11/sum_0_split_0
I0313 11:41:13.908906 24450 net.cpp:382] SCNN_U_10_SCNN_U_11/sum_0_split -> SCNN_U_10_SCNN_U_11/sum_0_split_1
I0313 11:41:13.908993 24450 net.cpp:124] Setting up SCNN_U_10_SCNN_U_11/sum_0_split
I0313 11:41:13.909013 24450 net.cpp:131] Top shape: 1 64 1 80 (5120)
I0313 11:41:13.909024 24450 net.cpp:131] Top shape: 1 64 1 80 (5120)
I0313 11:41:13.909030 24450 net.cpp:139] Memory required for data: 328847360
I0313 11:41:13.909037 24450 layer_factory.hpp:77] Creating layer SCNN_U_10
I0313 11:41:13.909054 24450 net.cpp:86] Creating Layer SCNN_U_10
I0313 11:41:13.909063 24450 net.cpp:408] SCNN_U_10 <- SCNN_U_10_SCNN_U_11/sum_0_split_0
I0313 11:41:13.909073 24450 net.cpp:382] SCNN_U_10 -> SCNN_U_10/message
I0313 11:41:13.910946 24450 net.cpp:124] Setting up SCNN_U_10
I0313 11:41:13.910974 24450 net.cpp:131] Top shape: 1 64 1 80 (5120)
I0313 11:41:13.910980 24450 net.cpp:139] Memory required for data: 328867840
I0313 11:41:13.910989 24450 net.cpp:467] Sharing parameters 'SCNN_U_w' owned by layer 'SCNN_U_60', param index 0
I0313 11:41:13.910995 24450 layer_factory.hpp:77] Creating layer SCNN_U_10/relu
I0313 11:41:13.911003 24450 net.cpp:86] Creating Layer SCNN_U_10/relu
I0313 11:41:13.911012 24450 net.cpp:408] SCNN_U_10/relu <- SCNN_U_10/message
I0313 11:41:13.911023 24450 net.cpp:369] SCNN_U_10/relu -> SCNN_U_10/message (in-place)
I0313 11:41:13.911243 24450 net.cpp:124] Setting up SCNN_U_10/relu
I0313 11:41:13.911255 24450 net.cpp:131] Top shape: 1 64 1 80 (5120)
I0313 11:41:13.911260 24450 net.cpp:139] Memory required for data: 328888320
I0313 11:41:13.911264 24450 layer_factory.hpp:77] Creating layer SCNN_U_10/sum
I0313 11:41:13.911273 24450 net.cpp:86] Creating Layer SCNN_U_10/sum
I0313 11:41:13.911281 24450 net.cpp:408] SCNN_U_10/sum <- SCNN_U_10/message
I0313 11:41:13.911291 24450 net.cpp:408] SCNN_U_10/sum <- SCNN_D_9_SCNN_D_8/sum_0_split_1
I0313 11:41:13.911299 24450 net.cpp:382] SCNN_U_10/sum -> SCNN_U_9
I0313 11:41:13.911355 24450 net.cpp:124] Setting up SCNN_U_10/sum
I0313 11:41:13.911365 24450 net.cpp:131] Top shape: 1 64 1 80 (5120)
I0313 11:41:13.911370 24450 net.cpp:139] Memory required for data: 328908800
I0313 11:41:13.911373 24450 layer_factory.hpp:77] Creating layer SCNN_U_9_SCNN_U_10/sum_0_split
I0313 11:41:13.911384 24450 net.cpp:86] Creating Layer SCNN_U_9_SCNN_U_10/sum_0_split
I0313 11:41:13.911391 24450 net.cpp:408] SCNN_U_9_SCNN_U_10/sum_0_split <- SCNN_U_9
I0313 11:41:13.911401 24450 net.cpp:382] SCNN_U_9_SCNN_U_10/sum_0_split -> SCNN_U_9_SCNN_U_10/sum_0_split_0
I0313 11:41:13.911412 24450 net.cpp:382] SCNN_U_9_SCNN_U_10/sum_0_split -> SCNN_U_9_SCNN_U_10/sum_0_split_1
I0313 11:41:13.911479 24450 net.cpp:124] Setting up SCNN_U_9_SCNN_U_10/sum_0_split
I0313 11:41:13.911489 24450 net.cpp:131] Top shape: 1 64 1 80 (5120)
I0313 11:41:13.911494 24450 net.cpp:131] Top shape: 1 64 1 80 (5120)
I0313 11:41:13.911499 24450 net.cpp:139] Memory required for data: 328949760
I0313 11:41:13.911502 24450 layer_factory.hpp:77] Creating layer SCNN_U_9
I0313 11:41:13.911515 24450 net.cpp:86] Creating Layer SCNN_U_9
I0313 11:41:13.911522 24450 net.cpp:408] SCNN_U_9 <- SCNN_U_9_SCNN_U_10/sum_0_split_0
I0313 11:41:13.911531 24450 net.cpp:382] SCNN_U_9 -> SCNN_U_9/message
I0313 11:41:13.915736 24450 net.cpp:124] Setting up SCNN_U_9
I0313 11:41:13.915776 24450 net.cpp:131] Top shape: 1 64 1 80 (5120)
I0313 11:41:13.915781 24450 net.cpp:139] Memory required for data: 328970240
I0313 11:41:13.915793 24450 net.cpp:467] Sharing parameters 'SCNN_U_w' owned by layer 'SCNN_U_60', param index 0
I0313 11:41:13.915798 24450 layer_factory.hpp:77] Creating layer SCNN_U_9/relu
I0313 11:41:13.915812 24450 net.cpp:86] Creating Layer SCNN_U_9/relu
I0313 11:41:13.915825 24450 net.cpp:408] SCNN_U_9/relu <- SCNN_U_9/message
I0313 11:41:13.915839 24450 net.cpp:369] SCNN_U_9/relu -> SCNN_U_9/message (in-place)
I0313 11:41:13.916363 24450 net.cpp:124] Setting up SCNN_U_9/relu
I0313 11:41:13.916378 24450 net.cpp:131] Top shape: 1 64 1 80 (5120)
I0313 11:41:13.916383 24450 net.cpp:139] Memory required for data: 328990720
I0313 11:41:13.916386 24450 layer_factory.hpp:77] Creating layer SCNN_U_9/sum
I0313 11:41:13.916395 24450 net.cpp:86] Creating Layer SCNN_U_9/sum
I0313 11:41:13.916405 24450 net.cpp:408] SCNN_U_9/sum <- SCNN_U_9/message
I0313 11:41:13.916416 24450 net.cpp:408] SCNN_U_9/sum <- SCNN_D_8_SCNN_D_7/sum_0_split_1
I0313 11:41:13.916426 24450 net.cpp:382] SCNN_U_9/sum -> SCNN_U_8
I0313 11:41:13.916491 24450 net.cpp:124] Setting up SCNN_U_9/sum
I0313 11:41:13.916501 24450 net.cpp:131] Top shape: 1 64 1 80 (5120)
I0313 11:41:13.916507 24450 net.cpp:139] Memory required for data: 329011200
I0313 11:41:13.916509 24450 layer_factory.hpp:77] Creating layer SCNN_U_8_SCNN_U_9/sum_0_split
I0313 11:41:13.916514 24450 net.cpp:86] Creating Layer SCNN_U_8_SCNN_U_9/sum_0_split
I0313 11:41:13.916519 24450 net.cpp:408] SCNN_U_8_SCNN_U_9/sum_0_split <- SCNN_U_8
I0313 11:41:13.916528 24450 net.cpp:382] SCNN_U_8_SCNN_U_9/sum_0_split -> SCNN_U_8_SCNN_U_9/sum_0_split_0
I0313 11:41:13.916538 24450 net.cpp:382] SCNN_U_8_SCNN_U_9/sum_0_split -> SCNN_U_8_SCNN_U_9/sum_0_split_1
I0313 11:41:13.916607 24450 net.cpp:124] Setting up SCNN_U_8_SCNN_U_9/sum_0_split
I0313 11:41:13.916618 24450 net.cpp:131] Top shape: 1 64 1 80 (5120)
I0313 11:41:13.916625 24450 net.cpp:131] Top shape: 1 64 1 80 (5120)
I0313 11:41:13.916630 24450 net.cpp:139] Memory required for data: 329052160
I0313 11:41:13.916632 24450 layer_factory.hpp:77] Creating layer SCNN_U_8
I0313 11:41:13.916644 24450 net.cpp:86] Creating Layer SCNN_U_8
I0313 11:41:13.916651 24450 net.cpp:408] SCNN_U_8 <- SCNN_U_8_SCNN_U_9/sum_0_split_0
I0313 11:41:13.916661 24450 net.cpp:382] SCNN_U_8 -> SCNN_U_8/message
I0313 11:41:13.918509 24450 net.cpp:124] Setting up SCNN_U_8
I0313 11:41:13.918534 24450 net.cpp:131] Top shape: 1 64 1 80 (5120)
I0313 11:41:13.918540 24450 net.cpp:139] Memory required for data: 329072640
I0313 11:41:13.918548 24450 net.cpp:467] Sharing parameters 'SCNN_U_w' owned by layer 'SCNN_U_60', param index 0
I0313 11:41:13.918555 24450 layer_factory.hpp:77] Creating layer SCNN_U_8/relu
I0313 11:41:13.918561 24450 net.cpp:86] Creating Layer SCNN_U_8/relu
I0313 11:41:13.918570 24450 net.cpp:408] SCNN_U_8/relu <- SCNN_U_8/message
I0313 11:41:13.918581 24450 net.cpp:369] SCNN_U_8/relu -> SCNN_U_8/message (in-place)
I0313 11:41:13.918807 24450 net.cpp:124] Setting up SCNN_U_8/relu
I0313 11:41:13.918818 24450 net.cpp:131] Top shape: 1 64 1 80 (5120)
I0313 11:41:13.918823 24450 net.cpp:139] Memory required for data: 329093120
I0313 11:41:13.918828 24450 layer_factory.hpp:77] Creating layer SCNN_U_8/sum
I0313 11:41:13.918835 24450 net.cpp:86] Creating Layer SCNN_U_8/sum
I0313 11:41:13.918843 24450 net.cpp:408] SCNN_U_8/sum <- SCNN_U_8/message
I0313 11:41:13.918854 24450 net.cpp:408] SCNN_U_8/sum <- SCNN_D_7_SCNN_D_6/sum_0_split_1
I0313 11:41:13.918864 24450 net.cpp:382] SCNN_U_8/sum -> SCNN_U_7
I0313 11:41:13.918918 24450 net.cpp:124] Setting up SCNN_U_8/sum
I0313 11:41:13.918928 24450 net.cpp:131] Top shape: 1 64 1 80 (5120)
I0313 11:41:13.918933 24450 net.cpp:139] Memory required for data: 329113600
I0313 11:41:13.918936 24450 layer_factory.hpp:77] Creating layer SCNN_U_7_SCNN_U_8/sum_0_split
I0313 11:41:13.918944 24450 net.cpp:86] Creating Layer SCNN_U_7_SCNN_U_8/sum_0_split
I0313 11:41:13.918952 24450 net.cpp:408] SCNN_U_7_SCNN_U_8/sum_0_split <- SCNN_U_7
I0313 11:41:13.918962 24450 net.cpp:382] SCNN_U_7_SCNN_U_8/sum_0_split -> SCNN_U_7_SCNN_U_8/sum_0_split_0
I0313 11:41:13.918972 24450 net.cpp:382] SCNN_U_7_SCNN_U_8/sum_0_split -> SCNN_U_7_SCNN_U_8/sum_0_split_1
I0313 11:41:13.919047 24450 net.cpp:124] Setting up SCNN_U_7_SCNN_U_8/sum_0_split
I0313 11:41:13.919059 24450 net.cpp:131] Top shape: 1 64 1 80 (5120)
I0313 11:41:13.919064 24450 net.cpp:131] Top shape: 1 64 1 80 (5120)
I0313 11:41:13.919070 24450 net.cpp:139] Memory required for data: 329154560
I0313 11:41:13.919072 24450 layer_factory.hpp:77] Creating layer SCNN_U_7
I0313 11:41:13.919083 24450 net.cpp:86] Creating Layer SCNN_U_7
I0313 11:41:13.919091 24450 net.cpp:408] SCNN_U_7 <- SCNN_U_7_SCNN_U_8/sum_0_split_0
I0313 11:41:13.919101 24450 net.cpp:382] SCNN_U_7 -> SCNN_U_7/message
I0313 11:41:13.920948 24450 net.cpp:124] Setting up SCNN_U_7
I0313 11:41:13.920972 24450 net.cpp:131] Top shape: 1 64 1 80 (5120)
I0313 11:41:13.920977 24450 net.cpp:139] Memory required for data: 329175040
I0313 11:41:13.920984 24450 net.cpp:467] Sharing parameters 'SCNN_U_w' owned by layer 'SCNN_U_60', param index 0
I0313 11:41:13.920990 24450 layer_factory.hpp:77] Creating layer SCNN_U_7/relu
I0313 11:41:13.920998 24450 net.cpp:86] Creating Layer SCNN_U_7/relu
I0313 11:41:13.921007 24450 net.cpp:408] SCNN_U_7/relu <- SCNN_U_7/message
I0313 11:41:13.921016 24450 net.cpp:369] SCNN_U_7/relu -> SCNN_U_7/message (in-place)
I0313 11:41:13.921229 24450 net.cpp:124] Setting up SCNN_U_7/relu
I0313 11:41:13.921241 24450 net.cpp:131] Top shape: 1 64 1 80 (5120)
I0313 11:41:13.921245 24450 net.cpp:139] Memory required for data: 329195520
I0313 11:41:13.921250 24450 layer_factory.hpp:77] Creating layer SCNN_U_7/sum
I0313 11:41:13.921257 24450 net.cpp:86] Creating Layer SCNN_U_7/sum
I0313 11:41:13.921264 24450 net.cpp:408] SCNN_U_7/sum <- SCNN_U_7/message
I0313 11:41:13.921277 24450 net.cpp:408] SCNN_U_7/sum <- SCNN_D_6_SCNN_D_5/sum_0_split_1
I0313 11:41:13.921283 24450 net.cpp:382] SCNN_U_7/sum -> SCNN_U_6
I0313 11:41:13.921339 24450 net.cpp:124] Setting up SCNN_U_7/sum
I0313 11:41:13.921350 24450 net.cpp:131] Top shape: 1 64 1 80 (5120)
I0313 11:41:13.921355 24450 net.cpp:139] Memory required for data: 329216000
I0313 11:41:13.921357 24450 layer_factory.hpp:77] Creating layer SCNN_U_6_SCNN_U_7/sum_0_split
I0313 11:41:13.921365 24450 net.cpp:86] Creating Layer SCNN_U_6_SCNN_U_7/sum_0_split
I0313 11:41:13.921371 24450 net.cpp:408] SCNN_U_6_SCNN_U_7/sum_0_split <- SCNN_U_6
I0313 11:41:13.921380 24450 net.cpp:382] SCNN_U_6_SCNN_U_7/sum_0_split -> SCNN_U_6_SCNN_U_7/sum_0_split_0
I0313 11:41:13.921391 24450 net.cpp:382] SCNN_U_6_SCNN_U_7/sum_0_split -> SCNN_U_6_SCNN_U_7/sum_0_split_1
I0313 11:41:13.921460 24450 net.cpp:124] Setting up SCNN_U_6_SCNN_U_7/sum_0_split
I0313 11:41:13.921470 24450 net.cpp:131] Top shape: 1 64 1 80 (5120)
I0313 11:41:13.921476 24450 net.cpp:131] Top shape: 1 64 1 80 (5120)
I0313 11:41:13.921481 24450 net.cpp:139] Memory required for data: 329256960
I0313 11:41:13.921484 24450 layer_factory.hpp:77] Creating layer SCNN_U_6
I0313 11:41:13.921495 24450 net.cpp:86] Creating Layer SCNN_U_6
I0313 11:41:13.921502 24450 net.cpp:408] SCNN_U_6 <- SCNN_U_6_SCNN_U_7/sum_0_split_0
I0313 11:41:13.921511 24450 net.cpp:382] SCNN_U_6 -> SCNN_U_6/message
I0313 11:41:13.924938 24450 net.cpp:124] Setting up SCNN_U_6
I0313 11:41:13.924975 24450 net.cpp:131] Top shape: 1 64 1 80 (5120)
I0313 11:41:13.924981 24450 net.cpp:139] Memory required for data: 329277440
I0313 11:41:13.924991 24450 net.cpp:467] Sharing parameters 'SCNN_U_w' owned by layer 'SCNN_U_60', param index 0
I0313 11:41:13.924998 24450 layer_factory.hpp:77] Creating layer SCNN_U_6/relu
I0313 11:41:13.925006 24450 net.cpp:86] Creating Layer SCNN_U_6/relu
I0313 11:41:13.925019 24450 net.cpp:408] SCNN_U_6/relu <- SCNN_U_6/message
I0313 11:41:13.925032 24450 net.cpp:369] SCNN_U_6/relu -> SCNN_U_6/message (in-place)
I0313 11:41:13.925251 24450 net.cpp:124] Setting up SCNN_U_6/relu
I0313 11:41:13.925263 24450 net.cpp:131] Top shape: 1 64 1 80 (5120)
I0313 11:41:13.925266 24450 net.cpp:139] Memory required for data: 329297920
I0313 11:41:13.925269 24450 layer_factory.hpp:77] Creating layer SCNN_U_6/sum
I0313 11:41:13.925274 24450 net.cpp:86] Creating Layer SCNN_U_6/sum
I0313 11:41:13.925281 24450 net.cpp:408] SCNN_U_6/sum <- SCNN_U_6/message
I0313 11:41:13.925290 24450 net.cpp:408] SCNN_U_6/sum <- SCNN_D_5_SCNN_D_4/sum_0_split_1
I0313 11:41:13.925308 24450 net.cpp:382] SCNN_U_6/sum -> SCNN_U_5
I0313 11:41:13.925379 24450 net.cpp:124] Setting up SCNN_U_6/sum
I0313 11:41:13.925388 24450 net.cpp:131] Top shape: 1 64 1 80 (5120)
I0313 11:41:13.925392 24450 net.cpp:139] Memory required for data: 329318400
I0313 11:41:13.925395 24450 layer_factory.hpp:77] Creating layer SCNN_U_5_SCNN_U_6/sum_0_split
I0313 11:41:13.925400 24450 net.cpp:86] Creating Layer SCNN_U_5_SCNN_U_6/sum_0_split
I0313 11:41:13.925406 24450 net.cpp:408] SCNN_U_5_SCNN_U_6/sum_0_split <- SCNN_U_5
I0313 11:41:13.925415 24450 net.cpp:382] SCNN_U_5_SCNN_U_6/sum_0_split -> SCNN_U_5_SCNN_U_6/sum_0_split_0
I0313 11:41:13.925432 24450 net.cpp:382] SCNN_U_5_SCNN_U_6/sum_0_split -> SCNN_U_5_SCNN_U_6/sum_0_split_1
I0313 11:41:13.925503 24450 net.cpp:124] Setting up SCNN_U_5_SCNN_U_6/sum_0_split
I0313 11:41:13.925513 24450 net.cpp:131] Top shape: 1 64 1 80 (5120)
I0313 11:41:13.925518 24450 net.cpp:131] Top shape: 1 64 1 80 (5120)
I0313 11:41:13.925521 24450 net.cpp:139] Memory required for data: 329359360
I0313 11:41:13.925523 24450 layer_factory.hpp:77] Creating layer SCNN_U_5
I0313 11:41:13.925534 24450 net.cpp:86] Creating Layer SCNN_U_5
I0313 11:41:13.925539 24450 net.cpp:408] SCNN_U_5 <- SCNN_U_5_SCNN_U_6/sum_0_split_0
I0313 11:41:13.925549 24450 net.cpp:382] SCNN_U_5 -> SCNN_U_5/message
I0313 11:41:13.927376 24450 net.cpp:124] Setting up SCNN_U_5
I0313 11:41:13.927398 24450 net.cpp:131] Top shape: 1 64 1 80 (5120)
I0313 11:41:13.927403 24450 net.cpp:139] Memory required for data: 329379840
I0313 11:41:13.927410 24450 net.cpp:467] Sharing parameters 'SCNN_U_w' owned by layer 'SCNN_U_60', param index 0
I0313 11:41:13.927415 24450 layer_factory.hpp:77] Creating layer SCNN_U_5/relu
I0313 11:41:13.927423 24450 net.cpp:86] Creating Layer SCNN_U_5/relu
I0313 11:41:13.927431 24450 net.cpp:408] SCNN_U_5/relu <- SCNN_U_5/message
I0313 11:41:13.927441 24450 net.cpp:369] SCNN_U_5/relu -> SCNN_U_5/message (in-place)
I0313 11:41:13.927958 24450 net.cpp:124] Setting up SCNN_U_5/relu
I0313 11:41:13.927973 24450 net.cpp:131] Top shape: 1 64 1 80 (5120)
I0313 11:41:13.927978 24450 net.cpp:139] Memory required for data: 329400320
I0313 11:41:13.927983 24450 layer_factory.hpp:77] Creating layer SCNN_U_5/sum
I0313 11:41:13.927990 24450 net.cpp:86] Creating Layer SCNN_U_5/sum
I0313 11:41:13.927999 24450 net.cpp:408] SCNN_U_5/sum <- SCNN_U_5/message
I0313 11:41:13.928011 24450 net.cpp:408] SCNN_U_5/sum <- SCNN_D_4_SCNN_D_3/sum_0_split_1
I0313 11:41:13.928020 24450 net.cpp:382] SCNN_U_5/sum -> SCNN_U_4
I0313 11:41:13.928093 24450 net.cpp:124] Setting up SCNN_U_5/sum
I0313 11:41:13.928105 24450 net.cpp:131] Top shape: 1 64 1 80 (5120)
I0313 11:41:13.928110 24450 net.cpp:139] Memory required for data: 329420800
I0313 11:41:13.928113 24450 layer_factory.hpp:77] Creating layer SCNN_U_4_SCNN_U_5/sum_0_split
I0313 11:41:13.928119 24450 net.cpp:86] Creating Layer SCNN_U_4_SCNN_U_5/sum_0_split
I0313 11:41:13.928126 24450 net.cpp:408] SCNN_U_4_SCNN_U_5/sum_0_split <- SCNN_U_4
I0313 11:41:13.928135 24450 net.cpp:382] SCNN_U_4_SCNN_U_5/sum_0_split -> SCNN_U_4_SCNN_U_5/sum_0_split_0
I0313 11:41:13.928145 24450 net.cpp:382] SCNN_U_4_SCNN_U_5/sum_0_split -> SCNN_U_4_SCNN_U_5/sum_0_split_1
I0313 11:41:13.928217 24450 net.cpp:124] Setting up SCNN_U_4_SCNN_U_5/sum_0_split
I0313 11:41:13.928227 24450 net.cpp:131] Top shape: 1 64 1 80 (5120)
I0313 11:41:13.928233 24450 net.cpp:131] Top shape: 1 64 1 80 (5120)
I0313 11:41:13.928238 24450 net.cpp:139] Memory required for data: 329461760
I0313 11:41:13.928241 24450 layer_factory.hpp:77] Creating layer SCNN_U_4
I0313 11:41:13.928252 24450 net.cpp:86] Creating Layer SCNN_U_4
I0313 11:41:13.928259 24450 net.cpp:408] SCNN_U_4 <- SCNN_U_4_SCNN_U_5/sum_0_split_0
I0313 11:41:13.928269 24450 net.cpp:382] SCNN_U_4 -> SCNN_U_4/message
I0313 11:41:13.929741 24450 net.cpp:124] Setting up SCNN_U_4
I0313 11:41:13.929760 24450 net.cpp:131] Top shape: 1 64 1 80 (5120)
I0313 11:41:13.929765 24450 net.cpp:139] Memory required for data: 329482240
I0313 11:41:13.929771 24450 net.cpp:467] Sharing parameters 'SCNN_U_w' owned by layer 'SCNN_U_60', param index 0
I0313 11:41:13.929777 24450 layer_factory.hpp:77] Creating layer SCNN_U_4/relu
I0313 11:41:13.929785 24450 net.cpp:86] Creating Layer SCNN_U_4/relu
I0313 11:41:13.929792 24450 net.cpp:408] SCNN_U_4/relu <- SCNN_U_4/message
I0313 11:41:13.929802 24450 net.cpp:369] SCNN_U_4/relu -> SCNN_U_4/message (in-place)
I0313 11:41:13.930346 24450 net.cpp:124] Setting up SCNN_U_4/relu
I0313 11:41:13.930362 24450 net.cpp:131] Top shape: 1 64 1 80 (5120)
I0313 11:41:13.930367 24450 net.cpp:139] Memory required for data: 329502720
I0313 11:41:13.930371 24450 layer_factory.hpp:77] Creating layer SCNN_U_4/sum
I0313 11:41:13.930378 24450 net.cpp:86] Creating Layer SCNN_U_4/sum
I0313 11:41:13.930388 24450 net.cpp:408] SCNN_U_4/sum <- SCNN_U_4/message
I0313 11:41:13.930400 24450 net.cpp:408] SCNN_U_4/sum <- SCNN_D_3_SCNN_D_2/sum_0_split_1
I0313 11:41:13.930408 24450 net.cpp:382] SCNN_U_4/sum -> SCNN_U_3
I0313 11:41:13.930464 24450 net.cpp:124] Setting up SCNN_U_4/sum
I0313 11:41:13.930475 24450 net.cpp:131] Top shape: 1 64 1 80 (5120)
I0313 11:41:13.930480 24450 net.cpp:139] Memory required for data: 329523200
I0313 11:41:13.930483 24450 layer_factory.hpp:77] Creating layer SCNN_U_3_SCNN_U_4/sum_0_split
I0313 11:41:13.930490 24450 net.cpp:86] Creating Layer SCNN_U_3_SCNN_U_4/sum_0_split
I0313 11:41:13.930497 24450 net.cpp:408] SCNN_U_3_SCNN_U_4/sum_0_split <- SCNN_U_3
I0313 11:41:13.930506 24450 net.cpp:382] SCNN_U_3_SCNN_U_4/sum_0_split -> SCNN_U_3_SCNN_U_4/sum_0_split_0
I0313 11:41:13.930517 24450 net.cpp:382] SCNN_U_3_SCNN_U_4/sum_0_split -> SCNN_U_3_SCNN_U_4/sum_0_split_1
I0313 11:41:13.930588 24450 net.cpp:124] Setting up SCNN_U_3_SCNN_U_4/sum_0_split
I0313 11:41:13.930596 24450 net.cpp:131] Top shape: 1 64 1 80 (5120)
I0313 11:41:13.930603 24450 net.cpp:131] Top shape: 1 64 1 80 (5120)
I0313 11:41:13.930606 24450 net.cpp:139] Memory required for data: 329564160
I0313 11:41:13.930610 24450 layer_factory.hpp:77] Creating layer SCNN_U_3
I0313 11:41:13.930620 24450 net.cpp:86] Creating Layer SCNN_U_3
I0313 11:41:13.930627 24450 net.cpp:408] SCNN_U_3 <- SCNN_U_3_SCNN_U_4/sum_0_split_0
I0313 11:41:13.930637 24450 net.cpp:382] SCNN_U_3 -> SCNN_U_3/message
I0313 11:41:13.934075 24450 net.cpp:124] Setting up SCNN_U_3
I0313 11:41:13.934113 24450 net.cpp:131] Top shape: 1 64 1 80 (5120)
I0313 11:41:13.934119 24450 net.cpp:139] Memory required for data: 329584640
I0313 11:41:13.934154 24450 net.cpp:467] Sharing parameters 'SCNN_U_w' owned by layer 'SCNN_U_60', param index 0
I0313 11:41:13.934162 24450 layer_factory.hpp:77] Creating layer SCNN_U_3/relu
I0313 11:41:13.934173 24450 net.cpp:86] Creating Layer SCNN_U_3/relu
I0313 11:41:13.934185 24450 net.cpp:408] SCNN_U_3/relu <- SCNN_U_3/message
I0313 11:41:13.934200 24450 net.cpp:369] SCNN_U_3/relu -> SCNN_U_3/message (in-place)
I0313 11:41:13.934428 24450 net.cpp:124] Setting up SCNN_U_3/relu
I0313 11:41:13.934439 24450 net.cpp:131] Top shape: 1 64 1 80 (5120)
I0313 11:41:13.934444 24450 net.cpp:139] Memory required for data: 329605120
I0313 11:41:13.934448 24450 layer_factory.hpp:77] Creating layer SCNN_U_3/sum
I0313 11:41:13.934455 24450 net.cpp:86] Creating Layer SCNN_U_3/sum
I0313 11:41:13.934463 24450 net.cpp:408] SCNN_U_3/sum <- SCNN_U_3/message
I0313 11:41:13.934475 24450 net.cpp:408] SCNN_U_3/sum <- SCNN_D_2_SCNN_D_1/sum_0_split_1
I0313 11:41:13.934484 24450 net.cpp:382] SCNN_U_3/sum -> SCNN_U_2
I0313 11:41:13.934545 24450 net.cpp:124] Setting up SCNN_U_3/sum
I0313 11:41:13.934556 24450 net.cpp:131] Top shape: 1 64 1 80 (5120)
I0313 11:41:13.934561 24450 net.cpp:139] Memory required for data: 329625600
I0313 11:41:13.934563 24450 layer_factory.hpp:77] Creating layer SCNN_U_2_SCNN_U_3/sum_0_split
I0313 11:41:13.934569 24450 net.cpp:86] Creating Layer SCNN_U_2_SCNN_U_3/sum_0_split
I0313 11:41:13.934577 24450 net.cpp:408] SCNN_U_2_SCNN_U_3/sum_0_split <- SCNN_U_2
I0313 11:41:13.934587 24450 net.cpp:382] SCNN_U_2_SCNN_U_3/sum_0_split -> SCNN_U_2_SCNN_U_3/sum_0_split_0
I0313 11:41:13.934597 24450 net.cpp:382] SCNN_U_2_SCNN_U_3/sum_0_split -> SCNN_U_2_SCNN_U_3/sum_0_split_1
I0313 11:41:13.934665 24450 net.cpp:124] Setting up SCNN_U_2_SCNN_U_3/sum_0_split
I0313 11:41:13.934675 24450 net.cpp:131] Top shape: 1 64 1 80 (5120)
I0313 11:41:13.934681 24450 net.cpp:131] Top shape: 1 64 1 80 (5120)
I0313 11:41:13.934685 24450 net.cpp:139] Memory required for data: 329666560
I0313 11:41:13.934689 24450 layer_factory.hpp:77] Creating layer SCNN_U_2
I0313 11:41:13.934700 24450 net.cpp:86] Creating Layer SCNN_U_2
I0313 11:41:13.934707 24450 net.cpp:408] SCNN_U_2 <- SCNN_U_2_SCNN_U_3/sum_0_split_0
I0313 11:41:13.934716 24450 net.cpp:382] SCNN_U_2 -> SCNN_U_2/message
I0313 11:41:13.936570 24450 net.cpp:124] Setting up SCNN_U_2
I0313 11:41:13.936594 24450 net.cpp:131] Top shape: 1 64 1 80 (5120)
I0313 11:41:13.936600 24450 net.cpp:139] Memory required for data: 329687040
I0313 11:41:13.936607 24450 net.cpp:467] Sharing parameters 'SCNN_U_w' owned by layer 'SCNN_U_60', param index 0
I0313 11:41:13.936612 24450 layer_factory.hpp:77] Creating layer SCNN_U_2/relu
I0313 11:41:13.936620 24450 net.cpp:86] Creating Layer SCNN_U_2/relu
I0313 11:41:13.936627 24450 net.cpp:408] SCNN_U_2/relu <- SCNN_U_2/message
I0313 11:41:13.936637 24450 net.cpp:369] SCNN_U_2/relu -> SCNN_U_2/message (in-place)
I0313 11:41:13.936854 24450 net.cpp:124] Setting up SCNN_U_2/relu
I0313 11:41:13.936866 24450 net.cpp:131] Top shape: 1 64 1 80 (5120)
I0313 11:41:13.936870 24450 net.cpp:139] Memory required for data: 329707520
I0313 11:41:13.936877 24450 layer_factory.hpp:77] Creating layer SCNN_U_2/sum
I0313 11:41:13.936883 24450 net.cpp:86] Creating Layer SCNN_U_2/sum
I0313 11:41:13.936892 24450 net.cpp:408] SCNN_U_2/sum <- SCNN_U_2/message
I0313 11:41:13.936902 24450 net.cpp:408] SCNN_U_2/sum <- slice1_1_Slice1_0_split_1
I0313 11:41:13.936909 24450 net.cpp:382] SCNN_U_2/sum -> SCNN_U_1
I0313 11:41:13.936966 24450 net.cpp:124] Setting up SCNN_U_2/sum
I0313 11:41:13.936977 24450 net.cpp:131] Top shape: 1 64 1 80 (5120)
I0313 11:41:13.936982 24450 net.cpp:139] Memory required for data: 329728000
I0313 11:41:13.936985 24450 layer_factory.hpp:77] Creating layer Concat1
I0313 11:41:13.936996 24450 net.cpp:86] Creating Layer Concat1
I0313 11:41:13.937005 24450 net.cpp:408] Concat1 <- SCNN_U_1
I0313 11:41:13.937013 24450 net.cpp:408] Concat1 <- SCNN_U_2_SCNN_U_3/sum_0_split_1
I0313 11:41:13.937022 24450 net.cpp:408] Concat1 <- SCNN_U_3_SCNN_U_4/sum_0_split_1
…
I0313 11:41:13.937332 24450 net.cpp:408] Concat1 <- SCNN_U_55_SCNN_U_56/sum_0_split_1
I0313 11:41:13.937337 24450 net.cpp:408] Concat1 <- SCNN_U_56_SCNN_U_57/sum_0_split_1
I0313 11:41:13.937342 24450 net.cpp:408] Concat1 <- SCNN_U_57_SCNN_U_58/sum_0_split_1
I0313 11:41:13.937348 24450 net.cpp:408] Concat1 <- SCNN_U_58_SCNN_U_59/sum_0_split_1
I0313 11:41:13.937355 24450 net.cpp:408] Concat1 <- SCNN_U_59_SCNN_U_60/sum_0_split_1
I0313 11:41:13.937361 24450 net.cpp:408] Concat1 <- SCNN_D_60_SCNN_D_59/sum_0_split_1
I0313 11:41:13.937372 24450 net.cpp:382] Concat1 -> SCNN_U
I0313 11:41:13.937430 24450 net.cpp:124] Setting up Concat1
I0313 11:41:13.937441 24450 net.cpp:131] Top shape: 1 64 60 80 (307200)
I0313 11:41:13.937446 24450 net.cpp:139] Memory required for data: 330956800
I0313 11:41:13.937449 24450 layer_factory.hpp:77] Creating layer conv6
I0313 11:41:13.937460 24450 net.cpp:86] Creating Layer conv6
I0313 11:41:13.937467 24450 net.cpp:408] conv6 <- SCNN_U
I0313 11:41:13.937477 24450 net.cpp:382] conv6 -> conv6
I0313 11:41:13.939039 24450 net.cpp:124] Setting up conv6
I0313 11:41:13.939062 24450 net.cpp:131] Top shape: 1 64 60 80 (307200)
I0313 11:41:13.939067 24450 net.cpp:139] Memory required for data: 332185600
I0313 11:41:13.939077 24450 layer_factory.hpp:77] Creating layer deconv_out
I0313 11:41:13.939090 24450 net.cpp:86] Creating Layer deconv_out
I0313 11:41:13.939100 24450 net.cpp:408] deconv_out <- conv6
I0313 11:41:13.939112 24450 net.cpp:382] deconv_out -> deconv_out
I0313 11:41:13.945029 24450 net.cpp:124] Setting up deconv_out
I0313 11:41:13.945070 24450 net.cpp:131] Top shape: 1 32 480 640 (9830400)
I0313 11:41:13.945075 24450 net.cpp:139] Memory required for data: 371507200
I0313 11:41:13.945086 24450 layer_factory.hpp:77] Creating layer conv_out
I0313 11:41:13.945104 24450 net.cpp:86] Creating Layer conv_out
I0313 11:41:13.945120 24450 net.cpp:408] conv_out <- deconv_out
I0313 11:41:13.945137 24450 net.cpp:382] conv_out -> conv_out
I0313 11:41:13.949604 24450 net.cpp:124] Setting up conv_out
I0313 11:41:13.949645 24450 net.cpp:131] Top shape: 1 13 480 640 (3993600)
I0313 11:41:13.949649 24450 net.cpp:139] Memory required for data: 387481600
I0313 11:41:13.949661 24450 layer_factory.hpp:77] Creating layer softmax
I0313 11:41:13.949671 24450 net.cpp:86] Creating Layer softmax
I0313 11:41:13.949687 24450 net.cpp:408] softmax <- conv_out
I0313 11:41:13.949702 24450 net.cpp:382] softmax -> softmax
I0313 11:41:13.950168 24450 net.cpp:124] Setting up softmax
I0313 11:41:13.950186 24450 net.cpp:131] Top shape: 1 13 480 640 (3993600)
I0313 11:41:13.950189 24450 net.cpp:139] Memory required for data: 403456000
I0313 11:41:13.950194 24450 net.cpp:202] softmax does not need backward computation.
I0313 11:41:13.950199 24450 net.cpp:202] conv_out does not need backward computation.
I0313 11:41:13.950202 24450 net.cpp:202] deconv_out does not need backward computation.
I0313 11:41:13.950207 24450 net.cpp:202] conv6 does not need backward computation.
…
